customized/model/trained_model/vae/vae_z_23batch_64_streamer_hn.pth (torch, 338976 bytes, 10 tensors)

fc1.weight f4 [256, 128]
-0.041135475 0.02779058 -0.022281354 -0.0648078 -0.04326318 -0.058149815 0.035741203 -0.029247157
-0.030871006 -0.024731755 -0.044604044 -0.009202835 -0.028371537 -0.06512444 -0.0044637793 -0.050017845
-0.033196498 -0.023505868 -0.023279168 -0.039206073 0.031351175 -0.05177216 0.0406791 -0.07941258
0.046404846 0.08267031 -0.006781625 0.041423373 -0.04812283 0.07679982 0.036723573 0.017592734
0.07443669 0.040061947 0.044796534 -0.013124687 0.031414602 -0.021604758 -0.047040954 0.036787715
0.059835408 0.05981822 0.06413882 0.035833325 -0.026007246 0.04361153 0.0109862285 -0.020648804
0.054497037 0.010916813 0.043789905 0.0017451494 0.09607866 -0.0036406456 -0.013621591 0.060001023
0.061361346 -0.046421435 -0.02370516 0.029496435 -0.06775828 -0.051748794 -0.009244768 0.012094498
-0.0024645263 0.030810753 0.041182723 -0.050603107 0.09828399 -0.0024008404 -0.0069969716 -0.07373904
-0.004027672 0.050994743 -0.04815051 0.077534735 -0.06463849 0.025984788 0.038370866 0.066597946
0.019218646 0.100231156 -0.0053421333 0.01517184 -0.02721863 0.056426708 -0.030220168 -0.042059332
-0.048586637 -0.014394804 0.016945897 0.028431842 -0.00932861 -0.042769633 0.022703066 0.0483852
0.06699011 0.04832498 0.07016619 0.03406224 -0.012964013 -0.022025866 -0.0058917375 0.027585655
0.008145863 0.060346115 -0.039805166 0.01387684 0.06627674 -0.030511295 -0.041871242 -0.047577217
-0.045382682 -0.051270757 -0.011676777 0.04837803 -0.026370065 0.004357273 0.008953704 0.04439283
-0.01489911 -0.08494253 0.055297974 -0.022259953 0.036817394 -0.05261837 0.10576028 0.020882644
-0.010554336 0.024104966 -0.03467926 0.039841563 -0.0670059 0.03539979 0.0054729376 0.014716982
-0.015123573 0.039054777 -0.06452064 -0.050877128 0.001493934 -0.015025419 0.07003272 0.010216913
-0.015242034 -0.028697018 -0.103743136 -0.075250156 0.076249525 0.042706948 0.013069847 -0.009064899
-0.032097306 -0.075474255 -0.063304126 0.0189397 -0.06158057 0.011492493 -0.03469227 -0.047187977
-0.035463516 0.103585556 -0.03368724 0.025990715 0.00081913127 0.061096303 0.026237609 0.038534217
-0.04497424 0.040249918 0.04235005 0.00077936077 0.03921926 0.020716086 0.012355301 -0.00943008
0.037022572 -0.033816647 0.0057653114 -0.040310588 0.016772065 -0.040431995 -0.031577658 0.08001782
-0.017940424 0.010054841 0.040624168 0.11313336 -0.04857108 -0.06752218 -0.0032114915 -0.02221969
0.04533204 0.02928301 0.04549907 0.041971345 0.05755158 -0.01592187 -0.07846005 -0.04079103
0.016847176 0.0076493965 -0.08444133 -0.019185625 -0.0358859 -0.030510768 -0.00813695 0.068765156
0.03843333 -0.01889465 -0.05962477 -0.0062575196 -0.05275114 -0.04232555 0.08184972 -0.037455797
-0.03727166 0.031102823 -0.008895004 0.0029374976 0.025069363 -0.02129391 -0.05722712 -0.008373348
-0.019317167 0.054771014 0.073909044 0.030646404 0.085110836 0.0014913834 -0.018613143 0.05637648
0.017170085 0.002445509 -0.013049766 0.028954962 0.022704912 0.02846172 0.0036400463 -0.034422137
0.052979562 -0.112677045 -0.03379303 0.03739663 0.033805154 -0.049210798 -0.009650851 0.045762688
-0.05218899 -0.08556912 -0.028492138 -0.007525312 -0.054277368 0.024597492 0.077828296 -0.09465257
00000000: ac7d 28bd 12a9 e33c 6387 b6bc f4b9 84bd
00000010: bb34 31bd 802e 6ebd 5e65 123d bc97 efbc
00000020: 31e5 fcbc 409a cabc bbb2 36bd 7dc7 16bc
00000030: 6d6b e8bc f65f 85bd e544 92bb 83df 4cbd
00000040: 0df9 07bd 618f c0bc f4b3 bebc 8c96 20bd
00000050: 176a 003d 0b0f 54bd 219f 263d 10a3 a2bd
00000060: 0213 3e3d 0d4f a93d 6538 debb 8eab 293d
00000070: 721c 45bd 3949 9d3d 756b 163d a31e 903c
00000080: 4372 983d ff17 243d 927c 373d ed08 57bc
00000090: 99ac 003d 76fc b0bc 04ae 40bd b7ae 163d
000000a0: f915 753d f303 753d 375b 833d f7c5 123d
000000b0: 260d d5bc 01a2 323d 95ff 333c ae27 a9bc
000000c0: 4938 5f3d 6fdc 323c 0b5d 333d 7fbd e43a
000000d0: e3c4 c43d e697 6ebb 182d 5fbc a2c3 753d
000000e0: 0956 7b3d 6724 3ebd 5331 c2bc 82a2 f13c
000000f0: dac4 8abd 8bf6 53bd 5e77 17bc 0028 463c
00000100: e483 21bb d566 fc3c 37af 283d 3445 4fbd
00000110: 1e49 c93d 6b57 1dbb da46 e5bb 7e04 97bd
00000120: 90fa 83bb dddf 503d 7839 45bd 88ca 9e3d
00000130: 2f61 84bd 0dde d43c c52a 1d3d 8164 883d
00000140: 6c70 9d3c fe45 cd3d 100d afbb 4f93 783c
00000150: 9bf9 debc b11f 673d 4990 f7bc 6846 2cbd
00000160: c802 47bd 2fd8 6bbc 1fd2 8a3c e5e9 e83c
00000170: 07d7 18bc 362f 2fbd c8fb b93c 8f2f 463d
00000180: 1c32 893d 6af0 453d 4bb3 8f3d d984 0b3d
00000190: 0367 54bc 976f b4bc 7a0f c1bb 50fb e13c
000001a0: 3a76 053c 7d2d 773d be0a 23bd af5b 633c
000001b0: 19bc 873d d3f2 f9bc 2e81 2bbd 54e0 42bd
000001c0: 31e3 39bd 4901 52bd f44f 3fbc 0b28 463d
000001d0: 0906 d8bc 75c7 8e3b 8eb2 123c 42d5 353d
000001e0: 661b 74bc 59f6 adbd 2180 623d 815a b6bc
000001f0: d6cd 163d 5c86 57bd d898 d83d 1412 ab3c
00000200: 18ec 2cbc c777 c53c d70b 0ebd e830 233d
00000210: 643a 89bd 5fff 103d 5456 b33b 7f1f 713c
00000220: ddc8 77bc e7f7 1f3d 6623 84bd 8964 50bd
00000230: 1bd0 c33a 2d2d 76bc 516d 8f3d d764 273c
00000240: b9b9 79bc 0216 ebbc 4877 d4bd c11c 9abd
00000250: b628 9c3d 7bed 2e3d e922 563c f184 14bc
00000260: 7778 03bd 3f92 9abd 98a5 81bd 6e27 9b3c
00000270: e83b 7cbd 024b 3c3c 7b19 0ebd 2e48 41bd
00000280: 3142 11bd aa24 d43d a2fb 09bd 7bea d43c
00000290: f8ba 563a 1e40 7a3d 41f0 d63c 0ed6 1d3d
000002a0: e936 38bd 19dd 243d 3f77 2d3d 044e 4c3a
000002b0: 60a4 203d c8b4 a93c e36d 4a3c 9f80 1abc
000002c0: fba4 173d 5383 0abd f0ea bc3b b71c 25bd
000002d0: 9265 893c 059c 25bd 9357 01bd 62e0 a33d
000002e0: ccf7 92bc 0fbd 243c 8765 263d 77b2 e73d
000002f0: 78f2 46bd 1249 8abd e377 52bb 1106 b6bc
00000300: 17ae 393d ece2 ef3c 3c5d 3a3d 25ea 2b3d
00000310: 35bb 6b3d 956e 82bc aaaf a0bd 7f14 27bd
00000320: 1703 8a3c caa7 fa3b 93ef acbd 2c2b 9dbc
00000330: 18fd 12bd b8f1 f9bc d850 05bc bfd4 8c3d
00000340: 446c 1d3d f4c8 9abc 1a39 74bd e10b cdbb
00000350: 9411 58bd 8e5d 2dbd d3a0 a73d 406b 19bd
00000360: 2baa 18bd 59cb fe3c 5abc 11bc 0883 403b
00000370: 445e cd3c 9170 aebc fc66 6abd 5e30 09bc
00000380: 093f 9ebc 9257 603d a05d 973d 2b0e fb3c
00000390: 974e ae3d 867a c33a 977a 98bc 06eb 663d
000003a0: 47a8 8c3c d544 203b b0ce 55bc f532 ed3c
000003b0: a7ff b93c 8e28 e93c d88d 6e3b 3afe 0cbd
000003c0: 1901 593d 39c3 e6bd 8f6a 0abd 352d 193d
000003d0: 4677 0a3d 4391 49bd 9a1e 1ebc a871 3b3d
000003e0: 1fc4 55bd dd3e afbd 5868 e9bc e496 f6bb
000003f0: f251 5ebd ae80 c93c 7164 9f3d 35d9 c1bd

fc1.bias f4 [256]
-0.04597879 -0.058018867 -0.16578983 -0.14455388 -0.10399468 0.0011309554 -0.12645926 -0.020940982
-0.112756886 -0.05729082 -0.099072106 -0.047146033 -0.17222436 -0.050557528 -0.033674557 -0.08808269
-0.0070283003 -0.068841346 -0.06095216 -0.056828655 -0.09191766 0.02589436 -0.039099023 -0.163233
-0.1520194 -0.10029809 -0.09811504 -0.097027324 -0.11080841 -0.103019066 -0.10572908 -0.16509344
-0.093383655 -0.11477614 -0.037590448 -0.13626863 0.004225578 -0.034609377 -0.06442035 -0.13004115
-0.066196516 -0.035258673 -0.14051077 -0.15519199 -0.072542585 -0.048531596 -0.1402365 -0.116007775
-0.072680876 -0.0040770536 -0.049850192 -0.14172591 -0.081837125 -0.121124744 -0.0046965946 -0.11740541
-0.02291758 -0.09901916 0.012866251 -0.073977895 -0.1314944 -0.120246224 0.013282538 -0.023848722
-0.036635183 -0.13336901 -0.12357874 -0.12564586 -0.09631377 0.02201777 -0.059430104 -0.13188545
-0.12451964 -0.1355909 -0.117058285 -0.08878853 -0.0383486 -0.0414102 -0.029571109 -0.17004305
-0.13693422 -0.11143181 -0.09379518 -0.094556496 -0.07037291 -0.026653023 -0.06852522 -0.025302982
-0.101945795 0.0001300075 -0.11180931 -0.018363656 -0.059919138 -0.13237126 -0.0876494 -0.22116855
-0.12223917 -0.17999734 0.015314411 -0.15612158 -0.07147041 -0.08329693 -0.12707318 -0.11199688
-0.06823848 -0.097700156 -0.097242676 -0.08967286 -0.11128509 -0.09089069 -0.057680648 -0.14372252
-0.02586053 -0.023793496 -0.06030633 -0.04587622 -0.1434365 -0.12906674 -0.1482596 -0.08473923
-0.031572167 -0.043231502 -0.08332283 -0.10219669 -0.05382132 -0.097143 -0.16949914 -0.05275872
-0.11056178 -0.06662177 -0.10573793 -0.13143247 -0.17431809 -0.11515726 -0.10686786 -0.11820187
-0.054629385 -0.10900327 -0.09684434 -0.023427546 -0.10689896 -0.064269975 -0.13553853 -0.10343314
-0.15592982 -0.122579515 -0.16685551 -0.12387518 -0.14017686 -0.081400044 -0.09676407 -0.10519466
-0.068774775 -0.07025558 -0.12438296 -0.015762527 -0.07300288 -0.061469685 -0.012857893 -0.060442243
-0.031853303 0.0019340584 -0.15932968 -0.018813185 -0.122280486 -0.048205715 -0.06367216 -0.15307267
-0.06254656 -0.15488605 -0.115922906 -0.049975585 -0.030465292 -0.05649609 -0.16572018 -0.16258852
-0.07223928 -0.10386584 -0.13752165 -0.011020112 -0.118079245 0.005648405 -0.15097666 -0.084866755
-0.041621998 -0.14538182 -0.10691518 -0.14468971 -0.010000007 -0.12947063 -0.029454533 -0.05387666
-0.102042526 -0.08869799 -0.1485304 0.014569656 -0.029705841 -0.10078827 -0.15395327 -0.011255248
-0.14194977 -0.12999934 -0.092813544 -0.043793168 -0.051291637 -0.014503224 -0.04209969 -0.13364986
-0.04795395 -0.1615642 -0.030441869 -0.06240136 0.0001997254 -0.038294345 -0.11159316 -0.049311664
-0.10685601 -0.07587404 -0.13519835 -0.04396701 -0.08331433 -0.15890743 -0.0076297517 -0.03334682
-0.11376885 -0.091926835 -0.030431397 -0.1687196 -0.09892314 -0.06179439 -0.13444895 -0.09380546
-0.1531494 -0.009310631 -0.1583129 -0.12914242 -0.078794874 -0.03602879 -0.06683319 -0.1458835
-0.030598052 -0.056380004 -0.009409897 -0.11879601 -0.07662416 -0.12979357 -0.0085628405 -0.11294408
-0.02581936 -0.010830846 -0.09428542 -0.027482137 -0.17816854 -0.07112188 -0.08287041 -0.14800923
00000000: 4154 3cbd 31a5 6dbd cfc4 29be ef05 14be
00000010: 2afb d4bd 913c 943a 897e 01be 6c8c abbc
00000020: 15ed e6bd c7a9 6abd 51e6 cabd 331c 41bd
00000030: 955b 30be 6915 4fbd 55ee 09bd b364 b4bd
00000040: a84d e6bb b1fc 8cbd f9a8 79bd 2ac5 68bd
00000050: 533f bcbd 6920 d43c 4c26 20bd 8d26 27be
00000060: f9aa 1bbe 1669 cdbd 8af0 c8bd 43b6 c6bd
00000070: 85ef e2bd a9fb d2bd 7d88 d8bd 410e 29be
00000080: ee3f bfbd c10f ebbd 71f8 19bd 018a 0bbe
00000090: b876 8a3b 90c2 0dbd d1ee 83bd 8229 05be
000000a0: 0a92 87bd 666b 10bd 0ee2 0fbe a6ea 1ebe
000000b0: 3591 94bd 11c9 46bd 289a 0fbe 7c95 edbd
000000c0: b6d9 94bd ce98 85bb b72f 4cbd 9920 11be
000000d0: 399a a7bd 4010 f8bd e4e5 99bb 3f72 f0bd
000000e0: a6bd bbbc 8fca cabd f8cc 523c b981 97bd
000000f0: 78a6 06be a743 f6bd 019f 593c 655e c3bc
00000100: c60e 16bd e391 08be da16 fdbd 4fa9 00be
00000110: 2740 c5bd 9c5e b43c fb6c 73bd fb0c 07be
00000120: 2704 ffbd 57d8 0abe 41bc efbd c3d6 b5bd
00000130: 6c13 1dbd be9d 29bd 1c3f f2bc c41f 2ebe
00000140: 7c38 0cbe 5c36 e4bd b017 c0bd d6a6 c1bd
00000150: ac1f 90bd 7157 dabc f356 8cbd 3348 cfbc
00000160: f5c8 d0bd 9f52 0839 48fc e4bd 616f 96bc
00000170: c56d 75bd 558c 07be 8781 b3bd 027a 62be
00000180: 8858 fabd 3951 38be 4ce9 7a3c 56de 1fbe
00000190: 145f 92bd 9597 aabd 791f 02be 9f5e e5bd
000001a0: 9ec0 8bbd 0517 c8bd 2b27 c7bd 68a6 b7bd
000001b0: 70e9 e3bd e624 babd 8b42 6cbd ff2b 13be
000001c0: 76d9 d3bc 94ea c2bc c503 77bd b4e8 3bbd
000001d0: 05e1 12be 122a 04be 5dd1 17be c38b adbd
000001e0: d151 01bd 8413 31bd 29a5 aabd 804c d1bd
000001f0: bf73 5cbd e9f2 c6bd 2f91 2dbe 8719 58bd
00000200: 376e e2bd ff70 88bd 218d d8bd 3c96 06be
00000210: 7180 32be 92d7 ebbd 89dd dabd d213 f2bd
00000220: 10c3 5fbd 1b3d dfbd 5356 c6bd 20eb bfbc
00000230: d8ed dabd fa9f 83bd 9dca 0abe c1d4 d3bd
00000240: 11ac 1fbe f80a fbbd 2cdc 2abe 45b2 fdbd
00000250: 868a 0fbe 11b5 a6bd 3e2c c6bd 4c70 d7bd
00000260: cad9 8cbd 28e2 8fbd 7ebc febd 6a20 81bc
00000270: 8982 95bd a3c7 7bbd e9a9 52bc 4992 77bd
00000280: 9c78 02bd 3b80 fd3a 5227 23be 1c1e 9abc
00000290: 316e fabd 5b73 45bd 8d66 82bd 15bf 1cbe
000002a0: 6918 80bd 739a 1ebe fd68 edbd 33b3 4cbd
000002b0: 5992 f9bc 7268 67bd 8db2 29be 9b7d 26be
000002c0: 30f2 93bd 9db7 d4bd 7ad2 0cbe b38d 34bc
000002d0: 88d3 f1bd 4116 b93b a099 1abe 9fce adbd
000002e0: d47b 2abd f9de 14be 59f6 dabd 8a29 14be
000002f0: 12d7 23bc f393 04be a24a f1bc c6ad 5cbd
00000300: acfb d0bd 4ba7 b5bd 5a18 18be 91b5 6e3c
00000310: aa59 f3bc 156a cebd eda5 1dbe ef67 38bc
00000320: 485b 11be 8c1e 05be 0715 bebd 7760 33bd
00000330: 2e17 52bd ee9e 6dbc b970 2cbd 82db 08be
00000340: 5c6b 44bd 1671 25be 3a61 f9bc 9298 7fbd
00000350: 616d 5139 88da 1cbd f48a e4bd 07fb 49bd
00000360: 53d7 dabd d963 9bbd 7071 0abe c016 34bd
00000370: b4a0 aabd a1b8 22be ff02 fabb ad96 08bd
00000380: a5ff e8bd 2344 bcbd 444b f9bc d5c4 2cbe
00000390: 3798 cabd 1d1c 7dbd fcac 09be 141d c0bd
000003a0: 32d3 1cbe 9e8b 18bc c71c 22be e93d 04be
000003b0: 355f a1bd ed92 13bd d7df 88bd 7c62 15be
000003c0: c4a8 fabc b8ee 66bd f82b 1abc 534b f3bd
000003d0: 21ed 9cbd 9be8 04be 284b 0cbc 3a4f e7bd
000003e0: 1f83 d3bc dc73 31bc b718 c1bd 3822 e1bc
000003f0: d071 36be 59a8 91bd f6b7 a9bd bb8f 17be

fc2.weight f4 [23, 256]
0.00014059084 -0.00013678486 -0.016338933 -0.0024027647 -0.0064874836 0.026752694 -0.011448936 -7.766098e-05
0.010047942 0.0042980574 -0.00081565435 -0.0006170207 -0.009260781 -0.0054787 -0.00086883974 -0.00036774555
-0.0057811155 0.0020512727 0.020396985 -2.5102416e-05 0.0011265407 0.00036694095 -0.0013745746 0.01343413
0.0025004558 0.011055931 0.004220616 0.0018396699 0.006920651 -7.522321e-05 0.014276692 0.006272878
1.02503245e-05 0.022463394 -0.0024169488 -0.005802544 0.0020884275 0.008313917 -0.006269419 -0.0029058596
-0.0017222784 -0.0042155464 -0.00017696632 0.026993072 0.0016372481 0.0038793858 -0.012627228 0.004605967
-0.03757816 -0.0015805266 0.0031684365 0.0046527595 0.007928506 -0.03261262 -0.00019448555 0.017960716
0.009692605 -0.005466983 0.0018150787 0.008498148 -0.028329294 0.0022825517 0.002049836 -0.0009752275
0.004128023 -0.0025061376 -0.004858853 0.0026709198 0.010872984 0.0018397598 -0.0021438969 -0.0039129937
0.013646708 -0.0194743 -0.009506189 -0.0010942537 0.0031716723 0.0028995792 0.00074099837 -0.0005153841
0.004318216 -0.013861318 0.011364448 0.030973263 -0.00030756634 -0.0031822901 -0.014220014 -4.072245e-05
0.0056319167 0.009806701 0.0012924932 -0.018324684 -0.00842048 -0.002410176 0.0005382681 -0.0074088215
0.00062073016 0.005969503 -0.00038585384 0.005080814 -0.012611467 0.031202866 -0.0045565725 -0.008411767
0.001933193 0.019664166 -0.0053477855 0.00036499658 -0.0029758902 0.017080441 0.00049182685 0.018604223
-0.0014759601 -0.00022507482 -0.003666424 0.006657374 0.0063796383 0.025523834 0.009173228 0.017062278
-0.011656175 -0.0024212012 0.006263935 -0.008555921 -0.023237078 -0.026296997 1.1718941e-05 -0.0006079858
0.03494805 0.005964723 -0.0010013412 0.010087955 0.0060243295 0.03884022 -0.00048887264 0.0032790469
-0.0024989124 -0.0014622589 0.00039860592 -0.00048690225 0.03470622 0.001018573 0.0019317134 -0.0035057985
0.00024441688 0.004822877 0.00026761412 -0.00976765 0.02603173 0.0018980224 -0.025849046 -0.0029586423
-0.0008718246 0.009577116 -0.039140593 0.003107089 0.009531165 -0.0017323468 1.2904426e-05 0.0010612071
-0.0016526399 0.0044119847 0.0036159903 -0.015088691 0.00421679 0.0010914442 -0.029178109 -0.0006622662
0.0111003 0.0026024894 0.010345513 -0.008873771 -0.0011913893 -0.0019566305 -0.0019569008 -0.00015978952
0.0060264715 -0.0030440604 -0.02141002 0.00053123984 -0.0058635515 0.0035128554 0.034832522 0.008630444
0.0028273943 0.0010757503 -0.0011107118 0.013332743 -0.005500081 -0.017359529 -0.0017964689 -0.004253989
-0.01257497 0.00592657 -0.013633244 0.0015701934 0.0070409225 0.0042855744 0.014344767 -3.6012658e-05
0.005506236 0.0063880067 0.039004672 -0.0024329082 0.005493555 0.00024779435 0.008487538 -0.030560127
-0.0027048134 -0.019670848 -0.002613849 0.0008990386 -0.0010371875 0.0061586853 -0.0029245908 0.0011445532
0.018995684 0.017463325 0.00760891 0.002547315 0.0024768312 0.0071264203 0.014301329 -0.0052934145
-0.0042965426 -0.0031940069 0.0020299202 0.019262781 -0.008868725 -0.0043524527 0.0037715426 -0.0015666937
4.8492857e-05 -0.0003480273 -0.01214684 -0.0005855858 -0.02067547 0.0018760462 -0.012481787 -0.030698296
0.0013777663 -0.012078754 0.0042553563 0.0021519857 -0.02555423 -0.0003882169 -0.0031475963 -0.031101381
0.0006221101 -0.0030253904 -0.0031579752 0.002565345 -0.0038145843 -0.019869989 0.0024165595 0.00014982357
00000000: 916b 1339 e86d 0fb9 3ad9 85bc b477 1dbb
00000010: f594 d4bb 7728 db3c 5194 3bbc ecdd a2b8
00000020: 20a0 243c b8d6 8c3b a3d1 55ba 8fbf 21ba
00000030: 88ba 17bc ab86 b3bb d9c2 63ba f9cd c0b9
00000040: 836f bdbb a56e 063b 9417 a73c 0793 d2b7
00000050: 6fa8 933a fb61 c039 122b b4ba d31a 5c3c
00000060: b0de 233b f023 353c 184d 8a3b 1421 f13a
00000070: a1c6 e23b 27c1 9db8 c9e8 693c b78c cd3b
00000080: cff8 2b37 2705 b83c ac65 1ebb 4423 bebb
00000090: 00de 083b 1837 083c b36f cdbb 3c70 3ebb
000000a0: 13be e1ba 9122 8abb 0990 39b9 9320 dd3c
000000b0: ee98 d63a 4b3d 7e3b 6fe2 4ebc a7ed 963b
000000c0: 8feb 19bd ac29 cfba 8ba5 4f3b 2d76 983b
000000d0: 90e6 013c d094 05bd d1ee 4bb9 5a22 933c
000000e0: bbcd 1e3c 6124 b3bb efe7 ed3a d13b 0b3c
000000f0: d612 e8bc dd96 153b 8b56 063b 69a6 7fba
00000100: 5e44 873b 033e 24bb 0337 9fbb 990a 2f3b
00000110: 9a24 323c 1824 f13a 9f80 0cbb 9238 80bb
00000120: 7196 5f3c 9188 9fbc d9bf 1bbc 106d 8fba
00000130: d5db 4f3b de06 3e3b 8f3f 423a d71a 07ba
00000140: d27f 8d3b 951a 63bc f331 3a3c a4bb fd3c
00000150: db40 a1b9 f88d 50bb 10fb 68bc 66cd 2ab8
00000160: f18b b83b 49ac 203c e068 a93a a61d 96bc
00000170: 0ef6 09bc 0bf4 1dbb 901a 0d3a b3c5 f2bb
00000180: 7fb8 223a d29b c33b 6d4c cab9 f57c a63b
00000190: 54a0 4ebc 279d ff3c 4d4f 95bb 82d1 09bc
000001a0: 3163 fd3a bf16 a13c 7a3c afbb 035d bf39
000001b0: 2707 43bb 48ec 8b3c f1ed 003a e267 983c
000001c0: 0175 c1ba 1002 6cb9 6348 70bb 1a26 da3b
000001d0: 490c d13b 5c17 d13c 4f4b 163c 31c6 8b3c
000001e0: 8bf9 3ebc 04ad 1ebb b241 cd3b 222e 0cbc
000001f0: af5b bebc cd6c d7bc 789c 4437 3d61 1fba
00000200: b025 0f3d b973 c33b 6f3f 83ba f347 253c
00000210: bd67 c53b ec16 1f3d b027 00ba 47e5 563b
00000220: cbc4 23bb 44a9 bfba fbfb d039 ea46 ffb9
00000230: 1c28 0e3d a381 853a 8c31 fd3a 8ac1 65bb
00000240: 1425 8039 3909 9e3b 8f4e 8c39 7e08 20bc
00000250: 7f40 d53c 10c7 f83a 61c1 d3bc c8e5 41bb
00000260: 298b 64ba 56e9 1c3c e351 20bd 4ea0 4b3b
00000270: 9a28 1c3c ea0f e3ba 1680 5837 3418 8b3a
00000280: 659d d8ba 6992 903b 40fa 6c3b 8f36 77bc
00000290: 002d 8a3b ca0e 8f3a ee06 efbc ef9b 2dba
000002a0: 08de 353c 878e 2a3b 3a80 293c 4b63 11bc
000002b0: 6428 9cba d03a 00bb 593f 00bb 2c8d 27b9
000002c0: b579 c53b dc7e 47bb 1164 afbc e742 0b3a
000002d0: 0923 c0bb ef37 663b 8cac 0e3d b566 0d3c
000002e0: ce4b 393b 3100 8d3a 4e95 91ba 9471 5a3c
000002f0: 063a b4bb 9235 8ebc 7e77 ebba 0c65 8bbb
00000300: 3f07 4ebc ac33 c23b f85d 5fbc f3ce cd3a
00000310: 8ab7 e63b 016e 8c3b 5006 6b3c 4c0c 17b8
00000320: a86d b43b 7c52 d13b 5dc3 1f3d 6d71 1fbb
00000330: 4803 b43b 65ea 8139 510f 0b3c 3b59 fabc
00000340: 3d43 31bb c224 a1bc 1c4d 2bbb 76ad 6b3a
00000350: 3df2 87ba ccce c93b 7eaa 3fbb d504 963a
00000360: d69c 9b3c 3f0f 8f3c 2a54 f93b dbf0 263b
00000370: 5552 223b bf84 e93b 1f50 6a3c 6174 adbb
00000380: 03ca 8cbb 8b52 51bb 6908 053b fbcc 9d3c
00000390: 214e 11bc 059f 8ebb fc2b 773b 8459 cdba
000003a0: cf64 4b38 6f77 b6b9 8a03 47bc ff81 19ba
000003b0: 9a5f a9bc aae5 f53a 6980 4cbc fe7a fbbc
000003c0: 2a96 b43a f7e5 45bc 8470 8b3b 5408 0d3b
000003d0: 1b57 d1bc 9789 cbb9 e747 4ebb 53c8 febc
000003e0: 1a15 233a a145 46bb 08f6 4ebb 591f 283b
000003f0: 1bfe 79bb 63c6 a2bc 245f 1e3b f519 1d39

fc2.bias f4 [23]
-6.5514025e-05 -8.329657e-06 -1.1992938e-05 0.00021761055 -9.499567e-05 -4.091654e-06 -9.58351e-05 -1.8656447e-05
2.7398673e-05 -0.00016660133 -2.242514e-05 -6.194036e-05 9.3345276e-05 -2.5185778e-05 -1.6406919e-05 -5.369459e-05
1.7120457e-05 -6.515124e-05 5.6164517e-05 -0.00010175985 2.6491318e-05 4.7820777e-05 -6.768115e-05
00000000: 9364 89b8 9bbf 0bb7 4735 49b7 632e 6439
00000010: 6938 c7b8 0a4b 89b6 14fb c8b8 6a80 9cb7
00000020: 34d6 e537 b4b1 2eb9 9f1d bcb7 fae5 81b8
00000030: 5dc2 c338 0c46 d3b7 97a1 89b7 2136 61b8
00000040: e79d 8f37 cea1 88b8 3192 6b38 e767 d5b8
00000050: ac39 de37 2b93 4838 0af0 8db8

fc3.weight f4 [23, 256]
-0.0015124289 0.0013952543 0.00050331093 0.0026333288 0.00085652183 0.011376769 0.0042594727 -0.0008760517
0.0030803606 -0.025419297 -8.02403e-05 -0.00027953656 0.028681805 -0.0001560774 0.0016457686 0.0054410957
-0.0029493202 0.0040184995 -0.004803701 0.000116342126 -0.004625368 0.0012550408 -0.0010517007 -0.016091555
-0.0035223556 0.007164717 -0.0021523298 -0.004025209 -0.0010781852 -0.001599778 -0.0015388908 -0.000722855
0.0011762172 0.016796904 -4.19798e-05 -0.015648738 0.00097032305 -0.00446609 0.000867041 -0.0029713344
0.006532353 -9.001038e-05 -0.002999863 -0.0042260485 0.0013029908 -0.0014949689 0.0038628564 0.00012431193
0.012885089 0.00094080874 0.0006349515 0.0035131886 -0.0018877703 -0.04079575 2.416478e-05 -0.006526249
-0.0039040532 -0.0048379297 0.00056192605 0.020656144 0.00890311 -7.5092095e-05 0.002608428 -0.00026440193
0.0012740055 -0.00048827662 -0.003591083 -0.0020197616 0.0003538055 0.0019854547 -0.0014312308 5.6567176e-05
-0.0005681625 0.010094205 0.013374031 0.0068380367 0.0002546575 0.0005308538 -0.0031284334 -0.0042908275
0.0015928408 0.008111949 0.0009220342 0.010589859 0.0005566304 0.00089362956 -0.0075277407 0.0015333269
0.006811183 0.007003718 0.0013764801 0.004004516 0.0025000996 -0.002254267 0.0011039174 -0.0024925757
0.0010263356 0.0011806354 0.00013249702 -0.009855901 0.017062968 0.027184974 -0.023703435 -0.0021077853
-0.00046410348 -0.00744445 -0.013679117 0.0017171834 0.00036204097 0.0053619985 0.0014705942 0.00435692
0.0022660636 -0.0034535483 0.00055836956 -0.008959671 -0.0009352539 -0.027979925 0.009253465 0.012863624
-0.005987424 -0.0007510888 7.078931e-05 0.022079997 -0.0020599563 0.0040201023 2.7048136e-05 0.0010594313
-0.01152413 0.0017977678 -0.0006896517 0.0070084212 -0.00040240964 -0.0043143234 -0.00012553275 0.0044917557
-0.00019601709 -0.0008113592 0.00094803114 0.0013635795 0.009313917 0.00021777989 0.0018701515 0.0017283296
-0.003978349 0.0004870493 0.0022521082 -0.0031285991 0.011198701 -0.0035016153 0.012045031 -0.003659721
-0.0035913698 0.0032471975 0.016586412 0.000112196845 -0.016274443 -0.0027794987 0.0031789555 0.013228864
-0.009142404 0.0016537509 -0.0050278963 0.0050063157 -2.9150859e-05 0.0004631626 -0.016323395 0.0010159862
-0.02818794 0.00041731447 -0.010025187 -0.0007350134 -0.0009346556 -0.0008822148 0.0018253411 0.0237495
-0.0092705805 -0.001366533 0.019969651 -0.00016679401 0.00072978856 0.0013172483 -0.030633213 0.015943855
0.002292494 0.00083523674 0.0011532623 -0.026256556 -0.00014821695 0.0055989837 0.006217251 -0.00036105342
-0.033767365 -0.0038144367 -0.04913914 -0.0016669446 9.922804e-05 -0.00010640181 -0.0005277457 -0.00016370494
2.651972e-05 -0.0003862579 0.03947016 -0.0011647124 0.0019544135 -0.0004019864 -0.0014446578 0.02061007
0.00010051133 0.0009239182 -5.383691e-05 -3.5075915e-05 -0.0007683894 -0.0014397401 -0.0020266732 -0.00089254265
-0.0011253862 -0.013870743 0.00905493 -0.0002571523 -0.00887785 -0.000951014 0.0024023838 -0.00085676607
7.4166725e-05 -0.0025538981 0.0009432096 -0.041296348 -0.0004730371 0.002633545 -0.024000563 0.0030104213
-0.00042193852 -0.0010227446 0.008736565 0.0019238426 0.018426789 0.0027649452 -0.013448868 -0.009830144
0.0003723417 0.007928034 0.0004954691 8.442357e-05 -0.010010182 0.00011806098 4.7762504e-05 -0.041185085
0.00036604062 0.0044436003 0.00862303 0.000602558 -0.030816032 -0.0066876053 0.008389218 0.010258086
00000000: b13c c6ba f7e0 b63a a0f0 033a ed93 2c3b
00000010: 3588 603a a165 3a3c 0c93 8b3b d6a6 65ba
00000020: e0df 493b 213c d0bc af46 a8b8 c38e 92b9
00000030: 1bf6 ea3c b5a8 23b9 d5b6 d73a 384b b23b
00000040: 6249 41bb 9ead 833b 5d68 9dbb b4fc f338
00000050: 6690 97bb 2e80 a43a 38d9 89ba 70d2 83bc
00000060: 52d7 66bb 01c6 ea3b 1a0e 0dbb e7e5 83bb
00000070: e451 8dba a4af d1ba 9bb4 c9ba fa7d 3dba
00000080: 4d2b 9a3a a999 893c 7813 30b8 c831 80bc
00000090: 475d 7e3a 4758 92bb 234a 633a b8ba 42bb
000000a0: 590d d63b f4c3 bcb8 5999 44bb aa7a 8abb
000000b0: 1ec9 aa3a d5f2 c3ba fa27 7d3b bb59 0239
000000c0: fb1b 533c 9ba0 763a e072 263a 863d 663b
000000d0: 0f6f f7ba 7219 27bd 78b5 ca37 25da d5bb
000000e0: 25db 7fbb 7f87 9ebb 384e 133a 1337 a93c
000000f0: 5ade 113c c37a 9db8 29f2 2a3b 6d9f 8ab9
00000100: 88fc a63a 61ff ffb9 6058 6bbb fa5d 04bb
00000110: f87e b939 671e 023b 2398 bbba 8b42 6d38
00000120: bdf0 14ba 2a62 253c c01e 5b3c 9c11 e03b
00000130: 8d83 8539 ff28 0b3a 6706 4dbb 129a 8cbb
00000140: dec6 d03a fbe7 043c abb4 713a 1781 2d3c
00000150: d5ea 113a 7742 6a3a 44ab f6bb eaf9 c83a
00000160: 5830 df3b 727f e53b 026b b43a 5138 833b
00000170: b6d8 233b 53bc 13bb 52b1 903a 7b5a 23bb
00000180: 1c86 863a 8dbf 9a3a e6ee 0a39 a57a 21bc
00000190: a3c7 8b3c 06b3 de3c b52d c2bc c522 0abb
000001a0: ea52 f3b9 93f0 f3bb 601e 60bc 1d13 e13a
000001b0: 51d0 bd39 b4b3 af3b f4c0 c03a 7ec4 8e3b
000001c0: 3d82 143b ed54 62bb 8c5f 123a 95cb 12bc
000001d0: d42b 75ba 2836 e5bc d89b 173c f3c1 523c
000001e0: 2732 c4bb b7e4 44ba b974 9438 1ce1 b43c
000001f0: 5500 07bb 10bb 833b 6ee5 e237 9edc 8a3a
00000200: b4cf 3cbc 14a3 eb3a bec9 34ba e6a6 e53b
00000210: 82fa d2b9 2b5f 8dbb 71a1 03b9 942f 933b
00000220: f089 4db9 65b1 54ba 4b85 783a 23ba b23a
00000230: 6699 183c d85b 6439 df1f f53a 1e89 e23a
00000240: cf5c 82bb a75a ff39 1b98 133b 2f09 4dbb
00000250: c27a 373c 5b7b 65bb 8658 453c eed7 6fbb
00000260: 305d 6bbb efce 543b 3ae0 873c 394b eb38
00000270: fb51 85bc 4028 36bb 0656 503b e1bd 583c
00000280: 06ca 15bc acc2 d83a 0dc1 a4bb 050c a43b
00000290: fe88 f4b7 a2d4 f239 a4b8 85bc d72a 853a
000002a0: 65ea e6bc 00cb da39 af40 24bc eaad 40ba
000002b0: ad03 75ba 6f44 67ba 4940 ef3a 508e c23c
000002c0: a2e3 17bc 3d1d b3ba 6597 a33c 6de5 2eb9
000002d0: 484f 3f3a 85a7 ac3a 81f2 fabc b09c 823c
000002e0: ab3d 163b caf3 5a3a 1029 973a fd17 d7bc
000002f0: af6a 1bb9 ae77 b73b 15ba cb3b c54b bdb9
00000300: a64f 0abd a1fb 79bb 1f46 49bd 617d daba
00000310: a618 d038 0924 dfb8 6a58 0aba 36a8 2bb9
00000320: aa76 de37 a882 cab9 76ab 213d 43a9 98ba
00000330: 9e15 003b b4c1 d2b9 ac5a bdba 73d6 a83c
00000340: 9cc9 d238 1a33 723a f1ce 61b8 7a1e 13b8
00000350: bd6d 49ba a9b5 bcba efd1 04bb 86f9 69ba
00000360: b281 93ba 1d42 63bc 215b 143c 66d2 86b9
00000370: 6774 11bc 784d 79ba 5071 1d3b 9998 60ba
00000380: f589 9b38 4d5f 27bb ba41 773a 5c26 29bd
00000390: f701 f8b9 8e97 2c3b d49c c4bc 7d4a 453b
000003a0: a137 ddb9 9d0d 86ba cf23 0f3c 7229 fc3a
000003b0: c7f3 963c 1534 353b a458 5cbc 9d0e 21bc
000003c0: db36 c339 96e4 013c 5ee2 013a 8f0c b138
000003d0: bf01 24bc 8297 f738 9954 4838 b1b1 28bd
000003e0: 24e9 bf39 9f9b 913b 9c47 0d3c fcf4 1d3a
000003f0: e771 fcbc b323 dbbb ee72 093c 8811 283c

fc3.bias f4 [23]
-2.1822434e-05 -4.617474e-05 0.00012365667 2.0979227e-05 0.00013451882 0.00012627097 -1.2340997e-05 4.840288e-05
3.076814e-05 -6.3671345e-05 0.00011617837 -5.7246947e-05 -8.3323655e-05 7.632474e-06 0.00011201546 -5.1891828e-05
2.2924885e-05 -1.8220693e-05 4.3123393e-05 1.1571505e-05 -6.86492e-05 -5.0840492e-05 1.8052686e-05
00000000: 520f b7b7 c0ab 41b8 d6a9 0139 8cfc af37
00000010: 9f0d 0d39 9b67 0439 2e0c 4fb7 3204 4b38
00000020: 0a0d 0138 4b87 85b8 caa4 f338 711c 70b8
00000030: 0cbe aeb8 3a0d 0037 d8e9 ea38 6da6 59b8
00000040: d14e c037 a4d8 98b7 64df 3438 3c23 4237
00000050: c2f7 8fb8 903d 55b8 d96f 9737

fc4.weight f4 [256, 23]
-0.008553895 0.00065898 -0.011870099 -0.0035023976 0.005588609 0.0017083503 0.0048413863 -0.00534529
-0.0075241155 0.0058763116 -0.0021851293 0.009653682 -0.00857578 0.003785804 0.007700044 -0.010875697
-0.00542144 0.011280013 0.0029061856 -0.0028097872 0.007571114 -0.008401027 -2.2762457e-05 -0.004637299
0.0077676224 -0.008414369 -0.01645113 0.003132978 0.013569698 0.013376387 0.0030417626 0.006088018
0.0015509395 -0.01990916 0.0077410373 0.009705434 0.010136649 -0.0033794185 0.0007325536 -0.003759047
0.0096008545 0.010999742 0.008908905 0.0015845506 0.007307377 0.00076739467 0.0064182566 0.0007339667
0.0018784475 0.0056990227 -0.0039525977 -0.0034419831 -0.0056666816 -0.0016311913 0.01564234 0.007178574
0.009894486 0.00949321 -0.009816813 0.0031054276 0.00067684613 -0.009229675 -0.009097152 -0.0074196663
-0.0062072165 0.004756467 0.0030669803 0.0067669693 -0.0023743887 -0.0063575814 0.016970262 -0.0036643993
-0.007115935 0.014241934 0.008283963 0.006973333 0.005105368 0.008715159 0.0012398373 -0.01767198
0.016942931 0.012352734 -0.006106696 0.0006213865 -0.010525052 -0.006674526 0.016881147 0.010317689
-0.00502995 0.0048405337 -3.7060036e-05 -0.007451644 -0.0019271726 0.004717817 4.874025e-05 0.0038983373
0.002851519 -0.0008454957 0.0024260606 0.0015329126 -0.0030523862 0.009073569 -0.0022891783 0.0024712638
0.00062659534 0.0070958217 0.009554328 -0.0055161063 -0.0034278634 0.0012814613 -0.009750824 0.0019044094
-0.003698796 -0.007968574 -0.0030177848 0.009006181 0.0034795047 0.005219381 0.010028551 -0.0109081585
-0.0137331225 -0.009070715 -0.0042604553 0.015047629 -0.0018033622 0.024634654 0.0041695684 -0.014056886
-0.0040850514 0.010049423 -0.0024899107 -0.0011655341 -0.0020645242 -0.0005972312 -0.0063440828 0.007964272
0.0077546043 0.0022554186 -0.0088020135 0.0036570078 -0.0040817666 0.008115754 0.006544417 -0.005644895
-0.0064504636 0.010578206 -0.0049944595 -0.0032082782 -0.0034676439 0.016130833 0.0011084037 -0.003469613
0.011121547 -0.008928259 -0.009551113 0.013854292 -0.00040079711 -0.0053585325 -0.003371645 -0.010047683
-0.001388478 0.002555094 0.008696496 0.0131603675 0.0025822762 0.009991126 0.009251923 1.6591413e-06
-0.0041834335 0.017017014 0.04016952 -0.00096954784 0.014552706 -0.0070352037 0.020912474 0.005502782
-0.015038183 -5.1986295e-05 -0.0038159657 -0.012246046 0.011653895 -0.008597715 0.012908985 -0.005119136
-0.012262712 0.0042397324 -0.019058041 -0.009131114 0.0070784315 0.0062341266 0.013537545 -0.00605254
-0.016155489 -0.0062814057 -0.019972961 -0.0053301486 0.00787885 -0.0035300571 -0.005711957 -0.00038152564
0.0009837851 0.009481893 0.005080807 -0.0024950681 -0.0030192665 -0.005370476 -0.0024721303 0.011926542
6.40368e-05 0.0016273732 0.011477008 -0.00064413296 0.006706048 -0.005768565 -0.002924489 0.0072533675
0.010567862 0.013363675 -0.0024009068 -0.006861052 -0.002552554 -0.001266046 -0.008447439 0.00084591535
-0.005798792 -0.006416895 -0.0012930032 -0.008151493 0.0077480357 -0.0005230631 0.004757927 -0.004340441
-0.007923029 0.00010677263 -0.006163228 -0.0004942093 0.0058918935 -0.0026302058 0.005371196 0.016079204
-0.0021552471 0.0107408995 0.011612237 0.0029734538 0.0014683725 -0.018413963 -0.0072772186 0.0025219999
-0.014310128 -0.00019118135 0.0020164931 0.002780982 0.008873672 0.005777962 -0.008939384 -0.0039358605
00000000: a325 0cbc 66bf 2c3a ce7a 42bc 7b88 65bb
00000010: a620 b73b b9ea df3a 7ea4 9e3b 8b27 afbb
00000020: db8c f6bb 138e c03b 6334 0fbb 7a2a 1e3c
00000030: 6e81 0cbc 401b 783b a750 fc3b fb2f 32bc
00000040: 56a6 b1bb cecf 383c b475 3e3b 6824 38bb
00000050: 1c17 f83b 76a4 09bc 01f2 beb7 7cf4 97bb
00000060: 8a87 fe3b 6cdc 09bc 85c4 86bc a652 4d3b
00000070: 7053 5e3c a228 5b3c 4f58 473b ff7d c73b
00000080: e548 cb3a 8918 a3bc 87a8 fd3b 8a03 1f3c
00000090: 3014 263c 3c79 5dbb d708 403a 585a 76bb
000000a0: e74c 1d3c 4338 343c a8f6 113c b2b0 cf3a
000000b0: b972 ef3b fc2a 493a 3d50 d23b ac67 403a
000000c0: 3d36 f63a debe ba3b cb84 81bb e592 61bb
000000d0: 92af b9bb b3cd d5ba 5d24 803c 3e3a eb3b
000000e0: 7b1c 223c 6989 1b3c b3d6 20bc 6e84 4b3b
000000f0: 606e 313a 1038 17bc 390c 15bc ac20 f3bb
00000100: e865 cbbb 23dc 9b3b 64ff 483b 74bd dd3b
00000110: a29b 1bbb 4253 d0bb 3805 8b3c 6b26 70bb
00000120: ca2c e9bb 0057 693c 76b9 073c 8f80 e43b
00000130: ee4a a73b 07ca 0e3c 0982 a23a d4c4 90bc
00000140: e7cb 8a3c 1f63 4a3c ae1a c8bb 8be4 223a
00000150: 4571 2cbc fbb5 dabb 554a 8a3c 860b 293c
00000160: 47d2 a4bb 579d 9e3b e970 1bb8 ec2c f4bb
00000170: 2f99 fcba eb97 9a3b 726e 4c38 3f7b 7f3b
00000180: 8de0 3a3b 42a4 5dba 8bfe 1e3b 03ec c83a
00000190: 8b0a 48bb 4fa9 143c 0a06 16bb edf4 213b
000001a0: 1a42 243a 1184 e83b c289 1c3c 74c0 b4bb
000001b0: 01a6 60bb b5f6 a73a ecc1 1fbc 609d f93a
000001c0: 8067 72bb 9f8e 02bc 07c6 45bb a98e 133c
000001d0: 6708 643b 5707 ab3b cb4e 243c 22b8 32bc
000001e0: e400 61bc 569d 14bc 4a9b 8bbb 558a 763c
000001f0: cb5e ecba 9dce c93c e0a0 883b da4e 66bc
00000200: e5db 85bb 56a6 243c c52d 23bb d6c4 98ba
00000210: f84c 07bb 828f 1cba 06e2 cfbb 947c 023c
00000220: 561a fe3b a5cf 133b 5236 10bc 69aa 6f3b
00000230: 57c0 85bb f1f7 043c 8c72 d63b d0f8 b8bb
00000240: 695e d3bb 3650 2d3c 90a8 a3bb fa41 52bb
00000250: 6941 63bb cf24 843c db47 913a 7262 63bb
00000260: 2637 363c d547 12bc 457c 1cbc 1dfd 623c
00000270: 1422 d2b9 a196 afbb d1f6 5cbb 099f 24bc
00000280: 97fd b5ba 5d73 273b bf7b 0e3c 959e 573c
00000290: 683b 293b d2b1 233c 6195 173c a9af de35
000002a0: 2f15 89bb 4467 8b3c cb88 243d 4129 7eba
000002b0: 796e 6e3c 9187 e6bb a350 ab3c ae50 b43b
000002c0: b662 76bc dc0b 5ab8 4815 7abb a4a3 48bc
000002d0: faef 3e3c 6edd 0cbc 3580 533c 6dbe a7bb
000002e0: 8be9 48bc 74ed 8a3b 9c1f 9cbc ab9a 15bc
000002f0: 30f2 e73b a547 cc3b 94cc 5d3c 6354 c6bb
00000300: 8458 84bc 40d4 cdbb 569e a3bc 87a8 aebb
00000310: 4b16 013c 8858 67bb 5e2b bbbb 8107 c8b9
00000320: 5af2 803a f159 1b3c e67c a63b 4c84 23bb
00000330: e3de 45bb d1fa afbb 7703 22bb 8b67 433c
00000340: 7f4b 8638 954d d53a 100a 3c3c 08db 28ba
00000350: 68be db3b 3b06 bdbb c9a8 3fbb a8ad ed3b
00000360: d324 2d3c 51f3 5a3c 8858 1dbb add2 e0bb
00000370: c048 27bb 74f1 a5ba 2167 0abc 6bc0 5d3a
00000380: cb03 bebb d144 d2bb fd79 a9ba d78d 05bc
00000390: 3ce3 fd3b 2c1e 09ba 62e8 9b3b 423a 8ebb
000003a0: 98cf 01bc 1feb df38 e7f4 c9bb d38d 01ba
000003b0: c910 c13b 885f 2cbb dc00 b03b 89b8 833c
000003c0: 0c3f 0dbb 99fa 2f3c 4141 3e3c 47de 423b
000003d0: 6876 c03a e1d8 96bc bc75 eebb 2348 253b
000003e0: 0775 6abc da77 48b9 2427 043b 2341 363b
000003f0: e162 113c 0f55 bd3b 7e76 12bc 64f8 80bb

fc4.bias f4 [256]
-0.0067101996 -0.0013208437 -0.002576934 -0.009663781 0.0034546899 -0.0035723296 -0.013592744 0.0010114656
0.0026583353 0.006109496 0.064118035 -0.00077229744 -0.010266316 0.0077142064 0.014707459 0.00046240434
-0.007878262 0.006056602 0.0019199576 0.0039572176 -0.053336173 0.0061539127 0.008868074 0.2073993
0.0032858585 0.007500713 0.0037033334 0.0097808065 -0.0014665463 0.0099216215 0.008398253 -0.005560532
0.0031363396 -0.0016504639 -0.0054924767 0.0053249775 0.0064073126 0.0028335722 -0.0017103266 0.011570991
-0.00097643596 0.00017630473 -0.0056734015 -0.006588003 -0.006524611 5.189149e-05 0.016984371 -0.0018761549
-0.0053217853 0.0065593547 0.0058592325 0.005868196 -0.06594339 -0.2894782 0.005224732 -0.005581532
0.0067496425 -0.0016213862 -0.008729702 0.003155994 -0.0077861515 0.0027756141 0.0006369288 -0.008876409
0.0014274811 -0.0021675918 -0.0013886346 0.009119024 0.005065152 0.0026664329 -0.0031797865 0.004809864
-0.006917912 0.009564839 -0.00074843474 0.001425041 0.0046235346 -0.42640692 -0.015028091 0.044847257
0.0004855003 0.0044894456 0.009801026 -0.0020624471 -0.0051017315 0.00028928946 0.0039410195 0.0023078606
-0.001215436 0.0103621995 0.0031908765 -0.0044110813 -0.36341652 0.0036113749 -0.010209099 0.0026811697
0.016260944 0.0056789955 -0.096760266 -0.010433106 0.003219542 -0.0009629439 2.181402e-05 0.007609841
-0.0013159672 -0.008007561 -0.00076811 0.009856036 0.0014470812 0.0069915485 -0.010757663 0.010934176
-0.011400208 0.0021024547 0.0033871147 0.0016007822 -0.0031192396 -0.0059640226 0.009157597 0.0065796394
-0.004448662 -0.0045137727 0.004602077 -0.008305069 -0.007197429 0.0065011666 0.00556224 0.0066408003
0.29307333 -0.008070447 0.0031826051 0.00089859543 0.0036006498 -0.016991727 0.009128891 -0.00030068101
0.009917458 -0.0029112846 -0.0026044445 -0.007268868 0.0025773589 0.0021815875 0.008060043 0.0012400893
-0.0037060915 0.005013425 -0.005649129 -0.2019655 0.0065511903 -0.007058439 0.016459225 0.00061814685
-0.0010979582 -0.0012309762 0.0054890066 0.0005695 -0.007100479 0.005372131 0.011879508 0.0009805519
-0.0050373087 -0.002922832 0.003967848 -0.0016360763 -0.0032187256 0.0015214633 -0.0035699108 -6.149845e-05
0.0024354008 0.2876751 0.00012855325 -0.0034892415 0.0107289 -0.002305791 -0.009872409 -0.0072138743
0.07556709 0.0062002065 -0.003915033 -0.011324902 -0.0013813947 -0.0021559913 -0.0076889386 0.0068946294
0.015759418 0.028948884 -0.18652695 -0.000520646 -0.0010357013 0.014295798 0.013834179 0.0049176775
0.0027196917 0.0091694165 -0.013147219 -0.0065448987 0.0052951397 0.010454104 -0.0062577757 0.001934113
0.00045214922 0.0098329 -0.32392275 -0.01504443 -0.011018312 -0.010179096 -0.30278617 0.0039105588
-0.0042583174 0.0030383088 -0.006365253 -0.0008692673 0.010325296 -0.29460827 0.0031001102 0.0044594146
0.0017936402 0.0037710224 -0.005832751 -0.00068497774 0.0033086622 -0.0024704067 0.002298555 -0.0011734591
0.0051877294 -0.0072030667 0.0049018436 0.009041579 0.01079712 0.001373036 0.00571338 -0.002629579
-0.003308733 0.0012301146 0.0046480987 -0.0004689337 0.002251832 -0.0026061528 -0.0016048544 -0.007520951
0.0057268543 0.00047842425 -0.009221735 -0.004191321 0.0008108838 0.0041982615 -0.0034832435 0.0069100787
0.00584438 -0.0068517416 -0.0028386526 -0.005430591 0.009952696 -0.007904281 0.0008295719 0.009177032
00000000: 3ce1 dbbb 2920 adba c7e1 28bb d654 1ebc
00000010: 1468 623b bf1d 6abb 1ab4 5ebc 2793 843a
00000020: 7737 2e3b 2b32 c83b 5150 833d 0174 4aba
00000030: 0d34 28bc 74c7 fc3b 8ef7 703c dc6e f239
00000040: d313 01bc 7676 c63b 16a7 fb3a 8cab 813b
00000050: 0877 5abd c3a6 c93b 664b 113c 7b60 543e
00000060: 8f57 573b 8bc8 f53b a0b3 723b ad3f 203c
00000070: 2139 c0ba 4c8e 223c d398 093c 2035 b6bb
00000080: 0c8b 4d3b 6154 d8ba 3cfa b3bb 267d ae3b
00000090: 6ff4 d13b 74b3 393b 0a2d e0ba 4194 3d3c
000000a0: 82f7 7fba 71de 3839 f1e7 b9bb 2de0 d7bb
000000b0: 67cc d5bb 10a6 5938 cf22 8b3c 50e9 f5ba
000000c0: 5f62 aebb dbef d63b cefe bf3b ff49 c03b
000000d0: 540d 87bd 7d36 94be 3b34 ab3b 49e5 b6bb
000000e0: 1b2c dd3b b184 d4ba 0607 0fbc cbd4 4e3b
000000f0: f922 ffbb 14e7 353b 91f7 263a 5c6e 11bc
00000100: 511a bb3a 280e 0ebb d802 b6ba f567 153c
00000110: 93f9 a53b 52bf 2e3b f763 50bb 109c 9d3b
00000120: a7af e2bb d8b5 1c3c 9b32 44ba 71c8 ba3a
00000130: 0581 973b 0252 dabe 6238 76bc c2b1 373d
00000140: bf8a fe39 331c 933b 7c94 203c 1f2a 07bb
00000150: 6d2c a7bb c6ab 9739 ab23 813b 7a3f 173b
00000160: 444f 9fba 37c6 293c 061e 513b d58a 90bb
00000170: bb11 babe d1ac 6c3b 1144 27bc 90b6 2f3b
00000180: ac35 853c de16 ba3b 3f2a c6bd 9eef 2abc
00000190: f4fe 523b 126e 7cba 40fd b637 f95b f93b
000001a0: 887c acba 2532 03bc fd5a 49ba 367b 213c
000001b0: fdab bd3a 5c19 e53b e940 30bc 4225 333c
000001c0: f0c7 3abc 56c9 093b 5bfa 5d3b 56d1 d13a
000001d0: 286c 4cbb d96d c3bb bf09 163c 049a d73b
000001e0: 15c6 91bb 45e8 93bb 05cd 963b fc11 08bc
000001f0: 69d8 ebbb bd07 d53b 7343 b63b 129b d93b
00000200: b50d 963e e839 04bc 4193 503b b88f 6b3a
00000210: e1f8 6b3b 3c32 8bbc 5891 153c b9a4 9db9
00000220: d57c 223c 40cb 3ebb 54af 2abb af2f eebb
00000230: e8e8 283b f7f8 0e3b 450e 043c 7e8a a23a
00000240: e6e1 72bb a847 a43b 541c b9bb 0bd0 4ebe
00000250: 5eab d63b 7a4a e7bb 7fd5 863c 220b 223a
00000260: 5de9 8fba b558 a1ba 20dd b33b 804a 153a
00000270: 23ab e8bb b308 b03b 45a2 423c dd85 803a
00000280: 0210 a5bb fc8c 3fbb b904 823b 9c71 d6ba
00000290: 41f1 52bb d66b c73a 2af5 69bb bbf8 80b8
000002a0: 3f9b 1f3b 274a 933e 40cc 0639 c2ab 64bb
000002b0: 45c8 2f3c c11c 17bb e2bf 21bc 5d62 ecbb
000002c0: ebc2 9a3d 1a2b cb3b ad49 80bb 158c 39bc
000002d0: ea0f b5ba 884b 0dbb 7ef3 fbbb 58ec e13b
000002e0: e519 813c 3626 ed3c ec00 3fbe f67b 08ba
000002f0: 5ec0 87ba ec38 6a3c c1a8 623c 7824 a13b
00000300: db3c 323b 523b 163c 6f67 57bc 9776 d6bb
00000310: da82 ad3b b147 2b3c 070e cdbb 1082 fd3a
00000320: 710e ed39 2c1a 213c 34d9 a5be ea7c 76bc
00000330: 2686 34bc 39c6 26bc ca06 9bbe 2524 803b
00000340: 5b89 8bbb 5d1e 473b 9d93 d0bb 8adf 63ba
00000350: 6e2b 293c e5d6 96be 382b 4b3b 4820 923b
00000360: 9418 eb3a 4223 773b a920 bfbb 1490 33ba
00000370: 24d6 583b 8ce6 21bb 5ba3 163b c1ce 99ba
00000380: d4fd a93b b407 ecbb a59f a03b 2223 143c
00000390: 67e6 303c 71f7 b33a 4e37 bb3b 0455 2cbb
000003a0: 54d7 58bb cc3b a13a 144f 983b 37db f5b9
000003b0: 7993 133b fdcb 2abb fa59 d2ba 4f72 f6bb
000003c0: 56a8 bb3b 04d5 fa39 c316 17bc 5957 89bb
000003d0: 7e91 543a 9291 893b 2147 64bb f16d e23b
000003e0: 3682 bf3b 9384 e0bb b008 3abb 19f3 b1bb
000003f0: a210 233c f580 01bc a177 593a 435b 163c

fc5.weight f4 [128, 256]
-0.0008695262 0.011433932 0.00022479885 -0.008944556 0.022236705 -0.005361773 0.0018570654 0.008377545
0.025456578 -0.002813826 0.003682102 0.001487273 0.005534617 0.009079915 0.008432694 0.002280559
-0.006736815 0.009995651 -0.012074585 0.0010496282 0.021700297 0.023652833 -0.018544283 0.020307962
0.014806489 0.0043889415 0.011559237 0.00022390217 0.0046510636 -0.02808043 -0.020636946 -0.0011895321
0.0003224487 0.0021392652 0.013365191 0.0204417 -0.0048747472 -0.0053478577 -0.011652073 0.035453923
0.0013848384 0.026944144 -0.01417528 -0.022639306 0.009202112 0.011149572 0.009721665 -0.022972943
0.00049023866 0.016174862 0.0019073286 0.0048231618 -0.008376536 0.013959309 -0.0027861423 -0.018150467
0.004279984 -0.0055367495 -0.021985043 -0.027466081 0.014090754 0.015494312 -0.00952757 0.000778385
-0.0011152305 -0.0012383803 -0.028672226 -0.007802546 0.0049208417 0.011287225 0.0054044384 -0.004306161
0.018064728 -0.016523546 0.020887518 -0.011845213 0.0047858492 -0.016961044 -0.0011803107 -0.009207671
0.0040027844 -0.01039321 -0.027377587 -0.0016768917 -0.00061579305 -0.02853843 0.0100786295 0.0011857165
-0.002681733 0.0011763897 0.010318835 -0.01242434 0.030982643 0.002168375 0.011906782 -0.031037407
-0.00674801 0.01417791 -0.021922063 -0.004553013 0.024560623 0.0077159475 0.021749092 -0.005183279
-0.024234032 0.005422266 0.0032285948 -0.0069242944 0.0002594492 -0.009281052 -0.0028984759 0.0056585926
-0.013648795 -0.0022163128 -0.01629077 0.013539246 -0.005180356 0.00096577604 0.031300142 0.01324572
0.0067627877 0.01021179 0.0045592873 0.013937451 0.0052865823 -0.0071435887 0.013723863 0.0056139426
-0.04123748 -0.008269312 0.020942705 0.009500124 0.008721557 -0.016662888 -0.00974898 -0.006261584
-0.004329959 -0.0061631533 0.008511363 -0.011731017 -0.00880855 0.005963145 0.0057692854 0.008851133
0.0063690427 0.017539706 -0.0006164712 0.0024143509 0.0023081372 0.029640375 0.013775893 0.013103928
0.0136655895 0.010063635 0.013809325 0.007088511 0.015458613 0.03077881 0.006453559 0.011709217
-0.007946406 -0.011310456 0.00866406 -0.0034000978 -0.014356071 0.007331453 0.028610747 -0.0069922497
-0.007860228 0.008727348 -0.002599931 -0.013908875 0.00059602037 0.009258625 0.0011982754 -0.007403044
-0.0047283703 -0.0077198534 0.008715546 -0.0015125916 -0.0015882512 -0.0069633806 -0.0010038433 -6.479795e-05
0.001774939 -0.015814096 0.0003264061 -0.0046457374 -0.03368605 0.004011023 -0.004450131 -0.015014018
0.009236563 0.010421264 -0.01871183 -0.005212428 0.035619404 0.015197196 -0.00019831621 -0.009084051
0.015372718 -0.0055319923 0.0010783278 0.004780547 0.016121455 0.029980319 -0.005190957 0.012718033
-0.028875764 -0.0061261686 0.0033846423 -0.0069821393 0.024341917 -0.0102599375 -0.011566354 0.033575077
-0.0034475971 0.0012969268 0.014072966 -0.003254859 -0.0019670904 0.0022899562 -0.00040876088 -0.005646035
0.0052207145 -0.012872626 0.030623095 0.03003931 -0.0016678965 -0.00576094 0.011133814 -0.0069572944
0.011884975 0.026436042 -0.011313467 -0.01030921 -0.0061484803 0.017260347 0.0016082976 -0.0035045403
-0.008327649 0.02221916 -0.021344686 0.00606885 -0.032763977 0.0058835098 -0.008616806 -0.0046963743
-0.01573909 -0.0015376545 -0.025296059 3.7251233e-05 0.0040378566 0.008759697 -0.00080915674 0.025391486
00000000: eaf0 63ba 6355 3b3c fbb7 6b39 308c 12bc
00000010: c029 b63c d0b1 afbb c668 f33a f841 093c
00000020: 508a d03c 2b68 38bb 6c4f 713b 9af0 c23a
00000030: bc5b b53b ecc3 143c 4829 0a3c 6e75 153b
00000040: 80c0 dcbb cdc4 233c 7bd4 45bc ae93 893a
00000050: d2c4 b13c 96c3 c13c 2eea 97bc e25c a63c
00000060: eb96 723c 1cd1 8f3b f462 3d3c 48c7 6a39
00000070: f367 983b ee08 e6bc d00e a9bc 13ea 9bba
00000080: 550e a939 ea32 0c3b adf9 5a3c 5a75 a73c
00000090: 58bc 9fbb 153d afbb 56e8 3ebc 2238 113d
000000a0: 7783 b53a f7b9 dc3c 6f3f 68bc 1176 b9bc
000000b0: 75c4 163c b2ac 363c 9e47 1f3c c131 bcbc
000000c0: 5c83 003a 2581 843c 54ff f93a 9d0b 9e3b
000000d0: bd3d 09bc 96b5 643c b697 36bb 4ab0 94bc
000000e0: 1c3f 8c3b 9f6d b5bb fa19 b4bc 8c00 e1bc
000000f0: e8dc 663c dbdb 7d3c 8619 1cbc 880c 4c3a
00000100: ed2c 92ba 2651 a2ba 04e2 eabc 80ac ffbb
00000110: 033f a13b 0eee 383c b717 b13b b21a 8dbb
00000120: 7bfc 933c 635c 87bc 4d1c ab3c 6d12 42bc
00000130: 9dd2 9c3b e3f1 8abc a8b4 9aba c5db 16bc
00000140: ca29 833b 4848 2abc f646 e0bc 26cb dbba
00000150: 2c6d 21ba 6dc9 e9bc d620 253c 0b6a 9b3a
00000160: 04c0 2fbb 1731 9a3a 5510 293c 758f 4bbc
00000170: 50cf fd3c 4c1b 0e3b aa14 433c 2942 febc
00000180: 691e ddbb 774a 683c e695 b3bc 7131 95bb
00000190: 5c33 c93c 0fd6 fc3b 272b b23c 7fd8 a9bb
000001a0: 7386 c6bc 44ad b13b d596 533b 31e5 e2bb
000001b0: af06 8839 8e0f 18bc 5bf4 3dbb b76b b93b
000001c0: 329f 5fbc 8f3f 11bb 3974 85bc b7d3 5d3c
000001d0: fabf a9bb 222c 7d3a 9434 003d 9404 593c
000001e0: 609a dd3b 5a4f 273c 1366 953b e859 643c
000001f0: 113b ad3b c414 eabb 0eda 603c 2af5 b73b
00000200: a2e8 28bd 027c 07bc 0990 ab3c 68a6 1b3c
00000210: dde4 0e3c 9c80 88bc 30ba 1fbc f92d cdbb
00000220: 54e2 8dbb 47f4 c9bb 3e73 0b3c 7433 40bc
00000230: bd51 10bc 7c66 c33b 460c bd3b 5804 113c
00000240: 67b3 d03b 6eaf 8f3c af9a 21ba 163a 1e3b
00000250: 1e44 173b 5fd0 f23c 48b4 613c dcb1 563c
00000260: a3e5 5f3c f2e1 243c 8240 623c bd46 e83b
00000270: 1f46 7d3c d823 fc3c 6078 d33b 04d8 3f3c
00000280: a431 02bc 7e4f 39bc b4f3 0d3c 2dd4 5ebb
00000290: ba35 6bbc af3c f03b 1661 ea3c 3e1f e5bb
000002a0: 30c8 00bc 27fd 0e3c 9b63 2abb 0de2 63bc
000002b0: 403e 1c3a 7db1 173c 730f 9d3a 3c95 f2bb
000002c0: 72f0 9abb d3f6 fcbb a6cb 0e3c 2742 c6ba
000002d0: de2c d0ba 122d e4bb 6493 83ba 22e4 87b8
000002e0: 12a5 e83a 908c 81bc 7c21 ab39 453b 98bb
000002f0: 62fa 09bd e66e 833b 68d2 91bb 5bfd 75bc
00000300: f454 173c f3bd 2a3c 8d49 99bc 04cd aabb
00000310: a7e5 113d a9fd 783c 1af3 4fb9 45d5 14bc
00000320: dadd 7b3c b745 b5bb ad56 8d3a 23a6 9c3b
00000330: 2411 843c 4999 f53c e718 aabb 4c5f 503c
00000340: de8c ecbc 07be c8bb e0d0 5d3b 6eca e4bb
00000350: b368 c73c 4c19 28bc ce80 3dbc 0586 093d
00000360: 15f1 61bb a4fd a93a 4c92 663c 794f 55bb
00000370: 4dea 00bb 1713 163b f54e d6b9 6002 b9bb
00000380: 8712 ab3b b5e7 52bc 49dd fa3c 0015 f63c
00000390: 529d daba 44c6 bcbb 9a6a 363c 04fa e3bb
000003a0: 33b9 423c 6690 d83c 1f5c 39bc f6e7 28bc
000003b0: 3179 c9bb 9265 8d3c 83cd d23a 6eac 65bb
000003c0: b170 08bc f504 b63c 0ddb aebc 34dd c63b
000003d0: 8533 06bd 75ca c03b 812d 0dbc 0be4 99bb
000003e0: 44ef 80bc 208b c9ba ae39 cfbc 353e 1c38
000003f0: ff4f 843b d584 0f3c 971d 54ba ce01 d03c

fc5.bias f4 [128]
0.011470119 0.06889981 -0.23142041 0.009173763 -0.046994306 0.34092698 0.020928219 -0.2568913
0.3055026 0.15646794 -0.19976987 0.2118369 -0.29351458 0.0063827797 -0.10399374 0.11420769
-0.19131476 -0.25945178 0.044465307 -0.007899324 -0.0590616 0.28016344 0.10333985 0.0988651
0.2901002 -0.13854235 -0.23670155 0.03850446 -0.34082365 -0.042888757 0.30410382 0.24135745
-0.2213116 -0.035248734 -0.38023034 -0.035956573 -0.1924199 0.026184153 -0.04452291 -0.30682406
0.121255204 0.14741756 -0.028229082 -0.031656668 -0.43494427 0.047758773 0.26376015 -0.014027419
0.19654995 -0.018042749 -0.07078739 -0.041286517 -0.29307026 0.43441403 0.17066506 0.07938896
-0.44971004 0.2858974 0.05114751 -0.18264146 -0.3825498 -0.16245691 -0.24252076 0.088034555
0.0434223 -0.06701742 -0.007831643 0.019250415 -0.11009333 -0.041561417 0.38714632 0.17452304
0.4305852 0.05673254 0.0036200858 -0.09284404 0.25749132 0.16638923 -0.24471052 -0.11648126
-0.10471708 -0.0636425 0.317913 0.08964122 -0.1845801 -0.22433296 0.024512384 0.060323
-0.16973272 0.0034044504 0.011564419 -0.118296154 -0.20550828 0.103864215 -0.051104393 0.18928097
0.09715336 -0.03633629 -0.13037851 0.26272452 -0.22887059 0.056715637 0.09740465 0.04279037
0.06330658 -0.13002253 0.101992995 -0.10128148 -0.31489438 0.025716243 -0.13860244 0.1349151
-0.069952905 -0.0053486 0.08019232 0.03406289 -0.06665383 -0.20825814 -0.14736027 -0.44698638
-0.21178456 0.23694609 -0.0064670206 0.01765127 0.3973363 0.09775318 -0.08694286 0.2900411
00000000: 2aed 3b3c 581b 8d3d 79f9 6cbe 8d4d 163c
00000010: 1a7d 40bd fb8d ae3e a871 ab3c 4287 83be
00000020: d66a 9c3e 2239 203e 7990 4cbe c6eb 583e
00000030: 8b47 96be a326 d13b acfa d4bd b9e5 e93d
00000040: 04e8 43be ddd6 84be 4121 363d 2b6c 01bc
00000050: 94ea 71bd 9571 8f3e d8a3 d33d c979 ca3d
00000060: 0388 943e 0cde 0dbe e461 72be dab6 1d3d
00000070: 7080 aebe 1fac 2fbd 7fb3 9b3e 6826 773e
00000080: 829f 62be fa60 10bd 8dad c2be 3347 13bd
00000090: b909 45be 2680 d63c a85d 36bd 0b18 9dbe
000000a0: a654 f83d a1f4 163e ad40 e7bc 6caa 01bd
000000b0: 04b1 debe b49e 433d 920b 873e 42d3 65bc
000000c0: 6444 493e 63ce 93bc fbf8 90bd 0d1c 29bd
000000d0: 4e0d 96be 846b de3e d2c2 2e3e ae96 a23d
000000e0: 6540 e6be 2561 923e 0d80 513d 5d06 3bbe
000000f0: 91dd c3be 1b5b 26be 5d57 78be 764b b43d
00000100: 95db 313d 6e40 89bd 4b50 00bc 0cb3 9d3c
00000110: 9d78 e1bd 4e3c 2abd 0b38 c63e 2bb6 323e
00000120: aa75 dc3e 6160 683d f63e 6d3b 0425 bebd
00000130: e7d5 833e f061 2a3e 6595 7abe ba8d eebd
00000140: e975 d6bd 0057 82bd 7ec5 a23e d195 b73d
00000150: 9102 3dbe 8ab7 65be 32ce c83c 4015 773d
00000160: 6ace 2dbe 331d 5f3b b078 3d3c 4145 f2bd
00000170: c370 52be c3b6 d43d d752 51bd dfd2 413e
00000180: 57f8 c63d 5dd5 14bd f281 05be d483 863e
00000190: 0d5d 6abe a84e 683d 177c c73d f444 2f3d
000001a0: e1a6 813d a024 05be b4e1 d03d aa6c cfbd
000001b0: d639 a1be dfaa d23c cced 0dbe 2f27 0a3e
000001c0: 7843 8fbd 4f43 afbb df3b a43d 8785 0b3d
000001d0: ce81 88bd 9f41 55be 9ce5 16be 66db e4be
000001e0: 0dde 58be ffa1 723e 4de9 d3bb 6599 903c
000001f0: aa6f cb3e d232 c83d 190f b2bd 4480 943e
