customized/model/trained_model/vae/vae_z_32batch_64_basket_hn.pth (torch, 629407 bytes, 10 tensors)

fc1.weight f4 [256, 256]
000000 f7 cb 6c bd 2a 79 11 3c 07 cb 0f bb 82 59 a2 3c
       -0.057811704 0.008878985 -0.0021941082 0.019818071
000010 01 0c cf 3c 52 6a 3c bd a0 d4 10 bd 51 4d 8b 3d
       0.025274279 -0.045999832 -0.035359025 0.06801856
000020 ef 88 a1 3c e9 02 0d bd d1 6d 2f 3d db 5f 12 bd
       0.019718615 -0.034426603 0.04282934 -0.035735946
000030 14 04 59 3c 09 fe 16 bd ce a6 11 3d 4d 43 39 3c
       0.013245601 -0.03686336 0.035559468 0.01130755
000040 f2 ac 4e 3b 72 4d 6e bb a3 43 a2 bc b6 ee 18 3d
       0.003153619 -0.003636208 -0.019807642 0.037337027
000050 55 9d 8d 3c 6f a3 41 bc 6b 5c df bc ff 60 0b 3d
       0.017286936 -0.011818751 -0.027265748 0.03402805
000060 36 60 46 bc 80 f2 3f 3d 4e 10 03 bc e0 fd 6f bc
       -0.012107899 0.046862125 -0.007999493 -0.014647931
000070 5d fb 50 3c 9c c2 17 3c 95 a5 c1 bc 9a 1e f7 3c
       0.012755242 0.009262707 -0.023638526 0.03016596
000080 5d a7 0e bd 5b b3 02 bd 23 43 1e 3d db 40 62 3c
       -0.03482758 -0.031909328 0.038638245 0.013809408
000090 b8 14 9c 3b c9 9d 5d 3c e0 25 85 bc a4 16 1b bd
       0.004763212 0.013526388 -0.016253412 -0.03786339
0000a0 a5 ee fd bb 4a 18 e4 3b ff ec fc 3c d8 1c fe bc
       -0.007749396 0.0069609033 0.030874727 -0.031019613
0000b0 b0 7d e0 bc 42 96 34 bd 52 ee c0 bb 8f 38 26 bd
       -0.027403682 -0.04408861 -0.005887785 -0.040581282
0000c0 aa f1 45 bd 3d a8 de 3c 04 1b d5 bb cf 73 1c bd
       -0.048326172 0.027179832 -0.0065034647 -0.03819638
0000d0 35 2f 22 3c 9f e5 d5 3b 26 e9 ff 3b 5a 72 a6 3a
       0.00989895 0.006527617 0.007809776 0.0012698874
0000e0 c0 2a 86 3c 49 c0 f0 3c f4 ce 00 3d d3 60 20 bc
       0.016377807 0.029388564 0.031447366 -0.00978871
0000f0 b4 d9 8b bc 63 9c d2 3c 88 7b 8e 3b fb 50 23 bd
       -0.017071582 0.025709337 0.004348222 -0.03987215
000100 d8 9a ab bd 05 1f 87 3d ec 29 07 bd 5d 2f e6 bb
       -0.083791435 0.065977134 -0.032998964 -0.007024689
000110 a1 6e 8f 3c ac 5f 8f bc 16 af da 3b b4 27 b6 3c
       0.017508807 -0.017501675 0.006673704 0.022235729
000120 7d 44 04 bd 6b fd 4b bc 88 be 1a 3d 3d 56 49 3c
       -0.032291878 -0.012450556 0.03777936 0.012288627
000130 49 2d d4 bb 4c c5 e3 3b e9 61 3b 3c 33 f2 70 bc
       -0.006475125 0.00695101 0.011436918 -0.014706182
000140 b0 a8 d5 bb 4f 92 b3 bc c1 2e e1 bc 79 ac 82 3c
       -0.0065203533 -0.021920351 -0.027488114 0.015951382
000150 f2 a2 3d bd 0f 2c 1c 3d d8 91 ff bc 19 26 b3 bc
       -0.046297975 0.038127955 -0.031197473 -0.021868752
000160 05 78 77 bb d6 1d a1 3b 51 76 4f 3d c2 be dc bb
       -0.0037760746 0.004916887 0.050649945 -0.0067366073
000170 f4 66 82 bc 96 5f 04 bc f9 79 65 3b 19 ef 6e bd
       -0.015918233 -0.00807943 0.0035015328 -0.05833349
000180 8e 55 29 bc d6 4f d7 bb 17 1f 3f bc 83 97 37 bc
       -0.010335339 -0.0065707965 -0.011665127 -0.011205557
000190 4a cc e4 bc 62 f0 cc bc 85 48 26 bc c1 cc 8d 3c
       -0.027929444 -0.025016967 -0.010149126 0.017309548
0001a0 d6 28 1b 3c 71 2e 41 bc fc ae 15 bc 3d d6 96 bc
       0.009470185 -0.011790858 -0.009135958 -0.018412704
0001b0 ae e1 76 3d 55 8e 82 3d fd e8 12 bd b2 32 4c bc
       0.06027382 0.06374804 -0.035866726 -0.012463259
0001c0 cb fe 57 3c d2 6a bb 3b 36 bd a5 bd 94 67 05 ba
       0.013183306 0.005719521 -0.0809273 -0.00050889817
0001d0 61 d9 8e 3c 80 63 16 3d de bc e8 3c 33 c8 a1 3a
       0.017437639 0.036715984 0.028410371 0.0012342989
0001e0 38 06 12 bd 2e af a0 3c 5c 83 97 3b 6f 04 60 bd
       -0.035650462 0.019614782 0.0046238136 -0.05469173
0001f0 b1 e5 30 bc 06 25 f6 3b d5 74 bf 3c 8f e5 8f 3c
       -0.01079695 0.0075117378 0.02337114 0.017565517
000200 a8 04 d0 bc 5a 79 e2 3c c5 b0 2c bd 10 04 05 bb
       -0.025392845 0.027645756 -0.042160768 -0.002029661
000210 90 a5 b9 3c 58 37 b7 bc 22 8e b4 bc 2e 05 ab bc
       0.022661954 -0.022365257 -0.02204043 -0.020876493
000220 76 a8 9f bc ef dd 38 bb 56 cd 9e bc 99 1f 1e bd
       -0.019489508 -0.0028208455 -0.019385021 -0.038604353
000230 56 ce d4 bb b2 08 a1 bc 38 52 94 3c e9 05 03 bd
       -0.0064943237 -0.019657467 0.018105611 -0.03198806
000240 22 a2 86 3c 4a 5f 19 bc 54 3c 82 bc 91 dc 9e 3b
       0.016434733 -0.009361098 -0.015897907 0.004848071
000250 ba c4 3e 3c a8 33 31 bc a1 71 53 bb 81 d9 99 3a
       0.011643583 -0.0108155385 -0.0032263773 0.0011737795
000260 4f 84 0e bc a8 34 bc 3b d8 cb 98 bd b7 b2 82 3b
       -0.008698537 0.005743582 -0.07460755 0.0039885896
000270 36 dd 50 3d c5 a0 ab 3b 7f d0 dd bb a0 dc a8 3c
       0.050992213 0.005237671 -0.0067692394 0.020613015
000280 90 03 11 bd 40 12 ae 3b 48 b2 ff bc 59 35 22 bd
       -0.035403788 0.005312234 -0.03121294 -0.039601658
000290 f5 16 6e bc f7 11 e8 3b f5 62 0b 3c 63 cb 86 bc
       -0.014531841 0.0070822197 0.00850748 -0.016454404
0002a0 30 3a 82 3d 65 1e 05 bd d4 5c 97 bc 74 71 96 3c
       0.06358755 -0.03249969 -0.018476881 0.018364646
0002b0 ab 3c 99 bc 69 bf c3 bc 87 cb e2 bb 2b a7 41 3b
       -0.018705687 -0.023894982 -0.006921235 0.0029549103
0002c0 92 c2 64 bd 74 4e 6d 3c a2 bc bb bc 33 9d 99 3c
       -0.05584962 0.014484037 -0.022917096 0.018751716
0002d0 e7 fb 5a 3c 0b 4a 76 39 f7 de eb 3b 11 7d bf 3c
       0.013365722 0.00023487971 0.0071982103 0.023375066
0002e0 ba 7b a2 bb 85 70 62 3d e2 4b 21 3c e3 78 9e bb
       -0.004958597 0.05528309 0.009844752 -0.004836188
0002f0 01 1e 24 bd b1 d4 cf 3b 19 d3 65 bd fb 27 21 bd
       -0.040067676 0.0063424935 -0.05610952 -0.03934477
000300 4e fd 3f 3d 77 f7 cd 3c bc 32 42 bd 45 87 68 bd
       0.04687243 0.025142414 -0.047411665 -0.056769628
000310 e2 88 40 3c 19 e6 22 3c 6b dd 62 3d 60 af d4 bc
       0.011751385 0.009942555 0.055386942 -0.025962532
000320 dc 01 3f 3d ab c8 02 bd b7 5b 5a 3c 0e 9d 6d bb
       0.046632633 -0.031929653 0.013327531 -0.0036256942
000330 fc 2a 24 3d b9 e5 c9 3c 1a 18 b9 3b 5a b1 fe bc
       0.040080056 0.024645673 0.005648625 -0.031090427
000340 17 2a b8 3c a1 d0 5d bd cb 0a 61 3d 4b 6e 2c 3d
       0.022481008 -0.054154042 0.054941934 0.04209737
000350 6a f4 cf bc 75 a3 d1 bc aa b8 36 3d 9a 85 b7 3b
       -0.0253851 -0.025590638 0.044609703 0.0056006433
000360 fe 41 0c bd 7e 40 91 3b 3d 0b c7 bb bd 5a 27 3d
       -0.034242623 0.004432737 -0.0060743378 0.04085802
000370 4c dd a0 3c 33 f7 94 3c 00 83 26 ba bf 15 3a 3c
       0.019636773 0.01818428 -0.0006351918 0.011357724
000380 8c 08 8a 3a 6a 8c c2 bc 6a da 1d 3c 86 d0 a6 3c
       0.0010531112 -0.023748595 0.0096345935 0.020363104
000390 fe 5a 3a 3b a7 30 33 bd c8 1d 61 bc 15 da 6a bd
       0.0028435583 -0.04374757 -0.013740011 -0.057336885
0003a0 a7 29 41 bb 2c 77 67 3d fb 88 ac bc ea 28 c0 bc
       -0.002947429 0.056510136 -0.021061411 -0.02345701
0003b0 c9 44 2d bd e0 fb 2f bd 1c f3 6e 3c de 71 5a bd
       -0.042301927 -0.042964816 0.014584329 -0.05333125
0003c0 c4 57 fb bc 5a 95 fd bc 11 be 01 bb 55 89 0e 3d
       -0.030681498 -0.030955005 -0.0019797126 0.03479894
0003d0 50 88 35 bc 0d 85 9d bc 29 61 b5 bb d2 d3 ae 3a
       -0.011079863 -0.019228483 -0.005535264 0.0013338274
0003e0 da 18 14 bc ca dc 3f 3b 88 3a bf 3c 11 a6 1b bd
       -0.009039128 0.0029275888 0.02334334 -0.03800017
0003f0 58 62 c4 3b a3 5c ad 3c 1c ae 31 bc c7 d9 99 bc
       0.005993169 0.021162337 -0.010844734 -0.018780602

fc1.bias f4 [256]
000000 5d 50 be 3c 01 3c 6e ba d4 8b f7 3c 6c 7a bf bc
       0.02323168 -0.0009087921 0.030218042 -0.023373805
000010 f8 42 fa 3c 78 28 da 3c 15 1a 20 bc 68 51 03 3c
       0.030549511 0.026630625 -0.009771843 0.008015014
000020 31 da 82 bc b0 88 ac bb 55 61 3e 3d 5a 3b d3 bc
       -0.015973182 -0.005265318 0.04647954 -0.025785137
000030 d0 43 57 bc a8 1b 60 bc 16 d8 31 bd 18 34 5a bd
       -0.013138726 -0.013678469 -0.043418966 -0.053272337
000040 65 2d bc ba e0 46 9b 39 41 76 4c 3d 88 3d 70 bc
       -0.001435679 0.0002961671 0.049917463 -0.014663108
000050 28 e4 4c bd 8d b1 21 bd 20 a4 3f 3d 35 6f 3e 3d
       -0.050022274 -0.039475966 0.04678738 0.046492774
000060 b9 63 01 bd 45 d8 06 3d 30 6d 71 3d 10 8c b5 bb
       -0.031589244 0.032921094 0.05894202 -0.0055403784
000070 64 04 31 3d f4 1e 95 3c 54 6d 02 3d d7 1c 19 ba
       0.043217078 0.018203236 0.031842545 -0.0005840784
000080 eb 2d ad 3c 04 ef 31 bd 1d 60 91 bc 30 5e 0a 3c
       0.02114006 -0.043440834 -0.017746026 0.008445308
000090 48 57 77 bd 37 81 83 bd 08 4e c6 bc dc 7e 0a 3d
       -0.060385972 -0.0642113 -0.02420713 0.03381239
0000a0 b4 4e 35 3c f6 b8 08 3d 62 01 2a bd 8a 11 fd 3c
       0.011066128 0.033379517 -0.041505225 0.030892152
0000b0 7d c1 2f bd dc b2 91 bc f9 54 fd bc 96 ec 36 bd
       -0.042909134 -0.017785482 -0.030924307 -0.04465922
0000c0 ee 12 aa 3c cf 5f 12 3c 67 62 85 bd a0 d1 23 bb
       0.02076098 0.008933975 -0.065129094 -0.0024996772
0000d0 40 1a a8 bb e2 76 02 3d 34 5c 79 bd fc 0b 0a 3d
       -0.0051300824 0.031851657 -0.060878947 0.033702835
0000e0 34 40 b1 bc 47 db c7 3c fd fd 5d bc 9b 6a b5 bc
       -0.02163706 0.024396552 -0.013549325 -0.02214556
0000f0 be 5b 3a bd 04 38 a9 3c 20 af 03 3d 9c 4e c4 bc
       -0.04549765 0.020656593 0.032149434 -0.023963265
000100 96 18 b4 3b f4 63 01 3d c0 7d 84 ba 6e 31 05 3d
       0.005496095 0.031589463 -0.0010108277 0.032517843
000110 56 96 b4 bc b6 2a 42 bd 7e ec 1e 3b 6d da 2c bd
       -0.022044342 -0.047404014 0.0024249847 -0.042200495
000120 38 67 4d bd 05 e5 65 3d c6 5e c1 bb 20 c5 45 bd
       -0.050147265 0.056126613 -0.0059011905 -0.048283696
000130 9e 3e 28 3b 40 58 1c 3c c0 46 57 bb 2e 01 bb bc
       0.0025672088 0.009542525 -0.0032848567 -0.022827711
000140 65 99 5e 3c a0 5c 29 bd 92 b5 19 bd c5 a3 b5 3c
       0.013586377 -0.0413481 -0.037526675 0.022172818
000150 92 64 70 3c 4e 7b a1 3c 40 2e e3 bc 58 bd 9b 3c
       0.014672415 0.019712117 -0.027732015 0.019011185
000160 cc 92 e7 bc cc 2a 6c bd 28 e5 fe bc 36 3d 6c bd
       -0.02826824 -0.057658 -0.03111513 -0.057675563
000170 ed aa a0 bd d5 0e 0d bc 14 77 2a bd 02 d9 3c bd
       -0.078451015 -0.008609493 -0.041617468 -0.046105392
000180 a9 59 5e 3d 6c 4e 91 bc 1c a7 3d 3d 11 75 6e bd
       0.054284725 -0.01773759 0.046301946 -0.058217112
000190 a3 bc 51 3c c7 be 9e bb 94 a5 57 bc 33 f1 73 3c
       0.012801322 -0.00484452 -0.0131620355 0.014889049
0001a0 20 b5 d1 bb b9 f4 82 bb 4b a1 28 bc 2c 4f 68 bd
       -0.0063997656 -0.0039964584 -0.0102923615 -0.05671613
0001b0 5a d1 75 3d 9d c6 60 3c 11 00 37 3d f3 48 02 3d
       0.060014106 0.013719228 0.044677798 0.03180785
0001c0 f6 e4 57 bd 33 7e d8 3c dc 26 ec 3b 27 0a 44 3d
       -0.05270859 0.026427364 0.007206781 0.047861245
0001d0 95 82 c8 bc 3d 02 c3 3c b8 07 2b bc e4 49 d4 3b
       -0.024476329 0.023804778 -0.010438852 0.006478535
0001e0 52 1b 83 3c a0 ab 1a 3c 51 eb 44 3c 66 85 a9 3c
       0.016004238 0.009440333 0.012018994 0.020693492
0001f0 55 43 82 bc 2e b2 40 3d 33 56 e1 3b 78 6d a0 bc
       -0.015901247 0.047044925 0.006876731 -0.019583449
000200 3a b7 91 bd ea fd 2f bd 0a e0 6b bd 6a c6 88 bd
       -0.07115026 -0.04296676 -0.057586707 -0.066784695
000210 d8 81 12 3d 12 cc 32 3d 92 85 cf bc 98 13 86 bc
       0.03576836 0.043651648 -0.025332246 -0.016366765
000220 76 17 34 bd 0a 09 1e 3d a8 5e 15 3d e5 8e ae 3c
       -0.043967687 0.03858284 0.036467224 0.021308372
000230 f3 46 6c bd 23 57 95 bc 5c a2 14 3d 36 49 cb 3b
       -0.05768485 -0.018230027 0.03628765 0.006203796
000240 ba 8d 5d bb aa 80 1c 3c 59 69 20 3d a8 0b 29 3d
       -0.00338064 0.00955216 0.039162967 0.041270882
000250 fe 39 11 bd 19 a8 7f bc 00 d0 b6 bc 5c b7 3e bd
       -0.035455696 -0.015604042 -0.022315979 -0.046561584
000260 ce 16 77 bd 36 48 61 3c 6e d9 7c bd 42 af 7a 3b
       -0.060324483 0.013750127 -0.061730795 0.0038251434
000270 ba cd 45 3d 45 ed 50 bd 0c e9 9a 3c 4b c0 8d 3c
       0.0482919 -0.051007528 0.018909954 0.017303606
000280 2c d3 46 ba cc 08 30 3d ed 17 46 bd 43 ed 26 bc
       -0.00075845676 0.04297714 -0.04836266 -0.010188404
000290 58 18 43 bc 31 46 85 bb 74 71 a0 bc a8 53 9e 3c
       -0.0119076595 -0.0040672054 -0.019585349 0.019327
0002a0 16 2b 22 bd 9c b3 56 3c 58 93 2e bc e4 15 3e bd
       -0.03959187 0.013104346 -0.010655247 -0.046407595
0002b0 e8 d6 4b bd e5 8e f3 bc aa 45 cf 3c a7 04 dc 3c
       -0.049765497 -0.029731223 0.025301773 0.026857687
0002c0 ec ea f0 bc 0a 37 14 bd 26 ef 14 bd 69 5d 24 3d
       -0.029408894 -0.0361853 -0.036360882 0.040128145
0002d0 8c 39 93 bd 29 ab 4f bd 78 35 93 3c fb 62 64 3d
       -0.071887106 -0.05070034 0.017969832 0.055758458
0002e0 d1 8b 54 bd 9c 10 60 3d 94 75 7f bd 13 c7 20 bc
       -0.05189115 0.05470334 -0.06236799 -0.009813088
0002f0 2a 94 c4 3c e1 33 9a 3c bc 98 56 bc 6d 56 63 bc
       0.023996431 0.018823566 -0.013097938 -0.013875586
000300 a0 8a bc bb 4e b0 6c bd 41 3f 04 bd 07 21 e6 3a
       -0.00575383 -0.057785325 -0.032286886 0.001755745
000310 63 8b eb 3c 26 e2 25 bd 9b c1 f0 bc ca 69 bc bc
       0.028752988 -0.040498875 -0.029389193 -0.022999663
000320 05 13 4f bc 4b 8e 14 3c 32 37 74 bd 72 ec e9 3c
       -0.012638812 0.009067128 -0.05962295 0.028555129
000330 36 20 20 3d 0e 1d 53 bd 26 21 0b 3c a0 a3 b4 3c
       0.03909322 -0.05154138 0.00849179 0.022050679
000340 68 1a 64 bd 57 3b 1c 3d 26 e8 33 bd c3 f3 3d bd
       -0.055689245 0.03814253 -0.043922566 -0.046375047
000350 80 14 cb 3c 92 63 5e bd 31 3a 55 3d 48 12 2c bc
       0.024790049 -0.054294176 0.05205745 -0.010502405
000360 98 f0 07 3d 40 84 ff bc f0 85 3b bc a4 03 34 3d
       0.033188432 -0.031190991 -0.011445507 0.043948784
000370 b2 fc 4e bd 40 a4 0f 3d 4c 59 8f 3b 40 60 26 3d
       -0.050533958 0.03506875 0.0043746587 0.040619135
000380 e4 84 12 3d 7c aa 98 bc 4d 4e 8b 3b a6 96 ba bb
       0.035771266 -0.01863598 0.0042512775 -0.005694228
000390 c9 3c d7 bb e9 d4 8c bd 60 0e d3 3c 9e 8d d3 bc
       -0.0065685255 -0.06876547 0.02576369 -0.025824364
0003a0 65 a7 89 3c 76 d6 16 bb 9c 46 bf bc e3 35 dd bc
       0.016803453 -0.0023016012 -0.023349099 -0.027003234
0003b0 a0 91 c6 3c ef d6 f6 3b fd a9 18 3d 56 e5 8b bd
       0.024239361 0.0075329463 0.03727149 -0.06830852
0003c0 4f 12 62 3d 84 42 27 bd c1 d0 5c bd 00 f8 7f b8
       0.05519324 -0.04083492 -0.05391002 -6.1027706e-05
0003d0 9d d0 12 3d f0 3d d5 bc 9e 86 0b 3d 8e 8d 6e bd
       0.03584348 -0.02603051 0.034063928 -0.058240466
0003e0 6a dc 6a 3d c1 97 fb 3c be 8c 4f 3d cc b8 53 bd
       0.05733911 0.03071201 0.05067133 -0.051689908
0003f0 ab ac 51 3d a4 8f 0d 3d 93 b8 c3 3c c1 87 98 bc
       0.05119006 0.034560814 0.023891723 -0.01861942

fc2.weight f4 [32, 256]
000000 11 8e 3c bc f3 a4 bf bc b0 57 de bc aa 0c 83 bd
       -0.011508481 -0.023394084 -0.027141422 -0.063989
000010 40 54 ab bc e2 1e 66 3c a9 e6 7b 3c b4 cd 18 3d
       -0.020914197 0.014045449 0.015374818 0.03730555
000020 9e 24 ae bc f6 38 7d bd e1 74 78 3a f2 ff 55 bd
       -0.021257695 -0.0618219 0.00094778655 -0.05224604
000030 4a 2d 38 3d e8 fa 19 3d 60 a5 80 3b 74 a9 7d 3d
       0.044965066 0.0375928 0.0039259642 0.06192918
000040 29 8b 82 3c 92 6d 62 bd 88 a9 0c bd f8 8c f6 bc
       0.015935497 -0.055280276 -0.034341365 -0.030096516
000050 8a 0e 61 3d 54 66 04 bd e1 1e 44 3b 4d 66 1d bd
       0.054945506 -0.03232415 0.0029925632 -0.03842764
000060 0b 8b cb bb 27 b0 12 bd c3 e8 18 bd 24 50 ef bc
       -0.0062116436 -0.035812523 -0.037331354 -0.029213019
000070 f6 62 29 bd 7b 7c 61 3c 8d f6 24 3c 3e 6c 08 bd
       -0.041354142 0.013762589 0.010068548 -0.033306353
000080 15 47 15 bc 28 ea b8 3c 49 3c af bc 34 c7 b3 bc
       -0.009111186 0.022572592 -0.02139105 -0.021945573
000090 67 c8 7f b9 62 78 11 3d 3b c5 86 3d 02 48 a0 3c
       -0.00024393351 0.035515197 0.065805875 0.019565586
0000a0 48 4b 62 bd c2 38 b6 3c 30 23 99 3b c4 bd 67 3d
       -0.055247575 0.022243861 0.004673384 0.05657746
0000b0 fe 06 56 3d f8 89 61 3c 3c c6 15 3d fc c9 8a 3c
       0.052252762 0.0137658045 0.036566004 0.016942017
0000c0 57 be 03 bd 37 db 9e bc ef da 62 3d 36 ce 7b bd
       -0.032163944 -0.01939164 0.055384573 -0.061475955
0000d0 a0 84 90 bc a8 e2 89 3c f8 00 3a 3d 76 cc 66 bd
       -0.017641366 0.016831711 0.04541108 -0.056347333
0000e0 b5 bc 34 bd cf 93 84 3c df b6 b1 bc b7 aa 13 3d
       -0.044125278 0.016183762 -0.021693645 0.03605148
0000f0 86 d9 06 3d 2e ed 1e 3d 38 b2 06 bd de 6b 12 3d
       0.03292229 0.03880041 -0.032884806 0.0357474
000100 45 05 60 bd 4b 00 d0 bc e0 af 2c bb 07 03 27 bd
       -0.054692525 -0.025390765 -0.0026349947 -0.04077437
000110 5f 76 c7 3c 4c 3d f4 3b ab 24 05 3c b7 5d 94 3d
       0.024348436 0.007453596 0.008126418 0.07244437
000120 e4 c5 f1 ba 13 dc d6 bc 56 ae 2f b8 4e a5 10 3d
       -0.0018445817 -0.026227986 -4.1885614e-05 0.035313897
000130 78 63 15 bc 60 b0 69 bd b8 9f cf bc 0f 25 5e bd
       -0.0091179535 -0.05705297 -0.025344715 -0.05423456
000140 26 13 9a bc 40 69 12 bd 74 f2 f8 3c 46 3f 80 bd
       -0.018807959 -0.035744905 0.030389048 -0.062620685
000150 b2 13 22 bd 93 b0 1f bd b1 03 54 3c e2 2a 28 3c
       -0.039569564 -0.038986754 0.012940333 0.01026413
000160 cc fe 59 3d b5 3c 71 3d a0 61 56 bc c0 02 47 3d
       0.05322151 0.058895785 -0.013084799 0.048586607
000170 75 75 05 3d cb 2e c4 3c 30 8c cc 3c 9c 45 5b 3c
       0.03258272 0.023948094 0.02496919 0.013383295
000180 d2 82 e1 bc 8e b2 07 3d df 8c fb 3c 06 80 29 3d
       -0.0275282 0.033129267 0.030706821 0.04138186
000190 a3 d9 71 3c df a0 03 bd d3 ad 55 3d 0e 47 29 3d
       0.014761361 -0.03213584 0.052167725 0.04132753
0001a0 c1 40 48 bc 92 63 21 bd d7 93 3a 3c 56 22 b7 3c
       -0.01222247 -0.0394016 0.011387787 0.02235524
0001b0 48 98 19 3d 6d 65 c3 bc 8b a3 0e bd 31 53 aa bc
       0.037498742 -0.023852075 -0.034823935 -0.020791622
0001c0 9c de 5f 3d 4d dc 13 3d 40 67 93 bc 79 b8 35 3d
       0.054655656 0.036098767 -0.01799357 0.04436538
0001d0 7f f1 fe bc 41 3e 4e 3c 84 d6 f0 3c 55 40 64 3c
       -0.031121014 0.012588085 0.029399164 0.013931354
0001e0 90 af fe 3c 92 49 1f bd 31 cc 5b 3d 39 fb cb bc
       0.031089574 -0.03888852 0.05366153 -0.024900066
0001f0 4e d0 c1 3b 24 8e ef bc 0f 20 28 bc dc f2 ca bc
       0.0059147244 -0.029242583 -0.01026155 -0.024774007
000200 60 5f 3a 3d be 9c 00 bd 4e 34 1f 3d d8 14 b2 bc
       0.045501113 -0.03139948 0.03886824 -0.021738455
000210 fa 5a eb bb ee a8 37 3c ad 1a 11 3d 40 8c a8 bc
       -0.007182476 0.01120971 0.03542583 -0.020574689
000220 36 9c 0e bd dc 07 1c 3b b0 02 0b 3d e7 d6 6f bc
       -0.034816943 0.0023808395 0.03393811 -0.014638639
000230 93 a7 06 bd 6b 01 ab bc f5 81 0f 3c 1d a3 f5 bc
       -0.032874655 -0.0208747 0.0087590115 -0.029985005
000240 02 5c 04 3d 69 57 25 bd f6 2a 5a bc 1b fd 41 bd
       0.032314308 -0.040366564 -0.013315907 -0.04736052
000250 8e f5 2d bd 61 a8 be bb cf 7c 55 3c a6 3c 4a 3d
       -0.042470507 -0.005818412 0.013030245 0.049374245
000260 48 ab 49 bd 22 8d b9 3c 17 97 3c 3d 1b b4 e6 3c
       -0.049235612 0.022650305 0.046042528 0.028162053
000270 14 aa 42 bd 7a 18 c9 bb 5c d3 bd bc 33 11 ab 3c
       -0.04752548 -0.006136951 -0.023172073 0.020882225
000280 7a 4a 85 bc 21 f1 ee bc 22 38 16 3c 89 26 10 3b
       -0.016270865 -0.029167714 0.009168657 0.0021995625
000290 08 42 79 bd 0e 2c 1a 3d e0 bd e4 bb 75 2e cc bb
       -0.060853988 0.03763967 -0.0069806427 -0.006231124
0002a0 c1 ae 26 3d e6 49 2a bd 88 c5 67 3d 8c 8b 5c 3d
       0.040694002 -0.04157438 0.056584865 0.05384402
0002b0 22 4f 70 bd f1 78 c2 bb ec fb f9 3c 0e 3a d5 bc
       -0.058669217 -0.0059348275 0.030515634 -0.02602866
0002c0 eb 60 05 3c 8b 39 8e bd 80 d9 df ba 4b ad 87 bd
       0.008140783 -0.06944569 -0.001707837 -0.0662485
0002d0 f1 d5 25 bd da 6c 32 3d 04 e0 eb 3c 85 81 97 3c
       -0.040487234 0.04356084 0.028793342 0.018494377
0002e0 b9 68 f6 bb 60 cb 5f 3a 00 8e ac 3b 98 44 8a bd
       -0.007519808 0.000853708 0.005265951 -0.067513645
0002f0 d4 39 2b bd fe 60 25 bc 10 43 37 bd 92 c8 f1 3c
       -0.041803196 -0.0100939255 -0.04474169 0.029514585
000300 18 79 e2 bc 7b ae 4b 3d 49 5c 29 3c c9 eb b4 3c
       -0.027645633 0.049726944 0.010336944 0.022085087
000310 e6 78 22 bd 58 a5 0d bd 38 eb 6f bd 02 4a 96 bc
       -0.03966608 -0.034581512 -0.05857393 -0.018345837
000320 08 af d0 3c ae 6b 6d bb 7a 41 1b 3d 7c 50 6c 3d
       0.025474086 -0.0036227512 0.03790424 0.057693943
000330 9e 8d 6a bd b1 f2 ea 3c 72 5a 52 3d 0e 6d 77 bd
       -0.057263963 0.028680177 0.051355787 -0.060406737
000340 d6 60 73 bd ea 49 21 bd d8 88 e4 3c b5 bc ca 3c
       -0.05941852 -0.03937713 0.027897283 0.024748186
000350 e6 0d 77 bd e0 b2 65 3c d9 62 62 bc 24 51 5e 3d
       -0.06031599 0.014019698 -0.013817512 0.0542766
000360 2f 57 59 bc 90 bb f6 3b 3c 1c 4f 3d f6 be b1 bc
       -0.013265415 0.0075296834 0.050564036 -0.021697503
000370 fa 09 35 bc 1a ea e9 3c 18 2a d2 bc 98 c7 e2 3c
       -0.011049742 0.028554011 -0.025654837 0.027683064
000380 de aa ee bc 40 2e 82 3c ad dc 1d 3d 8a 86 4f bd
       -0.02913421 0.015891194 0.03854053 -0.050665416
000390 7c 9f 58 3c f5 a8 33 bd 7f 59 f6 bc 89 e4 57 bc
       0.013221618 -0.0438623 -0.030071972 -0.013177046
0003a0 08 86 78 3c f7 ed 28 3d 4c 4d 2b 3d b3 2c 34 bc
       0.015168674 0.041242566 0.041821763 -0.010996985
0003b0 f6 f9 13 bd 70 a8 be 3b 2c 45 a4 3c 56 74 57 bd
       -0.036127053 0.005818419 0.020052515 -0.05260118
0003c0 e1 92 c3 bb 5a c7 1b 3d f0 b6 4f 3d 88 d5 b4 bc
       -0.005968437 0.038031913 0.050711572 -0.022074476
0003d0 95 94 5a bd 50 4b 01 3d e9 33 94 bc d2 49 63 3d
       -0.053364355 0.031565964 -0.018091159 0.055490322
0003e0 15 ac 03 bd ac c9 51 3c 99 2e 91 3c f4 df 2b 3d
       -0.032146532 0.01280443 0.017722415 0.041961625
0003f0 64 b6 1f 3c 70 81 3f 3d 0a 52 f5 bc 03 48 19 bd
       0.009748075 0.0467543 -0.029946346 -0.03742219

fc2.bias f4 [32]
000000 26 db 11 3d 02 a0 0a bc 87 4e 02 3d e0 ff 56 bc
       0.035609387 -0.008461 0.03181317 -0.013122529
000010 51 ea 25 3d c5 c3 a9 3b 63 89 37 3c cd a0 1e bd
       0.040506665 0.0051808082 0.011202189 -0.03872757
000020 fc ec 02 3d af be ec b8 c8 8c 61 bb a4 31 e8 3c
       0.031964287 -0.000112888745 -0.0034416188 0.028343983
000030 6a 5e 2f bd 5a ef 0d bb 29 ef 3b 3d 2c 54 b9 3c
       -0.04281465 -0.0021657557 0.045882378 0.022623144
000040 c8 52 14 3d e8 52 ee 3b b3 1a a7 3c ec 47 0a 3d
       0.03621176 0.007273067 0.020398473 0.033759996
000050 c1 46 c4 bb 74 de f1 bc 83 38 1c 3d 75 a8 89 bb
       -0.00598988 -0.02952502 0.03813983 -0.00420099
000060 fa e7 1a 3c d7 ac 18 3d b7 ce cb bc 1f ad 21 3d
       0.009454722 0.037274208 -0.024878843 0.03947174
000070 0d 91 80 3c 93 ab d3 3c ff eb 00 3d c5 32 2c bd
       0.015694166 0.025838649 0.031475063 -0.042040605

fc3.weight f4 [32, 256]
000000 9c 1b e5 3c f3 24 e8 3c 8e cc 30 3b 56 fa 57 3d
       0.027967267 0.028337931 0.0026977393 0.052728973
000010 08 f0 0b bd 26 28 3d bd c4 a5 f4 3b 5e f7 e6 bc
       -0.03416446 -0.046180867 0.00746605 -0.028194126
000020 e4 66 b3 3c e0 ac 3c bd fd 1c 08 3d 92 ed 87 3b
       0.021899648 -0.046063304 0.03323077 0.0041481936
000030 3e 72 2a bd 20 ff 33 bc 48 a1 7d 3d ec 8d 41 3d
       -0.041612856 -0.0109861195 0.061921388 0.047254488
000040 c7 a8 e7 ba d6 a7 2d 3b 70 24 be 3c 1c 15 36 3d
       -0.0017674201 0.0026497743 0.023210734 0.044453725
000050 74 e1 d3 3c 58 16 37 3d 1b 46 33 3d 50 e6 4c bd
       0.02586434 0.044699043 0.04376803 -0.05002433
000060 4f c5 2c bc 17 45 ed 3b 36 20 84 3d 1e ad 63 bd
       -0.010545089 0.007240902 0.06451456 -0.05558502
000070 48 56 2e bc 1f e3 5f 3c 98 4d 0d bc 19 dc 80 3d
       -0.010640688 0.01366499 -0.008624457 0.0629198
000080 b2 69 dd 3a e4 dd 93 bc ab fb 28 bd 88 58 34 3d
       0.0016892462 -0.018050142 -0.041255634 0.044029742
000090 4e c6 ec 3c 59 8c b9 bb 19 36 90 3b 37 14 d1 bc
       0.028903153 -0.0056624827 0.00440098 -0.025522335
0000a0 5f 39 a1 3c 73 08 38 bd c2 23 39 bd e0 dc 83 3c
       0.019680677 -0.044929933 -0.045200117 0.016096532
0000b0 76 5b 87 3c 8c 73 a3 bc 61 a4 02 3b 6c 01 6e bd
       0.016523104 -0.019952558 0.0019934403 -0.058106825
0000c0 81 40 1b 3d 30 bd 4e 3d 21 d2 91 bc 34 0e d3 3c
       0.037903313 0.050473392 -0.017800393 0.025763609
0000d0 b0 ac b7 3b 2c 5a 74 bd e0 c2 50 bc a0 49 47 bd
       0.0056053028 -0.059656307 -0.012741774 -0.0486542
0000e0 d2 56 92 3a 2f 03 5c 3d 7a 2a 4e 3d 0a 55 41 bd
       0.001116479 0.053713974 0.050333478 -0.04720024
0000f0 c6 a4 04 3d d4 a9 a8 3a 2c 9c 40 bd 2b b4 b8 3c
       0.032383703 0.0012867996 -0.047023937 0.022546848
000100 29 5c 69 bc 48 2a f7 3c e8 91 60 bc 88 f5 c3 bc
       -0.014243164 0.030171528 -0.013706662 -0.02392079
000110 5b ff 2f bd ac c2 e8 bc fe 01 69 bc 6c 20 9b bc
       -0.042968135 -0.02841314 -0.014221666 -0.018936358
000120 45 0b 4b bc c2 85 cb bc 35 38 c6 bc 04 23 5a bd
       -0.012392824 -0.024844054 -0.024196723 -0.05325605
000130 66 ab 40 3d 96 5f 13 bd 8c bd d5 3c 23 59 6e bd
       0.04703846 -0.03597983 0.02609136 -0.058190476
000140 2c 06 94 3b de f1 88 3d 39 16 2f bc d0 30 79 3d
       0.0045173373 0.066867575 -0.010686451 0.060837567
000150 06 62 b8 3c 62 e0 d7 bc f0 09 7b 3d 40 5b 33 bd
       0.022507679 -0.026352111 0.061288774 -0.043788195
000160 c0 4a ef 3a 69 53 8b 3c b6 30 66 bd 50 1f 1d bc
       0.001825653 0.017007546 -0.056198798 -0.009589985
000170 fb a4 2a bd f9 63 d0 3c 40 28 59 3d 2c ca 86 3c
       -0.041661244 0.025438296 0.0530169 0.016453825
000180 ed 43 7a bc 68 a6 08 bd 91 ff 6a ba 14 db 2d 3d
       -0.015274984 -0.033361822 -0.0008964474 0.042445257
000190 22 08 3f bc fa ac 0d 3c 5e 28 84 3c a9 88 40 bc
       -0.011659654 0.008647198 0.01613253 -0.011751332
0001a0 3c fe 5b bd 20 72 0a bd 0e ea 33 3d ea 1c f9 bc
       -0.053709254 -0.033800244 0.043924384 -0.030409295
0001b0 1f fe 8d bb c5 e1 02 bc 68 2b 83 bb 91 1a 80 3c
       -0.004333272 -0.007988398 -0.004002977 0.015637668
0001c0 9a 76 1c 3c bb 59 03 3d 04 0a fd 3c b0 c9 02 3d
       0.009549761 0.032067996 0.030888565 0.031930625
0001d0 1e 74 4b 3d 4c 26 01 3d 54 8a 74 bd b4 ea 53 bd
       0.049671285 0.031530663 -0.059702232 -0.051737502
0001e0 10 ae 1d bd 70 c6 6c 3d 96 2b 56 3d 92 7d b5 bc
       -0.038496077 0.057806432 0.05228766 -0.022154603
0001f0 86 85 3e bd c8 c7 0f 3a 3c 47 55 3d 84 09 8b 3c
       -0.046514057 0.0005484787 0.052069888 0.01697231
000200 37 06 d2 3c a0 f1 3a bd 70 40 50 3d 55 ff 3c bc
       0.02563773 -0.045640588 0.050842702 -0.011535485
000210 96 43 13 3d fb 38 4c bd 3c d6 0b 3d f4 04 f0 3c
       0.035953127 -0.04985903 0.034139857 0.029299237
000220 2f 60 54 3c 7e 6d 20 bd 76 d5 04 bd 71 35 2b bd
       0.012962385 -0.03916692 -0.032430135 -0.041799013
000230 af f3 71 3d 6c 81 4e 3c b5 92 84 bb b2 72 d4 bc
       0.059070285 0.012604099 -0.004045809 -0.025933597
000240 04 6e 6e 3d 4c c2 d8 bb f6 3a 00 bd 73 d6 fc bb
       0.058210388 -0.006614959 -0.03130623 -0.007715994
000250 c4 75 1f bd 30 0b a9 bc f3 79 a9 3c 18 db 6b 3d
       -0.03893067 -0.020635217 0.020688033 0.05758199
000260 a0 a3 9f 3b 40 08 1a bc 11 0a b1 bc 52 f6 81 3d
       0.0048718005 -0.009401381 -0.021611245 0.0634581
000270 de ca 39 3d c3 02 28 bd e0 2b 97 3c 98 1a bb bc
       0.045359485 -0.04101826 0.018453538 -0.02283983
000280 0d 68 92 bc b8 d7 cf 3c f6 dc 28 3d 5f df 20 bc
       -0.01787188 0.025371417 0.04122635 -0.009818881
000290 80 3a c6 bb d9 19 e9 bc 8a 03 09 3d 1c 30 3d 3c
       -0.006049454 -0.028454708 0.03345064 0.011547115
0002a0 87 f2 30 bd bc 43 b8 bc 6c 39 44 3d 8e e6 86 3d
       -0.043200042 -0.022493236 0.047906324 0.065869436
0002b0 0e 99 55 bd ee 81 2a 3d d3 61 40 bd f6 49 fa bc
       -0.052147917 0.041627817 -0.046968292 -0.030552845
0002c0 48 d9 42 bd b1 76 ec bc 00 54 7a 39 c5 d2 28 3d
       -0.047570497 -0.02886519 0.0002387315 0.04121663
0002d0 61 e4 0f 3d 3f 73 bd bc e0 50 0f bd d7 9f 7a bb
       0.03512991 -0.023126243 -0.034989238 -0.0038242245
0002e0 ff f8 7e 3c 61 16 a8 bb a2 63 0e bd 78 be 29 bc
       0.015562295 -0.005129621 -0.034762986 -0.010360353
0002f0 4b df e4 3c ec c4 38 bd 55 6b c6 3c 6e 16 0c 3d
       0.027938506 -0.045109674 0.024221102 0.034201078
000300 42 dc 58 bd be a3 55 bb 58 70 d6 bc e0 43 7b 3d
       -0.05294443 -0.0032598819 -0.026176617 0.061344028
000310 28 ba 43 3d 20 40 53 3d 7f 33 17 3d 17 7c b9 bc
       0.047784954 0.051574826 0.036914345 -0.022642178
000320 c7 b5 f7 bc dc 7f 08 bd 14 92 1e bd ba d5 3e 3d
       -0.030238045 -0.03332506 -0.03871353 0.046590544
000330 53 80 35 bd f2 0b 6f bc 87 fc e4 bc 37 f5 14 bd
       -0.044311833 -0.01459025 -0.027952446 -0.036366668
000340 12 6d 22 3d 34 fa 11 3c cc 03 8b bc f9 5d 45 3d
       0.0396548 0.008909751 -0.016969584 0.048185322
000350 2f 32 cb bc fe d7 72 3d e1 27 87 bb c0 23 f5 3b
       -0.024804203 0.059288017 -0.004124627 0.0074810684
000360 96 45 b3 bc de f5 15 bd 0a 07 66 3d 27 3e 19 3d
       -0.021883767 -0.03661143 0.056159057 0.03741279
000370 f3 23 67 3d 26 da 18 3d a7 d6 d7 bb 80 88 4e bd
       0.05643077 0.037317418 -0.006586868 -0.050423145
000380 86 4e 4d 3c 78 9b 8f bc 68 d5 31 3d 17 ce 52 3c
       0.0125309285 -0.017530188 0.04341641 0.012866518
000390 56 7a 5f ba 91 51 66 3d f1 8f de 3c 79 9a 5d ba
       -0.00085250044 0.05623013 0.027168246 -0.0008453499
0003a0 7a 71 1e 3b a8 19 2b 3d c4 f8 2f 3d 33 ca 90 bb
       0.0024176524 0.041772515 0.04296185 -0.0044186353
0003b0 20 96 89 3c bc a3 46 3d 2c 8e 7c 3c 32 97 2d bc
       0.016795218 0.048495993 0.015414756 -0.01059513
0003c0 00 0a f7 3c 15 db 86 3c 0b 11 58 3a 80 de 19 3d
       0.030156136 0.016461888 0.00082422857 0.03756571
0003d0 1c 2d c4 bb d4 aa b2 bc cb a7 5a 3c f4 a9 42 3d
       -0.005986823 -0.021809973 0.013345669 0.04752536
0003e0 43 b2 14 bc 1e 15 d7 3c 78 b2 9a 3c d6 fb 40 bd
       -0.009075704 0.026255187 0.018883929 -0.04711517
0003f0 ff 8d 92 bc 03 c9 3e 3d d6 12 39 3c ac f8 67 3d
       -0.017889975 0.04657842 0.011295995 0.056633636

fc3.bias f4 [32]
000000 50 3c f4 bc 21 ed fc 3c 02 c5 00 3c 65 18 ec bc
       -0.029813915 0.03087479 0.00785947 -0.028820226
000010 23 01 08 bc 24 75 6b 3c 9e 83 25 bd bd d1 a0 bc
       -0.008301052 0.01437119 -0.040408723 -0.019631261
000020 ba c3 5c b9 d1 63 72 bc 9e 31 87 3c e5 98 46 bc
       -0.00021053749 -0.014794306 0.016503152 -0.012121414
000030 97 1b f3 3b dd 1a 27 3d 57 6c ec 3c 29 6b 21 3d
       0.0074190605 0.040797103 0.028860254 0.039408837
000040 00 e9 be 3b 2d bd ab bc 51 a7 c8 3c f5 4c 81 3b
       0.0058261156 -0.02096423 0.024493845 0.0039459416
000050 e8 66 21 3c 5d d7 6e bc 35 fd 06 bd c2 90 f5 3c
       0.009851195 -0.014577714 -0.03295632 0.029976252
000060 e3 d6 23 bd 20 fb 16 bd 4a 7e 17 3d d0 92 df 3c
       -0.039999854 -0.036860585 0.036985673 0.027291685
000070 72 a6 0f bd b5 09 f4 bc b1 98 84 bc 5b d3 0d bd
       -0.035070844 -0.029789785 -0.01618609 -0.034625392

fc4.weight f4 [256, 32]
000000 a6 80 8e 3b e2 30 38 3b d6 03 88 3b 3d e3 0f bb
       0.004348832 0.0028105308 0.004150848 -0.0021955513
000010 9d e9 82 3b 74 31 d4 3a 1c 27 78 3b 30 ba 4e 39
       0.003995134 0.0016189055 0.0037865108 0.00019715051
000020 72 77 63 bb ca e8 58 3b ea 13 89 3b 1b 2a 1a b9
       -0.0034708646 0.0033097737 0.004183282 -0.0001470227
000030 fc 46 aa 3b 77 e8 a7 ba ec 67 00 bc 5c 2b 08 bc
       0.0051964503 -0.0012810369 -0.007837277 -0.008311119
000040 88 49 d9 39 ab 2f 99 3b c7 f8 98 3b c7 c3 2f 3b
       0.0004144425 0.004674872 0.0046683284 0.0026819573
000050 47 85 b8 3b 89 35 90 bb 74 d1 16 3c 67 0a aa 39
       0.0056311223 -0.004400913 0.009205211 0.00032432677
000060 24 48 b8 3b 0a 99 74 ba 61 cb e6 3a be 4a 37 ba
       0.005623834 -0.0009330666 0.0017608219 -0.00069920334
000070 b5 11 44 bb d4 ea d1 3b d1 3c 8d bb c4 ab 40 3b
       -0.002991778 0.0064061675 -0.0043102284 0.0029399255
000080 0e 3c c5 ba 8d 45 99 3b 7e 19 0b 3c 9b b2 ba bb
       -0.0015047805 0.0046774806 0.0084899645 -0.005697561
000090 94 b4 04 3c 2c 7f 0a bc 54 92 bf bb ff 7e 07 3c
       0.008099694 -0.008453172 -0.005846301 0.008270024
0000a0 c3 af 67 3b bb df 19 bc bd 6a 6d bb 37 65 8e 3b
       0.0035352565 -0.00939172 -0.003622695 0.004345562
0000b0 99 63 5a bb 86 8b 2b 3c 9f 69 32 3c 05 ed 2d bb
       -0.0033323525 0.010470277 0.01088944 -0.002653898
0000c0 5d eb d2 ba c9 ab 3e 3c 40 14 fb 3b e2 c6 65 ba
       -0.0016091872 0.011637636 0.007662326 -0.00087652926
0000d0 8e 94 74 3b 6f 6b 37 bc 1b 41 85 3c cc bc 94 b8
       0.003731999 -0.011195048 0.016266396 -7.092356e-05
0000e0 f2 39 c6 bb ee cc 7e bb 56 6d 05 bb eb 43 dc ba
       -0.006049388 -0.0038879472 -0.0020359359 -0.0016804909
0000f0 5c 83 5f bb 10 9e 92 bc bf ab e6 ba 2c 34 56 3c
       -0.0034105396 -0.017897636 -0.0017598792 0.013073962
000100 b7 6d 1a 3b 1a 03 a2 3a 1b f4 a0 b9 56 d8 4d 3b
       0.002356393 0.0012360543 -0.0003069945 0.0031409464
000110 51 65 8a 3b 63 57 78 3b 64 2f 88 38 b8 57 79 bb
       0.0042235036 0.0037893883 6.4938125e-05 -0.003804667
000120 0e f8 05 3a c9 bb 07 3a 47 05 79 ba 13 2b 87 bb
       0.00051105104 0.00051778235 -0.00094993826 -0.004125008
000130 02 af a5 3b 0e c4 bb bb 06 62 9a bb 3a 25 1d bc
       0.005056263 -0.0057301586 -0.0047113923 -0.009591395
000140 91 04 6b 3a 7f d0 bf b9 85 6e d6 bb fb dd 54 ba
       0.0008965219 -0.000365857 -0.0065439367 -0.0008120236
000150 a8 b8 95 3a 70 04 ea 3b b6 11 62 3a c2 b6 0d 3c
       0.001142283 0.0071416423 0.0008623855 0.00864953
000160 42 8c f4 ba c6 2e b3 b9 1c 78 70 3a 57 e2 83 bb
       -0.0018657523 -0.0003417639 0.0009173171 -0.0040247845
000170 86 c3 e7 3b 54 0e eb 3b 1a a6 83 bb 58 1d e4 ba
       0.0070728688 0.007173339 -0.0040176036 -0.0017403765
000180 bc 9f 96 3b 56 e5 24 3a 56 7e ff 3a 93 71 e8 bb
       0.0045966785 0.0006290277 0.0019492607 -0.007093617
000190 04 98 d0 bb ba 67 0d 3c 56 36 5d b8 c2 26 0d ba
       -0.006365778 0.008630687 -5.274111e-05 -0.00053844985
0001a0 b0 69 cf 39 f6 04 3d 3c 95 53 e8 3a dd 44 db ba
       0.0003956086 0.011536827 0.0017725105 -0.0016728897
0001b0 13 b7 b2 3b 66 4e 97 ba fb 40 ab bb 34 06 be ba
       0.005453953 -0.001154375 -0.005226252 -0.0014497698
0001c0 7e c9 8b bb 3d 63 96 b9 9d 3f 21 3b 4a 76 b9 3a
       -0.004265963 -0.00028684168 0.0024604567 0.0014149633
0001d0 e9 16 8e 3a 2a c1 2b ba 5d be 52 bb 34 84 26 3b
       0.0010840568 -0.0006551916 -0.0032156922 0.002540839
0001e0 a5 cf bc 3b 4e 4e 4a bb 83 8e 20 3c 06 31 9c 3b
       0.005762058 -0.0030869427 0.009799602 0.0047665862
0001f0 91 9f 58 bb a3 55 b6 3b 9e 17 4a bb c3 6a 40 bb
       -0.0033054093 0.005564408 -0.003083683 -0.002936051
000200 7f 26 6b 3c 24 10 d0 39 fb 28 88 ba 39 89 f5 bb
       0.01435244 0.00039684877 -0.001038819 -0.007493165
000210 16 f7 80 bb f7 d5 9d 3b e9 ab c8 ba 19 c9 ba 3a
       -0.003935705 0.0048167664 -0.0015310022 0.0014250606
000220 e7 02 2f 3c 57 08 f6 bb f3 91 30 3b 4b 4d ef 3b
       0.010681844 -0.0075083184 0.0026942461 0.007302915
000230 c8 8d cb bb 34 b7 ae 39 4b 3e 7c bb 49 0e ce bb
       -0.00621197 0.00033324363 -0.0038489278 -0.006288324
000240 96 a2 ec 3b 78 0a 71 3b 15 88 8c bb 1d 5a 25 bc
       0.00722153 0.0036779922 -0.004288683 -0.010092285
000250 50 c2 35 ba fd 05 e9 bb 4a d9 e3 3b 63 13 ac 3b
       -0.0006933557 -0.0071113096 0.006953393 0.0052513345
000260 d3 04 08 bc d8 a9 a8 3a 56 e5 52 bc 72 22 12 3c
       -0.008301931 0.0012868 -0.012872061 0.008919345
000270 2a bf fb 3b 80 b3 a7 ba 78 13 1e bb f4 96 bf bb
       0.0076827006 -0.0012794584 -0.002412049 -0.0058468524
000280 12 23 85 38 3a 8a b3 bb c6 07 a0 3b a2 6f 06 bb
       6.3484666e-05 -0.0054791244 0.004883739 -0.0020513316
000290 c6 9d 00 bc 10 d7 bb 3b 98 ce a0 ba fe 04 b1 bb
       -0.007850116 0.0057324246 -0.0012268601 -0.0054022064
0002a0 a0 d6 1b bb ab 37 e5 3b ec 33 a9 ba 0c bf ba 3a
       -0.002377905 0.0069951615 -0.0012909151 0.001424761
0002b0 03 af 95 bb ed b3 8e 3b b6 1f 57 bb b7 c2 93 3b
       -0.004567982 0.004354945 -0.0032825298 0.004509296
0002c0 96 0f 82 bb 59 cf b7 39 27 db 85 39 08 80 b2 bb
       -0.003969143 0.00035058966 0.00025531018 -0.0054473914
0002d0 89 c3 f7 bb bc 85 1b bb 50 8b bd bb 66 a1 8a 39
       -0.0075611514 -0.0023730835 -0.0057844296 0.00026441662
0002e0 c5 b2 eb 3b 5b 50 fa ba cc be 2c 3c 0e c2 9a b9
       0.007192942 -0.0019097434 0.010543536 -0.0002951775
0002f0 00 e0 cf bb 10 fa 29 3b 5c b4 a3 3a 34 fc cf 3a
       -0.0063438416 0.0025936402 0.0012489664 0.0015868009
000300 f3 ea d9 3b 09 19 ee 3a 10 f2 05 3c cf a8 83 bb
       0.0066503226 0.001816542 0.008175388 -0.0040179263
000310 87 4e aa 3b 4a a8 02 3b ad 38 8b ba 4a 9c d7 3b
       0.0051973495 0.0019936734 -0.0010621749 0.0065799104
000320 25 6e d8 ba e8 54 b6 38 00 89 80 3a d3 a8 e9 b7
       -0.0016512318 8.694251e-05 0.0009806454 -2.785438e-05
000330 93 dc e9 3b 2b 4e 18 3b ce fb d7 3b 48 f7 da bb
       0.00713689 0.002323995 0.0065912968 -0.0066823103
000340 4f 75 b6 bb f6 b2 cd 3a 45 fe 3c 3a f7 33 4e 3a
       -0.0055681835 0.0015693593 0.000720952 0.000786602
000350 23 a0 a6 3b 2b a5 fc bb 60 fe 11 3c ad fd 58 3b
       0.0050850078 -0.0077101192 0.008910745 0.0033110187
000360 9d 1e e2 bb 5e 4b d3 b9 90 39 8b 3b a2 ae 4f 38
       -0.006900622 -0.0004030121 0.0042488053 4.9515285e-05
000370 71 4f 91 bb 3d b9 cf ba 21 d0 41 bb 26 03 8f 3b
       -0.004434519 -0.0015848052 -0.0029573517 0.004364389
000380 c5 99 81 3c bc 59 ca bb b8 ec f5 bb 52 56 68 ba
       0.015820393 -0.006175248 -0.0075050257 -0.00088629604
000390 5a 1d 7a 3b cd c8 09 3b ee 6d d4 b9 7d 64 8b 3c
       0.0038164468 0.0021024228 -0.00040517695 0.01701569
0003a0 67 00 18 3c 41 16 a6 bc 21 44 2f bb f8 7d 67 3c
       0.00927744 -0.020274283 -0.002674349 0.014129154
0003b0 03 be 45 b9 86 09 57 3c f5 f5 8c 3c 6b d7 d2 3b
       -0.00018858169 0.013124829 0.017207125 0.006434371
0003c0 c3 e0 17 3b 44 b9 82 bb be d4 8e bc dc af 24 bc
       0.002317474 -0.0039893705 -0.017435428 -0.010051694
0003d0 3f 14 bb bb cb 6f af bb af ca e5 ba 9a 69 15 39
       -0.0057092006 -0.005353903 -0.0017531718 0.00014249087
0003e0 58 d4 95 bc 65 81 ef 3b c9 51 ed bb 90 ed bb ba
       -0.01828973 0.007309126 -0.0072424156 -0.0014337767
0003f0 5c 6a 12 3b 0e ba 83 bc 39 db 02 3c fb b4 95 3b
       0.0022341227 -0.016079929 0.007986837 0.0045686937

fc4.bias f4 [256]
000000 da 16 8e bd 33 ec f3 ba e1 b8 31 3c 3c 0b 3c 3b
       -0.06937952 -0.0018609822 0.010847301 0.002869322
000010 ce 99 59 bc e2 81 ff bb ff 52 2b 3e d6 56 ec bb
       -0.013281299 -0.0077974657 0.16730879 -0.0072125
000020 6a 29 1b 3d 09 d8 ac bd 7b 63 a3 bc b8 29 77 bc
       0.037881292 -0.08439643 -0.019944897 -0.01508563
000030 fc 46 ae bd c8 c0 7c bd 5b 93 ee 3d e5 73 d8 3c
       -0.08509633 -0.061707288 0.116491996 0.02642245
000040 fb bf 68 bc 23 76 df ba a7 14 3c bd 6a ba ba 3d
       -0.014205928 -0.0017048757 -0.045918133 0.09117587
000050 d6 ba 16 bd e0 59 7e bd 68 8a 2d bd 91 d0 89 3c
       -0.036799274 -0.06209743 -0.042368323 0.016823085
000060 ed 28 d1 bc 71 12 c7 3d d7 7f b7 bd 7d 98 f8 3b
       -0.02553221 0.09720314 -0.089599304 0.0075865374
000070 4f 2e d1 bd 6a 75 3c 3d 4b a6 be bb 83 af 69 bc
       -0.10213911 0.046010412 -0.0058181635 -0.014263037
000080 e2 10 23 3e c2 d4 1e 3c c6 99 22 3d 1b 17 08 bd
       0.15924409 0.00969428 0.03969743 -0.03322516
000090 f8 0e 2c 3c eb bd 54 3c 53 7f 51 3d 07 6f b9 bc
       0.010501616 0.012984733 0.051146816 -0.02263595
0000a0 85 2c bb bc 06 0e 33 3e fc 79 0b bd f0 6c 3e be
       -0.022848377 0.17485818 -0.03405188 -0.18596244
0000b0 0a 00 60 bd 5b 9b 11 3d 54 d3 dc bd de cf d5 3d
       -0.054687537 0.03554855 -0.10782495 0.10440038
0000c0 4b 7a 04 bc 0e 6a a0 bd ec 7d 2b bd e2 4e 99 bc
       -0.008085798 -0.07832728 -0.041868135 -0.018714372
0000d0 5e 3f 12 bc df cc a5 3c c9 a4 43 be 67 ea 38 be
       -0.008926241 0.020239292 -0.1910583 -0.18058167
0000e0 fc fc 37 ba 2b 2f aa bc ea ac d8 bd 16 13 12 be
       -0.00070185936 -0.020774445 -0.10579856 -0.14265093
0000f0 cd f4 90 bd 7b 37 39 bc 07 81 96 3d 6c 1c e1 bb
       -0.07077942 -0.0113047315 0.07348829 -0.006869843
000100 6b fd 0e bd 1b fe a3 3a b7 47 99 3c 06 54 01 bd
       -0.034909647 0.0012511642 0.018710954 -0.03157427
000110 df 8a 40 3d 29 47 c7 3c e3 a9 1e ba 77 10 e6 bd
       0.047007438 0.024325924 -0.0006052537 -0.11233609
000120 50 34 c1 bc a9 b7 b7 bd 50 fc 9b bd 20 f7 91 bc
       -0.023584515 -0.08970577 -0.07616484 -0.017818034
000130 11 18 98 ba 13 a3 0c bd b4 8d 85 bc 63 b3 0b be
       -0.0011603852 -0.034335207 -0.01630292 -0.1364265
000140 41 f1 96 bd 85 4b 13 be 45 1f b1 bd de a0 9a 3d
       -0.07370234 -0.14384277 -0.08648542 0.07550214
000150 c0 78 0b 3c 52 d0 80 bd 53 8e bd 3c d3 30 20 be
       0.008512676 -0.06289734 0.023139155 -0.15643625
000160 ac ee 4d 3d 61 be 68 bc e7 1f 19 be 69 c7 a0 bd
       0.050276443 -0.014205546 -0.14953576 -0.078505345
000170 4b 23 d3 bd fe 55 90 3b d8 9a 3d bd 3c ce 89 3c
       -0.10309466 0.0044047823 -0.04629025 0.016821973
000180 91 fd 93 3d b7 0e 08 bd 02 df 52 bc 39 41 4a bd
       0.07226098 -0.03321716 -0.012870552 -0.049378607
000190 6f 48 09 3e fe 43 3d bd ce af bd bd 13 50 85 3a
       0.13406537 -0.04620742 -0.09262048 0.0010170959
0001a0 3e 88 57 bd 4b 3e 83 bc 82 d7 fe bd 84 05 c0 bc
       -0.052620165 -0.016020915 -0.124434486 -0.02344013
0001b0 9c 96 72 bb 23 4e a7 bc 07 55 e0 bd 13 85 d3 bc
       -0.003701604 -0.020423 -0.10953718 -0.02582029
0001c0 4b 5d c9 bc 64 af a4 bd ea 9d 18 3d 1c 47 e1 bd
       -0.024580618 -0.080412656 0.037259974 -0.10999891
0001d0 9f 73 28 3e 85 49 e9 3c ca 26 45 3d 4a 57 48 ba
       0.16450356 0.02847744 0.048132695 -0.00076424016
0001e0 f8 94 bd bd b9 ab d5 ba f5 0a 1b 3d 91 4a f2 bc
       -0.09256929 -0.0016301788 0.037852246 -0.029576572
0001f0 9f 93 98 3c 7b cf 9f bc 94 ef 24 3c df e9 94 bc
       0.018625079 -0.019508114 0.0100668855 -0.018177925
000200 c6 43 e3 3b 62 52 38 bd 89 10 1f be 8d 98 19 3d
       0.0069355695 -0.04500044 -0.15533651 0.037499
000210 56 59 ac bd 67 d8 31 bc 98 c0 eb 3c 10 b3 ca bc
       -0.08415477 -0.010854817 0.02877836 -0.024743587
000220 6a ea 81 bd 8e f7 9b 3d 66 86 e3 3d 37 94 2f bd
       -0.06343539 0.07615577 0.11109619 -0.042865958
000230 70 67 bb 3d 36 e0 01 3c 9b e4 b7 3d 5c 1a 05 be
       0.091505885 0.007926991 0.0897915 -0.12998337
000240 39 6b f1 bd c0 c0 3f bb c3 86 0c 3e c4 e7 ac 3d
       -0.11788029 -0.0029259175 0.13723283 0.08442643
000250 f7 be 8b 3d fd de e4 3d 4b 40 a9 3c 67 9f 12 bd
       0.06823533 0.11175344 0.02066054 -0.03579655
000260 53 ef b0 bc 3c ef a5 bc 00 1e 96 bd fb 04 d4 bb
       -0.021598494 -0.020255677 -0.07329941 -0.0064703203
000270 c8 0b a7 3d 37 92 cc ba 73 4d e9 3c bb c3 90 bc
       0.08156544 -0.001560754 0.028479313 -0.017671457
000280 92 9c 3d 3c 00 ee 17 3d 34 a2 80 bd 23 0d a9 3b
       0.011572974 0.03709221 -0.06280938 0.0051590367
000290 b4 78 22 bd c8 0e 62 bd 64 d8 e3 3d 28 a8 fa 3c
       -0.039665893 -0.055189878 0.111252576 0.030597761
0002a0 7d a4 de bb 3c e8 11 be ba fa 5f 3d 6f 87 0d bd
       -0.006794511 -0.14248747 0.05468247 -0.034552988
0002b0 4d c2 95 3d b8 b6 0a 3e b7 b8 f4 3c 43 d1 e9 3d
       0.073124506 0.13546264 0.029873235 0.11416867
0002c0 45 b3 93 bb 40 d7 5e bd 23 dd bb 3d d4 31 e2 bd
       -0.0045074546 -0.054404497 0.09173038 -0.1104466
0002d0 bb 64 00 bd 95 3c 7d 3d a2 a1 3d ba 47 38 ee 3d
       -0.031346064 0.061825354 -0.0007233863 0.11631828
0002e0 bd 19 08 3d 40 61 9c 3d bc 47 6a 3c 30 f1 83 3c
       0.03322767 0.076357365 0.014299329 0.016106218
0002f0 c3 90 94 bb 5c 5d 5c bb 7c fa b2 ba 33 41 4b 3c
       -0.0045338585 -0.0033624982 -0.0013654972 0.012405681
000300 61 30 ce bd 5a 06 a0 3d ea 3f b9 3d 59 cc f1 3d
       -0.10067821 0.078137115 0.09045394 0.11806554
000310 32 87 d6 bd c7 69 ba 3d 86 bf 60 bd 5d d3 d7 3c
       -0.10475005 0.09102207 -0.05487015 0.026345903
000320 d0 8f 62 bc 86 21 21 3e 3e e8 f1 3c 87 95 8c bc
       -0.013828233 0.15735444 0.029529687 -0.017161144
000330 f3 bb 99 bc f9 0d c0 3d 9a a8 a4 3c d9 89 b4 bd
       -0.018766379 0.09377665 0.020099927 -0.08815355
000340 f7 84 8f bd 13 fa e7 bd e8 50 0b bb 2f 86 ea 3a
       -0.07007783 -0.11326995 -0.002125794 0.0017892773
000350 f9 bb ce bd 61 a0 14 3d 01 55 b0 bd 17 c6 22 be
       -0.10094447 0.03628576 -0.08609963 -0.15895878
000360 42 c4 d3 bd 99 29 48 3d 48 fd ec bd 65 67 fd bb
       -0.103401676 0.048867796 -0.11571747 -0.007733273
000370 aa 06 08 bd dd a9 e0 bd 6a da 00 3e da 0e c2 bd
       -0.03320948 -0.10969899 0.12583318 -0.09475489
000380 9b d1 c7 bd c3 51 25 3d 53 19 1b 3e 5f 9e ea bc
       -0.09756776 0.040361177 0.15146379 -0.02863997
000390 31 cb 18 be 37 77 03 3d e0 65 ee 3d d9 be 5f 3c
       -0.14921261 0.032096114 0.11640525 0.0136563415
0003a0 82 0e 0a 3c c4 69 25 3d 15 34 f8 3c 18 93 b4 bd
       0.0084263105 0.04038407 0.030298272 -0.088171184
0003b0 ef 79 d8 3d b9 56 a8 bd 7f 4f 30 3d 01 53 cc bd
       0.10570132 -0.08219666 0.043044563 -0.09976769
0003c0 24 11 c8 bd d7 1b bb 3d d9 e7 97 3d 88 fa be 3d
       -0.09768894 0.091361694 0.07417268 0.09325129
0003d0 ec 83 cf bc f2 7e 54 3d 75 e8 13 3e 91 b7 c8 3d
       -0.02533146 0.051878877 0.14444144 0.098006375
0003e0 fa 3f ad bd 5e a0 a7 3c 11 6a ef 3d 7a 41 37 be
       -0.08459468 0.020462211 0.116901524 -0.17896071
0003f0 a5 d7 3b 3d e1 bd bc 3d d7 1f 23 bd 3c 46 3b bc
       0.04585995 0.09215904 -0.039825287 -0.011430319
