customized/model/trained_model/vae/vae_z_20batch_64.pth (torch, 855073 bytes, 10 tensors)

fc1.weight f4 [256, 384]
00000000: 5033 203d 5003 493d 88c8 8a3c 15ec c1bc
00000010: 04f2 8c3d 1833 56bc db69 01bd 1610 773c
00000020: 9fc6 a7bd 5b09 ca3c ba57 e83c 9615 73bd
00000030: 1260 0bbc 4048 6f3c c438 983c 79c5 4fbd
00000040: 5371 b83c 609a 0a3d 547b 533d 8b47 c4bc
00000050: f67c 373d c08b 013d 315a 3f3c 7ab0 00bc
00000060: 85a9 a7bd b736 3f3d 6a02 59bc dc37 d43b
00000070: 5865 b53c f64e be3c def5 8b3c 8c44 a43c
00000080: 405c 26bd 63f1 76bc 0b2a 06bd b7d1 3ebd
00000090: 56b1 f1bb ecde 22bd 12d5 0ebd eb37 a23d
000000a0: 3ff3 933b 3344 8d3d 9893 54bd 81fb 4b3d
000000b0: bbee e43c 29a1 b33c d320 c23b f33c 6c3c
000000c0: 4b06 2c3d 87e1 a5bd 3634 613b a16e 6c3d
000000d0: 77dc 5cbd e579 f0bc 8932 90bc 9e66 0e3d
000000e0: 05f3 0fbd e617 a43c 497c 743d 660b 7d3c
000000f0: 95dd 5cbd 890f c3bc d2dd 4dbc 284d a4bc
00000100: 54fb 5ebb d9ed 80bc c4da 083d 92a4 243d
00000110: b381 7b3d efc9 883c 19e3 543c 9f68 82bd
00000120: fd15 963b a414 0f3d 8598 cebc 271b 7dbd
00000130: 07f4 a23c 7555 ed3b a006 fdbc 8f45 fcbc
00000140: b6c2 033d 3aea dc3b 6e14 813d 767c 133c
00000150: aa39 cfbc 1201 90bc dd14 a13d fd52 febc
00000160: 8038 233c c9ac fdbc 635a 853c 7d8e 37bd
00000170: 4229 873c 5010 263d 0139 3abd 291d 683c
00000180: 7fbd 02bd bf92 973c 21d6 3b3c e9f6 f0bc
00000190: b696 84bc a8ea 123c a483 e5bc 406e f8bb
000001a0: e341 4dbd aa56 a6bd 8da8 bdbb 893b 6abc
000001b0: 3de1 8c3d dbb4 fe3a 44f3 c0bb 8d55 80bc
000001c0: fb0d 8abc 7b55 2a3b ac2f 3fbd 1753 6abd
000001d0: da04 f13c 4698 453d 459b d9bc 17c9 af3a
000001e0: 8764 14bd 54a3 c13d 80c8 2e3c 6ba0 1d3d
000001f0: c776 1bbc 8bf8 13bc 72cd 7cba f35d 89bc
00000200: cda3 f939 3756 313c e091 d23c f428 5c3c
00000210: e067 973d bfae e33c 6282 e23c 6886 c5bc
00000220: 2242 d2bc 9be4 9c3d e82d 9e3d 2bb6 4f3d
00000230: 5e2a 983d bd99 89bc dbc0 073d 7cc1 1e3b
00000240: 2e89 47bb c066 27bd f30d a43c d0c3 5a3b
00000250: f339 7c3c f730 43bd 56ba 22bd 7ba2 1f3c
00000260: 9242 59bd d69b 8a3d aa0a ca3c 6e25 1abc
00000270: 26ae ab3c b010 543c 48a7 4f3c 056d 0abd
00000280: 3bd7 b9bb c566 8dba bf90 b43c 3e8b adbc
00000290: 35cd bf3c f860 03bd aab0 dabb fdf0 2c3d
000002a0: 5d90 ae3c 1200 9fbc ba0d 213d b02b 58bc
000002b0: 05ee ef3b a121 b6bc 9f98 50bb 6d5d 97bd
000002c0: 14f6 84bd 9726 01bc 9ac1 29bd b1f1 9dbc
000002d0: 452e 69bb 298f 18bc 13fa 143d edd8 62bd
000002e0: 2bf9 c7bc 3eb0 2bbd 0a8c 763d 9b39 dbbc
000002f0: ef4e 2d3b 39a0 c63d 82a7 86bd 5342 97bd
00000300: 8def 27bc f175 bcbc 1524 0b3d 33a8 7ebd
00000310: de40 7b3c 563c 66bd e60d 8f3d 6008 6b3c
00000320: cd16 2abd 4856 043d b63f 35bc b8ec 06bd
00000330: 89af 6fbd f2d3 913b d903 b23c 722d 4b3d
00000340: 1631 933d 217a 4b3c 4f11 19bc 1109 733d
00000350: af09 28bd 399b 65bc 5753 d23c b05d a13c
00000360: ae5f 18bd f19e 6c3d 23ce 39bd 2bbb 153d
00000370: 4679 a8bc a9eb 4b3c a96f 133d 6c2f a8bc
00000380: 8d3d af3c 67bd 0bbc 0238 aebc 103b c03c
00000390: 5ba0 4a3d 7646 70bd 7b58 c03b a655 9b3c
000003a0: 63b0 48bd 268a 5ebc 24a4 0bbc 1a91 73bd
000003b0: e906 7f3c 721e d13b f952 753d dffe 8ebb
000003c0: a0f0 46bd caf9 d9bc 2599 623d 7a0c d73b
000003d0: 7b0e a3bd 9f21 813c 0715 633d 4114 fbbc
000003e0: 2a41 353d c832 15bd 39f2 b9bb 8d99 523d
000003f0: f6c3 7c3d 1578 7a39 d5dd a5bd f5d5 f0ba
0.039111435 0.049075425 0.016941324 -0.023672143 0.06882098 -0.013073705 -0.031595092 0.015079519
-0.08192181 0.024662664 0.028362144 -0.059346758 -0.008506792 0.014604628 0.018581755 -0.050725434
0.022514975 0.03383863 0.051631287 -0.023959896 0.044796906 0.031627417 0.011679218 -0.007854575
-0.0818663 0.04668304 -0.013245204 0.0064763855 0.022143051 0.02323101 0.017085012 0.020052217
-0.04061532 -0.0150721995 -0.03275494 -0.04658672 -0.0073758764 -0.039763376 -0.03487117 0.07920822
0.004515081 0.068977736 -0.05189857 0.0498004 0.027945867 0.021927433 0.005924323 0.014418828
0.04199819 -0.080996566 0.0034363396 0.05772269 -0.05392119 -0.029354999 -0.017602222 0.034765832
-0.03514387 0.020030927 0.05968884 0.015444612 -0.053922255 -0.023811119 -0.012565093 -0.020056322
-0.0034024315 -0.015738415 0.033411756 0.04019601 0.061402988 0.016697852 0.012993597 -0.06367611
0.004580258 0.034931794 -0.025219211 -0.061793473 0.019891752 0.0072428533 -0.030886948 -0.030794887
0.032168113 0.006741789 0.06302725 0.009001842 -0.025296051 -0.017578635 0.078653075 -0.031045431
0.009962201 -0.03096618 0.016278451 -0.04481362 0.016499165 0.0405429 -0.04546452 0.014167109
-0.031919 0.018502591 0.0114646265 -0.029414611 -0.016185146 0.008967079 -0.028016873 -0.007581502
-0.050111663 -0.081219986 -0.005787915 -0.014296421 0.06878898 0.0019432561 -0.0058883745 -0.015665794
-0.01685237 0.0025990892 -0.046676323 -0.057208147 0.029421259 0.048240922 -0.026563296 0.001341137
-0.036228683 0.094549805 0.01066792 0.038483065 -0.009488768 -0.009031425 -0.0009643651 -0.016768431
0.00047615022 0.010823778 0.025704324 0.013437498 0.073928595 0.027793286 0.027650062 -0.024111941
-0.0256663 0.076607905 0.077236 0.05071084 0.07429956 -0.016796941 0.033142906 0.0024224212
-0.0030446756 -0.040869474 0.020026183 0.0033380874 0.015394676 -0.04765412 -0.039728485 0.009743328
-0.053042002 0.067680046 0.024663288 -0.009408338 0.020957064 0.012943432 0.01267416 -0.033795375
-0.0056714094 -0.0010788074 0.022041677 -0.02118456 0.02341328 -0.0320749 -0.006673892 0.04222201
0.021309072 -0.019409213 0.03931973 -0.01319401 0.0073220753 -0.022232832 -0.003182925 -0.073908664
-0.06492248 -0.007882736 -0.0414444 -0.019280287 -0.0035580557 -0.009311476 0.0363713 -0.055382658
-0.024410805 -0.041916125 0.060192145 -0.026760867 0.0026444753 0.09698529 -0.06574918 -0.07385697
-0.010249984 -0.023005458 0.033969957 -0.062172126 0.01533529 -0.056209885 0.06985073 0.0143452585
-0.04152565 0.032308847 -0.011062553 -0.032940596 -0.058517013 0.0044503147 0.02173035 0.049603887
0.07187097 0.0124192545 -0.009342506 0.05933482 -0.04102486 -0.014014059 0.025674505 0.019697994
-0.037200622 0.057768766 -0.045362603 0.03655545 -0.02056564 0.0124463225 0.03599516 -0.020530425
0.021391654 -0.008529044 -0.021266941 0.023465663 0.049469333 -0.058660947 0.0058699227 0.018961739
-0.04899634 -0.013582742 -0.008523021 -0.05946455 0.015565612 0.006381803 0.059893582 -0.004363879
-0.04856932 -0.026608367 0.05532183 0.0065627666 -0.07961746 0.015763102 0.055439975 -0.030649306
0.0442516 -0.036425382 -0.005674627 0.05141597 0.06171032 0.00023886592 -0.08098952 -0.0018374311

fc1.bias f4 [256]
00000000: fc94 173c b15d 9cbc cd1c 943c e087 76bd
00000010: 6e28 0abd 7d1a 4cbd 5b2d c13b 767a b43b
00000020: c919 a53c d35a 2ebc b87a b43c 1447 7cbc
00000030: bba2 48bd 9647 57bd 2c9f a6bc a931 31bb
00000040: 5608 f0bc e63f 99bc 7417 84bc c9d0 efbc
00000050: a5a2 9a3b 028a 03bc 2b21 943b 4881 0e3c
00000060: b00e ae3c 0d8b e13b 4bf6 d1bc 01e3 9ebc
00000070: d4d5 663b b5a6 11bb 12a8 68bd f63f 723c
00000080: 7224 02bd 4ea6 e23c 2655 d8bc 52ef 17bd
00000090: 4bb6 6fbd 5752 a0bc 6abd e43c de21 153b
000000a0: 9434 84bd acd3 3a3c 7829 3dbd 7985 6f3c
000000b0: 82a0 21bd be2b a7bc 46f8 e9bc 31dd 33bd
000000c0: e27d 80bd 1353 cc39 4bfc f4bb 7b9a a4bb
000000d0: d62b 1fbd 6845 44bd 7cf8 2cbc 9728 6b3b
000000e0: 0113 c33c d1a7 06bd db46 50bd faf2 31bd
000000f0: 7af4 47bd af63 61bd 4830 c7bc 6816 d6bb
00000100: b4aa 6abd 601c b13c 0571 73bb c5d4 2cbd
00000110: 701e 4fbd 9acc 19bb 194f 823c b0dc 64bc
00000120: b56a 4dbd 4eca 453d 430d 1fbd 6a48 ddbc
00000130: f5c8 a139 050b eebc ef1d 16bd 081a 50bd
00000140: 6fbc 12bd 1b28 09bd 602d 0fbd 7e1d 0cbd
00000150: 10fa d8bb 540d b93c 68a0 17bd 6641 7cbc
00000160: 1c63 a9bc c046 20bc bb28 a23c 8be8 37bd
00000170: 20c1 91bc 482e 1abd c1a8 bc3c 9662 3cbd
00000180: 9ce6 3dbd cac3 2e3b 8aa6 a73b 33c8 cabc
00000190: f309 cd3c bbd7 5bbd 1654 74bd 8674 e53c
000001a0: b419 f9bc 1751 7fbd b00e a13c 60d2 5bbd
000001b0: 7094 8fbd de85 82bc 252c 3ebd 7cca fbbc
000001c0: d405 23bd 10c8 8eba 99ab 053b 1c99 cabb
000001d0: e21e 81bb 1b9d bf3c 0e0a aabc f0b3 52bd
000001e0: d953 f6ba 32b9 9bbd 9aba 00bc 8a8d 82bd
000001f0: 3914 133c 1a24 17bd 4e57 84bd e6b1 19bd
00000200: b1c1 6bbc cffc c7bc 9adb ad3b aa6e 07bc
00000210: 70e0 8cbc 524e d1bc a43f 6dbd 238b 3abd
00000220: 963c f63c 3068 ca3c 4213 363c f3b8 de3b
00000230: da24 c33a 611f 85bd eea5 d7ba fef3 8c3c
00000240: cfeb 81bd 5d90 93bd b1c4 65bd 7ee1 c6bc
00000250: 747c 893c 9813 b9bc 3479 68bd 2ccd 383c
00000260: 4e61 353c 477d 00bd 5017 053b d7d8 f7bc
00000270: f9c7 28bd 9e98 04ba 2555 aa3a 06df 223c
00000280: 3e24 8bbd 979b 83bd e39e b4bc f953 de3c
00000290: 4a3e 7fbd 06a2 2e3d 896c a63c 32ff 03bd
000002a0: d932 fdbc 66ba 05bc 40f7 5dbd 3f33 62bd
000002b0: fc5a 703c d995 bdbc 18b5 8ebd d3e6 4abd
000002c0: 1218 19bd 90ef b6bb 08f3 5cbd 2b5d 3dbd
000002d0: c262 89bc 11e2 c8bb a810 b939 54f0 2abd
000002e0: 85c4 8a3c 88ee f0bc 4095 17bd aa65 8f3c
000002f0: 92bb 03bb 587c 263c a217 81bd 9608 8e3c
00000300: 520c f2bc 7da6 85bd e5be f6bb 0ff6 eebb
00000310: 516c febc 41ff 58bd 7bfb 58bd fc7f 55bd
00000320: 44c0 373a a6cf 003c c783 96bd 5089 2d3c
00000330: d7a7 3ebd 0ea5 2abd 4616 6fbd fbcd 6fbd
00000340: 2ff4 39bd 81f2 bd3c 803c 8ebd 5cd0 b63c
00000350: 9047 3bbd 02f0 01bd 2c02 4e3c 07ca 243a
00000360: eec5 5fbd 96a3 82bd 68a0 3dbd c754 1f3b
00000370: cdee 15bd 5301 87bd c5f6 30bc bf53 52bd
00000380: 15ca c53c 1e91 703c e46e 33bd 99f1 983a
00000390: 09e6 0cbd dcb3 f2bc 25dc 2abd 3c1d 9c3b
000003a0: 1f80 4ebd 7585 1bbc 7a48 8dbc 4c30 cfbc
000003b0: 66aa 9b3c 2d76 283c 907f 9d3c 9edd 01bd
000003c0: 1c08 c13b ea22 84bc 63de ce3c 6a3a 3b3c
000003d0: aa6e 8ebd f6c7 3e3c cd4d a3bc ea65 a63c
000003e0: 069a 3b3c 18d5 c03c 9b6a 8dbd 296c 96bb
000003f0: 7dd4 9cbc 4296 3dbc 8708 ce3b 71d4 bebc
0.009251829 -0.019087644 0.01808014 -0.060188174 -0.033729963 -0.04982995 0.0058952994 0.0055077625
0.020153897 -0.010641771 0.022031173 -0.015397806 -0.048983317 -0.052558504 -0.020339571 -0.0027037656
-0.02930085 -0.018707227 -0.016124465 -0.029274361 0.004719096 -0.008028509 0.0045205555 0.008697815
0.021247238 0.006883031 -0.025630137 -0.019395353 0.0035222666 -0.002222461 -0.05680091 0.014785757
-0.03177304 0.02766719 -0.02640779 -0.037093468 -0.058523457 -0.019570513 0.02792235 0.0022755782
-0.06455341 0.011403006 -0.046182126 0.014619225 -0.039459713 -0.0204066 -0.028560769 -0.043912116
-0.0627401 0.00038971807 -0.0074763647 -0.0050232983 -0.038860165 -0.047917753 -0.01055729 0.0035882348
0.023812773 -0.032874886 -0.050848823 -0.04344461 -0.048817135 -0.055026706 -0.024315014 -0.0065334328
-0.0572917 0.021619976 -0.0037146222 -0.0421951 -0.050566137 -0.00234679 0.015906857 -0.013968632
-0.050150592 0.048288636 -0.038831007 -0.027012069 0.00030858038 -0.029057989 -0.03664964 -0.050806075
-0.035824236 -0.033485513 -0.034955382 -0.034207813 -0.0066216066 0.022589363 -0.03701821 -0.015396452
-0.020677142 -0.009782493 0.019794812 -0.044899505 -0.017792284 -0.037641793 0.023029687 -0.045992456
-0.046362504 0.0026666992 0.0051162886 -0.024753666 0.025029158 -0.053672533 -0.059650503 0.028009664
-0.030407764 -0.062333193 0.019660324 -0.053667426 -0.07010734 -0.015932973 -0.04642882 -0.0307362
-0.03980048 -0.0010893364 0.002039647 -0.006182803 -0.003940449 0.023390343 -0.020756748 -0.051441133
-0.0018793299 -0.076036826 -0.007856989 -0.06374653 0.008976989 -0.036899664 -0.064619645 -0.037523173
-0.014389441 -0.02441254 0.0053057196 -0.00826613 -0.017196864 -0.025550041 -0.05792202 -0.045542847
0.030058187 0.024707884 0.01111299 0.00679695 0.0014888302 -0.06500126 -0.0016452649 0.017206188
-0.06343805 -0.072052695 -0.056095783 -0.024277445 0.016782977 -0.02259235 -0.056756213 0.011279386
0.0110705625 -0.031369474 0.0020308085 -0.030254764 -0.041206334 -0.0005058142 0.0012995346 0.009940868
-0.06794022 -0.06426161 -0.02204842 0.02713965 -0.062315263 0.042634986 0.020315425 -0.032225795
-0.030908035 -0.008162117 -0.054190874 -0.055224653 0.01467013 -0.023142742 -0.06968135 -0.049536537
-0.03737647 -0.0055827573 -0.05394271 -0.04623143 -0.016770724 -0.006130465 0.0003529836 -0.0417331
0.016939411 -0.029410616 -0.03700757 0.017504532 -0.0020100814 0.010161482 -0.06303336 0.017338078
-0.02954689 -0.06525896 -0.0075300806 -0.007292516 -0.031057509 -0.052977804 -0.052974205 -0.05212401
0.0007009546 0.007862007 -0.07349353 0.01059182 -0.046546783 -0.041661315 -0.05837085 -0.058546048
-0.045398887 0.023186924 -0.06945133 0.02231615 -0.045722544 -0.03172303 0.01257376 0.0006286208
-0.05463212 -0.06378858 -0.046295553 0.0024312006 -0.03660469 -0.065920494 -0.010801022 -0.051349398
0.024144212 0.014683036 -0.043806925 0.0011668681 -0.034399066 -0.02962678 -0.041713852 0.004764227
-0.050415155 -0.009492268 -0.017246474 -0.025291584 0.01900215 0.010282082 0.019225866 -0.03170549
0.0058908593 -0.01612993 0.025252527 0.011427501 -0.06954701 0.011644354 -0.01993456 0.020312268
0.011450296 0.023539111 -0.06905099 -0.0045905304 -0.019144291 -0.011571469 0.0062876376 -0.02329466

fc2.weight f4 [20, 256]
00000000: 0b0b fc38 cbf2 84bb f639 4abc 9fce d63c
00000010: d413 f53c fcf1 4abd 02b9 3fbc 651f d3bb
00000020: 52a7 04bd 5ba6 d4bc db9e b53a 2020 ab3c
00000030: b755 10bc 7f5c d4bb 1aa4 2fbd 88ea 0abd
00000040: 6c46 183d 38d1 0fbd d7ea 41bd aece 4bbd
00000050: e68f 2d3c 7e96 89bc ca54 12bc 4dea d53c
00000060: 254c aa3a 7ebe 513d 66de 153c e1a5 d53b
00000070: 9d80 febc 1b74 b03b 5370 a0bc 2e6a 113d
00000080: 586c 96bb c11b 003c 3120 223c e2f3 75bd
00000090: 7959 61bd 89e7 e53c 0529 b9bb f227 063b
000000a0: 43d7 9ebb 25f8 1f3d 27bd bbbb 02ac cebc
000000b0: 1e63 f63c c6d4 12bd 29e7 f73c ab4b 253b
000000c0: af20 bbbc bbe9 673b 2ea6 87bb 0531 7fbc
000000d0: d73d 1f3d df76 fabc 96a5 04bc e286 debc
000000e0: 19f8 1c3d 84a0 8ebc c610 07bd 310a e93c
000000f0: 68bb 56bd 8642 a2bb 9aa4 2f3c 83d9 193c
00000100: 532f 1bbd 22f8 9b3c 803a a2bc d976 1abd
00000110: c791 473c 0b51 7abb 9da3 70bb 9b73 08bd
00000120: 59c4 34bc d222 12bb 8b44 933c d1d0 0e3d
00000130: 8a3c 4e3c fd65 823a b375 1d3d 5a94 8abc
00000140: 07de d23b e13a fb3b be97 57bd 0ead 123d
00000150: 03d0 313d 23e5 823b 8c98 563c 06a6 163a
00000160: a138 bcbb 7109 0ebc ec13 abbb c746 8dbc
00000170: 553d 153d f77f 193d f151 eb3c 0dea 9cbc
00000180: 1a46 4dbc 0a5d 303c 4b4d b23c 2c74 07bd
00000190: d5ea a33c 195a debb e69b 7abd a9b3 463d
000001a0: dc99 50bb 4538 ebbc f14a f03c 4bfc 3dbd
000001b0: 17be a93c 1844 8bbc d3d9 393d 5c0c 3ebd
000001c0: f52a 003d a436 513d cf91 f438 c64b ac3b
000001d0: b252 43ba 4856 4cbd 8995 663d a82d 293c
000001e0: 5ac2 7abc 9c26 3cbd 8d9e 2a3d 940d ed3b
000001f0: fc15 bebc e16d 0abb 8a09 a0bc 68eb 853b
00000200: b265 83bc ce50 693c a2ed 00bc 1904 e83c
00000210: c005 7cbc 4039 81bb 84f0 53ba 9f63 273a
00000220: 77dc 5cbb 9c99 5ebb 9beb d73c 80c3 123b
00000230: 63b6 04bd 5f76 243d 4016 03bd 39f6 623d
00000240: 7d52 513c b22d c53c 249a 09bd 2969 a3bc
00000250: 5bd8 c03c a257 413c 6e8e 7cbc d4eb 09bd
00000260: 89ad cabc b19c 2fbb f3f4 003d 462e 26bd
00000270: ee13 863c 3d25 143d 6612 fabc b557 d93c
00000280: 84ce 88bd de79 053d c708 a53c 1daa 2fbc
00000290: 8ce9 2e3d 3f52 8dbc e82c 22bd 2d30 b5bb
000002a0: b9da e1bc 8b63 893c 660c bcbc 79c1 193d
000002b0: 3f8b 823c 380a 32bc eb00 ad3c f5de f03c
000002c0: d755 373d 3c23 3a3d d8d8 633d 0211 27bc
000002d0: f372 5dbb 97b2 10bd 6df5 3cbc e686 0bbd
000002e0: 0603 8d3c 4b56 2dbc 1ce3 603d caba b13b
000002f0: 47a3 013c 3654 d9b9 85df be3c 38e1 313d
00000300: 1917 93bc 102a 06bc 7397 01bd 6f04 603d
00000310: 1822 e2ba 224e 0d3c b330 a43c 876c f73a
00000320: 4d0f 683c 381c 02ba d3f7 8ebc 0865 b5bc
00000330: 1208 1e3d 33cf 963b 098f 1dbd 916d d8bc
00000340: b7d4 a4bc ff9a b13c 4057 0c3c 790a 183c
00000350: 19e4 243d 5513 d9bb e05e 57bb 9f02 c83c
00000360: baf4 573c f8bc ad3c ad81 17bd 4867 f3bc
00000370: 3a7a 0abd 03eb 33bd fe43 2cbd 0dde c3ba
00000380: c74a 413c 5053 09bd 2eee 85bb f585 4b3c
00000390: 1d84 263c f78d e43b 5c78 27bd c3fd 78bc
000003a0: c2d4 2ebd db9f ff3c 9ea0 813c 1220 ec3c
000003b0: 807a 51bd 4e01 0bbb 580b 6f3b 22ff 0cbd
000003c0: e1f8 45bd e68d f43c aa12 21bc 99d7 913c
000003d0: ffe6 543c 2e1a 1b3b 8d3c adbb d0c6 05bd
000003e0: 96c2 373d ab1e cfbb 0d2c 63bd 8957 0e3d
000003f0: 38d0 f63b 93c8 36bc 1550 e33b a181 003d
0.00012018353 -0.0040572635 -0.0123429205 0.026221571 0.029916681 -0.04954718 -0.011701824 -0.0064429515
-0.03238613 -0.02595823 0.0013856547 0.020889342 -0.0088094985 -0.006480753 -0.04288111 -0.033915073
0.037176535 -0.035111636 -0.0473431 -0.049757652 0.01059339 -0.016795393 -0.008931348 0.0261127
0.0012992664 0.051207058 0.009147262 0.0065200184 -0.031067187 0.0053849346 -0.01958481 0.03550165
-0.0045905523 0.007819117 0.00989537 -0.060047038 -0.05501697 0.028064506 -0.005650642 0.0020470587
-0.0048474385 0.03905501 -0.005729336 -0.025228504 0.03007656 -0.035847448 0.030261593 0.0025222104
-0.022842733 0.0035387117 -0.004139683 -0.015575652 0.038877334 -0.03057426 -0.008096119 -0.027163927
0.038322542 -0.017410524 -0.03297498 0.028447242 -0.05242482 -0.004951778 0.010720396 0.009390238
-0.03788693 0.019039217 -0.019803286 -0.037711 0.012180752 -0.0038195278 -0.0036718615 -0.033313375
-0.011033141 -0.0022298587 0.01797702 0.03486711 0.012587676 0.0009948608 0.038442325 -0.016916443
0.006435159 0.007666931 -0.052634947 0.03580957 0.043411266 0.0039946004 0.013097893 0.00057467853
-0.0057440554 -0.008669243 -0.0052208807 -0.017245663 0.036435444 0.037475552 0.028725596 -0.019154573
-0.012528921 0.01076437 0.021765372 -0.033069775 0.020009438 -0.006785643 -0.061183833 0.04851118
-0.0031829989 -0.028713355 0.02933261 -0.046383183 0.020720525 -0.017000243 0.04537375 -0.046398506
0.031290967 0.0510775 0.000116619856 0.0052580563 -0.0007450982 -0.04988697 0.05629495 0.010325827
-0.015305126 -0.04593526 0.041655112 0.0072342847 -0.023203842 -0.0021122622 -0.019535799 0.0040869005
-0.016039703 0.014240457 -0.007869156 0.028322266 -0.01538223 -0.0039435923 -0.0008084851 0.0006385389
-0.0033700743 -0.003396607 0.026357463 0.002239436 -0.0324005 0.04015195 -0.03200364 0.055410597
0.012776014 0.02406964 -0.033594266 -0.019947605 0.023540666 0.011800678 -0.015414817 -0.03367217
-0.024740951 -0.0026796276 0.0314836 -0.040571474 0.016366925 0.036168326 -0.030526351 0.02653108
-0.06680015 0.032586925 0.020145787 -0.0107217105 0.042703196 -0.017251132 -0.039593607 -0.0055294246
-0.027570115 0.016771099 -0.02295513 0.037538026 0.015935538 -0.010866694 0.021118602 0.02940319
0.044759598 0.04544376 0.05562672 -0.010196926 -0.003379044 -0.035326567 -0.011533123 -0.034064196
0.017213356 -0.010579656 0.05490409 0.0054238783 0.0079124635 -0.00041452207 0.023299942 0.043427676
-0.01795535 -0.008188739 -0.031638574 0.05469173 -0.0017252592 0.008624585 0.020042753 0.0018876948
0.014163804 -0.00049633114 -0.017452156 -0.022142902 0.038581915 0.004602337 -0.038466487 -0.026419433
-0.020120962 0.021680353 0.008565724 0.009279841 0.040256593 -0.006624619 -0.0032862946 0.024415312
0.013180906 0.021208271 -0.036988903 -0.029712334 -0.03380797 -0.043925297 -0.04205703 -0.0014943496
0.011797613 -0.03352672 -0.004087231 0.012422075 0.010163334 0.0069749313 -0.040886268 -0.01519722
-0.04268337 0.031204155 0.015823659 0.028823886 -0.051142216 -0.0021210494 0.0036475267 -0.034423
-0.048333053 0.029852819 -0.00983111 0.017803 0.012994527 0.0023666727 -0.005286759 -0.032660306
0.044863306 -0.0063207946 -0.055461932 0.03475145 0.007532146 -0.011156219 0.0069370368 0.031373624

fc2.bias f4 [20]
00000000: 6037 bb3b f613 2f3b 5d2e c8bc b04c 93bb
00000010: d5b8 273c 0eaa 98bb 6ace 413b bb05 523b
00000020: 7bac 713b cd8b 893b 253b babb 74a2 94bb
00000030: 879c ffbb 2af9 08bc 2e22 3bbb 2b6a 0c3b
00000040: 78c6 2b3c 2f0c 733b 7893 f13b 2d5a 69bb
0.0057133883 0.0026714779 -0.02443617 -0.004495226 0.0102369385 -0.004658944 0.0029572495 0.0032046873
0.0036876488 0.0041975738 -0.00568332 -0.0045359675 -0.007800642 -0.008360187 -0.0028554308 0.0021425586
0.01048433 0.003708612 0.007372316 -0.0035606727

fc3.weight f4 [20, 256]
00000000: 7b98 1d3d 53c4 1b3b ad61 1f3d 8c19 413c
00000010: 1230 b9bc f00a 283d 3e29 7a3a 1ae3 fc3c
00000020: 6415 f03c ca6a 063d e2ce 1d3d 86d8 02bc
00000030: 483d 23bc b1c1 cabb fe3a baba 329d d43b
00000040: efbc de3c 1ae2 30bd e8d3 db3c 17f8 ef3c
00000050: 2117 913c ea48 843c 4b35 a63c 0a56 0e3b
00000060: 00bf 0c3b bcd0 ff3c fbc1 623c df0e 9e3b
00000070: bbe6 263c b101 2e3d 7b00 173d 7808 253d
00000080: e26b 01bb 53db f1bb 5688 533d fd86 eeba
00000090: 81e5 6b3d 8f22 44bb ab24 2f3c 0d32 86bb
000000a0: f53d e1bc d00e a03c c6b4 eabc 42c9 06bd
000000b0: c29a ca3a 274d afbc 7af0 883b 35e3 41bc
000000c0: 4d15 1d3c 910f 143d 3ba6 403d 7a9b 13bd
000000d0: 26f5 eebc ecda 4ebd 82b7 bf3c 6303 223d
000000e0: 1897 0a3d 15d1 1fbd f19f dabc 7137 b0bc
000000f0: e949 8ebc ba37 ebbb 0a08 3bbb 8135 0c3d
00000100: 8bc8 8bbc 8b0e 2a3d 4914 8e3c cd67 213c
00000110: 2957 a73b a24a 033d 2740 8d3b 15e3 07bd
00000120: 7e6e 21bc f354 8aba 8398 253d cd78 acbc
00000130: 192b 30bd 898d 94bb cbc4 593d fd36 55bd
00000140: a8ed eebc 5b64 e0bb 100d 1dbd 0286 92bc
00000150: 8af8 4cbc bd95 bfbc 3c36 27bd 575e 09bd
00000160: a325 1c3d d619 48bd 67ac edbc 3bc2 06bd
00000170: e60f 0a3d 40a0 933c 9de4 323c 44a2 04bd
00000180: 6579 99bb bd79 7cbc ecae b53c 67ee b3bc
00000190: cade 0ebd c6a0 ca3b a32a e3bb 0218 333d
000001a0: fef4 adba bfbd 9a3c deea 77bc 5c2c 14bd
000001b0: 564c 0cbb d314 953b 6678 743c 5fa9 25bd
000001c0: e72e 0e3d f93c 613c a78c 19bb 287a 4ebc
000001d0: 535e 0cbd e69d 41bd f723 24bd f1b4 2bbd
000001e0: 7e46 c6bc a1b5 51bd 7585 4c3d f720 c2bb
000001f0: bbb5 acbc 8f69 943a 9a32 eabc 6c55 0fbc
00000200: 5901 a63c b389 16bc 5b99 0fbd 6544 f23c
00000210: aa7c 543d aec3 80ba e875 df3b 6f5d 91bc
00000220: cd60 67ba 806a 15bb 2a02 d03c a16f e3bc
00000230: 084b 853c 7add 2d3d 1f02 efbc 1f2b 433c
00000240: 4696 263c 968f 21bc 932d c0bb 79b2 88bb
00000250: 54d7 c0bc ce90 013b 0fd9 8c3c 2f20 163d
00000260: 93df cebb fc60 a8bb 2e9c af3c 284d f4bc
00000270: aab3 223c cdbb acbc 8914 e1bc 1acc f7bb
00000280: a965 9c3c 9ccd cdbc a72f 2a3d d660 dcbb
00000290: 7772 7dbb 057c dcba 1f6f 50bc ba8c 3bbd
000002a0: 221c 3bbd 72b8 85bc adab 0bbc c642 863b
000002b0: d8d4 d8bc dabc 31bd 67a5 5abc 5887 3e3c
000002c0: 03f7 40bc 1254 833c 54cc fbbc 6d23 51bc
000002d0: 8949 92bc 9f2b 6b3d 6093 0c3d e5d0 843b
000002e0: 9aad e9bb 4039 1a3d b5e1 363c 08e5 37bb
000002f0: 5843 4c3c bdd4 9f3c f6f0 443c d752 383d
00000300: aba6 7bb9 5b66 05bc 4b9c f13c 9c20 0f3d
00000310: ee46 533d 3fb4 44bc ae8d a93c 4c0c ec3c
00000320: b9e7 393c 2a9d d7bc 2a54 583c 5721 79bd
00000330: 8380 023d 3612 38bd bf25 af3a 7f84 30bc
00000340: 63ce 933c 9838 1fbd aa7f a4bc b9ee 2dbb
00000350: ae3e 143c 8879 9c3c 7a31 723d 63c5 ebbc
00000360: fe4f 563d 17ad 833c 9020 223d 4f12 5bbc
00000370: 1482 603d d01c 3cbd a38e f73c fbb0 30ba
00000380: c29d 13bc 0419 7dbb 3101 97ba 5bc0 b7bc
00000390: c316 2abd 95a6 7f38 da77 13bd 0612 43bb
000003a0: 3e5a 393c 5f54 af3c 72ad 3e3d aae1 58bc
000003b0: 0ec4 a73c 56c3 a3bb 8d83 ab3c d344 35bb
000003c0: b2ea 3b3b f8a6 333d 537c 97bc 90b6 04bd
000003d0: 32cc 64bd 0894 223c c87b e2bc f781 d8bc
000003e0: 0042 b6bc b661 b7bb 0f67 e63a 26be 023d
000003f0: 3449 a3bc 0773 263c 763a dfbc 78d2 ee3a
0.038475495 0.0023768141 0.03891151 0.011785876 -0.02260593 0.041026056 0.0009542889 0.03087001
0.029307075 0.032816686 0.038527377 -0.0079861935 -0.009963341 -0.0061876406 -0.0014208255 0.0064884657
0.0271897 -0.043184377 0.026834443 0.029293103 0.017711224 0.01614805 0.020289084 0.0021718764
0.002147615 0.031227462 0.013840194 0.00482355 0.010186846 0.04248208 0.036865693 0.04029128
-0.001974814 -0.007380882 0.051643692 -0.0018198189 0.05759192 -0.0029927825 0.010689895 -0.004095322
-0.027495364 0.019538313 -0.028650653 -0.03290678 0.0015457498 -0.021399094 0.0041790577 -0.0118339555
0.009587598 0.036147658 0.04703353 -0.036036946 -0.02916963 -0.05050175 0.023402933 0.03955401
0.0338355 -0.039017756 -0.026687594 -0.021510812 -0.017369227 -0.007178274 -0.0028538727 0.034230713
-0.0170634 0.041517776 0.017343657 0.009851408 0.005106826 0.032053597 0.004310626 -0.033175547
-0.009853004 -0.0010553881 0.04042865 -0.021053696 -0.04300985 -0.004533474 0.053166192 -0.052054394
-0.029166058 -0.006847901 -0.038342535 -0.017886166 -0.012510428 -0.02338683 -0.040823206 -0.033537235
0.03812183 -0.048852764 -0.029012872 -0.032900076 0.03370657 0.01802075 0.0109187635 -0.03238131
-0.004683661 -0.015409884 0.022178136 -0.021964265 -0.034880437 0.0061837165 -0.006932573 0.043724068
-0.0013271866 0.018889306 -0.01513168 -0.036175117 -0.0021407804 0.0045496016 0.014921283 -0.040444728
0.0347127 0.013747447 -0.0023429783 -0.0126023665 -0.034269642 -0.047269724 -0.04007336 -0.041920606
-0.024203535 -0.051198605 0.049931962 -0.00592434 -0.02108275 0.0011322963 -0.028588582 -0.0087483935
0.020264314 -0.0091881035 -0.03505836 0.029573629 0.0518767 -0.0009823942 0.0068194754 -0.017744748
-0.0008826375 -0.0022799075 0.025391657 -0.02776319 0.01627113 0.042447545 -0.029175816 0.011912136
0.010167664 -0.009860894 -0.005864808 -0.004171666 -0.023540176 0.0019770148 0.017193345 0.036651786
-0.006313273 -0.0051385146 0.021436777 -0.029821947 0.009930531 -0.021085644 -0.027475612 -0.0075621726
0.019091444 -0.025122456 0.04154935 -0.006725411 -0.0038672963 -0.0016821629 -0.012721806 -0.045788504
-0.045681126 -0.016323302 -0.008524817 0.0040973155 -0.02646868 -0.043392994 -0.013345099 0.011628948
-0.011777642 0.016031299 -0.03073708 -0.012764794 -0.01785733 0.057414647 0.034320235 0.0040532225
-0.0071312906 0.037652254 0.011162211 -0.0028060097 0.012467228 0.019510621 0.01202034 0.045000877
-0.00023999314 -0.008142079 0.029493472 0.034943208 0.051581316 -0.012005865 0.020697441 0.028814457
0.011346751 -0.026320059 0.01320366 -0.06082281 0.03186084 -0.044939242 0.001336269 -0.010773777
0.018042749 -0.03887233 -0.020080406 -0.0026539995 0.009048147 0.01910092 0.059129216 -0.028780645
0.05232238 0.016073747 0.039581835 -0.013371064 0.054811552 -0.045925915 0.030219382 -0.00067402393
-0.00900978 -0.0038619647 -0.0011520741 -0.02243059 -0.041525614 6.095188e-05 -0.03600297 -0.0029765381
0.011313019 0.021402536 0.04655213 -0.013237396 0.020479228 -0.004997651 0.020936752 -0.002765943
0.0028673825 0.043860406 -0.0184919 -0.032400668 -0.0558588 0.009922989 -0.027646914 -0.02642916
-0.022248268 -0.005596365 0.0017578321 0.03191962 -0.019932367 0.010159261 -0.027249556 0.0018220684

fc3.bias f4 [20]
00000000: ae46 f83a 0542 93bb 7e60 7cbb f313 603c
00000010: 0b6b 823b a673 353b 95e1 a73b d2f7 763c
00000020: 1311 853c 94d9 d839 8a71 823b 16ff b0bb
00000030: 8902 3abc a9de 8f3a 847a bf3b 14d6 ed3b
00000040: 1aea 1db9 2461 4f3b 2203 f93b 1716 3a3b
0.0018941963 -0.004493954 -0.0038509662 0.013676631 0.0039800457 0.002768734 0.005123327 0.015073733
0.016243493 0.0004136084 0.00398082 -0.0054015024 -0.0113531435 0.0010976392 0.0058434624 0.007258186
-0.00015059896 0.0031643594 0.0075992504 0.0028394514

fc4.weight f4 [256, 20]
00000000: 8ab5 ab3c 3b83 0fbb 1f13 b03c 7b98 b8bb
00000010: df54 803b 4ab7 8bb9 be7c fb3b a152 1c3c
00000020: bf3b 113c c166 2e39 29e9 7cbb 60b1 8b3a
00000030: f703 8ebb fd2f d2bb f25b dd3a 465a 2bbc
00000040: ca9f c6ba 29a9 d3bb 4e41 31bc e29b c8bb
00000050: a44b e63b 9d58 01ba 6483 a63b 2b03 f8ba
00000060: 457a d93b df76 a63a 07cc 523b 5dd3 81ba
00000070: c952 8cbb c923 95bc c17c 173b e5de 973b
00000080: 280f 063c c389 80bb d75d 643b f5eb d2bb
00000090: 87d7 8439 f49c a2bb e58a a139 1c26 cbbb
000000a0: 0021 c4b9 5be7 29bb d5a7 56bb 4cd9 343c
000000b0: 6767 a9bb 899d 62bb acaa a63a c7f3 f9bb
000000c0: 749d ecbb 59ee c43b dfa5 4a3a f227 35bb
000000d0: 857c bd3b 63f4 05bc 97ec 07bb e835 4abb
000000e0: 3816 263b 6087 e5b9 eb9f 083c dd5f 653b
000000f0: 50ff 9b3b b4c5 113c 1201 c23b cf58 f6bb
00000100: a441 bd3b b6d4 2ebb aec1 eabb 712a 5fb9
00000110: d93d 213a 5706 e4ba 839b 7e3b d43e 113c
00000120: 6d55 efbb 7ae5 a43b 6253 42bb c75c f6bb
00000130: 6064 ec3b 511c bfbb bacf 3739 9892 5d3a
00000140: d580 90bb 7d13 f1bb 2cc5 11bc 761a ff3a
00000150: 2d1b 1e3c 4d99 83bb 96c5 79ba e3cb a9bb
00000160: 511d 5c3b b4cd 6d3c 763e 2bbc b969 39bc
00000170: 14f4 953b cefb fe3a 09cd 983b 8b97 fdba
00000180: d3fb 6bbb 28c5 f5bb 659b 9b3b 6b9c 89ba
00000190: 750d 453c 22dd 25bc 1d2a 2e3c 866a aa3c
000001a0: 01ad 74bc d5ab 38bb 05f1 84bb 5d67 1d3c
000001b0: af3f 063d 74bb 53b9 18b1 56bc eacf 1bbc
000001c0: 4998 393b b143 f1bb 8569 a638 4ab8 85bc
000001d0: 1c15 69bc e18a 49bc db42 ccbc 3fbf 433c
000001e0: 5f05 81bc a274 17bc 19ec 47bb a81c 033d
000001f0: 07e3 adbc ff98 2c3c 2a70 c6bc 5af7 1fbb
00000200: e8de 90bc b319 a53c 121f ef3a 5283 57bc
00000210: ba7c 3fbc b39b a23c 7d7d 9ebc 97d3 1abb
00000220: 04bc 843c b1d0 203d 37f2 133d 4667 6bbc
00000230: 58b8 153c 5d7c 37ba 371e f33b d73c c9bc
00000240: ef31 433c cdd0 cd3b 1280 c5bc 378c 9c3c
00000250: cf5f 8ebc 6798 8c3c 939e babc 3d24 13bc
00000260: 635a 9c3b 843a 46bb 0366 7d3b 22e6 3ebc
00000270: 6a6a 3f3b 4b0d aabc 1966 bfbb c553 99bc
00000280: f978 74bb 7021 03bc 103f 943b 5360 95ba
00000290: 7896 ca3a a3ee 2abc 534f 09bc aaf2 a23b
000002a0: c329 1abc 04c8 203b ae7e adbb d28a 9fbb
000002b0: 8fb6 a8bb 383a abbb a663 743c 1009 efbb
000002c0: 9004 703a 65e7 8dba 3ca6 e7ba be2c 043c
000002d0: 3dc4 b0ba a2fb f0bb 37ed 8c3a 046f 72bb
000002e0: c8bc 223a 2765 b33b dfda d337 602a 39bb
000002f0: 7371 19bc 243f 013c c727 33bb ffe9 4fbc
00000300: f685 a83b 70a6 21ba 88fe 853a fda9 8c39
00000310: b8e1 783b 77de 96bb 0822 193c 128a dbba
00000320: 7f49 f0ba 2c63 a8bb 9637 683a 1545 893c
00000330: a8f5 68bb 14fa 22bc 5335 183a 559f 1bbc
00000340: e6fc fe3a 4fa3 1c3b 9e0a e1bb 969d 32bb
00000350: 1b68 173c d9a7 03bc 09da 81ba 33b5 6bbb
00000360: 1ae1 113a f9e4 50bc 79c6 e9bb c008 103b
00000370: e2a2 28b9 ade5 acbb 3fbe 8b3b 9790 84bb
00000380: 0347 d83b 009d a9bb a0f6 563b 0b97 69b9
00000390: 81df 8c3a d2e0 543c 4c61 133b d1da 35bc
000003a0: 51eb a13b 256f 4cb8 7985 b4b9 99a4 22bc
000003b0: bc6c a93b 625c 05bc 0cd7 0f3a 2541 75bb
000003c0: 0f65 703b b914 423c bef2 97bc db16 323c
000003d0: 930b 7abb 453e 553c 0f86 9b3c b300 86bc
000003e0: 19a1 7fbb 6140 9c3b 3bce 2cbc 0907 d9bc
000003f0: 47e5 a6bc 2e5b e7bb 3a7d 093b 86b8 83ba
0.020960588 -0.0021898288 0.021493493 -0.0056334115 0.0039163674 -0.00026648707 0.0076747825 0.009541185
0.008864342 0.00016632212 -0.0038591123 0.001065772 -0.0043339687 -0.006414412 0.0016888364 -0.010458535
-0.0015153822 -0.0064593744 -0.0108187925 -0.0061220983 0.00702806 -0.0004934164 0.005081581 -0.0018921843
0.00663689 0.0012700221 0.0032165067 -0.000990491 -0.0042823297 -0.01820554 0.002311513 0.0046347254
0.0081823245 -0.0039226725 0.0034845972 -0.0064368197 0.00025337582 -0.004962558 0.00030811797 -0.0061996114
-0.0003740862 -0.0025925252 -0.0032753844 0.011038136 -0.005169797 -0.0034578762 0.0012715659 -0.0076279375
-0.0072209183 0.0060098586 0.0007730405 -0.0027642217 0.005782666 -0.008175942 -0.0020740384 -0.0030854885
0.0025342833 -0.00043779146 0.008338909 0.0034999766 0.00476066 0.008897234 0.0059205377 -0.007517911
0.0057756472 -0.0026677079 -0.0071642017 -0.00021282748 0.00061508786 -0.0017396909 0.0038850016 0.008865077
-0.0073038847 0.0050322386 -0.002965175 -0.007518384 0.007214114 -0.005832233 0.00017529624 0.0008452325
-0.004409889 -0.0073570595 -0.008897107 0.0019462842 0.009650034 -0.0040160776 -0.0009528039 -0.005181776
0.003358681 0.0145143755 -0.010451904 -0.01131671 0.0045762155 0.0019453706 0.004663114 -0.0019347531
-0.0036008253 -0.0075003095 0.004748749 -0.0010498887 0.012027134 -0.010123523 0.010630158 0.020802747
-0.0149338255 -0.0028178592 -0.004057052 0.009607163 0.032775577 -0.0002019236 -0.013103746 -0.00951002
0.0028319529 -0.007362806 7.9351514e-05 -0.016323227 -0.014226224 -0.012301178 -0.024934223 0.011947452
-0.015749631 -0.009244116 -0.0030505715 0.03200975 -0.02122642 0.010534524 -0.024223406 -0.0024408908
-0.017684415 0.020153856 0.0018243513 -0.013153868 -0.011687452 0.019849634 -0.019346947 -0.0023624653
0.016202934 0.039261524 0.036119666 -0.014367884 0.009138189 -0.00069994276 0.0074193734 -0.024565144
0.011913761 0.0062809945 -0.02410892 0.019109828 -0.01737967 0.017162515 -0.022780692 -0.008980808
0.004771517 -0.003024728 0.003866554 -0.011651548 0.0029207715 -0.020758292 -0.0058410284 -0.018716702
-0.003730355 -0.008003578 0.004524119 -0.0011396505 0.001545622 -0.010432872 -0.008380729 0.0049727755
-0.009409371 0.002453328 -0.0052946424 -0.0048688436 -0.005148716 -0.005225446 0.014916336 -0.0072947815
0.00091559533 -0.0010826407 -0.0017673443 0.008067308 -0.0013486218 -0.0073542157 0.0010751848 -0.003699244
0.000620794 0.005474705 2.525508e-05 -0.0028254017 -0.009365427 0.007888589 -0.0027336942 -0.012690066
0.0051429225 -0.0006166464 0.0010222951 0.00026829532 0.0037976336 -0.0046041566 0.009346493 -0.0016749522
-0.001833245 -0.0051387753 0.00088583806 0.016756574 -0.0035546813 -0.009947319 0.0005806286 -0.009498437
0.0019454032 0.002390105 -0.0068677207 -0.0027254573 0.009241129 -0.0080356235 -0.0009906898 -0.0035966157
0.0005564854 -0.012749904 -0.0071342555 0.0021977872 -0.00016082407 -0.005276403 0.0042646225 -0.0040455568
0.006600262 -0.0051761866 0.0032800809 -0.0002227688 0.0010747762 0.012993054 0.0022488413 -0.011099533
0.004941382 -4.87409e-05 -0.0003443172 -0.009926938 0.005170433 -0.008139702 0.00054870616 -0.0037422862
0.003668133 0.011845761 -0.018548366 0.010869707 -0.0038153871 0.0130153345 0.018984823 -0.016357755
-0.0039005934 0.0047684168 -0.010547216 -0.026492612 -0.020373 -0.00706043 0.0020979182 -0.0010049499

fc4.bias f4 [256]
00000000: f4ad 3dbe 0a22 8e39 2cff 4fbd 28b0 b53c
00000010: 1b62 ddbd 6c57 eebd 7d85 92be 8387 503e
00000020: f7cb a23b 5c45 3ebb 8e89 a7ba befc eebc
00000030: a351 8bbd 77f4 bf3d 4082 55bd 776c ec3c
00000040: f7d0 d13a 86c8 4bbb 5a64 723b 209c 15ba
00000050: 6d71 27bb 10d5 213b 5924 a2bb 4206 45bb
00000060: a095 d53b 6859 64bd 3927 003d 0ee0 74b8
00000070: 687b 7dbd 0367 f8bc b2e3 323a 7b52 673c
00000080: eae3 3e3d 4ca4 06bd 94e6 b33a 3104 febb
00000090: 1335 803e bf40 7e3b 4620 ea3b a306 0fbe
000000a0: d742 50bd 277c 15bc 5066 713b 4e7e 543b
000000b0: 80e3 c03b 86db 263b 36a7 873a e6de 883c
000000c0: ee13 073e b140 b23d e64c 3b3c 3892 9abb
000000d0: d0e1 cdbd 2799 38bd 3eb2 a8bb b55a 7bbb
000000e0: d621 ebba 40da 70bb 8cd5 f2bc 8f59 023e
000000f0: 5404 ec3a dbc3 193e 814f a4ba 5b6f 6fb9
00000100: d5da 973e 3dae bebb 5162 95bb 0da1 533b
00000110: 3843 873d 5737 7d3c e111 383b 279e 363b
00000120: 3fc2 1e3d e96b 023b bc0b 893e 2816 4a3d
00000130: 7b0c 78bb 7ff6 923d c897 5d3a ff0a f6bb
00000140: 2099 713b 622c f53b 6d36 1cbb 34dd 133d
00000150: e8c4 4f3d 3f5d 4b3e 1414 e83c 56b5 203c
00000160: fd2d 313e ede7 5ebc d5e3 36bd 0fe1 31be
00000170: a73c f1bd 2209 ee3b bd15 113c dfda eabb
00000180: 7601 8bbb bd7a 6cbe ad12 a73a b371 183c
00000190: 820a 42be ef2b ba3c b226 88bc 45dd 01ba
000001a0: 94c3 a33c 4592 a3ba 85ee b43c 9df6 d43a
000001b0: d3c4 a93d e70e 25bb bb0a 3dbb 4560 833b
000001c0: 67a7 4fbd a23a b53b 0a7a 82bd abc7 debd
000001d0: 7558 46ba 5cba 2a3c ced8 fd3b e23a 74bb
000001e0: 8bf8 29ba 9d34 f1bd 4253 743e 2b46 99bc
000001f0: 59f3 283e cc17 03bc c99c 183c ee2c 733c
00000200: 6e37 7ebd 8a30 ffbb e3f7 a4bc 69f7 f13d
00000210: 4b1c 263e c06c 983b 6d98 0d3c 053f d3bb
00000220: 893b 4bbd 715c e8bd 0f10 d33a 4ea1 763a
00000230: 39a9 893e 0faf 083c fd52 99bc 5bf8 353c
00000240: 9375 2e3b 16ca dc3a 66fe a7bd 9ff4 fbb8
00000250: 6b56 3139 b31e 26be 0e22 34bb e174 d2ba
00000260: 90cc 403b 18db a63c 955b 91be edf2 8cbc
00000270: c67a 703b b835 a2ba bd50 603e 6ef2 e13a
00000280: 30d0 1bbc 64d5 b3ba f62a 3ebb 989d edbb
00000290: 3e07 4abb 6230 a63a 144f c3bb 311a a03b
000002a0: 619a 223b 1848 003d 2de1 52be 6953 2f3d
000002b0: 047a dbbb 5090 c5bd 6ead 28be d2e0 8f3d
000002c0: 5304 90bc 113b 0f3b e3b2 003c ccef 4fbb
000002d0: c6cc 8abd 3742 97bd 1a47 1ebc 14de 8f3d
000002e0: 7b37 49be 1fcb 113e 21dc 94b9 2ccb 63bb
000002f0: 5bf2 513e 8d8b 56bd 4c77 89ba e032 cb3b
00000300: 41b0 29bd 9dd6 5d3e 0ea4 b23d 1f85 df39
00000310: f47e 1b3b 2dd6 b73d e61e 003d f1ee 6f3e
00000320: 9164 103b ddde 2fbe da3d b4bb c0a6 433d
00000330: 9376 e53b c466 2abc 66f7 f13b 22e2 cc3d
00000340: 387e 82bc 8248 8a3b 3990 8dbb 2491 693e
00000350: 837a 713c ecf5 82bd 67e3 463c d66f dcbb
00000360: 24cc db3b a6de aa3b 5f59 14bc 7e24 0abe
00000370: 4381 91ba c760 533e be63 d2bd 6bd7 dfbd
00000380: 532a 563e 3720 73bb 5157 a5bb bb22 76bd
00000390: 13ee 0eb9 93f6 23bc 06f8 edba 4cc3 2e3e
000003a0: ee72 183e 8a10 023b dac0 0e3e 3da8 133e
000003b0: cdd1 083d 58ab 37be b66a 3abd 15a4 d239
000003c0: 5f24 f13b 7ff1 51bb 59b3 1fbc 3fa6 0abc
000003d0: a009 dc3b 1da1 debd db60 c5bc 516c 3d3e
000003e0: 1fe7 9a3d c8bd 8fba 0a50 523d f454 193b
000003f0: ca40 d3bd 7dff 57bd 57db 03bc 7c77 103c
-0.18523389 0.00027109712 -0.05078046 0.022178724 -0.10809728 -0.11637768 -0.28617468 0.20364194
0.004968162 -0.002903304 -0.0012782083 -0.029173251 -0.0680268 0.093728 -0.05212617 0.028860314
0.0016007711 -0.0031094863 0.0036986084 -0.00057071634 -0.0025549785 0.0024693646 -0.0049481806 -0.0030063544
0.006518081 -0.055749327 0.031287406 -5.83828e-05 -0.061885267 -0.030322557 0.00068240904 0.014118786
0.046604075 -0.03287153 0.0013725334 -0.0077519645 0.25040492 0.0038795916 0.0071449606 -0.13967375
-0.050844993 -0.0091238385 0.0036834665 0.0032423916 0.005886495 0.0025460436 0.0010349515 0.016707849
0.13191196 0.08703745 0.011431908 -0.0047171377 -0.10052836 -0.045067932 -0.0051482012 -0.0038353626
-0.0017939161 -0.003675118 -0.029642843 0.12729476 0.0018006661 0.15016119 -0.0012535901 -0.000228343
0.29659143 -0.0058191107 -0.0045588394 0.0032292039 0.06604618 0.015455089 0.0028086829 0.0027865262
0.038759466 0.0019900745 0.26766765 0.049337536 -0.0037849236 0.07175922 0.0008453098 -0.007508635
0.0036864951 0.0074820975 -0.0023836151 0.036099628 0.050724894 0.1985979 0.028329886 0.009808859
0.173027 -0.0136051 -0.04465087 -0.1737101 -0.11779147 0.0072642723 0.0088552805 -0.0071672047
-0.0042421175 -0.23093696 0.0012746655 0.009304452 -0.18949321 0.022726027 -0.016620014 -0.0004953931
0.01999072 -0.0012479505 0.022086391 0.0016247813 0.08289494 -0.0025185884 -0.0028845507 0.004009279
-0.050696757 0.005530671 -0.06370933 -0.108779274 -0.0007566282 0.010420408 0.0077467924 -0.0037266542
-0.0006483874 -0.11777613 0.23859885 -0.018710217 0.1649908 -0.008001279 0.009314724 0.014842255
-0.06206458 -0.0077877687 -0.020137733 0.11814768 0.1622173 0.004651636 0.008642298 -0.0064467215
-0.049617324 -0.11345757 0.0016102808 0.00094081915 0.2688692 0.0083425185 -0.01871633 0.011106576
0.0026620373 0.0016844894 -0.082028195 -0.00012014177 0.00016912229 -0.16222648 -0.0027486118 -0.0016056561
0.0029418804 0.020368144 -0.28390184 -0.01720568 0.0036694272 -0.0012375629 0.21905799 0.0017238387
-0.009510085 -0.0013720212 -0.0029017306 -0.0072514527 -0.003082707 0.0012679214 -0.0059603546 0.0048859348
0.0024811255 0.031318754 -0.2059371 0.042804155 -0.006697895 -0.09646666 -0.16472408 0.07025303
-0.017580187 0.0021855275 0.00785515 -0.0031728623 -0.06777339 -0.07385676 -0.009660507 0.0702478
-0.1965007 0.14237641 -0.0002839277 -0.003475855 0.20502608 -0.05237918 -0.0010487824 0.006201133
-0.041427854 0.216639 0.08722697 0.00042633057 0.0023726793 0.08976398 0.031279467 0.23430993
0.0022032598 -0.1717486 -0.0055005373 0.047766447 0.0070026605 -0.010400478 0.0073842285 0.10004069
-0.015929326 0.0042200694 -0.004320171 0.22809273 0.014738682 -0.06394562 0.012139178 -0.006727199
0.006707685 0.00521453 -0.009054511 -0.13490483 -0.0011101145 0.20642386 -0.102729306 -0.109297596
0.20914583 -0.003709806 -0.0050458093 -0.060091715 -0.00013630865 -0.010007518 -0.0018155582 0.17066687
0.14887592 0.0019846284 0.13940755 0.14419647 0.033403207 -0.17936456 -0.045511924 0.00040176572
0.007359072 -0.0032034812 -0.00974735 -0.008462488 0.0067150146 -0.10870574 -0.024094036 0.1849835
0.07563614 -0.0010966593 0.051345862 0.0023396583 -0.10315092 -0.052733887 -0.0080479 0.00881755

fc5.weight f4 [384, 256]
00000000: d906 58bc aa93 9d3c 9c27 f23c 32a0 6b3c
00000010: 5150 573c fba2 8cbc da54 07bc 6420 183b
00000020: 497a 0ebd 0f0e 2d3b 38aa 943c 2156 05bc
00000030: 9399 5e3b 38bb 753c 6c56 e83b c3c7 8a3c
00000040: 6e62 923c 83b8 713c cf55 32bd ce5c d13b
00000050: c770 1a3b 7696 75bc ddfb 103c 2119 cbbc
00000060: 0a1d bcbc 58ea 673c 804a 5c3a 628f 273b
00000070: 119b 37bc 6935 853b 1d8b a23c 2fb4 163d
00000080: a6e8 f2ba 2484 e03c e231 3ebb 607c 4bbc
00000090: cb16 053b 1670 603c 3ab8 08bc 395d 833c
000000a0: 134e 5abc acc6 a8bc 2b70 fcb9 5938 82bb
000000b0: 7245 4dbc e4e8 d13c 14c1 80bc d6ab 193a
000000c0: 5ccb 993c db1c 21bc 01e3 56bc e4a2 613c
000000d0: c6e0 753b 9fbe 093d 2a1b 73bc d01c d3bc
000000e0: c9e0 d43b e970 b13c 6566 983b 6854 af3b
000000f0: 2aed d93c 0ad0 033c 13a3 cd3c b9ac 3ebc
00000100: e7b4 373c 8d6b 6b3c 15cc 76ba d72a 36bc
00000110: 7962 763c 5a1a 2dbb 468a e4bc 00a0 803c
00000120: d7d8 8d3c b7dc 84bc 5756 e03a 7605 1ebd
00000130: d06e 96bb 56d9 24bb 20c5 aabc 95ea d9bb
00000140: e861 763c 8d3b 01bc 0f06 05bd 4007 b8ba
00000150: 6f9a 7c3c 6f05 d23b 9acf 04bd b6c8 d13b
00000160: e9b1 b73a b4f3 0dbb 22f0 90bc bdc3 003c
00000170: 065d e83c 4713 d1ba 10c2 403c f967 7d3c
00000180: ce09 b7bc 6bac a13a f281 fb3b 8c23 e03c
00000190: d105 7eb9 b283 4ebc 292b b83a e1de c7bc
000001a0: 4160 693c f062 0e3d 0962 983c 5aec 1abb
000001b0: 89f2 033c c3b1 bd3b 51a2 45bc 7bf7 2ebd
000001c0: 09d7 993b f1da a43b ce80 53bc 3273 cbbb
000001d0: fe40 e23b 2b86 4d3b 9dc8 823c ffdf 37bb
000001e0: 4276 0cbd 4c77 fcbb ec6e e5bb 04e4 d33c
000001f0: e531 d43b 7f52 af3c 7f87 0dbb c8fc 0abd
00000200: 0e09 c0bc f33b a83c e1c3 e2bb 235a cdba
00000210: 7c67 01bd db4d 63bc af0b f2bc 0bd6 bb3c
00000220: 71ee dabb 8691 033d 1eaf 36bc c034 39ba
00000230: e7e7 de3a 1b3b 3ebc b11a 453a 697f 93bb
00000240: 7210 a2bc 6440 6a3c f63c bcbc d038 363c
00000250: 5e58 eabc c14a e23b 0a4a 80bc f2cc 023d
00000260: 8268 6bbb 7732 4bbc e95c e1bb 5a51 a4bc
00000270: eb1f 503b cf26 d43c 2203 113c fd46 843b
00000280: f989 bc3c 3816 12bc caf3 303c 5f34 d23b
00000290: 60a5 2cbc 6ebb 0bbc 9d7a 65bc 24fc 963c
000002a0: c6a1 7fbc 4cd6 8ebc 4463 febb da59 be3a
000002b0: d96a b3bc 5dbb 17bc 7e20 33bb 0d6b 003b
000002c0: c3ca 78bc 2816 3a3c d25c 893c a2fb b63b
000002d0: 2ab5 9cbc f063 643c 9ea2 3b3c 162c 863c
000002e0: 921c 0f3a d0cf 31bc 4de0 1b3c ebd0 29bc
000002f0: 9d8b 003d f3f8 cf3b e516 f33c 1986 32bc
00000300: 2e58 a93c 65f4 fabb 7d26 153c 29db 083c
00000310: 320e f13b 3dde e5bb b388 aabc c3b3 31bb
00000320: 1af5 2bbc 0771 bb3a 7431 5a3b f46a f03b
00000330: 30f8 c7bb a5c9 b33c 7b81 7c3c 6ef0 e53b
00000340: 0771 2a3a 661d 5bbc 4791 82bc 9703 4c3b
00000350: 1937 883c 3754 573c 0ea9 963c 2586 a23a
00000360: a6c7 dfba a9e1 ccbc d272 7d3c 7564 fd3a
00000370: c416 053d cc9f 8b3c 753a 693c f077 513c
00000380: d82f 893c d4e3 833c 8ee4 2b3c 0c06 a4bb
00000390: dc26 253d f508 a83c 920e af3b ad2c 82bb
000003a0: 9040 df3c eceb 8f3c 479c 2e3b 6e54 2ebc
000003b0: 7d52 293c aa5d 3ebc 8c85 9c3c 5671 c5bc
000003c0: c3a6 533b 1b6a dcbc 08fb 183c 1d74 693c
000003d0: ee7e c13b 597e c7bb 2c45 5c3c 0983 99ba
000003e0: b46c e1bb 185b 083c b960 f8bb af4b 73bc
000003f0: bf19 663c ffa8 143c 1a8e 09bc 710d 50bb
-0.013185226 0.01923545 0.029559903 0.014381455 0.0131417075 -0.017167559 -0.008259976 0.0023212666
-0.03478459 0.0026406085 0.018147573 -0.0081382105 0.003396605 0.01499825 0.0070903804 0.016940957
0.0178692 0.014753464 -0.043538865 0.006389237 0.0023565756 -0.014989486 0.008849111 -0.024792256
-0.022963066 0.014154993 0.00084034353 0.002556764 -0.011206404 0.004065205 0.019841725 0.03679293
-0.0018532469 0.02740676 -0.0029021432 -0.01241979 0.0020307775 0.013698598 -0.008344704 0.016035663
-0.013324278 -0.020602547 -0.00048148757 -0.0039740023 -0.012528764 0.025623746 -0.015717067 0.00058620924
0.018773727 -0.00983354 -0.013115645 0.013771746 0.0037518009 0.033629056 -0.014838019 -0.025770575
0.006496523 0.021660285 0.0046508783 0.005350638 0.026602346 0.008045206 0.025102174 -0.01163786
0.011212564 0.014368904 -0.0009414566 -0.011118612 0.015038126 -0.0026413412 -0.027897965 0.015701294
0.017315311 -0.016218526 0.0017115575 -0.038579427 -0.0045908466 -0.0025153956 -0.02084595 -0.006650279
0.015037991 -0.007887733 -0.03247648 -0.0014040247 0.015417679 0.006409339 -0.032424547 0.0064021004
0.0014014813 -0.002166015 -0.01769263 0.007859168 0.02836467 -0.001595118 0.011765018 0.015466684
-0.022343542 0.001233471 0.007675403 0.0273607 -0.00024225494 -0.012604641 0.0014050949 -0.02439827
0.01424414 0.034762323 0.018601434 -0.0023639412 0.00805343 0.005789013 -0.012062625 -0.042716485
0.0046948236 0.0050309827 -0.012909127 -0.0062088007 0.0069047203 0.0031360488 0.0159648 -0.0028057096
-0.034292467 -0.007704651 -0.0070017483 0.025865562 0.0064756745 0.021401642 -0.0021595655 -0.033932477
-0.023441818 0.020536399 -0.0069203232 -0.0015667122 -0.03159283 -0.013873543 -0.029546587 0.022929212
-0.0066812565 0.032121204 -0.01115015 -0.00070650503 0.0017006368 -0.0116107715 0.0007518931 -0.0045012725
-0.019783232 0.0142975785 -0.022978287 0.011121944 -0.02860659 0.006905884 -0.015660305 0.031933732
-0.0035920446 -0.0124021685 -0.006877531 -0.020058323 0.0031757306 0.025897412 0.008850845 0.004036783
0.02301501 -0.00891643 0.010800311 0.0064149345 -0.010537475 -0.008528573 -0.014006284 0.018430777
-0.015602535 -0.01743617 -0.007763298 0.0014522627 -0.021901535 -0.0092609795 -0.00273326 0.0019595057
-0.015185061 0.0113578215 0.016767893 0.005584196 -0.019129355 0.013939843 0.011452345 0.016378444
0.00054592744 -0.010852769 0.009513927 -0.010364751 0.031383146 0.0063468157 0.029674003 -0.010896229
0.02067193 -0.0076585286 0.009103415 0.008353033 0.0073564285 -0.0070150183 -0.020817136 -0.0027115203
-0.0104954485 0.0014300653 0.0033293637 0.0073369686 -0.0061025843 0.021946738 0.01541173 0.007017187
0.0006501828 -0.013373708 -0.015938414 0.003113007 0.016627835 0.013142637 0.018391158 0.0012399597
-0.001707305 -0.025009947 0.01546927 0.0019332307 0.032492414 0.01704397 0.014235129 0.012784943
0.016746446 0.016099848 0.010491503 -0.0050056037 0.040320262 0.020512084 0.005342313 -0.003972611
0.027252465 0.017568551 0.0026643442 -0.010640247 0.010334608 -0.011619011 0.019106649 -0.024101894
0.0032295443 -0.026906064 0.009337194 0.014248875 0.005905024 -0.00608806 0.013444226 -0.0011712025
-0.0068794135 0.0083225 -0.0075798896 -0.014849587 0.014044224 0.009073495 -0.008395696 -0.0031746293
