customized/model/trained_model/vae/vae_z_50batch_64.pth (torch, 986464 bytes, 10 tensors)

fc1.weight f4 [256, 403]
0	0xbcaa468c	-0.020785592
1	0x3c596e5c	0.013270941
2	0xbc8d9384	-0.017282255
3	0xbcd76894	-0.026294984
4	0xbba0c4db	-0.0049062795
5	0xbc72f282	-0.014828326
6	0x3b513dfa	0.003192781
7	0x3d355419	0.044269655
8	0xbbb433da	-0.0054993453
9	0xbc90fe28	-0.017699316
10	0x3cca0979	0.02466272
11	0xbd126d00	-0.03574848
12	0x3ce8673b	0.028369537
13	0xbbe09eac	-0.0068548527
14	0xbc2942e8	-0.010330893
15	0x3d2abcf0	0.04168409
16	0x3d24cddf	0.040235396
17	0x3bd8c634	0.0066154245
18	0xbd61a34e	-0.05508738
19	0xbcf1a7b8	-0.02949892
20	0x3c09c64f	0.008409097
21	0x3d12ef0b	0.0358725
22	0x3d6e9aaf	0.058252987
23	0x3d0eb18e	0.034837298
24	0xbbd7026b	-0.0065615675
25	0x3c4f05cc	0.012635659
26	0x3cb7536f	0.022378651
27	0xbcaa14d4	-0.020761885
28	0xbd17703e	-0.036972277
29	0x3ca4f7a3	0.020137614
30	0xbd13b634	-0.036062434
31	0x3cbb8e26	0.02289493
32	0xbc167f74	-0.009185661
33	0xbac7e395	-0.001525032
34	0x3bb64943	0.0055629327
35	0xbd038c91	-0.032116476
36	0xbd15b234	-0.0365469
37	0x3cd60061	0.026123228
38	0xbd07e10d	-0.03317361
39	0xbc43f6ff	-0.011960744
40	0xba97cc49	-0.0011581267
41	0xbbd411e2	-0.0064718584
42	0xbd14074e	-0.03613978
43	0xbc8de655	-0.017321745
44	0x3c8bc44f	0.01706138
45	0xbd08b4b7	-0.033375468
46	0x3c7a083d	0.015260753
47	0x3a971b27	0.0011528478
48	0x3d2209c3	0.03956009
49	0x3ba963a3	0.0051693483
50	0x3cd23fb2	0.025665138
51	0x3d0c072e	0.034186535
52	0x3d6435f7	0.055715527
53	0x3bbc6f8b	0.0057506016
54	0x3b158875	0.002281693
55	0xbc8421d3	-0.01612941
56	0x3d26427a	0.04059074
57	0x3d2f6c26	0.042827748
58	0xbc3a1493	-0.011357444
59	0xbd361d07	-0.044461276
60	0xbb0f77bf	-0.0021891443
61	0x3d2a1461	0.04152334
62	0xbce54a72	-0.0279896
63	0xbd6df5c3	-0.058095705
64	0x3cb4685b	0.022022417
65	0xbbfbcf96	-0.0076846583
66	0x3d3778e2	0.044793017
67	0xbc017d82	-0.007903459
68	0xbd57171c	-0.052512273
69	0xbcc86527	-0.024462296
70	0x3d27276c	0.04080908
71	0xbc2e6c2b	-0.010645906
72	0x3cbafd66	0.022825908
73	0xbd1d2a9c	-0.038370714
74	0x3d2c7938	0.04210779
75	0x3c3702f0	0.011170134
76	0x3d457bbf	0.048213717
77	0x3d14c286	0.036318325
78	0x3c4ca269	0.0124898935
79	0xbced5de6	-0.028975438
80	0x3ce62f7c	0.028098814
81	0xbc25d09a	-0.010120535
82	0x3d045580	0.0323081
83	0x3cc594b4	0.024118759
84	0xbca3ff6b	-0.020019254
85	0xbcdf332e	-0.027246084
86	0xbc587075	-0.013210406
87	0xb9e997b5	-0.00044554254
88	0x3c910cb4	0.017706253
89	0xbc604f1a	-0.013690734
90	0xbd4582d4	-0.04822047
91	0x3d5635d8	0.052297443
92	0xbb93e3bc	-0.004513232
93	0xbcf8691a	-0.030323554
94	0x3cf0e366	0.029405307
95	0x3d521a39	0.05129454
96	0x3c9a674c	0.018848084
97	0xbce7e67f	-0.028308151
98	0xbc8d702e	-0.017265406
99	0x3c7c860a	0.015412817
100	0x3b895097	0.0041905153
101	0x3d117966	0.035516165
102	0x3c013b5f	0.00788769
103	0x3cac7a19	0.021054314
104	0x3d1aa8aa	0.037758507
105	0x3a6e6ce9	0.00090952084
106	0x3c5384ad	0.01291005
107	0xbd1c6271	-0.03817982
108	0x3d152f83	0.036422264
109	0xbc32d4e3	-0.010915014
110	0xbd2a77a2	-0.041617997
111	0x3bcb72b2	0.006208741
112	0x3cfd2c8c	0.03090503
113	0xbcddfd8f	-0.027098445
114	0xbcba9f37	-0.022780998
115	0xbbc5174d	-0.0060147406
116	0xbca04ebb	-0.019568792
117	0x3cd233ca	0.02565946
118	0x3d381cd9	0.044949386
119	0xbc7e47b9	-0.01552003
120	0x39d6d72b	0.00040977573
121	0xbd1838fd	-0.037163723
122	0xbd274aa4	-0.040842667
123	0xbd45834e	-0.048220925
124	0xbcd2d1a0	-0.025734723
125	0x3d45e77c	0.048316464
126	0x3d2bf049	0.0419772
127	0xbbfc689d	-0.0077029006
128	0x3d737440	0.059437037
129	0x3d656978	0.056008786
130	0xbd2df321	-0.042468194
131	0xbcc1f3d3	-0.023675835
132	0x3c8df81e	0.017330226
133	0xbcc29dd1	-0.023756893
134	0xbd678551	-0.056523625
135	0x3c836045	0.016037116
136	0x3c3f0734	0.011659432
137	0xbcd1074e	-0.025516178
138	0xbcf61fc5	-0.030044446
139	0xbc9e35a4	-0.019312687
140	0x3ca49e72	0.020095084
141	0x3d5dbef9	0.054137204
142	0x3d1470d7	0.036240425
143	0xbcb90686	-0.022586118
144	0xbcde1bf5	-0.02711294
145	0x3d352585	0.044225235
146	0xbcc3b6dd	-0.023890907
147	0x3cb9124f	0.022591738
148	0x3cee6d6c	0.02910491
149	0xbb525481	-0.0032093825
150	0x3c37ee7b	0.011226292
151	0xbd4cb24e	-0.049974732
152	0x3c91292a	0.017719824
153	0xbd017179	-0.031602357
154	0xbd08d31e	-0.033404462
155	0x3d16c6ac	0.036810562
156	0x3cc44fa9	0.023963766
157	0x3d1edbaf	0.038783725
158	0x3d61926d	0.055071283
159	0xbd624c3f	-0.055248495
160	0xbc63df13	-0.0139081655
161	0xbbb21bae	-0.0054354286
162	0x3d07c558	0.033147186
163	0xbd6b5154	-0.057450607
164	0x3c267283	0.010159138
165	0xbc9769de	-0.018483099
166	0xbd2c62c7	-0.04208639
167	0x3d6965e6	0.056981944
168	0xbd19c731	-0.03754348
169	0xbd2ea2bb	-0.04263566
170	0x3c4aca70	0.012377366
171	0x3c4710e6	0.012150025
172	0xbcae8500	-0.021303654
173	0xbbc60c64	-0.0060439575
174	0x3bfd891e	0.007737293
175	0x3987cb57	0.00025900707
176	0x3c6e06ee	0.014528019
177	0x3cfa4b2c	0.030553423
178	0xba1466d2	-0.00056610734
179	0x3c6041c1	0.013687552
180	0x3d054502	0.032536514
181	0xbcb20b58	-0.021733925
182	0xb9f1183c	-0.00045985158
183	0xbc7f8109	-0.015594729
184	0x3c1da62c	0.009622138
185	0x3c73e4c9	0.01488609
186	0xbc61aeb5	-0.013774564
187	0x3cf5f894	0.030025758
188	0x3c34f434	0.011044551
189	0xbcdd1f31	-0.026992412
190	0x3d218740	0.039435625
191	0xbc4e5e00	-0.0125956535
192	0x3d7df272	0.061998792
193	0x3d0ff624	0.035146847
194	0x3d17dc2e	0.037075214
195	0x3c994bb6	0.01871286
196	0xbd137171	-0.035996858
197	0x3a6d69c0	0.00090565905
198	0x3cb7ba0c	0.022427581
199	0xbd25428b	-0.040346663
200	0x3c63f4eb	0.013913373
201	0xbd11dda2	-0.035611756
202	0x3d13d482	0.036091335
203	0x3d1d114f	0.038346585
204	0xbd0ed6da	-0.034872867
205	0xb8f1f4d3	-0.000115373776
206	0xbcc3a4c9	-0.023882287
207	0xbcceb562	-0.025232974
208	0xbd40bd16	-0.047055326
209	0x3c9bf000	0.01903534
210	0x3ca160bd	0.019699449
211	0x3d887037	0.06662028
212	0xbd39f8fa	-0.04540346
213	0x3d676cc0	0.056500196
214	0xbcd9b3d8	-0.026575014
215	0x3bf2861b	0.0074012405
216	0xbd1c9dd3	-0.03823645
217	0x3d1a81a6	0.0377213
218	0x3c86d8a8	0.016460732
219	0x3ceac735	0.028659442
220	0xbcfe9c1d	-0.0310803
221	0x3d0913da	0.033466198
222	0xbc2d4c34	-0.01057725
223	0x3d648cfa	0.05579851
224	0xbca5924a	-0.020211358
225	0xbd40eceb	-0.047100943
226	0xbd6e306e	-0.058151655
227	0xbc9916ae	-0.018687572
228	0x3c85a82a	0.016315538
229	0xbd42e440	-0.047580957
230	0xbc85c195	-0.016327659
231	0xbd3a84d5	-0.045536835
232	0x3c24c70d	0.010057223
233	0x3d6560a4	0.056000367
234	0xbcf1d41d	-0.029520089
235	0x3d505046	0.050857805
236	0xbbbb1075	-0.005708749
237	0xbc37255a	-0.011178339
238	0xbd6c0a43	-0.057626974
239	0xbd08c4ae	-0.033390693
240	0x3c7418cf	0.014898493
241	0x3c8d38ee	0.01723906
242	0x3ce38cc6	0.027777087
243	0xbc04a379	-0.008095616
244	0x3b4b8f51	0.0031060765
245	0xbc44d93c	-0.012014683
246	0xbcd59168	-0.026070312
247	0xbb8143e7	-0.003944862
248	0x3c0f1aa3	0.008734378
249	0xbcd476bc	-0.025935523
250	0x3c17ddf5	0.009269227
251	0xbd2137d5	-0.039359886
252	0xb9483545	-0.00019093331
253	0x3c4299e6	0.011877513
254	0x3c08c8cd	0.008348656
255	0xbd093a85	-0.033503074

fc1.bias f4 [256]
0	0xbcdadfa7	-0.026717974
1	0x3d2822e9	0.041048918
2	0xbc409cbc	-0.011756118
3	0xbd17bb14	-0.037043646
4	0xbc3c3b1f	-0.011488705
5	0x3b285985	0.0025688123
6	0xbca8531f	-0.020547448
7	0x3d06c709	0.03290466
8	0xbd255cfb	-0.040371876
9	0xbc6a7c89	-0.014311918
10	0xbb65dc48	-0.0035073925
11	0xbd22706f	-0.039658006
12	0xbc8d41d2	-0.0172433
13	0x3c7015ed	0.014653665
14	0xbd634dfd	-0.055494297
15	0xbcbb874d	-0.022891665
16	0xbd4d0a10	-0.050058424
17	0xbc1154d4	-0.008870322
18	0xbd43a041	-0.047760252
19	0x3cbc325a	0.022973228
20	0xbd2c0091	-0.041992728
21	0xbc574011	-0.013137833
22	0xbd579c45	-0.052639265
23	0xbcdcf142	-0.02697051
24	0x3ce09151	0.027413042
25	0x3ca2df2f	0.019881813
26	0xbd22b722	-0.03972543
27	0xbd0e0f4b	-0.034682553
28	0x3ce76520	0.028246462
29	0xbd1a0c63	-0.03760947
30	0xbcd5f0d5	-0.026115814
31	0x3c4db7b9	0.01255601
32	0xbd6738d8	-0.056450695
33	0x3ce07118	0.027397677
34	0xbbad2b2e	-0.0052846884
35	0x3cfc79e7	0.030819846
36	0xbd0bf635	-0.03417035
37	0x3cbb2dc6	0.022848975
38	0xbc948ae1	-0.018132629
39	0x39dd1761	0.00042169823
40	0x3c2f88d6	0.010713777
41	0xbc83f12b	-0.016106209
42	0xbbe267c7	-0.006909344
43	0xbcb245ed	-0.021761859
44	0xbcb2957a	-0.021799792
45	0xbd075478	-0.03303954
46	0xbb8068d5	-0.003918747
47	0xbbf31897	-0.007418703
48	0xbd2dcf43	-0.04243399
49	0xbd2674e3	-0.040638816
50	0xbd22b8a7	-0.03972688
51	0x3c9625fb	0.018328657
52	0x3d17d625	0.03706946
53	0xbc420ee2	-0.011844369
54	0x3a80e432	0.0009833633
55	0x3c83ad28	0.016073778
56	0x3ccf4a87	0.025304092
57	0x3d20d498	0.039265245
58	0xbc458e6a	-0.01205788
59	0xbd5f6d7b	-0.054547768
60	0xbd39b451	-0.04533798
61	0xbd2d5b6b	-0.04232351
62	0xbd3737b7	-0.04473087
63	0xbd1a1d51	-0.037625615
64	0x3bcb58d9	0.00620566
65	0xbd4c5ceb	-0.0498933
66	0xbcc63945	-0.02419723
67	0x3b2d00ad	0.0026398108
68	0x3c2db32c	0.0106018
69	0xbcae8d3e	-0.021307584
70	0xbd537f0f	-0.051634844
71	0x3cf23fe5	0.029571483
72	0x3cc93679	0.024562107
73	0xbc9e48ab	-0.01932176
74	0xbd13ce36	-0.03608533
75	0x3d068067	0.032837298
76	0xbb8d09f7	-0.0043041664
77	0xbce541fd	-0.027985567
78	0xbcd49cc7	-0.025953664
79	0xbd2c9853	-0.042137455
80	0xbc7a3c32	-0.015273141
81	0x3b11f67c	0.002227216
82	0x3cbcd10a	0.023048896
83	0x3b0fc2f8	0.0021936279
84	0x3ce05073	0.027382111
85	0x3cb59ea6	0.022170376
86	0x3b9246a1	0.004463986
87	0xbc6dc403	-0.014512065
88	0xbc966e7f	-0.018363236
89	0x3cd398cd	0.025829697
90	0x3c256fca	0.010097453
91	0x3ca9630a	0.020677108
92	0xbc10a158	-0.00882753
93	0xbd21a543	-0.039464246
94	0xbd7a4db5	-0.061109263
95	0xbc12c75c	-0.008958664
96	0xbccbb9c9	-0.024868863
97	0x3b7106fc	0.0036777845
98	0xbcca3033	-0.024681186
99	0x3d08a8da	0.033364154
100	0x3d284be1	0.04108799
101	0x3b93c35a	0.0045093717
102	0xbc9dcde8	-0.019263223
103	0x3c9681fa	0.018372525
104	0xbc6b9dbb	-0.014380868
105	0x3d10a48e	0.03531318
106	0xbd377bd4	-0.044795826
107	0xbc59dbd3	-0.013297039
108	0xbd3b9a54	-0.045801476
109	0xbce6230b	-0.028092882
110	0xbcf07502	-0.029352669
111	0xbc58226f	-0.013191803
112	0x3d043198	0.03227386
113	0x3c250177	0.01007115
114	0xbcb50851	-0.022098692
115	0xbcb0fa36	-0.021603685
116	0x3c7a7e73	0.015288937
117	0xbd215cb4	-0.03939505
118	0xbca5c236	-0.020234209
119	0xbc401c99	-0.011725568
120	0xbd5583ef	-0.052127775
121	0xbd70b885	-0.05876972
122	0xbd289c77	-0.04116484
123	0x3cea5c97	0.028608603
124	0xbcada70d	-0.02119782
125	0xbc5d17f2	-0.013494479
126	0x3c96a902	0.018391136
127	0x3c06c8ee	0.008226616
128	0xbcd53f05	-0.026031027
129	0xbc1b54a0	-0.009480625
130	0xbc3f4670	-0.011674508
131	0xbc512345	-0.012764757
132	0x3c56d243	0.013111654
133	0x3cf7fea8	0.030272797
134	0x3d001f17	0.03127965
135	0x3cc945b6	0.024569374
136	0x3d1bb6d7	0.038016167
137	0x3d0c268c	0.03421645
138	0xbc60f81c	-0.013731029
139	0x3d24f639	0.04027388
140	0x3cb44cb9	0.02200924
141	0x3c327d85	0.010894184
142	0xbd002fe0	-0.031295657
143	0xbd288f4a	-0.041152276
144	0xbce76155	-0.028244654
145	0x3c518f0c	0.012790453
146	0xbc9010aa	-0.017586071
147	0x3cd0dbab	0.02549537
148	0x3ca1a31c	0.019731097
149	0x3ccc92e7	0.024972392
150	0xbc308b7d	-0.010775444
151	0xbcbcc9a0	-0.023045361
152	0xbcb40201	-0.021973612
153	0xbbad0781	-0.0052804356
154	0x3c5c9c00	0.013464928
155	0x3d134019	0.0359498
156	0xbd1392f9	-0.036028836
157	0xbcbbb085	-0.02291132
158	0xbd573e14	-0.052549437
159	0xbcfad49d	-0.03061896
160	0x3c0e3aa0	0.0086809695
161	0xbcf1d1ff	-0.02951908
162	0x3c839454	0.01606194
163	0xbd386f47	-0.045027997
164	0xbd552043	-0.05203272
165	0xbd3a5f39	-0.045500968
166	0x3cb249bc	0.021763675
167	0xbd6c354d	-0.05766802
168	0x3c97b081	0.01851678
169	0x3cf3bbb0	0.029752582
170	0xbc8bbd79	-0.017058121
171	0xbb73a25c	-0.003717563
172	0x3d0d3233	0.0344717
173	0x3d0b3796	0.033988558
174	0x3d0d0e54	0.034437492
175	0xbbf0c81d	-0.007348074
176	0xbbe9f08f	-0.0071392725
177	0xbd5292af	-0.05140942
178	0x3bb34282	0.005470575
179	0xbd097228	-0.033556134
180	0x3cb03401	0.021509172
181	0xbd402521	-0.04691041
182	0x3c9a1098	0.01880674
183	0x3c0ff438	0.008786254
184	0xbaff2add	-0.001946773
185	0x3d195813	0.03743751
186	0xbb5e8f63	-0.0033959977
187	0x3cc94436	0.024568658
188	0xbb850be0	-0.0040602535
189	0x3c1e2bd7	0.009654007
190	0xbc875565	-0.016520211
191	0x3c114426	0.0088663455
192	0xbcc2d703	-0.023784166
193	0xbc5c4de3	-0.013446304
194	0x3d24e981	0.04026175
195	0xbd5d85b6	-0.054082595
196	0x3d08a77e	0.033362858
197	0xbd26753f	-0.04063916
198	0x3d1406a2	0.036139138
199	0xbc88d61a	-0.016703654
200	0xbd663eea	-0.056212343
201	0x3cdd594b	0.027020117
202	0xbd33cec0	-0.043898344
203	0x3bd06d46	0.0063606827
204	0x3d0f1133	0.03492851
205	0x3ca2a2e3	0.019853061
206	0x3c558484	0.0130320825
207	0x3c060dab	0.00818197
208	0xbd0f26e4	-0.0349492
209	0xbd14cc8f	-0.036327895
210	0x3b1a5791	0.0023550729
211	0x3d03cd11	0.03217799
212	0xbce106b4	-0.027469017
213	0xbd2f131c	-0.042742833
214	0x3cb704bc	0.022341125
215	0x3c187294	0.009304661
216	0xbbe048f4	-0.006844634
217	0xbca676f6	-0.020320397
218	0x3cd157ad	0.025554502
219	0x3c8eb73c	0.017421357
220	0xbcffb03b	-0.031211963
221	0x3be858a4	0.007090645
222	0xbc844fee	-0.016151395
223	0xbc0d1b45	-0.008612459
224	0xbc180d1e	-0.009280471
225	0x3d057dd6	0.03259071
226	0xbd67ac5b	-0.056560855
227	0x3c5e2df0	0.013560757
228	0x3bab0bd5	0.0052199163
229	0x3c92838c	0.017884992
230	0xbc0680bf	-0.008209406
231	0xbc5e925e	-0.013584701
232	0xbcbd7d0c	-0.023130916
233	0xbca21299	-0.019784259
234	0xbcaa9bb6	-0.020826202
235	0xbcaba04e	-0.020950463
236	0xbc526a65	-0.012842749
237	0x3d029c4d	0.03188734
238	0xbd2875d2	-0.041127987
239	0x3be3f7bd	0.006957023
240	0xbd4056e5	-0.04695787
241	0x3d18515e	0.037186973
242	0xbc112ca6	-0.008860743
243	0xbce3eaa7	-0.027821852
244	0xbc257744	-0.010099236
245	0x3bdb9536	0.006701137
246	0xbc330047	-0.010925359
247	0xbd1f5361	-0.038897876
248	0x3cc658d3	0.024212277
249	0x3d09b3ee	0.03361886
250	0x3bf30e78	0.0074174963
251	0x3cc336c4	0.023829825
252	0xba95c442	-0.0011426287
253	0xbd6e134f	-0.058123883
254	0xbce9398b	-0.028469821
255	0xbd046035	-0.032318313

fc2.weight f4 [50, 256]
0	0xbd5a4515	-0.053288538
1	0xbc8355d6	-0.01603214
2	0x3c2440b7	0.010025195
3	0xbd138953	-0.036019634
4	0xbd5fdbfb	-0.05465315
5	0x3cefbcd6	0.029264849
6	0xbcf7db43	-0.03025592
7	0xbd199b30	-0.037501514
8	0x3d245a05	0.04012491
9	0x3cf4a722	0.029864851
10	0xbd8ca969	-0.0686825
11	0xbc3982ea	-0.011322716
12	0xbd7239bf	-0.059137102
13	0x3d4e7d29	0.05041233
14	0xbcca0f16	-0.024665397
15	0xbd4177ec	-0.047233507
16	0xbc2e526d	-0.010639769
17	0xbce4cf45	-0.027930865
18	0xbd0d3846	-0.034477495
19	0xbcdb867e	-0.02679753
20	0x3d5f1f8b	0.05447344
21	0xbd2ee060	-0.04269445
22	0x3cb1b30b	0.02169182
23	0xbcba4231	-0.02273664
24	0x3c8fc40f	0.017549543
25	0xbd74bbed	-0.059749532
26	0x3d2b6cb7	0.041851725
27	0xbd3c5b81	-0.045985702
28	0xbc622856	-0.013803562
29	0x3cc63719	0.024196194
30	0x3cbefea0	0.023314774
31	0x3d5475d0	0.051870167
32	0xbd3b3583	-0.04570533
33	0x3c836b91	0.016042503
34	0x3c8b81bc	0.017029636
35	0xbc933cd3	-0.01797334
36	0x3d1d9792	0.038474627
37	0xbcf6bab9	-0.030118333
38	0xbba45119	-0.0050145504
39	0xbc88a244	-0.016678937
40	0x3d10139d	0.035174955
41	0x3d4ed103	0.050492298
42	0x3cb2a883	0.021808868
43	0xbd62b454	-0.055347756
44	0xbd8611c8	-0.0654636
45	0x3c1c9b18	0.009558462
46	0xbcc7f172	-0.024407122
47	0x3c924c7d	0.017858738
48	0xbb7a8570	-0.0038226508
49	0xbbe3f4f0	-0.006956689
50	0xbb7c2c6f	-0.0038478633
51	0xbcca25cd	-0.024676228
52	0x3d112b15	0.035441477
53	0xbd5ab11e	-0.05339157
54	0xbd51fb98	-0.05126533
55	0x3d360605	0.044439334
56	0x3d12ddc1	0.035856012
57	0x3d45434c	0.048159882
58	0xbbb466ac	-0.0055054035
59	0x3d5cbf93	0.053893637
60	0xbcb265f9	-0.02177714
61	0x3d1cca09	0.038278613
62	0xbd7cf36e	-0.06175559
63	0xbce18907	-0.02753116
64	0x3d408855	0.047005016
65	0x3cfbce3c	0.030737989
66	0x3cb71f6c	0.02235385
67	0x3cf4b018	0.029869124
68	0x3d29961f	0.041402932
69	0x3d183c97	0.037167158
70	0xbc11a852	-0.008890228
71	0x3d4095d7	0.0470179
72	0x3a311dfc	0.0006756482
73	0xbcd23a3a	-0.02566253
74	0x3ca38d63	0.01996488
75	0x3d616611	0.05502898
76	0x3d48054a	0.04883317
77	0xbd352da6	-0.044232987
78	0xbca38498	-0.019960687
79	0xbd174f37	-0.03694078
80	0x3d2c7983	0.04210807
81	0xbd1c1e2b	-0.038114708
82	0xbd09fa3c	-0.033685908
83	0xbc607990	-0.013700858
84	0xbd330183	-0.043702614
85	0xbbf4e815	-0.0074739554
86	0x3bce55fb	0.0062968708
87	0xbbc80b41	-0.006104857
88	0x3cd6a832	0.026203249
89	0x3cc4bebe	0.024016734
90	0x3ce8eb70	0.028432578
91	0x3c82779c	0.015926175
92	0x3a7171e3	0.0009210391
93	0x3d620415	0.055179674
94	0x3d4d4109	0.05011085
95	0x3cdc70bf	0.02690923
96	0x3cba8cf2	0.022772286
97	0x3d45b8e9	0.048272047
98	0x3cd50a69	0.02600594
99	0xbd293709	-0.04131225
100	0x3c202a13	0.009775656
101	0x3c232493	0.00995745
102	0x3b981b63	0.0046419366
103	0x3b19f4b2	0.0023491797
104	0x3bcc510d	0.006235248
105	0x3c08728b	0.00832809
106	0xbd034e85	-0.032057304
107	0xbd8b65e6	-0.06806545
108	0xbcb9450d	-0.022615934
109	0xbcd0a69e	-0.025470074
110	0xbd84873f	-0.06471109
111	0xbce4e930	-0.027943224
112	0x3ca84c48	0.020544186
113	0xbc169846	-0.009191578
114	0xbca23374	-0.019799925
115	0x3c8bc3e0	0.017061174
116	0xbc8cef6e	-0.017204013
117	0x39fc5a2c	0.0004813237
118	0x3d229c4e	0.039699845
119	0xbd850014	-0.064941555
120	0xbd096219	-0.03354082
121	0xbc0abd55	-0.008467992
122	0x3cf11561	0.02942914
123	0x3c68f196	0.014217755
124	0xbc7030ea	-0.0146600995
125	0x3d5e3d3e	0.054257624
126	0xbd1b256a	-0.037877478
127	0xbaa947be	-0.0012915058
128	0xbba9c149	-0.005180512
129	0xbcbd93f6	-0.023141842
130	0xbd58a5e2	-0.052892573
131	0x3d0f3992	0.034967013
132	0x3c6ea7fd	0.014566419
133	0xbd2f416d	-0.042787004
134	0x3d1f1e99	0.03884754
135	0x3d209c3f	0.039211508
136	0xbb23e8f2	-0.0025010672
137	0x3c28fba3	0.010313901
138	0xbd1dd46c	-0.03853266
139	0xbccca6c7	-0.02498187
140	0x3d4720ba	0.048615195
141	0x3d0c77fc	0.034294114
142	0xbd5100df	-0.05102622
143	0x3d4ec9b3	0.050485324
144	0xbc9c7dc5	-0.01910294
145	0x3cfc15ed	0.030772174
146	0xbd02e877	-0.031959977
147	0xbcd24b3c	-0.02567064
148	0x3cd0763c	0.025447004
149	0x3cccd993	0.025006091
150	0xbd8102c8	-0.062993586
151	0x3d417a5a	0.047235824
152	0x3b82610e	0.003978855
153	0x3c88dc22	0.01670653
154	0x3c7dc679	0.015489214
155	0x3d1f5baa	0.038905777
156	0x3cea657d	0.028612847
157	0x3d15b2e9	0.036547575
158	0x3cf1542a	0.029459078
159	0xbcff0ef6	-0.031135064
160	0x3cf8fd03	0.030394083
161	0x3d562f80	0.052291393
162	0xbd5bd45a	-0.05366931
163	0x3cd9982b	0.026561817
164	0x3cb72d78	0.022360548
165	0x3ca9636f	0.020677296
166	0x3abb04a4	0.0014268351
167	0xbbce57a8	-0.0062970705
168	0xbd34a687	-0.044104125
169	0xbd4fe702	-0.050757416
170	0x3c7d6b63	0.0154674975
171	0xbd7609b0	-0.060067832
172	0x3d0286ea	0.031866945
173	0x3c9e8f04	0.019355305
174	0xbd0c0a6d	-0.03418963
175	0xba49666a	-0.00076828024
176	0x3d456ab3	0.04819746
177	0x3c7b3f44	0.015334908
178	0x3c278f7b	0.0102270795
179	0x3d6255a2	0.055257447
180	0xbd608751	-0.054816548
181	0x3d51dec9	0.051237855
182	0xbd25b164	-0.040452376
183	0x3be66c82	0.007031978
184	0x3c9a39dd	0.01882642
185	0xbd4d8747	-0.05017784
186	0xbcafe2dc	-0.02147048
187	0x3d201b8a	0.039088763
188	0x3c9ef876	0.019405585
189	0x3d4eedff	0.05051994
190	0xb805be4c	-3.18869e-05
191	0xbb59b4f3	-0.0033219426
192	0x3cd62e49	0.026145117
193	0x3d5f97db	0.05458818
194	0xbb9dbc3a	-0.004813698
195	0xbc092f36	-0.008373072
196	0xbca37db3	-0.019957399
197	0xbd7ccf2a	-0.061721005
198	0xbc974a51	-0.018468054
199	0xbd7496f5	-0.059714276
200	0xbc1dcfe7	-0.009632087
201	0x3d344adc	0.044016704
202	0xbcdfa936	-0.027302366
203	0x3cfde059	0.030990766
204	0xbd295ffa	-0.041351296
205	0xbd6c3cb7	-0.05767509
206	0x3cfa551c	0.030558161
207	0xbd0123b2	-0.031528182
208	0xbcced076	-0.025245886
209	0xbc98f043	-0.018669253
210	0x3d3db90e	0.04631906
211	0x3d46acf3	0.04850478
212	0x3d42e5f5	0.047582585
213	0x3c3c2fd2	0.011486011
214	0x3cb9fb72	0.022702906
215	0x3d315c6f	0.043301042
216	0x3d17516c	0.036942884
217	0x3c9e3b9a	0.01931553
218	0x3ca214dc	0.019785337
219	0x3d227794	0.03966482
220	0x3c5ca3d9	0.013466799
221	0xbd10d1e1	-0.035356406
222	0x3d6d01aa	0.057862915
223	0xbd1f258a	-0.03885416
224	0xbc73de51	-0.014884547
225	0xbcc1b35f	-0.023645101
226	0xbd23c2c6	-0.039980672
227	0xbd5399ee	-0.05166047
228	0xbb9afda2	-0.0047299424
229	0x3c2bf20e	0.010494722
230	0xbc432ce8	-0.011912562
231	0xbd2acd3c	-0.041699633
232	0x3d03ce92	0.032179423
233	0xbd664366	-0.05621662
234	0x3c701d3f	0.01465541
235	0x3d62a351	0.055331532
236	0x3d023443	0.031788122
237	0x3bfbc222	0.0076830545
238	0xbc5f3657	-0.0136237955
239	0xbd37594b	-0.04476289
240	0x3d31b1d8	0.043382496
241	0x3d1879ed	0.037225652
242	0x3cdc342b	0.026880344
243	0x3d6009f9	0.05469701
244	0xbd286d34	-0.04111977
245	0x3d4e1376	0.05031153
246	0x3b80bab8	0.0039285086
247	0xbd4fd535	-0.05074044
248	0x3c991228	0.018685415
249	0xbd372a8b	-0.044718307
250	0x3d3e3c02	0.046443947
251	0xba5e9d7b	-0.00084920943
252	0xba5a3e6d	-0.0008325342
253	0xba9f6d1e	-0.0012163257
254	0x3d670ffe	0.056411736
255	0xbd725c34	-0.059169963

fc2.bias f4 [50]
0	0x3bf0034d	0.0073246122
1	0xbcb1417b	-0.021637669
2	0x3c41571d	0.011800555
3	0xbc9b0de8	-0.01892753
4	0x3cb52318	0.02211146
5	0xba9a5e43	-0.001177736
6	0xbbde00f5	-0.0067750164
7	0xbb42b453	-0.0029709532
8	0xbd3854a7	-0.045002606
9	0x3c097cfc	0.008391615
10	0xbab7c934	-0.0014021755
11	0x3c3ddb5c	0.011587944
12	0x3c1b4294	0.009476323
13	0xbc89b859	-0.016811537
14	0x3ca69747	0.020335807
15	0x3b66962b	0.0035184722
16	0x3cd2178a	0.02564599
17	0xbc4621a8	-0.012092985
18	0xbbf21bf6	-0.007388587
19	0x3cc6b1a4	0.024254628
20	0x3a68f633	0.0008886784
21	0x3c016e99	0.007899904
22	0x3c365439	0.011128479
23	0xbc9d9f3b	-0.019240966
24	0xbc719411	-0.014744774
25	0x3be6eb5a	0.007047099
26	0x3c67d03e	0.01414877
27	0x3bf51f4c	0.0074805375
28	0x3b4c85b8	0.0031207632
29	0xbb24a69e	-0.0025123726
30	0x39d9060a	0.00041393965
31	0x3d01fd31	0.031735603
32	0x3b23cdac	0.0024994416
33	0x3c9ddaab	0.019269308
34	0xbc1b915b	-0.009495105
35	0x3c17daf9	0.009268516
36	0x3c00695b	0.007837619
37	0x3ce91f9e	0.028457459
38	0xbc25234c	-0.010079216
39	0xbb9ef2ef	-0.0048507373
40	0xbc21847e	-0.009858249
41	0x3c10ad33	0.008830356
42	0x3d08a0ae	0.03335636
43	0xbc5316bd	-0.012883839
44	0xbbc892b1	-0.0061210026
45	0xbc93e709	-0.018054502
46	0xbb9e7fa9	-0.0048369956
47	0x3972a8ed	0.00023141848
48	0x3ca63e5d	0.020293409
49	0xbc0d79e2	-0.008635016

fc3.weight f4 [50, 256]
0	0x3d158964	0.03650798
1	0x3d6af62b	0.05736367
2	0xbad9fdea	-0.0016631458
3	0x3aa4e0b0	0.0012579169
4	0xbcecb244	-0.028893597
5	0xb99b36e9	-0.00029604815
6	0xbd42acb2	-0.047527976
7	0xbd88d675	-0.066815294
8	0x3cc3d0be	0.023903247
9	0xbd4f20b8	-0.050568312
10	0xbd2b356a	-0.041798986
11	0x3b3db4c1	0.002894685
12	0xbd489354	-0.048968628
13	0x3ca44d16	0.020056289
14	0x3b67b68d	0.0035356611
15	0x3b3795a9	0.0028012788
16	0xbcc2114c	-0.023689888
17	0xbd18cd81	-0.03730536
18	0xbd0b4b75	-0.03400751
19	0xbd5611b0	-0.052262962
20	0x3d123477	0.035694566
21	0x3d6dbd03	0.058041584
22	0xbd682ae8	-0.056681544
23	0xbc991599	-0.018687056
24	0x3bdd4ac4	0.0067532975
25	0x3d5cb06d	0.05387919
26	0x3ca655b8	0.020304546
27	0x3d5d10fa	0.05397127
28	0x3d1481bb	0.036256533
29	0xbd483bb9	-0.04888508
30	0x3c466248	0.012108393
31	0x3ca86919	0.020557927
32	0xbd330098	-0.043701738
33	0x3d2eda08	0.0426884
34	0xbd7f52d1	-0.06233484
35	0xbc96e060	-0.018417537
36	0x3d2b94f9	0.04189012
37	0xbc22cc96	-0.009936472
38	0x3b1939f8	0.00233805
39	0x3af93895	0.0019014055
40	0xbd623f78	-0.05523631
41	0x3cf004b8	0.029299125
42	0x3c68cb7a	0.014208669
43	0x3c37b0c1	0.011211575
44	0x3d0116ae	0.03151577
45	0x3cef9e71	0.029250355
46	0x3d40488b	0.046944182
47	0x3d1d6ab0	0.038431823
48	0xbd6ff481	-0.058582786
49	0xbbccd399	-0.0062508103
50	0xbc25147e	-0.0100756865
51	0xbd45b1e1	-0.04826534
52	0x3d333326	0.04374995
53	0x3cab4dd1	0.02091113
54	0xbd57737d	-0.052600373
55	0x3d27c68f	0.040960845
56	0xbd019fd0	-0.03164655
57	0xbd278b0f	-0.0409041
58	0x3c4976ee	0.012296421
59	0xbd7d26ab	-0.061804455
60	0x3d1fc9b1	0.039010707
61	0xbcbbac11	-0.022909196
62	0xbd50ee37	-0.05100843
63	0xbcfd87bc	-0.030948512
64	0xbd34e157	-0.044160213
65	0xbcd139bd	-0.025540227
66	0xbc4b51fa	-0.012409681
67	0xbd0d047f	-0.034428116
68	0x3c2a1612	0.010381239
69	0xbcff6efe	-0.031180855
70	0xbcfc9d80	-0.03083682
71	0x3d32809d	0.043579686
72	0x3d373912	0.04473216
73	0xbc703913	-0.014662045
74	0x3bd267bc	0.0064210575
75	0x3d1f1e79	0.03884742
76	0xbb3270c8	-0.0027227867
77	0x3cf34ec1	0.029700639
78	0xbcc10726	-0.023562979
79	0x3d106536	0.035252772
80	0x3d13b0e4	0.036057368
81	0x3d290de8	0.041273028
82	0x3d23cb04	0.039988533
83	0xbd7ce824	-0.061744824
84	0xbd30567b	-0.043051224
85	0xbac8e97c	-0.0015328373
86	0x3cb2b1e1	0.021813335
87	0xbb8a4f4d	-0.004220879
88	0xb7ba802f	-2.2232618e-05
89	0xbc09c128	-0.008407868
90	0xbd5f867c	-0.054571614
91	0xbc03752e	-0.008023543
92	0xbd68b1e5	-0.05681028
93	0x3ca3c2c8	0.01999034
94	0x3d51a6f3	0.051184606
95	0x3d3a521e	0.04548847
96	0x3d3f9ed0	0.046782315
97	0xbd54decf	-0.0519703
98	0x3c928f30	0.017890543
99	0xbd59d334	-0.053179935
100	0xbd237b7e	-0.039912693
101	0x3c50ce4f	0.0127445
102	0xbd8367f9	-0.064163156
103	0xbd172a1d	-0.036905397
104	0x3c50cae7	0.012743688
105	0xbc9afa99	-0.018918322
106	0x3bd05dda	0.006358844
107	0x3ce3ed23	0.027823037
108	0x3c5b438e	0.0133828055
109	0x3cf5eb04	0.03001929
110	0xbd60f553	-0.05492146
111	0x3ccc19bd	0.024914617
112	0xbcb6e3e4	-0.022325464
113	0x3d028ed5	0.031874496
114	0xbd3807a1	-0.04492915
115	0xbc25cf14	-0.010120172
116	0xbc66781d	-0.014066723
117	0xbcdf1ba8	-0.027234867
118	0xbca4255a	-0.020037342
119	0xbca0f752	-0.019649182
120	0xbcd4d531	-0.025980564
121	0x3bedc5e6	0.0072562573
122	0x3d210dde	0.039319865
123	0x3d35582b	0.044273537
124	0xbc9da9bf	-0.01924598
125	0x3b1258c1	0.0022330733
126	0x3c4dd258	0.012562357
127	0x3c38f88d	0.011289728
128	0xbd28abf3	-0.04117961
129	0xbc1977df	-0.009366958
130	0xbb5387f1	-0.0032277072
131	0x3c986513	0.018602883
132	0xbc3d5150	-0.011555031
133	0xbd1f4c3b	-0.03889106
134	0x3c72921c	0.014805343
135	0x3d370ede	0.044691913
136	0x3c29146f	0.010319813
137	0xbd383728	-0.044974476
138	0x3d32d93b	0.0436642
139	0x3c3ae107	0.01140619
140	0xbd68549a	-0.056721307
141	0xbca87045	-0.020561347
142	0xbc7a7890	-0.015287533
143	0xbd070c0d	-0.032970477
144	0x3cb71e17	0.022353215
145	0x3d22c368	0.039737135
146	0x3d060fed	0.03273003
147	0xbcf88654	-0.03033749
148	0xbd809814	-0.062790066
149	0xbd4acdb0	-0.049512565
150	0x3bc7df92	0.0060996497
151	0x3c832901	0.016010763
152	0x3d541385	0.051776428
153	0xbc9a9aa9	-0.018872576
154	0xbd7ea216	-0.062166296
155	0x3d337646	0.043813966
156	0xbd19d162	-0.0375532
157	0x3d1481bd	0.03625654
158	0x3d3efefd	0.046629895
159	0x3c5402dc	0.012940135
160	0xbd5632c9	-0.052294526
161	0x3cc44973	0.023960805
162	0x3c99f270	0.018792361
163	0xbd6fbc32	-0.058529086
164	0xbc35dc86	-0.01109994
165	0xbd6e6760	-0.058204055
166	0x3c5da6a2	0.013528498
167	0x3cdd7d27	0.027037216
168	0x3cfa2e6b	0.030539712
169	0x3d3e33ae	0.046436004
170	0x3d5bda65	0.053675074
171	0x3ce03611	0.02736953
172	0x3c9e8440	0.019350171
173	0xbd672341	-0.056430105
174	0xbd698e9e	-0.057020776
175	0xbba41e4b	-0.005008494
176	0x3d0552c8	0.03254965
177	0xbd8be6ed	-0.06831155
178	0x3c822de1	0.015891017
179	0xbd1f7c8d	-0.03893714
180	0x3d0b991b	0.03408156
181	0xbd428401	-0.04748917
182	0x3d558a20	0.05213368
183	0x3d054808	0.032539397
184	0xbd604d61	-0.054761294
185	0xbb8dbf4a	-0.004325782
186	0xbd0d2688	-0.034460574
187	0xbd43b51c	-0.04778014
188	0x3c7aa6a7	0.015298522
189	0xbc513aee	-0.012770398
190	0x3a85760b	0.0010182274
191	0xbc9451c3	-0.018105393
192	0xbceb877a	-0.028751124
193	0x3d1301f4	0.035890535
194	0xbd6eec3a	-0.058330752
195	0xbd08ea18	-0.033426374
196	0xbcae5578	-0.021280989
197	0xbd0bbc39	-0.03411505
198	0xbc8fb48c	-0.017542146
199	0xbd4306ac	-0.047613785
200	0x3cd43252	0.0259029
201	0x3ce48feb	0.027900657
202	0x3d230d85	0.039807815
203	0x3c4df947	0.012571639
204	0x3d397f81	0.045287613
205	0x3d26a6a5	0.04068627
206	0x3aab6fa9	0.0013079542
207	0xbcdd9d75	-0.02705262
208	0xba4ae8a6	-0.0007740356
209	0x3d475d2d	0.048672844
210	0xbd8b9c47	-0.06816917
211	0x3c1403f9	0.00903415
212	0x3b0bad05	0.0021312844
213	0x3cb0abd2	0.021566305
214	0x3d37712c	0.044785663
215	0x3d0cda58	0.034387916
216	0xbd319731	-0.043357078
217	0x3a2318aa	0.0006221632
218	0xbcfff147	-0.03124298
219	0x3d400eb2	0.046889015
220	0x3d4077ef	0.046989378
221	0x3d32591b	0.04354201
222	0xbd11cc53	-0.03559525
223	0xbd809931	-0.06279219
224	0xbd3991f4	-0.045305207
225	0xbd1f947f	-0.038959976
226	0xbce98c34	-0.028509237
227	0x3d582e9b	0.05277882
228	0xbd1cd61b	-0.038290124
229	0x3d296a67	0.04136124
230	0xbd98b575	-0.07456485
231	0xbd5dc517	-0.054143038
232	0x3d234524	0.03986086
233	0x3d21cd37	0.03950235
234	0xbd5b124b	-0.053484242
235	0x3cedb58e	0.029017236
236	0xbcdcfb0a	-0.026975174
237	0x3d232491	0.039829794
238	0x3cf5efcd	0.030021572
239	0xbca4840c	-0.020082496
240	0x3c1ed457	0.00969418
241	0x3cd7f6bb	0.026362767
242	0xbc6924d7	-0.014229975
243	0xbd4f11f4	-0.05055423
244	0xbd5df837	-0.054191794
245	0x3cf621ee	0.030045476
246	0xbd82bed7	-0.06384056
247	0x3cd3196a	0.025768954
248	0x3bb3f469	0.0054917824
249	0x3bd2a11f	0.0064278985
250	0xbc1021c8	-0.008797117
251	0xbca8302c	-0.020530783
252	0xbd8a6ad9	-0.06758661
253	0xbd489e96	-0.048979364
254	0x3d299b92	0.04140813
255	0xbd6bc9b7	-0.057565417

fc3.bias f4 [50]
0	0x3c8d929a	0.01728182
1	0xbca28fbe	-0.019843932
2	0xbc357c34	-0.011076976
3	0xbbf48928	-0.0074626394
4	0xbcba8ae8	-0.022771314
5	0xbc804ac6	-0.015660655
6	0x3cb4c261	0.022065343
7	0x3c17b024	0.009258304
8	0xbb57917f	-0.003289312
9	0xbc8379bb	-0.016049257
10	0x3d0b3026	0.033981465
11	0xb91a0ce5	-0.00014691388
12	0xbca87c13	-0.020566976
13	0x3b7fd3ad	0.003903608
14	0x3c02becd	0.007980061
15	0xbc4ff57e	-0.012692807
16	0xbc925b7c	-0.017865889
17	0xbcfc1064	-0.030769534
18	0xbb898d60	-0.0041977614
19	0xbc44f710	-0.012021795
20	0xbca2be56	-0.01986615
21	0x3cf81571	0.030283662
22	0xbc82ecbc	-0.015982024
23	0xbbe42fa4	-0.006963687
24	0xbca1e41c	-0.019762091
25	0x3cf3c9ea	0.029759366
26	0xbbeeaf17	-0.007284056
27	0x3c0c0b41	0.008547605
28	0x39123fd7	0.00013947427
29	0xbc52dab0	-0.012869522
30	0xbb2c0549	-0.0026248267
31	0xbbce02cc	-0.0062869545
32	0xbc59359a	-0.0132574085
33	0xbc46900f	-0.012119307
34	0xbcd5bb0f	-0.026090173
35	0xbc5758a5	-0.013143693
36	0xbc91d2a2	-0.017800633
37	0xbb8036cf	-0.0039127837
38	0x3c5c7ad9	0.013457024
39	0x3d0a2f77	0.033736672
40	0x3c116576	0.008874288
41	0x3bcf6a1c	0.006329788
42	0x3c1a4691	0.009416238
43	0xbc0388ab	-0.00802819
44	0xbcc337f9	-0.0238304
45	0xbc2ac60a	-0.010423193
46	0x3cb4058d	0.021975303
47	0x3b1a7175	0.002356616
48	0x3cde9913	0.0271726
49	0x3bc88f18	0.0061205737

fc4.weight f4 [256, 50]
0	0x3c93060e	0.017947223
1	0x3d86e916	0.06587426
2	0x3d10ba9a	0.035334207
3	0x3bb9e07d	0.005672513
4	0x3d184d28	0.037182957
5	0xbd20b1cb	-0.039232057
6	0xbc4a06c1	-0.012330712
7	0x3d3d8e06	0.046278022
8	0x3d80e478	0.06293577
9	0xbcb125ec	-0.021624528
10	0xbd00ad51	-0.031415287
11	0xbc342d45	-0.010997121
12	0xbc06b78b	-0.008222471
13	0xbbfd38e6	-0.00772773
14	0xbcaaef65	-0.020866105
15	0xbcc4e3f4	-0.024034478
16	0x3d475e59	0.04867396
17	0xbc5fedaf	-0.013667508
18	0x3bcb03b8	0.0061955117
19	0xbb5c0b54	-0.0033576088
20	0x3d2979ef	0.04137605
21	0x3c8959d1	0.01676646
22	0xbc2b4656	-0.010453781
23	0xbcc1239f	-0.023576556
24	0xbc332be0	-0.010935754
25	0x3d032f1c	0.03202735
26	0xbc273ae4	-0.010206912
27	0xbc7a0047	-0.015258855
28	0xbbefb59a	-0.0073153498
29	0xbca05856	-0.019573372
30	0xbcec3dc7	-0.028838051
31	0xbc8b80df	-0.017029224
32	0xbba732cd	-0.0051024915
33	0xbd66b722	-0.056326993
34	0x3b6c7a7b	0.0036083746
35	0xbc982088	-0.0185702
36	0xba331b7d	-0.0006832404
37	0x3c95cdeb	0.018286666
38	0x3c83761e	0.016047534
39	0xbc885b9b	-0.016645243
40	0xbcf2f188	-0.029656187
41	0x3d0bcef0	0.034132898
42	0x3cad105a	0.021125961
43	0x3c78f3a9	0.015194812
44	0x3c3e8df5	0.011630525
45	0xbd61112d	-0.05494802
46	0x3c88536c	0.016641341
47	0xbcfcb980	-0.030850172
48	0xbd0e44a7	-0.03473344
49	0x3a403139	0.00073315535
50	0x3cc539fb	0.024075499
51	0xbc984a7d	-0.018590206
52	0x3cfb8d6d	0.030707086
53	0x3cdb13a5	0.026742766
54	0xbd89df69	-0.06732065
55	0xbc466461	-0.012108893
56	0x3d36aa62	0.044596083
57	0xbcb1b302	-0.021691803
58	0xb9fb0e85	-0.0004788527
59	0x3c5a84c9	0.0133373225
60	0xbd02751d	-0.03184997
61	0xbcd178da	-0.025570322
62	0x3bd29e00	0.0064275265
63	0xbbebbd28	-0.00719418
64	0xbc9f3f14	-0.019439258
65	0x3d22002d	0.03955095
66	0x3c7dc1b8	0.015488081
67	0xbaf3518a	-0.0018563729
68	0xbc838a91	-0.016057285
69	0xbc2425b1	-0.010018752
70	0x3c61deaa	0.013785997
71	0x3cb176ba	0.021663059
72	0x3d02f2a4	0.03196968
73	0x3c96ca4b	0.018407008
74	0xbc284046	-0.01026923
75	0xbcf54036	-0.029937845
76	0xbcea584c	-0.028606556
77	0x3c87e418	0.016588256
78	0x3d2782c2	0.040896185
79	0xbb8ba1b0	-0.004261218
80	0x3d56d84e	0.052452378
81	0xbc79154c	-0.0152028315
82	0xbd0d43f4	-0.034488633
83	0xbb581aa5	-0.0032974866
84	0xbc198a68	-0.0093713775
85	0x3ae0d269	0.0017152551
86	0x3c637226	0.013882196
87	0x3a8ca339	0.0010729796
88	0x3d0b459b	0.034001928
89	0x3d8531d5	0.06503645
90	0xbd1dbb89	-0.038508926
91	0xbc513bc5	-0.012770598
92	0x3ceb93c4	0.028756984
93	0x3c774764	0.015092704
94	0x3b97aebc	0.0046289843
95	0x3bd5b5ff	0.0065219398
96	0xbd093ba6	-0.03350415
97	0x3c6db5a4	0.0145086385
98	0xbd399bc0	-0.04531455
99	0xbd504792	-0.050849505
100	0x3d4137ef	0.047172483
101	0xbc6051ab	-0.013691346
102	0xbc886be4	-0.016653009
103	0xbd928033	-0.07153358
104	0xbc12fc05	-0.008971219
105	0x3a6ba05f	0.0008988436
106	0x3c93da32	0.01804838
107	0xbba04c42	-0.004891903
108	0x3c70f091	0.014705793
109	0x3cb59304	0.02216483
110	0x3b21089f	0.002457179
111	0x3cb5f786	0.022212755
112	0x3c833e4a	0.016020913
113	0x3c5b0dff	0.013370036
114	0x39f6ee3b	0.00047098272
115	0x3c25883e	0.010103283
116	0x3b901fb7	0.004398312
117	0x3cdacd8e	0.026709344
118	0xbc3c8bf8	-0.0115079805
119	0xbacd79d7	-0.001567657
120	0x3b875d57	0.004131
121	0x3aaa2bfc	0.0012983079
122	0x3d3ddc31	0.04635257
123	0xba51b8fb	-0.00080002815
124	0xbca6277e	-0.020282503
125	0xbcbeb51f	-0.023279725
126	0x3c8f6f60	0.017509162
127	0x3ca2a774	0.019855238
128	0xbd4152d0	-0.047198117
129	0xbc130824	-0.008974109
130	0xbd00c5cc	-0.031438634
131	0xbcc4344b	-0.023950716
132	0xbccd7a04	-0.025082596
133	0xbceed618	-0.029154822
134	0x3d306ec1	0.043074373
135	0x3c97fee3	0.018554157
136	0xbb80934d	-0.0039238096
137	0xbcb8db82	-0.022565607
138	0xbb36d9f3	-0.0027900904
139	0xbd0f776a	-0.03502599
140	0x3d04a9a6	0.03238835
141	0x3d122a83	0.035685074
142	0xbc12aa8a	-0.0089517925
143	0x3cb2bfe3	0.021820014
144	0xba19bc23	-0.00058645214
145	0xbc5a7739	-0.013334089
146	0xbd53b101	-0.051682476
147	0xba8fa2ba	-0.001095853
148	0xbbed1ebb	-0.0072363294
149	0xbc85c984	-0.016331442
150	0x3c9b5334	0.018960573
151	0xbc982fe0	-0.018577516
152	0xbd32285a	-0.043495513
153	0x3ba7e6a9	0.0051239324
154	0x3c891b05	0.016736517
155	0x3d018a41	0.03162599
156	0x3dba1cd2	0.09087528
157	0x3d68ac2c	0.05680482
158	0xbd2ffebf	-0.042967554
159	0x3cb8c527	0.022554947
160	0x3d3a9e71	0.045561258
161	0x3bce503e	0.0062961867
162	0xbd05aeae	-0.03263729
163	0xbcc9e647	-0.024645938
164	0x3c8bc52e	0.017061796
165	0xbcb5132e	-0.022103872
166	0xbc4e0ff1	-0.012577043
167	0xbd218e02	-0.03944207
168	0xbc848a55	-0.016179243
169	0x3d7f5e70	0.062345922
170	0xbd0b4b6c	-0.034007475
171	0xbc914cda	-0.017736841
172	0x3c2eba76	0.010664573
173	0xbc85f3f2	-0.016351674
174	0x3c8edb38	0.017438516
175	0x3c47c125	0.012192045
176	0x3d6b3fcb	0.057433885
177	0x3ce81900	0.028332233
178	0x3ca7841f	0.020448742
179	0x3cc75e2e	0.0243369
180	0x3d688858	0.056770653
181	0x3c5a165b	0.013310994
182	0xbc7162da	-0.014733041
183	0x3d502962	0.050820716
184	0x3d0103a5	0.031497616
185	0x3ccbf702	0.024898056
186	0xbd0f9f2a	-0.0350639
187	0xbcec4654	-0.028842129
188	0xbc87391c	-0.016506724
189	0xbc0cda32	-0.008596944
190	0x3d3cedee	0.046125345
191	0xbca88403	-0.02057076
192	0xbd0af8bf	-0.03392863
193	0xbc14949d	-0.009068635
194	0xbd98fb13	-0.074697636
195	0x3bd3489e	0.0064478656
196	0x3cd660c4	0.026169188
197	0x3cb0c06e	0.021576133
198	0xbafa4e12	-0.0019096753
199	0x3d449469	0.047993097
200	0xbc9db659	-0.01925199
201	0xb7c5f92f	-2.3600265e-05
202	0xbc534487	-0.012894756
203	0x3d18cdf4	0.037305787
204	0xbcf770b0	-0.0302051
205	0xbd191ee1	-0.037382964
206	0xbd444ec1	-0.047926668
207	0xbc154ae4	-0.009112094
208	0x3ccb18be	0.024792071
209	0xbc33ac91	-0.010966436
210	0x397a9a33	0.00023899302
211	0x3c1026ca	0.0087983105
212	0x3c1a8fcc	0.009433698
213	0xbd3de4c5	-0.04636075
214	0x3cba199a	0.022717286
215	0x3ba11a7b	0.004916487
216	0xbaf0fe58	-0.0018386347
217	0x3cba25b6	0.02272306
218	0x3d50adf1	0.050947133
219	0xbc9794d1	-0.018503578
220	0xbbc40a28	-0.005982656
221	0x3c9acb36	0.018895727
222	0x3c755162	0.014973016
223	0x3c6a9d8c	0.014319789
224	0xbbab0e3a	-0.005220202
225	0xbca1d22f	-0.019753544
226	0xbbb73378	-0.0055908523
227	0x3cbdf4fa	0.023188103
228	0xbc47e0cc	-0.012199592
229	0xbbaae2e0	-0.005215034
230	0xbd259be8	-0.040431887
231	0x3cd81e4f	0.02638164
232	0xbb9354c8	-0.0044961907
233	0xbc422436	-0.011849454
234	0x3c4c5735	0.012471964
235	0xbcef3f13	-0.02920488
236	0x3b3357e3	0.0027365617
237	0x3c8633cd	0.016382122
238	0x3c964ebc	0.01834809
239	0xbcb9bbc6	-0.022672545
240	0x3c9ce422	0.019151751
241	0x3ce6eb77	0.02818845
242	0xba4d8c8e	-0.00078410737
243	0x3c934838	0.017978773
244	0xbcb5082a	-0.02209862
245	0xbc3c361a	-0.011487508
246	0x3cdc258e	0.026873376
247	0xbc9e8980	-0.019352674
248	0x3c467949	0.012113878
249	0x3ba72f99	0.0051021096
250	0x3b56b310	0.0032760538
251	0x3cf77edd	0.03021186
252	0x3ca77bd5	0.02044479
253	0x3d0d24e6	0.034459017
254	0x3d0acadd	0.03388487
255	0x3c2d1304	0.010563616

fc4.bias f4 [256]
0	0xbd4a09a3	-0.049325597
1	0xbe89bd30	-0.2690215
2	0xbdd97296	-0.10617559
3	0xbe27b819	-0.16378821
4	0xbdc31885	-0.09526161
5	0x3d52d07c	0.051468357
6	0x3e3f8bb8	0.18705642
7	0xbcac8bef	-0.02106282
8	0xbdcdf453	-0.10056367
9	0xbda37504	-0.07981303
10	0xbe4d61e4	-0.20056874
11	0xbdce29f5	-0.100665964
12	0xbcbdb13b	-0.0231558
13	0x3e3bb69d	0.1833138
14	0xbe73598d	-0.2376463
15	0x3d599b7f	0.05312681
16	0x3e13da1d	0.14438672
17	0xbe5c1409	-0.21492018
18	0xbe0786f7	-0.13235079
19	0x3e3d1e2e	0.18468544
20	0x3db484f7	0.088144235
21	0x3dcaaee6	0.098966405
22	0xbe10617b	-0.14099686
23	0x3c684a34	0.014177848
24	0xbe801440	-0.2501545
25	0xbcad073b	-0.021121612
26	0x3daf4112	0.08557333
27	0x3e410de2	0.18852952
28	0xbe6b0676	-0.22951683
29	0x3da64416	0.08118455
30	0xbe688042	-0.22705176
31	0x3e30c849	0.17263903
32	0xbe567964	-0.20944744
33	0xbe7f5462	-0.24934533
34	0x3d5e66b2	0.054297157
35	0xbe1ae625	-0.15126856
36	0x3e7ae8b5	0.24502833
37	0xbda8f8b0	-0.082505584
38	0x3d78b081	0.060715202
39	0x3dd0f488	0.10202891
40	0xbe292dda	-0.16521397
41	0x3e024894	0.12722999
42	0xbdaf7717	-0.085676365
43	0x3bae5b93	0.005320975
44	0x3dadc04e	0.08483945
45	0x3dbdea0d	0.09273157
46	0x3d0a355a	0.033742286
47	0x3e73c3ba	0.23805133
48	0xbe3c44a5	-0.18385561
49	0x3e18735c	0.14887756
50	0xbd609442	-0.05482889
51	0x3e507926	0.20358714
52	0x3de9cf64	0.1141651
53	0xbd0d5565	-0.034505267
54	0xbe60bd6f	-0.21947263
55	0xbcc28110	-0.023743182
56	0x3d04c0ae	0.032410316
57	0x3dc2adc4	0.095057994
58	0xbd360b17	-0.04444417
59	0xbe33f3fc	-0.17573541
60	0x3da967bc	0.08271739
61	0x3e1789fd	0.14798732
62	0x3dae578f	0.08512794
63	0xbd642053	-0.05569489
64	0x3cc70769	0.024295526
65	0xbe4ab23f	-0.19794558
66	0x3df305b3	0.118663214
67	0xbcace435	-0.021104911
68	0xbe16ebf2	-0.14738443
69	0xbe5581c3	-0.20850281
70	0xbcf7632e	-0.03019866
71	0x3d915db9	0.07097954
72	0x3e5eefa0	0.21771097
73	0x3d3b8fd7	0.045791473
74	0xbd4ee726	-0.05051341
75	0x3e1726a3	0.14760832
76	0xbdd505eb	-0.104015194
77	0xbd95f70f	-0.07322513
78	0x3c11dca7	0.008902705
79	0xbd690730	-0.05689162
80	0x3dad52b6	0.084630415
81	0x3b070cc6	0.0020606979
82	0x3d941940	0.072313786
83	0x3cfdd50a	0.030985374
84	0xbdb63962	-0.08897664
85	0x3c9c4964	0.019077964
86	0xbba9b24d	-0.005178726
87	0x3cc9f632	0.024653528
88	0xbe8d3855	-0.2758204
89	0x3e2ed732	0.17074278
90	0xbe7df21e	-0.24799392
91	0x3e4082b4	0.1879986
92	0x3e75be28	0.2399832
93	0xbe21a92b	-0.15787189
94	0xbe7b9760	-0.24569464
95	0xbe0ae2d3	-0.13563089
96	0xbe156c83	-0.14592175
97	0xbc53bd72	-0.012923585
98	0xbe19ee1b	-0.15032236
99	0xbe2e145a	-0.16999951
100	0x3e273846	0.1633006
101	0xbe576af5	-0.21036895
102	0xbde0f56b	-0.1098431
103	0x3e67d581	0.22640039
104	0xbe25e38d	-0.16200085
105	0xbb07db89	-0.0020730218
106	0xbd267fb0	-0.040649116
107	0x3dbb6274	0.09149638
108	0x3e718244	0.23584849
109	0xbe2fb1a7	-0.17157613
110	0x3daee3a5	0.085395135
111	0x3cd56ac1	0.02605188
112	0xbdbb83a8	-0.09155971
113	0xbe52fd8e	-0.20604536
114	0xbe796b91	-0.2435744
115	0xbe72909f	-0.23687981
116	0xbbe5830c	-0.0070041474
117	0x3db5f660	0.08884883
118	0x3e1e1841	0.1543894
119	0xbd7a3128	-0.061082035
120	0x3e482ae9	0.19547619
121	0x3cbae947	0.022816313
122	0xbe054718	-0.13015401
123	0xbe1f4378	-0.15553081
124	0x3de38661	0.11109615
125	0xbd8ca1ec	-0.06866822
126	0x3d97391d	0.0738394
127	0xbd1f09fc	-0.03882788
128	0xbe65d296	-0.22443613
129	0x3e67e53c	0.2264604
130	0xbc8bbd40	-0.017058015
131	0xbdf8aa45	-0.12141851
132	0xbe35973a	-0.1773347
133	0x3c93b6cc	0.0180315
134	0x3e3027c3	0.17202668
135	0x3ccddf3b	0.025130859
136	0xbddf15c3	-0.108928226
137	0xbd98d666	-0.07462768
138	0x3d1a65a5	0.037694592
139	0x3d7d3ac7	0.061823633
140	0x3e0893d3	0.1333764
141	0xbe40766d	-0.18795176
142	0x3cd8b1a1	0.026451888
143	0xbe6c9f57	-0.23107658
144	0x3dd25ee3	0.102720045
145	0x3e4ae070	0.19812179
146	0x3dc13d3a	0.09435506
147	0xbd368f70	-0.044570386
148	0xbda201c2	-0.079104915
149	0xbd412868	-0.047157675
150	0xbcc970c7	-0.02458991
151	0x3d20e290	0.039278567
152	0x3e0a02c4	0.13477618
153	0xbe0a255c	-0.13490814
154	0x3cb726ec	0.022357427
155	0xbe215c4a	-0.15757862
156	0x3e309f3c	0.17248243
157	0x3e1fbb63	0.15598826
158	0x3e38a3fd	0.18031307
159	0xbcb6ab61	-0.022298517
160	0xbe2bc311	-0.1677363
161	0xbe181e1c	-0.14855236
162	0x3d255452	0.040363617
163	0xbe2f2ffc	-0.17108148
164	0x3e119ac1	0.1421919
165	0x3cfd2005	0.030899057
166	0x3e8569b3	0.26057205
167	0x3e7e2d91	0.2482207
168	0xbc2b021f	-0.010437517
169	0xbcd3aef5	-0.025840262
170	0x3e6f3705	0.23360832
171	0x3e2bf0f6	0.16791138
172	0xbe4bb0f3	-0.1989172
173	0x3d0b195a	0.033959724
174	0x3cad1529	0.021128254
175	0x3b407594	0.0029366957
176	0x3d3c1f6e	0.04592841
177	0x3dc632ae	0.09677635
178	0x3e521394	0.20515281
179	0xbd2be9bb	-0.04197095
180	0xbd69ffb8	-0.057128638
181	0xbe0a9de6	-0.13536796
182	0x3e3f7c97	0.18699871
183	0xbe2c28a3	-0.16812377
184	0xbe3e6f69	-0.18597187
185	0xbd7b4a24	-0.061350003
186	0xbdd0f0be	-0.10202168
187	0xbba67bf4	-0.0050806943
188	0xbc3cf66d	-0.011533362
189	0xbdb3f6ce	-0.08787309
190	0xbe55779f	-0.20846413
191	0x3dbdbb18	0.09264201
192	0x3e103954	0.14084369
193	0x3da0600b	0.07830819
194	0xbe6929f5	-0.22769912
195	0x3d8877d2	0.06663479
196	0xbe6a8ddb	-0.22905676
197	0x3dd5dd4a	0.10442598
198	0xbe27d747	-0.16390716
199	0xbd91ee89	-0.07125575
200	0xbda7f465	-0.082009114
201	0xbdea1e60	-0.11431575
202	0xbc980d6f	-0.018561093
203	0xbcb1ea9f	-0.021718321
204	0xbca46905	-0.020069608
205	0x3e536dcd	0.20647354
206	0xbd3c061c	-0.045904264
207	0x3d14caed	0.036326338
208	0x3e0e4bab	0.13896053
209	0x3e7bcc54	0.24589664
210	0x3d439182	0.04774619
211	0x3bbab809	0.005698208
212	0xbd39328e	-0.04521423
213	0x3d7801a1	0.06054843
214	0xbe69f0c1	-0.22845747
215	0x3d5e05c9	0.054204736
216	0xbc34f06b	-0.011043648
217	0x3d0baad9	0.03409848
218	0x3e0917a8	0.1338793
219	0xbd9e79c9	-0.077380724
220	0x3cfbe31c	0.030747943
221	0x3df584b5	0.119882025
222	0xbe4ec07f	-0.20190619
223	0x3dc90d33	0.09816971
224	0xbe56e3fe	-0.2098541
225	0xbe00a8cf	-0.12564395
226	0x3e4ebfe5	0.2019039
227	0xbe62f7c4	-0.22164828
228	0xbe3a11a6	-0.18170795
229	0x3de7b3ce	0.11313592
230	0xbe051544	-0.12996393
231	0xbe5924bd	-0.21205421
232	0x3d816fdb	0.06320163
233	0x3cfdbaba	0.030972827
234	0xbc1cd176	-0.009571424
235	0x3df5edf7	0.12008279
236	0x3dbbc334	0.091680914
237	0x3d5dcade	0.054148547
238	0xbe389c5d	-0.18028398
239	0xbe3340ad	-0.1750514
240	0x3e627cbd	0.22117896
241	0x3b408252	0.0029374552
242	0xbcb871eb	-0.022515258
243	0x3e6c604e	0.23083612
244	0xbe715a2b	-0.23569553
245	0xbdeaff4e	-0.11474477
246	0xbd48e7a7	-0.049049046
247	0xbe0e7247	-0.13910781
248	0xbe138b1e	-0.14408538
249	0x3ba284b8	0.004959669
250	0x3e782289	0.24231924
251	0xbe2642ad	-0.16236372
252	0x3e632c1b	0.22184794
253	0x3e82dd0f	0.2555928
254	0x3db99373	0.09061327
255	0xbe0fd5e8	-0.14046443
