customized/model/trained_model/vae/vae_z_50batch_128.pth (torch, 986464 bytes, 10 tensors)

fc1.weight f4 [256, 403]
-0.014477393 0.02544714 0.04007628 0.029792037 -0.021441372 0.019834654 0.0002882272 0.03502972
-0.012625485 -0.040785894 -0.008384471 -0.012430165 0.046088036 -0.044604797 0.03937994 -0.009003079
0.017152654 -0.029445557 0.029510945 -0.025939258 0.04744058 0.01829382 -0.02257067 0.01582273
-0.015731432 -0.05390944 -0.025317062 -0.051091705 0.0004538332 -0.027804751 -0.00089206005 -0.01224148
0.031822465 0.00848324 0.017648244 0.013831431 -0.019339774 -0.009916058 0.03824599 0.04447454
-0.0098038055 -0.01928465 -0.04549703 0.02027821 -0.009785662 0.004035276 0.0075467406 -0.019838583
0.024762534 0.017009325 0.0045161103 0.018322118 -0.023038005 0.00976587 0.034657665 -0.016198892
0.024114119 -0.02555899 -0.016766904 -0.01797726 -0.03530129 0.047189906 -0.028265217 -0.003129336
0.019867452 -0.04487009 0.05674526 -0.04363461 0.0014388226 -0.017624559 -0.013523575 0.021433985
0.039861605 0.03965265 -0.015535291 0.032505628 -0.03104107 -0.035454817 0.021325272 -0.005569399
0.023206307 0.036153506 0.02591135 0.029509317 -0.038370244 -0.044294324 0.041577343 0.027744768
0.04582497 -0.040959034 -0.055437535 0.039908525 0.017306121 0.015093405 0.04220455 -0.018798662
-0.027356705 0.013310155 0.031578537 -0.033603612 -0.043377824 0.023502126 -0.057010114 0.02094607
-0.002962213 -0.013217982 0.0106267 0.031566944 -0.0037154206 -0.007476041 0.0255028 -0.034429226
0.044637643 -0.028059477 -0.03530012 0.035504278 -0.032436818 -0.009779936 0.021044984 0.020912793
-0.036551233 0.00018425252 0.029448146 -0.020189973 -0.0126955435 0.044591445 -0.042793743 -0.028472096
0.03171865 0.028168147 0.019232236 0.008359642 -0.031690486 -0.025104692 0.0229897 -0.009422966
-0.0077917734 0.031716157 -0.0014545168 -0.03038988 -0.05200313 0.053798955 0.02397866 -0.0048083146
-0.007056568 0.010357587 -0.045974646 -0.049713016 0.01615903 -0.014495508 0.013353156 -0.017934091
0.0043908022 0.01305709 -0.0038464393 -0.021085892 -0.02281734 -0.001064667 0.03691159 -0.019468993
0.015177124 -0.026305273 -0.048280276 0.03648418 0.05336374 -0.0618218 -0.04886859 -0.03585774
0.0021554183 0.024336081 -0.030871818 -0.019746106 -0.060919367 0.046277188 -0.030732477 -0.03979219
0.02196264 -0.02895249 -0.015411292 0.052507073 -0.041562922 0.06267887 0.029584603 -0.030288307
0.04018415 0.020521568 0.05299448 -0.0032775209 -0.023939967 0.027526526 0.028155275 0.058446843
-0.028730614 0.0034522456 0.0070531936 -0.025781184 -0.022903573 -0.034964874 0.046371553 0.023368264
0.02713774 0.024463534 -0.03810231 0.0025487586 0.034482878 0.032722715 0.0341984 -0.040057052
-0.03924212 0.052794605 -0.020372327 -0.010582552 -0.028255247 0.006623523 -0.015333739 0.0453637
-0.021890821 0.05427579 -0.02271656 0.013956084 0.0006977595 0.028630266 -0.032880142 0.02304274
0.00078319974 -0.059544187 0.025478724 -0.039009295 0.02784397 0.016601829 0.0105735855 0.007434352
0.000878247 0.021451091 0.0021671208 -0.025177106 0.016849963 -0.0032626607 0.014410172 0.00533531
-0.053791173 -0.027136635 0.036326833 0.0022531322 0.019888291 0.013115669 0.04045951 -0.011821333
0.01397021 0.0037040715 0.05373049 0.0061537945 -0.021495428 0.042460695 -0.0233 0.009158465
00000000: 9632 6dbc 8576 d03c 0627 243d 6e0e f43c
00000010: d1a5 afbc 497c a23c 331d 9739 537b 0f3d
00000020: 1fdb 4ebc 1c0f 27bd 055f 09bc e4a7 4bbc
00000030: cfc6 3c3d 85b3 36bd dc4c 213d a681 13bc
00000040: b983 8c3c cf37 f1bc f0c0 f13c 917e d4bc
00000050: 0e51 423d ecdc 953c 20e6 b8bc ab9e 813c
00000060: 34df 80bc 25d0 5cbd ba65 cfbc 8945 51bd
00000070: 76f0 ed39 cac6 e3bc 23d9 69ba 7d90 48bc
00000080: 4658 023d 4afd 0a3c 0d93 903c 3a9d 623c
00000090: 726e 9ebc f676 22bc d4a7 1c3d ef2a 363d
000000a0: 24a0 20bc d8fa 9dbc 185b 3abd 7d1e a63c
000000b0: 0b54 20bc 593a 843b a64a f73b 8684 a2bc
000000c0: ccda ca3c 2457 8b3c e1fb 933b 4418 963c
000000d0: 33ba bcbc 0701 203c 32f5 0d3d 8ab3 84bc
000000e0: f98a c53c 1661 d1bc bf5a 89bc 0c45 93bc
000000f0: 1698 10bd 344a 413d 758c e7bc 8c15 4dbb
00000100: 11c1 a23c b3c9 37bd b86d 683d 34ba 32bd
00000110: e096 bc3a 6161 90bc fc91 5dbc 5396 af3c
00000120: ec45 233d d16a 223d bc87 7ebc 9f24 053d
00000130: d849 febc 1239 11bd 56b2 ae3c 817f b6bb
00000140: 271b be3c b315 143d 0a44 d43c 86bd f13c
00000150: 1e2a 1dbd f76d 35bd 014d 2a3d ff48 e33c
00000160: f7b2 3b3d a9c4 27bd 7812 63bd 1f77 233d
00000170: 91c5 8d3c 544a 773c aede 2c3d a7ff 99bc
00000180: 2b1b e0bc d612 5a3c 7f58 013d f1a3 09bd
00000190: f2ac 31bd 8887 c03c 7083 69bd 1897 ab3c
000001a0: b021 42bb 3c90 58bc 9c1b 2e3c 574c 013d
000001b0: 6a7e 73bb 94f9 f4bb 3feb d03c a905 0dbd
000001c0: f6d5 363d fddc e5bc dc96 10bd ef6c 113d
000001d0: 78dc 04bd 063c 20bc 8866 ac3c 4e51 ab3c
000001e0: bfb6 15bd e933 4139 3d3d f13c 7165 a5bc
000001f0: f800 50bc 85a5 363d 7e48 2fbd 503e e9bc
00000200: 6aeb 013d e3c0 e63c ec8c 9d3c e1f6 083c
00000210: e2cd 01bd 5ba8 cdbc e554 bc3c c962 1abc
00000220: 2252 ffbb cde8 013d 7ca5 beba 33f4 f8bc
00000230: 3c01 55bd 4b5c 5c3d e56e c43c 118f 9dbb
00000240: c83a e7bb deb2 293c e94f 3cbd e09f 4bbd
00000250: f15f 843c 917e 6dbc 32c7 5a3c 84ea 92bc
00000260: b8e0 8f3b 68ed 553c 8b14 7cbb 52bc acbc
00000270: 6eeb babc 4c8c 8bba 9b30 173d 707d 9fbc
00000280: 79a9 783c 287e d7bc 8ac1 45bd 6f70 153d
00000290: f093 5a3d db38 7dbd 6e2a 48bd 91df 12bd
000002a0: eb41 0d3b 765c c73c e5e6 fcbc 96c2 a1bc
000002b0: 9686 79bd 268d 3d3d adc2 fbbc 23fd 22bd
000002c0: ffea b33c c62d edbc a57f 7cbc a811 573d
000002d0: e23d 2abd c85d 803d 695b f23c 2f1f f8bc
000002e0: 2398 243d d91c a83c bd10 593d adcb 56bb
000002f0: c01d c4bc 4f7f e13c e4a5 e63c f565 6f3d
00000300: 775c ebbc 123f 623b 7a1e e73b 1033 d3bc
00000310: 46a0 bbbc 5437 0fbd 19f0 3d3d cd6e bf3c
00000320: f74f de3c c067 c83c 2b11 1cbd 1309 273b
00000330: eb3d 0d3d 4108 063d 9f13 0c3d dd12 24bd
00000340: 58bc 20bd 283f 583d dee3 a6bc 7162 2dbc
00000350: 8c77 e7bc 230a d93b 5d3a 7bbc 49cf 393d
00000360: 6154 b3bc 4a50 5e3d 1418 babc 0fa8 643c
00000370: d9e9 363a 058a ea3c 54ad 06bd 21c4 bc3c
00000380: a54f 4d3a 9be4 73bd c2b8 d03c 36c8 1fbd
00000390: 0a19 e43c 8f00 883c d53c 2d3c dd9b f33b
000003a0: 293a 663a 33ba af3c 4106 0e3b 3840 cebc
000003b0: ef08 8a3c 5dd2 55bb a418 6c3c d3d3 ae3b
000003c0: 2254 5cbd a64d debc 72cb 143d 49a9 133b
000003d0: c5ec a23c 1ae3 563c dfb8 253d 44ae 41bc
000003e0: 4fe3 643c 02c0 723b 8114 5c3d c5a5 c93b
000003f0: 2e17 b0bc 44eb 2d3d a4df bebc 630d 163c

fc1.bias f4 [256]
-0.03709135 -0.05143799 0.030165093 -0.012097772 0.014662011 -0.04083886 0.0043131094 0.005557391
0.010236009 0.024600735 -0.033250857 -0.047363006 -0.01210166 -0.020853233 0.014119989 0.028910764
0.013896671 -0.023101453 0.0011587646 -0.0019060501 -0.00998036 -0.03472336 -0.010613196 0.032125138
0.0017207863 -0.014015957 -0.015498111 -0.02893549 -0.047869362 -0.053580724 -0.05246476 -0.0032139195
-0.0056246687 -0.03397822 -0.021224247 0.0045921137 -0.041859265 -0.048406452 0.00862361 -0.04111064
0.026485426 0.00026803635 0.03577021 -0.00044775507 -0.029380068 -0.0053871707 0.040282894 0.03234472
-0.01328457 0.005471597 0.038987804 0.026915012 -0.024222424 -0.030636061 0.027536778 -0.042942323
-0.028089497 -0.008496735 -0.04562894 0.0032304572 -0.01366582 -0.05308857 -0.02525222 -0.03268805
-0.018764978 -0.016646698 -0.02994951 -0.038708307 -0.030539686 0.034517836 -0.050671443 0.022240592
0.015411192 -0.023646288 0.017571766 -0.044883523 0.038679346 0.016932901 -0.045134064 0.021235498
-0.048684582 -0.03310031 -0.0029044917 0.019358346 -0.049228963 -0.04561101 -0.029388634 -0.05280702
-0.02036996 0.0138288615 -0.032956056 0.012414991 0.019562418 -0.03316232 0.038343284 -0.012911311
-0.0211751 0.027457042 0.019384502 -0.062061474 -0.008278603 -0.01291021 0.024424303 -0.04251455
0.028296802 -0.026528409 0.00781706 -0.032575 0.022084018 0.03685791 -0.059104446 -0.010863913
-0.014143657 0.033816583 -0.025869016 0.006916833 -0.045191776 -0.045623887 0.011803756 -0.010721631
0.0035890446 0.037255082 -0.029793758 0.012710735 0.020965567 -0.052120417 -0.03670474 0.010688408
0.03450274 -0.020640085 -0.0067767934 -0.030646699 0.016399702 0.009076457 0.0042965016 0.027824705
0.028485475 -0.052673105 -0.029698085 -0.023280624 -0.05704233 -0.0044626766 -0.00070086186 0.007337034
-0.05333786 -0.0308238 -0.04527012 0.02268203 -0.021640582 -0.053096015 -0.0060133557 -0.054095406
-0.033002794 -0.03814006 -0.019551521 -0.049151752 0.0037094937 -0.037831426 0.0082914615 0.0046709306
0.015924914 -0.0016771911 -0.026399126 -0.00894291 -0.02407874 -0.004073068 -0.020063072 0.03885647
-0.053188723 0.012636098 0.032012586 0.017253298 -0.04481545 0.052104574 0.028004212 4.3178588e-07
-0.050954618 -0.041094303 -0.03755582 0.02161351 -0.025277494 0.02716413 -0.017731052 0.010573078
0.0076552667 -0.0418784 0.030776875 0.0329935 0.0021172822 -0.014074742 -0.015771952 -0.021019354
-0.016642163 -0.03096039 0.0008128254 0.0032272765 -0.021090683 -0.03677744 -0.041661713 0.019580068
-0.05193806 0.013471908 0.012603301 0.01755885 -0.014596836 -0.024561105 -0.04743488 0.0016226941
-0.04184776 -0.05633122 -0.009518125 -0.034415554 0.034160163 -0.048720744 -0.016668122 0.020524992
0.0052028047 0.021934964 -0.032427605 0.008938402 -0.058734886 0.022434369 0.037106715 -0.010776857
-0.019064963 -0.00901945 0.0400949 -0.040177573 0.012392736 0.027176537 -0.0013271015 0.01738778
0.006864045 0.017406266 -0.0049358048 -0.017865213 -0.018139893 -0.033151384 0.029323557 -0.0012665134
-0.019843303 0.03713088 0.024224466 -0.03471918 -0.035592467 -0.001169532 0.012038666 -0.019531857
-0.019074185 0.0037086338 -0.019919053 -0.010461516 -0.013059147 0.0047323294 -0.049762506 -0.028353881
00000000: 19ed 17bd a4b0 52bd c91c f73c bc35 46bc
00000010: ee38 703c a646 27bd fc54 8d3b c61a b63b
00000020: efb4 273c 7b87 c93c 0d32 08bd b6ff 41bd
00000030: 0a46 46bc 66d4 aabc 8757 673c 44d6 ec3c
00000040: ddae 633c 423f bdbc b0e1 973a 6ed4 f9ba
00000050: aa84 23bc 153a 0ebd f8e2 2dbc a695 033d
00000060: 028c e13a 2fa3 65bc caeb 7dbc 1f0a edbc
00000070: aa12 44bd 7677 5bbd 4ae5 56bd 9fa0 52bb
00000080: 244f b8bb bf2c 0bbd 79de adbc 7179 963b
00000090: 9f74 2bbd d845 46bd 0b4a 0d3c a163 28bd
000000a0: f7f7 d83c 3b87 8c39 c983 123d abc0 eab9
000000b0: 78ae f0bc dd86 b0bb adff 243d e67b 043d
000000c0: 86a7 59bc 154b b33b adb1 1f3d df7c dc3c
000000d0: 1b6e c6bc 7af8 fabc cf94 e13c 4ae4 2fbd
000000e0: f21b e6bc e435 0bbc 69e5 3abd 14b6 533b
000000f0: 9ae6 5fbc 6673 59bd bedd cebc e8e3 05bd
00000100: 03b9 99bc a85e 88bc ad58 f5bc 9a8c 1ebd
00000110: 5d2e fabc 9362 0d3d dc8c 4fbd e731 b63c
00000120: 397f 7c3c dcb5 c1bc aaf2 8f3c c9d7 37bd
00000130: 3c6e 1e3d deb6 8a3c 7fde 38bd 11f6 ad3c
00000140: 7c69 47bd 3194 07bd 4959 3ebb 6595 9e3c
00000150: 4fa4 49bd 9cd2 3abd 6fc0 f0bc 2c4c 58bd
00000160: e7de a6bc 7392 623c eefc 06bd 3f68 4b3c
00000170: 5d41 a03c 36d5 07bd d90d 1d3d f789 53bc
00000180: 6777 adbc 97ed e03c 3fcc 9e3c 2c34 7ebd
00000190: faa2 07bc 5885 53bc 7a15 c83c bd23 2ebd
000001a0: b2ce e73c 1b52 d9bc 2013 003c 5d6d 05bd
000001b0: 8be9 b43c 52f8 163d 8117 72bd 8efe 31bc
000001c0: ccba 67bc 4283 0a3d 42eb d3bc 9aa6 e23b
000001d0: 031b 39bd 1de0 3abd 8a64 413c c8a9 2fbc
000001e0: 2d36 6b3b c998 183d 0a12 f4bc b040 503c
000001f0: fbbf ab3c 387c 55bd b657 16bd 6f1e 2f3c
00000200: bf52 0d3d 6515 a9bc dd0f debb c90e fbbc
00000210: ab58 863c 6bb5 143c abc9 8c3b a3f0 e33c
00000220: 5f5a e93c c1bf 57bd 6649 f3bc 02b7 bebc
00000230: 38a5 69bd a53b 92bb 0bba 37ba 816b f03b
00000240: cd78 5abd 3282 fcbc 296d 39bd aacf b93c
00000250: 9747 b1bc 357b 59bd af0b c5bb 2593 5dbd
00000260: f02d 07bd c038 1cbd 832a a0bc 5953 49bd
00000270: fa1a 733b 20f5 1abd e9d8 073c 9b0e 993b
00000280: f774 823c 32d5 dbba fb42 d8bc 4885 12bc
00000290: c740 c5bc 5f77 85bb 505b a4bc f627 1f3d
000002a0: 6bdc 59bd a307 4f3c a11f 033d ca56 8d3c
000002b0: 6890 37bd 9b6b 553d 1769 e53c 33d0 e734
000002c0: cab5 50bd 8052 28bd 22d4 19bd d10e b13c
000002d0: bf12 cfbc 4f87 de3c b640 91bc b43a 2d3c
000002e0: 08d9 fa3b af88 2bbd c91f fc3c 3124 073d
000002f0: 1ac2 0a3b bf99 66bc 2e34 81bc c830 acbc
00000300: 2555 88bc a5a0 fdbc ca13 553a b780 533b
00000310: 5ec6 acbc f1a3 16bd 79a5 2abd 6166 a03c
00000320: 01bd 54bd 47b9 5c3c 137e 4e3c 94d7 8f3c
00000330: 9127 6fbc 5f34 c9bc 144b 42bd 94b0 d43a
00000340: 8f68 2bbd 91bb 66bd e9f1 1bbc 53f7 0cbd
00000350: 87eb 0b3d 678f 47bd 968b 88bc 0724 a83c
00000360: 4a7c aa3b f4b0 b33c cfd2 04bd 6072 123c
00000370: fe93 70bd 48c8 b73c 36fd 173d 6a91 30bc
00000380: 202e 9cbc 51c6 13bc 8d3a 243d 3d91 24bd
00000390: e70a 4b3c 54a1 de3c 23f2 adba d170 8e3c
000003a0: c8eb e03b 9697 8e3c 88bc a1bb 115a 92bc
000003b0: 1d9a 94bc bfc9 07bd f537 f03c 2301 a6ba
000003c0: 6c8e a2bc 8d16 183d 6372 c63c b335 0ebd
000003d0: 68c9 11bd fb4a 99ba d33d 453c 4601 a0bc
000003e0: 7741 9cbc 8d0c 733b 482d a3bc c766 2bbc
000003f0: 08f6 55bc a811 9b3b c5d3 4bbd 6646 e8bc

fc2.weight f4 [50, 256]
-0.00078684266 0.05771829 -0.004567477 0.03404902 -0.037935045 -0.044954248 -0.037263863 -0.041903928
-0.04045805 -0.014670858 -0.028048813 -0.017055279 -0.03961989 -0.067270525 0.064037964 0.024616405
-0.0014942237 -0.023473762 0.05184409 0.07300231 -0.06625553 0.028074946 -0.0048860842 -0.049177386
0.043364488 0.04999746 -0.037681017 -0.015934296 0.018395456 0.011651063 0.05306362 -0.03020158
-0.031692225 -0.038309082 -0.041216515 0.008315955 -0.008012789 -0.00085893966 -0.036280163 0.04522508
0.021575501 -0.014633378 -0.056883592 -0.0023749892 -0.004274048 0.023471504 0.002091992 -0.022707716
-0.055599067 0.030823553 -0.038956515 -0.04336813 0.052637823 -0.0104551595 0.013912036 0.0547219
0.0109716905 -0.00091331726 0.017609688 -0.015870737 0.017246068 0.06634859 -0.06045749 -0.007056226
0.041602664 -0.0023983987 0.042673185 0.027389703 0.002645099 0.022536399 -0.0050133746 -0.048817553
0.068181776 0.031461507 0.05547861 -0.02712196 -0.043217342 0.014083741 -0.0041724425 -0.047595363
0.047574855 0.043142527 -0.026623826 0.035466306 0.04499197 -0.037308477 0.06844891 0.012400999
0.048224457 -0.04140458 -0.035109043 0.055283837 -0.035920948 -0.008336647 0.026742019 0.011368898
-0.024300905 0.060573693 -0.021783028 -0.030781044 -0.0009205382 0.00700849 0.008174452 -0.02580474
-0.040980835 0.0060114358 0.043004483 0.0281976 -0.005034057 0.058669467 -0.04240043 0.04163686
0.046917614 -0.04225234 0.048467092 -0.0060404064 -0.043670222 0.047861867 -0.052620426 0.024632199
-0.05053577 0.053771365 0.03153295 0.049561776 0.056949604 0.046088647 0.015260505 -0.01598494
0.05779536 0.017054098 0.0087021645 -0.009173123 0.015626507 0.021906044 0.0057591153 0.049387928
0.040488105 0.010945766 -0.031270187 -0.05582796 0.032947972 0.0073998673 0.056680676 -0.016718602
-0.037942823 -0.002975057 0.019701662 0.06789937 0.028171761 0.029996594 -0.016153509 0.041988663
0.008308874 -0.03870189 0.022383561 0.018026032 0.023483649 -0.053383153 0.045699157 0.036709607
-0.009852556 0.03084894 -0.016556846 0.0042384015 -0.041154824 -0.042836424 -0.05685823 -0.025990164
0.06672075 -0.0005041727 -0.01016722 0.016468842 -0.019346505 -0.000672235 -0.007901441 0.0367957
-0.029302973 -0.00933762 -0.021588655 -0.012094748 -0.052128643 0.050315145 0.051388267 0.029823747
0.061183132 0.0016555509 0.0012297794 0.033221543 0.07489114 0.019882705 0.034706615 0.02965024
0.021821946 0.052674793 -0.009549534 -0.015631538 -0.014230612 0.040629283 0.023419976 -0.0009477369
-0.012885135 0.030316664 -0.03385302 -0.043770067 0.049959775 0.020871542 0.0011858497 -0.05879049
0.027172998 -0.01712624 -0.03096311 -0.024818197 -0.00019174098 -0.04786978 0.01054844 0.06373684
-0.012529537 0.013467679 0.026123995 0.022167781 -0.00029728634 -0.021521728 -0.013200003 -0.025216574
-0.047254026 -0.036660437 0.025115168 0.061685674 -0.00047989812 0.0070819366 -0.01084531 -0.0070540956
-0.009657595 -0.043407645 -0.0392764 0.06177493 0.001362157 -0.03303274 0.029545538 0.040553525
-0.0020403834 -0.008472472 0.038635794 -0.03884044 0.015688494 0.026592001 0.034492373 0.0565082
-0.03643945 0.02430174 -0.005849023 0.029718006 -0.019291287 0.03794637 -0.03895664 -0.03354543
00000000: 1e44 4eba 036a 6c3d c6aa 95bb fc76 0b3d
00000010: c761 1bbd f221 38bd fea1 18bd 74a3 2bbd
00000020: 57b7 25bd 0a5e 70bc a0c6 e5bc 83b7 8bbc
00000030: 7748 22bd 21c5 89bd 5626 833d 58a8 c93c
00000040: d4d9 c3ba 0c4c c0bc 785a 543d 3c82 953d
00000050: fbb0 87bd 6efd e53c 721b a0bb 3a6e 49bd
00000060: f69e 313d 23ca 4c3d 6957 1abd a488 82bc
00000070: 11b2 963c 1ae4 3e3c 3d59 593d 4e69 f7bc
00000080: b5cf 01bd fce9 1cbd a6d2 28bd a53f 083c
00000090: 1348 03bc 772a 61ba 829a 14bd ef3d 393d
000000a0: 1bbf b03c d6c0 6fbc c5fe 68bd b5a5 1bbb
000000b0: 500d 8cbb 5047 c03c cd19 093b 8805 babc
000000c0: d9bb 63bd ad81 fc3c de90 1fbd c8a2 31bd
000000d0: c29a 573d 1e4c 2bbc 4fef 633c 1224 603d
000000e0: 9bc2 333c af6b 6fba 3142 903c 5903 82bc
000000f0: a047 8d3c c5e1 873d 46a2 77bd ea37 e7bb
00000100: 8e67 2a3d 742e 1dbb 14ca 2e3d 5f60 e03c
00000110: 6659 2d3b 419e b83c 3c47 a4bb eaf4 47bd
00000120: e3a2 8b3d c8dd 003d 8a3d 633d df2e debc
00000130: ab04 31bd 7ebf 663c fcb8 88bb 5bf3 42bd
00000140: dadd 423d 38b6 303d 361a dabc 1e45 113d
00000150: 8049 383d c6d0 18bd f12e 8c3d 8f2d 4b3c
00000160: 0287 453d d997 29bd 80ce 0fbd 4e71 623d
00000170: d821 13bd 6f96 08bc 1412 db3c 9d44 3a3c
00000180: b112 c7bc 1f1c 783d 5272 b2bc 8728 fcbc
00000190: 4650 71ba 7aa7 e53b 23ee 053c 7664 d3bc
000001a0: 85db 27bd 94fb c43b 7825 303d a7fe e63c
000001b0: bbf4 a4bb 654f 703d 13ac 2dbd 6a8b 2a3d
000001c0: af2c 403d ca10 2dbd 6e85 463d 9aee c5bb
000001d0: 8cdf 32bd ce0a 443d 8488 57bd 77c9 c93c
000001e0: 98fe 4ebd 5d3f 5c3d b228 013d 4a01 4b3d
000001f0: fd43 693d 73c7 3c3d 3207 7a3c d9f2 82bc
00000200: d4ba 6c3d 09b5 8b3c 8693 0e3c de4a 16bc
00000210: 2903 803c 4e74 b33c f6b6 bc3b ff4a 4a3d
00000220: dbd6 253d df55 333c 2b15 00bd dcab 64bd
00000230: 74f4 063d 967a f23b ff29 683d 73f5 88bc
00000240: ef69 1bbd 2df9 42bb 6165 a13c d30e 8b3d
00000250: 77c8 e63c 6bbb f53c 5d54 84bc 4efc 2b3d
00000260: f221 083c df85 1ebd bb5d b73c 54ab 933c
00000270: c860 c03c 4ba8 5abd 0a2f 3b3d d05c 163d
00000280: 9d6c 21bc ebb6 fc3c 39a2 87bc 4ae2 8a3b
00000290: f691 28bd 3f75 2fbd 2de4 68bd 53e9 d4bc
000002a0: e3a4 883d 752a 04ba 6994 26bc aae9 863c
000002b0: 907c 9ebc ed38 30ba 0c75 01bc 17b7 163d
000002c0: ca0c f0bc d1fc 18bc b1da b0bc 0d29 46bc
000002d0: d884 55bd 4117 4e3d 817c 523d ee50 f43c
000002e0: 2a9b 7a3d 12ff d83a 8d30 a13a 5013 083d
000002f0: 8760 993d 0ee1 a23c 8628 0e3d 0fe5 f23c
00000300: f0c3 b23c 86c1 573d a675 1cbc b60d 80bc
00000310: 8327 69bc e46a 263d 40db bf3c 8c71 78ba
00000320: 2c1c 53bc a75a f83c 77a9 0abd 3e48 33bd
00000330: 9fa2 4c3d ccfa aa3c 836e 9b3a 4cce 70bd
00000340: e899 de3c 544c 8cbc 59a6 fdbc 884f cbbc
00000350: 140e 49b9 1a13 44bd 5dd3 2c3c 7688 823d
00000360: b048 4dbc 8aa7 5c3c fd01 d63c 3599 b53c
00000370: 19dd 9bb9 564e b0bc d344 58bc fd92 cebc
00000380: 708d 41bd 4129 16bd 53be cd3c 1eaa 7c3d
00000390: d69a fbb9 970f e83b 87b0 31bc 0b26 e7bb
000003a0: e43a 1ebc 37cc 31bd 4ae0 20bd b607 7d3d
000003b0: 688a b23a 574d 07bd 7c09 f23c 741b 263d
000003c0: f4b7 05bb 20d0 0abc 9140 1e3d 2717 1fbd
000003d0: 2885 803c 78d7 d93c e047 0d3d 2475 673d
000003e0: 8841 15bd 7114 c73c 29a9 bfbb 2d73 f33c
000003f0: c308 9ebc a76d 1b3d ff90 1fbd ef66 09bd

fc2.bias f4 [50]
-0.019277517 -0.031415995 -0.040412024 0.0063682967 -0.03009612 -0.0037688143 0.026499363 0.00081685267
0.017574154 0.035618734 -0.0012389978 -0.032363713 0.017028661 -0.01858769 0.0058960286 0.0012872234
-0.033742458 -0.01022086 0.028488481 0.0055459286 -0.021834634 -0.032000337 0.03950673 0.007509699
-0.022837559 -0.02447277 -0.016637418 -0.0068516685 -0.04787384 0.02008227 -0.0193744 -0.019826796
-0.032744642 -0.016040036 -0.02553937 0.036752317 0.007903969 0.008548324 0.019167924 0.011250607
0.019106774 0.019011779 0.00036195063 0.03418276 -0.0074839145 0.017163156 0.014586826 0.020356787
0.0064994567 -0.02683766
00000000: e2eb 9dbc 0fae 00bd 1487 25bd 25ad d03b
00000010: 238c f6bc 36fe 76bb 3115 d93c 0e22 563a
00000020: acf7 8f3c f3e4 113d de65 a2ba d08f 04bd
00000030: b17f 8b3c 3645 98bc 7933 c13b 0db8 a83a
00000040: 8835 0abd 6575 27bc ad60 e93c 9fba b53b
00000050: 8cde b2bc c912 03bd cfd1 213d ec13 f63b
00000060: d515 bbbc 1e7b c8bc 324b 88bc f683 e0bb
00000070: 5c17 44bd 9383 a43c 10b7 9ebc ce6b a2bc
00000080: 3f1f 06bd 6566 83bc f137 d1bc 9989 163d
00000090: a67f 013c 450e 0c3c 0d06 9d3c 7754 383c
000000a0: cf85 9c3c 97be 9b3c 31c4 bd39 3903 0c3d
000000b0: a03b f5bb bf99 8c3c 95fd 6e3c 47c3 a63c
000000c0: 65f9 d43b a7da dbbc

fc3.weight f4 [50, 256]
-0.036206637 0.0005058747 0.033591136 -0.028403562 0.036239468 -0.030790485 -0.0590009 -0.025299186
0.05074635 0.031501118 -0.011156427 -0.04329457 0.00883756 0.031102786 0.005907564 0.034629103
0.022693632 -0.046043657 -0.050496254 -0.056543153 0.0054154424 0.007426031 0.004362106 -0.0053256615
0.043594275 -0.0057861824 0.0597115 -0.026623726 -0.039556652 -0.008502258 -0.01276243 0.0051872623
-0.031842068 0.017173879 0.012211825 0.043512035 0.051862516 0.06012668 0.03760688 -0.012449622
-0.018570168 0.0175216 -0.017988838 -0.018621506 0.048352353 0.048670385 0.056948148 -0.035168197
0.05662975 0.045489866 0.0073653236 0.016699474 -0.043194752 0.056991067 -0.04477351 -0.016003123
-0.025604703 0.0005558604 -0.039508514 -0.039106254 -0.037399482 -0.011541817 0.034705326 -0.029834569
0.022164147 0.039692406 -0.051594593 0.005096391 -0.047681544 0.04340936 -0.014100492 0.044589058
-0.055493243 0.03300264 -0.051929306 -0.01481176 -0.05019312 0.022094747 -0.0753065 -0.014994728
-0.050727524 -0.008884701 0.048443384 -0.029360885 0.04859104 0.050335195 0.05978917 -0.013019091
0.0014879182 0.011731827 -0.03191629 -0.040768445 -0.032422177 0.049276363 -0.008555102 0.029623935
0.017100867 -0.049321175 -0.030038487 0.008843053 0.061023206 -0.014065587 0.02085152 -0.024812588
0.032495096 0.015719682 -0.024160521 -0.05718117 0.042745486 0.0052323574 -0.047029797 0.04870002
-0.017863333 0.03865428 0.060415052 -0.054032426 -0.019824244 -0.0216319 -0.020368205 0.009126309
-0.052600406 0.023344835 0.020659475 -0.07604208 -0.0208701 -0.046479408 -0.023518538 0.056844365
0.061074294 0.035525758 -0.0005169612 0.0058175465 -0.011450868 -0.016032236 -0.0514156 0.043876104
-0.053010017 -0.0070665698 -0.01874629 0.0059486507 0.02000922 0.019122869 0.03416119 0.034882735
-0.022432845 0.0077924016 -0.037173275 -0.049931243 0.043138042 0.03524853 0.034257133 0.053512447
-0.043378495 -0.03935048 -0.0051742047 0.066466406 -0.005586722 -0.05489393 0.046769004 -0.05362706
0.039006718 0.0085310275 -0.043132406 -0.010650784 -0.05396179 0.049517214 -0.0129598975 0.019137328
-0.012979246 0.04195802 -0.0144122075 -0.04744968 0.042828757 0.022470407 0.037242338 -0.021212876
-0.029884266 -0.043922417 0.03457629 -0.026746776 -0.050171588 -0.038070414 0.002972678 0.056090694
-0.031911593 -0.062783 0.024968931 -0.053329263 -0.014705199 -0.052688215 0.024829306 -0.055846807
-0.04250909 0.03285891 -0.029863851 -0.008364041 0.0024820785 0.022226416 0.004896579 0.03472725
0.01154843 -0.036903217 -0.039548807 0.05611672 -0.009365778 -0.01547468 0.027891085 -0.008917685
-0.04227437 -0.017677534 -0.03712842 -0.03716735 0.014967953 0.03760191 0.0058235545 0.06734252
0.03838388 -0.058760297 -0.023749426 0.012223028 0.03981235 -0.05574557 0.019440144 0.021612862
-0.051705346 -0.026222592 -0.03222442 -0.029275753 -0.002625283 -0.046964344 0.0007696233 -0.031057036
-0.043612633 0.04588559 -0.013343367 0.024215212 -0.04880724 -0.0010891553 0.0077428273 0.047620643
0.02433345 0.02963114 0.005913622 0.064702764 -0.052330606 -0.026519291 0.00049362524 -0.038332906
-0.021333791 -0.026798172 -0.01405724 -0.050989676 -0.00093454565 0.028322374 0.001743721 0.041168224
00000000: 694d 14bd ad9c 043a dc96 093d 96ae e8bc
00000010: d66f 143d 543c fcbc edaa 71bd 3d40 cfbc
00000020: 68db 4f3d 5107 013d 72c9 36bc a655 31bd
00000030: 6acb 103c 45cb fe3c 3d94 c13b 3fd7 0d3d
00000040: ffe7 b93c 4698 3cbd 29d5 4ebd cb99 67bd
00000050: 0674 b13b 1056 f33b ffef 8e3b e382 aebb
00000060: e98f 323d 049a bdbb 0c94 743d 001a dabc
00000070: 2806 22bd 0e4d 0bbc 8319 51bc e9f9 a93b
00000080: d46c 02bd 3cb0 8c3c 1b14 483c ad39 323d
00000090: ca6d 543d 6547 763d ac09 1a3d 80f9 4bbc
000000a0: 7720 98bc 7589 8f3c 545d 93bc 218c 98bc
000000b0: 1e0d 463d 995a 473d 7642 693d 870c 10bd
000000c0: 99f4 673d 9553 3a3d d058 f13b 56cd 883c
000000d0: fbec 30bd 776f 693d 6e64 37bd fb18 83bc
000000e0: f4c0 d1bc 29b7 113a aed3 21bd e12d 20bd
000000f0: 3330 19bd e419 3dbc 2c27 0e3d a067 f4bc
00000100: 9691 b53c 8194 223d da54 53bd a0ff a63b
00000110: b94d 43bd 03ce 313d c005 67bc 04a3 363d
00000120: e24c 63bd c72d 073d d3b3 54bd 06ad 72bc
00000130: 4d97 4dbd 0b00 b53c 4b3a 9abd 73ac 75bc
00000140: aac7 4fbd 2391 11bc 926c 463d 3d86 f0bc
00000150: 6607 473d 472c 4e3d 7de5 743d 074e 55bc
00000160: 4006 c33a d936 403c a8ba 02bd d0fc 26bd
00000170: 1ecd 04bd 03d6 493d b32a 0cbc e5ad f23c
00000180: 1e17 8c3c 0005 4abd 4613 f6bc 74e2 103c
00000190: 78f3 793d 5973 66bc cfd0 aa3c c543 cbbc
000001a0: 9419 053d 90c6 803c 49ec c5bc cd36 6abd
000001b0: e415 2f3d 3274 ab3b 51a2 40bd ac79 473d
000001c0: 2056 92bc f353 1e3d c675 773d 1b51 5dbd
000001d0: 7466 a2bc 6235 b1bc 39db a6bc 8486 153c
000001e0: 8673 57bd ab3d bf3c 0f3e a93c f3bb 9bbd
000001f0: c6f7 aabc 3161 3ebd f3a9 c0bc a3d5 683d
00000200: 0a29 7a3d 7583 113d ae84 07ba 1ea1 be3b
00000210: 6c9c 3bbc 0956 83bc 2a99 52bd 6eb7 333d
00000220: 0821 59bd af8e e7bb d291 99bc e6ec c23b
00000230: 60ea a33c 90a7 9c3c 9bec 0b3d 33e1 0e3d
00000240: 16c5 b7bc 6757 ff3b 0143 18bd b484 4cbd
00000250: 84b1 303d c360 103d 3551 0c3d de2f 5b3d
00000260: a6ad 31bd f82d 21bd 608c a9bb 8a1f 883d
00000270: d210 b7bb 75d8 60bd db90 3f3d 0ca8 5bbd
00000280: 82c5 1f3d b9c5 0b3c 9bab 30bd a080 2ebc
00000290: 0a07 5dbd 90d2 4a3d c055 54bc e3c5 9c3c
000002a0: e7a6 54bc 2cdc 2b3d 2e21 6cbc 985a 42bd
000002b0: 356d 2f3d dc13 b83c 6c8b 183d a0c6 adbc
000002c0: d9cf f4bc fee7 33bd de9f 0d3d 0e1c dbbc
000002d0: b980 4dbd b9ef 1bbd 43d1 423b 5bbf 653d
000002e0: bbb5 02bd 6094 80bd a58b cc3c c96f 5abd
000002f0: 13ee 70bc 99cf 57bd d466 cb3c 9fbf 64bd
00000300: 031e 2ebd 1097 063d 09a5 f4bc 5509 09bc
00000310: 5eaa 223b 2c14 b63c 7b73 a03b 293e 0e3d
00000320: a035 3d3c d427 17bd eefd 21bd a5da 653d
00000330: ec72 19bc 8389 7dbc d87b e43c 7b1b 12bc
00000340: e427 2dbd 7ad0 90bc f813 18bd cb3c 18bd
00000350: 253c 753c 7604 1a3d 84d3 be3b e0ea 893d
00000360: 6a38 1d3d a3ae 70bd 288e c2bc 1843 483c
00000370: 4612 233d 7855 64bd f040 9f3c 750d b13c
00000380: fcc8 53bd c3d0 d6bc c1fd 03bd b4d3 efbc
00000390: f10c 2cbb af5d 40bd 8cc0 493a 536b febc
000003a0: 29a3 32bd 87f2 3b3d 239e 5abc fb5e c63c
000003b0: 1aea 47bd fdc1 8eba 8bb7 fd3b dd0d 433d
000003c0: f156 c73c 01bd f23c 0fc7 c13b e282 843d
000003d0: 9e58 56bd fc3e d9bc a166 013a f702 1dbd
000003e0: 34c4 aebc d787 dbbc 5750 66bc 8dda 50bd
000003f0: 4cfc 74ba 5304 e83c 918d e43a 03a0 283d

fc3.bias f4 [50]
0.0074609607 -0.044555113 -0.010565653 -0.0036983707 0.03797868 -0.006300117 0.026189217 0.0082014715
-0.028571315 -0.0005536443 -0.032882404 0.00087897835 0.02967992 -0.024849674 -0.0009426414 -0.027080618
0.0023869767 -0.0052751843 -0.0067482563 0.0035419748 -0.011741618 -0.0029510707 -0.0077875787 -0.010294658
-0.022124033 0.005486651 0.029758262 -0.017646544 -0.014551261 -0.02817082 0.029971173 0.00073111407
-0.035545398 -0.02486324 -0.034229103 0.0059962627 -0.03222895 0.033998154 0.019616425 -0.023933668
-0.024380272 0.01664044 0.0012866006 -0.02711174 -0.018203566 -0.0072485018 -0.011903676 -0.045702565
0.0017813962 0.018166628
00000000: 137b f43b 6c7f 36bd 901b 2dbc 5d60 72bb
00000010: 888f 1b3d 3671 cebb c58a d63c 775f 063c
00000020: 640e eabc 7122 11ba b3af 06bd 3d6b 663a
00000030: 4e23 f33c 8b91 cbbc 981b 77ba 2cd8 ddbc
00000040: d36e 1c3b 74db acbb 7a20 ddbb 7a20 683b
00000050: ea5f 40bc c066 41bb f22e ffbb edaa 28bc
00000060: 763d b5bc 5dc9 b33b 99c7 f33c 7c8f 90bc
00000070: 6a68 6ebc 7ec6 e6bc 1b86 f53c 3ca8 3f3a
00000080: 0d98 11bd fead cbbc d133 0cbd 4c7c c43b
00000090: 8102 04bd a641 0b3d a0b2 a03c 8a10 c4bc
000000a0: 23b9 c7bc 8851 883c 27a3 a83a 7119 debc
000000b0: a51f 95bc d784 edbb a307 43bc 9d32 3bbd
000000c0: bd7d e93a 2ed2 943c

fc4.weight f4 [256, 50]
0.0052989046 0.014821512 -0.05699715 0.039650973 -0.017419718 -0.014630579 0.034466878 -0.015245109
-0.02341292 0.06321458 0.0033843266 -0.028149435 -0.027634203 -0.0018113906 -0.048873257 0.014973226
-0.05889823 -0.058219146 0.042362478 -0.005464597 0.004778721 0.03485369 -0.057034217 0.025506329
-0.0020305493 -9.025673e-05 -0.061522465 0.039624732 -0.005105332 -0.07315791 -0.046155855 0.058234602
0.025417821 0.03419558 -0.00057024916 0.058544654 -0.0004693529 -0.06162939 0.02005731 -0.04680262
-0.055540405 0.022077937 -0.06529549 0.0023909044 -0.0058157486 0.03788194 -0.0073904158 -0.006365459
-0.04921153 -0.02648886 0.03526612 -0.016803153 -0.0008613307 -0.0058550774 0.023563957 -0.014555972
-0.009685402 0.018035686 0.0017386025 -0.019083703 0.037755795 -0.03783805 0.016115306 0.013609202
0.0396645 0.053822443 -0.030488443 -0.033040404 0.06279429 -0.028968794 0.014694351 -0.0073675285
-0.031163253 -0.047245394 -0.044063427 0.053651635 -0.024090016 0.014946226 -0.010751472 0.047194503
-0.0062131267 -0.041137315 0.050393276 0.04373902 0.02696162 0.031101799 0.014967184 -0.052967124
0.009851406 -0.049883675 0.031235738 -0.053620927 0.0255524 0.016014745 -0.017428081 -0.012849946
0.008447711 0.042623542 0.035659175 -0.034528628 0.018813103 -0.05756338 -0.05831735 0.011653548
0.031035658 0.00041322302 -0.019985227 -0.02947305 -0.043394215 0.026739776 0.015117245 -0.019381829
-0.016507847 0.013866846 0.019061478 0.054290783 0.03582559 0.03627381 0.025901807 -0.011790372
0.038873944 0.02891483 -0.009628458 -0.0114048105 0.008443993 -0.025119426 0.035953898 -0.018148482
0.038012296 -0.0263507 -0.029335743 0.06895883 -0.015984233 0.017046742 0.01880647 -0.026267415
-0.0038841318 0.040111173 0.035988197 -0.012377461 -0.032223936 -0.007501068 -0.018246079 0.044625826
0.018504722 -0.027746405 -0.03572813 0.006469969 -0.03218708 -0.024563486 0.039749447 -0.0130613865
0.032573886 0.0121174725 -0.06220512 -0.031429026 0.051694866 -0.03503894 0.055725764 0.00083387067
-0.03524736 0.048205663 0.058652624 -0.024304198 0.031060893 0.010678982 0.041047573 -0.028820077
0.028838089 -0.0042274166 0.013651928 -0.04710054 -0.0031347454 -0.055809863 0.06163496 -0.05714167
-0.06408676 -0.010816702 -0.06752359 -0.056194007 -0.02391994 -0.06544191 0.06341547 -0.01660321
0.0063268174 0.028424822 0.012951918 0.055613022 0.084034026 0.028348127 -0.0042861765 -0.05647651
0.06682649 0.04596292 -0.0023545348 -0.038167894 0.011036975 0.04153161 -0.015493394 -0.043161307
-0.031488184 0.0016981758 0.03322748 0.0393078 -0.067109466 -0.020693911 0.023206877 -0.052731134
-0.0054377518 0.02951446 0.05537799 0.027205165 -0.011901388 0.042421617 0.001601625 0.00083854893
-0.039469957 -0.013607638 0.024268629 -0.019213688 -0.03512379 0.05507868 -0.0870997 0.004991743
-0.011231299 0.00076678087 0.045439538 -0.03502937 0.009339346 0.028294105 0.057323765 -0.024199821
0.00530358 0.042633492 0.016409814 -0.006813031 -0.025279103 -0.0033737058 0.046921566 0.024167795
-0.030979749 0.040398777 -0.019647203 -0.034819774 -0.0007284351 -0.016502809 0.036922976 -0.0058738096
0.069074206 0.009567268 0.015540875 0.0027511162 0.02839092 0.01830009 -0.06462195 -0.01811282
00000000: 6fa2 ad3b edd5 723c d875 69bd 0f69 223d
00000010: ccb3 8ebc 19b5 6fbc 242d 0d3d 9fc6 79bc
00000020: 74cc bfbc a576 813d 94cb 5d3b a599 e6bc
00000030: 2061 e2bc 2f6c edba 532f 48bd 4352 753c
00000040: 453f 71bd 3377 6ebd 4784 2d3d 5d10 b3bb
00000050: d196 9c3b bec2 0e3d b69c 69bd a6f2 d03c
00000060: f712 05bb 3748 bdb8 fbfe 7bbd 8b4d 223d
00000070: a14a a7bb d0d3 95bd ec0d 3dbd 6887 6e3d
00000080: 0939 d03c aa10 0c3d c67c 15ba 85cc 6f3d
00000090: 7b13 f6b9 196f 7cbd 3a4f a43c 1bb4 3fbd
000000a0: 567e 63bd cadc b43c a4b9 85bd b8b0 1c3b
000000b0: 0992 bebb 182a 1b3d 4d2b f2bb 5795 d0bb
000000c0: 0792 49bd 2aff d8bc 3573 103d c4a6 89bc
000000d0: edca 61ba f3db bfbb 3309 c13c 2c7c 6ebc
000000e0: 85af 1ebc 93bf 933c d2e1 e33a 6d55 9cbc
000000f0: d2a5 1a3d 12fc 1abd 3f04 843c 21f9 5e3c
00000100: 3e77 223d ec74 5c3d e6c2 f9bc 6055 07bd
00000110: 4b9a 803d f74f edbc 93c0 703c 4f6b f1bb
00000120: 144a ffbc 6384 41bd da7b 34bd d1c1 5b3d
00000130: 6d58 c5bc 04e1 743c f126 30bc 064f 413d
00000140: 7c97 cbbb 9a7f 28bd 2e69 4e3d b027 333d
00000150: 9ede dc3c 33c9 fe3c eb38 753c 0ef4 58bd
00000160: cb67 213c d352 4cbd 17e2 ff3c 9ea1 5bbd
00000170: 4453 d13c 5b31 833c 56c5 8ebc 9488 52bc
00000180: 4568 0a3c 0696 2e3d 5b0f 123d e46d 0dbd
00000190: f01d 9a3c 94c7 6bbd 2cde 6ebd 86ee 3e3c
000001a0: 7e3e fe3c dba5 d839 0fb8 a3bc 7771 f1bc
000001b0: 22be 31bd 600d db3c 52ae 773c a4c6 9ebc
000001c0: 773b 87bc c531 633c d126 9c3c 0360 5e3d
000001d0: dbbd 123d d993 143d 0730 d43c 682c 41bc
000001e0: 493a 1f3d cbde ec3c aec0 1dbc 3edb 3abc
000001f0: ac58 0a3c 41c7 cdbc 6544 133d 20ac 94bc
00000200: c8b2 1b3d 6cdd d7bc 8351 f0bc 493a 8d3d
00000210: 5ef1 82bc 9ca5 8b3c 0710 9a3c c32e d7bc
00000220: eb8c 7ebb 9d4b 243d 5c68 133d d6ca 4abc
00000230: 3ffd 03bd 85cb f5bb cd78 95bc 92c9 363d
00000240: 3797 973c 6e4c e3bc a957 12bd 0902 d43b
00000250: 99d6 03bd 5d39 c9bc 51d0 223d 6dff 55bc
00000260: 326c 053d 5d88 463c ccca 7ebd b9bb 00bd
00000270: ffbd 533d fe84 0fbd b340 643d 1d98 5a3a
00000280: 895f 10bd 4d73 453d bc3d 703d 9919 c7bc
00000290: 6a73 fe3c e6f6 2e3c 8021 283d 1518 ecbc
000002a0: db3d ec3c 2486 8abb 56ac 5f3c 7fec 40bd
000002b0: 4d70 4dbb e298 64bd f174 7c3d 620d 6abd
000002c0: eb3f 83bd 8938 31bc cf49 8abd b02b 66bd
000002d0: c0f3 c3bc 6806 86bd f8df 813d 7403 88bc
000002e0: 3151 cf3b 2cdb e83c 4834 543c 7bca 633d
000002f0: 081a ac3d 553a e83c 0e73 8cbb ea53 67bd
00000300: 54dc 883d 9d43 3c3d 8a4e 1abb f055 1cbd
00000310: 6ed4 343c 0d1d 2a3d 01d8 7dbc e9c9 30bd
00000320: c1f9 00bd 5395 de3a 8a19 083d 3701 213d
00000330: b070 89bd 4786 a9bc 591c be3c 9afc 57bd
00000340: 2b2f b2bb 4fc8 f13c 08d4 623d 5edd de3c
00000350: 0afe 42bc 4ac2 2d3d 9eed d13a 11d2 5b3a
00000360: 40ab 21bd 92f2 5ebc 01cf c63c 0666 9dbc
00000370: f7dd 0fbd 2f9a 613d 5461 b2bd c691 a33b
00000380: 7b03 38bc cb01 493a cf1e 3a3d f57a 0fbd
00000390: 0e04 193c 0ac9 e73c 53cc 6a3d b43e c6bc
000003a0: a7c9 ad3b 75a0 2e3d e06d 863c d93f dfbb
000003b0: 1f16 cfbc 6419 5dbb d430 403d 8afb c53c
000003c0: 3ec9 fdbc 3079 253d 2cf3 a0bc 2e9f 0ebd
000003d0: 74f4 3eba e630 87bc 8c3c 173d 1679 c0bb
000003e0: c776 8d3d 08c0 1c3c 279f 7e3c 124c 343b
000003f0: 1394 e83c 12ea 953c 8358 84bd 5661 94bc

fc4.bias f4 [256]
-0.2220867 -0.1073201 0.08373518 -0.18062453 -0.12809725 0.17699037 0.17229408 -0.16100001
0.15122837 0.15347733 0.16234437 0.2516989 -0.12957536 0.204239 0.083355024 0.16980287
-0.19313462 0.12806165 -0.18122025 0.013224562 -0.084335424 -0.19359657 0.23191312 -0.16914617
-0.20716739 -0.20801917 -0.07929341 0.12263289 0.099069275 0.16102678 -0.11976545 -0.177091
0.162986 -0.092094585 -0.16660501 0.16446406 0.22595978 -0.17327456 0.03669568 -0.15017012
-0.15168037 0.097382456 0.19904196 0.22265637 0.18298055 -0.019793317 -0.1507867 0.11760737
-0.20622493 0.10693375 0.1897694 -0.18094441 -0.097231835 -0.12596141 -0.17272812 -0.21676959
0.1759398 0.14309485 0.19490398 0.21408653 -0.12894963 0.11941337 0.11276699 -0.21083288
-0.218706 -0.20215835 -0.19725662 0.18972239 0.12467631 -2.5769397e-05 0.096828744 0.12084027
-0.065309264 0.1069528 0.09852099 -0.10693433 0.11996106 0.19344784 -0.11354093 -0.0165593
-0.20396146 -0.17366602 0.12841368 0.09914757 0.11420835 0.14064643 0.2059023 -0.16219144
0.22241654 0.028826859 -0.013387769 0.15490547 0.20914805 0.15262274 0.18361573 0.18579054
0.16318604 0.15144622 0.083693415 0.17215608 0.1285195 0.11176607 0.010659544 0.00020027423
-0.20669389 -0.20526008 0.10951356 -0.10391972 0.10508186 -0.16979305 -0.048615146 0.07465701
0.0025491074 0.1567901 0.15007778 -0.14106831 0.18417588 -0.09752284 0.16893749 -0.13488905
0.20577145 0.16315305 -0.12033509 -0.17855935 0.04007137 0.23656619 -0.22498395 -0.21730016
-0.04250995 -0.12061573 0.18639494 -0.1814267 0.096476875 0.22369358 0.23740187 0.059433155
0.08631467 -0.069151536 -0.19846286 0.22233608 -0.23012093 -0.15973982 -0.14987202 0.16752823
-0.1865281 0.23695341 -0.1341456 -0.15075752 -0.15191223 0.10520109 -0.1337483 0.20806542
0.13211699 0.23753048 0.12765549 -0.05408991 -0.13547447 0.08199902 -0.23953933 0.22566338
-0.1131719 0.05604541 -0.2131123 0.1177528 -0.22955784 0.15635839 -0.16968095 -0.037359618
0.20261206 -0.23581713 -0.21446602 -0.12370407 -0.1259225 0.24659267 0.1015286 -0.15922645
-0.19183376 -0.15726805 0.12309996 -0.13354258 -0.21491937 -0.18815142 0.1275429 -0.120965175
-0.14394009 -0.18529233 0.052763373 -0.14331569 0.16659784 -0.11333141 0.119412646 -0.08140663
0.2468335 -0.07612001 -0.21589608 -0.18144564 0.10322637 0.008359422 -0.19389465 -0.09337079
-0.18498458 -0.095662944 -0.14090964 0.17438902 0.13046443 -0.05742608 -0.1861527 0.21164101
0.19349554 -0.1522438 -0.16314733 -0.10837691 0.06670226 0.19437683 -0.12213703 -0.17943868
0.199278 -0.16220605 0.08121073 -0.13839523 -0.16447362 0.20445211 -0.1779782 -0.19420183
0.17545286 -0.12686966 0.1660655 0.12274722 -0.22587281 -0.088850565 0.20885877 0.1606279
-0.08428525 -0.05289464 -0.20330127 -0.17350422 0.14763978 -0.1307064 -0.13194866 -0.17005362
-0.18392111 0.14927454 0.174588 -0.1606183 -0.22693111 0.23248276 0.010360198 -0.18062645
0.173659 -0.18656543 -0.15667686 -0.003925072 -0.075279556 -0.18959737 -0.16398972 -0.1544626
00000000: b26a 63be a4ca dbbd 5a7d ab3d a3f5 38be
00000010: ed2b 03be f73c 353e dc6d 303e 30dd 24be
00000020: 9cdb 1a3e 2929 1d3e 9a3d 263e aede 803e
00000030: 67af 04be 0724 513e 0ab6 aa3d cee0 2d3e
00000040: 15c5 45be 9822 033e cd91 39be d5ab 583c
00000050: 0db8 acbd 2e3e 46be a27a 6d3e a734 2dbe
00000060: b023 54be fa02 55be 9564 a2bd f426 fb3d
00000070: d5e4 ca3d 34e4 243e 9747 f5bd 5857 35be
00000080: cde5 263e 169c bcbd 819a 2abe 4469 283e
00000090: 0062 673e e36e 31be 364e 163d 32c6 19be
000000a0: 1952 1bbe 7470 c73d a8d1 4b3e 0800 643e
000000b0: 415f 3b3e 9825 a2bc d467 1abe 22dc f03d
000000c0: a12c 53be 1500 db3d e952 423e 7e49 39be
000000d0: 7c21 c7bd 07fc 00be a4df 30be d9f8 5dbe
000000e0: 9029 343e 7587 123e e994 473e 8039 5b3e
000000f0: 5f0b 04be ff8e f43d 61f2 e63d 93e4 57be
00000100: 77f4 5fbe 9902 4fbe a4fd 49be 9646 423e
00000110: 4b56 ff3d 5c2b d8b7 264e c63d 1a7b f73d
00000120: ddc0 85bd 120a db3d 5fc5 c93d 6300 dbbd
00000130: 25ae f53d 3117 463e 2688 e8bd 5ea7 87bc
00000140: 46db 50be 81d5 31be e07e 033e e20d cb3d
00000150: 11e6 e93d 9e05 103e 0dd8 523e 8315 26be
00000160: 29c1 633e 4e26 ec3c 6058 5bbc 8a9f 1e3e
00000170: e82a 563e 2349 1c3e c305 3c3e e03f 3e3e
00000180: 3e1a 273e b814 1b3e 7467 ab3d af49 303e
00000190: 9e9a 033e 9ce5 e43d 5ea5 2e3c b400 5239
000001a0: 90a7 53be b32f 52be a548 e03d ddd3 d4bd
000001b0: 2935 d73d 3bde 2dbe ad20 47bd c6e5 983d
000001c0: ed0e 273b 958d 203e fdad 193e 3674 10be
000001d0: 9a98 3c3e 0eba c7bd f3fd 2c3e 5b20 0abe
000001e0: c0b5 523e 9811 273e 3e72 f6bd 43d8 36be
000001f0: e021 243d 683e 723e 3162 66be ef83 5ebe
00000200: ea1e 2ebd 6105 f7bd 51de 3e3e ecc7 39be
00000210: ab95 c53d ee0f 653e 7a19 733e 2e70 733d
00000220: bfc5 b03d 529f 8dbd d939 4bbe 12ac 633e
00000230: d2a4 6bbe d692 23be 0d78 19be 858c 2b3e
00000240: 3901 3fbe eaa3 723e 775d 09be 2e60 1abe
00000250: e18e 1bbe ab73 d73d 50f5 08be 1a0f 553e
00000260: ad49 073e 313b 733e 1fb8 023e 628d 5dbd
00000270: d2b9 0abe 1aef a73d cc49 75be 4d14 673e
00000280: abc6 e7bd df8f 653d 1c3a 5abe 6128 f13d
00000290: 3611 6bbe 6a1c 203e d8c0 2dbe 6606 19bd
000002a0: 8979 4f3e 0c7a 71be fb9c 5bbe 8f58 fdbd
000002b0: d4f1 00be ca82 7c3e 3aee cf3d 420c 23be
000002c0: 1270 44be e00a 21be d51b fc3d 63bf 08be
000002d0: d313 5cbe c4aa 40be 9b9a 023e 97bc f7bd
000002e0: 0865 13be 46bd 3dbe 681e 583d 59c1 12be
000002f0: a098 2a3e 4c1a e8bd 9e8e f43d 85b8 a6bd
00000300: ecc1 7c3e cfe4 9bbd dd13 5dbe e3cc 39be
00000310: 5968 d33d f5f5 083c 528c 46be 2f39 bfbd
00000320: 996c 3dbe efea c3bd 9e4a 10be 0993 323e
00000330: 7898 053e 9c37 6bbd d09e 3ebe 6cb8 583e
00000340: b223 463e cce5 1bbe 1810 27be b7f4 ddbd
00000350: 329b 883d b80a 473e fb22 fabd c6be 37be
00000360: 880f 4c3e 5819 26be d051 a63d 7bb7 0dbe
00000370: c66b 28be e55b 513e eb3f 36be d8dc 46be
00000380: eaa9 333e 1fea 01be 130d 2a3e e562 fb3d
00000390: 344b 67be 49f7 b5bd 13df 553e a47b 243e
000003a0: bf9d acbd 0da8 58bd 352e 50be 17ab 31be
000003b0: e22e 173e e6d7 05be 8d1d 07be 8922 2ebe
000003c0: d155 3cbe 6ddb 183e 32c7 323e 2079 24be
000003d0: a160 68be f60f 6e3e d2bd 293c 24f6 38be
000003e0: aad3 313e 020b 3fbe e66f 20be e49d 80bb
000003f0: 2b2c 9abd d025 42be ecec 27be 722b 1ebe

fc5.weight f4 [403, 256]
-0.010596546 0.007223335 0.01958507 -0.015950562 -0.038027853 0.019554527 -0.02283531 -0.013179145
-0.016043385 -0.033347994 -0.0012374849 0.017354237 0.019843858 0.0028928216 0.038904622 0.030418983
0.015188994 -0.042764872 -0.048870075 -0.022909941 -0.013135961 0.0026321684 0.013153978 -0.007723859
-8.64893e-05 0.024068046 -0.029343387 0.026346253 0.022405522 0.037838593 0.018164383 -0.014132815
-0.005834914 0.033003453 -0.036966197 -0.01733727 -0.018330142 -0.010214671 -0.03782071 0.0395248
0.027221937 0.011502887 0.037148446 0.025223969 0.031639803 -0.0036931108 0.007449999 -0.041305672
-0.011599867 -0.012028831 -0.04275321 -0.017159374 0.024432177 -0.032042786 -0.030435013 0.042858012
-0.007031014 0.02690015 -0.056366764 -0.037928972 0.016725082 -0.041075002 -0.011910528 -0.02105611
-0.017659316 -0.012809704 0.020679176 -0.047266904 -0.055226322 0.030271467 0.013863333 -0.03387022
0.04263133 -0.04015094 -0.016518578 -0.04187065 -0.046736315 -0.018245421 0.05699676 -0.020986324
0.06285167 0.021637615 -0.016397914 0.021041524 -0.035978064 0.053518377 -0.011927212 0.0047836597
-0.00087217946 -0.013808811 -0.013166049 0.029779548 -0.0076899133 -0.027325718 -0.016213879 -0.019698892
-0.015730746 0.0005062255 -0.0419258 -0.011676686 0.0056155943 -0.0021361532 0.037759684 0.018162873
0.056380842 0.052166115 0.0035523323 0.042069506 0.04475673 0.04348976 -0.0009324116 -0.0023908906
0.005845969 -0.054240014 0.014468804 -0.048068546 -0.0009170872 -0.015335988 0.03958981 -0.003355446
0.004152638 -0.020109998 0.025675172 0.009742847 -0.031607185 -0.049420767 0.014958103 -0.0049031656
-0.017929707 0.03837284 -0.03147044 0.0053655845 0.00011983952 0.010154464 4.5583125e-05 0.014086453
0.019633291 -0.005024747 -0.016902996 -0.012510937 -0.029838419 0.0023660692 0.028874109 0.015000189
0.0483777 -0.028718445 0.023965277 0.008758055 0.022676308 -0.017996706 -0.01073745 0.02255352
0.031192465 -0.018896742 0.038079236 0.019933406 -0.020845307 0.037872195 -0.02436756 -0.030462021
0.009729726 -0.0023608543 -0.008409826 -0.00078008114 0.027969947 -0.034887176 -0.020918718 -0.04792235
0.0204825 0.0022931697 -0.024346309 0.058926202 0.01610831 0.034852665 -0.06555779 0.040904246
0.006523647 -0.024061924 0.029042289 -0.03728712 0.02215109 0.049571153 -0.0057492857 -0.02562008
-0.0080445465 0.004485074 0.037688576 -0.06015775 0.007285118 -0.035721585 0.012929936 0.0614753
-0.0021557456 -0.00617712 0.05776344 -0.0032034824 0.03649944 -0.02427475 -0.015588372 -0.0115557425
0.043066338 -0.06335367 0.027421556 -0.0050036884 0.013732883 -0.03361221 0.01821234 0.040176213
0.02392642 0.0091807805 0.0055547236 0.013113192 -0.047879543 -0.034595955 0.016381336 -0.044760942
0.009907019 -0.005377275 -0.002853235 -0.050505698 -0.021764003 -0.007198977 0.039659087 0.020702828
-0.033038873 -0.037522085 0.019107748 -0.039172508 -0.0024140838 0.0012987199 0.025534151 -0.0011901056
0.052302808 0.040658593 0.0066656005 -0.030081991 0.026782155 0.008990355 0.036248278 0.024429496
0.040414922 -0.035427652 -0.0050050193 0.03794547 0.047292065 -0.040858496 0.008655709 0.002555626
-0.020871881 0.0035942097 0.0042640087 0.041176215 -0.06805973 -0.027711943 0.0009850669 0.0005568009
00000000: 239d 2dbc bab1 ec3b de70 a03c c1aa 82bc
00000010: 18c3 1bbd d130 a03c 1e11 bbbc 57ed 57bc
00000020: 6b6d 83bc e897 08bd 1a33 a2ba 792a 8e3c
00000030: 968f a23c 7e95 3d3b 745a 1f3d 3b31 f93c
00000040: 42db 783c 382a 2fbd fd2b 48bd a1ad bbbc
00000050: 3738 57bc 7580 2c3b c883 573c 6d18 fdbb
00000060: 9761 b5b8 5a2a c53c 8b61 f0bc 19d4 d73c
00000070: c98b b73c a4fc 1a3d 79cd 943c 538d 67bc
00000080: ce32 bfbb a12e 073d de69 17bd e406 8ebc
00000090: 1829 96bc 6f5b 27bc e4e9 1abd c2e4 213d
000000a0: 8a00 df3c 9b76 3c3c f828 183d 7fa2 ce3c
000000b0: bd98 013d 1e08 72bb 1f1f f43b 2330 29bd
000000c0: 5e0d 3ebc 9314 45bc fd1d 2fbd d191 8cbc
000000d0: fd25 c83c 4c3f 03bd d952 f9bc e28b 2f3d
000000e0: 6c64 e6bb b45d dc3c d6e0 66bd 695b 1bbd
000000f0: 0a03 893c 433e 28bd 6024 43bc dd7d acbc
00000100: 45aa 90bc cbdf 51bc 6067 a93c f19a 41bd
00000110: ff34 62bd defb f73c 0823 633c 80bb 0abd
00000120: 319e 2e3d 5075 24bd f851 87bc 8f80 2bbd
00000130: 946e 3fbd 6c77 95bc 6f75 693d 83eb abbc
00000140: 60b8 803d 5e41 b13c eb54 86bc 465f ac3c
00000150: bc5d 13bd 1636 5b3d 5a6a 43bc 3fc0 9c3b
00000160: f9a2 64ba 5a3e 62bc 69b6 57bc 3df4 f33c
00000170: abfb fbbb 2fda dfbc f8d2 84bc 925f a1bc
00000180: c4dd 80bc 38b4 043a 63ba 2bbd 924f 3fbc
00000190: 0503 b83b b4fe 0bbb e6a9 1a3d 4eca 943c
000001a0: 99ef 663d 23ac 553d 3fce 683b 1351 2c3d
000001b0: d552 373d 5222 323d 156d 74ba 7db0 1cbb
000001c0: 8b8f bf3b c72a 5ebd 900e 6d3c 86e3 44bd
000001d0: ae68 70ba cc43 7bbc ed28 223d 0be7 5bbb
000001e0: da12 883b b9bd a4bc bd54 d23c 76a0 1f3c
000001f0: 8976 01bd 6e6d 4abd d512 753c bcaa a0bb
00000200: 52e1 92bc d72c 1d3d 26e7 00bd c9d1 af3b
00000210: 5a52 fb38 e95e 263c 8230 3f38 deca 663c
00000220: ffd5 a03c a2a6 a4bb 2778 8abc acfa 4cbc
00000230: b36f f4bc 0e10 1b3b 6589 ec3c 5ac3 753c
00000240: b227 463d f242 ebbc d452 c43c f27d 0f3c
00000250: aac3 b93c d46d 93bc 21ec 2fbc 29c2 b83c
00000260: 5787 ff3c 57cd 9abc f9f8 1b3d 624b a33c
00000270: c7c3 aabc e01f 1b3d 7a9e c7bc 7d8b f9bc
00000280: 6e69 1f3c 90b8 1abb 5ec9 09bc 5c7e 4cba
00000290: 3b21 e53c dbe5 0ebd bb5d abbc 3a4a 44bd
000002a0: eaca a73c 0149 163b e971 c7bc 9a5c 713d
000002b0: 93f5 833c abc1 0e3d 2a43 86bd 368b 273d
000002c0: 51c4 d53b 831d c5bc 18ea ed3c 61ba 18bd
000002d0: 3476 b53c 1f0b 4b3d 8164 bcbb 34e1 d1bc
000002e0: 46cd 03bc 87f7 923b 565f 1a3d f967 76bd
000002f0: 00b8 ee3b cc50 12bd 15d8 533c 86cd 7b3d
00000300: 6947 0dbb 7069 cabb 5b99 6c3d 84f1 51bb
00000310: 7080 153d d7db c6bc 5f66 7fbc 4c54 3dbc
00000320: 5466 303d 92bf 81bd 2ca3 e03c fbf5 a3bb
00000330: e3ff 603c f5ac 09bd 0c32 953c d08f 243d
00000340: 5701 c43c fc6a 163c 6604 b63b b7d8 563c
00000350: 571d 44bd 7db4 0dbd 2732 863c 4057 37bd
00000360: 0d51 223c da33 b0bb 57fd 3abb 10df 4ebd
00000370: 6c4a b2bc 65e5 ebbb 9171 223d fa98 a93c
00000380: c553 07bd c2b0 19bd da87 9c3c 5a73 20bd
00000390: 9b35 1ebb cf39 aa3a ff2c d13c 51fd 9bba
000003a0: 783b 563d a089 263d 1c6b da3b 826e f6bc
000003b0: 4066 db3c 484c 133c 1379 143d 5e20 c83c
000003c0: 1e8a 253d 961c 11bd 2501 a4bb b66c 1b3d
000003d0: 53b5 413d 3d5b 27bd add0 0d3c 4a7c 273b
000003e0: 82fb aabc d58c 6b3b 19b9 8b3b 64a8 283d
000003f0: e662 8bbd 2804 e3bc 5c1d 813a 47f6 113a
