customized/model/trained_model/vae/vae_z_20batch_64_static.pth (torch, 179935 bytes, 10 tensors)

fc1.weight f4 [256, 55]
0	0xbbf752d6	-0.0075477166
1	0xbcc8f9e3	-0.024533218
2	0xbc9f4307	-0.01944114
3	0x3a4e5380	0.0007870719
4	0xbc024908	-0.007951982
5	0x39bc9ed1	0.00035976482
6	0xbc1df320	-0.009640485
7	0xbd8a1dce	-0.06743966
8	0xbd3d236e	-0.046176367
9	0xbd90af17	-0.07064646
10	0xbda1e8f3	-0.0790576
11	0xbd42a4ac	-0.047520325
12	0xbd98d6f0	-0.07462871
13	0xbd81d218	-0.063389
14	0x3cc669b8	0.024220333
15	0xbbf0d6a2	-0.007349805
16	0xb98b77be	-0.0002660136
17	0xbd1513a8	-0.0363957
18	0xbc7d3153	-0.015453654
19	0xbb4c5793	-0.0031180128
20	0xbce635c3	-0.028101807
21	0xbc1b4a98	-0.009478234
22	0x3c81c3fb	0.015840521
23	0xbbc225a8	-0.005924899
24	0x3ae8b1bb	0.0017753163
25	0xbafd5691	-0.0019328167
26	0xbb41ba6d	-0.0029560581
27	0xbbaf7002	-0.0053539285
28	0xbce410a0	-0.027839959
29	0xb94a380d	-0.00019285102
30	0xbe08501a	-0.13311806
31	0xbb84661f	-0.004040494
32	0x3ce64c84	0.028112657
33	0xbb878615	-0.004135857
34	0xbcabe854	-0.020984806
35	0xbb39bd95	-0.002834176
36	0xbd66559a	-0.05623398
37	0xbb89b75c	-0.0042027663
38	0xbb727363	-0.0036995045
39	0xbcdcd2fe	-0.026956078
40	0xba79704c	-0.000951533
41	0xbd1b7248	-0.037950784
42	0xbbbf08fa	-0.0058299275
43	0xbb81401c	-0.00394441
44	0x3ac79de7	0.0015229554
45	0xbdd09f1a	-0.10186596
46	0xba19b7a0	-0.0005863849
47	0xbdee657f	-0.116404526
48	0xbc1cb410	-0.009564415
49	0x3b85523a	0.00406864
50	0xbade7a59	-0.0016973718
51	0xbb6bb6e5	-0.0035967168
52	0xbdd8f578	-0.105936944
53	0x3b313e59	0.0027045219
54	0xbddd8ac5	-0.10817484
55	0xbc18f3dc	-0.009335484
56	0xbbe93f39	-0.0071181324
57	0xbc779308	-0.015110739
58	0x3ca47870	0.02007696
59	0x3c01f56b	0.007932047
60	0xbb23c640	-0.0024989992
61	0xbc2284a7	-0.009919322
62	0x3c7a81a3	0.015289697
63	0xbde9d691	-0.114178784
64	0x3c32785c	0.010892954
65	0x3c0c1a52	0.008551197
66	0x3c847124	0.01616723
67	0x3c86fdc5	0.016478429
68	0xbdfa70b4	-0.12228528
69	0x3d2dfb10	0.04247576
70	0xbdf97424	-0.12180355
71	0x3c653921	0.013990671
72	0x3bc924ba	0.0061384114
73	0xbc461b51	-0.012091474
74	0x3cc2301a	0.023704577
75	0xbda74104	-0.081666976
76	0x3ce158bc	0.027508132
77	0xbdb44913	-0.08803
78	0xbc54ed21	-0.012995989
79	0xbe09cb73	-0.13456516
80	0x3d263f6e	0.040587835
81	0x3ce36390	0.027757436
82	0x3cd910c2	0.026497249
83	0xbde6a377	-0.11261647
84	0x3ceb34d9	0.028711723
85	0xbdda2bf0	-0.10652912
86	0x3c78f6cb	0.015195559
87	0xbdb4432d	-0.08801875
88	0x3d1d24b8	0.038365096
89	0x3cd42d18	0.025900409
90	0x3d046a6f	0.032328065
91	0x3db3eefa	0.087858155
92	0x3cd9e9ba	0.026600707
93	0x3c4d9593	0.012547868
94	0x3cae3735	0.02126656
95	0x3cd57190	0.026055127
96	0x3d44afc6	0.048019193
97	0x3d1f85bb	0.038945895
98	0xbcbea6b2	-0.023272846
99	0x3b5c8631	0.003364932
100	0x3d3ddc53	0.046352696
101	0xbdb41cf8	-0.08794588
102	0x3addcd08	0.0016922066
103	0x3c5842f0	0.013199553
104	0xbd4d9101	-0.050187115
105	0xbc5a8a14	-0.013338584
106	0x3cf8c7a2	0.03036863
107	0x3d029fd8	0.03189072
108	0x3d12f2ef	0.03587621
109	0xbd4347a6	-0.04767575
110	0xbd0b3214	-0.033983305
111	0xbc8b81bd	-0.017029637
112	0xbd5619ff	-0.052270886
113	0x3bd41d1d	0.006473197
114	0xbb0add98	-0.002118921
115	0xbc90713d	-0.017632121
116	0xbd9ed60e	-0.077556714
117	0xbde7ce18	-0.11318606
118	0x3b976131	0.0046197404
119	0xbdf449a6	-0.1192811
120	0xbe017706	-0.1264306
121	0xbe02e75b	-0.12783568
122	0xbde1efd8	-0.11032075
123	0xbdd9bd2e	-0.10631786
124	0x3d1a32a7	0.037645962
125	0xbcdaf8d1	-0.026729973
126	0x3d9ecc67	0.077538304
127	0x3d15938d	0.03651767
128	0xbc9f7cef	-0.019468753
129	0x3c76e370	0.015068874
130	0xbdc68f6c	-0.09695324
131	0xbb26e95e	-0.0025468688
132	0x3dfe65a4	0.1242173
133	0xbe06198f	-0.13095687
134	0x3dae0ed0	0.08498919
135	0x3d8dac21	0.069175966
136	0x3d153ef1	0.03643698
137	0xbddc2c1a	-0.10750599
138	0xbdf43139	-0.11923451
139	0xbd8a1a16	-0.06743257
140	0x3c903866	0.017605018
141	0xbdad4629	-0.084606476
142	0x3de8a8d2	0.11360325
143	0xbd2c4179	-0.042054627
144	0x3ccd47ec	0.02505871
145	0x3dd2771b	0.10276624
146	0xbdca69b8	-0.098834455
147	0x3daf7b59	0.085684486
148	0xbd93f8ff	-0.072252266
149	0xbd4d0e5d	-0.050062526
150	0xbe0449fa	-0.12918845
151	0x3dad4223	0.0845988
152	0x3d2e0077	0.042480912
153	0x3d8a890e	0.06764422
154	0x3da73dc6	0.08166079
155	0x3db983a4	0.090583116
156	0x3d2fac03	0.042888653
157	0xbdbfead4	-0.09370962
158	0xbce89cf0	-0.028395146
159	0x3ce52f9d	0.027976805
160	0xbe06f775	-0.13180335
161	0xbdab1e92	-0.0835544
162	0x3cb45f46	0.022018086
163	0x3c5752e0	0.0131423175
164	0x3db3c373	0.08777513
165	0x3c2573de	0.010098426
166	0x3cc421c5	0.023941884
167	0xbddb4d9b	-0.107081614
168	0x3d138155	0.036012013
169	0x3ceddfee	0.029037442
170	0xbaf4737a	-0.0018650137
171	0x3c929365	0.017892549
172	0xbd149af2	-0.03628058
173	0xbdbe8c3c	-0.09304091
174	0xbd2acf42	-0.041701563
175	0xbd1aebcd	-0.037822533
176	0xbcfafe54	-0.030638851
177	0xbcfad5ae	-0.030619469
178	0xbdc5c477	-0.09656613
179	0xbcc343f9	-0.023836123
180	0x3cdfeeb6	0.027335506
181	0x3d5ae699	0.05344257
182	0x3d88463e	0.06654023
183	0xbd52e7e5	-0.051490683
184	0xbcaa4809	-0.020786302
185	0xbdb1326a	-0.08652194
186	0x3d5f3e70	0.054502904
187	0xbdf41b12	-0.11919226
188	0xbdc37e01	-0.09545518
189	0x3bfb2481	0.0076642637
190	0xbdd209ba	-0.102557614
191	0xbdcbc57e	-0.09949778
192	0xbe065d0d	-0.13121434
193	0xbdfb12aa	-0.12259419
194	0x3d1429ac	0.036172554
195	0xbd1f7013	-0.03892524
196	0x3d24057a	0.040044285
197	0xbdb50290	-0.088383794
198	0xbdbf11b5	-0.09329549
199	0xbd8fbfe0	-0.07019019
200	0xbe01a1c2	-0.12659362
201	0x3d02b45f	0.031910297
202	0xbc549d0b	-0.012976895
203	0xbdc15034	-0.09439126
204	0xbda7d791	-0.08195413
205	0x3d5c41a2	0.05377353
206	0xbdb3bc81	-0.08776189
207	0xbd61e44a	-0.055149354
208	0xbdfa210c	-0.122133344
209	0x3d116706	0.03549864
210	0x3c9a8f68	0.01886721
211	0x3d31f12a	0.043442883
212	0xbd91cdf2	-0.07119359
213	0xbdc83e1f	-0.09777474
214	0x3d8fd72b	0.07023462
215	0x3d69586a	0.056969084
216	0xbdd598ef	-0.104295604
217	0xbc6b470f	-0.014360203
218	0x3d3b5777	0.04573771
219	0x3c8d455c	0.017244987
220	0xbc83d081	-0.016090633
221	0xbc8143ce	-0.015779402
222	0xbc8443f4	-0.016145684
223	0xbdff8a62	-0.12477566
224	0xbba4b150	-0.00502602
225	0xbbfe1955	-0.0077544847
226	0xbe0fab2f	-0.14030145
227	0xbc91699e	-0.017750558
228	0xbd8bbec7	-0.06823497
229	0xbc85ac9c	-0.016317658
230	0xbcf3a193	-0.02974013
231	0xbe0939fc	-0.13401026
232	0xbca047db	-0.019565513
233	0xbdf26169	-0.11834986
234	0xbcf1e25b	-0.02952688
235	0xbd07be1f	-0.033140298
236	0xbcfa5d5a	-0.030562092
237	0xbd45fe8c	-0.048338458
238	0x3d6fb701	0.058524136
239	0xbdfc0161	-0.123049505
240	0x3c7d93ab	0.015477101
241	0xbc00eb9a	-0.007868672
242	0x3d4aa842	0.04947687
243	0xbcb3d08a	-0.021950025
244	0xbd3357d0	-0.043784916
245	0xbda41656	-0.08012073
246	0xbdee777f	-0.11643886
247	0xbd94f43e	-0.07273148
248	0x3ca06b40	0.01958239
249	0x3d1eb6bc	0.038748488
250	0x3d7a0416	0.061039053
251	0x3d1c01bb	0.038087588
252	0xbd9b1500	-0.07572365
253	0xbd9081d3	-0.07056012
254	0x3d66adb4	0.056318
255	0x3d5619d9	0.052270744

fc1.bias f4 [256]
0	0x3d373ec0	0.044737577
1	0xbd95410f	-0.072877996
2	0xb9df702d	-0.00042617452
3	0xbd7613c2	-0.060077436
4	0xbd60c723	-0.05487741
5	0xbe005ecb	-0.1253616
6	0xbce3f0ac	-0.027824722
7	0xbb066dc8	-0.0020512212
8	0xbd8262b1	-0.0636648
9	0xbc1b91b9	-0.009495192
10	0xbc20333e	-0.009777842
11	0x3d421801	0.047386173
12	0x3cccbe1a	0.024992991
13	0x3d605c37	0.054775443
14	0xbe3e358e	-0.18575117
15	0xbd90712c	-0.07052836
16	0xbe10d55f	-0.14143895
17	0x3d0e25fc	0.034704193
18	0x3d419b8d	0.047267485
19	0xbe0633d1	-0.13105704
20	0x3d47f348	0.048815995
21	0xbde7cafe	-0.113180146
22	0x3d09b240	0.033617258
23	0xbd5d5f57	-0.054046
24	0xbd0efd0f	-0.034909304
25	0xbddb16ea	-0.1069773
26	0xbdd2cfb0	-0.102935195
27	0xbd90e299	-0.0707447
28	0xbcca6b93	-0.024709499
29	0xbdf41646	-0.11918311
30	0xbde4fd3f	-0.11181115
31	0xbdd7b047	-0.10531669
32	0xbde4dfd6	-0.11175506
33	0x3d89d357	0.06729763
34	0xbe057057	-0.13031135
35	0xbdc236a7	-0.0948308
36	0xbe0f8025	-0.14013727
37	0xbdddee8d	-0.108365156
38	0xbda2c42a	-0.079475716
39	0xbdef1668	-0.116741955
40	0xbe2c83bd	-0.16847129
41	0xbe01c5e2	-0.12673143
42	0xbe19ea50	-0.1503079
43	0xbd908d36	-0.07058184
44	0x3cf75fe7	0.030197097
45	0x3b8ada3e	0.0042374423
46	0xbdbe0a20	-0.09279275
47	0x3d5dbd2b	0.054135483
48	0xbde98375	-0.114020266
49	0xbdb5c2cb	-0.088750444
50	0xbe2db3b9	-0.1696309
51	0xbddd3e15	-0.10802857
52	0xbd48e30c	-0.049044654
53	0x3d52d50c	0.05147271
54	0xbded60a7	-0.115907006
55	0xbe1c1713	-0.15243177
56	0xbd177b1c	-0.03698264
57	0xbd0445d5	-0.03229316
58	0x3a8fa0b1	0.0010957924
59	0x3d6c6089	0.05770925
60	0xbde96e22	-0.11397959
61	0x3d0a3136	0.033738337
62	0xbe2ceecc	-0.16887969
63	0xbc961cdc	-0.018324308
64	0xbd91b095	-0.071137585
65	0xbdec98a4	-0.115525514
66	0xbe354ec2	-0.17705825
67	0xbce66e96	-0.028128903
68	0xbe080d91	-0.13286425
69	0xbdbbcac8	-0.09169537
70	0xbdedf9f3	-0.1161994
71	0xbdd5ba4f	-0.10435926
72	0x3c7846ae	0.01515357
73	0x3d6719e1	0.056421164
74	0xbd36fc04	-0.044673935
75	0xbe2f97c5	-0.17147739
76	0xbce770e2	-0.028252069
77	0xbdf9d01b	-0.12197896
78	0xbbcc4f0b	-0.0062350086
79	0xbce39d06	-0.027784836
80	0xbd89ac9c	-0.06722376
81	0xbd305633	-0.043050956
82	0xbdbf91d0	-0.093539834
83	0xbde58a9f	-0.112080805
84	0xbbc7ada6	-0.0060936986
85	0xbd1a16ae	-0.037619285
86	0xbe2046db	-0.15652029
87	0xbe2643e7	-0.1623684
88	0xbce62a5c	-0.02809637
89	0x3c65382e	0.013990445
90	0xbda688ad	-0.081315376
91	0xbd98b96d	-0.07457242
92	0x3d112518	0.035435766
93	0xbdf56bf9	-0.11983485
94	0xbd5dd43c	-0.05415748
95	0xbe1757b7	-0.14779554
96	0x3b49f143	0.003081397
97	0xbcfc1bc1	-0.030774953
98	0xbe2c0d25	-0.16801889
99	0xbe2e35a7	-0.17012654
100	0xbcea832f	-0.028627006
101	0xbe2172ca	-0.15766445
102	0xbe06c917	-0.13162647
103	0xbe1eadc3	-0.15495972
104	0xbe1441c7	-0.14478217
105	0xbd62c61c	-0.055364713
106	0x3d147607	0.036245372
107	0xbd8155ad	-0.063151695
108	0xbe1b53fd	-0.15168758
109	0xbe02f5f3	-0.12789135
110	0xbdaafffa	-0.08349605
111	0x3c05192b	0.008123676
112	0x3bab4b69	0.0052274955
113	0xbd0c4895	-0.034248907
114	0xbe0f4e89	-0.13994803
115	0xbd90de2b	-0.07073625
116	0x3bcf4677	0.0063255387
117	0xbe0f8999	-0.14017333
118	0x3c718568	0.014741279
119	0xbd8ab9f3	-0.06773748
120	0xbcf0bddc	-0.029387407
121	0xbd8a6146	-0.06756835
122	0x3cefda3b	0.029278865
123	0x3d2dd624	0.04244055
124	0x3c575785	0.013143425
125	0x3d586696	0.05283221
126	0xbdc1e848	-0.09468132
127	0xbe063065	-0.13104399
128	0xbd1aec90	-0.03782326
129	0xbda07325	-0.07834462
130	0x3d4d1725	0.0500709
131	0xbdb40f82	-0.087920204
132	0xbe0d9fb9	-0.1383046
133	0xbdf3a523	-0.11896732
134	0xbe29e03c	-0.16589445
135	0xbe037fab	-0.1284167
136	0x3bccf19c	0.006254388
137	0xbe22af63	-0.15887217
138	0x3d14b341	0.036303762
139	0xbe220904	-0.15823752
140	0xbda88a17	-0.082294635
141	0xbd5e1051	-0.05421478
142	0xbe1abf88	-0.15112126
143	0x3d37a97b	0.044839364
144	0x3cf8878e	0.030338075
145	0x3c001c8a	0.007819304
146	0x3ce50b93	0.02795962
147	0xbe197932	-0.14987639
148	0xbdeb54d5	-0.1149079
149	0xbe00eb48	-0.12589753
150	0x3d3453b5	0.04402514
151	0xbd795999	-0.060876463
152	0xbe193ecd	-0.14965363
153	0xbe0ba114	-0.13635665
154	0xbd1f6c1e	-0.038921468
155	0xbdd3d280	-0.10342884
156	0xbb840445	-0.0040288293
157	0xbcf6060f	-0.030032186
158	0xbe183b0a	-0.14866272
159	0x3c584cc8	0.0132019
160	0x3c9390a2	0.018013302
161	0x3c6b7325	0.014370714
162	0xbe1a4d91	-0.15068652
163	0xbd3c255b	-0.045934062
164	0x3ae9c9e3	0.0017836656
165	0xba8b2c73	-0.0010618105
166	0xbdde7bd3	-0.10863461
167	0x3d35e4b5	0.044407565
168	0xbd6409f5	-0.05567356
169	0xbe3384cf	-0.17531131
170	0xbe2f7e5a	-0.17138043
171	0x3d0c8e54	0.034315422
172	0xbd5194c0	-0.05116725
173	0x3c529416	0.012852689
174	0xbdaf1a84	-0.08549979
175	0xbdf238ef	-0.118272655
176	0xbe097bc4	-0.13426119
177	0x3b49ba5a	0.003078124
178	0xbe2e9317	-0.17048298
179	0xbd6fddf8	-0.058561295
180	0xbcc6bc5a	-0.024259735
181	0xbdfa5e9c	-0.122250766
182	0xbe030f71	-0.12798859
183	0x3b5e0b90	0.0033881404
184	0xbcf63db5	-0.030058721
185	0xbe35f243	-0.17768197
186	0xbdb37313	-0.08762183
187	0xbd20f8f0	-0.039299905
188	0x3cf062ae	0.02934393
189	0xbc02a32d	-0.007973474
190	0x3cb258b0	0.021770805
191	0x3b9f727e	0.0048659435
192	0x3ce8d91e	0.028423842
193	0xb9c64b69	-0.00037821688
194	0xbe1f3353	-0.15546922
195	0xbd64d787	-0.055869605
196	0xbc2e3c65	-0.010634516
197	0xbe1e6987	-0.15469943
198	0xbe0c9642	-0.13729194
199	0xbe38fa16	-0.1806415
200	0xbd621762	-0.05519808
201	0xbca0baf3	-0.019620394
202	0x3d1d6364	0.038424864
203	0xbd862f5f	-0.06552004
204	0xbe2da04d	-0.16955681
205	0xbd3dccfd	-0.04633807
206	0x3d194851	0.037422482
207	0xbd39d0bc	-0.04536508
208	0xbe33bc81	-0.17552377
209	0xbde328d5	-0.110917725
210	0xbe3d5fc3	-0.18493561
211	0xbd4374ed	-0.04771893
212	0xbc70ed57	-0.014705024
213	0xbe0d4b88	-0.13798344
214	0xbd902f46	-0.07040267
215	0xbe25382e	-0.16134712
216	0xbd6cdad0	-0.057825863
217	0xbde80ad0	-0.11330187
218	0x3bd1f59d	0.006407453
219	0x3d588e1c	0.0528699
220	0x3cf90481	0.030397655
221	0xbdb70eee	-0.089383945
222	0xbe176d2b	-0.14787738
223	0x3d3c1326	0.0459167
224	0x3d2a67f1	0.041603032
225	0xbe291ee1	-0.16515686
226	0xbe279222	-0.16364339
227	0xbc5fb60a	-0.013654241
228	0xbc90dff5	-0.017684916
229	0xbd740775	-0.059577424
230	0xbe2bc418	-0.16774023
231	0xbe320e36	-0.17388234
232	0xbd8a6458	-0.0675742
233	0xbdfb88d9	-0.12281961
234	0xbe4d6b65	-0.20060499
235	0xbdb987e4	-0.09059122
236	0xbdc596e9	-0.096479245
237	0xbdc89b2f	-0.09795224
238	0xbe2ccc38	-0.16874778
239	0xbdeefddb	-0.11669513
240	0xbe263e7d	-0.16234775
241	0xbdd5fc3e	-0.10448502
242	0x3b1f4355	0.0024301608
243	0x3d2ec6da	0.04267011
244	0x3bbd0bbd	0.0057692216
245	0xbce16e8d	-0.027518535
246	0xbe4672a4	-0.1937967
247	0xbdc0be2c	-0.094112724
248	0xbe48d652	-0.19613007
249	0x3d042ead	0.032271076
250	0xbd55f1af	-0.05223244
251	0xbe406897	-0.18789898
252	0xbdf455f7	-0.11930459
253	0x3cc24173	0.02371285
254	0xbcbb1400	-0.022836685
255	0xbd0620d7	-0.032746162

fc2.weight f4 [20, 256]
0	0x3af49b89	0.0018662076
1	0x3a617c17	0.00086015597
2	0xbc07da01	-0.008291722
3	0xbcb12917	-0.021626038
4	0x3b706ba0	0.0036685243
5	0x39b68301	0.0003481135
6	0xbab9c994	-0.0014174455
7	0xbacc4b06	-0.0015586324
8	0x3b2934b0	0.0025818758
9	0x39ff65ca	0.0004871323
10	0x3b280056	0.0025634966
11	0x3a6f60e9	0.0009131567
12	0x3a0a05de	0.00052651565
13	0xba2c771b	-0.00065790274
14	0x3bc6bd64	0.0060650576
15	0x3a6deee9	0.0009076433
16	0x3b8e1208	0.0043356456
17	0x3b180cb2	0.0023200926
18	0xbab03957	-0.0013444823
19	0xbc088f2f	-0.008334919
20	0x3ae1bd9d	0.0017222647
21	0xbb9de6bf	-0.004818767
22	0x3bd0b54a	0.0063692676
23	0xbab4929e	-0.0013776605
24	0x3ad938a9	0.0016572672
25	0x3c3617b9	0.011114054
26	0x3b2382e4	0.0024949843
27	0x393f7d11	0.0001826177
28	0x3a92593a	0.0011165508
29	0x3c56960b	0.0130972965
30	0xbc035da5	-0.008017932
31	0xbc455718	-0.012044691
32	0x3bcddbab	0.00628229
33	0x3bd8f21a	0.0066206576
34	0xbbbe7d0f	-0.005813248
35	0xb90bc34a	-0.00013328824
36	0xbc1bf914	-0.009519834
37	0xbb6ed603	-0.003644348
38	0x3bbaa2c6	0.0056956736
39	0xbb61be4f	-0.0034445708
40	0x3c750285	0.014954214
41	0x3c0a5867	0.008443928
42	0x3b1dd5a7	0.0024083646
43	0x3be86a1e	0.0070927283
44	0xbbc14593	-0.0058981865
45	0x3c6c7017	0.014431021
46	0x3a559bd4	0.00081485254
47	0x3a849a1e	0.0010116731
48	0x3b21e483	0.0024702854
49	0x3c17de38	0.00926929
50	0x3add1df1	0.0016869885
51	0x3a8994f1	0.0010496659
52	0xbb9648de	-0.004586323
53	0xbab45cd6	-0.0013760577
54	0x3905b0a2	0.00012749669
55	0xba80887e	-0.0009806303
56	0xba3b5b9c	-0.0007147135
57	0x3a25c978	0.00063242717
58	0x3ba1912b	0.0049306354
59	0x3a765f0f	0.000939832
60	0xbc5d03d6	-0.013489684
61	0x3adda930	0.0016911384
62	0x3ace39e8	0.001573381
63	0xbbae35e9	-0.005316485
64	0x3a1e10b1	0.0006029709
65	0xba3a756b	-0.00071128336
66	0x3bc53fef	0.0060195844
67	0xbb237531	-0.0024941678
68	0x3c661cd5	0.01404496
69	0x3c1da0b5	0.009620835
70	0x3b40fa75	0.002944616
71	0x3b0ab2ef	0.0021163782
72	0x3b918420	0.0044407994
73	0x3b888985	0.004166784
74	0x3a0ad312	0.0005295734
75	0xbc91eff8	-0.017814621
76	0x3b16499d	0.002293206
77	0xba9c8e5d	-0.0011944283
78	0x3b467a40	0.003028527
79	0xbb194c8d	-0.0023391575
80	0xbbdc7385	-0.006727638
81	0x3c38adcc	0.011271905
82	0x3b48bf6e	0.003063168
83	0xbc832c8c	-0.016012453
84	0x3aad751e	0.0013233756
85	0xba022843	-0.0004965106
86	0xba393866	-0.0007065594
87	0xbae121ee	-0.001717625
88	0xbc3bfea1	-0.0114742825
89	0x396cabc6	0.00022570704
90	0xbc0a9599	-0.008458518
91	0xba95bc71	-0.0011423958
92	0x3b10ec5c	0.0022113537
93	0xbc6c519f	-0.014423757
94	0x3c41dbef	0.011832221
95	0xbc291ca6	-0.010321772
96	0xbb7df77f	-0.0038752255
97	0xbb7cf9e5	-0.0038601097
98	0x3c5d423e	0.013504563
99	0x3c32a0de	0.010902612
100	0x3c33512b	0.010944645
101	0xbc342e73	-0.0109974025
102	0x3b8d63e1	0.004314885
103	0xbb089829	-0.0020842648
104	0x3c9cca8e	0.019139554
105	0x3a36c71d	0.0006972419
106	0x3b2b70ed	0.0026159838
107	0x3ba02a60	0.004887864
108	0xbc5071bc	-0.012722429
109	0xbb29b830	-0.0025897138
110	0x3c006cbb	0.007838423
111	0xb9106d33	-0.0001377359
112	0x3a4cc3ff	0.0007811188
113	0xbc5b5509	-0.013386973
114	0x3bf8498f	0.0075771282
115	0x3b25be2f	0.002529036
116	0x3c018d79	0.007907265
117	0x3c5a2c74	0.0133162625
118	0x3a57f665	0.0008238315
119	0xbb283549	-0.0025666526
120	0xbc9f8841	-0.01947415
121	0x3a9dfa02	0.0012052658
122	0x3b961326	0.0045799194
123	0x3b76070d	0.0037540824
124	0xbb0c863b	-0.0021442312
125	0xb923d636	-0.00015624691
126	0xbcb33438	-0.021875486
127	0xbb963dce	-0.0045850044
128	0x39dd92cc	0.00042261777
129	0xbba7ed63	-0.0051247342
130	0xb7c8696c	-2.3890949e-05
131	0x3b38864b	0.0028156217
132	0x3b08bd40	0.0020864755
133	0xbb53aa0c	-0.00322974
134	0xbc4d13f6	-0.012516966
135	0x3ab8b5a7	0.0014092223
136	0x38083d6c	3.248213e-05
137	0xbc26c5f2	-0.01017903
138	0x3b891d90	0.0041844323
139	0x3704af6e	7.9086585e-06
140	0x3a7fac80	0.00097531825
141	0x3b0d4b0f	0.002155963
142	0x3cd1e6f5	0.025622824
143	0xb9c94443	-0.00038388566
144	0x3af499ad	0.0018661522
145	0x3b53c81a	0.0032315315
146	0xbb41f6de	-0.0029596607
147	0x3aff03d6	0.0019456099
148	0xbb6e90a0	-0.0036402121
149	0xbcbcae4a	-0.023032326
150	0x39d22000	0.00040078163
151	0x3ba70e07	0.0050981077
152	0x3bb0e90b	0.0053988746
153	0xbb3d4aba	-0.0028883652
154	0x3ba42b66	0.0050100563
155	0x3b4ed37c	0.003155916
156	0xbc67afc6	-0.014141029
157	0x3c0f19f2	0.008734213
158	0xbb57ba61	-0.0032917487
159	0xb90cba47	-0.00013420834
160	0xbaeae1de	-0.0017920097
161	0x3a6f91e3	0.0009138865
162	0x3b58995a	0.003305039
163	0xbc2c0962	-0.010500284
164	0x3bfa4671	0.007637792
165	0x3c041e52	0.00806387
166	0xbb3f1cf2	-0.002916154
167	0x3a9f9cce	0.0012177469
168	0x3c950fec	0.018196069
169	0xbc3a51eb	-0.01137207
170	0xbc195ff8	-0.00936126
171	0x3bf54add	0.007485731
172	0xbbf76127	-0.0075494233
173	0xbb927edb	-0.0044706888
174	0xbb80e00c	-0.0039329585
175	0x3c408ccd	0.0117523195
176	0x3cd7d1fb	0.026345244
177	0xba641360	-0.0008700397
178	0x3c18f64c	0.0093360655
179	0xbb0adeaa	-0.0021189847
180	0x3be38752	0.0069436217
181	0x3ae61fab	0.0017557045
182	0xbb7a3229	-0.003817687
183	0x3b8252ce	0.0039771562
184	0x3c5beb07	0.013422734
185	0xbaf48e9f	-0.0018658227
186	0xbc0335b2	-0.008008407
187	0xbc0686c1	-0.008210839
188	0xbba2b607	-0.004965547
189	0x3ba68521	0.005081788
190	0x3bdfbd12	0.006827959
191	0x39c8e2cc	0.0003831595
192	0x3afd74a8	0.0019337134
193	0xba89ee57	-0.0010523301
194	0x3b9fc84f	0.0048761736
195	0xbc674804	-0.014116291
196	0xbbfef068	-0.0077801235
197	0x3a85775c	0.0010182667
198	0x3aa48b73	0.0012553766
199	0xbc01a06d	-0.007911784
200	0xbc322271	-0.010872469
201	0x3c2dcacd	0.0106074335
202	0xbb8e0a58	-0.004334729
203	0x3ba9fa31	0.005187296
204	0xbc1e9611	-0.009679333
205	0x3c1322fb	0.008980508
206	0x3bb69270	0.005571656
207	0xbc39d28b	-0.011341701
208	0x3c043a82	0.00807059
209	0xbc3067e7	-0.01076696
210	0xbc0b08db	-0.008485998
211	0x3841e9fe	4.6232708e-05
212	0x39c19c3f	0.0003692824
213	0x3c1f02ee	0.009705288
214	0xbb321075	-0.0027170454
215	0x3a583ef5	0.00082491274
216	0xb9c25225	-0.00037063766
217	0x3a387039	0.00070357654
218	0x3b076f7d	0.0020665817
219	0xbba79386	-0.0051140217
220	0xbb23d354	-0.0024997788
221	0x3ac152a5	0.0014749361
222	0xbb031680	-0.0020002425
223	0xbaa05d7e	-0.0012234894
224	0x3a3a4a24	0.0007106385
225	0x3a915257	0.0011087161
226	0xb9a807a1	-0.0003204914
227	0x3b660574	0.0035098465
228	0xbb418212	-0.002952699
229	0x3bb5f046	0.0055523245
230	0xbab5e728	-0.0013878094
231	0x3c3564b7	0.011071376
232	0xbafaf193	-0.0019145481
233	0x3ba195b2	0.004931175
234	0x3cd3dce0	0.025862157
235	0x3b98f175	0.004667456
236	0xbb99f796	-0.004698704
237	0x3cfcbc1a	0.030851413
238	0xbab60680	-0.0013887435
239	0x3aed70a8	0.0018115239
240	0x3c7f9ec2	0.015601816
241	0xbc128b01	-0.008944274
242	0x3c42300d	0.0118522765
243	0x3b990d99	0.0046708104
244	0x3b60ccc2	0.0034301733
245	0xbb90476b	-0.004403045
246	0xbafae891	-0.0019142797
247	0xbb6c28fd	-0.0036035173
248	0x3b1e03ff	0.0024111269
249	0x3a1b7667	0.0005930424
250	0x3b4b4428	0.0031015966
251	0x3a916a50	0.0011094306
252	0x3b3a4ab6	0.002842588
253	0xbc1abd60	-0.009444565
254	0xbba2d678	-0.0049694143
255	0x3b7691dd	0.0037623562

fc2.bias f4 [20]
0	0x379ea393	1.8911238e-05
1	0xb846a14d	-4.73571e-05
2	0xb7614426	-1.3426912e-05
3	0x38e959c8	0.00011127029
4	0xb8330fba	-4.2691572e-05
5	0xb7dfac58	-2.6663925e-05
6	0xb8930da8	-7.01205e-05
7	0x367d5f06	3.7755249e-06
8	0xb720ff98	-9.596253e-06
9	0xb65ebed1	-3.3191648e-06
10	0x38ac5743	8.217853e-05
11	0x38a419ef	7.82496e-05
12	0x377c2426	1.5028787e-05
13	0x3685359b	3.9699494e-06
14	0x37d3fd85	2.5271214e-05
15	0x36e894f6	6.93148e-06
16	0x37e5d4bb	2.7397988e-05
17	0xb6b1657c	-5.2868254e-06
18	0xb8134e05	-3.5120192e-05
19	0x3835c20a	4.3334476e-05

fc3.weight f4 [20, 256]
0	0x3afaf02d	0.0019145064
1	0x3b98d094	0.0046635363
2	0x3c2fb35b	0.010723914
3	0xbc3711ba	-0.01117366
4	0xbbe2b74e	-0.0069188243
5	0xbb0b8419	-0.0021288453
6	0xbb27a229	-0.0025578833
7	0x3b1b9979	0.00237426
8	0xba8bdc6b	-0.0010670548
9	0xbb527fed	-0.0032119707
10	0x3c3a4dd0	0.011371091
11	0xb968aa27	-0.00022188631
12	0xbbad38d0	-0.0052863136
13	0xbb0e6aa6	-0.0021731048
14	0x3d0a9bec	0.033840105
15	0x3c5d339a	0.013501072
16	0x3ae32cbc	0.0017332057
17	0x3ae52b5c	0.0017484236
18	0x39f020f0	0.00045800908
19	0x3b1d9cf3	0.0024049848
20	0x3c130646	0.008973664
21	0xba5033e1	-0.0007942301
22	0x3b0e638d	0.0021726817
23	0x3a86a09e	0.0010271256
24	0xbb339d05	-0.0027406823
25	0xbc11aa26	-0.008890664
26	0x3b5f0b55	0.0034033854
27	0x3ac60441	0.0015107469
28	0xbbdf85f5	-0.006821389
29	0x3bca3ebe	0.0061720302
30	0x3cbd27fc	0.023090355
31	0x3bc23b45	0.0059274756
32	0xbca246f1	-0.019809218
33	0x3b964b1a	0.0045865895
34	0x3c8c7398	0.017144963
35	0x3bceec34	0.0063147787
36	0x3b142112	0.002260272
37	0xbc1bbcd9	-0.009505474
38	0x3bdb152a	0.0066858726
39	0xbc81f189	-0.015862243
40	0xbb4b7b90	-0.003104899
41	0x3b47875e	0.0030445675
42	0xbb95cb5a	-0.0045713605
43	0x3bafa771	0.0053605367
44	0x3b031f76	0.0020007766
45	0x3cba8e00	0.022772789
46	0xba815892	-0.0009868315
47	0xbb212d3c	-0.0024593612
48	0x3ac7a1ec	0.0015230752
49	0x3ca212b0	0.019784302
50	0xbafcd09b	-0.0019288243
51	0x3cbe4db9	0.02323042
52	0x3b82a64c	0.0039871093
53	0x3bf9c5ee	0.007622472
54	0xbc481cf9	-0.012213939
55	0xbb9c73e6	-0.0047745584
56	0xbb0ef1e0	-0.002181165
57	0x3bb8b60a	0.005636935
58	0x3ad501e7	0.0016251177
59	0x3aeb8b64	0.0017970619
60	0xbbf412ed	-0.007448545
61	0xbbd5c616	-0.006523858
62	0xbb411954	-0.002946456
63	0xbc2b4921	-0.010454447
64	0x39f26c6b	0.00046238615
65	0xbbbb7dac	-0.0057217684
66	0xbb42019b	-0.0029603008
67	0x3abe0518	0.0014497368
68	0x3cbabec0	0.022796035
69	0x3bc9ddd0	0.0061604753
70	0xbba0b332	-0.0049041742
71	0xbc06a909	-0.008219012
72	0xb9a7099e	-0.00031859888
73	0x3b1d4dc3	0.0024002648
74	0x3b4a1e55	0.0030840833
75	0x3bdf8dc5	0.00682232
76	0x3bc80417	0.006104003
77	0x3b9d9735	0.004809285
78	0xba869f64	-0.0010270891
79	0x3b2d75d3	0.0026467934
80	0xbcaa4d53	-0.020788824
81	0xba1ebf72	-0.0006055749
82	0x3c7b7882	0.0153485555
83	0x3c39be2a	0.011336843
84	0xbb628f89	-0.0034570417
85	0xbc3f1952	-0.011663752
86	0xbbf099e9	-0.0073425663
87	0x3b5e724d	0.003394264
88	0xbc8b3cf6	-0.016996842
89	0x3952cee0	0.00020104228
90	0xbc3a4e95	-0.0113712745
91	0xbbbd2720	-0.0057724863
92	0xbb905ae8	-0.004405368
93	0xbc894a59	-0.016759085
94	0xbbbe95ba	-0.0058161886
95	0xbc263482	-0.010144355
96	0xbc41ffd2	-0.0118407775
97	0xb7817ec1	-1.5437023e-05
98	0x3c386ef5	0.011256923
99	0x3c12e040	0.008964598
100	0x3c96457e	0.018343683
101	0x3c6054a7	0.013692058
102	0xbb344873	-0.0027509003
103	0xbc93eb4c	-0.018056534
104	0x3b302afc	0.002688109
105	0x3b18ae65	0.0023297307
106	0xbaee0ee3	-0.0018162396
107	0xbbb67b99	-0.005568933
108	0x3bb79fba	0.0056037577
109	0xbba58721	-0.005051509
110	0xbba7c3fe	-0.0051197996
111	0x3a865c12	0.0010250828
112	0xbb76246f	-0.0037558337
113	0xbb62e7f1	-0.003462311
114	0xbd1ef522	-0.038807996
115	0xbbb9ae48	-0.005666528
116	0x3cb93ab0	0.022610992
117	0x3a64532b	0.0008709903
118	0x3a7e1dbe	0.0009693763
119	0xbb25e9da	-0.0025316388
120	0x3c928353	0.017884886
121	0x3c325575	0.010884632
122	0xbaf5fced	-0.0018767394
123	0xb932da7d	-0.00017056796
124	0xbb617b0f	-0.0034405624
125	0x3ba17b8f	0.0049280594
126	0xbc9a1d9f	-0.018812953
127	0xbb155a65	-0.0022789475
128	0xbc327156	-0.010891279
129	0xbb9ed0fb	-0.0048466898
130	0x3b5aa3ce	0.0033361795
131	0xbbbc1886	-0.005740228
132	0x3caf02d4	0.021363653
133	0x3b04d5d2	0.0020269048
134	0x3c8b582d	0.017009819
135	0xbbfd4472	-0.0077291066
136	0xb903b83c	-0.00012561766
137	0x3c430c3f	0.011904775
138	0xbad715d8	-0.0016409708
139	0x3b93d00c	0.004510885
140	0x3a149942	0.0005668589
141	0xbb8b362a	-0.0042484
142	0x3c02435a	0.007950628
143	0x3b99cd55	0.004693667
144	0xbbcd507a	-0.006265697
145	0x3bf98205	0.0076143765
146	0xbc7ce69f	-0.015435844
147	0xbc5bb323	-0.013409409
148	0x3a1bcaee	0.00059430196
149	0xbce15bff	-0.027509687
150	0xba4203b4	-0.00074010645
151	0xbb773094	-0.0037718164
152	0x3b71dc7c	0.00369051
153	0xbc292aac	-0.010325115
154	0x3b9cf59d	0.0047900216
155	0xb9efe6f6	-0.00045757712
156	0xbca81614	-0.02051834
157	0x3b07385a	0.0020632953
158	0x3c8da2ba	0.017289508
159	0x3b956bcc	0.0045599695
160	0x39bdfb14	0.00036235957
161	0x3b67ba09	0.0035358688
162	0xbca46974	-0.020069815
163	0x3c00ac3b	0.007853563
164	0x3b48ceed	0.0030640916
165	0xbbc0239c	-0.00586362
166	0x3ae7bff5	0.0017681109
167	0xbbac1ffb	-0.005252836
168	0x3c15fb9d	0.009154228
169	0xbc7ba6d2	-0.015359597
170	0xbc1f7363	-0.0097321
171	0x3c1433ef	0.009045585
172	0xbca80a90	-0.02051285
173	0xbbd14409	-0.0063862843
174	0x3ac0b5fd	0.0014702674
175	0x3c68bc8c	0.014205109
176	0x3c8d7dfb	0.017271986
177	0x3911c52e	0.00013901733
178	0xbbcb0079	-0.0061951247
179	0xbb9ba624	-0.00475003
180	0x3ac55edb	0.0015058176
181	0xbb37a257	-0.0028020346
182	0xbb3e6ae6	-0.0029055416
183	0xbc706c80	-0.014674306
184	0xbc4e059b	-0.012574579
185	0x3bb24a72	0.0054410035
186	0xbb963be8	-0.004584778
187	0xbbcad066	-0.006189394
188	0xba60645a	-0.00085598754
189	0x3c45be21	0.012069256
190	0x3c2064a9	0.009789624
191	0x3ad64878	0.0016348502
192	0xb9a8c0b0	-0.0003218702
193	0xbc35f2f8	-0.011105292
194	0x3a645d20	0.00087113865
195	0xbcc43281	-0.023949863
196	0x3ca80513	0.020510232
197	0x3bfd3fcf	0.007728554
198	0x3a09137a	0.00052290375
199	0x3b3cc7db	0.0028805647
200	0xbc5ef76f	-0.013608797
201	0xbcb9807d	-0.022644276
202	0x3baab044	0.005209001
203	0x3bb8a0c2	0.005634398
204	0xb8e0dcb7	-0.00010722264
205	0xbba60bef	-0.0050673406
206	0xbb93d966	-0.004512
207	0x3c6bf1c1	0.0144009
208	0x3bb1ea77	0.0054295617
209	0xbbd288e3	-0.0064250096
210	0xbcc93098	-0.024559304
211	0xbc0ccaab	-0.008593242
212	0x3a7d680a	0.0009666687
213	0x3ca8b01e	0.020591792
214	0xbb6685a9	-0.0035174883
215	0xbc86f582	-0.01647449
216	0xbb9ff507	-0.0048815045
217	0xbbcb9595	-0.0062129
218	0xbbe1e4b3	-0.006893718
219	0xbbc06884	-0.0058718342
220	0xbb780517	-0.003784483
221	0x3b4d46e8	0.003132278
222	0x3c809ec9	0.015700715
223	0x3848caad	4.7872472e-05
224	0xba185dc2	-0.0005812311
225	0x3aca7035	0.0015444817
226	0x3d0f19de	0.03493678
227	0x3b18fe79	0.0023345037
228	0xb8b21472	-8.49151e-05
229	0x3bb57494	0.005537579
230	0xba5c82ab	-0.0008411805
231	0xbc93a1db	-0.018021515
232	0x3c62f6a2	0.013852747
233	0xbbaa1bee	-0.0051913178
234	0x3c438104	0.011932615
235	0xbc08bab1	-0.008345292
236	0x3bccd649	0.0062511307
237	0x3cb29ed3	0.021804249
238	0xbb108e10	-0.0022057332
239	0xbd025b42	-0.03182531
240	0x398faa9e	0.00027402205
241	0x3be2d91f	0.0069228555
242	0x3c4d7085	0.012539034
243	0xbbaece4c	-0.005334651
244	0x3bc08f92	0.00587649
245	0x3bcdfcc2	0.0062862346
246	0xbc104439	-0.008805328
247	0x3b90a2be	0.0044139316
248	0x3cb5c30f	0.022187738
249	0x3ba70284	0.0050967354
250	0x3bdb8950	0.0066997185
251	0xbc05a955	-0.008158048
252	0x3bbada38	0.0057022832
253	0x3a087d53	0.0005206663
254	0xbc0e7bf4	-0.008696545
255	0x3b8782d0	0.004135467

fc3.bias f4 [20]
0	0xb76eb019	-1.4226906e-05
1	0xb805a95d	-3.1867403e-05
2	0x3709f86b	8.223676e-06
3	0x37975883	1.804182e-05
4	0xb6acf4c8	-5.1544957e-06
5	0x3700959c	7.664228e-06
6	0xb829b535	-4.0461502e-05
7	0x37467266	1.1828355e-05
8	0xb60bae6a	-2.0814136e-06
9	0x33bc39b9	8.764932e-08
10	0x357c5009	9.399378e-07
11	0xb63c8b28	-2.8095183e-06
12	0xb5211e64	-6.00214e-07
13	0xb7a678b3	-1.9844947e-05
14	0x363b738a	2.7932424e-06
15	0x37415174	1.1522661e-05
16	0xb78e66f7	-1.6975666e-05
17	0xb743f611	-1.16801975e-05
18	0x36b9b794	5.534801e-06
19	0x379023be	1.7182781e-05

fc4.weight f4 [256, 20]
0	0xbbccc8ba	-0.0062495144
1	0x3b130dac	0.002243857
2	0x3bfbb723	0.0076817437
3	0xbb6cdbb6	-0.00361417
4	0x3b4a0f40	0.0030831844
5	0x3b909e59	0.0044134078
6	0xba9ab1eb	-0.0011802291
7	0xba203ad3	-0.0006112281
8	0xb92fe433	-0.00016774311
9	0x3b2a404d	0.0025978268
10	0x3bae04cf	0.005310632
11	0xbb097b77	-0.0020978132
12	0xbb27bcf2	-0.0025594798
13	0x3b1b0785	0.0023655605
14	0xbb8b02fb	-0.0042422987
15	0x3bdda28b	0.0067637614
16	0x3aad6170	0.0013227891
17	0xbaac2123	-0.0013132434
18	0xb95cdea1	-0.0002106377
19	0xb920154f	-0.00015266727
20	0xbb2a9f1f	-0.0026034785
21	0x3aa8da44	0.0012882431
22	0xbb004149	-0.0019570163
23	0x39c31bcd	0.00037214012
24	0x3b2fb36f	0.0026809832
25	0xba1a5864	-0.0005887805
26	0xbb3e1922	-0.002900668
27	0x3bb92a31	0.0056507816
28	0xbb1ca557	-0.002390226
29	0x3b373ae5	0.0027958688
30	0x3bae1a77	0.0053132134
31	0xbaf53663	-0.0018708225
32	0xbabc9524	-0.0014387709
33	0xba499e8c	-0.0007691167
34	0x3ba4326f	0.005010895
35	0xbb533eef	-0.0032233556
36	0xbae7ccf5	-0.0017684983
37	0x3b24d7c0	0.002515301
38	0x3b97c911	0.0046321233
39	0x3bfe6e0d	0.007764584
40	0x3bdd7cdf	0.0067592706
41	0xbc03bebd	-0.008041081
42	0x39e12602	0.00042943662
43	0xbbbc1eb3	-0.0057409643
44	0xbc01391a	-0.007887149
45	0xba699d97	-0.00089117273
46	0x3c4377a6	0.011930382
47	0x3b27cb03	0.0025603182
48	0xbbbae6c8	-0.005703781
49	0xbc0359d5	-0.008017023
50	0xbbc62b4d	-0.0060476423
51	0x39b66eb0	0.00034796214
52	0xbabed4bb	-0.0014559248
53	0xbbb407e7	-0.005494106
54	0xbb8ed3fb	-0.004358766
55	0xbad7c16d	-0.0016460844
56	0xba627e49	-0.0008640034
57	0x3b1b6a3b	0.0023714441
58	0xbbea1b26	-0.0071443496
59	0xbaf49e1d	-0.0018662844
60	0xbb79f452	-0.003814001
61	0x3b098d81	0.0020988884
62	0xbb8346fa	-0.004006264
63	0xbaf30674	-0.0018541352
64	0x3b623900	0.0034518838
65	0xbbd59a61	-0.0065186475
66	0xbb8b04cd	-0.0042425157
67	0xba3fed6d	-0.0007321451
68	0xb995ef65	-0.00028597857
69	0x3c10b659	0.008832538
70	0xb993812e	-0.0002813427
71	0x3b13df1b	0.00225634
72	0x3b362b74	0.0027796896
73	0x3b1faef7	0.0024365762
74	0xbab74766	-0.001398307
75	0xbb7e3496	-0.0038788668
76	0xba8dd329	-0.0010820377
77	0x3a21281e	0.00061476405
78	0x3b30195f	0.002687059
79	0xbaf4f0e8	-0.0018687518
80	0x3a387d16	0.0007037682
81	0xb98e67f7	-0.0002716181
82	0xbc3589f7	-0.011080257
83	0xbc0e4061	-0.008682341
84	0xbbb28183	-0.005447568
85	0xbbbbca4a	-0.005730902
86	0xba1497b8	-0.000566836
87	0xbb9de289	-0.004818265
88	0xb8867b42	-6.4125765e-05
89	0xba8e8e00	-0.001087606
90	0xbaad23a1	-0.0013209471
91	0xbbd21257	-0.0064108777
92	0x3bbe2fbd	0.0058040307
93	0x3b81c011	0.0039596637
94	0xbbcf018e	-0.006317324
95	0xba1a0b87	-0.00058763515
96	0x37bd8f23	2.2597209e-05
97	0xba9aef7d	-0.0011820641
98	0x3ae508c8	0.001747393
99	0xbba48cd3	-0.0050216704
100	0xbbdd5635	-0.0067546614
101	0x3bddd688	0.006769959
102	0xbb4d8e55	-0.0031365354
103	0xb9843844	-0.00025218923
104	0x3b84d68b	0.004053896
105	0x3b80e2f2	0.003933304
106	0x398059e5	0.0002448104
107	0xbaf64f27	-0.00187919
108	0x3b4e6330	0.0031492226
109	0x3c0061f6	0.007835856
110	0x3a27346d	0.00063783565
111	0xbb479e9b	-0.0030459526
112	0xbb501d83	-0.0031755872
113	0x3aa16d5f	0.001231592
114	0x3a4fdf28	0.0007929676
115	0xbba35658	-0.004984658
116	0x3b0aee7d	0.002119928
117	0xba8bb43a	-0.001065857
118	0x3c0a97a8	0.008459009
119	0xbba46bcf	-0.0050177346
120	0x3b7c589a	0.003850496
121	0xb94e9abf	-0.00019703338
122	0xb97357d9	-0.00023207012
123	0x3beff13e	0.0073224595
124	0x3b587230	0.0033027045
125	0x3c83dfec	0.016097985
126	0x3ba27f5e	0.004959031
127	0xbb06989e	-0.0020537744
128	0x3aac9beb	0.0013169026
129	0xba85a2c2	-0.00101956
130	0xbba5d779	-0.0050610867
131	0x3a8b0993	0.0010607712
132	0xbb917a8b	-0.004439657
133	0xbbea9191	-0.007158466
134	0x3c0b5e12	0.008506315
135	0xbbf36caa	-0.0074287253
136	0x3bd320bf	0.0064431126
137	0xbaf04fa3	-0.001833428
138	0xbb9404ce	-0.0045171743
139	0xbb81a2eb	-0.003956189
140	0x3b763b12	0.003757183
141	0x3bb3b249	0.0054838997
142	0x3b2bff03	0.0026244528
143	0x3bb74bfa	0.005593774
144	0x3a579eda	0.000822527
145	0x3c8e7e5a	0.017394233
146	0xbb56bb39	-0.0032765402
147	0xba653598	-0.0008743643
148	0x3b973930	0.0046149716
149	0xbc0d028e	-0.008606566
150	0x3abd734f	0.001445392
151	0xbbcd939e	-0.006273701
152	0xbb2b05dd	-0.0026096024
153	0xbb81afb7	-0.0039577144
154	0x3c1e472d	0.009660524
155	0x3c2fd7cf	0.010732605
156	0x3a81c9df	0.0009902081
157	0xba00cda8	-0.00049134577
158	0x3b498690	0.0030750372
159	0x3b684641	0.0035442265
160	0x3b913097	0.004430841
161	0xbbd6e3b4	-0.006557906
162	0xbb8eabc5	-0.0043539726
163	0xbc51b88d	-0.012800348
164	0xbb8c8e5a	-0.0042894306
165	0xbc8d29d9	-0.017231869
166	0x3a4e0b90	0.00078599993
167	0xbad3c8ed	-0.0016157903
168	0xbba3e1a5	-0.005001264
169	0xbbb84c6b	-0.005624344
170	0x3b922940	0.004460484
171	0xbb76aabf	-0.0037638394
172	0x3c064bbc	0.008196767
173	0x3b9ed605	0.0048472905
174	0xbc0c081b	-0.008546854
175	0x3bbc94c7	0.0057550403
176	0xbbb82eea	-0.005620827
177	0x3a8453a2	0.0010095725
178	0xbbc67c4c	-0.006057298
179	0xba9d47ab	-0.0011999508
180	0x3c3b50c9	0.011432835
181	0xb952e636	-0.00020112921
182	0xbb59caa7	-0.0033232362
183	0xbb746822	-0.0037293513
184	0xba6de791	-0.00090753386
185	0xb831fdfc	-4.243663e-05
186	0x3be06228	0.0068476386
187	0x3bee3978	0.0072700344
188	0xba65f7cb	-0.0008772581
189	0xbbd2bdd6	-0.0064313216
190	0xbaf34c74	-0.0018562214
191	0x3b14f081	0.002272636
192	0x3a5aa0de	0.0008340011
193	0xbc110031	-0.008850143
194	0x3bcd7434	0.006269956
195	0xbb817df0	-0.0039517805
196	0xba82cdab	-0.0009979507
197	0x3b82bb43	0.0039896085
198	0xbc0c5999	-0.008566284
199	0x3b97b86d	0.0046301396
200	0x3b0c2004	0.0021381387
201	0xbb9b69a7	-0.0047428194
202	0xbbd313d3	-0.006441572
203	0xbbb8deed	-0.005641809
204	0xbbb9a142	-0.0056649754
205	0xbc6f911d	-0.014622
206	0x3b03a903	0.0020089753
207	0x3a81def4	0.0009908364
208	0xbaa64443	-0.0012685138
209	0x3b0df599	0.002166128
210	0xbb81eff2	-0.0039653713
211	0x3af3234b	0.0018549947
212	0x3b424af5	0.0029646729
213	0x3801fde1	3.099244e-05
214	0xbbaf7b56	-0.005355279
215	0xbba1ac47	-0.004933867
216	0xba5359ed	-0.0008062411
217	0x39f70d48	0.00047121407
218	0xbb983dfd	-0.0046460615
219	0xbb430e30	-0.0029763095
220	0x3bc002f7	0.0058597284
221	0xbb0be04a	-0.0021343403
222	0x3ae50694	0.0017473274
223	0xb8a90ceb	-8.060954e-05
224	0x39b97d74	0.0003537942
225	0xbb68ff60	-0.0035552606
226	0xb9dc7578	-0.0004204919
227	0x3a3ecf74	0.0007278838
228	0x3b61924d	0.0034419477
229	0xbb4c12b9	-0.003113909
230	0xbb1e0ca0	-0.0024116412
231	0x3b68dce5	0.0035532054
232	0x3b55c3fd	0.0032618039
233	0x3b1d849b	0.0024035338
234	0x396892b9	0.00022179903
235	0x3abd6460	0.001444947
236	0xba8381e3	-0.0010033216
237	0x3aab83a3	0.0013085495
238	0xbaf3b238	-0.0018592542
239	0x3ac9c5d5	0.0015394042
240	0xbb00fa24	-0.0019680345
241	0xb9545e3e	-0.00020253003
242	0xbb21cc63	-0.0024688474
243	0x3afa8bd4	0.0019115158
244	0x39aa4828	0.00032478687
245	0x36da304f	6.50253e-06
246	0xbb99b60d	-0.0046908916
247	0x3adaea69	0.001670194
248	0xba88cd1b	-0.0010437103
249	0x3bae1cf3	0.0053135096
250	0x3a4c9e3f	0.0007805563
251	0x3a7388d4	0.00092901033
252	0x3b0baa6d	0.0021311298
253	0x39d51939	0.00040645318
254	0x3b85fcf6	0.004088993
255	0xbb88bb99	-0.004172754

fc4.bias f4 [256]
0	0x3a2b0801	0.0006524325
1	0x3b85446c	0.0040669944
2	0x3a7efea6	0.00097272766
3	0x3abb3a91	0.0014284422
4	0xba38acc2	-0.0007044786
5	0xbaa262ce	-0.0012389065
6	0xbab76d5a	-0.0013994381
7	0xbb171e82	-0.0023058956
8	0x3b24faa3	0.0025173805
9	0x3ae57ba1	0.0017508158
10	0x3b09cee7	0.0021027864
11	0xb9b425a4	-0.0003436032
12	0x3b8df8dd	0.0043326453
13	0xbb410db7	-0.0029457638
14	0xbb4c91fb	-0.003121494
15	0xba9f099a	-0.0012133599
16	0x390b1b36	0.0001326621
17	0x3a276780	0.0006385967
18	0xbb966b4b	-0.004590427
19	0x3be51c2d	0.006991884
20	0x3a238bdf	0.0006238799
21	0xbb0c1ce5	-0.0021379527
22	0x3a3805c9	0.0007019905
23	0x3b0bbb51	0.0021321366
24	0x3a51fcbf	0.00080103794
25	0x3b521596	0.0032056323
26	0x3babb2a5	0.005239802
27	0x3b849251	0.0040457626
28	0x3b10834a	0.002205091
29	0x3ae0f41f	0.0017162598
30	0xbb5eef53	-0.003401716
31	0x3a9a7113	0.0011782966
32	0xba8e54ce	-0.0010859014
33	0x3b58a4dd	0.003305725
34	0xbb99b748	-0.0046910383
35	0xbb3de9bd	-0.002897843
36	0x3a09b62b	0.00052532804
37	0x3b5a180e	0.0033278498
38	0x3ad07395	0.0015903587
39	0xba08e02b	-0.0005221392
40	0x3ad4f11f	0.0016246176
41	0xba0dcb2d	-0.00054089987
42	0x3ac86576	0.0015289027
43	0xbb46fddc	-0.0030363714
44	0xbbd871a6	-0.006605345
45	0xbbbd547b	-0.005777893
46	0x3a791e5d	0.00095031207
47	0xbaf38ee2	-0.0018582011
48	0x3a924759	0.0011160179
49	0xbab35bd6	-0.0013683985
50	0xba8ac787	-0.0010588028
51	0x3adc0f65	0.0016789256
52	0xbba62514	-0.005070338
53	0xbbff65cc	-0.0077941176
54	0xbade1f74	-0.001694663
55	0x3b392922	0.0028253277
56	0xbb0b11b8	-0.0021220278
57	0xbabe020b	-0.0014496458
58	0x3c27dc6c	0.010245424
59	0x3bab9be0	0.0052370876
60	0x39cf0c62	0.00039491343
61	0xbac43192	-0.0014968386
62	0x3af58127	0.0018730507
63	0x3aded45d	0.0017000545
64	0x3b2d9fc1	0.0026492926
65	0x3b39b1d2	0.002833475
66	0x3bed6bc8	0.0072455145
67	0x3b9e851f	0.0048376466
68	0x3be6d4c0	0.0070444047
69	0x3ac3eff2	0.0014948829
70	0x3af264c2	0.0018493163
71	0xb9cc4cba	-0.00038967078
72	0x3b4b3ccd	0.0031011582
73	0x3b37eb21	0.0028063732
74	0x389324b6	7.016344e-05
75	0x3b3a30db	0.0028410468
76	0x3afd66ab	0.0019332966
77	0xb9d16f00	-0.00039946288
78	0xb9da6ab4	-0.000416597
79	0x3a1f7ec2	0.0006084257
80	0xbbaab9c9	-0.0052101356
81	0x3b0aa59b	0.0021155837
82	0x3b9bbba4	0.004752593
83	0xb9afbf09	-0.00033520933
84	0x3b5277df	0.0032114906
85	0x3a605db8	0.0008558887
86	0xbbda3a15	-0.006659756
87	0xba900578	-0.0010987958
88	0x3b702efa	0.0036649094
89	0xbaca89c0	-0.001545243
90	0xba22dd45	-0.00062127813
91	0xbbbbbe2e	-0.0057294583
92	0x3b0e8a1c	0.00217498
93	0xbb7479e3	-0.0037304095
94	0xba53b8dd	-0.0008076558
95	0xbb52a90a	-0.0032144212
96	0x3bc481e0	0.0059969276
97	0xbb3b9a13	-0.002862577
98	0xbb171029	-0.0023050404
99	0x3a73e847	0.00093043264
100	0xbb2ca628	-0.0026344154
101	0xbade47a7	-0.001695861
102	0x3ba0f844	0.004912408
103	0xbb9db3c4	-0.0048126895
104	0xba1c00e7	-0.0005951062
105	0x3b293549	0.0025819114
106	0xbb88a15b	-0.0041696257
107	0xbbe83524	-0.007086413
108	0xbb1d2987	-0.002398105
109	0x3b52b639	0.003215207
110	0x3a6c449f	0.0009012911
111	0x3a359a52	0.00069275976
112	0x3b8babce	0.004262424
113	0xbaaba3af	-0.0013095046
114	0xb9dfcfb1	-0.00042688617
115	0x3a1b547a	0.0005925369
116	0xba9257e9	-0.0011165115
117	0x3c15e265	0.009148215
118	0xba666cb3	-0.0008790001
119	0x3a97fbfe	0.0011595485
120	0xbaa9e827	-0.0012962864
121	0xbb2abb30	-0.0026051514
122	0x3ae248ac	0.001726409
123	0xbb3bd4f2	-0.002866086
124	0xbaeb7b8a	-0.0017965895
125	0x399483cb	0.00028326953
126	0x3b91959a	0.0044428827
127	0xbadf2097	-0.0017023262
128	0x3af7b5a3	0.0018898736
129	0xba1f7c3a	-0.000608388
130	0x3bbebe04	0.0058209915
131	0x3af72953	0.001885692
132	0xbb808821	-0.003922478
133	0xbb4e671c	-0.0031494563
134	0xbb8becd6	-0.0042701764
135	0x3a204748	0.00061141374
136	0xbb79812f	-0.0038071384
137	0xbac346f5	-0.0014898466
138	0xbb6482c6	-0.0034867986
139	0x39ac7af8	0.00032898015
140	0xbbdc2fff	-0.006719589
141	0xbb4a865d	-0.003090284
142	0xbb446c48	-0.0029971767
143	0xba0b5c7e	-0.00053162116
144	0x3a821e6c	0.0009927279
145	0xbb20fe46	-0.0024565621
146	0xb969dd22	-0.0002230299
147	0x3be09df7	0.0068547684
148	0xbb8d284c	-0.0043077823
149	0xbb01d445	-0.001981036
150	0x3b821f4d	0.0039710165
151	0x3b7e5558	0.0038808193
152	0x3b1dab43	0.0024058379
153	0xba3143a6	-0.00067620946
154	0x39f716eb	0.00047128586
155	0xba24c337	-0.0006285193
156	0xbb634c50	-0.0034682937
157	0xbad1411e	-0.0015964841
158	0x3b81ebc3	0.0039648726
159	0x3b565d66	0.0032709478
160	0xbb061685	-0.00204602
161	0xbab317ef	-0.0013663749
162	0x3aef2874	0.0018246309
163	0x3b822d66	0.003972697
164	0xbb263851	-0.0025363157
165	0xbbb7292c	-0.005589625
166	0xb90c53f5	-0.00013382717
167	0xbb1b3f73	-0.0023688942
168	0x3b36a052	0.0027866554
169	0xbb453d73	-0.003009644
170	0x387504db	5.8417074e-05
171	0x3ab9d90c	0.0014179065
172	0xb9f28c9d	-0.00046262602
173	0x3b9225e0	0.0044600815
174	0x399c794e	0.00029845018
175	0x3b0a6089	0.0021114668
176	0xbb349d76	-0.0027559674
177	0xbbce8d80	-0.006303489
178	0x3b928705	0.004471662
179	0xba7c2568	-0.0009618611
180	0xba3639db	-0.000695137
181	0x3b7c1551	0.0038464854
182	0x3bd63c1f	0.0065379287
183	0x3b0dcb74	0.002163616
184	0xb91e88b6	-0.00015118983
185	0xbb468bbc	-0.003029569
186	0xbb4b181a	-0.0030989707
187	0xbbb65eb9	-0.005565491
188	0xba7f2730	-0.00097333174
189	0xbbc789e7	-0.0060894373
190	0x3b411026	0.0029459088
191	0x39500122	0.00019836848
192	0xbb22dffa	-0.0024852739
193	0xbb0941e1	-0.0020943808
194	0x3b5b3d4b	0.0033453282
195	0xba9de5ee	-0.0012046674
196	0xba804e48	-0.0009788955
197	0x39941fb5	0.00028252383
198	0x3a82e396	0.0009986039
199	0xbb63f711	-0.0034784714
200	0x3b5ac204	0.0033379802
201	0x3ba5f5b2	0.0050646896
202	0x3a97a165	0.0011568485
203	0x3a8ae780	0.0010597557
204	0x3b42fb01	0.002975166
205	0x38e1b14c	0.0001076186
206	0xbb91fe44	-0.0044553597
207	0xbb5ffe5f	-0.0034178717
208	0x3acffa1f	0.0015867389
209	0x3b90065b	0.004395289
210	0x398b4354	0.0002656231
211	0xbb0cf23d	-0.002150669
212	0xbba43a1f	-0.0050118114
213	0xbb667797	-0.0035166496
214	0xbc04480c	-0.008073818
215	0x3a1f31a8	0.0006072768
216	0xbaac20a9	-0.0013132292
217	0x3abe3a2e	0.0014513189
218	0xbb2784b8	-0.0025561284
219	0x38d5c8c5	0.00010194028
220	0xbb80765a	-0.0039203586
221	0xba7a2505	-0.00095422595
222	0xbb25f97c	-0.0025325706
223	0xbbb4f096	-0.005521844
224	0x3b7f0b03	0.0038916476
225	0xbb9614fd	-0.0045801387
226	0x3b118af8	0.0022208076
227	0x3ada3b24	0.0016649705
228	0xbb45492e	-0.0030103433
229	0x3b826aec	0.0039800312
230	0xb9c31046	-0.00037205423
231	0xb9a83aa7	-0.00032087156
232	0xb908ce29	-0.00013046771
233	0xb9c5e9da	-0.00037749
234	0xbabd1715	-0.0014426435
235	0xba89362e	-0.0010468417
236	0xbb1dd7fb	-0.0024085033
237	0x3b2524a5	0.0025198844
238	0xbb4bee15	-0.003111725
239	0x3bd6c871	0.006554656
240	0x3b05c3b4	0.0020410838
241	0x3a0634b8	0.000511955
242	0xbb25ac88	-0.0025279839
243	0xbaa27b5e	-0.0012396385
244	0xb9004be9	-0.0001223531
245	0x3adb6e1f	0.0016741193
246	0xbafa3bff	-0.0019091367
247	0xbb088d30	-0.0020836107
248	0x3b410a73	0.002945569
249	0x3b5d472e	0.003376435
250	0x3a254aca	0.0006305395
251	0xb8fb73a9	-0.00011990156
252	0xbb782240	-0.0037862211
253	0x3b476096	0.003042256
254	0x3b37dcb8	0.0028055143
255	0xbb1d4dfd	-0.0024002783
