customized/model/trained_model/vae/vae_z_30batch_64.pth (torch, 885921 bytes, 10 tensors)

fc1.weight f4 [256, 384]
0.009907955 0.048351478 -0.025618821 -0.03660826 -0.061120685 -0.031222912 -0.024212256 -0.024317127
0.0027010138 0.06217166 -0.024134884 -0.020033868 -0.035086975 0.008404594 0.024438683 -0.046132226
0.0034740348 -0.00040132884 0.051474 -0.016326813 -0.003473123 -0.0061048586 -0.0402446 0.030671263
-0.05151249 0.0085290065 -0.04940636 0.011780071 0.0063051367 -0.0033020151 -0.014073218 -0.017229091
-0.042712554 -0.043780778 0.011532448 -0.042918716 -0.0021820168 -0.03366368 -0.010907617 -0.019209215
-0.036218878 0.013884263 -0.065911226 -0.034971323 0.036125083 -0.034929078 0.040081102 0.020548234
-0.027325884 -0.037308227 -0.05596118 -0.00041592112 0.039125863 -0.03353115 -0.0068900906 0.021751493
0.0045954846 -0.033842336 -0.032356717 0.055593394 -0.01759385 -0.008095409 0.0024574785 -0.059786603
-0.037890803 0.012945028 0.045543898 -0.026731556 0.018513525 0.013894384 -0.009178647 -0.026983969
-0.03893905 -0.006576769 0.04386164 -0.039485455 -0.06169854 0.033152364 0.01833043 -0.022801735
0.013625464 -0.026000977 0.026600871 0.02896519 -0.055439312 0.00019400394 0.050597865 0.0062431525
0.038885776 0.017146492 0.048095062 0.014049839 -0.037442137 -0.0112065235 0.010933689 0.038946353
0.019057555 0.014629287 0.013011361 -0.025442516 -0.034380455 0.05135241 -0.050976925 -0.029348329
-0.02138093 -0.030099642 -0.036185022 -0.02596442 0.017927805 -0.026470423 -0.05165631 -0.030885505
0.05422622 -0.009830624 -0.019203132 0.013356181 -0.0034295355 0.029211419 0.028671063 0.055414118
-0.058487907 0.056426413 0.0042622895 -0.056076784 0.017803205 0.030838862 0.009675211 -0.009072835
0.019363329 -0.058246378 0.030275043 -0.01478855 -0.011393677 -0.009386293 -0.017845182 -0.055289768
-0.06294028 -0.012754859 0.054428674 -0.03653392 0.061569005 -0.058500167 0.0006430147 0.044114485
0.063606985 0.017381027 -0.03387452 0.036475074 -0.012682211 -0.02537668 0.034264572 0.010271766
-0.06473757 0.037721295 -0.0052900403 -0.01566539 0.058472607 -0.006214802 0.030896815 -0.059861835
-0.005175373 0.02579742 -0.011984922 -0.010445204 -0.050429575 0.0029178471 0.054841913 0.016954303
-0.032303367 -0.015363383 -0.05366633 -0.021010526 -0.059796154 0.0021664074 -0.011501507 0.006547094
0.029274663 -0.02188475 0.028785849 -0.038619578 0.01790592 -0.025091898 0.027164087 -0.0076935077
0.043986034 -0.04351154 0.05402205 0.0040885494 -0.019925212 -0.012703043 0.010092122 0.01914286
-0.05147538 -0.017445052 -0.012713752 -0.047631904 -0.031868912 -0.013208184 -0.027602687 -0.035471186
-0.03268257 -0.050456803 0.05286644 0.009433641 -0.056441415 -0.0066925683 -0.020227805 0.0099876365
-0.0014912548 -0.030760407 -0.014613392 0.017870897 -0.032499187 0.057680435 0.026749812 -0.03951838
-0.024442859 -0.035440747 -0.0253979 -0.01700076 0.030037362 0.054308947 0.024954228 0.0392323
-0.00949288 0.015778668 -0.011214712 -0.055222128 0.010437096 0.025365781 0.006454094 -0.02269081
-0.020614477 -0.016732134 -0.04571743 -0.03810091 0.028179348 0.030836053 0.05712238 -0.030142626
-0.0147003755 -0.04176976 0.012192993 -0.0007756486 0.03014123 -0.024151532 0.023576433 0.054203708
-0.029944759 -0.0154865915 0.0032994759 -0.024226816 0.0058443374 -0.0505093 -0.023866327 0.008587234
00000000: fa54 223c 330c 463d 90de d1bc 8bf2 15bd
00000010: af59 7abd 31c7 ffbc c858 c6bc b634 c7bc
00000020: 7e03 313b b6a7 7e3d 85b6 c5bc 111e a4bc
00000030: 5cb7 0fbd 6cb3 093c a233 c83c 25f5 3cbd
00000040: a2ac 633b 7269 d2b9 67d6 523d cfbf 85bc
00000050: 569d 63bb 440b c8bb 86d7 24bd 4d42 fb3c
00000060: c3fe 52bd 3fbd 0b3c 535e 4abd 3301 413c
00000070: 529b ce3b 9f66 58bb 5b93 66bc 0624 8dbc
00000080: 5cf3 2ebd 7953 33bd 98f2 3c3c 89cb 2fbd
00000090: 2b00 0fbb ede2 09bd ddb5 32bc a55c 9dbc
000000a0: 3f5a 14bd d27a 633c 77fc 86bd 173e 0fbd
000000b0: e5f7 133d cb11 0fbd 152c 243d c554 a83c
000000c0: 88da dfbc 83d0 18bd 8d37 65bd fd0f dab9
000000d0: 7142 203d f657 09bd 45c6 e1bb 3030 b23c
000000e0: b895 963b 439e 0abd 7a88 04bd e6b5 633d
000000f0: fa20 90bc 9ba2 04bc a60d 213b cce2 74bd
00000100: 6333 1bbd 6217 543c 3d8c 3a3d 23fc dabc
00000110: ada9 973c 45a5 633c 0962 16bc 7c0d ddbc
00000120: 8e7e 1fbd f081 d7bb 43a8 333d 80bb 21bd
00000130: 9cb7 7cbd c6ca 073d b329 963c b4ca babc
00000140: 573d 5f3c 0000 d5bc 12ea d93c 6848 ed3c
00000150: 5514 63bd 896d 4b39 b53f 4f3d 5c93 cc3b
00000160: b146 1f3d cd76 8c3c 54ff 443d 4c31 663c
00000170: ed5c 19bd 919b 37bc 3723 333c 3686 1f3d
00000180: 971e 9c3c adaf 6f3c 9a2d 553c d36c d0bc
00000190: 85d2 0cbd e856 523d 2ecd 50bd e86b f0bc
000001a0: 0f27 afbc 8693 f6bc bf36 14bd 56b3 d4bc
000001b0: 55dd 923c 80d8 d8bc 9195 53bd 9903 fdbc
000001c0: 501c 5e3d a010 21bc e34f 9dbc e2d3 5a3c
000001d0: 0fc2 60bb c94c ef3c 94df ea3c eaf9 623d
000001e0: 0491 6fbd 621f 673d adaa 8b3b c5b0 65bd
000001f0: 07d8 913c c8a1 fc3c c784 1e3c 3aa6 14bc
00000200: d89f 9e3c c193 6ebd 5e03 f83c ad4b 72bc
00000210: 8cac 3abc f7c8 19bc 0f30 92bc 8677 62bd
00000220: d5e6 80bd c2f9 50bc 9af0 5e3d 97a4 15bd
00000230: c82f 7c3d df9d 6fbd fc8f 283a 64b1 343d
00000240: 6144 823d a862 8e3c 02c0 0abd e366 153d
00000250: 0cc9 4fbc c1e2 cfbc 0259 0c3d e94a 283c
00000260: 2295 84bd a581 1a3d 1358 adbb b454 80bc
00000270: f980 6f3d 8aa5 cbbb 511b fd3c af31 75bd
00000280: 2d96 a9bb 1c55 d33c 685c 44bc 5c22 2bbc
00000290: 3e8f 4ebd 5a39 3f3b eaa1 603d c0e3 8a3c
000002a0: 8950 04bd b3b6 7bbc 3ad1 5bbd 441e acbc
000002b0: d0ec 74bd 49fa 0d3b d170 3cbc 0189 d63b
000002c0: 6bd1 ef3c a647 b3bc 4dd0 eb3c 902f 1ebd
000002d0: 70af 923c 868d cdbc 3887 de3c d219 fcbb
000002e0: b32a 343d 2839 32bd 3a46 5d3d 3df9 853b
000002f0: 333a a3bc 6d20 50bc 6d59 253c 7dd1 9c3c
00000300: d9d7 52bd ede8 8ebc 574d 50bc ac19 43bd
00000310: fa88 02bd 2467 58bc 081f e2bc 3c4a 11bd
00000320: 29de 05bd cbab 4ebd 7b8a 583d 8f8f 1a3c
00000330: 1d2f 67bd 554d dbbb c8b4 a5bc 2fa3 233c
00000340: 3576 c3ba 40fd fbbc 026d 6fbc fd65 923c
00000350: de1d 05bd 5242 6c3d 6c22 db3c 06de 21bd
00000360: 643c c8bc 512a 11bd 420f d0bc 2e45 8bbc
00000370: ea10 f63c 0f73 5e3d cf6c cc3c 0cb2 203d
00000380: 0688 1bbc 4442 813c e9bd 37bc 9930 62bd
00000390: 5a00 2b3c e6cb cf3c dd7c d33b 14e2 b9bc
000003a0: b1df a8bc d411 89bc 3342 3bbd b30f 1cbd
000003b0: 60d8 e63c e49b fc3c 28f9 693d abed f6bc
000003c0: d8d9 70bc c516 2bbd 1fc5 473c e554 4bba
000003d0: beea f63c 6fd9 c5bc 5d23 c13c b504 5e3d
000003e0: b64e f5bc 79bb 7dbc 053c 583b 5177 c6bc
000003f0: db81 bf3b d7e2 4ebd 5183 c3bc 78b1 0c3c

fc1.bias f4 [256]
-0.030210584 -0.067464255 -0.037506305 -0.035323538 -0.062188126 0.0062175514 -0.043621343 0.0066493186
0.009047851 -0.0012100489 -0.061324894 -0.004470133 -0.061554153 0.0018621747 0.004149192 -0.06105509
-0.012138588 -0.03407295 -0.050119914 -0.02928239 0.017120337 0.027154593 -0.063258104 -0.023694305
-0.026785523 0.003976157 -0.03897437 0.011094347 0.04080351 -0.04629939 -0.032297455 -0.06420688
-0.026749318 -0.0072055124 -0.0026617728 0.0014899147 -0.046693183 0.017282179 0.0034033277 -0.060553707
-0.056864675 -0.008775067 -0.028666217 -0.02539683 0.01970645 -0.06613783 -0.037913237 0.017919317
-0.038503077 -0.01777698 -0.032380924 0.03251166 0.009399407 0.002133357 -0.0045093503 -0.059359558
-0.017277056 -0.06321746 -0.011818668 0.008268893 0.00048722865 -0.032129392 -0.025314046 -0.06288954
-0.009410735 0.00016685123 0.011320554 -0.06615717 -0.03230398 -0.03634835 -0.068879515 0.025721181
-0.04389372 -0.063273594 -0.046022248 0.014170615 -0.04538988 -0.07222732 0.029537251 -0.04009116
0.005215837 -0.0024984335 -0.06930113 -0.012234075 -0.01888039 -0.0342079 -0.063700944 -0.049779613
-0.06182553 -0.014896974 -0.018165158 -0.03446533 -0.04810465 -0.026100283 0.009073794 -0.05737209
-0.05386788 0.020499721 0.022531213 -0.028773371 -0.070603006 -0.032225065 -0.013721019 -0.020266348
-0.053422898 -0.029650828 -0.06337253 0.019726248 -0.023108503 -0.01653104 -0.040542323 0.009058934
-0.05010002 -0.040483803 -0.02010021 -0.037625477 -0.028647583 -0.04573907 -0.011215696 -0.030572824
0.030614324 0.0024596567 -0.061481345 -0.034861974 -0.017831925 -0.042025417 0.0135688055 -0.005798521
-0.044206038 -0.044428665 -0.01721758 -0.03197048 -0.054457735 -0.008523947 0.009300287 -0.004905551
-0.068327025 -0.062516734 -0.050744094 -0.015169706 -0.0032828564 -0.06163547 -0.051657677 -0.06152018
-0.06047716 0.01876816 -0.028352592 -0.049660645 -0.030572379 0.0050590746 0.0020462698 -0.05712821
0.016511815 -0.057709176 0.0067691673 -0.025007723 0.013831184 -0.057320956 -0.023281049 0.018509438
-0.06149733 -0.036679648 0.024082081 -0.05624596 -0.03822713 -0.07188171 -0.014902695 -0.038096886
-0.00796881 -0.0010162528 -0.009427191 0.013520565 -0.05004888 -0.01249103 -0.038231645 -0.012016249
0.0146272415 0.02939379 0.00048099045 -0.0012330257 0.01600426 -0.007981614 -0.016624508 -0.010232241
-0.026429547 -0.017908376 -0.016643388 0.03160682 -0.022969374 -0.037364677 -0.050073825 -0.016014261
-0.0171273 0.08288855 -0.016440362 -0.036329616 0.00136432 -0.05619645 -0.007324238 -0.05470808
-0.0058934726 0.013107802 -0.031423796 0.0095617995 0.016187167 -0.016096272 0.011017742 -0.048407983
0.014315659 -0.061656583 0.0036683565 -0.018891972 -0.02628473 0.015333971 0.023974312 0.015597582
-0.0013445598 -0.032262318 -0.040109035 -0.04166033 -0.041656435 -0.07163892 -0.0081424005 0.00045760165
-0.062611066 -0.0064017694 -0.077798985 -0.045592263 0.0033558675 -0.04228687 -0.0004921013 -0.0058360407
-0.0013972211 0.0001650842 -0.0028951312 -0.030702977 -0.051875237 -0.04603716 0.027777288 -0.028323106
-0.04392451 0.0075839143 -0.041530076 -0.03276432 0.0020748074 -0.023724 0.023855098 -0.031996798
0.004089415 0.020683076 -0.013705064 0.0032342502 0.00973028 -0.0455349 0.015042717 -0.006251337
00000000: 307c f7bc b32a 8abd 36a0 19bd 6aaf 10bd
00000010: fab8 7ebd 9abc cb3b 4bac 32bd 87e2 d93b
00000020: 703d 143c 819a 9eba d02f 7bbd 327a 92bb
00000030: 3520 7cbd 3714 f43a f2f5 873b e714 7abd
00000040: eee0 46bc 1490 0bbd 8a4a 4dbd 9fe1 efbc
00000050: f33f 8c3c 4f73 de3c 778d 81bd 8f1a c2bc
00000060: 506d dbbc 6c4a 823b 97a3 1fbd 10c5 353c
00000070: 9521 273d 6ea4 3dbd 564a 04bd e67e 83bd
00000080: 6321 dbbc 381c ecbb 2371 2ebb 3e49 c33a
00000090: 5a41 3fbd 5b93 8d3c 5d0a 5f3b 2a07 78bd
000000a0: efea 68bd 4cc5 0fbc 6ad5 eabc 030d d0bc
000000b0: 6c6f a13c 4573 87bd e94a 1bbd 88cb 923c
000000c0: 67b5 1dbd 07a1 91bc dca1 04bd f22a 053d
000000d0: f8ff 193c cbcf 0b3b 2cc3 93bb 0223 73bd
000000e0: 9d88 8dbc 2878 81bd 16a3 41bc 407a 073c
000000f0: b972 ff39 1c9a 03bd 675f cfbc 3bcc 80bd
00000100: 7c2f 1abc c9f4 2e39 d879 393c 697d 87bd
00000110: 2e51 04bd 02e2 14bd b410 8dbd 3ab5 d23c
00000120: e7c9 33bd 9695 81bd d381 3cbd de2b 683c
00000130: bdea 39bd ebeb 93bd 1bf8 f13c a136 24bd
00000140: 9de9 aa3b c2bc 23bb c0ed 8dbd 6e71 48bc
00000150: 0cab 9abc 951d 0cbd a475 82bd b5e5 4bbd
00000160: c43c 7dbd 7012 74bc 19cf 94bc 852b 0dbd
00000170: 6209 45bd 43d0 d5bc 40aa 143c fffe 6abd
00000180: 91a4 5cbd 08ef a73c 6193 b83c 22b6 ebbc
00000190: 4f98 90bd 6efe 03bd 20ce 60bc 9d05 a6bc
000001a0: f8d1 5abd 4be6 f2bc 75c9 81bd f198 a13c
000001b0: 0b4e bdbc 1b6c 87bc b50f 26bd ec6b 143c
000001c0: ae35 4dbd 58d2 25bd 32a9 a4bc 2c1d 1abd
000001d0: 56ae eabc e458 3bbd 0ac2 37bc dc73 fabc
000001e0: e4ca fa3c 3132 213b ddd3 7bbd 6ecb 0ebd
000001f0: 4214 92bc d822 2cbd b24f 5e3c 8501 bebb
00000200: 6411 35bd d5fa 35bd e20b 8dbc 7af3 02bd
00000210: 130f 5fbd 06a8 0bbc 3b60 183c bfbe a0bb
00000220: 0aef 8bbd c608 80bd 0ad9 4fbd 5c8a 78bc
00000230: 3125 57bb 7975 7cbd 0097 53bd 96fc 7bbd
00000240: e6b6 77bd afbf 993c b243 e8bc f668 4bbd
00000250: ed72 fabc 98c6 a53b b61a 063b 45ff 69bd
00000260: c943 873c 7560 6cbd e4cf dd3b ffdc ccbc
00000270: 319c 623c 61c9 6abd e6b7 bebc 1ba1 973c
00000280: a0e4 7bbd 663d 16bd c947 c53c 2a62 66bd
00000290: 0d94 1cbd b836 93bd 6f2a 74bc 7b0b 1cbd
000002a0: 9d8f 02bc c933 85ba 8174 1abc 5c85 5d3c
000002b0: 0e00 4dbd 2da7 4cbc c998 1cbd cddf 44bc
000002c0: 19a7 6f3c 3fcb f03c 722d fc39 7a9d a1ba
000002d0: 5e1b 833c 51c5 02bc 1f30 88bc 21a5 27bc
000002e0: c782 d8bc 96b4 92bc b757 88bc 2776 013d
000002f0: 452a bcbc b40b 19bd 361a 4dbd 5730 83bc
00000300: 8d4e 8cbc 79c1 a93d f0ad 86bc 5dce 14bd
00000310: fcd2 b23a 402e 66bd 2900 f0bb 9415 60bd
00000320: 081e c1bb 1bc2 563c 3db6 00bd 18a9 1c3c
00000330: f39a 843c 54dc 83bc c283 343c 7347 46bd
00000340: 3a8c 6a3c 9d8b 7cbd cf68 703b 56c3 9abc
00000350: 1353 d7bc 563b 7b3c c765 c43c 008d 7f3c
00000360: f13b b0ba 7e25 04bd 5f49 24bd 06a4 2abd
00000370: f09f 2abd 6db7 92bd b467 05bc 41ea ef39
00000380: 3b3a 80bd efc5 d1bb 1355 9fbd f4be 3abd
00000390: 1dee 5b3b ff34 2dbd 5c00 01ba 423c bfbb
000003a0: f622 b7ba 741a 2d39 3ebc 3dbb cf84 fbbc
000003b0: 217b 54bd 7691 3cbd 328d e33c dc05 e8bc
000003c0: 30ea 33bd 7c82 f83b 711b 2abd e133 06bd
000003d0: 7ef9 073b d658 c2bc c46b c33c 130f 03bd
000003e0: 8000 863b 8e6f a93c 348b 60bc b7f5 533b
000003f0: c16b 1f3c ce82 3abd ba75 763c 04d8 ccbb

fc2.weight f4 [30, 256]
-0.04254631 0.05031211 0.015807047 0.048735686 -0.044963025 3.3830845e-05 0.011164284 -0.038418848
0.038087387 0.023537783 -0.036648545 -0.029930742 0.025087893 0.026770785 -0.015106975 0.0012377059
-0.029177045 -0.06493891 -0.06034637 0.03910717 -0.054251965 0.0391768 0.03466257 -0.00763107
0.0075126453 -0.024967631 -0.020442626 -0.019250864 -0.02403462 -0.039100338 0.040807515 0.005028406
-0.05196128 -0.03780361 0.04603689 -0.00044577647 -0.03295867 0.052337915 -0.030747421 0.030297475
0.048757356 -0.015550142 0.017377723 0.019399676 -0.057434976 0.011815051 -0.051380467 0.05276272
-0.04030333 -0.005578006 -0.042141978 0.042379703 -0.05116431 0.042340215 0.030363163 -0.021167768
0.035679657 -0.017161159 -0.020760765 0.026756976 -0.0077057197 0.022508426 0.015240399 -0.057181906
-0.033870146 -0.0056616887 -0.010824399 0.041452155 -0.036770497 -0.04792501 -0.02934687 0.014967065
0.04260411 0.016607461 -0.062109947 0.048797403 -0.013076252 -0.04136775 -0.046999052 -0.04705403
-0.01525746 -0.0096622 0.0071643535 0.028319066 -0.0010761624 -0.0137420185 -0.048637245 0.016824951
-0.018634768 0.03522239 -0.028029794 -0.017027646 -0.028922636 -0.031373695 -0.0003561565 -0.04828185
0.053084854 -0.013579787 0.045265365 0.02223302 0.047579195 -0.036935784 -0.01395144 -0.039718606
0.001190863 -0.008637049 0.045501623 0.045898546 0.024223221 0.04453037 -0.017689647 0.0026102592
-0.0013489048 -0.033892095 0.010302352 -0.0058229845 -0.042244814 -0.02199394 -0.0049877004 0.043363553
0.015776604 0.0001436163 0.03287798 -0.011153619 -0.012369533 -0.0641825 0.040317737 -0.013173916
-0.039752472 -0.041850965 0.0046988036 -0.043768346 -0.018534947 0.06722784 0.04805229 0.024127569
0.03149005 -0.03758765 0.03006622 -0.04967555 -0.03782522 0.025652729 0.0007989861 -0.056814305
-0.047290646 0.033995897 0.03508852 0.03936565 0.061819084 -0.02143301 -0.04347713 0.031132933
-0.0001410068 0.03315943 -0.027561747 -0.0032924796 0.007957525 -0.033667967 -0.054767918 0.013044019
-0.015131422 -0.029920278 0.008342624 -0.018224545 0.036073126 0.048186637 -0.016699566 -0.011212139
0.04835519 -0.0040408885 -0.011816756 -0.03443981 -0.052036796 -0.060510427 -0.01755737 0.0021580092
0.024589045 0.021177288 -0.0014903382 -0.043737635 0.03976321 -0.032949768 -0.03572059 -0.01623709
0.016539374 0.016125549 -0.034546405 0.012567575 -0.029066691 -0.016815677 -0.008521064 0.019471234
-0.05642345 0.00015801624 -0.0140490765 0.033728216 0.02336843 -0.010116311 0.0052616047 0.007253277
-0.048327457 -0.06444656 0.04025915 -0.037981763 0.040070582 0.02932534 -0.01443092 -0.02734674
-0.06318365 -0.052215636 -0.03987045 0.022234146 -0.0223952 0.011485666 0.013532293 -0.043990154
0.037598092 -0.046591226 0.013159237 0.051497236 -0.049846597 0.035920408 0.013421416 -0.0013350316
-0.056040205 0.03796251 0.037106708 0.0013290042 0.027893022 0.016247619 0.0017727333 0.051409215
-0.028254604 -0.050269596 -0.028617792 -0.0059686285 -0.023429658 -0.042531032 -0.0012473373 -0.0067365346
0.012941473 0.018394945 -0.03509356 -0.035070285 -0.058041442 -0.018951075 0.036100194 -0.0015076449
-0.009315538 0.0041035456 -0.06093521 0.021465434 -0.05268337 0.019977476 -0.036814004 -0.025379287
00000000: 0a45 2ebd 1214 4e3d c87d 813c 129f 473d
00000010: 262b 38bd 98e5 0d38 67ea 363c 155d 1dbd
00000020: 8501 1c3d 4fd2 c03c c91c 16bd 5131 f5bc
00000030: 2085 cd3c 684e db3c 3f83 77bc 853a a23a
00000040: b304 efbc b1fe 84bd c12d 77bd d72e 203d
00000050: 4f37 5ebd da77 203d 57fa 0d3d 0e0e fabb
00000060: a32c f63b eb88 ccbc 4b77 a7bc fdb3 9dbc
00000070: 40e4 c4bc ad27 20bd c825 273d 54c5 a43b
00000080: 5ad5 54bd f5d7 1abd 2e91 3c3d 1bb7 e9b9
00000090: acff 06bd 4860 563d 04e2 fbbc 6932 f83c
000000a0: cbb5 473d 06c6 7ebc ba5b 8e3c 12ec 9e3c
000000b0: f040 6bbd ea93 413c 5374 52bd b91d 583d
000000c0: 1b15 25bd b5c7 b6bb 119d 2cbd 5796 2d3d
000000d0: ab91 51bd ef6c 2d3d 2bbc f83c 0768 adbc
000000e0: d524 123d 8f95 8cbc 7b12 aabc 7231 db3c
000000f0: 4380 fcbb 9763 b83c deb2 793c 9337 6abd
00000100: 6cbb 0abd b085 b9bb d258 31bc bcc9 293d
00000110: a99c 16bd 044d 44bd d968 f0bc 6c38 753c
00000120: a681 2e3d 5f0c 883c 0067 7ebd c9df 473d
00000130: c73d 56bc 3b71 29bd 1482 40bd babb 40bd
00000140: 6dfa 79bc 344e 1ebc f4c2 ea3b 63fd e73c
00000150: 050e 8dba 3426 61bc d937 47bd 7bd4 893c
00000160: f1a7 98bc 5a45 103d bd9e e5bc 907d 8bbc
00000170: 2aef ecbc b481 00bd 84ba bab9 30c3 45bd
00000180: 816f 593d c17d 5ebc 2d68 393d 0622 b63c
00000190: 67e2 423d fa49 17bd 9594 64bc faaf 22bd
000001a0: bb16 9c3a 6982 0dbc e95f 3a3d 1d00 3c3d
000001b0: c76f c63c 7a65 363d e1e9 90bc e210 2b3b
000001c0: bccd b0ba 70d2 0abd 32cb 283c bcce bebb
000001d0: e608 2dbd a32c b4bc dd6f a3bb fb9d 313d
000001e0: f03d 813c b597 1639 10ab 063d abbd 36bc
000001f0: 95a9 4abc 1d72 83bd 3624 253d 69d7 57bc
00000200: 7dd3 22bd eb6b 2bbd 6cf8 993b 7046 33bd
00000210: 9ad6 97bc c0ae 893d 7ad2 443d 2ea7 c53c
00000220: b6fb 003d 82f5 19bd 6f4d f63c 9778 4bbd
00000230: 9eee 1abd ac25 d23c 0d73 513a 1eb6 68bd
00000240: d6b3 41bd 483f 0b3d fbb8 0f3d e03d 213d
00000250: 0236 7d3d 4894 afbc 1315 32bd 7e0a ff3c
00000260: 3adb 13b9 2fd2 073d 2cc9 e1bc a4c6 57bb
00000270: 4760 023c 6ce7 09bd 5354 60bd 95b6 553c
00000280: c9e9 77bc 5f1b f5bc 80af 083c a44b 95bc
00000290: 6ac1 133d 5a5f 453d 87cd 88bc 1fb3 37bc
000002a0: 1710 463d 6e69 84bb 119b 41bc c210 0dbd
000002b0: 8924 55bd c8d9 77bd 79d4 8fbc 636d 0d3b
000002c0: f76e c93c fe7b ad3c 7457 c3ba 3c26 33bd
000002d0: bfde 223d 56f6 06bd c14f 12bd a503 85bc
000002e0: 957d 873c ba19 843c 8880 0dbd 3be8 4d3c
000002f0: 451d eebc 08c1 89bc ef9b 0bbc 2382 9f3c
00000300: 471c 67bd 29b1 2539 192e 66bc 9926 0a3d
00000310: 266f bf3c e2be 25bc 8a69 ac3b e6ac ed3b
00000320: 03f3 45bd 8ffc 83bd c7e6 243d c492 1bbd
00000330: 0d21 243d b23b f03c aa6f 6cbc 4506 e0bc
00000340: 6e66 81bd 10e0 55bd 324f 23bd 6224 b63c
00000350: 2376 b7bc 602e 3c3c 8db6 5d3c 052f 34bd
00000360: 7500 1a3d 71d6 3ebd d799 573c c4ee 523d
00000370: f22b 4cbd 4721 133d 80e5 5b3c 3afc aeba
00000380: 6a8a 65bd 947e 1b3d 34fd 173d fb31 ae3a
00000390: e87f e43c ba19 853c 0f5b e83a 7892 523d
000003a0: 3376 e7bc 7ee7 4dbd dc6f eabc 7c94 c3bb
000003b0: 8eef bfbc 0535 2ebd b27d a3ba 26be dcbb
000003c0: 7908 543c ffb0 963c 44be 0fbd dca5 0fbd
000003d0: ddbc 6dbd 493f 9bbc ccdd 133d 2b9c c5ba
000003e0: 33a0 18bc 0977 863b 3397 79bd 47d8 af3c
000003f0: 84ca 57bd cea7 a33c 48ca 16bd 39e8 cfbc

fc2.bias f4 [30]
0.012197145 -0.003937335 0.0038289346 0.0044556307 -0.020284768 -0.020883627 -0.011682289 0.0017067413
0.0020027212 0.036460705 -0.014832959 0.0036707588 -0.013783718 0.014401015 0.0036133565 0.016727354
0.010148832 -0.00925824 -0.009515691 -0.011275818 0.0055111493 -0.0037090045 -3.5631845e-05 0.006067572
-0.009438662 0.01576384 -0.003240343 0.0010982923 -0.010277167 0.0012594983
00000000: 89d6 473c c304 81bb ddee 7a3b 8a00 923b
00000010: 3e2c a6bc 2414 abbc 1267 3fbc bcb4 df3a
00000020: 1640 033b d257 153d f005 73bc 1d91 703b
00000030: 1bd5 61bc 3cf2 6b3c 10ce 6c3b ce07 893c
00000040: 4947 263c e0af 17bc b3e7 1bbc 35be 38bc
00000050: df96 b43b c512 73bb 6773 15b8 7cd2 c63b
00000060: 9ea4 1abc 2b23 813c ef5b 54bb 93f4 8f3a
00000070: 9061 28bc c015 a53a

fc3.weight f4 [30, 256]
-0.041895445 0.028256498 -0.05328318 -0.012725196 0.03324398 0.02367345 -0.013032456 -0.01658221
-0.036608163 -0.019142779 0.0134993605 -0.010908279 0.011017479 0.012703328 0.022145396 0.048740245
-0.0018845866 -0.012519418 -0.046575066 -0.029665347 0.024723819 0.040403012 -0.04058636 0.003412013
-0.03909963 -0.01818584 -0.023488982 0.011466229 0.01523388 -0.014253156 0.04258245 0.01608434
0.054382324 0.028647898 0.045355815 -0.0063688834 -0.034372825 -0.03413207 0.05711638 0.01683495
-0.05483935 0.03707675 -0.015306218 -0.043239232 -0.0067665162 -0.017332956 0.009186143 -0.002916065
0.02433205 -0.029261192 -0.05275627 -0.048784345 0.010843366 0.032039247 -0.052230872 -0.009430728
0.017695138 0.029785728 0.027421607 0.026895374 0.042824194 0.044315357 -0.03442326 -0.020005437
0.034925815 -0.021264572 0.01672206 0.03710583 -0.021479934 0.028741792 -0.046805423 0.019920826
-0.011628887 -0.054992005 0.032884102 0.029895158 0.03291824 -0.028318956 0.01060316 -0.010482041
0.046146814 -0.020496774 0.038535655 0.039999455 -0.023740498 -0.042611595 -0.013836232 0.011411927
0.04777386 0.001233492 0.002046517 0.014468527 0.023754632 0.026141856 0.046426304 -0.023187656
0.030889548 -0.014858511 0.037619215 -0.02716295 0.033944134 -0.014833624 -0.022599082 0.016057331
-0.03186839 0.0054187183 0.018370422 -0.045055576 0.015280323 -0.060372077 -0.011280034 -0.015474346
-0.041765958 -0.015868016 -0.0062206807 0.042642877 0.040478755 -0.011951577 0.016440263 -0.002878573
0.007186017 -0.032433167 -0.049464155 0.04018904 0.042726982 0.025708381 -0.0573057 -0.017644046
-0.009549726 0.057179473 -0.03991577 -0.043546703 -0.030935783 -0.033972997 0.008581232 0.00045776955
0.0007560551 0.020836566 0.025569575 0.0121236015 0.022653792 0.04008926 -0.01733603 -0.031583343
-0.041621327 0.05649907 -0.0003246473 0.0155180795 -0.06583647 -0.007277626 0.046777435 0.045109473
-0.044863 -0.006325327 -0.01969531 -0.036371373 0.059664678 -0.0491736 -0.041650157 0.027702814
0.0064482247 -0.028433528 -0.047195718 -0.0023580713 -0.005867032 -0.0017894004 -0.023239765 -0.008711792
-0.04214512 0.041754473 0.034486774 -0.0139577165 0.01018162 0.0477734 -0.017330084 -0.01837056
-0.029641882 -0.031096334 -0.050135918 0.042051356 -0.011091787 0.032191012 0.03527723 -0.011997038
0.0013274818 -0.0048265033 0.033860505 0.032123104 -0.043817744 0.020860309 -0.048012767 0.015833536
0.028885765 0.019067643 0.061705288 -0.012829516 -0.026624544 -0.023633556 -0.006426699 -0.028963272
0.040937074 -0.033419017 0.014125851 0.05313187 -0.01600773 0.014159105 0.0542893 0.046166442
0.00062297145 0.018676003 -0.0012421581 -0.019339511 -0.036999926 -0.034752734 0.022239413 0.038175862
-0.06319314 -0.008320943 -0.005211143 -0.042444684 0.049338277 -0.017096419 -0.030292738 0.06429526
0.012739466 0.015783368 -0.007165802 -0.056945037 -0.046149187 -0.048459597 0.012176986 0.057670828
-0.039214887 -0.048341926 -0.004249356 0.032513052 0.014910277 0.030380063 0.053392243 -0.015954997
-0.040344868 0.03160221 0.030936556 0.009594778 -0.037181962 -0.046387482 -0.0041330825 0.0252243
0.044459734 -0.016451923 0.003669036 0.011832949 0.027713347 0.03407787 -0.062008478 -0.05423844
00000000: 8f9a 2bbd 2c7a e73c 773f 5abd 577d 50bc
00000010: d72a 083d d3ee c13c 1586 55bc 6ad7 87bc
00000020: 71f2 15bd 51d1 9cbc 6c2c 5d3c a3b8 32bc
00000030: a882 343c 9f21 503c 436a b53c daa3 473d
00000040: 3c04 f7ba 3f1e 4dbc 7fc5 3ebd be04 f3bc
00000050: 9b89 ca3c a17d 253d e23d 26bd 149c 5f3b
00000060: ef26 20bd 79fa 94bc f76b c0bc dadc 3b3c
00000070: 8697 793c 1286 69bc ef6a 2e3d 4ec3 833c
00000080: 00c0 5e3d ffae ea3c 05c7 393d 11b2 d0bb
00000090: 85ca 0cbd 12ce 0bbd def2 693d 73e9 893c
000000a0: 3a9f 60bd cadd 173d eec6 7abc 9f1b 31bd
000000b0: a7b9 ddbb d8fd 8dbc 7a81 163c 741b 3fbb
000000c0: 0254 c73c 2bb5 efbc f516 58bd 18d2 47bd
000000d0: 60a8 313c 963b 033d 0af0 55bd 5783 1abc
000000e0: 65f5 903c 3301 f43c 47a3 e03c b053 dc3c
000000f0: 6c68 2f3d 0584 353d 67ff 0cbd 71e2 a3bc
00000100: 5f0e 0f3d 0a33 aebc b4fc 883c 48fc 173d
00000110: b0f6 afbc e873 eb3c 0bb7 3fbd 0031 a33c
00000120: 1687 3ebc 4c3f 61bd 7bb1 063d b1e6 f43c
00000130: 47d5 063d 28fd e7bc e0b8 2d3c debc 2bbc
00000140: 7104 3d3d dae8 a7bc 90d7 1d3d 78d6 233d
00000150: 6f7b c2bc 7f89 2ebd 5db1 62bc 17f9 3a3c
00000160: 86ae 433d 20ad a13a dc1e 063b 670d 6d3c
00000170: 1399 c23c 7227 d63c 8229 3e3d 0af4 bdbc
00000180: 140c fd3c 1d71 73bc 9b16 1a3d d684 debc
00000190: 0109 0b3d ba08 73bc b621 b9bc aa8a 833c
000001a0: 6e88 02bd 818f b13b 917d 963c 328c 38bd
000001b0: 525a 7a3c b648 77bd e4cf 38bc 1c88 7dbc
000001c0: c812 2bbd a4fd 81bc dad6 cbbb 4caa 2e3d
000001d0: 0dcd 253d 8cd0 43bc bbad 863c 71a6 3cbb
000001e0: ae78 eb3b a4d8 04bd ed9a 4abd 439d 243d
000001f0: 7d02 2f3d 629a d23c 62b9 6abd 3f8a 90bc
00000200: 7476 1cbc 0635 6a3d b87e 23bd 075e 32bd
00000210: 0a6d fdbc 4527 0bbd 4c98 0c3c ca00 f039
00000220: 0032 463a 72b1 aa3c 4977 d13c 12a2 463c
00000230: 7294 b93c a334 243d 4a04 8ebc 895d 01bd
00000240: 207b 2abd 926b 673d 6c35 aab9 8b3f 7e3c
00000250: 45d5 86bd 2779 eebb b299 3f3d b6c4 383d
00000260: 44c2 37bd b044 cfbb 0f58 a1bc 26fa 14bd
00000270: f362 743d 426a 49bd 5b99 2abd 03f1 e23c
00000280: a14b d33b 6eed e8bc 4c50 41bd df89 1abb
00000290: 3b40 c0bb 508a eaba 5261 bebc e7bb 0ebc
000002a0: 5da0 2cbd bd06 2b3d 0142 0d3d e8ae 64bc
000002b0: cfd0 263c 0aae 433d d2f7 8dbc db7d 96bc
000002c0: 88d3 f2bc bdbd febc 525b 4dbd 0b3e 2c3d
000002d0: 54ba 35bc b9da 033d db7e 103d 398f 44bc
000002e0: e6fe ad3a a527 9ebb 50b1 0a3d 8493 033d
000002f0: 3c7a 33bd 3de3 aa3c 09a9 44bd 55b5 813c
00000300: d7a1 ec3c bf33 9c3c afbe 7c3d e432 52bc
00000310: b71b dabc 299b c1bc 0f97 d2bb 6244 edbc
00000320: a2ad 273d 61e2 08bd 1d70 673c cea0 593d
00000330: a522 83bc 97fb 673c 755e 5e3d 0619 3d3d
00000340: e84e 233a 6bfe 983c e9cf a2ba e56d 9ebc
00000350: 3c8d 17bd e258 0ebd 6e2f b63c 4b5e 1c3d
00000360: 686b 81bd 9154 08bc 3cc2 aabb 7ada 2dbd
00000370: ef16 4a3d ca0d 8cbc 7a28 f8bc 3cad 833d
00000380: 31b9 503c 1f4c 813c 1bcf eabb 333f 69bd
00000390: ee06 3dbd 927d 46bd fb81 473c 3f38 6c3d
000003a0: ca9f 20bd 2f02 46bd 2f3e 8bbb 682c 053d
000003b0: 3c4a 743c 9cdf f83c d3b1 5a3d 0eb4 82bc
000003c0: a940 25bd 5271 013d a96e fd3c 6a33 1d3c
000003d0: 1d4c 18bd cd00 3ebd cf6e 87bb 31a3 ce3c
000003e0: 691b 363d 2fc6 86bc 3674 703b fcde 413c
000003f0: 1a07 e33c 3d95 0b3d 9afc 7dbd 2029 5ebd

fc3.bias f4 [30]
-0.016881498 0.0032158305 -0.006025892 0.025951112 0.022151895 -0.02133866 -0.0020732088 0.0047215577
0.009281638 0.025871066 -0.010708055 0.00054052734 -0.00792771 -0.012199991 0.0026950436 -0.001973122
0.00983942 0.0101402225 0.010147426 -0.0037074047 -0.0051618973 0.0053147655 -0.012236348 -0.019988576
0.0075306506 -0.0018172304 -0.013585105 -0.00930325 -0.022947522 -0.020983646
00000000: 114b 8abc afc0 523b d974 c5bb 6d97 d43c
00000010: e477 b53c 6ace aebc acde 07bb 4cb7 9a3b
00000020: 0312 183c 8fef d33c d770 2fbc 2db2 0d3a
00000030: 3ae3 01bc 79e2 47bc 549f 303b 7e4f 01bb
00000040: 8535 213c 2d23 263c 6441 263c eef7 72bb
00000050: 2225 a9bb 7c27 ae3b f77a 48bc 15bf a3bc
00000060: adc3 f63b 2230 eeba 0f94 5ebc a96c 18bc
00000070: 71fc bbbc e5e5 abbc

fc4.weight f4 [256, 30]
-0.0014509972 -0.0054467525 0.004961405 -0.0019347551 0.008552982 -0.0030284985 -0.0046307896 -0.012498068
0.0009511124 0.011676855 0.017490217 0.011015795 0.018111493 0.011130022 -0.0052803205 -0.006657633
0.005867233 0.016855028 0.012666017 0.0019642815 0.012332773 0.008742602 0.010370616 -0.0110660475
-0.004049446 0.003343305 0.00050296704 -0.0031310054 -0.00038835616 0.012071862 -0.015719041 0.0041906424
-6.901161e-05 0.004014491 -0.00713899 0.0035784289 -0.0347884 -0.003537493 0.008601197 0.009336631
-0.005294204 -0.0013224487 0.008728263 -0.004428244 -0.0015982317 -0.0072528804 0.006898088 0.007330685
-0.012685084 0.0065608043 0.00801475 -0.0043274597 0.008025396 0.0075240154 0.012285737 -0.0077132783
-0.0021258702 -0.0046215993 0.016376885 -0.013466064 -0.036626197 0.008306728 0.0223515 0.03951697
0.026880056 0.0069812387 -0.011405572 0.009861599 -0.034589272 -0.013479811 -0.00054745027 -0.03083829
0.002856172 -0.02630933 -0.0015648812 0.026974881 -0.00031014 -0.0015802613 0.0035583468 0.006936614
0.0014274936 -0.002570895 0.0067035994 0.0103690475 -0.0027137133 0.012096121 0.022852663 -0.0061250217
-0.01818094 0.027608357 -0.0025475733 -0.0044721095 -0.0008309564 -0.0041719223 -0.014001103 -0.010555781
-0.0096420655 0.008251791 -0.0023573784 -0.010490212 -0.007775338 -0.0033590028 -0.0036754012 0.0022154844
0.009898959 0.0025740704 -0.0030344268 -0.019901032 0.0039944937 0.0056564454 -0.009232805 -0.0119044
-0.0037651411 0.017688192 -0.0018181317 -0.0060664676 -0.003908095 0.0072682234 0.0056174397 -0.0038734917
-0.00088245724 -0.008092513 -0.0024710454 0.0025896654 -0.000109178516 -0.005720066 0.0012996052 0.009087738
-0.01512764 -0.0032406054 -0.00020592305 0.0008084632 -0.00039582426 -0.0003595378 -0.0046144035 0.013141267
0.0032996426 -0.0006427698 0.005464822 -0.00011628756 0.0064918743 -7.4403215e-05 0.0036859806 0.010232818
0.0065389886 -0.011605883 -0.0018831353 0.01967524 0.000261174 -0.012336222 0.012492512 0.0054034106
-0.01876215 0.0055779056 -0.01303792 0.0015658055 0.015539065 0.026778404 -0.0040314593 0.019423263
-0.021526026 -0.029015938 -0.0020781565 -0.0016556408 -0.0021050258 0.012277908 -0.008321417 0.015315259
0.0038766789 0.009614703 0.0006814726 -0.021118216 0.012702401 0.0075534936 0.002757361 1.0961802e-05
0.00023719428 0.016436627 0.030582294 -0.0044078217 -0.0031313777 -0.018608008 0.0029512602 0.0056677796
0.0074568633 -0.004637914 4.931657e-05 -0.0060642436 0.0012352932 0.013008613 0.003658912 0.013206825
0.007289681 0.014485737 0.006068749 0.0014461406 -0.0065086815 -0.0016355951 0.008778286 0.0025088773
0.0049716816 0.0023870284 0.011188342 0.0034222736 -0.0038953722 -0.008441024 0.0051364196 -0.0009817238
-0.008352925 -0.0070029795 -0.005516278 0.0059545096 0.010051945 0.011521934 0.0035192627 0.0037044105
-0.00044131026 -0.010613975 0.0009296638 -0.0047426294 -0.0011286406 -0.00060529663 -0.0026198484 -0.015476178
-0.005797617 0.011941776 0.0068925084 0.005130899 -0.002132887 0.016388504 -0.0011846233 -0.002249961
0.0036989602 0.00395858 0.0060293237 0.008731899 0.0067124567 -0.0010200759 0.0007355765 -0.00063226523
-0.015541732 -0.020714773 0.00043583175 0.029089026 0.0014940144 0.0002834275 -0.0014300358 -0.011891203
-0.002550453 -0.0073545096 0.009811903 0.0029236006 -0.010601554 0.002493084 -0.007439773 -0.00060589163
00000000: 632f beba ac7a b2bb 4893 a23b 9c97 fdba
00000010: ce21 0c3c c679 46bb e1bd 97bb b2c4 4cbc
00000020: 1354 793a 4850 3f3c a547 8f3c 987b 343c
00000030: 8e5e 943c b25a 363c 8a06 adbb 4628 dabb
00000040: eb41 c03b 8e13 8a3c 2085 4f3c 2dbb 003b
00000050: 660f 4a3c 213d 0f3c 84e9 293c 5e4e 35bc
00000060: 37b1 84bb 5a1b 5b3b 8cd9 033a 8e31 4dbb
00000070: 489c cbb9 0fc9 453c 38c5 80bc a851 893b
00000080: 53ba 90b8 fe8b 833b 30ee e9bb 1384 6a3b
00000090: 487e 0ebd 49d5 67bb 09ec 0c3c abf8 183c
000000a0: 017b adbb 0456 adba fd00 0f3c ce1a 91bb
000000b0: c27b d1ba 92a9 edbb 5b09 e23b 3e36 f03b
000000c0: 19d5 4fbc 04fc d63b 4c50 033c 5dcd 8dbb
000000d0: f37c 033c 048c f63b 1e4a 493c abbf fcbb
000000e0: 2f52 0bbb c970 97bb d128 863c c4a0 5cbc
000000f0: 5a05 16bd f118 083c 7e1a b73c 8cdc 213d
00000100: 9033 dc3c e0c2 e43b 70de 3abc 8b92 213c
00000110: 7bad 0dbd 6dda 5cbc c482 0fba 95a0 fcbc
00000120: 9d2e 3b3b aa86 d7bc b31c cdba 6dfa dc3c
00000130: 499a a2b9 c520 cfba 2733 693b 894c e33b
00000140: bd1a bb3a 767c 28bb dea9 db3b f0e2 293c
00000150: 8ed8 31bb cf2e 463c 8235 bb3c 68b4 c8bb
00000160: 32f0 94bc ec2a e23c 30f5 26bb c68a 92bb
00000170: 8ad4 59ba 9fb4 88bb e264 65bc 28f2 2cbc
00000180: c1f9 1dbc 8532 073c 3f7e 1abb 23df 2bbc
00000190: 43c8 febb b722 5cbb 00df 70bb a931 113b
000001a0: 3e2f 223c bcb1 283b 3cdd 46bb 7d07 a3bc
000001b0: 3ee4 823b b459 b93b 3145 17bc ac0a 43bc
000001c0: 96c0 76bb d4e6 903c 604e eeba 38c9 c6bb
000001d0: 7a0f 80bb 472a ee3b 8012 b83b 68da 7dbb
000001e0: b454 67ba 7696 04bc 43f1 21bb 60b7 293b
000001f0: c5f6 e4b8 646f bbbb 8457 aa3a bce4 143c
00000200: ecd9 77bc 5660 54bb 0ced 57b9 0cef 533a
00000210: a286 cfb9 5980 bcb9 6c34 97bb 784e 573c
00000220: d13e 583b 8d7f 28ba 4012 b33b 69df f3b8
00000230: cab9 d43b ec08 9cb8 7e90 713b 8da7 273c
00000240: 0345 d63b 9a26 3ebc 89d3 f6ba f82d a13c
00000250: 2eee 8839 de1d 4abc 65ad 4c3c 180f b13b
00000260: 15b3 99bc ddc6 b63b 009d 55bc b73b cd3a
00000270: 9097 7e3c 625e db3c 551a 84bb 891d 9f3c
00000280: 5957 b0bc d5b2 edbc ae31 08bb 1602 d9ba
00000290: 79f4 09bb 4729 493c 8d56 08bc daec 7a3c
000002a0: e10f 7e3b fd86 1d3c daa4 323a 1c00 adbc
000002b0: bb1d 503c 4c83 f73b d7b4 343b 95e8 3737
000002c0: 5bb7 7839 1ba6 863c b887 fa3c 7d6f 90bb
000002d0: cd37 4dbb d26f 98bc ee69 413b c8b8 b93b
000002e0: b458 f43b a4f9 97bb 44d9 4e38 90b6 c6bb
000002f0: 90e9 a13a 1422 553c 5bca 6f3b 7061 583c
00000300: 47de ee3b 9655 6d3c 5bdc c63b 6d8c bd3a
00000310: c746 d5bb 7761 d6ba cdd2 0f3c fa6b 243b
00000320: 7de9 a23b b16f 1c3b 4f4f 373c 3948 603b
00000330: 8049 7fbb 394c 0abc 694f a83b 2fad 80ba
00000340: b5da 08bc 4079 e5bb e5c1 b4bb 0c1e c33b
00000350: eab0 243c 7ec6 3c3c 6ea3 663b b2c5 723b
00000360: a95f e7b9 3de6 2dbc aeb4 733a 0f68 9bbb
00000370: e5ee 93ba c5ac 1eba c3b1 2bbb cc8f 7dbc
00000380: f0f9 bdbb 70a7 433c 8dda e13b 1a21 a83b
00000390: e8c7 0bbb 2f41 863c 5d45 9bba 1574 13bb
000003a0: 416a 723b fab6 813b a291 c53b 3d10 0f3c
000003b0: 2bf4 db3b 11b4 85ba b4d3 403a 9abe 25ba
000003c0: c0a2 7ebc 07b2 a9bc 5980 e439 1c4c ee3c
000003d0: ced2 c33a ff98 9439 0a70 bbba 52d3 42bc
000003e0: 8025 27bb 19fe f0bb 1bc2 203c e199 3f3b
000003f0: 24b2 2dbc 0263 233b 57c9 f3bb b3d4 1eba

fc4.bias f4 [256]
-0.008075415 0.18111126 0.23542254 0.005509966 0.014568645 0.21105433 -0.0013503986 -0.008610659
0.06360943 -0.015878668 0.0016275499 0.19869491 -0.009683488 0.18856515 0.0010623039 0.0042473134
-0.0065497407 0.23228596 0.0029788024 0.084535204 -0.0023688434 -0.048874382 0.000623833 0.1257294
0.021150537 -0.043588948 0.00044501794 -0.22784196 -0.13776532 0.01215302 -0.002738838 -0.0030957835
-0.0076709073 0.1969224 0.002034763 -0.008933273 0.05617705 0.010775193 -0.0982284 -0.17891215
-0.0011874164 -0.007241293 0.03486994 0.0028990482 0.14842801 -0.0012879724 -0.16377127 0.02469252
-0.01887614 0.0633446 -0.0061520794 -0.09840296 0.00564689 -0.00025660452 0.0088471025 0.0070368256
0.00023800369 -0.010385437 0.026675716 -0.30917162 -0.0034898773 0.049681738 0.014963578 -0.11544557
-0.00091297436 -0.0023705997 -0.006517507 -0.0013080161 -0.30043095 0.0009409758 -0.00035338307 -0.0009729436
0.005835626 -0.2004914 0.0006431345 0.02001483 0.120424375 -0.012550195 -0.015874295 0.003141846
-0.18607605 0.026358956 0.011611796 -0.012976691 -0.009206463 -0.0013001877 0.16637659 0.022232825
-0.0011667962 -0.13391358 -0.043011747 0.10694606 -0.1932783 0.24490875 -0.056996323 0.008902453
0.009294208 0.004672733 0.007059261 0.065891735 -0.05432132 -0.011194031 -0.0019821608 0.0027529814
0.040372793 0.043238003 -0.0018552956 0.001406244 0.0012097603 -0.002401013 -0.027251415 0.0012666862
0.27525336 0.009266315 -0.011595655 0.18246816 -0.0007329943 0.0054675313 0.0035587242 -0.0063461773
-0.0011049875 0.0038171557 -0.008631996 0.0036374987 -0.0044756117 -0.017158404 -0.0018676927 0.008211515
-0.11282413 -0.0005578482 0.0051456233 -0.06986908 -0.04324949 0.11677953 0.12128083 0.015315171
0.01338997 0.002782097 0.121645205 -0.0049781976 -0.121409714 0.2285629 -0.18551992 -0.0030418024
0.19757977 0.013430685 -0.0028675434 0.00018085334 0.003553163 0.121915214 -0.18390886 -0.0018243146
-0.023747107 -0.005920545 -0.22288944 -0.0024771674 -0.00046864175 0.020468345 -0.002055999 0.112039566
-0.0075530014 0.00884235 -0.2484605 0.0014232941 -0.12693565 0.004097819 -0.0041071624 0.007446711
0.006190648 -0.0033620128 -0.0117613245 0.19019066 0.035534885 -0.0015400233 0.004423376 0.12270132
0.09597545 -0.0073465738 0.008459737 0.0003937295 0.18893799 -0.0059842765 0.14565077 -0.0033034552
-0.00060067454 0.1997217 0.0031455788 0.015848825 -0.012775114 0.2618889 0.0073385653 -0.1136216
0.0018346466 0.00894278 0.053906392 0.0033762138 0.1784266 0.0014570077 -0.009473149 -0.0053394437
0.16996683 0.0010307527 -0.019384334 0.0026424916 0.13754599 0.15564807 0.17857051 0.014158558
-0.0039352886 0.10845616 0.033415526 -0.15439956 -0.015633073 -0.015485879 0.21488228 -0.19592929
0.00016331475 -0.10798703 0.0059140446 -0.051962286 0.00958079 0.029962016 -0.054495666 0.06547289
-0.0010550589 -0.0043160953 0.0031564438 0.004287235 0.018433392 0.0050041834 0.0016820043 -0.0039183376
0.00032001483 -0.01230015 0.029879909 -0.001471118 -0.22875045 -0.13264811 0.001423628 0.0005409848
-0.013425702 -0.00049991044 0.21527737 0.025932632 0.1868288 -0.00544562 0.15199697 0.0153571805
-0.020371322 0.005179401 -0.0012439998 0.15953268 -0.015097904 0.03667201 -0.03377223 0.01107014
00000000: bf4e 04bc 3b75 393e 9b12 713e f28c b43b
00000010: 53b1 6e3c a01e 583e dcff b0ba b913 0dbc
00000020: a945 823d fb13 82bc 8353 d53a ae76 4b3e
00000030: 7ea7 1ebc 3917 413e 013d 8b3a 0c2d 8b3b
00000040: 359f d6bb 5fdc 6d3e 0338 433b cb20 ad3d
00000050: 993e 1bbb 8130 48bd b988 233a 35bf 003e
00000060: e443 ad3c 538a 32bd 4c51 e939 674f 69be
00000070: 5a12 0dbe 761d 473c 147e 33bb a1e2 4abb
00000080: 3c5c fbbb 07a6 493e a959 053b dd5c 12bc
00000090: e819 663d 6f8a 303c f92b c9bd bf34 37be
000000a0: 15a3 9bba 5e48 edbb c8d3 0e3d f5fd 3d3b
000000b0: 83fd 173e 2fd1 a8ba a8b3 27be f847 ca3c
000000c0: 22a2 9abc d0ba 813d 6297 c9bb 7e87 c9bd
000000d0: 8c09 b93b e088 86b9 70f3 103c 2c95 e63b
000000e0: a190 7939 ae27 2abc 0887 da3c be4b 9ebe
000000f0: 6db6 64bb 147f 4b3d cc29 753c ba6e ecbd
00000100: ac54 6fba 105c 1bbb d090 d5bb bd71 abba
00000110: 16d2 99be d1ab 763a 4646 b9b9 240d 7fba
00000120: c738 bf3b 9e4d 4dbe 0798 283a 24f6 a33c
00000130: 0ea1 f63d 559f 4dbc cf0a 82bc 6ee7 4d3b
00000140: b88a 3ebe bdee d73c 673f 3e3c 309c 54bc
00000150: b4d6 16bc 0f6b aaba a05e 2a3e 9d21 b63c
00000160: 2fef 98ba a420 09be 162d 30bd 8906 db3d
00000170: bfea 45be 5cc9 7a3e fa74 69bd 98db 113c
00000180: bc46 183c ba1d 993b 6051 e73b 3ff2 863d
00000190: 0880 5ebd 2b67 37bc 24e7 01bb 5d6b 343b
000001a0: f15d 253d 551a 313d 642d f3ba b851 b83a
000001b0: d290 9e3a 505a 1dbb 5c3e dfbc f006 a63a
000001c0: 02ee 8c3e bed1 173c b4fb 3dbc efd8 3a3e
000001d0: 6a26 40ba fa28 b33b 7c39 693b 98f3 cfbb
000001e0: 3ad5 90ba 3f29 7a3b 376d 0dbc 1a63 6e3b
000001f0: 27a8 92bb c88f 8cbc 5ecd f4ba 9789 063c
00000200: 5610 e7bd 8f3c 12ba 9e9c a83b 8517 8fbd
00000210: 6126 31bd 1b2a ef3d 1562 f83d 7cec 7a3c
00000220: 9b61 5b3c d853 363b 1f21 f93d 2620 a3bb
00000230: a8a5 f8bd 650c 6a3e eff8 3dbe fa58 47bb
00000240: 5a52 4a3e 600c 5c3c 65ed 3bbb 73a3 3d39
00000250: 2fdc 683b afae f93d 9b52 3cbe d71d efba
00000260: 4b89 c2bc 2201 c2bb 213d 64be f957 22bb
00000270: 08b4 f5b9 3bad a73c f0bd 06bb 0075 e53d
00000280: 2b7f f7bb 81df 103c 6e6c 7ebe d38d ba3a
00000290: 6bfb 01be ff46 863b 6095 86bb 8a03 f43b
000002a0: ebda ca3b 3755 5cbb 92b2 40bc 57c1 423e
000002b0: 078d 113d 9bda c9ba f8f1 903b d44a fb3d
000002c0: c78e c43d 87bb f0bb b59a 0a3c 7b6d ce39
000002d0: f678 413e c017 c4bb 7a25 153e c87e 58bb
000002e0: 9676 1dba d883 4c3e 0e26 4e3b 65d5 813c
000002f0: b64e 51bc 4d16 863e 5978 f03b 71b2 e8bd
00000300: 8678 f03a bd84 123c f3cc 5c3d 7843 5d3b
00000310: 76b5 363e 11f9 be3a 4435 1bbc 80f6 aebb
00000320: c90b 2e3e 521a 873a e5cb 9ebc a72d 2d3b
00000330: dbd8 0c3e 3562 1f3e 30db 363e 4cf9 673c
00000340: 98f3 80bb 431e de3d b8de 083d eb1a 1ebe
00000350: ee10 80bc 7cb8 7dbc 1a0a 5c3e b0a1 48be
00000360: 783f 2b39 4e28 ddbd 9aca c13b 68d6 54bd
00000370: bff8 1c3c e772 f53c d936 5fbd a716 863d
00000380: e749 8aba 086e 8dbb 57dc 4e3b ef7b 8c3b
00000390: a001 973c 22fa a33b b376 dc3a 6665 80bb
000003a0: aac7 a739 9186 49bc b6c6 f43c 87d2 c0ba
000003b0: 8f3d 6abe e8d4 07be 0799 ba3a e0d0 0d3a
000003c0: 7af7 5bbc 6c0c 03ba ac71 5c3e ac70 d43c
000003d0: 0d50 3f3e 2c71 b2bb 18a5 1b3e af9c 7b3c
000003e0: c2e1 a6bc f7b7 a93b b50d a3ba 895c 233e
000003f0: 335d 77bc 6435 163d c054 0abd 885f 353c

fc5.weight f4 [384, 256]
0.0013241089 -0.00078917417 0.005326396 -0.013407364 -0.004549864 -0.0040813745 0.0033499917 0.0092354575
0.0003864141 -0.006625836 0.010510023 -0.013776799 -0.023797374 0.013578305 0.004880051 -0.009998906
-0.0030439186 -0.0059764506 -0.012235912 -0.0005755043 -0.0102487225 0.005152493 -0.00449777 0.008327457
0.0112696495 0.0064239292 0.024360878 -0.0015226544 0.0010118978 -0.014899576 0.019769948 -0.015100181
0.010634562 -0.0035665333 -0.0012608335 0.0027578329 0.006288605 0.006442412 0.005160827 0.0009663267
-0.013891252 0.0040291715 0.012148295 -0.012528038 0.0065249284 0.015963513 -0.006020866 -0.014736933
0.0030376648 -0.0090239635 -0.01075394 0.0053712204 0.011286779 0.017027812 0.0033978447 -0.0012760567
-0.0107901385 0.020683903 0.012474641 -0.006777674 0.011428181 0.0060151205 0.0012194689 0.0041356045
0.008412619 -0.0031269237 -0.01173806 -0.015109187 0.0009103807 -0.004148427 -0.024901379 -0.02645935
-0.00089378236 -0.0054306574 -0.0023355123 0.009549197 -0.00410601 -0.018633464 0.0027512973 -0.0038396972
0.020513587 -0.019728336 0.0032718298 -0.016564595 -0.016311629 0.018891064 -0.0064227963 -0.006836875
0.004108548 -0.011951431 0.010932369 -0.008638541 -0.0013418463 -0.0011595218 -0.020694856 -0.011987243
0.0062548094 0.021601258 0.02044244 -0.010585141 -0.020700108 -0.01588992 0.003234885 0.009648143
-0.0016301724 -0.0028892003 -0.0023439634 0.024176553 -0.023974916 -0.008967736 -0.008358203 0.015985481
-0.00082685996 0.011585234 3.9686292e-06 0.0002801582 0.0131772915 -0.00481253 0.022771824 0.0027190065
0.017280646 0.031868268 -0.00022157462 -0.0072126533 0.007491269 -0.0060475916 0.018463485 -0.014172667
-0.013380906 0.01179975 0.013189097 -0.012786983 0.0014891443 -0.0056290077 -0.019013414 -0.0021352568
0.010281953 0.016229844 0.005546613 -0.007538206 0.0024517626 -0.000108285996 -0.0013136194 0.008651842
0.004872659 -0.014137977 -0.007588876 -0.0016734765 -0.023553317 7.8620964e-05 0.00057737425 0.020436954
0.0015732899 -0.00398531 0.0024361962 0.003956699 -0.035805594 0.017834025 0.010227793 -0.0024155783
0.009988116 -0.012983085 -0.0022285825 0.015585895 -0.014579085 -0.021871887 0.013828935 -0.0271784
0.009262522 0.022367168 -0.0036898484 -0.010402989 -0.007109285 0.007915876 -0.006788502 -0.0027118071
-0.0035565342 0.032762922 -0.010345099 0.006279261 0.0013922731 -0.03459436 -0.0022858307 -0.0049406327
0.019803789 0.007001106 -0.0031750523 -0.012268041 0.014515439 0.0008236352 -0.017206578 0.009532997
0.005564798 0.00030652471 -0.015444497 -0.006766806 0.0014499937 -0.009072081 -0.008645722 0.026323566
-0.002803351 -0.01946118 0.0048421216 0.027874004 0.0070870733 -0.002644746 0.0014159417 -0.008148669
0.00060452137 0.020954758 0.0013099094 0.0012225837 0.014732545 -0.0010682044 -0.002703669 -0.00632213
0.031439494 0.0008881316 0.008514915 0.0005986565 0.010338387 -0.0032921769 -0.0034500621 -0.004880194
-0.014316479 -0.0023127086 -0.009471588 -0.0070184376 -0.006482989 -0.0039219763 -0.0012624094 0.0021685287
-0.0060596196 0.0027649482 0.02134133 -0.013654661 0.0075702895 0.00371182 0.008125275 -0.005431699
0.0025806231 -0.0019946522 -0.005267701 -0.0042732046 0.008324857 0.0018528249 0.00075763365 0.023862246
0.005237863 0.005573552 -0.007853478 0.0035217018 0.000724715 0.007103026 0.00978233 0.0029862425
00000000: b98d ad3a 95e0 4eba 0c89 ae3b 8faa 5bbc
00000010: 0717 95bb 0dbd 85bb 898b 5b3b 5150 173c
00000020: 9f97 ca39 8a1d d9bb 3b32 2c3c 15b8 61bc
00000030: b6f2 c2bc 8a77 5e3c d6e8 9f3b 74d2 23bc
00000040: 7b7c 47bb 1ad6 c3bb 2279 48bc 71dd 16ba
00000050: 42ea 27bc 3ed6 a83b 0862 93bb e36f 083c
00000060: 56a4 383c d37f d23b 7790 c73c ce93 c7ba
00000070: a8a1 843a 5a1d 74bc 96f4 a13c c066 77bc
00000080: 963c 2e3c 80bc 69bb 8d42 a5ba c2bc 343b
00000090: a410 ce3b de1a d33b 281c a93b 1651 7d3a
000000a0: 2298 63bc 2407 843b a409 473c 6642 4dbc
000000b0: 11cf d53b eac5 823c af4a c5bb 2d73 71bc
000000c0: 8f13 473b 3fd9 13bc 4b31 30bc 1001 b03b
000000d0: 2fec 383c e97d 8b3c 60ae 5e3b 5c41 a7ba
000000e0: 1fc9 30bc 4a71 a93c 7062 4c3c 4017 debb
000000f0: 443d 3b3c 7d1a c53b 96d6 9f3a f783 873b
00000100: 15d5 093c 13ed 4cbb fe50 40bc 868c 77bc
00000110: 9da6 6e3a 87ef 87bb fafd cbbc 47c1 d8bc
00000120: b84c 6aba a8f3 b1bb 650f 19bb 3c74 1c3c
00000130: b58b 86bb 35a5 98bc 1c4f 343b 6ea3 7bbb
00000140: 1c0c a83c 529d a1bc 326c 563b 79b2 87bc
00000150: f79f 85bc 6fc1 9a3c 5276 d2bb dd07 e0bb
00000160: 00a1 863b efcf 43bc ae1d 333c ab88 0dbc
00000170: e4e0 afba 18fb 97ba 4288 a9bc 2466 44bc
00000180: 25f5 cc3b 1ff5 b03c e776 a73c 4d6d 2dbc
00000190: 4693 a9bc 942b 82bc 5d00 543b 3f13 1e3c
000001a0: 82ab d5ba bd58 3dbb 2e9d 19bb e80d c63c
000001b0: 0b67 c4bc 69ed 12bc d8f0 08bc fcf3 823c
000001c0: a2c1 58ba fecf 3d3c 442a 8536 32e2 9239
000001d0: 91e5 573c 6db2 9dbb fa8b ba3c 5c31 323b
000001e0: 2490 8d3c 4d88 023d 7c56 68b9 1f58 ecbb
000001f0: 5279 f53b e02a c6bb bc40 973c 7934 68bc
00000200: 963b 5bbc bd53 413c 1517 583c 7e80 51bc
00000210: 642f c33a 8a73 b8bb 05c2 9bbc aaef 0bbb
00000220: a375 283c 73f4 843c 5dc0 b53b 0e03 f7bb
00000230: c0ad 203b 9a17 e3b8 c12d acba 75c0 0d3c
00000240: d4aa 9f3b f9a2 67bc 1bac f8bb 8e58 dbba
00000250: e3f2 c0bc 4fe1 a438 ee5a 173a 666b a73c
00000260: d936 ce3a 3497 82bb 97a8 1f3b 32a7 813b
00000270: e3a8 12bd a918 923c 7992 273c ae4e 1ebb
00000280: 32a5 233c 01b7 54bc 690d 12bb fb5b 7f3c
00000290: 1ddd 6ebc ac2c b3bc c292 623c 3ca5 debc
000002a0: d5c1 173c 5a3b b73c 62d1 71bb 4c71 2abc
000002b0: 01f5 e8bb 97b1 013c 1572 debb 93b8 31bb
000002c0: be14 69bb 6a32 063d 7d7e 29bc 42c2 cd3b
000002d0: ef7c b63a d1b2 0dbd e0cd 15bb 08e5 a1bb
000002e0: 8e3b a23c 8969 e53b 8a14 50bb e5ff 48bc
000002f0: 2ad2 6d3c 39e9 573a cff4 8cbc 4a30 1c3c
00000300: e958 b63b 0db5 a039 ea0a 7dbc 15bc ddbb
00000310: b70d be3a 11a3 14bc c9a6 0dbc 85a4 d73c
00000320: 6db8 37bb 0d6d 9fbc a9aa 9e3b 0658 e43c
00000330: ae3a e83b 7a53 2dbb 1f97 b93a ff81 05bc
00000340: be78 1e3a 50a9 ab3c 44b1 ab3a 1a3f a03a
00000350: c660 713c fe02 8cba 0a30 31bb df29 cfbb
00000360: b3c6 003d 81d1 683a 2482 0b3c 28ef 1c3a
00000370: 5762 293c 90c1 57bb 701a 62bb 09ea 9fbb
00000380: aa8f 6abc d090 17bb b82e 1bbc ecfa e5bb
00000390: 416f d4bb ec83 80bb 6e77 a5ba e01d 0e3b
000003a0: c68f c6bb 2234 353b 03d4 ae3c cdb7 5fbc
000003b0: 3110 f83b 0242 733b e01f 053c 65fc b1bb
000003c0: ac1f 293b b6b8 02bb ae9c acbb 3d06 8cbb
000003d0: fb64 083c 7dda f23a ef9b 463a c27a c33c
000003e0: 61a2 ab3b 58a2 b63b e0ab 00bc 5acc 663b
000003f0: cdfa 3d3a 80c0 e83b 1146 203c d6b4 433b
