customized/model/trained_model/vae/vae_z_2batch_64_test_blur.pth (torch, 848862 bytes, 10 tensors)

fc1.weight f4 [256, 408]
0.03148856 0.028796071 -0.01092969 -0.027992235 -0.04658522 0.011700762 0.014816501 0.0090326
0.032036677 0.069079876 -0.028723564 0.02983987 -0.03981195 0.033871688 -0.024789613 0.053757086
0.042140808 0.03233236 -0.03441333 -0.02097335 0.03458349 0.02484019 0.015372392 0.009802132
-0.008414693 -0.03608565 -0.0009365258 0.032378756 0.033636797 0.02412047 0.009298374 0.008197786
0.048106346 -0.029553019 0.03234153 0.021829125 -0.03198002 0.023618015 0.011862552 0.015187476
-0.028123021 0.002951491 -0.0429755 -0.036981087 0.025883267 -0.019692548 -0.01061543 -0.02899127
-0.039768033 0.03507664 -0.0368988 0.024890145 -0.056825694 -0.015600681 0.036822263 -0.038605988
0.00049855624 -0.02302994 0.012952788 0.025065262 0.025863051 -0.018367277 -0.008711777 -0.0415136
-0.0259606 0.009539976 0.029698828 0.027047582 -0.011517628 0.048441384 0.03635223 0.015763223
-0.03185898 -0.014518267 0.05066755 0.024638265 0.042374205 -0.06558316 -0.03123003 0.01719086
-0.0031680313 0.03293228 -0.026423952 -0.05003365 0.04539587 0.048748754 -0.004692039 -0.039686296
0.0025230537 -0.0011493819 0.038154867 0.03243384 0.044221513 0.028044233 -0.019588105 0.029772997
0.015313146 0.026745241 -0.016974289 0.00212191 -0.004090757 0.019529475 -0.036905393 0.0005221922
0.04027942 0.013078171 -0.044753935 -0.038014945 0.013295893 -0.008207229 0.050344847 0.003424213
0.025360933 0.040556684 0.03509846 0.017548295 -0.010492623 -0.01686702 0.055923123 -0.033105083
-0.03985419 0.03094466 0.0025122508 0.051968712 -0.00034118886 0.0066984873 0.042118277 -0.016180096
0.038424414 -0.036959916 -0.008597185 -0.0257023 0.017867148 -0.0028285712 -0.02991399 -0.048724007
-0.06577921 -0.019804703 0.029499393 0.03759602 0.02202193 0.042257003 -0.021090146 0.0008449429
-0.0419796 0.040770646 0.035327002 0.02004701 -0.015161538 -0.04444815 -0.024280382 0.005061286
0.002701869 0.05230675 0.035503898 0.033356003 0.028632948 -0.04461371 -0.029174583 -0.04366107
0.022573473 0.016194645 0.018712841 -0.02575243 -0.020313567 0.025639946 0.03141217 -0.05436827
0.031401917 0.00504056 0.021681327 -0.04135666 0.053900763 0.06979487 0.01888051 0.03954255
0.017061396 0.04603008 -0.027137212 0.008992658 -0.023646232 -0.003328038 0.042436104 -0.040385578
-0.031677473 0.03965035 -0.045720465 0.027571056 0.0112645 0.009484395 0.022481326 -0.02785658
0.023252677 -0.048274215 0.017495519 0.004093237 -0.004673358 -0.014113231 -0.032667182 3.681778e-05
-0.020394525 0.047894288 0.017521549 0.0009802064 -0.028915524 0.022550719 -0.04211439 -0.013571577
-0.03410937 0.018560767 0.019208556 -0.033053525 -0.020100325 -0.022121748 0.0014076068 0.026544942
-0.05083667 -0.041456528 0.0071912794 -0.040578645 0.035476394 -0.030723052 -0.04682748 0.03055932
-0.04465311 0.043044392 0.04473189 -0.02971727 0.019818751 0.027506871 -0.016670903 0.019489245
0.0045406125 0.06340623 0.029498888 -0.013492342 0.002127001 -0.041791096 0.017739408 -0.03341514
0.04043421 -0.00041799492 -0.0037100369 -0.0043900358 -0.0011234378 -0.0049125063 0.046635564 -0.010854121
-0.015640251 -0.0027119676 0.055368207 0.03554436 0.0051459284 -0.00081816874 -0.019881338 0.071250446
00000000: 26fa 003d bde5 eb3c 7112 33bc f94f e5bc
00000010: 25d0 3ebd 8eb4 3f3c e9c0 723c 78fd 133c
00000020: e438 033d c079 8d3d ae4d ebbc be72 f43c
00000030: db11 23bd 0abd 0a3d 9613 cbbc 6430 5c3d
00000040: d79b 2c3d f06e 043d fef4 0cbd 4ed0 abbc
00000050: 6ba7 0d3d a77d cb3c 7cdc 7b3c 1f99 203c
00000060: c8dd 09bc 8cce 13bd 2f81 75ba 969f 043d
00000070: bdc6 093d 4b98 c53c 3558 183c 0250 063c
00000080: 290b 453d 2c19 f2bc 8d78 043d fed2 b23c
00000090: 7bfd 02bd 917a c13c 265b 423c e4d4 783c
000000a0: 4062 e6bc cd6d 413b 1407 30bd 7b79 17bd
000000b0: 2509 d43c 4452 a1bc 57ec 2dbc 1a7f edbc
000000c0: cee3 22bd 86ac 0f3d 3223 17bd 6be6 cb3c
000000d0: 0fc2 68bd 009a 7fbc f1d2 163d 5021 1ebd
000000e0: 8bb1 023a 49a9 bcbc ee37 543c aa55 cd3c
000000f0: c0de d33c f976 96bc d7bb 0ebc 2a0a 2abd
00000100: 53ab d4bc 8f4d 1c3c f54a f33c e492 dd3c
00000110: 6fb4 3cbc 796a 463d 13e6 143d e021 813c
00000120: 907e 02bd 06de 6dbc c788 4f3d 30d6 c93c
00000130: 9390 2d3d 7750 86bd 1fd6 ffbc d9d3 8c3c
00000140: bf9e 4fbb 00e4 063d 0b77 d8bc 16f0 4cbd
00000150: 05f1 393d c6ac 473d adbf 99bb 198e 22bd
00000160: d159 253b dba6 96ba 4748 1c3d 59d9 043d
00000170: 9e21 353d 05bd e53c 3c77 a0bc 80e6 f33c
00000180: fde3 7a3c d618 db3c aa0d 8bbc be0f 0b3b
00000190: c20b 86bb 47fc 9f3c 1c2a 17bd bae3 083a
000001a0: 08fc 243d d345 563c e74f 37bd 8fb5 1bbd
000001b0: 04d7 593c 9d77 06bc 6636 4e3d c368 603b
000001c0: bbc1 cf3c c41e 263d 67c3 0f3d 71c1 8f3c
000001d0: 40e9 2bbc b42c 8abc a50f 653d 3299 07bd
000001e0: 263e 23bd a87f fd3c 93a4 243b 25dd 543d
000001f0: 98e1 b2b9 fc7e db3b 3784 2c3d 1f8c 84bc
00000200: eb62 1d3d 4863 17bd 35db 0cbc a18d d2bc
00000210: 205e 923c 8d5f 39bb 2f0e f5bc d392 47bd
00000220: 40b7 86bd 793d a2bc b6a8 f13c 49fe 193d
00000230: 5667 b43c ae15 2d3d 3ec5 acbc 287f 5d3a
00000240: cdf2 2bbd 1fff 263d 0cb3 103d a139 a43c
00000250: 1968 78bc 430f 36bd a7e7 c6bc 25d9 a53b
00000260: d711 313b 9a3f 563d 896c 113d 4ea0 083d
00000270: a58f ea3c debc 36bd 89ff eebc f3d5 32bd
00000280: 01ec b83c a2aa 843c ac4b 993c c3f6 d2bc
00000290: a368 a6bc dd0a d23c 0caa 003d 43b1 5ebd
000002a0: 4c9f 003d 482b a53b 0a9d b13c 9a65 29bd
000002b0: 0cc7 5c3d 9df0 8e3d 4dab 9a3c 5ef7 213d
000002c0: 57c4 8b3c 0a8a 3c3d dc4e debc f155 133c
000002d0: beb5 c1bc 361b 5abb 7bd1 2d3d 596b 25bd
000002e0: 3dc0 01bd 6868 223d 6245 3bbd b2dc e13c
000002f0: bd8e 383c 7064 1b3c c22a b83c 7c33 e4bc
00000300: 667c be3c 2fbb 45bd c352 8f3c 9020 863b
00000310: f822 99bb 2e3b 67bc 06ce 05bd ca6c 1a38
00000320: 6b12 a7bc cd2c 443d 5a89 8f3c 457a 803a
00000330: 40e0 ecbc 49bc b83c 2380 2cbd 525b 5ebc
00000340: 44b6 0bbd c00c 983c 435b 9d3c 2263 07bd
00000350: 70a9 a4bc ab38 b5bc 727f b83a c774 d93c
00000360: 1d3a 50bd 52ce 29bd d3a4 eb3b cb35 26bd
00000370: b24f 113d e9ae fbbc 2cce 3fbd 8a57 fa3c
00000380: 2ee6 36bd 514f 303d c938 373d a271 f3bc
00000390: ef5a a23c 1756 e13c 6b91 88bc e9a7 9f3c
000003a0: 6bc9 943b 20db 813d a7a7 f13c fc0e 5dbc
000003b0: 2865 0b3b 242d 2bbd 3c52 913c 50de 08bd
000003c0: 589e 253d 5426 dbb9 1724 73bb 4ada 8fbb
000003d0: 5140 93ba 17f9 a0bb ef04 3f3d 7cd5 31bc
000003e0: fc1f 80bc 44bb 31bb c6c9 623d f696 113d
000003f0: 2d9f a83b 607a 56ba 30de a2bc c1eb 913d

fc1.bias f4 [256]
0.021479558 -0.049257755 -0.054530114 0.023713328 -0.022725126 0.024219196 0.02942495 -0.027388837
-0.04128993 -0.029312762 -0.04187198 0.036534037 -0.052502535 0.011057774 -0.040058024 -0.01974063
-0.005157047 -0.029382387 0.041301865 -0.0060858685 0.015535968 0.025370352 0.022113519 -0.0050147865
-0.028290479 -0.008011366 -0.0020552748 -0.03784912 0.00330436 -0.045693155 -0.0265439 -0.030364284
-0.0135397045 -0.037964273 -0.04096156 -0.059615083 0.03316451 -0.03168535 -0.056767967 0.014622367
0.0070152027 -0.042955697 -0.057745814 0.0055720657 -0.024368692 0.038055435 0.017493064 -0.012331364
-0.0020283218 -0.059369743 -0.011802523 -0.04009418 -0.010717512 -0.03897168 -0.006890702 -0.03354694
-0.053934216 -0.05701811 -0.055491805 0.025989084 -0.02360809 -0.0098421145 -0.039756835 -0.0061298786
-0.020426461 0.029032402 -0.029955458 0.011195842 -0.05025361 0.033884615 -0.0022551103 0.01592152
-0.0058354554 0.012916468 -0.023000002 -0.044452313 0.0066041606 -0.020513156 -0.03828617 -0.019064397
-0.038658693 -0.0049869698 -0.051979236 0.018803671 -0.0396904 -0.0072724284 -0.04867097 -0.0688845
0.020884445 -0.014862373 0.005074477 0.0019724288 0.018468043 -0.0013326283 -0.006738155 0.01468144
0.0027672742 -0.008419751 -0.04760167 0.0078858705 -0.06333395 0.010557568 -0.050184082 0.01367203
0.010936836 -0.028604142 -0.045736898 -0.013128493 -0.017871752 -0.028449325 0.05026259 -0.017956667
-0.027979832 0.022660159 -0.0031967757 -0.052891143 -0.025793772 0.026435917 0.04611258 0.009046713
0.036879707 0.0028369348 0.018301317 -0.036847796 -0.021865552 -0.0004347793 -0.028995672 0.014978518
-0.041840144 0.015356989 -0.052873943 -0.064069 -0.041594215 -0.014499132 -0.0091424445 -0.039318126
-0.030240424 -0.060059406 -0.03627985 -0.04277465 -0.0327192 0.030619362 0.00072728563 -0.009178815
0.017746067 -0.053370025 0.013983772 0.019680606 0.008751633 0.03315543 0.022301378 0.026649686
-0.0074739465 -0.0022752555 0.03371537 0.03220592 -0.012192223 0.032571062 -0.037007153 -0.047752067
-0.025653444 -0.006026779 0.0013991803 -0.009352401 -0.016201364 0.03447301 0.015973303 0.029707903
0.00659445 0.016896332 -0.050880045 0.037712682 -0.010513901 0.037857633 -0.04098855 0.019638786
0.029128874 0.022118945 0.023131821 0.0085199475 -0.018698977 0.018704813 -0.034993608 -0.046855323
-0.038303107 -0.05172769 -0.0057138605 -0.029595317 -0.003567216 0.026831107 0.013747667 -0.06191093
-0.01993696 -0.020774774 0.00928056 0.033723712 -0.054699615 0.025509669 0.0041442965 -0.021212125
-0.03153468 -0.05269278 0.010256499 -0.023686487 0.018259322 0.037146054 -0.0026649118 -0.038240027
-0.0014321284 -0.04969046 -0.03697387 0.002373317 -0.046262745 0.040980127 -0.012952231 0.00447081
-0.021070307 0.032954928 0.021834483 -0.0061399387 -0.03403867 -0.017989341 -0.0078004994 -0.0007349075
-0.05506923 0.031462632 -0.03828526 0.00801 -0.043033417 0.0098662125 0.00018601568 -0.05422595
-0.053541746 -0.06200933 -0.032003663 -0.03531927 0.013890756 0.031854544 -0.055454805 -0.017392967
-0.048366543 -0.008066395 0.0044855657 0.01738755 0.036507875 -0.0423882 0.0074008806 0.0094557945
-0.008417393 -0.025582843 -0.05588674 -0.04338828 -0.045058634 -0.025102409 -0.01832344 0.010887387
00000000: e6f5 af3c 80c2 49bd f85a 5fbd 7442 c23c
00000010: 0b2a babc 5667 c63c 980c f13c 8e5e e0bc
00000020: a11f 29bd 5121 f0bc f481 2bbd b7a4 153d
00000030: e60c 57bd aa2b 353c e213 24bd 1ab7 a1bc
00000040: 72fc a8bb 55b3 f0bc 252c 293d f76b c7bb
00000050: 938a 7e3c 7cd5 cf3c 6927 b53c 1453 a4bb
00000060: 6fc1 e7bc 1b42 03bc cab1 06bb ae07 1bbd
00000070: f68d 583b bf28 3bbd 9872 d9bc 85be f8bc
00000080: a3d5 5dbc 6d80 1bbd 4fc7 27bd f22e 74bd
00000090: 82d7 073d 7fc8 01bd 8785 68bd a792 6f3c
000000a0: c9df e53b 50f2 2fbd e086 6cbd e095 b63b
000000b0: daa0 c7bc 04e0 1b3d 9d4d 8f3c 7d09 4abc
000000c0: 98ed 04bb b02d 73bd 5f5f 41bc cb39 24bd
000000d0: 8198 2fbc c5a0 1fbd 66cb e1bb 8468 09bd
000000e0: 20ea 5cbd d28b 69bd 604b 63bd 0fe7 d43c
000000f0: c165 c1bc d240 21bc 10d8 22bd 26dd c8bb
00000100: 6555 a7bc 5cd5 ed3c 2665 f5bc c46e 373c
00000110: bbd6 4dbd 98ca 0a3d 79ca 13bb d96d 823c
00000120: 5937 bfbb 989f 533c 806a bcbc a113 36bd
00000130: b767 d83b 350b a8bc f6d1 1cbd f02c 9cbc
00000140: 9458 1ebd bc69 a3bb 2ee8 54bd 280a 9a3c
00000150: 6792 22bd 8d4d eebb 365b 47bd 5113 8dbd
00000160: db15 ab3c 4f81 73bc cc47 a63b dd43 013b
00000170: 4b4a 973c 96ab aeba becb dcbb 6c8a 703c
00000180: 285b 353b fff2 09bc f8f9 42bd bd33 013c
00000190: 3bb5 81bd a6f9 2c3c d38d 4dbd a600 603c
000001a0: 6a30 333c 3c53 eabc 9d56 3bbd e418 57bc
000001b0: c867 92bc 8f0e e9bc 25e0 4d3d dc19 93bc
000001c0: f635 e5bc cca1 b93c ff80 51bb 62a4 58bd
000001d0: 764d d3bc 2390 d83c 8be0 3c3d aa38 143c
000001e0: 2d0f 173d deeb 393b a5ec 953c b7ed 16bd
000001f0: 631f b3bc 17f3 e3b9 5588 edbc 7568 753c
00000200: 9260 2bbd e19b 7b3c 5992 58bd 9c36 83bd
00000210: b25e 2abd c48d 6dbc 31ca 15bc 0b0c 21bd
00000220: c4ba f7bc da00 76bd 2e9a 14bd 7934 2fbd
00000230: 9104 06bd 75d5 fa3c 50a7 3e3a be62 16bc
00000240: 3360 913c 879a 5abd 311c 653c 3939 a13c
00000250: 0263 0f3c fdcd 073d 61b1 b63c 7150 da3c
00000260: 02e8 f4bb 741c 15bb 2119 0a3d 5bea 033d
00000270: e4c1 47bc 3c69 053d d094 17bd ac97 43bd
00000280: 2c27 d2bc 497c c5bb b364 b73a d03a 19bc
00000290: b9b8 84bc 9233 0d3d 72da 823c fd5d f33c
000002a0: 4216 d83b 2d6a 8a3c 9867 50bd 9d78 1a3d
000002b0: 7f42 2cbc 9b10 1b3d 9ce3 27bd 85e1 a03c
000002c0: ad9f ee3c ca32 b53c f27e bd3c 4097 0b3c
000002d0: 992e 99bc d63a 993c 7555 0fbd 5eeb 3fbd
000002e0: b8e3 1cbd 6ae0 53bd 563b bbbb e171 f2bc
000002f0: f4c7 69bb e9cc db3c e53d 613c 5196 7dbd
00000300: d652 a3bc dc2f aabc 7d0d 183c e021 0a3d
00000310: b40c 60bd a7f9 d03c e1cc 873b 0dc5 adbc
00000320: 822a 01bd 62d4 57bd e00a 283c 2a0a c2bc
00000330: 9394 953c 7626 183d cda5 2ebb 93a1 1cbd
00000340: 41b6 bbba 3988 4bbd ea71 17bd a789 1b3b
00000350: 017e 3dbd c7da 273d 9835 54bc df7f 923b
00000360: a39b acbc bffb 063d 3bde b23c 8a31 c9bb
00000370: 226c 0bbd 625e 93bc 559b ffbb cfa6 40ba
00000380: 4690 61bd f6de 003d 01d1 1cbd 603c 033c
00000390: cf43 30bd e5a5 213c 340d 4339 081c 5ebd
000003a0: 974e 5bbd 7ffd 7dbd 4616 03bd f0aa 10bd
000003b0: 0e96 633c e979 023d 9424 63bd b27b 8ebc
000003c0: ff1b 46bd ea28 04bc a7fb 923b 5670 8e3c
000003d0: 4889 153d 409f 2dbd 1683 f23b 7aec 1a3c
000003e0: 1be9 09bc 1c93 d1bc 7fe9 64bd e9b7 31bd
000003f0: 678f 38bd 91a3 cdbc 0a1b 96bc 0361 323c

fc2.weight f4 [2, 256]
-0.013868425 0.0034338762 0.0010043356 0.0029649315 0.012266451 -0.0011741115 0.0021215372 0.00084087095
-0.004614526 0.0005073114 0.0013687875 0.00519679 0.0038350068 -0.008863571 -0.0035205882 0.0031114125
-0.009366257 -0.0051307804 -0.00063247647 0.006275554 0.007857266 0.004197803 -0.006547885 -0.008385628
-0.00088015693 -0.0025210073 -0.010092378 -0.017456645 -0.0040132855 -0.0063285306 0.0002749372 -0.018755944
0.0020920786 0.007862601 -0.0013827622 -0.001655308 0.002095933 0.0018754138 0.006165686 0.040725052
-0.00085285906 0.015289522 -0.008192124 -0.003950768 -0.00097077934 -0.009690002 0.008732127 0.0019271234
0.0035897775 0.009267237 0.015584532 0.005626698 0.0014902133 0.005057172 0.0012161728 -0.0012596849
-0.0021090219 -0.000988091 -0.00090463134 -0.008895672 0.0026925048 0.0028641182 -0.0025603045 0.004351293
-0.005901276 0.00027857197 -0.002230276 0.0023678814 0.006109921 -0.00860638 0.0031841453 0.00068518205
-0.0022092394 0.0024330402 -0.018629232 0.003511663 -0.0043507903 -0.0005441507 0.0046332763 0.018180948
0.0027606888 -0.0033599518 -0.032492723 -0.007315364 -0.0074256356 -0.0024526366 0.0020503446 -0.017075298
0.006583629 -0.0045204 0.0008700462 0.0055696955 0.0017881807 -0.0028812767 -0.006650306 -0.0022259678
0.00044716656 0.016876461 -0.015426012 0.0029977295 -0.0010271003 -0.0015474275 -0.0018717899 0.0012579721
0.00019159233 -0.0020195446 -0.00284967 -0.006031616 0.0016805682 0.00299096 -0.0134594785 0.007967323
-0.0033414774 -0.007207164 -0.005669044 -0.026932 -0.0011559328 -0.0005605495 -0.0036099786 -0.0009569102
0.004269394 0.00048298723 -0.016596101 -0.008251656 0.0012239136 0.0062069665 -0.0010101516 -0.0062288586
-0.002338066 -0.0028600923 -0.0074511818 0.003878551 0.00028365062 -0.0030144271 -0.00094754825 0.003424382
0.007806947 0.0038249814 0.00057828653 -0.0071725617 -0.013170309 -0.008055327 -0.0035862492 0.0010553324
0.00076633965 0.003652379 -0.0065544546 0.0001700075 -0.0041899253 0.0012247239 -0.0045073885 -0.004332296
0.006258404 -0.004270243 0.00010097056 -0.0011454882 -0.002413688 -0.008346024 -0.012726813 0.008072117
0.008917394 0.0025272472 -0.011067462 0.001718818 -0.006447285 0.0054059755 -0.018118232 -0.008873505
0.0068208687 -0.002114939 2.2763244e-05 -0.0048042974 -0.0034963815 -1.7122959e-05 0.00946764 -0.008462857
0.003156117 -0.002181316 -0.0071575358 -0.0067311144 0.0005908077 -0.007105367 -0.005210379 -0.0021889505
-0.00583004 -0.0008811186 0.0027234992 -0.006981829 -0.007456611 0.0030404618 0.0035922672 0.00745676
0.015746705 0.0012089114 0.0021363767 0.0047196387 0.004935221 0.006331165 0.0021086915 -0.0027336027
0.0019079495 -0.0021480152 -0.00041908582 -0.012623822 -0.00018754022 -0.0019643493 -0.05060103 0.0013211865
-0.0052230977 -0.010427343 0.010638889 -0.034198325 0.0028642504 -0.006624387 0.0028955843 -0.0026345393
0.0027928283 -0.0006971438 -0.004934998 -0.0009482675 0.0016467534 0.013230324 0.00047814843 -0.0021617177
-0.0047641783 -0.0022884426 0.004298838 0.0041626818 -0.0077384305 0.0034365028 -0.017353565 -0.003599225
-0.001015711 0.00063450285 0.01849339 0.004236212 0.000684209 -0.0025999474 0.002067175 0.0032353357
0.002811362 0.009854845 -0.0029068813 -0.017195549 -0.025309613 -0.0018988494 0.0079924185 -0.005627423
-0.013926415 0.005590916 0.008255228 0.0050669587 -0.0023909803 -0.005558118 0.00089440244 0.0108817145
00000000: 6438 63bc e20a 613b e9a3 833a 4c4f 423b
00000010: 39f9 483c a5e4 99ba 7d09 0b3b e56d 5c3a
00000020: 7335 97bb 17fd 043a e368 b33a d649 aa3b
00000030: bd54 7b3b 8338 11bc abb9 66bb d7e8 4b3b
00000040: ee74 19bc 1b20 a8bb c7cc 25ba 2aa3 cd3b
00000050: c3bb 003c b98d 893b a48f d6bb e063 09bc
00000060: 55ba 66ba 7c37 25bb 805a 25bc 3d01 8fbc
00000070: e181 83bb 905f cfbb 7225 9039 11a6 99bc
00000080: 411b 093b 24d2 003c cd3d b5ba ebf6 d8ba
00000090: ec5b 093b 72d0 f53a 8609 ca3b 50cf 263d
000000a0: 6792 5fba e780 7a3c 4238 06bc 7275 81bb
000000b0: e67b 7eba d0c2 1ebc 3211 0f3c 8897 fc3a
000000c0: 7942 6b3b 9cd5 173c 4456 7f3c 2a60 b83b
000000d0: 4353 c33a a2b6 a53b fd67 9f3a 031c a5ba
000000e0: 8437 0abb d582 81ba c824 6dba 27bf 11bc
000000f0: bc74 303b eeb3 3b3b c8ca 27bb 4b95 8e3b
00000100: 7e5f c1bb 4c0d 9239 d229 12bb 752e 1b3b
00000110: bb35 c83b c601 0dbc 18ad 503b ca9d 333a
00000120: e3c8 10bb a473 1f3b 559c 98bc ee23 663b
00000130: 1391 8ebb 56a5 0eba bdd2 973b 36f0 943c
00000140: acec 343b a332 5cbb 1717 05bd b9b5 efbb
00000150: bf52 f3bb 6abc 20bb 135f 063b 7fe1 8bbc
00000160: 7cbb d73b dd1f 94bb d013 643a fe81 b63b
00000170: 6361 ea3a cdd3 3cbb cfea d9bb 8be1 11bb
00000180: ae71 ea39 8140 8a3c 62bd 7cbc 8e75 443b
00000190: c49f 86ba 0dd3 caba d956 f5ba 8ae2 a43a
000001a0: 2de6 4839 565a 04bb 87c1 3abb dda4 c5bb
000001b0: 8346 dc3a fb03 443b 2585 5cbc 6089 023c
000001c0: b0fc 5abb 132a ecbb 63c3 b9bb 7fa0 dcbc
000001d0: ab82 97ba d7f1 12ba 6495 6cbb 28d9 7aba
000001e0: 46e6 8b3b 7339 fd39 8cf4 87bc f431 07bc
000001f0: ba6b a03a cf63 cb3b 1067 84ba 741b ccbb
00000200: 3d3a 19bb 6370 3bbb 0b29 f4bb 4a2f 7e3b
00000210: f1b6 9439 b28d 45bb e364 78ba 996b 603b
00000220: 6bd1 ff3b 8aac 7a3b 2798 173a cf07 ebbb
00000230: 48c8 57bc 7efa 03bc 4707 6bbb 1453 8a3a
00000240: 2fe4 483a c05c 6f3b c0c6 d6bb 0a44 3239
00000250: a44b 89bb ea86 a03a b7b2 93bb eff5 8dbb
00000260: 4c13 cd3b 65ed 8bbb 28c0 d338 3524 96ba
00000270: f72e 1ebb c3bd 08bc 1f84 50bc ea40 043c
00000280: 431a 123c 2ca0 253b 4d54 35bc f649 e13a
00000290: bf43 d3bb 9c24 b13b b06c 94bc 2d62 11bc
000002a0: 9881 df3b ca9a 0abb b2f3 be37 5e6d 9dbb
000002b0: 8c23 65bb 46a3 8fb7 291e 1b3c cca7 0abc
000002c0: dbd6 4e3b 69f4 0ebb c389 eabb ae90 dcbb
000002d0: 6fe0 1a3a 23d4 e8bb d4bb aabb 7f74 0fbb
000002e0: ec09 bfbb defa 66ba bc7c 323b d4c7 e4bb
000002f0: 9656 f4bb 7c42 473b 3e6c 6b3b d657 f43b
00000300: 3cff 803c 5674 9e3a 7402 0c3b 33a7 9a3b
00000310: a2b7 a13b a975 cf3b f931 0a3b 3e26 33bb
00000320: 2914 fa3a b7c5 0cbb bfb8 dbb9 26d4 4ebc
00000330: 72a6 44b9 50bc 00bb 0743 4fbd aa2b ad3a
00000340: 8526 abbb 72d7 2abc bc4e 2e3c 8b13 0cbd
00000350: 26b6 3b3b 6311 d9bb d8c3 3d3b 3ca8 2cbb
00000360: e207 373b 87c0 36ba c4b5 a1bb 2895 78ba
00000370: e0d7 d73a 00c4 583c ffaf fa39 9bab 0dbb
00000380: d31c 9cbb b2f9 15bb 44dd 8c3b 1b67 883b
00000390: a992 fdbb f336 613b 1029 8ebc fae0 6bbb
000003a0: 9b21 85ba c454 263a 737f 973c eccf 8a3b
000003b0: 7d5c 333a e163 2abb 7179 073b ed07 543b
000003c0: d43e 383b 3776 213c 6081 3ebb aedd 8cbc
000003d0: 1b56 cfbc d0e2 f8ba a2f2 023c 3f66 b8bb
000003e0: 9e2b 64bc 0134 b73b f040 073c bb08 a63b
000003f0: feb1 1cbb e020 b6bb 5576 6a3a 3849 323c

fc2.bias f4 [2]
0.0356186 0.015857179
00000000: cfe4 113d eae6 813c

fc3.weight f4 [2, 256]
0.0015639599 0.0055249617 0.0043396717 -0.0023088118 0.007434796 0.0062779947 -0.0081195915 0.0045017595
0.0019538181 -0.0119736465 -0.0040751114 0.00016724336 0.002003491 -0.0007412156 0.009503317 -0.013917014
-0.003944001 -0.0009748082 0.0034191606 -0.0073667057 0.0028987909 -0.0013965529 0.0038275707 0.006319939
-0.0011072535 -0.023087522 0.0046758344 0.0042697457 0.0022860826 -0.0018576735 -0.0062313443 0.012304608
-0.010533629 0.0014629835 -0.0024865158 -0.001569994 0.00071319006 0.0035372663 0.0044929963 0.041071143
0.0013992316 0.03091621 0.0009917485 0.00074293045 0.002989386 0.0048281024 0.0013138683 -0.0004865785
0.005744568 0.0033835175 -0.012849955 0.0009820139 0.00153656 0.020396935 0.0046975994 -0.0017753529
0.00087214046 -0.009695109 0.00044682313 -0.0041198754 -0.00030738846 -0.0009008794 0.00049095403 0.0026840908
0.010108065 0.0056749214 -0.0002732922 0.013294496 -0.03365431 -0.0019499992 -0.00752085 0.006769242
-0.013391807 -0.0018792913 0.005546467 0.003160367 -0.004457859 0.0019274856 0.0037586556 0.007032194
9.4677715e-05 0.0023700723 0.022540491 0.005738909 0.001743606 -0.0030579085 -0.00064936787 0.00078740047
-0.0055398676 -0.006744269 0.015899003 0.0045502326 -0.0019249355 -0.010593969 -0.0058674384 0.0019570396
0.0059222667 0.003962144 0.0011594229 6.31847e-06 -0.00582058 -0.008357106 -0.003452965 -0.008151017
-0.005027018 0.0009215668 -0.003360312 -0.0068007894 -0.0009809197 0.008988869 -0.007300143 -0.0020212946
0.002049872 0.0062539387 -0.00458845 0.029358683 -0.013121481 -0.008995462 0.0010293608 0.008061898
-0.0005165363 -0.001692674 0.005946101 0.006018671 -0.00030744617 -0.004927755 0.004473729 -0.006140401
-0.0018659922 -0.0051663257 -0.0064987773 -0.0029027637 -0.0005017683 0.001034644 -0.002857376 0.027447574
0.008849646 -0.011152036 -0.003832442 -0.005388549 -0.002270923 -0.0029676298 0.0026423 -0.0041060247
0.00011136082 -0.002372624 -0.0011362025 -0.006166499 0.0009155701 -0.005209382 0.0013758234 0.00021739613
0.005486029 0.0081435945 0.0017028925 -0.00078838243 0.003342885 0.004909825 -0.010976447 -0.0018383246
-0.0068010343 0.0023156423 0.0056962464 0.003281995 -0.008475557 -0.0037022133 -0.0089188 0.010386761
-0.000285325 0.002170508 -0.008020947 -0.0042480854 -0.0023042406 0.00027730153 0.0022902484 0.0019010294
-0.008436686 0.0010943586 0.00030745091 -0.0018448796 -0.0027401934 -0.003947591 0.011542336 -0.001363231
0.0050777243 -0.012471093 0.002046875 0.008375324 0.004887434 -0.0037792677 0.012005866 -0.015987732
0.0197142 0.00010875431 0.0015336216 0.00062133506 -0.0006144245 -0.010105013 -0.0002604833 0.0012878345
-0.00030499513 -0.0035191812 -0.0017061161 -0.011104162 0.0020849197 0.0058379974 0.016516564 0.0049126917
-0.0060918927 -0.0020142386 -0.012853416 0.003687736 0.0027181415 0.0017755717 0.005657491 -0.0029119772
-0.0071860524 0.0018655639 -0.0035953245 0.004242014 0.0017696373 0.0034362092 0.00056146947 0.0070943376
-0.0008335352 0.00018089094 -0.0034330355 0.0035592746 -0.008751558 -0.005527707 0.0021929052 0.01183298
0.0061344146 -0.014651202 -0.0068302145 -0.00049654325 -0.0037934696 -0.0019741177 0.0013267542 0.0020704798
-0.0013408368 -0.008906518 -0.0011449005 -0.00033842426 -0.01695578 -0.005997485 0.018119173 0.0016890749
0.01685574 -2.709044e-05 0.0057132584 -0.0028100328 -0.0062821996 -0.0032567268 -0.008706777 0.006749594
00000000: c9fd cc3a bd0a b53b ce33 8e3b 6f4f 17bb
00000010: 979f f33b a3b7 cd3b 0908 05bc 7f83 933b
00000020: a10b 003b 1d2d 44bc 8388 85bb 0c5e 2f39
00000030: 004d 033b 234e 42ba cdb3 1b3c 3004 64bc
00000040: ae3c 81bb 458a 7fba ff13 603b 6864 f1bb
00000050: a4f9 3d3b 8a0c b7ba fbd7 7a3b 7e17 cf3b
00000060: 4321 91ba 0b22 bdbc be37 993b 39e9 8b3b
00000070: 1ad2 153b 2e7d f3ba 4e30 ccbb 4499 493c
00000080: 3e95 2cbc 95c1 bf3a d0f4 22bb 42c8 cdba
00000090: 60f5 3a3a 7bd1 673b fc39 933b 373a 283d
000000a0: 6c66 b73a fe43 fd3c 8ffd 813a 38c1 423a
000000b0: 93e9 433b 0f35 9e3b 1b36 ac3a 761b ffb9
000000c0: ee3c bc3b 01be 5d3b 9e88 52bc ebb6 803a
000000d0: 6666 c93a 7917 a73c 52ee 993b f5b2 e8ba
000000e0: 5ba0 643a 3cd8 1ebc 9643 ea39 0500 87bb
000000f0: fb28 a1b9 fe28 6cba 5eb3 003a 92e7 2f3b
00000100: 4c9c 253c b1f4 b93b a848 8fb9 28d1 593c
00000110: 1ad9 09bd 1e97 ffba 7671 f6bb 85d0 dd3b
00000120: 4f69 5bbc 8d52 f6ba 23bf b53b 291e 4f3b
00000130: 3b13 92bb afa3 fc3a c753 763b 526e e63b
00000140: b68d c638 3753 1b3b d6a6 b83c 750d bc3b
00000150: b589 e43a 3167 48bb 573a 2aba 8d69 4e3a
00000160: c787 b5bb 07ff dcbb a03e 823c 1e1a 953b
00000170: 1e4e fcba 5492 2dbc a443 c0bb ad41 003b
00000180: 930f c23b dfd4 813b c7f7 973a 3e03 d436
00000190: 90ba bebb 3eec 08bc 244b 62bb d88b 05bc
000001a0: afb9 a4bb 4d95 713a ae38 5cbb 28d9 debb
000001b0: 3492 80ba 0d46 133c 0a36 efbb b277 04bb
000001c0: 2557 063b d7ed cc3b b55a 96bb 9f81 f03c
000001d0: 7bfb 56bc b461 13bc 9eeb 863a 0d16 043c
000001e0: 2a68 07ba b7dc ddba 83d7 c23b 4638 c53b
000001f0: ba30 a1b9 0179 a1bb 5c98 923b 6b35 c9bb
00000200: 4f94 f4ba 484a a9bb b2f3 d4bb 4b3c 3ebb
00000210: 1a89 03ba e49c 873a d042 3bbb bcd9 e03c
00000220: 1bfe 103c 07b7 36bc b529 7bbb 6d92 b0bb
00000230: c4d3 14bb 917c 42bb 702a 2d3b d58b 86bb
00000240: 638a e938 067e 1bbb a1ec 94ba 5810 cabb
00000250: df02 703a 77b3 aabb f954 b43a d4f4 6339
00000260: 26c4 b33b b66c 053c 9733 df3a 73ab 4eba
00000270: 4e14 5b3b 99e2 a03b 8ed6 33bc f0f3 f0ba
00000280: 36db debb 08c2 173b 94a7 ba3b bd16 573b
00000290: 10dd 0abc d5a0 72bb 2920 12bc 3c2d 2a3c
000002a0: ac97 95b9 153f 0e3b 4a6a 03bc 8633 8bbb
000002b0: be02 17bb c862 9139 fe17 163b f62b f93a
000002c0: 073a 0abc 9570 8f3a 5d31 a139 e3cf f1ba
000002d0: d194 33bb cb5a 81bb 111c 3d3c 71ae b2ba
000002e0: 0a63 a63b 8e53 4cbc dd24 063b a838 093c
000002f0: c526 a03b 97ad 77bb 40b4 443c b4f8 82bc
00000300: ad7f a13c 0713 e438 cd03 c93a 17e1 223a
00000310: 5511 21ba 7f8f 25bc 7a91 88b9 8ecc a83a
00000320: c1e7 9fb9 10a2 66bb c29f dfba 3bee 35bc
00000330: 26a3 083b ac4c bf3b bf4d 873c a5fa a03b
00000340: 809e c7bb 5101 04bb 2297 52bc f2ad 713b
00000350: d922 323b 4dba e83a 7962 b93b dfd6 3ebb
00000360: fa78 ebbb f085 f43a 899f 6bbb 9800 8b3b
00000370: 2df3 e73a 0632 613b 942f 133a 9e77 e83b
00000380: 9a81 5aba 8bad 3d39 c7fc 60bb b842 693b
00000390: b262 0fbc c421 b5bb d8b6 0f3b 1edf 413c
000003a0: 3303 c93b 980b 70bc fecf dfbb 742a 02ba
000003b0: dc9b 78bb 3360 01bb 7ce6 ad3a e3b0 073b
000003c0: 04bf afba a5ec 11bc 7c10 96ba 896e b1b9
000003d0: d9e6 8abc 8d86 c4bb a96e 943c f363 dd3a
000003e0: 0d15 8a3c 4740 e3b7 4936 bb3b 8728 38bb
000003f0: e9da cdbb cf6e 55bb dfa6 0ebc b32b dd3b

fc3.bias f4 [2]
0.0019988255 0.009832516
00000000: bafe 023b 9018 213c

fc4.weight f4 [256, 2]
0.07416224 0.0906851 -0.002182558 0.0035152142 0.22699425 -0.2258857 -0.0065372405 0.032239858
0.0053113126 -0.0026420476 -0.12162593 0.09909656 0.005944558 -0.00495702 0.0018930073 -0.0024063077
0.2970818 -0.17831194 0.21535447 0.19760767 -0.22177109 0.18041182 -0.002833885 -0.0028580416
0.10359509 -0.11392167 0.009919431 -0.027447164 0.05217138 0.07179457 0.0007051827 -0.0042936606
0.18141443 -0.15123671 0.10533747 0.14309789 -0.000576104 0.007988257 0.22321093 -0.22431763
0.011061995 0.049444556 0.0036913182 -0.0025865762 4.3529337e-05 0.00032070858 0.005563312 -0.010622034
-0.0027991687 2.4952038e-05 -0.020450592 0.0862183 0.0030959928 0.0031082416 -0.0006018689 -0.00038467464
0.0015892143 0.0022173808 0.0018303932 0.00026276824 -0.054707855 0.07819932 -0.011287941 -0.02013916
0.003224268 0.0059500705 0.034858324 -0.024784993 -0.07340005 0.07611404 0.007252231 -0.005540626
-0.016706662 0.02539598 0.001468833 -0.0037821885 0.004256308 -0.0024646334 0.041995604 -0.06651845
0.029531414 -0.014267502 0.053641085 0.1768024 0.0032367485 0.0031409345 0.0019175211 0.00031558596
0.00033230154 -0.001296569 -0.07390989 -0.072743945 -0.094365664 -0.100895464 -0.038000014 0.018965486
-0.011327162 -0.0012832269 -0.121601276 -0.004770732 0.13256355 -0.12533647 0.08381738 -0.079229936
-0.000727399 0.0012289733 -0.009420763 0.006788752 0.16243866 -0.11585934 -0.0011762474 -0.0060337284
-0.09182207 0.06652423 0.022615805 -0.03607093 0.0015134139 -0.00038402935 0.07162672 0.117604285
-0.0034494041 0.11731994 0.0772019 0.051680535 -0.031033592 -0.06446626 -0.0004479222 0.0012478301
-0.0118798455 -0.01363868 0.0008045478 -0.01690465 -0.0003851605 0.0029672103 0.0008304418 -0.003697012
0.0023511718 -0.00077861134 0.0026398383 0.0017057969 0.007016623 0.022963354 -0.005420519 0.0117828455
0.0022375956 -0.00020492804 -0.0007040969 -0.00013144582 -0.02338673 -0.025265902 -0.0022265366 -0.0013319812
-0.016088082 -0.008140675 -0.00041917688 0.016890371 0.002671991 -0.0020013396 -0.0023599756 -0.004170449
0.011693765 0.118802205 -0.019694136 0.016392795 -0.039255213 -0.08093336 0.0038716781 0.004079026
0.18482456 -0.17162982 0.03203309 0.13845842 -0.043653134 1.6375949e-05 0.060796596 -0.06625174
0.011897086 0.09689759 0.003525101 0.00039568206 0.0035792796 -0.001295132 0.1668313 -0.14635667
0.009687445 0.019554125 -0.18622623 -0.18934935 0.005027467 0.0032996037 0.0033079379 0.08884538
-0.024492064 0.12615725 0.06542512 -0.0030764309 0.20671947 -0.061763596 -0.18008891 0.07119874
-0.14961897 -0.13662618 -0.16693601 -0.20049556 -0.17163579 0.14854759 -0.011238057 0.030195992
0.2472268 -0.025492003 -0.001802167 -0.0014781547 0.06535777 0.029060947 0.0052104644 -0.006628372
-0.031639718 0.03444807 0.019394841 0.014406947 -0.10659307 -0.059886664 -0.0007137366 0.00014497644
0.050179176 -0.03749191 0.06735217 -0.048489843 0.07634372 0.1366517 0.18628241 -0.124654934
0.0019094801 -0.004144681 0.014919634 0.1309706 -0.03443552 -0.044763915 9.7782584e-05 0.0028352381
-0.0062014954 0.012396118 -0.095543906 0.07294193 -0.0005349 -0.0013210813 0.0007091502 -0.00041386293
-0.004737586 0.002972344 0.11797827 -0.10062081 2.0973443e-06 0.002100402 -0.1613413 0.18481795
00000000: 5fe2 973d 1cb9 b93d 3f09 0fbb 825f 663b
00000010: 2e71 683e 954e 67be 5936 d6bb f10d 043d
00000020: 850a ae3b 3426 2dbb 0417 f9bd 23f3 ca3d
00000030: 91ca c23b 7f6e a2bb c91e f83a 25b3 1dbb
00000040: 1b1b 983e 6897 36be e285 5c3e aa59 4a3e
00000050: f617 63be e0bd 383e b3b8 39bb fb4d 3bbb
00000060: aa29 d43d c44f e9bd 1c85 223c e0d8 e0bc
00000070: a8b1 553d 0809 933d 03dc 383a d6b1 8cbb
00000080: b4c4 393e ccdd 1abe 2cbb d73d 4188 123e
00000090: af05 17ba 2ee1 023c 6891 643e 85b3 65be
000000a0: 5f3d 353c 6086 4a3d 0bea 713b 8c83 29bb
000000b0: 4593 3638 c724 a839 724c b63b 0a08 2ebc
000000c0: 4272 37bb 1850 d137 0088 a7bc 3893 b03d
000000d0: 24e6 4a3b a4b3 4b3b bdc6 1dba 28ae c9b9
000000e0: 2f4d d03a 7a51 113b cee9 ef3a 28c4 8939
000000f0: 5815 60bd f726 a03d 0ef1 38bc e1fa a4bc
00000100: 3e4e 533b cff8 c23b 9ac7 0e3d e609 cbbc
00000110: c452 96bd aee1 9b3d 1fa4 ed3b 248e b5bb
00000120: 69dc 88bc 3b0b d03c db85 c03a 98de 77bb
00000130: 8078 8b3b b085 21bb 9503 2c3d d33a 88bd
00000140: ddeb f13c 3ec2 69bc c1b6 5b3d b00b 353e
00000150: a11f 543b 23d8 4d3b 5555 fb3a 3b75 a539
00000160: c238 ae39 a3f1 a9ba 125e 97bd c7fa 94bd
00000170: c942 c1bd 48a2 cebd e7a5 1bbd 825d 9b3c
00000180: 9095 39bc f331 a8ba 170a f9bd cd53 9cbb
00000190: bdbe 073e 3458 00be 72a8 ab3d 4e43 a2bd
000001a0: ecae 3eba 8015 a13a 8b59 1abc 2e74 de3b
000001b0: 5256 263e a947 edbd 502c 9aba 95b6 c5bb
000001c0: 360d bcbd db3d 883d c844 b93c 1dbf 13bd
000001d0: be5d c63a 8c57 c9b9 08b1 923d 84da f03d
000001e0: 660f 62bb 7045 f03d 081c 9e3d f8ae 533d
000001f0: 293a febc e306 84bd 1ad7 eab9 3b8e a33a
00000200: afa3 42bc c574 5fbc 4ae8 523a 9f7b 8abc
00000210: 5eef c9b9 8775 423b 01b2 593a 9249 72bb
00000220: 1e16 1a3b b91b 4cba 2301 2d3b 0c95 df3a
00000230: b3eb e53b a51d bc3c 9c9e b1bb d60c 413c
00000240: a0a4 123b f4e1 56b9 2593 38ba b8d4 09b9
00000250: 8795 bfbc 70fa cebc 16eb 11bb df95 aeba
00000260: 27cb 83bc 7760 05bc f8c4 dbb9 ad5d 8a3c
00000270: 921c 2f3b e828 03bb d2a9 1abb 43a8 88bb
00000280: 3597 3f3c 924e f33d 9955 a1bc 2f4a 863c
00000290: 13ca 20bd 64c0 a5bd fbbb 7d3b 5aa9 853b
000002a0: a642 3d3e babf 2fbe 2135 033d 0bc8 0d3e
000002b0: a1cd 32bd 155f 8937 da05 793d feae 87bd
000002c0: ffeb 423c 3e72 c63d 6205 673b 8c73 cf39
000002d0: 5992 6a3b 6bc1 a9ba d3d5 2a3e 86de 15be
000002e0: 17b8 1e3c f92f a03c 17b2 3ebe cce4 41be
000002f0: 73bd a43b 2a3e 583b fdc9 583b 91f4 b53d
00000300: 95a3 c8bc 5e2f 013e 9bfd 853d f29d 49bb
00000310: 45ae 533e d3fb 7cbd 3a69 38be a5d0 913d
00000320: b735 19be bce7 0bbe 46f1 2abe b54e 4dbe
00000330: 4bc1 2fbe dc1c 183e d41f 38bc 965d f73c
00000340: 0629 7d3e 9bd4 d0bc b136 ecba a4be c1ba
00000350: 4bda 853d 3911 ee3c 8bbc aa3b d032 d9bb
00000360: a698 01bd 6b19 0d3d eee1 9e3c 1e0b 6c3c
00000370: 784d dabd b84b 75bd 0d1a 3bba d104 1839
00000380: ae88 4d3d 1e91 19bd efef 893d 499d 46bd
00000390: 195a 9c3d 6cee 0b3e d1c0 3e3e 164b ffbd
000003a0: 8547 fa3a 1bd0 87bb 7b71 743c 281d 063e
000003b0: 430c 0dbd 5e5a 37bd a010 cd38 67cf 393b
000003c0: ea35 cbbb 1619 4b3c 86ac c3bd 9462 953d
000003d0: 8838 0cba 2228 adba 44e6 393a befb d8b9
000003e0: c03d 9bbb a8cb 423b 979e f13d 4912 cebd
000003f0: 1ac0 0c36 e6a6 093b a736 25be eb40 3d3e

fc4.bias f4 [256]
-0.12759253 -0.0006064433 0.253095 -0.038452964 0.024197364 0.101049565 -0.011190728 -0.00016893163
-0.39879686 0.21949275 0.27527186 0.0017051034 -0.17049576 -0.037624612 -0.01925411 0.005922679
-0.24852897 -0.20189993 -0.006298184 0.34749803 0.06271915 -0.0021910574 0.000107530446 -0.015454937
0.00457457 0.37936902 0.005609999 0.007391964 -0.00093267596 -0.00020347284 -0.06347711 0.03854191
0.019195337 -0.018383853 0.08015192 -0.0090274615 -0.05127552 0.004963565 -0.001239037 -0.15222876
-0.043245308 0.33101726 0.0016074246 -0.0019127511 0.00800155 0.21229324 0.07898836 0.13699417
0.07943852 0.31456485 0.14550835 0.3108247 -0.0068984954 -0.23390605 -0.17307064 -0.018669121
-0.18696797 -0.053725474 0.0038199495 -0.138308 -0.29708025 0.10098068 0.08813421 0.0003258392
-0.06198741 -0.006117688 0.0030912394 0.004967587 -0.0021678691 -0.0035128153 0.10005022 0.09495381
-0.0035015056 0.0026453116 0.04568956 0.0038429098 -0.10264983 0.057843275 -0.0017458291 0.0056419536
0.24330027 -0.03683274 -0.14107606 -0.013338232 -0.26247305 -0.2266772 0.30131274 0.18043076
0.19890182 -0.015092362 0.00031076474 0.2169312 0.097785816 -0.28259945 0.014947274 -0.19177786
0.35284704 -0.12093615 -0.25802886 0.25615597 -0.23056197 0.2029617 -0.31077415 -0.1257854
-0.38346818 0.039531875 -0.07358936 -0.23694749 0.039664075 -0.07370203 -0.018669164 -0.0026872426
0.041888684 0.10896992 -0.15729524 -0.19174126 0.004090711 -0.3196807 -0.067905605 -0.00048993103
-0.012720112 -0.042849552 -0.00014403631 0.00063824805 0.002563984 0.081885606 0.01666901 0.31097847
0.23936155 -0.017674383 0.08967141 0.010154674 -0.004364549 -0.18105464 0.29684624 -0.22821927
-0.037294436 -0.12901133 -0.00015625881 0.05679709 -0.010749388 0.014570431 0.124552906 -0.021296302
-0.33648154 -0.07102619 0.027582647 0.0032747316 0.17164347 -0.0012841573 0.32492256 -0.0026628189
-0.13631828 -0.19351834 -0.17692845 0.0045748204 -0.2146951 0.26663437 -0.26642716 -0.15676081
-0.11656702 -0.004591016 0.102646016 0.32864976 0.12349038 -0.00077872665 -0.07054729 -0.0026645937
-0.007869234 0.0017515733 0.02530154 0.005446011 -0.15572193 -0.013031595 -0.01117299 0.0035231835
-0.0075639365 0.06500339 0.1658471 0.0014079757 -0.12693632 0.13962504 0.0759531 0.000321739
-0.27755895 -0.14899065 0.17552713 -0.13607293 -0.075640015 -0.0027191127 -0.2386671 -0.00010915752
0.12703735 0.15481551 -0.029434657 -0.10933088 -0.080783464 -0.17406568 -0.039699998 0.0083141355
0.05670626 -0.1666386 -0.079929486 0.16381565 0.00348408 0.0117572425 -0.13891524 0.1489767
-0.10649434 -0.001517646 -0.032458663 0.008078497 -0.30700698 -0.12803261 -0.30046064 0.0005116814
-0.16267556 -0.05196005 0.2370683 -0.16009705 -0.028950542 0.0042382316 0.30384827 -0.0010670192
0.005603485 -0.021641856 0.003833738 -0.004863596 -0.0014412624 0.31611514 0.013838633 0.26046276
-0.003862108 -0.0070224777 -0.067218274 0.0074626794 0.02900792 -0.11577043 -0.21662949 -0.027820105
-0.4110178 0.009887235 0.31713116 -0.010375276 0.08148541 0.0017134373 0.014436701 0.40870446
-0.045129925 0.044868916 -0.12942386 0.10466307 -0.06943481 0.030894555 0.0012558247 0.442345
00000000: 9ea7 02be b9f9 1eba ab95 813e db80 1dbd
00000010: 8d39 c63c 13f3 ce3d 5159 37bc 3d23 31b9
00000020: 1a2f ccbe b5c2 603e 6ff0 8c3e c77d df3a
00000030: 7196 2ebe 441c 1abd ccba 9dbc 0813 c23b
00000040: 617e 7ebe dbbe 4ebe ff60 cebb 43eb b13e
00000050: e672 803d d897 0fbb f881 e138 b436 7dbc
00000060: 46e6 953b a83c c23e 15d4 b73b 4a38 f23b
00000070: d37e 74ba 535b 55b9 4900 82bd 1fde 1d3d
00000080: 8a3f 9d3c bc99 96bc b126 a43d ebe7 13bc
00000090: 4806 52bd 67a5 a23b 2f67 a2ba dbe1 1bbe
000000a0: fe21 31bd 187b a93e 38b0 d23a 47b5 faba
000000b0: ef18 033c 6663 593e a6c4 a13d 3348 0c3e
000000c0: aab0 a23d a50e a13e 2400 153e 6a24 9f3e
000000d0: c60c e2bb 1185 6fbe 6e39 31be fcef 98bc
000000e0: 8874 3fbe 3e0f 5cbd 1e58 7a3b 9da0 0dbe
000000f0: e71a 98be f5ce ce3d b57f b43d 66d5 aa39
00000100: 83e6 7dbd e376 c8bb 6496 4a3b 24c7 a23b
00000110: cf12 0ebb 4337 66bb 21e7 cc3d 2577 c23d
00000120: 8479 65bb f75c 2d3b fa24 3b3d 54d9 7b3b
00000130: 133a d2bd 12ed 6c3d 4ed4 e4ba 23e0 b83b
00000140: b523 793e eddd 16bd 3e76 10be 9a88 5abc
00000150: de62 86be 111e 68be aa45 9a3e d7c2 383e
00000160: ebac 4b3e f445 77bc 23ee a239 3623 5e3e
00000170: ee43 c83d e0b0 90be 69e5 743c 6a61 44be
00000180: 5ea8 b43e 5fad f7bd 5c1c 84be e026 833e
00000190: 7018 6cbe 31d5 4f3e ca1d 9fbe e3cd 00be
000001a0: f155 c4be 2dec 213d 05b6 96bd 5da2 72be
000001b0: cc76 223d 17f1 96bd 13f0 98bc 731c 30bb
000001c0: 7893 2b3d 9f2b df3d 0112 21be d257 44be
000001d0: 5f0b 863b 30ad a3be 1812 8bbd b76e 00ba
000001e0: 0468 50bc 0383 2fbd 7408 17b9 1a50 273a
000001f0: 8308 283b a4b3 a73d 738d 883c 9238 9f3e
00000200: 321b 753e dec9 90bc a5a5 b73d ca5f 263c
00000210: 7e04 8fbb 6366 39be 3bfc 973e 50b2 69be
00000220: 0dc2 18bd 8c1b 04be 68d9 23b9 11a4 683d
00000230: 331e 30bc d1b8 6e3c 9815 ff3d 9575 aebc
00000240: 4f47 acbe 2e76 91bd 01f5 e13c e19c 563b
00000250: 4ec3 2f3e 2b51 a8ba 405c a63e b082 2ebb
00000260: 0597 0bbe ac29 46be bb2c 35be 60e8 953b
00000270: 08d9 5bbe 4d84 883e 2469 88be e885 20be
00000280: b1ba eebd 3c70 96bb 1338 d23d c844 a83e
00000290: 86e8 fc3d 7623 4cba 197b 90bd 77a0 2ebb
000002a0: f6ed 00bc 0c95 e53a 2d45 cf3c 7474 b23b
000002b0: 9275 1fbe 7982 55bc eb0e 37bc 36e5 663b
000002c0: e6da f7bb 7f20 853d d2d3 293e d38b b83a
000002d0: 98fb 01be def9 0e3e 4d8d 9b3d 14af a839
000002e0: 351c 8ebe 0191 18be 62bd 333e b456 0bbe
000002f0: 27e9 9abd 2433 32bb 2665 74be 7feb e4b8
00000300: 1416 023e f587 1e3e f320 f1bc dee8 dfbd
00000310: cd71 a5bd 463e 32be 779c 22bd 0338 083c
00000320: d344 683d 4fa3 2abe 12b2 a3bd 4abf 273e
00000330: 2a55 643b 73a1 403c cc3f 0ebe 598d 183e
00000340: b419 dabd c0eb c6ba 60f3 04bd ac5b 043c
00000350: 0530 9dbe fb1a 03be fad5 99be 5c22 063a
00000360: 6c94 26be 10d4 54bd 08c2 723e 7bf0 23be
00000370: b029 edbc dde0 8a3b 0092 9b3e 39db 8bba
00000380: 709d b73b 434a b1bc 733f 7b3b cd5e 9fbb
00000390: bee8 bcba d8d9 a13e 6fbb 623c 605b 853e
000003a0: 6c1b 7dbb d01c e6bb bca9 89bd 7e89 f43b
000003b0: 04a2 ed3c 0c19 edbd 1fd4 5dbe fde6 e3bc
000003c0: ed70 d2be 12fe 213c 045f a23e 10fd 29bc
000003d0: d3e1 a63d 6a95 e03a ea87 6c3c b641 d13e
000003e0: 28da 38bd 78c8 373d b087 04be 9759 d63d
000003f0: d633 8ebd 9416 fd3c 7c9a a43a 0b7b e23e

fc5.weight f4 [408, 256]
0.022301212 0.07033894 -0.06618096 -0.023024451 -0.024201533 -0.009697129 0.045897152 0.03623213
-0.0015802877 0.032922298 0.05631093 0.019646712 -0.020157078 0.039421152 -0.03317667 -0.029965008
-0.054269705 0.005417921 0.044318292 0.044444896 -0.06376607 0.041632075 -0.02378045 -0.031593964
0.02972356 -0.023835165 -0.0030085333 0.026726851 -0.046081897 -0.031942207 -0.016306901 0.025948787
-0.0077688247 0.025414156 -0.01167016 -0.033926435 0.06328608 -0.058015466 -0.059223827 0.021519462
-0.010524283 0.029096259 -0.034680635 -0.04651875 0.062931545 -0.0136976745 0.043744512 -0.038218245
0.012207976 -0.02244063 -0.0005775826 -0.056928843 0.025748694 -0.021538561 -0.06896005 -0.043271527
0.00494205 -0.0074991933 -0.028067786 -0.02144193 -0.0036539051 -0.0026355109 -0.016023692 -0.067368366
0.026087467 -0.038287267 -0.012510416 0.04748664 -0.034016926 -0.04785922 -0.021416675 0.0007600265
0.021924907 0.058658343 0.041003775 0.0024052751 0.007962648 -0.055756643 0.045968015 0.012353301
-0.0006225888 -0.036439028 0.047489677 -0.048429046 0.01904696 -0.018949045 0.047005862 -0.010082451
0.030557573 -0.040409386 -0.021189399 0.03664183 0.0025349662 -0.019270299 0.065967984 0.0002476528
0.03970936 -0.037282187 0.029031882 0.0040245666 0.048746523 -0.02639262 -0.020636585 -0.02918127
0.019965831 -0.011942387 0.041509956 0.009600674 -0.001334747 0.024831451 0.019526295 -0.010762345
-0.059385926 0.033200044 0.020980015 0.037583444 -0.06312989 -0.028502682 0.01597756 0.01317205
0.012282082 -0.03834846 -0.010585484 0.004281945 -0.04980138 0.024579547 0.01885923 -0.05509756
-0.06624185 -0.017747313 -0.047594704 -0.03924304 0.006308768 0.031281475 -0.058616165 0.022475932
-0.0060245907 -0.039632414 0.0023917803 -0.023968741 -0.009035374 0.031789493 0.018003607 0.008018124
-0.058095872 0.03209045 -0.040161397 0.005435459 0.023020642 0.005329849 -0.03115914 0.009809703
0.008621308 -0.00052462646 -0.018856883 0.011503599 0.01898879 0.02595053 0.0331265 0.033795446
-0.0017050774 0.0020088102 0.020213954 -0.03784289 -0.043049674 0.036730126 -0.040838372 -0.0011193568
0.0565381 0.03713742 0.068444826 0.0053887954 0.0062093525 -0.035591964 -0.0073499396 -0.026669769
-0.022970188 -0.048607107 0.04737441 -0.007213755 0.03388092 -0.027561031 -0.009234443 -0.020019343
0.012501315 0.02870522 0.0806347 -0.010880527 -0.036952555 0.039455526 0.003770615 0.022160111
-0.066652305 0.031180833 -0.062098514 -0.009130653 -0.05255498 0.0325451 -0.03000284 0.0044201203
-0.042359952 -0.014864659 -0.028777394 0.05014114 -0.03678022 0.01909215 -0.006224537 0.0037063733
-0.004498121 0.050009154 0.054032724 0.050049964 0.051210716 0.029280644 0.05530367 -0.027719343
-0.05454616 -0.0069923177 -0.029934524 0.032912098 0.022532707 -0.009378624 0.0055568106 -0.05915589
-0.0012571623 0.032904413 0.046240717 0.013900018 -0.015303204 -0.0060327128 -0.0024572029 -0.0061794887
0.04672989 -0.0004212796 -0.008725475 0.034123894 -0.027058724 0.031574644 0.034719203 0.03757702
-0.035452396 0.007841423 0.021644928 0.020812718 0.01721959 -0.025764626 -0.06377583 0.030714177
-0.00091461145 0.033576794 0.010714448 0.035868764 0.0204283 0.025818108 -0.00942741 -0.020195283
00000000: 08b1 b63c dd0d 903d e289 87bd c69d bcbc
00000010: 4b42 c6bc b5e0 1ebc a7fe 3b3d 2468 143d
00000020: a821 cfba 88d9 063d 4aa6 663d 24f2 a03c
00000030: 7520 a5bc 1378 213d 43e4 07bd 2d79 f5bc
00000040: e949 5ebd d188 b13b 1987 353d da0b 363d
00000050: c997 82bd 6586 2a3d 38cf c2bc ac68 01bd
00000060: d37e f33c f741 c3bc d02a 45bb 45f2 da3c
00000070: 5fc0 3cbd d5d5 02bd 0d96 85bc 8d92 d43c
00000080: a091 febb 5931 d03c 3334 3fbc 72f6 0abd
00000090: 229c 813d a0a1 6dbd af94 72bd 9549 b03c
000000a0: 0b6e 2cbc 475b ee3c 480d 0ebd 728a 3ebd
000000b0: 41e2 803d 366c 60bc 722d 333d bc8a 1cbd
000000c0: f603 483c 69d5 b7bc ea68 17ba 382e 69bd
000000d0: edee d23c a371 b0bc ed3a 8dbd 7c3d 31bd
000000e0: ecf0 a13b cbbb f5bb 6aee e5bc fda6 afbc
000000f0: 5b76 6fbb 89b8 2cbb 1e44 83bc 6df8 89bd
00000100: 62b5 d53c 1cd3 1cbd 7df8 4cbc 5a81 423d
00000110: 5555 0bbd 0808 44bd 0672 afbc 843c 473a
00000120: dd9b b33c bb43 703d 93f3 273d d2a1 1d3b
00000130: c475 023c 1461 64bd f548 3c3d 8065 4a3c
00000140: 3a35 23ba 1741 15bd 8984 423d 895d 46bd
00000150: 5f08 9c3c 073b 9bbc 3889 403d dd30 25bc
00000160: e053 fa3c 5084 25bd 6495 adbc be15 163d
00000170: ad21 263b bfdc 9dbc 391a 873d 65d7 8139
00000180: 48a6 223d 35b5 18bd 45d4 ed3c 83e0 833b
00000190: 6faa 473d 5635 d8bc 0e0e a9bc 8f0d efbc
000001a0: 628f a33c 00aa 43bc 5806 2a3d 254c 1d3c
000001b0: adf2 aeba 546b cb3c 9cf5 9f3c 8c54 30bc
000001c0: a83e 73bd c5fc 073d 48de ab3c 19f1 193d
000001d0: 3e4a 81bd 757e e9bc 5fe3 823c 95cf 573c
000001e0: c93a 493c 4613 1dbd bd6e 2dbc 8f4f 8c3b
000001f0: 88fc 4bbd 0c5b c93c ac7e 9a3c fbad 61bd
00000200: cfa9 87bd d062 91bc aaf2 42bd 4fbd 20bd
00000210: c8b9 ce3b 0121 003d 8117 70bd 721f b83c
00000220: ee69 c5bb 9955 22bd 6abf 1c3b 185a c4bc
00000230: 1b09 14bc b335 023d 4d7c 933c 735e 033c
00000240: f0f5 6dbd 4771 033d 4780 24bd ef1b b23b
00000250: c995 bc3c 04a6 ae3b 7441 ffbc e0b8 203c
00000260: 6340 0d3c 1687 09ba c079 9abc 9779 3c3c
00000270: 618e 9b3c 3596 d43c a7af 073d 186d 0a3d
00000280: e77c dfba 3ea6 033b bc97 a53c 2501 1bbd
00000290: db54 30bd 5472 163d 2346 27bd 62b7 92ba
000002a0: 7f94 673d 681d 183d cd2c 8c3d 7e94 b03b
000002b0: d377 cb3b e1c8 11bd c3d7 f0bb 8f7a dabc
000002c0: fa2b bcbc 3f18 47bd ab0b 423d 5d61 ecbb
000002d0: b8c6 0a3d acc7 e1bc 104c 17bc 9bff a3bc
000002e0: 51d2 4c3c 3627 eb3c ce23 a53d 3d44 32bc
000002f0: 905b 17bd 1e9c 213d 6c1c 773b 1f89 b53c
00000300: 0181 88bd f26e ff3c 035b 7ebd bc98 15bc
00000310: e443 57bd 034e 053d 84c8 f5bc a8d6 903b
00000320: a181 2dbd e68a 73bc 92be ebbc cc60 4d3d
00000330: dba6 16bd 2467 9c3c 33f7 cbbb a0e6 723b
00000340: f964 93bb 66d6 4c3d 6b51 5d3d 3101 4d3d
00000350: 54c2 513d f6dd ef3c 1a86 623d ad13 e3bc
00000360: cb6b 5fbd d01f e5bb 3f39 f5bc d6ce 063d
00000370: 8396 b83c cda8 19bc e815 b63b 724d 72bd
00000380: 5ec7 a4ba c7c6 063d e866 3d3d e7bc 633c
00000390: 4aba 7abc 10ae c5bb 0609 21bb 4f7d cabb
000003a0: d767 3f3d 31df dcb9 4bf5 0ebc 7fc5 0b3d
000003b0: 42aa ddbc 6a54 013d b935 0e3d 5cea 193d
000003c0: 8836 11bd 5079 003c b450 b13c 6f7f aa3c
000003d0: 1910 8d3c 5610 d3bc e79c 82bd 4c9c fb3c
000003e0: 89c2 6fba d287 093d a78b 2f3c 20eb 123d
000003f0: 4059 a73c 7f80 d33c 6c75 1abc 9470 a5bc
