customized/model/trained_model/vae/vae_z_50batch_128.pth (torch, 947489 bytes, 10 tensors)

fc1.weight f4 [256, 384]
0.021903541 0.019006407 0.009005288 -0.039807174 0.06570287 0.028354893 -0.016757105 -0.04318959
-0.017583914 0.0582924 -0.056833208 -0.012135296 0.011352554 -0.008466886 -0.006085306 0.032693394
-0.014440041 -0.0059750103 -0.047661066 -0.00010934835 0.040568322 -0.046830177 0.009639536 -0.009705634
-0.010015516 -0.0032982551 -0.028196393 0.032250214 0.015999557 0.00629571 -0.017297572 0.030727176
-0.016171494 -0.07095717 -0.015254204 0.023355387 0.060936168 0.0066762846 -0.011260526 -0.02365419
0.01573867 0.059510548 -0.02849706 0.0021331636 0.032372944 0.043514527 -0.014856226 0.00034244498
-0.021170493 -0.030102389 0.017558372 0.00010019112 -0.049639896 -0.038299564 -0.03607974 -0.04330983
0.03926583 -0.033632174 0.06412476 -0.054837003 -0.017755738 -0.010293912 0.004935579 -0.03828271
0.03249536 -0.0090736365 -0.045791354 0.0045064753 -0.007593793 0.010934753 -0.05420362 0.0031687946
0.018516181 0.017201493 -0.010720162 0.042429697 -0.031350147 0.036504634 -0.023683999 -0.014005365
-0.008423146 0.03442493 0.06256041 0.028482165 -0.062469635 0.013761687 0.03863191 0.00036527638
-0.020857431 0.0146990605 0.04121899 0.029173031 0.0016788695 -0.040618945 -0.0076387445 -0.05895242
-0.04264793 0.047964767 -0.049920585 0.008009223 0.04856347 0.06398568 0.031542607 -0.022907926
0.017886586 0.01434119 -0.011390623 0.060198195 0.009885509 0.02177994 -0.03663152 -0.0043735737
0.009125615 -0.041669425 -0.016904173 0.06578934 0.06642634 -0.023531199 0.0071441387 -0.026661737
-0.022613188 0.011318352 -0.037911497 0.013841074 -0.05645946 -0.0621635 0.026694776 0.019994818
-0.0056163226 -0.045490973 -0.0007807453 0.049092963 0.047890168 -0.008248932 -0.02314682 -0.016430961
-0.074846946 -0.0131617375 0.03387072 0.03268404 0.011327332 0.018174114 -0.031310122 0.038883224
0.042448953 -0.04830031 -0.029260587 -0.035698768 -0.05322237 0.00616928 0.027155267 -0.03002259
0.06336156 0.03095548 0.01439289 -0.05348681 -0.016825957 -0.0060735764 -0.011625309 -0.04239223
0.030958436 -0.018645495 -0.0065174154 -0.038044125 -0.068854466 -0.0152817685 0.029462202 -0.006768818
0.02022982 -0.015005358 -0.097235575 0.033367105 -0.029649915 0.0014015861 -0.0029257354 -0.011892692
-0.016099323 -0.011345753 0.016264431 0.030754205 -0.00038789024 0.0389319 0.0144635765 0.014402144
0.035617832 0.022391828 -0.024590481 0.019674774 -0.020350955 -0.07280262 -0.034148965 0.018428855
-0.03907267 -0.010378319 0.037717097 0.016588332 0.035746012 -0.026563777 0.031196816 -0.020076752
0.008239629 0.020579336 0.002938708 -0.030106438 0.026001863 0.048678778 -0.031179698 0.0038740723
-0.022957863 0.020737303 -0.044128716 0.040413424 -0.01136139 0.016032808 0.0061490675 -0.052440725
0.07471171 -0.0002976372 -0.04947348 0.024648553 0.032549545 -0.01118288 -0.01993126 0.04930598
-0.015670216 0.013510522 0.04015141 -0.018275972 0.05134261 -0.040192775 0.041238334 -0.06106025
0.0057455646 0.018145187 0.014912428 -0.0016407327 -0.03084012 0.045208354 0.016700845 0.008624738
-0.02367879 -0.026861908 -0.03591334 -0.040103424 -0.042970423 -0.015252841 -0.0067584277 -0.0013615658
0.046133753 -0.021212608 0.062963024 -0.0051401267 -0.04050601 0.031112432 -0.016086476 -0.048639417
00000000: 0e6f b33c 53b3 9b3c ea8a 133c d90c 23bd
00000010: 3a8f 863d 8548 e83c 3246 89bc 91e7 30bd
00000020: 240c 90bc 03c4 6e3d f0c9 68bd 1fd3 46bc
00000030: 1000 3a3c b2b8 0abc 3f67 c7bb 82e9 053d
00000040: ec95 6cbc 05ca c3bb 4038 43bd f351 e5b8
00000050: f82a 263d 00d1 3fbd 25ef 1d3c 6104 1fbc
00000060: 1e18 24bc 8a27 58bb 1ffc e6bc cd18 043d
00000070: 8111 833c 3e4c ce3b a3b3 8dbc 8fb7 fb3c
00000080: 157a 84bc fe51 91bd c5ec 79bc cc53 bf3c
00000090: 3498 793d bcc4 da3b 127e 38bc 6fc6 c1bc
000000a0: 62ee 803c 55c1 733d ab72 e9bc 8ccc 0b3b
000000b0: 7e99 043d 4a3c 323d 8767 73bc 308a b339
000000c0: be6d adbc 4999 f6bc 93d6 8f3c b31d d238
000000d0: 3453 4bbd 01e0 1cbd 59c8 13bd a665 31bd
000000e0: 35d5 203d e4c1 09bd d853 833d c49c 60bd
000000f0: 7b74 91bc cca7 28bc a3ba a13b 55ce 1cbd
00000100: db19 053d 97a9 14bc b78f 3bbd 0eab 933b
00000110: 5ad5 f8bb ae27 333c 9d04 5ebd 8dab 4f3b
00000120: 3faf 973c 25ea 8c3c 9ea3 2fbc c3ca 2d3d
00000130: 0369 00bd e285 153d f204 c2bc c276 65bc
00000140: 3c01 0abc 2801 0d3d ac1f 803d 6e53 e93c
00000150: 29e0 7fbd b378 613c 7e3c 1e3d 9182 bf39
00000160: 34dd aabc 54d4 703c 3ed5 283d 48fc ee3c
00000170: 830d dc3a 0d60 26bd 6f4e fabb 1878 71bd
00000180: 99af 2ebd b476 443d 8779 4cbd 1e39 033c
00000190: 7dea 463d ed0a 833d d232 013d 67a9 bbbc
000001a0: e486 923c 50f7 6a3c bc9f 3abc 6292 763d
000001b0: d4f6 213c d86b b23c ef0a 16bd 3250 8fbb
000001c0: 9a83 153c 8fad 2abd 9f7a 8abc 90bc 863d
000001d0: 880a 883d 80c4 c0bc 6119 ea3b b769 dabc
000001e0: 4b3f b9bc 9c70 393c 1649 1bbd acc5 623c
000001f0: 0942 67bd 279f 7ebd 01af da3c 2ccc a33c
00000200: 2109 b8bb be54 3abd eeaa 4cba b415 493d
00000210: 7b28 443d 8726 07bc 669e bdbc 399a 86bc
00000220: 5b49 99bd 54a4 57bc 06bc 0a3d b3df 053d
00000230: 4696 393c e1e1 943c 0b3f 00bd 0444 1f3d
00000240: f4de 2d3d 8cd6 45bd e6b3 efbc df38 12bd
00000250: b3ff 59bd ac27 ca3b b974 de3c eff1 f5bc
00000260: b5c3 813d 5996 fd3c 28d0 6b3c fc14 5bbd
00000270: 97d6 89bc da04 c7bb 1478 3ebc 7aa3 2dbd
00000280: 8c9c fd3c 70be 98bc 0b90 d5bb 28d4 1bbd
00000290: 9203 8dbd 6260 7abc b75a f13c f6cc ddbb
000002a0: 02b9 a53c 08d9 75bc 7223 c7bd f2ab 083d
000002b0: 61e4 f2bc 6db5 b73a b2bd 3fbb 91d9 42bc
000002c0: bae2 83bc 8ae3 39bc fc3c 853c 3ef0 fb3c
000002d0: bf5d cbb9 0e77 1f3d a3f8 6c3c f8f6 6b3c
000002e0: 01e4 113d 116f b73c fa71 c9bc fe2c a13c
000002f0: 0cb7 a6bc 8a19 95bd c9df 0bbd 1cf8 963c
00000300: aa0a 20bd d309 2abc 3e7d 1a3d 41e4 873c
00000310: 696a 123d 479c d9bc 7790 ff3c 0078 a4bc
00000320: 82ff 063c ff95 a83c 5797 403b c7a1 f6bc
00000330: dc01 d53c 6663 473d 916c ffbc 26e4 7d3b
00000340: 2112 bcbc 47e1 a93c 50c0 34bd 8c88 253d
00000350: 2025 3abc 3c57 833c 1e7e c93b 16cc 56bd
00000360: 7402 993d 300c 9cb9 b4a4 4abd c3eb c93c
00000370: ac52 053d 6638 37bc e246 a3bc 11f5 493d
00000380: d35e 80bc 3d5b 5d3c ce75 243d 7eb7 95bc
00000390: a14c 523d 2ea1 24bd 87e9 283d 501a 7abd
000003a0: 4a45 bc3b 37a5 943c 4253 743c db0d d7ba
000003b0: 6ba4 fcbc 652c 393d 36d0 883c c64e 0d3c
000003c0: 06fa c1bc 810d dcbc de19 13bd 7d43 24bd
000003d0: c101 30bd 0de7 79bc cd75 ddbb 9176 b2ba
000003e0: bff6 3c3d 10c6 adbc c2f2 803d 826e a8bb
000003f0: a1e9 25bd 80df fe3c c9c7 83bc 203a 47bd

fc1.bias f4 [256]
-0.029992456 -0.04536539 -4.4946155e-05 0.013209154 -0.051674638 -0.0010441121 0.034584597 0.011467023
-0.041852314 -0.030641152 0.016967515 -0.059107143 0.021793505 -0.0063038897 0.0103846295 -0.0050541195
-0.0013219785 -0.04656625 -0.012201865 0.024327999 -0.07065493 -0.0034215811 0.00980488 -0.05533388
-0.039369278 -0.049207572 -0.015430613 0.0313016 0.030114364 -0.04245454 0.005639785 -0.019096319
-0.068861544 -0.025671944 0.0050300793 -0.03777979 0.004029141 0.022165243 0.013784944 -0.021212585
-0.0408835 -0.011544707 -0.046528433 -0.039994452 -0.004305441 -0.027307339 0.029644145 -0.035277084
-0.036538165 -0.0034062464 -0.01194278 -0.007911663 -0.051514924 0.014907205 -0.03259062 -0.047965907
-0.015487464 -0.023547629 -0.029835546 -0.027370581 -0.05453815 -0.06437218 -0.059271246 -0.01580048
0.036389485 0.008497662 -0.0024662325 -0.00735648 -0.010663713 -0.0500703 0.007993593 -0.05371599
0.0013587148 0.006696652 -0.034185383 -0.0106333215 -0.02236514 -0.07799186 -0.06626609 0.0103114275
-0.060136758 -0.061803423 -0.06168955 -0.020537013 0.02435463 -0.052096944 -0.03698329 -0.036885016
-0.06783057 0.018810648 -0.0023016483 -0.026852246 -0.03668118 -0.03303158 -0.065303534 0.02308244
-0.06126448 -0.028973704 0.02870678 -0.07090916 -0.045584433 -0.038015097 0.031000355 0.028898193
0.0017021279 -0.0075481543 -0.021679724 0.0012369942 -0.06084358 0.017660648 0.034973916 -0.049054477
-0.036916833 0.025810532 0.01371684 0.015460963 0.020796396 -0.02079571 -0.011826945 -0.067920655
0.017088296 0.005795886 0.024739988 0.031146856 -0.009671702 -0.045269717 -0.05591346 0.016656894
0.008905427 0.022977848 -0.04425127 0.02276584 -0.024660988 0.025461785 -0.05016288 -0.046378873
-0.02349304 0.009489493 -0.030044695 -0.025107993 -0.012519877 -0.009360855 -0.057636276 0.027100854
-0.07489936 -0.023673309 -0.0068467283 -0.054748986 -0.054677863 0.010395596 -0.016494885 -0.02196902
-0.024100363 -0.05094968 -0.0643493 -0.017632997 -0.012652282 0.015201972 -0.003522462 -0.035420045
0.026061118 0.0011994413 -0.02703894 -0.0024200156 -0.049709987 -0.0484446 -4.1912648e-05 -0.022576796
-0.03029672 -0.036764216 0.0190576 0.028622175 0.011114534 -0.008539342 -0.051910907 0.021580158
-0.023912208 0.008995419 0.005286967 -0.005073905 0.015049311 0.006641451 0.015111397 0.024177825
0.016244844 -0.042563044 0.008188643 -0.009466248 -0.014514536 -0.06470005 -0.045800474 -0.04992907
0.013057375 -0.023611631 -0.0029459845 -0.03667049 -0.014897102 -0.029183745 0.036827482 0.07539833
-0.056351703 -0.05230625 -0.040699508 -0.071361184 -0.06278547 -0.027204765 -0.0049755936 -0.017582746
-0.073600076 0.011154106 0.024880737 -0.004532885 -0.00977414 -0.02449058 -0.011869695 -0.021519935
-0.011835106 -0.026142478 0.017428087 -0.04630573 -0.035436828 -0.006981956 -0.025969472 -0.0057948567
0.0008445171 0.0178519 -0.061839838 -0.029714085 0.013942513 0.01916338 0.024908032 -0.032569997
0.014470732 0.03030185 -0.013485797 -0.05661611 0.014943298 0.009536745 -0.021164637 -0.036928125
-0.039521705 -0.034113128 -0.020095382 -0.021690382 -0.057270568 -0.03193394 -0.036619555 -0.018911753
0.013140272 -0.02214836 -0.048403695 -0.05250162 0.021302884 0.012998542 -0.0148493545 -0.0014516212
00000000: bdb2 f5bc 0fd1 39bd 9184 3cb8 356b 583c
00000010: c9a8 53bd 97da 88ba 94a8 0d3d 2ee0 3b3c
00000020: 556d 2bbd 2703 fbbc 75ff 8a3c 551a 72bd
00000030: 4b88 b23c dc90 cebb 4b24 2a3c 079d a5bb
00000040: 3d46 adba 41bc 3ebd 55ea 47bc 834b c73c
00000050: 88b3 90bd 9b3c 60bb a6a4 203c c7a5 62bd
00000060: ae41 21bd e18d 49bd afd0 7cbc 1b36 003d
00000070: 66b2 f63c d0e4 2dbd f2cd b83b e26f 9cbc
00000080: 4807 8dbd f84d d2bc 5dd3 a43b fbbe 1abd
00000090: e206 843b e293 b53c 3fda 613c 04c6 adbc
000000a0: 7575 27bd 0326 3dbc 9994 3ebd 39d1 23bd
000000b0: a814 8dbb a4b3 dfbc 47d8 f23c b47e 10bd
000000c0: 0ba9 15bd 553b 5fbb a6ab 43bc eb9f 01bc
000000d0: 5001 53bd 593d 743c be7d 05bd e677 44bd
000000e0: 22bf 7dbc f5e6 c0bc ad69 f4bc 4538 e0bc
000000f0: 6563 5fbd 90d5 83bd 68c6 72bd 0270 81bc
00000100: 240d 153d c739 0b3c 84a0 21bb a10e f1bb
00000110: dbb6 2ebc 8416 4dbd 8ff7 023c 4c05 5cbd
00000120: e716 b23a 976f db3b f905 0cbd 6237 2ebc
00000130: 1937 b7bc 32ba 9fbd 84b6 87bd 43f1 283c
00000140: f651 76bd 9625 7dbd 2eae 7cbd 3d3d a8bc
00000150: 5c83 c73c 9b63 55bd ca7b 17bd be14 17bd
00000160: c1ea 8abd ca18 9a3c 40d7 16bb 3ef9 dbbc
00000170: 013f 16bd 1f4c 07bd dcbd 85bd 6317 bd3c
00000180: 77f0 7abd 435a edbc 7b2a eb3c d238 91bd
00000190: beb6 3abd b8b5 1bbd 75f4 fd3c e7bb ec3c
000001a0: ef19 df3a 8256 f7bb ad99 b1bc a322 a23a
000001b0: 1e37 79bd 10ad 903c cf40 0f3d 59ed 48bd
000001c0: 1b36 17bd 9c70 d33c 99bc 603c fb4f 7d3c
000001d0: 345d aa3c c45b aabc cdc5 41bc fc19 8bbd
000001e0: c1fc 8b3c 6aeb bd3b 84ab ca3c b127 ff3c
000001f0: 0f76 1ebc bd6c 39bd 8305 65bd 0a74 883c
00000200: 11e8 113c 0a3c bc3c d240 35bd 6d7f ba3c
00000210: d705 cabc 3c95 d03c 9877 4dbd c6f7 3dbd
00000220: 7a74 c0bc d279 1b3c 4b20 f6bc 47af cdbc
00000230: 2c20 4dbc 465e 19bc 0414 6cbd 9c02 de3c
00000240: d664 99bd 87ee c1bc 855a e0bb 7940 60bd
00000250: e5f5 5fbd 4a52 2a3c 4820 87bc 60f8 b3bc
00000260: 206e c5bc 9db0 50bd 91c9 83bd 1373 90bc
00000270: 844b 4fbc b111 793c 1bd9 66bb 9c14 11bd
00000280: 207e d53c 9236 9d3a c480 ddbc 2099 1ebb
00000290: b39c 4bbd d86d 46bd 5dcb 2fb8 f9f2 b8bc
000002a0: d430 f8bc 1396 16bd af1e 9c3c 0d79 ea3c
000002b0: bc19 363c 99e8 0bbc 88a0 54bd dfc8 b03c
000002c0: 89e3 c3bc 8661 133c 4b3e ad3b 0043 a6bb
000002d0: 6391 763c 87a0 d93b cb95 773c 9310 c63c
000002e0: e813 853c 9656 2ebd a829 063c 5218 1bbc
000002f0: 60ce 6dbc 7681 84bd 4799 3bbd 6d82 4cbd
00000300: 9aee 553c 2e6d c1bc 6b11 41bb cc33 16bd
00000310: f912 74bc c012 efbc 6ad8 163d 716a 9a3d
00000320: 0bd1 66bd 143f 56bd 87b4 26bd d025 92bd
00000330: ab95 80bd 87dc debc 4e0a a3bb b109 90bc
00000340: a3bb 96bd b6bf 363c b0d2 cb3c 9888 94bb
00000350: b723 20bc 78a0 c8bc 1c79 42bc 934a b0bc
00000360: 08e8 41bc c028 d6bc 59c5 8e3c 14ab 3dbd
00000370: 3526 11bd e4c8 e4bb eebd d4bc c8e2 bdbb
00000380: 9562 5d3a 263e 923c c54b 7dbd f46a f3bc
00000390: 236f 643c 85fc 9c3c ee0b cc3c 1e68 05bd
000003a0: a616 6d3c 963b f83c 88f3 5cbc 4be6 67bd
000003b0: bcd4 743c 0240 1c3c 7661 adbc f241 17bd
000003c0: 83e1 21bd 35ba 0bbd 129f a4bc 07b0 b1bc
000003d0: 8b94 6abd 2acd 02bd 63fe 15bd d2ec 9abc
000003e0: 4c4a 573c 7a70 b5bc f442 46bd f00b 57bd
000003f0: 6383 ae3c d6f7 543c b54a 73bc 5344 beba

fc2.weight f4 [50, 256]
-0.033523843 -0.025742145 0.0053243046 0.04692212 -0.05342039 -0.027476784 -0.019345451 0.048015952
0.0064612934 -0.022511786 -0.031765837 -0.025695654 -0.017289935 0.050656203 0.03678993 0.016832491
-0.041848496 -0.02743911 0.038815204 -0.016290199 -0.012792749 0.04317708 0.046387568 -0.04051896
0.0027394108 0.055514045 0.0011403747 0.03597897 -2.6338535e-05 -0.0058550187 -0.011914637 0.010894814
-0.045125168 -0.028222702 -0.008552926 -0.03421532 -0.02032348 0.030272935 0.059651192 -0.0038283
-0.038458977 0.021707542 0.03717166 0.056934852 0.029726772 -0.041390534 0.024884906 0.0018147229
-0.011849595 0.0039933333 0.014675555 -0.026295694 0.019917127 -0.01146943 -0.010443628 -0.020529686
-0.042184252 -0.04769283 0.04799483 0.052030444 0.04732779 -0.04150632 0.0363627 0.03836703
0.008065532 0.047055904 0.044471316 -0.023498489 0.016458655 -0.015416656 -0.04638057 -0.030200658
0.024915762 -0.029834628 0.062179647 -0.052210398 0.0145860175 0.00957923 -0.014983483 -0.009072738
-0.039942294 0.004814123 0.032351326 -0.014868386 -0.047760434 -0.023038372 0.008310683 -0.036093965
0.008983624 0.012771898 0.02482213 -0.029367445 -0.05983773 -0.03331416 0.048565555 0.052188165
0.03403588 -0.031827033 0.0124362055 0.017974613 0.015554654 -0.03405244 0.018293794 0.04540762
-0.04933193 -0.034188382 0.002467724 -0.025852779 0.049899984 -0.059801836 -0.0041973614 0.044564318
0.01793905 -0.048395548 0.017445363 -0.054270398 0.053181812 0.01567379 -0.042086016 0.026213247
-0.0030770125 0.007179266 -0.02045699 -0.011589173 -0.043401 0.03803023 -0.039454468 0.0054066977
0.042595964 0.0042598723 0.009003569 0.017417055 -0.0030503327 -0.028580982 0.047109224 0.035834502
-0.010371946 0.044798598 0.0026127049 0.05863865 0.0023063305 -0.018674077 0.032351717 0.015149456
-0.011425679 0.03219012 -0.041304212 -0.04363867 -0.029925562 -0.033782266 -0.020625016 0.023288885
-0.0013163337 -0.008866064 -0.0328345 -0.009700799 0.015647091 -0.0049767615 0.010189125 -0.017820718
0.035458352 0.048595533 0.038183987 0.02824479 -0.025557062 -0.008503976 0.015331241 -0.058011025
0.016189259 0.05585072 0.010446982 0.05147858 0.015721932 -0.021324383 -0.033188935 0.0028203984
0.00045518327 -0.021160008 -0.044156108 0.006230574 0.016611883 0.0032417024 0.013041756 0.018437672
-0.027387135 0.0008238111 0.044917803 0.029002368 0.02321909 -0.003040313 -0.020567378 -0.05751344
0.011356748 0.01930733 -0.033127468 -0.05038354 -0.039714016 0.053301737 -0.022670418 0.006578143
0.034049068 -0.02823175 -0.0147544965 -0.0041512367 0.021399407 -0.047166668 0.048645712 -0.030827977
0.045109846 0.03676071 -0.02368175 0.007996965 0.015526953 0.0044691614 0.021121854 -0.010782448
-0.03275099 0.03395883 0.009259539 -0.018683232 0.03223402 0.01752342 0.0014713157 0.014566324
0.023588002 0.008383254 0.06300559 -0.027799623 0.012259263 0.0054258164 -0.032084305 -0.0011008682
-0.003861429 0.026182786 -0.025488887 0.043955453 0.024471939 0.041712083 0.0015418676 0.031307146
-0.020818738 0.039279237 0.020514099 -0.03278854 -0.0045902827 0.030378914 -0.034908857 0.028916908
0.049240965 -0.015816988 -0.046199664 -0.035857443 -0.008639684 -0.024927005 -0.016037786 -0.0004072225
00000000: 4c50 09bd 31e1 d2bc 8177 ae3b 6931 403d
00000010: 57cf 5abd fe16 e1bc 5a7a 9ebc 60ac 443d
00000020: 42b9 d33b a36a b8bc e51c 02bd b17f d2bc
00000030: 9fa3 8dbc e17c 4f3d 0ab1 163d 4be4 893c
00000040: 5469 2bbd fcc7 e0bc b1fc 1e3d 0673 85bc
00000050: ae98 51bc 73da 303d e400 3e3d 36f7 25bd
00000060: b087 333b b262 633d a078 953a af5e 133d
00000070: 93f1 dcb7 75db bfbb 9c35 43bc 2980 323c
00000080: 2bd5 38bd 4c33 e7bc 9221 0cbc 5d25 0cbd
00000090: 6d7d a6bc f2fe f73c cf54 743d 37e4 7abb
000000a0: 2987 1dbd 04d4 b13c 5041 183d 8534 693d
000000b0: 8f85 f33c 1f89 29bd 6edb cb3c ffdb ed3a
000000c0: ce24 42bc 82da 823b bd71 703c 116a d7bc
000000d0: 3e29 a33c 47ea 3bbc c01b 2bbc df2d a8bc
000000e0: 65c9 2cbd 8f59 43bd 3a96 443d e01d 553d
000000f0: c9da 413d 8802 2abd 0ef1 143d bf26 1d3d
00000100: 4b25 043c b1bd 403d 8e27 363d e77f c0bc
00000110: 4dd4 863c 2496 7cbc 8df9 3dbd 5f67 f7bc
00000120: 241c cc3c c067 f4bc 16b0 7e3d 92da 55bd
00000130: 31fa 6e3c 34f2 1c3c 487d 75bc d2a5 14bc
00000140: 889a 23bd cabf 9d3b d382 043d 889a 73bc
00000150: 72a0 43bd f8ba bcbc 8829 083c 44d7 13bd
00000160: 0d30 133c 3941 513c c857 cb3c ff93 f0bc
00000170: 6818 75bd 6e74 08bd adec 463d 42c3 553d
00000180: 3569 0b3d 105d 02bd 3ac1 4b3c 7f3f 933c
00000190: f3d8 7e3c 927a 0bbd dedc 953c 57fd 393d
000001a0: 4710 4abd 1e09 0cbd 8ab9 213b 35c9 d3bc
000001b0: ed63 4c3d c5f2 74bd 058a 89bb 1389 363d
000001c0: eaf4 923c 693a 46bd 94e9 8e3c a34a 5ebd
000001d0: 2cd5 593d 5266 803c 6362 2cbd 2abd d63c
000001e0: b4a7 49bb 0c40 eb3b 6b95 a7bc 84e0 3dbc
000001f0: 3fc5 31bd 96c5 1b3d 029b 21bd ab2a b13b
00000200: 1b79 2e3d 6696 8b3b b583 133c 36ae 8e3c
00000210: 17e8 47bb aa22 eabc 9af5 403d 33c7 123d
00000220: 18ef 29bc bc7e 373d ea39 2b3b 152f 703d
00000230: ce25 173b 61fa 98bc 3c83 043d 6d35 783c
00000240: c532 3bbc cad9 033d 9b2e 29bd 76be 32bd
00000250: 7426 f5bc 465f 0abd cbf5 a8bc 55c8 be3c
00000260: d488 acba f842 11bc 787d 06bd 1af0 1ebc
00000270: 542e 803c 1a14 a3bb 4af0 263c c1fc 91bc
00000280: c73c 113d 1c0c 473d d066 1c3d 9e61 e73c
00000290: 0b5d d1bc 4354 0bbc e32f 7b3c f89c 6dbd
000002a0: 569f 843c b9c3 643d d229 2b3c 34db 523d
000002b0: 48cb 803c 79b0 aebc 1ff1 07bd 6fd6 383b
000002c0: aaa5 ee39 c157 adbc 09dd 34bd d829 cc3b
000002d0: a515 883c be72 543b 17ad 553c 9a0a 973c
000002e0: fc5a e0bc 07f5 573a bbfb 373d 6096 ed3c
000002f0: f635 be3c fd3f 47bb eb7c a8bc 3693 6bbd
00000300: a711 3a3c 682a 9e3c abb0 07bd f95e 4ebd
00000310: 2aab 22bd ec52 5a3d 50b7 b9bc 778d d73b
00000320: 0977 0b3d 4546 e7bc d8bc 71bc 1907 88bb
00000330: cf4d af3c d631 41bd ba40 473d f48a fcbc
00000340: 1ac5 383d 6692 163d 3b00 c2bc b405 033c
00000350: c364 7e3c 0b72 923b bd07 ad3c dda8 30bc
00000360: e725 06bd 6a18 0b3d 52b5 173c 940d 99bc
00000370: d207 043d 468d 8f3c 2ad9 c03a 97a7 6e3c
00000380: a03b c13c ea59 093c 1309 813d 09bc e3bc
00000390: 13db 483c 0ccb b13b d56a 03bd 024b 90ba
000003a0: 0710 7dbb 487d d63c 12ce d0bc a20a 343d
000003b0: 6079 c83c 4ada 2a3d 7e18 ca3a ec3b 003d
000003c0: 0f8c aabc 44e3 203d 2f0d a83c 474d 06bd
000003d0: 156a 96bb 33dd f83c 97fc 0ebd 27e3 ec3c
000003e0: e5b0 493d a192 81bc dc3b 3dbd 41df 12bd
000003f0: 768d 0dbc b833 ccbc ad61 83bc 7b80 d5b9

fc2.bias f4 [50]
-0.006349442 0.040488787 -0.014037606 -0.032037444 -0.015098397 -0.025191206 -0.008527057 0.021809572
-0.013864168 -0.01728573 -0.0031188086 0.012876766 0.009607647 0.027054204 -0.00033633946 -0.0023094448
-0.0046897503 -0.01108242 0.0035205449 0.0003304752 -0.008205161 -0.004252355 -0.019652158 -0.008109465
0.018979853 -0.008555738 0.002915227 0.024484124 0.009843494 0.022354115 -0.0073761097 -0.010972423
-0.0060152537 0.018624917 -0.0007765915 -0.014860525 0.022244876 -0.028479097 -0.019816622 -0.009715701
0.010618463 0.014061319 0.020432355 -0.009052062 -0.022145748 0.012435934 -0.00097261125 -0.018352719
0.0116260145 0.021282125
00000000: fb0e d0bb 92d7 253d fdfd 65bc b239 03bd
00000010: 445f 77bc ca5d cebc 12b5 0bbc fda9 b23c
00000020: 8926 63bc ce9a 8dbc ed64 4cbb 12f9 523c
00000030: 6469 1d3c c7a0 dd3c b856 b0b9 0e5a 17bb
00000040: 7aac 99bb 0a93 35bc f1b8 663b a143 ad39
00000050: f16e 06bc 5757 8bbb 90fd a0bc 90dd 04bc
00000060: a37b 9b3c 5e2d 0cbc 650d 3f3b ee92 c83c
00000070: 9b46 213c fa1f b73c 4bb3 f1bb adc5 33bc
00000080: 9b1b c5bb 4893 983c 2c94 4bba 8f79 73bc
00000090: e33a b63c ff4c e9bc 7856 a2bc 9b2e 1fbc
000000a0: 10f9 2d3c 7261 663c c161 a73c 1a4f 14bc
000000b0: 006b b5bc 16c0 4b3c d6f6 7eba 7158 96bc
000000c0: 0a7b 3e3c da57 ae3c

fc3.weight f4 [50, 256]
0.046623036 0.033182565 0.012880694 0.012089792 0.0039431453 -0.0018306759 -0.03963041 -0.025050335
0.054891936 -0.051589075 -0.00043509208 -0.05572025 0.0050922167 -0.011577544 0.008053858 -0.014905446
-0.017579826 -0.04252082 -0.03617515 -0.018906761 -0.033751335 -0.0065313363 -0.0036186085 0.003527652
-0.018603608 -0.03122891 0.030781807 -0.019063937 0.03533167 0.01598945 -0.03840056 -0.024222787
0.04885596 -0.0022676687 -0.0072981836 0.013070437 -0.053990662 -0.0228928 0.058546226 -0.027870975
-0.030127253 -0.017276272 0.028823975 0.046015706 0.002909893 -0.0027477762 0.011826719 0.005255754
-0.05567222 -0.02099045 -0.025431978 0.03252932 0.028508112 -0.036745667 0.022367155 0.045616932
-0.016136322 0.018743718 0.012534013 0.026212713 0.021756837 0.042480398 -0.03746322 0.052604012
0.06960739 -0.0010604836 -0.037792 0.0102649685 -0.051854413 -0.034702606 0.025042009 -0.045999542
0.024980865 -0.050376035 -0.002042949 0.043441538 0.04157525 0.051544853 0.0042645014 -0.025646346
0.029628927 -0.05365644 0.02342429 -0.0035894448 -0.039797634 -0.028797058 0.0025797659 -0.047655467
-0.041032054 0.028691344 -0.034282334 0.030852785 0.0072135553 -0.016090073 -0.03056152 -0.058080874
-0.053876106 0.04022381 0.022695556 -0.020857342 -0.037598755 0.032582413 -0.015131643 -0.009408693
0.02175145 0.028963638 0.012312131 0.010269231 0.04743018 -0.0018976636 -0.032583177 -0.04572362
0.043783043 -0.012653603 0.038510337 0.031367145 0.041515365 -0.035020616 0.02815013 0.047706682
0.026535287 0.023749312 -0.05635476 -0.010562184 -0.021536903 -0.0028803938 -0.024627453 -0.012066887
-0.029131243 0.02868473 -0.018858194 -0.043643445 0.04693972 -0.012007969 -0.018681254 -0.02861995
-0.029973738 -0.031156702 0.033401582 -0.012639817 0.026308924 0.014692744 0.01942753 0.0011466844
-0.014327371 0.035812188 0.019104889 -0.057337154 0.006668692 0.009015665 -0.042665254 0.0135183325
-0.030832423 -0.03476394 -0.00037723835 -0.01104619 -0.032978598 -0.013477674 -0.022814495 0.021268997
0.0038644068 -0.0015064719 -0.016114483 -0.05190659 -0.012981942 0.0019609034 0.019867675 -0.0469394
-0.035841618 -0.03211117 0.042841587 -0.023828004 0.031691074 0.008262252 0.066246055 -0.005569112
-0.054921273 -0.013542762 -0.029127415 -0.009503528 -0.0043640663 -0.04552168 0.04336215 -0.0075849057
-0.028074402 0.05352883 -0.029188687 0.01860152 -0.02216306 0.055446226 -0.0123903155 0.023901023
0.033419862 0.017080449 0.010605505 -0.0258183 0.04184651 -0.015436951 -0.0060307635 -0.0066085015
0.02679065 0.023850197 0.07251988 0.023542939 -0.057619773 0.032117017 0.028845668 0.011774141
-0.06864096 0.03275137 -0.0036616956 0.030152546 -0.017699577 0.02055287 -0.011022628 -0.057483684
0.021380665 -0.041862834 -0.029631257 0.038378205 -0.011259504 0.026480623 -0.010073481 0.024944535
-0.023879953 0.014919802 0.017529564 -0.0149472905 0.015577444 -0.03400488 -0.043647155 -0.039933965
0.05828719 -0.017612807 -0.0125818355 0.024794754 0.003227638 -0.046777822 0.05735024 -0.03293167
-0.018862315 -0.010926866 0.02798498 -0.010391835 -0.044137113 0.053741362 -0.010911711 -0.020873146
0.02043718 0.0045791054 -0.023314437 0.012958514 -0.037212383 0.019162351 0.000400164 0.006597744
00000000: ccf7 3e3d 71ea 073d 8c09 533c 4314 463c
00000010: 8035 813b 4af3 efba 7f53 22bd 5c36 cdbc
00000020: 5ed6 603d 114f 53bd 121d e4b9 eb3a 64bd
00000030: 9cdc a63b bdaf 3dbc 54f4 033c f935 74bc
00000040: 9103 90bc 502a 2ebd 652c 14bd 5ae2 9abc
00000050: d73e 0abd d204 d6bb 2d26 6dbb 2e30 673b
00000060: 9866 98bc c5d3 ffbc 212a fc3c f92b 9cbc
00000070: f1b7 103d 4ffc 823c e849 1dbd de6e c6bc
00000080: 301d 483d 2b9d 14bb 9a25 efbb 6325 563c
00000090: 5025 5dbd ae89 bbbc 2bce 6f3d ac51 e4bc
000000a0: 6ecd f6bc f886 8dbc 4220 ec3c f77a 3c3d
000000b0: e7b3 3e3b 0914 34bb dbc4 413c 7638 ac3b
000000c0: 8e08 64bd 2af4 abbc b956 d0bc 773d 053d
000000d0: d889 e93c a082 16bd 533b b73c d2d8 3a3d
000000e0: 5230 84bc 6d8c 993c 765b 4d3c 0bbc d63c
000000f0: 653b b23c edff 2d3d 0973 19bd 4e77 573d
00000100: 528e 8e3d edff 8aba c9cb 1abd 662e 283c
00000110: 4b65 54bd 5224 0ebd e624 cd3c 046a 3cbd
00000120: aca4 cc3c 1a57 4ebd ffe2 05bb c1ef 313d
00000130: cf4a 2a3d b220 533d 3bbd 8b3b 4918 d2bc
00000140: 5db8 f23c dbc6 5bbd 4ce4 bf3c e43c 6bbb
00000150: d802 23bd cfe7 ebbc 4a11 293b 6132 43bd
00000160: 3a11 28bd 1c0a eb3c a26b 0cbd fbbe fc3c
00000170: b05f ec3b 54cf 83bc 275c fabc 36e6 6dbd
00000180: 31ad 5cbd b9c1 243d 08ec b93c 04dd aabc
00000190: 2701 1abd 2375 053d b6ea 77bc eb26 1abc
000001a0: 1930 b23c 2745 ed3c d2b8 493c 4740 283c
000001b0: 2646 423d 06bb f8ba f075 05bd b148 3bbd
000001c0: d955 333d 0f51 4fbc 04bd 1d3d d67a 003d
000001d0: 040c 2a3d c771 0fbd 1a9b e63c 1568 433d
000001e0: 8860 d93c eb8d c23c 40d4 66bd 030d 2dbc
000001f0: 296e b0bc fdc4 3cbb 83bf c9bc 31b4 45bc
00000200: a5a4 eebc 3dfc ea3c 807c 9abc 78c3 32bd
00000210: dd43 403d 13bd 44bc 6e09 99bc 6374 eabc
00000220: 7c8b f5bc 573c ffbc 19d0 083d 3c17 4fbc
00000230: d085 d73c d6b9 703c 7c26 9f3c 584c 963a
00000240: 59bd 6abc cdaf 123d db81 9c3c 5dda 6abd
00000250: 0b85 da3b 71b6 133c c3c1 2ebd ff7b 5d3c
00000260: 4794 fcbc a264 0ebd 13c8 c5b9 14fb 34bc
00000270: 9114 07bd 76d1 5cbc 77e5 babc 523c ae3c
00000280: fd41 7d3b cf74 c5ba 8502 84bc 019c 54bd
00000290: 36b2 54bc 8082 003b 89c1 a23c 8743 40bd
000002a0: a9ce 12bd 0187 03bd a97a 2f3d f232 c3bc
000002b0: 80ce 013d 665e 073c 03ac 873d 197d b6bb
000002c0: 21f5 60bd 76e2 5dbc 9e9c eebc afb4 1bbc
000002d0: 7100 8fbb f174 3abd 839c 313d cd8a f8bb
000002e0: 4afc e5bc 0c41 5b3d 1d1d efbc 3762 983c
000002f0: 4e8f b5bc 951b 633d c000 4bbc 14cc c33c
00000300: 44e3 083d 4cec 8b3c b6c2 2d3c e680 d3bc
00000310: 3f67 2b3d 44eb 7cbc b69d c5bb 218c d8bb
00000320: 1178 db3c 7d61 c33c 4e85 943d 1fdd c03c
00000330: b602 6cbd 228d 033d c04d ec3c 54e8 403c
00000340: a293 8cbd 4d26 063d 0ff9 6fbb 7902 f73c
00000350: b4fe 90bc 7e5e a83c 4198 34bc 0374 6bbd
00000360: 8126 af3c 5d78 2bbd 40bd f2bc 7732 1d3d
00000370: c879 38bc e4ed d83c 3e0b 25bc 7b58 cc3c
00000380: e49f c3bc 2f72 743c 299a 8f3c 7be5 74bc
00000390: 8938 7f3c b348 0bbd 5cc7 32bd cc91 23bd
000003a0: 8cbe 6e3d bc48 90bc 0b24 4ebc 5e1e cb3c
000003b0: c886 533b 1a9a 3fbd 16e8 6a3d 5ce3 06bd
000003c0: 2485 9abc 9906 33bc c240 e53c 8442 2abc
000003d0: 1ec9 34bd e71f 5c3d 08c7 32bc 29fe aabc
000003e0: df6b a73c 520c 963b ebfd bebc f24f 543c
000003f0: 036c 18bd 5dfa 9c3c 1acd d139 e331 d83b

fc3.bias f4 [50]
0.009265488 -0.029934857 0.014973579 -0.006420647 -0.0045242454 0.033070486 -0.0047149383 0.0076572066
0.0023058655 -0.016915435 0.016782815 -0.019611735 0.026966361 0.028184569 0.012563678 -0.010023262
0.0055460962 0.016314438 0.0044741584 -0.017457359 0.019842109 0.021437367 -0.022903332 0.019863142
-0.004604958 -0.00044603297 0.009281505 -0.005031043 -0.005264201 -0.0073085767 0.010775513 0.009545613
-0.0033320312 0.01184445 0.029241066 -0.006023064 -0.006136434 0.013192427 0.0025566504 0.022076301
-0.0077829123 -0.009344297 0.027393177 0.011794593 -0.015491903 -0.011370927 -0.015714869 -0.02461444
-0.0067844316 -0.027959531
00000000: 46ce 173c f239 f5bc be53 753c 4a64 d2bb
00000010: 1f40 94bb eb74 073d c57f 9abb 4ee9 fa3b
00000020: 011e 173b 3d92 8abc 1d7c 893c caa8 a0bc
00000030: 8fe8 dc3c 53e3 e63c e3d7 4d3c 9c38 24bc
00000040: 07bc b53b dba5 853c f69b 923b bc02 8fbc
00000050: eb8b a23c 6b9d af3c c59f bbbc 07b8 a23c
00000060: 30e5 96bb 88d9 e9b9 7411 183c 73db a4bb
00000070: 527f acbb c97c efbb c78b 303c 3465 1c3c
00000080: 355e 5abb 390f 423c f68a ef3c 1f5d c5bb
00000090: 2414 c9bb 0d25 583c 7a8d 273b 5cd9 b43c
000000a0: cd07 ffbb d318 19bc a867 e03c 1c3e 413c
000000b0: c0d1 7dbc 204d 3abc 78bc 80bc 39a4 c9bc
000000c0: f04f debb 630b e5bc

fc4.weight f4 [256, 50]
-0.032900598 -0.021983394 0.0042316536 -0.0064025135 0.019646455 0.003652369 0.03642699 0.040519312
-0.0026148094 -0.021794217 0.022294572 -0.009375966 0.002881314 -0.0035773907 0.00444114 0.038870238
0.0115671735 0.0068545444 -0.02636547 -0.03093065 -0.017431779 0.013900264 -0.013693042 0.0122633735
-0.03730595 -0.017706396 0.027013984 -0.010439189 0.0003343403 -0.005285461 -0.015342343 0.01939195
-0.030791434 0.00548055 -0.012516955 -0.00863773 0.0013910925 -0.031316053 0.006030753 -0.023967702
-0.014345068 -0.0037505412 0.0113887265 -0.041618586 0.009982504 0.005211393 0.030765213 0.005996723
-0.0056485543 0.017532462 -0.02816076 0.024443682 0.00130235 0.011059564 0.040453684 0.022626445
-0.022308974 -0.0073388065 -0.0017316436 0.020170147 0.005757191 -0.017600128 0.019933915 0.024187611
-0.0049708765 -0.0036094033 0.0059424746 -0.028115664 0.0023229488 0.012770318 0.030842151 -0.0053575127
0.0017259029 0.0140782995 0.007647926 0.038890198 -0.0067379293 0.026093563 0.031526882 -0.024288913
-0.0017954033 -0.0070046866 0.028492657 -0.010418414 -0.022672951 -0.028382327 0.015375572 -0.009329139
-0.019841205 -0.017490182 0.011118863 0.023093844 -0.018006258 0.0028579999 0.013784476 0.009425343
0.019046262 -0.0054460424 -0.013058461 0.014938281 -0.00015190386 0.029320775 -0.019818788 0.0034429864
0.0015847132 0.0041762753 -0.0060063675 0.0051577897 -0.0068439506 0.0050354693 -0.022935024 0.0054544965
0.019809086 -0.01586971 -0.017261025 0.0031744363 0.005103717 0.017068624 -0.026631089 0.004789209
0.022368208 0.009899993 0.014209008 -0.0054147863 0.006948229 -0.015578327 -0.01238871 0.019314608
0.031247051 0.023257563 0.010188288 0.016500544 -0.0015874361 0.025544975 0.0033171459 0.00015437236
0.006081822 -0.005000282 0.01066748 0.009491765 0.012713834 0.024435285 0.0018220396 0.017769631
-0.018036796 -0.0016579711 -0.044207912 0.0016933794 -0.021825897 -0.008732843 -0.03183418 -0.030518511
-0.0071947803 -0.023485012 0.03288787 -0.030263996 -0.011246244 -0.018597852 -0.01911408 -0.027902247
-0.027874613 0.036242675 0.019397758 -0.014425666 0.009055026 0.0025179922 0.03193631 0.004697175
0.016136335 0.005113041 -0.017499195 0.003371245 0.03500579 -0.007950661 -0.00037887922 -0.002478404
-0.020060576 -0.03384316 -0.008694411 0.011671819 0.013838326 -0.011784355 -0.019241009 0.014258734
0.00033225783 -0.02783214 0.04347516 0.024138257 0.02765625 0.0007057073 0.006249579 -0.011312109
-0.017434284 -0.009037734 -0.02758268 -0.011488793 -0.025115216 0.016277099 0.036165945 0.018605236
0.009083587 0.035369966 0.006512607 0.023791218 0.024784198 0.011883226 0.013396398 0.010585204
0.0025900032 0.00904598 0.002898422 0.026377887 -0.03877283 0.02425046 -0.015803013 -0.046142317
0.028067142 -0.007903375 -0.025093775 0.011479149 0.009138071 0.038263414 -0.0062522474 -0.013605294
-0.011310477 -0.032553267 0.061475754 0.048480734 -0.020056635 0.010869053 -0.0057395347 0.013082854
0.038705423 -0.016285531 0.004256234 -0.023942184 0.04885727 0.0039378675 0.025874669 -0.03133769
0.031464685 0.004435697 0.003478953 0.0060474323 -0.023439921 0.018982908 0.018652959 -0.013324587
0.03288341 0.025345623 -0.003593118 -0.014937047 -0.00637735 -0.0136038195 0.0007794287 -0.004955132
00000000: c7c2 06bd 8516 b4bc afa9 8a3b 2dcc d1bb
00000010: 9af1 a03c 955c 6f3b 7834 153d 94f7 253d
00000020: 395d 2bbb c989 b2bc 1ba3 b63c a79d 19bc
00000030: 6dd4 3c3b a872 6abb fc86 913b 6636 1f3d
00000040: 3e84 3d3c 169c e03b 66fc d7bc 4662 fdbc
00000050: 17cd 8ebc efbd 633c c858 60bc 51ec 483c
00000060: 20ce 18bd 010d 91bc 6e4c dd3c 2209 2bbc
00000070: 654a af39 a931 adbb 735e 7bbc dedb 9e3c
00000080: 513e fcbc 3096 b33b ea13 4dbc 4485 0dbc
00000090: 5255 b63a 4345 00bd 9f9d c53b ea57 c4bc
000000a0: 9307 6bbc a4cb 75bb c897 3a3c 4078 2abd
000000b0: a88d 233c 55c4 aa3b 5407 fc3c 2980 c43b
000000c0: 8217 b9bb 3da0 8f3c 65b1 e6bc 1e3e c83c
000000d0: 9db3 aa3a 2c33 353c c3b2 253d 185b b93c
000000e0: 4fc1 b6bc 5f7a f0bb 51f8 e2ba dd3b a53c
000000f0: d2a6 bc3b 252e 90bc 734c a33c 1925 c63c
00000100: bce2 a2bb bd8b 6cbb 17b9 c23b d252 e6bc
00000110: 9d3c 183b 993a 513c aea8 fc3c 138e afbb
00000120: b137 e23a aba8 663c 749b fa3b 544b 1f3d
00000130: d9c9 dcbb 2bc2 d53c 5522 013d 8bf9 c6bc
00000140: bd53 ebba 9287 e5bb 6f69 e93c ffb1 2abc
00000150: a0bc b9bc 0e82 e8bc d3e9 7b3c 3fd9 18bc
00000160: 068a a2bc 9247 8fbc e42b 363c 4d2f bd3c
00000170: dc81 93bc 484d 3b3b 48d8 613c c16c 1a3c
00000180: e806 9c3c b774 b2bb 28f3 55bc b1bf 743c
00000190: 6248 1fb9 1f32 f03c 035b a2bc baa3 613b
000001a0: 27b6 cf3a 23d9 883b 10d1 c4bb ad02 a93b
000001b0: 3843 e0bb 9400 a53b 3be2 bbbc a2bb b23b
000001c0: aa46 a23c 3201 82bc fe66 8dbc 340a 503b
000001d0: 153d a73b 80d3 8b3c 7129 dabc ccee 9c3b
000001e0: 883d b73c 9533 223c e6cc 683c 856e b1bb
000001f0: f8ad e33b 3d3c 7fbc 04fa 4abc ab39 9e3c
00000200: d1f9 ff3c a586 be3c c7ec 263c 262c 873c
00000210: 8411 d0ba b243 d13c 7964 593b 04df 2139
00000220: 054a c73b 68d9 a3bb a7c6 2e3c 5983 1b3c
00000230: af4d 503c 822c c83c 81d1 ee3a 9e91 913c
00000240: e7c1 93bc 4750 d9ba 5b13 35bd 62f4 dd3a
00000250: 39cc b2bc 3314 0fbc 8f64 02bd f501 fabc
00000260: 31c2 ebbb a463 c0bc 6eb5 063d 33ec f7bc
00000270: 2b42 38bc 865a 98bc 2295 9cbc 4193 e4bc
00000280: 4d59 e4bc 3373 143d 0ce8 9e3c a159 6cbc
00000290: 885b 143c e604 253b a6cf 023d c3ea 993b
000002a0: 5930 843c 4c8b a73b 795a 8fbc 1bf0 5c3b
000002b0: 3b62 0f3d 7d43 02bc 4fa4 c6b9 b86c 22bb
000002c0: 1456 a4bc 209f 0abd 0173 0ebc 283b 3f3c
000002d0: 25ba 623c 2b13 41bc 529f 9dbc 779d 693c
000002e0: e432 ae39 3a00 e4bc 0213 323d 98bd c53c
000002f0: 5c8f e23c 37ff 383a 45c9 cc3b 6d56 39bc
00000300: 58d2 8ebc 0113 14bc 13f5 e1bc 7e3b 3cbc
00000310: 6dbe cdbc 8d57 853c be22 143d 026a 983c
00000320: 53d3 143c 19e0 103d b567 d53b cde5 c23c
00000330: 3b08 cb3c ddb1 423c 917c 5b3c 906d 2d3c
00000340: 0bbd 293b 9735 143c 74f3 3d3b 7016 d83c
00000350: 42d0 1ebd e7a8 c63c 5275 81bc baff 3cbd
00000360: 10ed e53c 287d 01bc 7691 cdbc 0a13 3c3c
00000370: d9b7 153c 19ba 1c3d a7df ccbb bde8 5ebc
00000380: 944f 39bc 9356 05bd 00ce 7b3d bc93 463d
00000390: d04d a4bc 1d14 323c b512 bcbb 7859 563c
000003a0: 9489 1e3d 3c69 85bc e177 8b3b 6622 c4bc
000003b0: 901e 483d 3a09 813b 1df7 d33c f35b 00bd
000003c0: 1de1 003d 5359 913b 25ff 633b 8a29 c63b
000003d0: 1405 c0bc 0b82 9b3c 17ce 983c 5e4f 5abc
000003e0: c1b0 063d a0a1 cf3c 847a 6bbb 84ba 74bc
000003f0: 17f9 d0bb 8ee2 5ebc 9352 4c3a a95e a2bb

fc4.bias f4 [256]
0.04897939 -0.1475235 -0.040044084 0.124392405 0.1589776 0.09077337 -0.06450028 0.17859268
-0.10517485 -0.20811678 0.083729945 -0.25487986 0.0331652 0.18159844 0.18168111 -0.10048789
0.13070752 -0.05506282 -0.12612103 0.0049345307 -0.0036218995 -0.18730417 -0.19959036 0.123926006
-0.012845296 0.11652404 -0.11562723 -0.24586396 -0.074073225 -0.08121039 0.12503493 -0.037449334
0.11215277 -0.17662661 -0.058167957 0.025748866 0.17657879 0.08061721 0.14135884 0.23103419
-0.08179172 -0.097255275 0.060696293 -0.073448226 0.02784539 -0.048485525 -0.07862151 0.23685564
-0.07684495 0.21777706 0.0049026306 -0.09021438 0.1648677 -0.25188974 -0.10364143 0.22158386
-0.193474 -0.025869688 0.049639042 -0.028573204 0.14894292 -0.08717666 -0.052488174 -0.007457974
0.02745274 -0.050955143 0.021573646 -0.061835356 -0.1259421 0.05631828 -0.035737175 0.15443884
-0.23373848 0.113803566 0.046004787 0.06278046 -0.18356852 0.03378602 0.051053084 -0.24742536
0.02797883 0.14551224 0.12291147 0.039577615 -0.23948117 0.025981354 -0.16589749 0.11307209
0.085318856 0.17142218 0.05062301 -0.053139925 -0.10954982 0.010435126 -0.04830633 0.055684038
0.10205663 -0.07086376 -0.19077836 -0.07575038 -0.051525272 0.1574908 -0.0011145499 -0.07697758
-0.20719704 -0.021558799 0.06804105 -0.2556056 -0.21191016 -0.006226351 -0.2219505 -0.06544545
0.2085698 0.0052267076 -0.049060147 0.07188767 0.11325013 -0.015011734 0.091901675 0.101864174
0.15573636 0.11205386 -0.064854965 0.15265775 0.18658432 0.027345283 -0.08703497 -0.16484697
0.0036007469 0.0010551779 -0.027617192 -0.042578213 -0.13096729 0.10180202 0.21451563 -0.06858004
-0.21659687 -0.07788923 -0.2073624 0.059407186 -0.17782547 -0.1361909 -0.016983878 0.20078382
0.08715772 0.16235037 -0.103645034 0.20537138 0.070455745 0.0964656 0.024168741 0.075791135
-0.02618255 -0.21762356 0.24323145 -0.18449502 -0.19211298 -0.20510152 -0.034328874 0.13281533
-0.2364333 -0.16806433 0.08954629 -0.21214099 -0.0028538427 0.08404117 -0.09606465 -0.09877377
0.15480596 0.005181522 -0.058807652 -0.16107233 0.2140814 0.21474999 -0.08529781 0.22596486
-0.11752411 0.018757088 -0.12851116 0.09516737 0.10653085 -0.20250565 0.055775985 0.2290464
0.0892065 -0.2483606 0.13130663 -0.051228292 -0.128165 -0.12624122 -0.2328716 0.17141767
0.13476641 -0.034689445 0.21890938 -0.103981696 0.053771924 -0.050338544 -0.06220105 -0.13010894
0.024393603 0.08789872 0.12710287 0.051974438 0.11701828 -0.104830176 0.21889709 0.025929993
-0.16512775 0.11842484 -0.07697531 -0.09570366 -0.19496329 -0.013412585 -0.0821934 0.1266551
-0.16853744 -0.054269936 -0.21530244 -0.21947622 0.12891847 -0.15050854 0.20849025 -0.14177874
-0.001980014 0.22474666 0.051360514 -0.085309334 0.18621978 -0.18731543 0.03876774 -0.14250503
-0.14644755 0.1663564 -0.054724902 0.1458138 -0.079627775 0.09859588 -0.21567094 0.012773616
-0.17031606 0.18137781 -0.23062384 -0.0152383875 0.06731246 0.04864545 -0.20958191 -0.18115933
-0.081907324 -0.033908702 0.11807412 -0.13168958 0.22924493 0.026501955 0.13670044 0.13607207
00000000: 9d9e 483d 6610 17be 4405 24bd 72c1 fe3d
00000010: 06cb 223e 63e7 b93d b918 84bd 00e1 363e
00000020: e965 d7bd 911c 55be 9b7a ab3d 9d7f 82be
00000030: 3cd8 073d f1f4 393e 9d0a 3a3e 98cc cdbd
00000040: 31d8 053e 8d89 61bd df25 01be d8b1 a13b
00000050: 645d 6dbb aacc 3fbe 6a61 4cbe ebcc fd3d
00000060: 1475 52bc 28a4 ee3d f8cd ecbd c3c3 7bbe
00000070: b4b3 97bd a251 a6bd 2809 003e 7964 19bd
00000080: 5ab0 e53d 9bdd 34be 8641 6ebd 49ef d23c
00000090: 12d1 343e a31a a53d 5fc0 103e 3a94 6c3e
000000a0: 6b82 a7bd c62d c7bd ad9c 783d 066c 96bd
000000b0: 041c e43c c298 46bd 5004 a1bd 498a 723e
000000c0: e360 9dbd f300 5f3e 3fa6 a03b 51c2 b8bd
000000d0: 14d3 283e b1f7 80be f541 d4bd e1e6 623e
000000e0: 0c1e 46be abec d3bc 4f52 4b3d 5a12 eabc
000000f0: 7e84 183e ad89 b2bd d7fd 56bd 0562 f4bb
00000100: 92e4 e03c 57b6 50bd 37bb b03c 1247 7dbd
00000110: f7f6 00be ffad 663d 2561 12bd 3725 1e3e
00000120: 2459 6fbe d811 e93d 846f 3c3d 0b93 803d
00000130: 63f9 3bbe 3663 0a3d 0a1d 513d 135d 7dbe
00000140: dc33 e53c 2901 153e 02b9 fb3d 231c 223d
00000150: 8d3a 75be d9d6 d43c 08e1 29be 5792 e73d
00000160: a7bb ae3d 4c89 2f3e 135a 4f3d 40a9 59bd
00000170: a85b e0bd 17f8 2a3c dcdc 45bd f214 643d
00000180: 1103 d13d 0521 91bd 675b 43be 0423 9bbd
00000190: 2a0c 53bd 4545 213e 1716 92ba 6ca6 9dbd
000001a0: 762b 54be 149c b0bc 1b59 8b3d bdde 82be
000001b0: fafe 58be 6b06 ccbb fe46 63be 4408 86bd
000001c0: 5293 553e cd44 ab3b 4bf3 48bd d839 933d
000001d0: afef e73d c7f3 75bc f236 bc3d 2a9e d03d
000001e0: 5a79 1f3e 7f7c e53d aed2 84bd 5052 1c3e
000001f0: f60f 3f3e 3703 e03c 643f b2bd a5cd 28be
00000200: 82fa 6b3b e54d 8a3a 733d e2bc 7e66 2ebd
00000210: 4a1c 06be 947d d03d fca9 5b3e b173 8cbd
00000220: 92cb 5dbe 6384 9fbd cf56 54be f354 733d
00000230: e117 36be a175 0bbe c621 8bbc 469a 4d3e
00000240: bf7f b23d 2d3f 263e d943 d4bd e04c 523e
00000250: 1a4b 903d c28f c53d 86fd c53c 6238 9b3d
00000260: c97c d6bc b6d8 5ebe aa11 793e 43ec 3cbe
00000270: 44b9 44be 2206 52be 6f9c 0cbd be00 083e
00000280: 921b 72be 0e19 2cbe 0c64 b73d 7d3b 59be
00000290: 8907 3bbb c71d ac3d 8bbd c4bd e749 cabd
000002a0: 7485 1e3e c2c9 a93b 4be0 70bd 25f0 24be
000002b0: 2838 5b3e 6ce7 5b3e 9eb0 aebd 5563 673e
000002c0: 7bb0 f0bd 77a8 993c 6e98 03be 1ce7 c23d
000002d0: d92c da3d a45d 4fbe 5c75 643d 248b 6a3e
000002e0: e6b1 b63d 3e52 7ebe 3f75 063e c2d4 51bd
000002f0: b03d 03be 6145 01be e575 6ebe 1d88 2f3e
00000300: 3500 0a3e 8516 0ebd c829 603e 5bf4 d4bd
00000310: f33f 5c3d ca2f 4ebd 87c6 7ebd 473b 05be
00000320: 18d5 c73c 3e04 b43d 4127 023e 26e3 543d
00000330: 48a7 ef3d 34b1 d6bd 8f26 603e 236b d43c
00000340: 4017 29be b988 f23d 3ba5 9dbd 4800 c4bd
00000350: 75a4 47be 75c0 5bbc 0355 a8bd e0b1 013e
00000360: 1495 2cbe 274a 5ebd 3e78 5cbe 60be 60be
00000370: 3403 043e e91e 1abe 787e 553e 722e 11be
00000380: 1fc3 01bb fd23 663e 675f 523d a9b6 aebd
00000390: 66b0 3e3e 9ecf 3fbe ecca 1e3d d7ec 11be
000003a0: 59f6 15be 5559 2a3e 3827 60bd 3650 153e
000003b0: e313 a3bd a3ec c93d d8d8 5cbe 6e48 513c
000003c0: 5567 2ebe 1bbb 393e a828 6cbe 6eaa 79bc
000003d0: 1ddb 893d 7440 473d a49c 56be d581 39be
000003e0: 07bf a7bd dae3 0abd d8d0 f13d a2d9 06be
000003f0: 2fbf 6a3e a11a d93c 33fb 0b3e 7a56 0b3e

fc5.weight f4 [384, 256]
0.0057897777 0.013849614 0.0070542605 -0.010356782 -0.004039509 -0.018798903 0.03664675 -0.007100846
-0.02073282 -0.0017780652 0.006047829 0.0017427224 -0.0013490992 -0.0074098706 0.004223409 -0.014753575
0.009237088 0.034659695 -0.01590145 0.0150567265 0.0068267756 0.0066313506 0.0011510679 0.0023230154
-0.0075448086 -0.002170585 -0.009153213 -0.0031014208 -0.005517957 -0.021154478 -0.001130797 -0.015218749
0.0118458 -0.0025749137 0.0048576263 -0.027632123 -0.00031443097 -0.012234752 -0.0046369205 0.0023423333
0.004594571 -0.021816937 0.008048438 -0.018727824 0.0060266377 -0.0033601557 0.008208726 0.00061020924
0.021503875 -0.005876123 -0.01161123 -0.011762803 0.0032662668 -0.0042753736 -0.002599681 -0.0045548
0.0025146124 -0.0027351796 0.009461481 0.011057595 0.004026648 0.0006686498 0.0033190493 0.013711203
-0.02381858 0.0001236992 0.0048626405 0.006068441 0.012172459 0.013962162 0.012115952 -0.00019661333
-0.002489567 -0.009585877 -0.010753629 -0.010666855 -0.0015000439 0.0401911 -0.0019086542 0.001162734
-0.0011279221 -0.018457873 0.008126484 0.010989934 -0.01614334 0.020345 -0.000254261 0.0005029247
0.0058518983 0.0007811767 0.01845527 -0.015576325 -0.0069438564 0.012324919 -0.016575446 -0.014563256
0.019998599 0.008584397 0.0070167785 -0.0072571863 -0.004802564 -0.006352068 0.009639666 -0.0071067414
0.0024714111 -0.020804783 0.0073204655 -0.0021018556 -0.00018784507 -0.017955339 0.001047034 -0.014658155
-0.0036798953 -0.01797763 -0.0035813113 -0.015837358 0.008441738 -0.02294842 -0.0061309463 -0.004433015
-0.0066469675 0.0065344046 -0.005128311 -0.0053215204 0.009540697 -0.0023139548 -0.0265926 0.0026756085
-0.029107207 0.008723175 0.00016919135 -0.004933774 0.0014929828 -0.005525313 -0.0009102916 -0.0070178173
-0.0049518216 0.0034939107 0.0074784164 -0.014171818 0.0011102392 0.008650748 0.00682965 0.0021910558
0.0052823303 0.01061804 -0.003025815 -0.0014586509 0.008054822 0.021434622 0.0049162307 0.012960821
-0.0069549163 -0.0015184087 -0.004871767 0.005153196 0.00647468 0.002690423 -0.008175533 -0.00049846404
0.0037448544 0.005261181 0.0071254866 -0.007818886 0.027815564 0.01995472 0.015084719 -0.006800856
-0.0040700193 0.0068327007 0.0051420787 0.0030109724 -0.00813892 -0.0051874723 -0.006275493 0.006093429
0.009058334 -0.031555094 -0.002262593 -0.0022697798 -0.022200458 0.014381865 0.005056989 -0.00036081285
0.024927432 0.0039067413 -0.0037532088 -0.014370054 -0.0055352836 0.011934813 0.0013441988 -0.004238355
-0.009957119 -0.02414966 0.0033918296 0.007627738 -0.007335707 0.007519482 0.014236808 0.0043969224
0.0060793925 -0.008160997 0.023118503 -0.023201874 -0.00023510166 -0.005342547 0.013438967 -0.008335246
-0.0049661226 0.0170392 0.0051980163 0.009977333 -0.0023199783 -0.0060889125 -0.0063334885 -0.0020285852
-0.009293965 0.0004670609 -0.01024836 -0.006527742 0.0016867847 -0.00848882 0.0054474007 0.002739448
0.009038144 -0.0011331829 0.011867632 -0.009642785 0.002019361 -0.0043749805 -0.0042900406 0.01551642
-0.0042958455 0.009087893 -0.012879622 0.014547972 0.018715588 0.00292438 -0.010277511 -0.012451977
0.007320511 0.011446612 -0.01075776 0.018873047 0.021878613 -0.015210172 -0.006097472 -0.002165559
0.010145458 -0.010538864 -0.010854157 0.006302086 -0.0006087241 0.00010160032 -0.017836364 0.0007229059
00000000: 2db8 bd3b 7ee9 623c 6d27 e73b 7eaf 29bc
00000010: dc5d 84bb 2800 9abc e71a 163d 37ae e8bb
00000020: e0d7 a9bc f80d e9ba de2c c63b 0f6c e43a
00000030: 42d4 b0ba 80ce f2bb 8664 8a3b fbb8 71bc
00000040: 2857 173c 53f7 0d3d c243 82bc 7db0 763c
00000050: 25b3 df3b cd4b d93b 6edf 963a bb3d 183b
00000060: 713a f7bb 6040 0ebb 5cf7 15bc 3541 4bbb
00000070: facf b4bb 284c adbc 4037 94ba 0f58 79bc
00000080: e314 423c e2bf 28bb b92c 9f3b c35c e2bc
00000090: 36da a4b9 4574 48bc 4ff1 97bb d581 193b
000000a0: 0e8e 963b 6fb9 b2bc 98dd 033c 186b 99bc
000000b0: 1a7b c53b 0f36 5cbb e47d 063c 73f6 1f3a
000000c0: e528 b03c 7e8c c0bb 073d 3ebc c6b8 40bc
000000d0: dd0e 563b 6f18 8cbb 695f 2abb 6f40 95bb
000000e0: 32cc 243b b340 33bb 5404 1b3c ea2a 353c
000000f0: f9f1 833b 5448 2f3a 6884 593b f4a4 603c
00000100: 2f1f c3bc 40b5 0139 c956 9f3b c6d9 c63b
00000110: fe6e 473c 8dc1 643c fc81 463c fd29 4eb9
00000120: 0128 23bb 150e 1dbc fd2f 30bc 08c4 2ebc
00000130: 1f9d c4ba 6c9f 243d cf2b faba e166 983a
00000140: c9d6 93ba f734 97bc f224 053c 200f 343c
00000150: 0a3f 84bc 8faa a63c 554e 85b9 b5d6 033a
00000160: 48c1 bf3b e2c7 4c3a 822f 973c d833 7fbc
00000170: 4a89 e3bb 75ee 493c 3bc9 87bc b99a 6ebc
00000180: 1ad4 a33c 92a5 0c3c 01ed e53b b1cd edbb
00000190: d45e 9dbb 0225 d0bb b1ef 1d3c abdf e8bb
000001a0: 66f7 213b cb6e aabc 84e0 ef3b 49bf 09bb
000001b0: 47f8 44b9 1317 93bc a23c 893a c228 70bc
000001c0: 662a 71bb d345 93bc 6fb4 6abb 59bd 81bc
000001d0: 374f 0a3c 53fe bbbc 1be6 c8bb d342 91bb
000001e0: cece d9bb 8f1e d63b 640b a8bb 2660 aebb
000001f0: 9550 1c3c b8a5 17bb b9d8 d9bc 4359 2f3b
00000200: 3d72 eebc a6eb 0e3c f568 3139 7fab a1bb
00000210: 31b0 c33a af0d b5bb a3a0 6eba b8f5 e5bb
00000220: e442 a2bb 18fa 643b 810d f53b ea30 68bc
00000230: 7285 913a debb 0d3c 42cb df3b d197 0f3b
00000240: 6617 ad3b 4af7 2d3c c04c 46bb 3430 bfba
00000250: 5ff8 033c a997 af3c 5518 a13b a059 543c
00000260: 11e6 e3bb 5705 c7ba 58a3 9fbb 24dc a83b
00000270: 8d29 d43b cf51 303b acf2 05bc 5bab 02ba
00000280: 3b6c 753b fc65 ac3b ea7c e93b c91a 00bc
00000290: 77dd e33c 1578 a33c e625 773c b7d9 debb
000002a0: cc5d 85bb d9e4 df3b e27e a83b bc53 453b
000002b0: 1b59 05bc acfb a9bb a7a2 cdbb 63ab c73b
000002c0: 6869 143c ea3f 01bd 0348 14bb 96c0 14bb
000002d0: bcdd b5bc eaa1 6b3c 19b5 a53b 7b2b bdb9
000002e0: 9d34 cc3c 1f04 803b 65f8 75bb 6070 6bbc
000002f0: 5361 b5bb 3c8a 433c d42f b03a e6e1 8abb
00000300: 2f23 23bc 82d5 c5bc 7549 5e3b 1bf2 f93b
00000310: 5f60 f0bb fd65 f63b 8041 693c 0f14 903b
00000320: a435 c73b b4b5 05bc 0463 bd3c db11 bebc
00000330: 9f85 76b9 8810 afbb 1d2f 5c3c 8e90 08bc
00000340: dbba a2bb cb95 8b3c 1f54 aa3b f877 233c
00000350: c70a 18bb 8085 c7bb 2789 cfbb 03f2 04bb
00000360: b745 18bc dadf f439 bde8 27bc abe6 d5bb
00000370: 1a17 dd3a b114 0bbc 1c80 b23b 5088 333b
00000380: b914 143c 4f87 94ba 7570 423c c6fc 1dbc
00000390: 4157 043b ff5b 8fbb 7893 8cbb 9538 7e3c
000003a0: 2ac4 8cbb 63e5 143c 0d05 53bc 9e5a 6e3c
000003b0: 6f51 993c f4a6 3f3b 0163 28bc 6003 4cbc
000003c0: e6e0 ef3b 928a 3b3c 5141 30bc a69b 9a3c
000003d0: c73a b33c 1634 79bc 4dcd c7bb 0dec 0dbb
000003e0: 2339 263c 33ab 2cbc a2d5 31bc bb81 ce3b
000003f0: c892 1fba 4212 d538 911d 92bc 6581 3d3a
