customized/model/trained_model/vae/vae_z_30batch_64.pth (torch, 623197 bytes, 10 tensors)

fc1.weight f4 [256, 256]
000000 0a 5b 8a bd a9 73 45 bd 21 f3 26 bb 13 1b b6 bc
       -0.067556456 -0.048206005 -0.0025474506 -0.022229707
000010 bc 9a 81 bd 08 8f f9 39 0e d6 f8 3c b0 9c 35 bd
       -0.06328341 0.00047599548 0.030375507 -0.044338882
000020 94 6f 41 bd 6c 24 40 bd c4 d3 2b 3d c8 6d 57 3d
       -0.04722555 -0.046909735 0.041950002 0.05259493
000030 ea d0 5c bd 44 71 d4 bc 4a 9e 01 bd 93 39 42 3d
       -0.053910173 -0.025932916 -0.031645097 0.04741819
000040 97 e3 af bb b5 61 dd bc e8 2b b6 bc 89 bd 6c 3c
       -0.005367707 -0.02702413 -0.022237733 0.014449486
000050 83 e1 58 bc 35 85 52 39 a5 a8 d7 3b ae 88 e9 bb
       -0.01323736 0.00020076784 0.0065813833 -0.007126889
000060 cc e0 49 ba 3e da d8 bc 1a ff b4 3c d0 f7 33 3d
       -0.0007701039 -0.026471253 0.022094298 0.043937504
000070 fd 5b a6 3b 4a 43 ab b9 16 b2 86 bc 61 e2 4d 3d
       0.005076884 -0.00032665796 -0.01644234 0.05026472
000080 95 d0 0b bc 25 8e 87 bc 58 50 0e 3d 37 38 a1 3c
       -0.008533617 -0.016547272 0.03474459 0.019680126
000090 0e cd 60 3d 15 f0 3c 3d 98 86 3e bd 99 a7 84 bb
       0.054883055 0.046127398 -0.046515077 -0.0040482995
0000a0 43 39 7a bc 7d f2 40 3d a8 63 f8 bc 44 f3 4a bc
       -0.015272441 0.047106255 -0.030320957 -0.012387101
0000b0 14 5f 22 3b 7a fc d7 3c 54 9c f0 bc 23 fb 96 3d
       0.002477591 0.026365507 -0.029371418 0.07372119
0000c0 da b1 90 bc 95 6e 71 bb ff 3d 87 bd 3f 73 be bc
       -0.017662931 -0.0036839594 -0.06603622 -0.023248313
0000d0 92 ae 86 bd 07 d7 05 bd 59 d8 c0 bc 5f 63 40 bd
       -0.065762654 -0.03267577 -0.023540663 -0.046969768
0000e0 b2 76 5c 3c ff 55 fb bc 4b b2 7f 3d 84 95 3e bd
       0.013456034 -0.030680655 0.062425893 -0.046529308
0000f0 0b 68 74 bb 27 f2 45 3c 76 71 6c bd 21 ee 14 bc
       -0.003729346 0.012081659 -0.057725392 -0.0090899775
000100 0a c2 1f 3d cd cd 0f bd a1 15 11 3d 7b 40 6d bc
       0.03900341 -0.035108376 0.035421018 -0.014480705
000110 fc 20 91 3d 63 b4 31 ba 1a 1b 2e 3d 28 8e 0f 3c
       0.070863694 -0.0006778894 0.042506315 0.00876192
000120 55 4a 4e bc 1c 39 9d bb 71 18 06 3c 49 a6 4d 3d
       -0.012590964 -0.0047980677 0.008184538 0.05020741
000130 31 ea 07 bd d2 4b d7 bc 0d 5b 33 bd 0f 8c 4b 3b
       -0.033182327 -0.026281271 -0.043788005 0.0031058823
000140 73 bf c3 bc 24 8e c9 3a 9c c7 4c bd 0c e3 6d bc
       -0.023895001 0.0015377444 -0.04999505 -0.014519464
000150 3f 70 74 bd b7 e1 06 3d 10 1a 16 3d e0 be b7 bc
       -0.05967736 0.032930102 0.03664595 -0.022429883
000160 f1 54 30 3d af 79 60 3d 13 23 b2 ba 7f 7b 4b 3d
       0.043049756 0.054803547 -0.0013590775 0.049678322
000170 2e 93 79 bd 1b 86 22 3c 40 ab 1d bd c6 d9 61 3d
       -0.060931377 0.009919669 -0.038493395 0.055139326
000180 3f 00 2e bd 75 6f c9 3c 79 81 68 bb f5 ee 99 3c
       -0.042480703 0.02458928 -0.0035477562 0.018790701
000190 7c f8 8a bc 74 e3 72 bd b3 95 b4 3c 80 a9 0f bd
       -0.01696419 -0.059298947 0.022044038 -0.035073757
0001a0 9e ae 10 3d 00 7e 06 3d a9 b1 2e bc 69 8f b7 3c
       0.035322778 0.032835007 -0.010662475 0.02240725
0001b0 f7 18 00 3d 55 40 45 bd 67 23 1f bd 76 77 88 3c
       0.03127381 -0.048157055 -0.03885212 0.016658526
0001c0 47 bc be 3c ea 34 37 3d 5a 60 20 39 3d 9e da 3b
       0.023283137 0.044728197 0.00015294683 0.0066716955
0001d0 5f a2 d6 3c 73 2f fb 3c 7d 71 1f bd 55 18 1d 3d
       0.026200471 0.030662274 -0.03892659 0.038353283
0001e0 f1 1a 61 bd 39 73 ae bc e2 c7 75 bc 14 58 e9 bc
       -0.054957334 -0.021295177 -0.015001269 -0.028484382
0001f0 a3 6b 51 bd 61 2a 2e bd 31 f9 70 3c 96 df 47 bd
       -0.05112804 -0.042520884 0.014707849 -0.048797213
000200 4a f1 95 3c b4 7c 85 bd 24 b5 2d bd 4e 89 43 3d
       0.018303532 -0.06517926 -0.042409077 0.047738366
000210 2c 48 29 3d be 00 42 bd 5b 9c 39 3d 45 8d 30 3d
       0.041328594 -0.04736399 0.045315128 0.043103475
000220 ff 91 4e bd 45 48 00 bd 63 5f 08 bd e0 73 17 3d
       -0.0504322 -0.03131892 -0.033294093 0.03697574
000230 dc dc 3a bd 08 e3 ba bc 49 47 19 3d 20 ae 3c bd
       -0.045620784 -0.022813335 0.0374215 -0.046064496
000240 4d 75 55 bd 97 0b 6c bb 0a 9a 83 3d c7 08 c4 3c
       -0.05211382 -0.003601765 0.06425865 0.023929967
000250 b3 c8 89 bd d0 34 07 bd 4f 8a 46 bd b7 c2 03 3d
       -0.067277335 -0.03300935 -0.048471745 0.032168116
000260 d2 f6 3f 3d 73 26 bb 3c 4f 75 3b 3c 5c 22 38 3c
       0.046866246 0.022845482 0.011441543 0.011238661
000270 72 1a af bc 2a 91 0c bd fb 8e 24 3d 13 13 2e bd
       -0.021374915 -0.034318127 0.04017542 -0.04249866
000280 98 a1 1e bd a9 92 10 3d ee aa 1f 3d dd a0 8c bc
       -0.038728327 0.035296116 0.03898137 -0.01716655
000290 67 bd 3f bd 55 a0 1e bd c7 6f 11 3d df 67 40 3d
       -0.046811488 -0.038727123 0.03550699 0.04697406
0002a0 b7 a9 b1 3c cb d4 16 3d 3e 00 67 bd 8f ff 05 3c
       0.021687372 0.03682403 -0.056396715 0.008178606
0002b0 a9 8f b0 ba 98 b6 9b 3c f9 fa 80 3c 87 88 3c bd
       -0.0013470548 0.019007966 0.015744673 -0.04602864
0002c0 7e fe 79 bc 8e fd 89 bd f0 c9 b8 bc 23 a8 16 3d
       -0.01525843 -0.06737815 -0.022557229 0.03678144
0002d0 2e 49 17 ba f7 92 8d 3d ef d8 2f bd 4d ed 3b bd
       -0.00057710975 0.06912797 -0.042931493 -0.045880605
0002e0 79 2d 51 bd ba 04 d0 3c 72 a5 e3 3c 2e 02 20 3d
       -0.051068757 0.025392879 0.027788851 0.03906458
0002f0 fd 93 4a bc 1c 7c 34 bd 7d 8f 0c bd c7 71 50 3d
       -0.012364385 -0.044063672 -0.03431653 0.050889757
000300 5d ec 0a 3c 64 f3 4d 3d fa ef 25 bd a9 3a 4f 3d
       0.008479205 0.050280944 -0.040512063 0.050593052
000310 3e 88 5e bd 14 8d c5 bb cd 00 83 3d 56 92 86 3d
       -0.05432915 -0.0060287807 0.06396637 0.0657088
000320 5e c5 a1 3c 23 38 91 bd 9a ba 01 3d 43 e9 9c 3c
       0.019747432 -0.07090785 0.031672098 0.019154197
000330 01 14 e4 3c 68 08 2b 3d 93 44 94 3c df d3 76 bc
       0.02784157 0.041756064 0.018099105 -0.015065162
000340 b0 fd 81 bc 71 88 8c bd 65 8a a1 3c 7e c1 3c bd
       -0.015868038 -0.06861962 0.019719312 -0.046082966
000350 54 fc 42 bd 32 9d 2a 3d 74 2b bc bc e5 7e 08 3d
       -0.04760392 0.04165382 -0.022969939 0.03332414
000360 3d 53 02 bd a4 5e 51 bc 81 a6 61 bd 2d 7c 15 bd
       -0.031817663 -0.012778912 -0.05509043 -0.036495376
000370 10 cf f9 3c 31 13 2e 3d 9f 6c e0 bc 60 8d 13 3d
       0.030494243 0.04249877 -0.027395545 0.036023498
000380 10 6e 37 3d f6 82 0f 3d e6 9d 1e 3d cb ad 15 bc
       0.0447827 0.035037003 0.038724802 -0.009135674
000390 06 5c 4d bd 53 d6 5b 3c 0f 58 37 3c 51 3f ec 3c
       -0.05013659 0.013417798 0.011190428 0.028838785
0003a0 8b 5a 96 3c 52 bb b3 3b 4a 4b 5d 3d 75 c9 de bc
       0.018353721 0.005484977 0.05402688 -0.027195672
0003b0 ac 7e 08 bd b6 f2 d3 3c c1 68 f2 b9 db 15 65 bd
       -0.03332393 0.02587257 -0.00046235885 -0.055929046
0003c0 a0 a7 35 3c 2d 6e 86 bd 83 08 0f 3d 22 a6 8e bc
       0.011087328 -0.06563983 0.034920227 -0.017413203
0003d0 27 7d 59 3d c1 d8 39 bd d3 fa 39 3d b9 37 93 bb
       0.05309787 -0.04537273 0.04540522 -0.0044927266
0003e0 67 b3 19 3d 7b a3 2c 3b 64 48 b4 b9 98 e8 1c 3d
       0.037524607 0.002634256 -0.0003438621 0.038307756
0003f0 1e 64 da bc 4a b8 0c bd 52 70 3d 3a 9d c2 e1 3c
       -0.026659068 -0.03435544 0.0007226515 0.02755862

fc1.bias f4 [256]
000000 d8 8f ce 3b 6c ef 36 3d 07 97 aa 3c 4d aa 46 3b
       0.0063037686 0.044661924 0.020823969 0.003031391
000010 02 4b fa 3c 4a c8 3b bd 82 43 46 bd b1 93 05 bd
       0.030553345 -0.045845307 -0.048404224 -0.032611553
000020 57 db 1f bd d0 96 e9 3b 8e 88 4b 3d e2 54 4b bd
       -0.03902754 0.007128574 0.049690776 -0.049641497
000030 bd 58 99 bc eb bd 39 bd af fa 6e bd c6 8f 6b bd
       -0.018719072 -0.045347136 -0.05834454 -0.05751016
000040 08 fe 69 bd 40 3b d5 bb 06 ce f5 bc 87 4f 11 3d
       -0.05712703 -0.0065073073 -0.030005466 0.035476234
000050 e1 a2 5f 3c 6c 32 47 bd a9 60 95 3c 29 5a 24 bd
       0.013649673 -0.04863207 0.018234568 -0.040125046
000060 14 32 19 bd 3f d9 00 bd 4b 9c 2d 3d 43 1c 42 3d
       -0.037401274 -0.031457182 0.04238538 0.047390234
000070 64 89 aa bc f5 57 2c 3d f1 2e 1f 3d 26 fc 18 bd
       -0.020817466 0.04207607 0.038863126 -0.037349842
000080 f4 08 77 bd a8 dc 5e 3c b6 c4 96 3b e0 04 e3 bb
       -0.060311273 0.013602413 0.0046010865 -0.0069280714
000090 ed 25 1f 3b 94 a9 2b 3c 20 37 7a bd 0e 7f 5e 3c
       0.002428408 0.010477442 -0.061087728 0.013580097
0000a0 c1 a8 18 bc 4c 31 52 3d 5a 1f ee bc 20 db 32 bb
       -0.009317578 0.051316544 -0.029067684 -0.0027291253
0000b0 78 41 48 bd ed 64 bb bc 40 50 57 bd 09 15 a0 bc
       -0.04889056 -0.022875274 -0.052566767 -0.01954128
0000c0 2e b9 76 3d fd 05 74 bd 64 e5 2f bb bb 42 10 3d
       0.060235195 -0.059576023 -0.0026839608 0.03521989
0000d0 11 43 08 bd 7c b1 15 3d 2a 86 03 bd 64 d9 fb bc
       -0.033267085 0.036546215 -0.03211037 -0.030743308
0000e0 ce 7f 8d bd 77 fa cb bc 5d e6 63 bd cd 50 8c bd
       -0.069091424 -0.024899704 -0.055639613 -0.06851349
0000f0 82 12 6d 3d 76 dc 99 bd 7e 25 06 bc a5 a8 3d bd
       0.05787898 -0.07512753 -0.00818765 -0.04630341
000100 35 98 b7 bc f6 8a 42 bb be 11 5d 3d b9 ce 0e bd
       -0.022411445 -0.0029684878 0.053972 -0.034865115
000110 e6 23 46 bd 86 be 01 bc 9f c2 76 bd 48 e8 13 3a
       -0.04837408 -0.0079189595 -0.0602442 0.00056422176
000120 3d 75 03 3d a4 7d 04 bc 59 83 ef 3c 65 15 8d bd
       0.03209423 -0.008086596 0.029237436 -0.06888846
000130 c2 98 4f bd d9 9b b0 bc b9 e2 0c 3d 72 f6 73 bd
       -0.05068279 -0.021558689 0.034395907 -0.0595612
000140 60 31 11 3d 0b 4b 86 3c dd 9b 73 bd 88 68 e4 3c
       0.03544748 0.016393205 -0.059474815 0.027881876
000150 04 93 39 bd 44 3e 4c bc dd 5f de 3c 33 a4 34 bd
       -0.04530622 -0.012466017 0.02714532 -0.044101905
000160 16 a0 64 bd e8 0c 47 3d e8 15 80 bc 68 d6 e8 bc
       -0.055816732 0.048596293 -0.015635446 -0.02842255
000170 95 eb 3a bd db 09 5c bd 61 d2 76 bb d4 bf bb 3c
       -0.045634825 -0.053720336 -0.0037662017 0.02291862
000180 df 96 7a 3c 7e d5 5a 3d de 21 65 3d de a7 8f 3c
       0.0152947595 0.05342626 0.0559405 0.0175361
000190 18 ef 97 3c de 0f 45 3d d5 a0 1d bd d1 e2 05 3c
       0.018546626 0.048110835 -0.03848346 0.008171753
0001a0 44 3e c4 bc 9b 2c 32 3d e2 29 61 bd be 37 3e bc
       -0.023955472 0.04349957 -0.054971583 -0.01160997
0001b0 f0 06 8f 3c 08 1a 8d bd 59 a8 84 bc f0 ff a7 bb
       0.017459363 -0.06889731 -0.016193556 -0.0051269457
0001c0 86 c2 15 bd 59 16 02 3d d8 bb 6b ba 3f ad ad bc
       -0.036562465 0.031759594 -0.00089925295 -0.021200774
0001d0 fa 21 0e bc d9 0a d9 3c 48 00 89 bd 6f aa 6d bd
       -0.008675093 0.02649443 -0.06689507 -0.058023866
0001e0 ea 7b 32 3d 5c c1 f6 bc 4e 26 76 bb 17 b0 03 3d
       0.043575205 -0.030121498 -0.0037559452 0.032150354
0001f0 25 5d 06 3d 81 70 45 bd eb f6 ec 3c 80 84 55 bd
       0.032803673 -0.048202995 0.028926333 -0.052128315
000200 40 43 a1 bc 6a db 37 bb 71 73 0c bc 52 f8 32 bd
       -0.019685388 -0.0028054365 -0.008572445 -0.043693848
000210 b8 7a 52 3c c0 f5 76 3b 70 4c 06 bd 58 1c ad bc
       0.012846641 0.00376831 -0.03278774 -0.02113168
000220 13 5e 16 bd fd 81 46 bd 34 05 03 3c ea b3 2b 3d
       -0.03671081 -0.04846381 0.007996846 0.041919626
000230 f9 14 5e bb 6b fa 78 bd bc 6b e1 bb e2 44 49 ba
       -0.0033887012 -0.060785692 -0.006879298 -0.0007677806
000240 c4 bf 70 bd 8c 2b 4a 3d 95 04 81 3c 3e a8 d8 3b
       -0.058776632 0.049357936 0.015749255 0.006611853
000250 b8 fc 47 3c 78 95 58 bc 38 64 0b bc fc 78 26 bd
       0.012206249 -0.01321923 -0.008507781 -0.040642723
000260 10 b0 08 bd 25 5e 0a 3c a8 a7 6d bd cf c6 a8 3c
       -0.03337103 0.008445297 -0.058021218 0.020602612
000270 33 02 37 3d 95 78 e6 b9 66 6d b7 3c 74 9a b9 3c
       0.04467983 -0.0004395886 0.022391032 0.022656657
000280 7f 80 6c bb c9 af dc bb 81 71 fd 3c 80 57 7d ba
       -0.0036087332 -0.0067348224 0.030937912 -0.00096642226
000290 78 f5 63 bc 46 9b 1f 3d 16 70 60 bd 3a b2 98 3c
       -0.013913505 0.03896644 -0.054794393 0.018639673
0002a0 90 41 e1 bc 42 81 00 3d 84 eb 48 3d 70 b6 75 bd
       -0.027497083 0.03137327 0.04905273 -0.05998844
0002b0 19 70 ba 3c 2c c7 0e bc 5c 94 6d bd f7 34 24 bc
       0.02275853 -0.008714478 -0.058002815 -0.010022393
0002c0 26 76 4e 3d a8 5e 2e 3c 34 14 c3 bc 3e 80 2e bd
       0.050405644 0.010642685 -0.023813345 -0.04260277
0002d0 03 fd 80 3d 27 c2 31 bc c0 9e b4 3a 85 ac 64 bd
       0.06298258 -0.010849512 0.0013780221 -0.05582859
0002e0 a8 6d 3a bd b8 ef 5f bd 0c 15 fe bb f3 70 a0 3c
       -0.045514733 -0.054671973 -0.007753974 0.019585108
0002f0 5c 1a a0 3c 50 ba 07 bd 0e 7e 76 3c f8 4d 0b 3c
       0.01954382 -0.033136666 0.015044702 0.008502476
000300 d7 00 7d bc 9b a9 4d bd a8 ca 0e 3d 74 19 d5 3a
       -0.015442095 -0.050210577 0.034861237 0.0016258196
000310 69 53 23 bd 0d 7c bd 3c 4a 8d 81 3c 26 7b 2f bd
       -0.039874468 0.023130441 0.015814442 -0.042842053
000320 4c 82 98 bc ea 2a 42 3d a0 1a 39 3b e5 8c 89 bd
       -0.018616818 0.047404207 0.002824463 -0.067163266
000330 a0 16 f3 3c a0 e8 8d 3c d5 1b 8d 3c b2 31 4f bd
       0.029673874 0.017322838 0.017225185 -0.050584503
000340 70 8d 12 bc c0 e0 78 bc 0d 13 00 3d 06 6d d9 bc
       -0.008944854 -0.015190303 0.03126817 -0.026541244
000350 8d 55 82 3d 0d 69 31 bc 2b 4b 2a 3d 08 05 81 bd
       0.06363974 -0.010828269 0.041575592 -0.06299788
000360 99 ef c7 bc c7 2b 40 3d 56 47 d7 bc 97 0f e8 bb
       -0.024406241 0.04691675 -0.026279133 -0.0070819366
000370 35 72 12 3d c8 a9 80 bd 86 60 73 3a 67 e5 89 bc
       0.035753448 -0.06282383 0.00092840975 -0.01683302
000380 79 8d 79 bc e0 c5 60 bc 50 06 1d bc 8e 5e 21 bd
       -0.015231484 -0.013719052 -0.009584025 -0.039396815
000390 8e f6 4d 3d 62 79 09 bd 84 4b a3 bc 87 14 c1 bb
       0.05028396 -0.033563025 -0.01993347 -0.0058923396
0003a0 63 e8 63 bd bc e1 29 3c 88 a7 3c 3d 7d 1e 3e 3d
       -0.055641543 0.010368761 0.046058208 0.046415795
0003b0 66 95 2a bc ac 4f c5 bc bc 6e 85 3c 0c 9d 39 3d
       -0.010411596 -0.024085842 0.016288154 0.045315787
0003c0 11 c3 8c bd e4 cd 43 bd a4 05 0e 3d 28 bc 6f 3b
       -0.068731435 -0.047803774 0.034673348 0.0036580656
0003d0 58 6a 76 bd da 30 b9 bc 0b 28 13 3d 74 fe 72 bd
       -0.06016001 -0.022606302 0.03592686 -0.059324697
0003e0 ce df 8d bc d0 5b c9 3c 41 e1 8a bd 4c 4b f8 bb
       -0.017318632 0.024579912 -0.06781245 -0.0075773355
0003f0 5b b6 51 bd 6e 28 ee 3c f4 90 1a 3d 79 f2 85 bd
       -0.0511993 0.029072013 0.037735894 -0.065403886

fc2.weight f4 [30, 256]
000000 16 34 04 3c a6 5e 9a bc 40 c1 35 3c c8 d6 19 bc
       0.008069059 -0.01884396 0.011093438 -0.009389587
000010 e1 97 3d 3d fb 75 1d 3d 37 9b 61 bd 90 c3 5d 3d
       0.04628742 0.038442593 -0.055079665 0.05414158
000020 35 26 17 3d 00 c1 4d 3a a8 c5 8b 3c 60 72 30 3c
       0.03690167 0.00078488886 0.017062023 0.010769457
000030 e6 2c 8f 3a 54 8d 12 bc b5 b7 ca bb 00 77 3f 3a
       0.0010923415 -0.008944828 -0.0061864504 0.0007303804
000040 a6 d7 4d bc b8 b6 62 3c 94 90 1e bd bb 87 2b 3c
       -0.012563622 0.013837509 -0.0387121 0.010469372
000050 7f 44 e5 3c 98 d5 d0 bc 0d a8 af bb e3 2d 2b 3d
       0.027986763 -0.025492474 -0.0053606094 0.041791808
000060 a1 6a 33 3a 06 b6 c7 bb 18 c2 0b bd 47 82 6a 3d
       0.0006844197 -0.006094697 -0.03412065 0.05725315
000070 4c 7c 0f bd 99 e5 19 bd be 4f ab 3c 96 0f 1a 3d
       -0.035030648 -0.037572477 0.020912047 0.03761252
000080 5d c6 11 3d 18 b7 8a bc 54 d1 36 3d f4 ec c0 bc
       0.035589565 -0.016933009 0.044633225 -0.023550488
000090 34 11 44 3d 89 0c 38 3d 35 54 e2 3c f2 b2 40 3a
       0.04786797 0.04493383 0.027628044 0.00073508837
0000a0 83 dd 0a bd c8 4a 23 bd 0b be 5b bd 88 f9 87 bc
       -0.033902656 -0.03986624 -0.053648036 -0.016598478
0000b0 50 b9 08 bd 1b d0 1a ba e7 e3 8f 3c 07 95 ee bc
       -0.033379853 -0.0005905644 0.017564727 -0.029123796
0000c0 e2 45 44 ba df e2 27 bd 6a 18 28 bd 44 8c d6 bc
       -0.000748722 -0.040987846 -0.041038908 -0.02618993
0000d0 16 8d 15 3d 90 bf 0c bc 08 d4 50 bd c9 7b 07 3d
       0.036511503 -0.008590594 -0.05098346 0.033077035
0000e0 1b 8e a5 bb 25 d4 59 3c cb 16 0d 3d 78 e5 b9 3c
       -0.0050523407 0.013295208 0.034445565 0.022692427
0000f0 20 16 48 3d d2 11 67 3d 60 99 11 3d f7 e6 75 bc
       0.048849225 0.05641348 0.03554666 -0.01500868
000100 ff 36 9e 3b 8c 05 b1 3c fc d1 f3 bc 52 98 dc ba
       0.0048283334 0.02160909 -0.029763214 -0.0016830063
000110 da 24 f7 3c 43 22 a1 3a 58 66 27 3a a2 f5 51 bd
       0.03016894 0.0012293536 0.0006385795 -0.051259644
000120 f3 40 0d 3d 61 fb c4 3c 90 c0 21 bd 9a 96 05 3d
       0.03448577 0.024045648 -0.039490283 0.032614328
000130 84 19 41 bd e0 ca f6 3c 77 0c bf bc 08 d9 29 bb
       -0.047143474 0.030126035 -0.023321373 -0.0025916714
000140 df eb e4 3c 4b 34 27 3d fc 88 0e bd 50 2d 8a 3b
       0.027944503 0.040821355 -0.034798607 0.0042168275
000150 20 8c 92 bb 1b 44 d5 3c 26 52 33 3c 72 87 22 bd
       -0.0044722706 0.026033452 0.010944879 -0.039679952
000160 c4 ea 27 3d 77 fc 17 bc c5 e9 28 3d fc 90 43 bd
       0.040995374 -0.009276501 0.041238565 -0.04774569
000170 1a de 82 bc 53 4b 87 bb f4 d4 42 bd d2 35 49 3d
       -0.015975047 -0.0041288524 -0.04756637 0.049123593
000180 11 d5 83 bc 6e 63 62 bd 56 09 c6 3b 3f 9c 16 bd
       -0.016092809 -0.055270605 0.0060435934 -0.0367701
000190 34 cd 2b 3d 99 d0 5a 3c da 64 8d bb 35 9e 32 3d
       0.041943744 0.013355398 -0.004315001 0.04360791
0001a0 90 44 c4 bc 31 4c 7c bc e0 da c6 bc 54 72 bd bc
       -0.023958474 -0.015399025 -0.02427429 -0.023125805
0001b0 0c 7c 2a bd d4 6a b0 bc bf 60 72 3b 2c ee a7 bc
       -0.041622207 -0.021535315 0.0036983935 -0.020499311
0001c0 48 00 20 bc 85 86 ca 3b 9e 26 22 bd d9 50 80 3c
       -0.009765692 0.0061805868 -0.03958761 0.015663551
0001d0 cc 74 ce 3c a1 01 5e 3d 26 e3 f3 3b 24 00 a1 3c
       0.025202177 0.054200772 0.0074428497 0.019653387
0001e0 f8 d1 bc bb 6a ad 67 3d 2f 75 11 bd e7 19 6a 3d
       -0.005762335 0.056561865 -0.035512146 0.05715361
0001f0 59 2d 1c bd f5 82 17 bc 0e 67 c8 bc 52 ce 47 bd
       -0.038129184 -0.009247531 -0.024463203 -0.048780747
000200 54 46 5b bd 8b 23 ee 3b 8c 81 cd bc 96 df 4e 3d
       -0.053533867 0.0072674206 -0.025086187 0.050506197
000210 d6 e5 73 bd 6a f8 67 3d d5 77 17 3d 47 50 95 3c
       -0.05954536 0.05663339 0.036979515 0.018226756
000220 54 65 a0 3b 0d 79 0f 3d 2b 6c 41 bd 99 ce c0 bc
       0.0048948918 0.035027552 -0.047222298 -0.023536013
000230 1c bb 39 bc 9e 9e 8b 3d bb eb 03 bd 54 2e 03 bd
       -0.011336114 0.06817363 -0.032207232 -0.032026604
000240 de 38 32 bd 48 5b 8b bc f9 ee f6 3c 47 de cc bb
       -0.043511264 -0.0170113 0.030143248 -0.0062520835
000250 d7 95 2d 3d c9 3b 2c 3d bc 83 fa 3c 70 24 29 bc
       0.042379227 0.042049203 0.030580394 -0.010323629
000260 c4 8b da 3b 82 3a 46 bc 7e 1d 56 bb ef 64 6d bc
       0.0066694934 -0.01209891 -0.0032671387 -0.0144893965
000270 33 ef ec 3c 0e 81 55 3c 7c ab 74 3c f6 5c 63 bd
       0.028922653 0.013031257 0.014933463 -0.055508576
000280 49 e2 c7 bc b6 ac 17 3d cf 15 1a 3d 4e 27 31 3d
       -0.024399893 0.037029944 0.037618455 0.043250374
000290 08 07 c2 3c c1 5f 95 3c 2f 8c 54 bb 74 61 a2 3c
       0.023684993 0.018234136 -0.0032432189 0.01982186
0002a0 20 db d1 3c c1 81 14 3d 27 e2 2a bc a0 60 5f bb
       0.025617182 0.036256555 -0.0104298955 -0.0034084693
0002b0 ec 66 bb 3c 3e ae aa 3b ee 76 0f 3d d0 71 a9 3b
       0.022876225 0.0052087596 0.03502553 0.005171038
0002c0 b1 80 53 bd 04 16 37 3d 0e 8f 5c 3d 07 57 a0 bc
       -0.0516364 0.04469873 0.053847365 -0.019572748
0002d0 b2 d1 84 3c a6 74 dd 3c 66 61 3f 3d 0a 15 4c 3c
       0.016213272 0.027033161 0.046723746 0.012456188
0002e0 d8 12 c0 bc 50 ac 36 bd 17 c3 1a bc 7c 96 3e 3c
       -0.023446485 -0.044597924 -0.009445927 0.011632558
0002f0 fe 91 84 bd 90 58 f3 bc 4e 17 ad 3c fc 23 a8 3c
       -0.06473158 -0.029705316 0.021129277 0.020524971
000300 6d a9 5f bc ac d0 ee 3c 64 67 db bc 65 43 07 bb
       -0.013651234 0.029152237 -0.026782699 -0.0020639536
000310 0a f4 71 3b c1 2c 7c 3d be 86 49 bd 5c f5 4d bd
       0.003691914 0.06156612 -0.049200766 -0.05028282
000320 55 3b 21 bd 84 23 af bc c8 03 e2 3c da ab 5c 3d
       -0.039363224 -0.02137924 0.027589694 0.053874828
000330 ef 18 16 3c e2 37 81 3d 35 00 47 3c 5d fd 8b 3b
       0.009161218 0.06309487 0.012146045 0.0042721466
000340 22 ef 64 3d d0 79 c4 bc d9 37 5a 3b 7d ba 50 bb
       0.055892117 -0.023983866 0.0033297448 -0.0031849437
000350 84 63 28 bb 4c 53 1d bd 65 ff 54 3d 3d 1e 04 3d
       -0.0025694082 -0.038409516 0.052001376 0.0322554
000360 3f 21 cb bc 93 e9 65 bc df 0b ee bc 24 78 15 3d
       -0.024796126 -0.014032739 -0.029058395 0.03649153
000370 51 90 26 3c 75 85 e7 bc 64 ac f0 3c c2 d2 6d 3c
       0.010166244 -0.02826188 0.029379077 0.014515581
000380 cd 24 93 bc d2 ca 45 bd 44 6b 58 bd b4 f5 c6 bc
       -0.017961884 -0.048289128 -0.05283667 -0.024287082
000390 24 5e 28 bc c3 fb ae 3c 84 2e dd bc 9e 37 11 bd
       -0.010276351 0.021360284 -0.02699972 -0.03545343
0003a0 f3 30 25 b9 05 69 ef bc 97 9c c3 3c d1 87 92 3c
       -0.00015753861 -0.029224882 0.023878379 0.017887028
0003b0 79 52 30 3d b2 1b 47 3d 68 9b ff 3c 40 0f 89 3c
       0.043047402 0.048610397 0.031202033 0.016730905
0003c0 ab 11 0b bd d0 46 db bb c8 b0 36 3d 25 62 56 3d
       -0.033952396 -0.006691791 0.044602185 0.05233969
0003d0 54 f2 13 3d f8 4b 16 3d f2 56 90 3c a8 fe a8 bc
       0.036119774 0.036693543 0.017619584 -0.020629242
0003e0 c1 e1 7f bc 9c fc dc bb 0a 7a 91 3c 15 f3 4d 3c
       -0.015617789 -0.0067439806 0.017758388 0.012570162
0003f0 19 1d e7 3b e6 5c 63 bd 22 57 e4 bc 03 bc 37 3d
       0.0070530293 -0.055508517 -0.02787358 0.044857036

fc2.bias f4 [30]
000000 af 5b d8 bc 7b 33 ef ba 47 36 5b bc 4d a5 30 bc
       -0.026410906 -0.0018249595 -0.01337964 -0.010781598
000010 55 55 28 bd ef 7f 6e bc cb 7a 24 3d 52 46 85 bc
       -0.041097004 -0.014556869 0.040156167 -0.016268883
000020 ba 2c b7 3c 08 2b f8 3b 08 6c 01 3d d1 94 12 bd
       0.022360194 0.007573489 0.031597167 -0.035786454
000030 a8 17 20 bc ea d3 c1 3b bc 55 fb bb 59 11 1c bd
       -0.009771265 0.0059151547 -0.0076701324 -0.03810248
000040 4e d4 e2 bc 1f e4 14 bd f1 35 ea bb b5 85 0b 3d
       -0.027689125 -0.036350366 -0.0071475436 0.03406306
000050 01 ab bf 3c 9a cf 34 bd 08 fd be 3c 08 db 3c 3d
       0.02339697 -0.044143297 0.023314014 0.046107322
000060 43 5b ac 3c 54 bb 46 bc 15 34 ec bc ad fb 1d 3b
       0.02103961 -0.012129623 -0.028833428 0.002410631
000070 da 17 df 3a c6 4d 24 3d
       0.0017020658 0.040113233

fc3.weight f4 [30, 256]
000000 53 13 a9 3b 9e da d9 3b 3e 38 13 bd f9 c5 3c bd
       0.0051597743 0.0066483757 -0.03594231 -0.04608724
000010 f1 28 ea 3c 05 2c 14 bc 8f 64 96 bd cd f7 a1 3c
       0.028583976 -0.009043698 -0.07343399 0.019771481
000020 9e e1 8b 3c 7c 0d b4 3c 40 b0 e5 ba 30 43 05 bc
       0.017075356 0.021979086 -0.001752384 -0.0081336945
000030 5c af c6 3c 70 13 7d bd f6 9f fb bc aa 8b 7a 3d
       0.02425354 -0.061786115 -0.030715924 0.06116835
000040 dc c0 d5 bc 5c 65 d7 bc 45 c3 c6 bc 94 f6 54 3d
       -0.02609294 -0.02629345 -0.024263034 0.051992968
000050 e6 76 20 3d f6 6a 2a bd 6e 21 92 3c 1d dc e5 b8
       0.03917589 -0.041605912 0.017838206 -0.0001096057
000060 3e 54 23 bd a3 0f 89 3d 5a 76 1c 3d 5a 64 ad ba
       -0.03987526 0.066924356 0.038198806 -0.001322876
000070 48 da e7 3c 0a 05 05 3b 79 d8 ad bb 96 26 4d bd
       0.028302327 0.0020297193 -0.0053053466 -0.050085627
000080 8d 5b f6 bc 1f 2f 0b bd ad e7 a2 3c 76 ce 66 bd
       -0.030072952 -0.033980485 0.019885862 -0.05634924
000090 b7 8b fd 3c f9 7d f5 bc 86 bf cd 3c 3c 44 2b 3d
       0.03095041 -0.029967295 0.02511574 0.04181312
0000a0 0e 88 35 3d d2 45 2d bd 1a e3 05 3c 7a b2 7d bd
       0.044319205 -0.042302914 0.008171821 -0.061937787
0000b0 92 25 20 bd 4e 34 d6 bc 88 ee 67 bd 86 a6 69 3c
       -0.03909833 -0.026147988 -0.056623966 0.014260894
0000c0 6e 9e ea 3c 47 ea fc bc f0 f3 f1 bc f2 3d c4 3c
       0.028639998 -0.03087343 -0.029535264 0.02395532
0000d0 7c 05 24 3c 72 39 20 bd 56 c1 5c bd ca bf 42 3b
       0.010011073 -0.039117284 -0.053895317 0.0029716366
0000e0 f3 bf 0f 3c 5a 6a ca bc de d6 da bc 0c eb 0a 3d
       0.008773792 -0.024708916 -0.026713785 0.033915564
0000f0 22 a1 04 3d af c4 5c 3d a8 0f 06 3d d0 77 eb 3c
       0.03238023 0.05389851 0.032729775 0.028743654
000100 dd bf a4 bc 5c 1b 3a bd 34 38 74 bd 70 4d a9 3a
       -0.020111019 -0.04543625 -0.059623912 0.0012916755
000110 77 58 1f bd 96 8c 7e bc f4 0d 90 3b 3a 26 c0 3c
       -0.038902726 -0.015536448 0.0043961946 0.023455728
000120 f5 60 6e bc 0a f0 ce bc b4 de 2c bc c0 a9 38 3c
       -0.014549484 -0.025260944 -0.010551143 0.01127094
000130 12 69 1a 3d fd 43 9d ba 29 a8 80 bc 35 50 61 3d
       0.03769786 -0.0011998412 -0.015705185 0.055008132
000140 99 97 2b bd f1 c9 a5 bc 91 49 82 3b c6 47 5a 3d
       -0.04189262 -0.020237895 0.003976055 0.053291105
000150 00 da a0 3c eb 28 5d bc 3b 03 52 3c c7 6f 1d 3c
       0.0196352 -0.013498525 0.012818153 0.009609169
000160 86 53 71 bd 2f d2 90 bc 93 82 50 bd 80 35 95 3a
       -0.058917545 -0.017678348 -0.050905775 0.0011383742
000170 c0 6d 4d ba 3e 76 69 bd 08 a4 a9 bc b8 63 a9 bb
       -0.00078364834 -0.05699753 -0.020708099 -0.005169358
000180 85 7e 0e bd 74 f6 34 3d 06 94 1f 3d 58 c8 25 bd
       -0.034788627 0.04418035 0.038959526 -0.040474266
000190 bc 70 53 bd 7f 43 9f bc 3d fc 9f 3c 75 26 d3 bb
       -0.051621184 -0.019441364 0.019529456 -0.0064437934
0001a0 10 4c 33 3d 76 e0 2a bd 16 02 3e 3d 77 e7 44 bd
       0.04377371 -0.04171797 0.046388708 -0.048072305
0001b0 85 8c 99 39 46 b1 dc bc d4 32 1d 3d 58 c6 17 3d
       0.0002928713 -0.02694 0.03837855 0.03705439
0001c0 c0 dc e4 3a 5f 0c 16 bd 79 39 46 bc 32 57 62 3c
       0.0017460808 -0.03663289 -0.0120986635 0.013814734
0001d0 20 f6 a8 bc 5f cc 94 bc c9 53 09 3d a1 61 10 3d
       -0.020625174 -0.018163858 0.03352717 0.035249356
0001e0 b9 35 45 3d 40 b7 4f 3d b8 96 31 3b f0 bc 4c 3d
       0.048146937 0.05071187 0.0027097892 0.049984872
0001f0 f4 36 df 3a e5 57 0a bb 8b 2a 5e bc e0 69 19 bc
       0.0017029927 -0.0021109518 -0.013559948 -0.0093636215
000200 5e bc 89 bd b8 2f b0 3c 5e 40 d0 bc c0 1a 88 3b
       -0.06725381 0.02150713 -0.025421318 0.0041535795
000210 de 87 75 3d f4 0c b8 3c 7f 48 ff 3a 38 75 c2 3c
       0.059944026 0.022467114 0.0019476562 0.023737535
000220 a7 38 0e 3c 9b 08 89 3d a2 35 d8 3c f7 27 16 3c
       0.008680499 0.066910945 0.026392762 0.009164802
000230 4a 2b a8 bb e2 38 03 3b 2d 37 53 3b 44 3e ee 3c
       -0.0051321136 0.0020022918 0.0032228932 0.029082425
000240 dc d9 ba bc 63 36 d3 bb 64 67 5f bc 32 0d 45 3d
       -0.022808962 -0.0064456924 -0.01363549 0.048108287
000250 fa dc 70 bd 8b 4a d6 3c 20 39 9b bc 5c 41 3e 3d
       -0.05880449 0.026158592 -0.018948138 0.04644905
000260 57 1d 54 3c 49 09 d2 3c 67 77 4b bc fb 5e aa 3c
       0.012946448 0.025639193 -0.012418604 0.020797243
000270 ad 56 df bc 6d 1c 5d 3b 09 94 36 3b e8 91 86 3c
       -0.02726301 0.0033738867 0.0027859232 0.016426995
000280 e6 4d 3b 3d ce 62 9d bb 19 c0 cb bb d6 7d 28 3d
       0.045728587 -0.004803038 -0.006217968 0.04113563
000290 84 f8 18 bd 34 94 d3 bc 78 cf 5f 3c bf b6 2a bd
       -0.037346378 -0.025827505 0.013660304 -0.041678187
0002a0 d1 96 63 bd 53 b6 4b bd 75 7b 7c 3b 00 ef 96 b9
       -0.05556375 -0.049734425 0.0038525735 -0.00028788298
0002b0 bf 08 5e 3d fc 74 cf 3b f0 d0 cd bb cd f7 4f bd
       0.05420756 0.0063310843 -0.006281011 -0.05077343
0002c0 77 9c 59 bd 3c 54 ec bc 0a ff 35 bd f0 ee 8a bc
       -0.053127732 -0.02884876 -0.044432677 -0.016959637
0002d0 99 15 77 3a 53 94 29 bd d4 f7 6e 3d 68 1e c5 bb
       0.00094255205 -0.04140122 0.058341816 -0.0060155876
0002e0 7c db c9 bc 98 89 4c 3c c5 ed 87 3c 9d 66 fe bc
       -0.024640791 0.012483977 0.01659287 -0.03105479
0002f0 3f d2 89 bd cc 43 4e bd b9 62 2d 3c 70 ec 9b 3b
       -0.067295544 -0.050357625 0.010582619 0.00475841
000300 a4 63 4a 3c 5c 0a 08 3d 7c 9b 02 bd d1 e4 32 3c
       0.012352858 0.033213004 -0.031886563 0.010918812
000310 75 0c 55 bd 26 75 6f 3c c6 f5 54 3b b8 75 98 bc
       -0.052013833 0.014615333 0.0032495125 -0.01861082
000320 1d e7 bb 3c dc 23 ca 3c 3e d2 79 bd ea ac 80 3a
       0.022937352 0.024675302 -0.06099152 0.0009817157
000330 bd d2 03 bd 80 ac 57 3d 1d 20 7d 3c 42 91 5d bc
       -0.032183398 0.052654743 0.015449551 -0.013523402
000340 16 2c 70 bd 68 a8 ed 3c 75 a6 ff 3c 4b 6f 02 3d
       -0.058635794 0.029010966 0.031207303 0.03184442
000350 7a 50 a2 3c 7b bd c4 bc 9a dc 4b bd 00 63 bb bc
       0.019813765 -0.024016133 -0.04977093 -0.022874355
000360 85 a6 37 3c 75 83 7f bc 8b d2 c9 bc 89 11 5a bd
       0.011209135 -0.015595307 -0.024636528 -0.05323938
000370 75 4f 78 bc f6 3a 12 3d 72 59 07 3c da 5a 4b bd
       -0.015155663 0.03570076 0.0082610715 -0.04964719
000380 5b d1 86 3d b6 c4 06 bd fd 87 35 3d 7a b7 6c 3d
       0.065829 -0.032902442 0.04431914 0.057792164
000390 fa 3a 68 bd 9b 93 2e 3b 8c 9b a3 3c 3b d2 d0 bb
       -0.05669687 0.0026638273 0.019971631 -0.0063727177
0003a0 28 dd 65 3c 97 80 0a bd 58 58 1a 3c 40 27 e0 bc
       0.014029779 -0.03381404 0.009420477 -0.027362466
0003b0 8b ac 3b 3d 90 e6 49 3c 27 6d 7e bc ce 32 25 3a
       0.045818847 0.012323037 -0.015528954 0.0006301821
0003c0 37 86 47 bd 3c 7b 7f 3d 84 06 77 bd c3 84 6a bd
       -0.04871198 0.062373385 -0.06030895 -0.057255518
0003d0 28 1e a9 3c b7 d7 0e bc e5 76 55 bd 24 f2 1c bd
       0.020644262 -0.008718423 -0.05211534 -0.03831686
0003e0 7b 19 cf 3c c1 fa 18 3d 8f 7f 97 3c 43 c6 eb 3c
       0.025280705 0.037348513 0.018493442 0.028781062
0003f0 44 50 65 3d b5 01 72 bc a6 62 cf 3b 0e 3a 38 bd
       0.05598475 -0.014770915 0.0063288985 -0.04497724

fc3.bias f4 [30]
000000 1b 19 71 ba 5c 6f 2d bd 24 ca 94 bc 69 64 27 bd
       -0.00091971614 -0.04234253 -0.018162794 -0.040867243
000010 9c 0f 0c 3d 95 08 2a bd ae 5e b9 3c 3e f4 d3 bc
       0.034194574 -0.04151209 0.022628155 -0.0258733
000020 37 0a 1a bd 52 c0 1d bd 45 2c 60 3c 27 a4 ee bb
       -0.037607398 -0.03851349 0.01368243 -0.007282752
000030 71 60 c0 3c a6 b6 96 3b ad 71 bc ba ca 5c ac bc
       0.023483487 0.00459941 -0.001437714 -0.021040339
000040 6a a6 05 bc 4b d2 f1 39 67 82 1e 3d 64 35 b2 3c
       -0.008157352 0.00046123783 0.03869858 0.021753974
000050 5f 56 9f 3c be b3 2b bc 55 08 92 3b 50 f8 f1 bc
       0.019450365 -0.010479866 0.0044565597 -0.02953735
000060 65 ec 1b 3d fb d0 56 3c 00 8a 46 3b 77 57 76 3c
       0.03806724 0.013111348 0.0030294657 0.015035502
000070 50 74 56 3b df f9 f1 3c
       0.0032723136 0.029538093

fc4.weight f4 [256, 30]
000000 1a 05 13 bc e5 4c b4 bb 6b ac 14 b9 f9 84 a3 3b
       -0.008973384 -0.0055023306 -0.0001417861 0.004990217
000010 eb b0 17 3b 19 a8 5d 3b 93 f6 1a 39 f6 15 90 3a
       0.0023146223 0.0033822118 0.0001477844 0.0010992873
000020 b5 4b 4b 3b f8 6f 2a 3a 5f f8 17 39 26 6d 69 3a
       0.0031020467 0.000650167 0.00014493008 0.0008904509
000030 de 60 01 39 6f 8f 77 3b 2e 60 c1 ba e7 ad 81 3b
       0.00012338485 0.0037774702 -0.0014753395 0.0039574984
000040 80 c2 0f bb ab d2 a4 b9 cd 5d a8 3a 02 05 c2 ba
       -0.0021936 -0.00031437477 0.0012845338 -0.0014802518
000050 66 ed 41 ba e0 da 78 39 95 b2 bb ba e1 01 82 bb
       -0.0007397741 0.0002373266 -0.0014320189 -0.003967509
000060 d2 4d 76 ba 62 53 33 bb a0 d6 85 bb 1d 52 19 bb
       -0.00093957514 -0.0027362932 -0.004084423 -0.002339489
000070 c6 ad 4c bb 6c 96 6f 39 19 ab b7 bb d7 9a 6e 39
       -0.0031231507 0.00022848853 -0.005605113 0.00022755131
000080 f0 2b 7f 3b aa 21 05 3b 89 31 8b ba 7f c4 04 3c
       0.00389361 0.0020314255 -0.0010619621 0.008103489
000090 76 b8 a3 3b 26 c3 b4 b9 54 6c 43 3a b3 8c 66 bb
       0.0049963547 -0.00034477672 0.0007454802 -0.0035179078
0000a0 9a 3d 9d bb 71 67 46 bb 19 7b 91 bb 42 5a 8c 3b
       -0.0047986032 -0.0030274058 -0.004439723 0.0042832205
0000b0 d4 9f f7 bb be 19 35 3b aa e4 88 ba 17 34 fc ba
       -0.007556895 0.0027633752 -0.0010444124 -0.0019241598
0000c0 8c 43 7e 3b a0 98 48 b9 74 fd 33 3b c1 ad 98 bb
       0.0038797585 -0.00019130344 0.0027464302 -0.004659385
0000d0 cd e6 b3 3a 02 76 c3 3b 94 d6 4c ba bc 3c 51 39
       0.00137254 0.0059649954 -0.0007813957 0.00019954419
0000e0 25 3d 90 ba 23 70 3e bb 79 a4 4a ba 73 c2 3f bb
       -0.0011004551 -0.0029058538 -0.0007730197 -0.0029260188
0000f0 fb e2 d2 3a 85 9d 80 bb d6 ad dc 3a fc 73 20 3c
       0.0016089374 -0.003925028 0.0016836475 0.009793278
000100 e1 ab 93 3b ce 03 28 bc 2c 52 00 bc 2b 23 1a bb
       0.0045065735 -0.010254813 -0.007832091 -0.0023519497
000110 6e 55 23 ba 5d 00 0a 3c 82 df 16 3c 77 bb 4e 3b
       -0.00062306866 0.008422938 0.009208562 0.0031544843
000120 59 06 51 3b 63 5c 22 bb 12 3f 38 3c 1c c7 c3 3b
       0.0031894653 -0.0024774305 0.011245506 0.0059746634
000130 cb 9a be bb 3c a8 78 3b 96 2a c7 bb c6 d2 ac 3b
       -0.0058167926 0.0037942072 -0.0060780747 0.0052741496
000140 bd 47 b5 bb 19 25 2c 3c bb 8d 33 38 0b 33 1f bc
       -0.0055322335 0.010506892 4.2808922e-05 -0.009716759
000150 f7 15 3c 3b 90 48 96 bb 1e 2e b2 3b b1 a2 31 3b
       0.0028699616 -0.004586287 0.0054376265 0.0027105028
000160 39 d0 00 3b b7 a8 09 3b 46 d5 a1 3a 23 90 0e 3a
       0.001965536 0.0021005103 0.0012346886 0.0005438348
000170 ae 80 49 bc 14 fd 82 bc 90 bd 70 38 13 3a f8 3b
       -0.012298746 -0.015989818 5.7397003e-05 0.0075752824
000180 48 55 cd 3a cc 69 81 3b f1 f1 db 3b 3e d7 5e bc
       0.0015665675 0.0039493795 0.0067121913 -0.013601122
000190 a8 ec 56 bb f8 34 93 3b 4a ad b8 bb 29 44 11 3b
       -0.0032794867 0.0044923984 -0.005635892 0.002216587
0001a0 fe 73 a6 ba b3 86 1d bc 28 2e 14 3b d4 27 3c bb
       -0.0012699363 -0.009614634 0.002261052 -0.0028710263
0001b0 db a4 72 bb f5 a5 1a bc f1 20 6b 3b d3 f4 c0 bb
       -0.003702453 -0.009438981 0.003587779 -0.0058885603
0001c0 08 37 27 3b 30 e3 30 3c d5 2c 01 bc 43 8e e4 3b
       0.002551498 0.010796353 -0.007884224 0.0069749667
0001d0 be 1f 47 bc 9c 17 3b bb e1 43 49 b8 e2 06 08 bb
       -0.012153564 -0.0028548008 -4.798535e-05 -0.0020756056
0001e0 cc 20 c5 3b 2b 8f 0a bc b3 da 73 bb 82 e7 29 3a
       0.0060158726 -0.0084569855 -0.0037209212 0.0006481336
0001f0 14 15 90 ba 6b 42 e9 bb cd ad d6 bb 2d 29 b0 bb
       -0.001099261 -0.0071185133 -0.0065514804 -0.0053760023
000200 e9 d9 b0 ba 8d 9a 52 3b 81 3f 67 3b d4 80 20 3c
       -0.0013492677 0.0032135576 0.0035285654 0.00979634
000210 0a eb 02 3a 70 14 e4 3a 12 65 6e 3b 81 e9 89 ba
       0.000499413 0.001740111 0.003637616 -0.001052186
000220 e7 fa a5 bb 89 9e a4 b9 a6 e0 00 bc 4f 47 3f bb
       -0.0050653103 -0.00031398635 -0.00786606 -0.002918679
000230 24 bb 41 bb 08 0e bd 3b a4 b4 00 bb ed d8 c0 bb
       -0.0029561007 0.005769495 -0.001963892 -0.0058852346
000240 2b e3 62 bb 03 42 02 bc 27 ca 32 3b 8b 5c 01 bb
       -0.0034620266 -0.007950309 0.0027281137 -0.0019738998
000250 9c 8e ef 3a 0e 04 e0 bb fb a4 77 3b 3b dd b4 3b
       0.0018276754 -0.006836421 0.0037787545 0.005519537
000260 2c d2 27 3c 76 29 70 ba 95 1b 8b ba 1a 5e 3d bb
       0.01024298 -0.00091614516 -0.0010613078 -0.00288952
000270 14 a7 ac ba f4 cb be bb e5 67 b1 3b 25 dd 4a bb
       -0.0013172352 -0.005822653 0.0054139965 -0.0030954566
000280 b2 21 48 ba 26 d3 38 bb 81 07 b4 3b 51 57 4e 38
       -0.00076344155 -0.0028202026 0.0054940586 4.9195547e-05
000290 f0 bc 3b 3c 3f 3b a6 ba 2f 3c f1 3b 32 4b 3b 3b
       0.01145862 -0.0012682452 0.007361911 0.0028578755
0002a0 0c 50 9c 3b c2 38 b6 3b 9f ae 55 3b 81 a3 99 3b
       0.0047702845 0.0055609653 0.0032605303 0.0046886806
0002b0 37 57 22 3a c6 f1 ca b8 a6 db 04 3b 32 4c d1 3b
       0.00061928056 -9.6771444e-05 0.0020272522 0.006387257
0002c0 3c d8 1c 3c 59 0c e1 3b 12 5e 5d 3b 63 49 91 3b
       0.009573039 0.006867927 0.0033777994 0.004433797
0002d0 5f 1f 6f 3a 39 14 c2 3b cf 12 31 3c e9 b0 bc 39
       0.0009121801 0.005922821 0.010807707 0.00035989963
0002e0 d1 a7 19 3b ab 7c 80 bb 58 c0 2e bb 83 e2 01 bc
       0.0023445974 -0.0039211116 -0.0026664939 -0.00792754
0002f0 13 6b 6f ba 0e bc d5 ba ad 22 fc ba df b4 c5 bb
       -0.0009133082 -0.0016306655 -0.0019236408 -0.0060335244
000300 38 56 82 3b 18 0e 30 bb 31 de 59 3c 7f f1 af 3b
       0.003977563 -0.002686387 0.013297603 0.0053693647
000310 8b 9c 3e 3c 39 3d ea 3b 4c 04 81 3b e4 01 3b 3c
       0.011634002 0.0071484116 0.00393728 0.011414025
000320 48 8a ff ba cf ec d8 3b bf ca 4e 3b 9f f8 c8 bb
       -0.0019496167 0.0066200267 0.0031553952 -0.0061331536
000330 21 b1 2b 3b b4 76 08 3c 9f d8 3e 3c 56 5c e4 3b
       0.0026198106 0.008329082 0.011648326 0.006969015
000340 ed 1e a3 39 bf 85 9a 3b 89 f0 d3 ba af 5e dc ba
       0.00031112824 0.004715651 -0.0016169708 -0.0016812886
000350 fd 03 31 bb ae 2a 1c ba 8d 31 8a 3a ef e1 6f b9
       -0.0027010434 -0.00059572875 0.0010543332 -0.00022876983
000360 0e f3 71 bb 8b 03 80 3a a8 c9 4b 3a 0d 85 c5 3b
       -0.0036918554 0.0009766681 0.00077738846 0.006027824
000370 66 50 99 3b 13 79 a1 3b 1c ce 0f bb 00 3b b0 3b
       0.0046787737 0.0049277632 -0.002194292 0.005378127
000380 8e 1e 8c bb 32 58 87 37 ff 57 c4 bb cf 42 26 3a
       -0.0042761033 1.6134323e-05 -0.0059919353 0.0006342353
000390 1d 86 2e 3a 68 f9 28 bb 3e 91 32 b7 42 03 82 3b
       0.00066575577 -0.0025783423 -1.0643444e-05 0.0039676735
0003a0 ca 4f 40 bb a3 04 0a 3b 09 78 04 3b 4f 0e 14 bb
       -0.0029344433 0.0021059893 0.0020213148 -0.0022591536
0003b0 7e ba 84 bb 28 3d 98 3b ff 3b 5d 3b 86 b5 ab 3b
       -0.004050552 0.0046459623 0.0033757684 0.005240145
0003c0 9a c4 7a b8 2b a0 57 3c 0f 1c 1d 39 ed f6 9e bb
       -5.9787744e-05 0.013160746 0.0001498314 -0.004851213
0003d0 2a e8 37 bb 8c b2 17 3c ad 0e 89 3a 9f ae b2 3b
       -0.0028061965 0.0092588775 0.0010456644 0.0054529454
0003e0 fc 61 d1 bb de cd 04 bc df 09 37 bc 29 00 a5 ba
       -0.0063898545 -0.008105723 -0.011171787 -0.0012588549
0003f0 8f 06 ed ba 71 59 a9 3a 66 c1 89 bc eb d9 58 bc
       -0.001808362 0.0012920332 -0.016815852 -0.013235549

fc4.bias f4 [256]
000000 aa 21 99 bc 62 23 d7 3c d7 8c 31 bd 0e 83 df 3c
       -0.01869281 0.026261989 -0.043347206 0.027284171
000010 07 35 82 bd 05 72 47 3d 23 1c 9d 3b 71 71 49 3e
       -0.063577704 0.048692722 0.004794614 0.1967218
000020 de 3d 7c 3d 69 be 5d bd 69 68 25 3c f9 bb 19 be
       0.06158244 -0.054136667 0.010095694 -0.15013112
000030 20 a3 3c 3c a4 6c 99 bc e8 0d 9e 3b 1f dc 4c be
       0.011513501 -0.018728562 0.004823435 -0.20005845
000040 4d 57 2c bd ee 8a d8 3d ec e1 2f 3e 87 32 ca 3d
       -0.042075444 0.10573374 0.17176026 0.098729186
000050 0e a5 23 3e f4 31 bf bd 57 60 0e be 5f 36 53 3b
       0.15980932 -0.093357 -0.13903938 0.0032228453
000060 13 18 d0 bc ec aa 2e be fe ba 57 bc d9 88 29 bc
       -0.025402104 -0.17057389 -0.013167141 -0.010347568
000070 eb a2 03 3d af f9 08 b9 44 42 11 3d 28 5d 8b bc
       0.032137793 -0.00013062985 0.035463586 -0.017012194
000080 ab 83 f4 3d 1d 31 24 3e 8e 41 aa bb 88 f6 fa 3c
       0.11939176 0.1603436 -0.005195803 0.030635133
000090 5d cb 3f 3d 55 f3 a3 bd f6 73 32 3e 2c 3b 91 3c
       0.0468248 -0.08005396 0.17427048 0.01772841
0000a0 ce c6 f3 3d 85 30 b0 3c eb 9c 2b 3d 72 73 1b 3e
       0.11903153 0.02150751 0.041897696 0.15180758
0000b0 3f 9d c0 bc 09 82 33 3d 67 aa 9f bc 40 1f 0b 3b
       -0.02351248 0.043825183 -0.019490434 0.0021228343
0000c0 91 45 b7 bc f6 98 a1 bc 4c 3d af 3d ca 7e f5 3c
       -0.022372039 -0.019726258 0.08556613 0.029967684
0000d0 fb d7 00 bd 7b ad a4 bd d0 3a 11 3d cc 93 6a bd
       -0.031455975 -0.08040901 0.03545648 -0.057269856
0000e0 e6 20 55 3d 46 48 b6 bd d8 3c 2e 3d a7 4f 03 3d
       0.052033328 -0.08900504 0.042538494 0.032058384
0000f0 d1 28 f7 3d a6 8c 18 bc fa f5 30 3d cd 45 34 bb
       0.12068332 -0.009310877 0.04320333 -0.0027507425
000100 c4 01 d7 bc d0 58 f6 3c 6a 9c 03 bd 97 bf fa bc
       -0.02624596 0.030071646 -0.03213159 -0.030608935
000110 bb bb 85 bd b4 2a f8 bd da 16 26 3b 12 49 96 bb
       -0.06529947 -0.1211752 0.002534321 -0.0045863474
000120 30 c5 22 bd b0 d3 a6 bd 54 0e f3 bc 2e 2f 37 3e
       -0.039738834 -0.08145845 -0.029669918 0.17889091
000130 4a 97 a3 3b 73 61 46 3b 2d 3e d2 3d 4f 85 e1 bc
       0.0049924003 0.0030270487 0.10265765 -0.027529387
000140 07 12 69 3d b4 e9 3e 3d c9 1b 4d bd b2 69 c8 3d
       0.056901958 0.046609595 -0.050075326 0.09785785
000150 7e 83 1c 3c 0c 67 c2 bd 16 d4 d6 3b a8 35 ce 3b
       0.009552835 -0.09492311 0.0065560443 0.0062930174
000160 38 64 b3 3c 9f fb 7a bc da 07 65 bb 85 30 20 be
       0.021898374 -0.01531878 -0.0034947307 -0.15643509
000170 88 42 e4 bd 18 43 68 bd 3d 2c 84 3d c2 51 16 be
       -0.11145502 -0.05670461 0.0645375 -0.14679626
000180 7c 82 89 bc 39 e6 57 3d 99 52 42 3c 25 06 e3 3d
       -0.016785853 0.05270979 0.011860513 0.11085156
000190 03 f9 1e 3d 6e 07 06 be 6c a1 86 3b fd b5 e9 3c
       0.038811695 -0.13088772 0.0041085985 0.028529162
0001a0 e3 69 a2 3d cc 82 ce bd cb 0e c9 bc fb 60 a7 bd
       0.079303525 -0.10083541 -0.024543187 -0.081727944
0001b0 11 fc 16 3d d5 08 02 bc 1e 62 b6 3b d2 b6 aa 3d
       0.036861483 -0.007936676 0.0055658957 0.083356515
0001c0 f2 da d1 3c 0c 7c 06 3d 3a 7b 1d bd 8e 77 81 bd
       0.025617097 0.032833144 -0.038447596 -0.06321631
0001d0 39 e5 10 be 1e e3 31 3d fb 77 02 3e bf 5e aa bc
       -0.14149942 0.043429486 0.12741081 -0.020797132
0001e0 e3 46 1e 3d ef f4 b0 3d 24 85 13 3d 16 69 d5 bc
       0.03864182 0.086404674 0.036015645 -0.026051085
0001f0 b8 0e 16 be 61 00 51 3d 26 5d c7 bb e5 1d e9 3a
       -0.14654052 0.051025752 -0.006084102 0.0017785399
000200 ee 4c a1 3d 03 db 0c 3d e3 1e a6 3c 46 54 b0 3c
       0.07876001 0.034388553 0.0202784 0.02152456
000210 95 48 9b bd 5d 06 8a bd 9d d5 c9 3d c1 5b 7c 3d
       -0.07582203 -0.06739495 0.098551966 0.06161094
000220 a4 2c 4d bd 1c 25 f7 bd c0 ec 85 bd 2c c7 ed bb
       -0.0500914 -0.12067625 -0.06539297 -0.007256409
000230 c1 c4 b6 3c 01 fa a3 bd 64 01 4c 3e 91 6d e5 bc
       0.022310616 -0.08006669 0.19922405 -0.028006347
000240 71 7b e1 bb 8c c7 ea bc f7 de 07 bc c3 57 c3 3d
       -0.0068811704 -0.028659604 -0.008292905 0.095382236
000250 59 eb 10 3e 7f b2 a3 3d ba 43 2b be 15 52 ae 3d
       0.14152278 0.0799303 -0.16725054 0.0851175
000260 bf 66 c5 bd 86 59 93 bc 79 0f 23 3c 61 a8 a3 bc
       -0.09638738 -0.017987024 0.009952419 -0.01997775
000270 3d dd 28 bd 2a a7 08 be d9 79 6a 3d 7e 14 05 3e
       -0.041226614 -0.13345018 0.05724511 0.12996098
000280 74 db f9 bc c1 da 41 be f4 10 21 bc 8e 32 17 3c
       -0.030500151 -0.18931104 -0.009830702 0.009228362
000290 dd 70 0d be b9 93 41 3d 31 c7 2c 3d 32 4f 76 bd
       -0.13812585 0.04726002 0.04218215 -0.06013412
0002a0 7b 70 f4 3b 6f 59 c7 3d 70 2a f8 bd ae eb b0 ba
       0.007459698 0.09733855 -0.12117469 -0.0013497972
0002b0 41 8e 35 bd a3 68 dc 3c 83 ce 03 3e d2 77 d1 3d
       -0.044325117 0.026905363 0.12871747 0.10227932
0002c0 1c de 3c bd 71 fd 4a 3c 95 3f 98 bd 2a 99 d9 3c
       -0.046110258 0.012389527 -0.07434002 0.026562292
0002d0 15 cf db bd 3f 6f 0f 3c 17 70 a8 bd 7d 07 0c 3e
       -0.10732857 0.0087545505 -0.082245044 0.13674732
0002e0 a8 1a ee bd 76 36 d8 3d b6 fd 24 bc e0 dc 89 3d
       -0.11626178 0.105572626 -0.010070255 0.06731582
0002f0 e4 8e db bc 40 0c 37 3d 36 1d 02 3d 3e 56 f2 ba
       -0.026801534 0.044689417 0.03176614 -0.0018488837
000300 fd f3 19 3d 67 ec ff bd 53 a3 85 3b 8a 7a c6 3b
       0.0375862 -0.12496262 0.0040783077 0.0060570883
000310 36 8a 13 3b 3a 0e 81 bc 4c c6 f8 bc 71 e1 18 3d
       0.00225128 -0.015753854 -0.030367993 0.037324373
000320 b9 fa 12 be 28 45 b3 3d fa 3c c3 ba d6 fa 43 3b
       -0.14353456 0.08753425 -0.0014895492 0.0029904149
000330 b2 5e 1e 3d 01 41 40 3e 14 2a 10 be 5e ba c6 3c
       0.038664527 0.18774797 -0.14078552 0.024258789
000340 6e 08 dd 3d a8 41 8d 3d c3 d5 8d bc 9e 1f dc bd
       0.107926235 0.068972886 -0.017313844 -0.10748218
000350 2a 42 e8 3c 90 b1 ad 3d 51 99 e7 3c 6a 2d 1f be
       0.028351862 0.08481133 0.02827135 -0.15544668
000360 7a e4 5a bb 30 1e 10 3e 43 6d 28 3e 70 31 6d 3d
       -0.0033400343 0.14074016 0.1644793 0.057908475
000370 34 eb d8 3d fa 80 16 3e dc ca 12 3a 4f 23 a7 bd
       0.105917364 0.14697638 0.00055996864 -0.081610315
000380 27 4e 48 bd 31 4f 3e 3e 43 3b 37 bd f9 4e 31 3d
       -0.048902657 0.18584897 -0.04473425 0.043288205
000390 9c 62 83 bd ff 68 d8 3d be 08 8e 3c 33 d8 81 ba
       -0.064152926 0.105669014 0.017338153 -0.0009906351
0003a0 69 50 16 be 3e 62 4b be 96 a9 ca bd c2 ad 04 bd
       -0.14679112 -0.19861695 -0.09895627 -0.03239227
0003b0 3c 4c eb 3d 74 2a f5 3d 5a db 20 bd ea 4d d7 3d
       0.1148915 0.11970988 -0.03927169 0.10512908
0003c0 92 97 1d 3d 75 bc 8f bc 31 98 c8 3c f5 d5 4b bd
       0.038474627 -0.017545918 0.024486633 -0.049764592
0003d0 fe 9c 48 3e a9 93 10 3e 6c e3 a9 bc 01 b8 06 3c
       0.19591138 0.14118828 -0.020738326 0.008222581
0003e0 66 0e 01 be 9c f7 5c 3c d8 e3 1c bc 3f a9 ee 3b
       -0.12603149 0.013486769 -0.009575807 0.0072833593
0003f0 0c 2d f6 bd ab 7e b2 3d 93 fd 8f 3c a6 93 50 3e
       -0.12020311 0.08715566 0.017576968 0.20368823
