customized/model/trained_model/vae/vae_z_20batch_128.pth (torch, 855071 bytes, 10 tensors)

fc1.weight f4 [256, 384]
00000000: 004d 26bc 9663 2c3d f36d f6bb 7afb 93bd
00000010: 1174 ae3c dc76 98bc b153 29bc 1860 72bc
00000020: 261e e0bb 638a 813d 2cb0 adbc 8f40 58bd
00000030: b2ce 763b 5b63 7d3d 787e 86bd 8f63 69bd
00000040: 7d3a 11bd 1c43 02bd 48d7 e73b 34af d93c
00000050: 0aea c5bc 5bfc 82bb 0bad ac3c fb1d 373d
00000060: b453 17bc 6fb5 333d f2c8 44bd bb43 083d
00000070: d887 5dbd 5870 56bc 796d a43a 9e4e 2c39
00000080: 3c66 34bd 4012 25bd f73d 81bd f247 66bb
00000090: cbb4 3b3d 6157 39bd 819f 1d3b b98b 943d
000000a0: aeb6 a73c d474 a8bb bbdc 7abc 7505 9dbc
000000b0: 1339 4cbd ad82 3c3c 1538 853d 65e3 09bc
000000c0: 53b8 353d b32e 63bc 1719 a13c 8a47 ab3c
000000d0: 899a 70bd 96a1 34bd b54d 28bd 34cc 02bd
000000e0: 3e91 e23c 2449 67bd 510f 913c 7a94 c4bb
000000f0: 00ea 3d3b e0b8 e8bc fdf5 08bd 713f 7dbd
00000100: 874e d83c 0221 973c 7e5f c3ba 4f45 e83c
00000110: 7bbc 273d 3b4d 953b e9e8 0abd 18ff 053c
00000120: aacb 77bd 0299 283d f6a9 323d 1aa2 dfbc
00000130: 3dc1 a4bc 78fb 9ebc 9f68 60bd 1cd4 8fbd
00000140: 5e73 af3b 5e28 04bd 63e5 853d a959 a1bb
00000150: e8c3 c2bb 206a ccbc e64d 90bc 3cf1 603c
00000160: 631d ab3c ceb5 74bd 0a09 99bc 410b 6abd
00000170: 0484 493c d6ac 843c 3b7c 96bd 5188 8dbc
00000180: 37f2 be3a bf52 023d 3574 b43a d826 163a
00000190: b571 3d3d 35e7 27bc deca 5cbd 9dce ad3c
000001a0: f5c3 d8bc 273e 103c b98f 663c 7b00 773d
000001b0: 0dc5 2c3c be6f 27bd 549e 7bbd 4d1a d7bb
000001c0: e8d2 12bc 0c2d ff3c 7aa9 7dbc a7c2 f43b
000001d0: 3add 0d3d 31f8 1abd 0527 0d3d b0f5 a0ba
000001e0: 86f0 58bd 26db 03bc b48e 4b3d e5be 4dbc
000001f0: cff0 3dbd c3ff 13bd 5bed 663d 204d 673c
00000200: 5ae1 fc3b 8594 76bc 8668 0d3d c7ea 703d
00000210: 28b6 e13c 97d5 453d 8289 333d fdd2 2bbd
00000220: 05e0 26bc 77ba a1bc 4c10 32ba 0072 b9bc
00000230: bcd9 c53c d3f1 9c3c 7e00 7b3d 5359 b1bc
00000240: b761 1dbc 2e33 ddbc 70f4 b93b 12a4 973a
00000250: 05c6 7fbc 6a07 9f3b 242f 2d3d 7047 73bd
00000260: a20e 2dbd 777b bc3c 3902 81bd 0d52 f7bc
00000270: caa9 65bc 4f65 20bd b54f a13c 455e f9bc
00000280: 403c 4ebd c97c 24bd 05db 213c e276 82bd
00000290: 7e46 de3c 522d 03bd 0d2c 663d 0803 2d3d
000002a0: c3db 4b3d f7e9 08bd 5cb3 fbbc 22dd 2b3d
000002b0: c4c5 4dbd 14d2 203c 2c9a 92bb b69c a33c
000002c0: e25c 2bbd 194b 66bd abda 12bd 880d bdbc
000002d0: 609d 37bd 612d 763d 4577 2c3d 9cbb c83c
000002e0: 8bbc ec3c ebc1 6ebd 7bc6 343d d43d d1bc
000002f0: e55b 9a3c bf67 bcbc b283 a2bc 362c 2c3c
00000300: 3812 95bd 107b 753a c9fc 083d 124c 36b9
00000310: d152 72bb 610e a03c e481 bcbc 5718 1b3d
00000320: aff0 4e37 8427 483c c380 9fbb b3ca 373c
00000330: 11f5 a33b a88f 3a3d 4cb4 e2bc 5363 803b
00000340: 688b cfbc b9e6 f1bc e426 fcbc b6d3 6c3d
00000350: fb53 263d 7304 20bc 7b9c 78bc 54fb fabc
00000360: 9222 823c adf1 b7bc e7c3 82bd 9aab 523d
00000370: cfa0 cc3c 36db c43a 45ea 8ebb 3847 9c3d
00000380: c52b 1c3c 5a2c 31bd 8434 89bc e04a f73c
00000390: 6045 223d 02c2 a0bc ce1b 823d 3bed 6ebd
000003a0: d5c7 3dbb e9e5 17bd c9fb 863c 2398 bbbc
000003b0: 2c62 2d3c 062d 173d 6e60 33bd d933 f33b
000003c0: ca9c 4fbd 4005 22bd fea2 e03a e78b bf3c
000003d0: 631d d23a a272 5b3c 8abc 333d f759 f93c
000003e0: 797f 0a3d 0d26 8fbd 557d aa3c 0f7b 213d
000003f0: b27a ff3c 5f9f fdbc 14e2 f7bc 5011 123d
-0.010150194 0.04208716 -0.007520431 -0.072257 0.02129558 -0.018611364 -0.010334895 -0.014793418
-0.0068395315 0.06325223 -0.02120217 -0.052795943 0.003765982 0.06186233 -0.06567091 -0.056979712
-0.03545617 -0.03180228 0.007075224 0.026572801 -0.02415945 -0.0039973683 0.021078607 0.044706326
-0.009236265 0.0438742 -0.0480432 0.033267718 -0.05408463 -0.013088308 0.0012544832 0.00016432485
-0.04404281 -0.040300608 -0.06310647 -0.0035138098 0.045826714 -0.045249347 0.002405137 0.072532125
0.02047285 -0.00514088 -0.015311415 -0.019167641 -0.049859118 0.011505765 0.065048374 -0.0084160315
0.04436524 -0.013866114 0.019665284 0.020908136 -0.058741126 -0.044099413 -0.041089732 -0.031933025
0.027657147 -0.056466237 0.017707499 -0.005999145 0.0028978586 -0.028408468 -0.033437718 -0.06182808
0.026404632 0.018448357 -0.0014905778 0.028353361 0.040951233 0.0045563257 -0.033913527 0.008178495
-0.060496964 0.041161545 0.04361912 -0.027298976 -0.020111674 -0.019407019 -0.054787274 -0.070228785
0.005354329 -0.03226506 0.06537893 -0.0049240184 -0.005943764 -0.024952948 -0.01761527 0.01372939
0.020888036 -0.059743695 -0.018681068 -0.05713964 0.012299541 0.016195696 -0.07347914 -0.017276915
0.0014568035 0.031817194 0.0013767543 0.0005727834 0.046251018 -0.010247995 -0.053904407 0.021216685
-0.026460627 0.008803881 0.014072352 0.060303193 0.010545027 -0.04087805 -0.06143029 -0.0065644146
-0.008961417 0.03114941 -0.015482301 0.0074694934 0.034634806 -0.03783435 0.03446104 -0.0012280252
-0.052963756 -0.0080478545 0.04969664 -0.01255772 -0.04637223 -0.036132585 0.056378704 0.014117509
0.0077172937 -0.015050058 0.03452351 0.05881765 0.02755268 0.0482994 0.04383231 -0.04194926
-0.010185246 -0.019742234 -0.00067925896 -0.022637367 0.024151675 0.01915828 0.061279766 -0.021649038
-0.009605817 -0.027001943 0.005674891 0.0011569283 -0.015611176 0.0048531787 0.042281285 -0.0593943
-0.042250283 0.023008091 -0.06299252 -0.030190492 -0.014017532 -0.039159115 0.019691328 -0.030440459
-0.050350428 -0.040158067 0.0098788785 -0.06370331 0.027133223 -0.032025643 0.056194354 0.04223922
0.049770128 -0.03342625 -0.030725174 0.041958936 -0.050237432 0.0098157115 -0.004473945 0.019972187
-0.041836627 -0.056223962 -0.03585307 -0.023077741 -0.04482782 0.06010187 0.04210593 0.024503522
0.028898498 -0.058290403 0.0441346 -0.025542177 0.018842647 -0.022998689 -0.019838188 0.010508588
-0.072788656 0.0009364346 0.0334442 -0.00017385211 -0.0036975632 0.019538106 -0.023011155 0.03786501
1.2334595e-05 0.0122164525 -0.0048676445 0.011217761 0.0050035794 0.045547158 -0.027673863 0.0039180904
-0.025335029 -0.029528962 -0.030780263 0.05781909 0.040607434 -0.009766686 -0.015174027 -0.03063742
0.015885625 -0.022454107 -0.06385022 0.051433183 0.024979023 0.0015018943 -0.004361423 0.076307714
0.00953192 -0.043255188 -0.016748674 0.03018707 0.039616942 -0.01962376 0.063529596 -0.05833171
-0.002895822 -0.037084494 0.016477482 -0.022899693 0.010582488 0.036908172 -0.043793134 0.007421952
-0.050686635 -0.039555788 0.0017138419 0.02338214 0.0016030486 0.01339403 0.043880977 0.030438406
0.033812974 -0.069896795 0.020811716 0.039424 0.031186435 -0.030959783 -0.03025917 0.03566104

fc1.bias f4 [256]
00000000: 4ed3 bdbc b65f c6bc 2548 973b 3dff 24bc
00000010: c066 82bd 12d7 dc3c 3e82 37bd f87c 3cba
00000020: 672b 0bbd e459 7abc b6b4 60bb c82f 0d3d
00000030: 9e38 2cbc e4b9 0bbd b9c4 383c dc02 523c
00000040: 3387 4bbb 30c8 b13b 840c 533c ff2a 1ebd
00000050: cf0e c33c f3cd 6abc 9dfa 80bb a9a2 1d3d
00000060: 9e5d 39bd 1246 56bd 446c ac3b 8c94 983c
00000070: 2be7 2ebb 848a 9bbc 2441 ca3a 83fc 0dbc
00000080: 9382 acbc fcbb 43bc b71c eaba 8d25 67bd
00000090: 5b19 e1bc 946a 873c 8216 ba3c cfc2 933b
000000a0: 9a25 d33c 30c0 84bc 516b 33bd ed0e 13bd
000000b0: 0b76 853c 564d 56bd 5ad0 133d 4e65 4dbc
000000c0: af3c 2a3c b24e 573b e844 55bd 2033 e63c
000000d0: f10e 0abd 2bb7 ed3c 466a 1dbd a965 7dbd
000000e0: 824b 383c 4eaa 5fbd f9ed b43c 4e79 eebb
000000f0: bba6 473c 8c82 21bd 3ba9 37bd 817a 3bbd
00000100: bce7 6cbd 3794 86bc f3fb 4cbb 60b6 75bd
00000110: 4c29 5cbd afcd 2fbc eb34 04bd b5d3 e1bc
00000120: 36a5 40bd f820 2c3c 86c8 4bbd 27f2 513b
00000130: 536a b7bc cb42 c3bc 9f58 3bbd 7251 7c3c
00000140: 729e 9fbc 5900 c63c d519 36bc 698a 01bb
00000150: 13db 6dbc 3515 7abd 8959 2fbd e63c d5bb
00000160: 1412 963c bc68 263d 3d99 153c 9705 9bbd
00000170: 26ec 3dbd 3471 4cbc 89ce 0d3c 8b13 9e3c
00000180: b5f7 11bd 9dd1 86bc edb2 9fbb cb64 6d3a
00000190: 39e4 4fbd c2f8 31bd 3e2e aebb cd0c f93c
000001a0: b0a8 f9bc cf9b 63bb 974f 93ba 48e6 62bd
000001b0: 7711 a13c fbc8 063d 7be2 26bc 0fd7 f4bc
000001c0: ad55 bbbc ee46 9fbc 7b2d 8c3b 495e 44bd
000001d0: cc09 c63c a132 87bd b0d7 eebc fe4c 4bbb
000001e0: 4fe6 f0bc 801c 633c c7d4 bc3c 6a47 32bd
000001f0: 55fe 8dbc b831 a23c ddcb 6dbd cbfb fdbb
00000200: 1fe0 67bd 77d0 7dbc 7ce2 a53c 8df5 b1bc
00000210: 87d3 833c 7988 24bb 89d8 c83c 4c75 ddbc
00000220: 31e0 3fbd 4040 0a3c dc68 17bd 2e31 e2bc
00000230: ce2c d3bc 38a5 50bd 9fe2 31bc 49ae d538
00000240: 8345 963b c7a7 eeba ce14 ffbb 334f 68bc
00000250: 34c3 08bd 6832 3abd 6641 66bd 563f 5ebd
00000260: bc5d 30bd 3fe2 f83a d5ff bfbc e4ad edbb
00000270: 2966 57bd a2e9 b6bc 85cb 7e3c 53e8 f33c
00000280: a1ed 4d3c 7bba 6cbc 9535 9c3b cd54 323c
00000290: 3419 333d b3ef 623c f7bc 3cbd cfb8 6a3c
000002a0: 93fb e53c 1199 503c 53e7 95bc 812b a6bc
000002b0: e8ef 753b dab7 34bd b5f6 39bb e1db 2ebd
000002c0: 6904 a9bc 48b4 033c 3242 443c 71d8 4bbc
000002d0: 7cad 29bd 6cc9 d33b 4ba5 62bd d96c 36bd
000002e0: b0c2 75bd c06b 53bd 9dcb 81bc 2d29 a2bc
000002f0: 28f1 823b 696f 1abd 9d72 53bd 039f 9eba
00000300: 7c9f e83c 0662 b3bc cdc6 03bd 2b93 c4bc
00000310: 1fb0 c43c a560 b93c 303b ab3b 0bf1 79bd
00000320: c0c8 50bd 70bc ab3c 18ae 053d a79c 89bd
00000330: 2fb7 65bd a4c5 ac3c f985 00bd bcb5 cf3b
00000340: b874 2bbd 0b0e 7cbd a93b 56bd da4e 693c
00000350: a2d9 4cbd bdec 4aba 6138 52bd c477 47bd
00000360: dd83 bbbc ee7a 8abd b29e 7cbd 17d8 40bd
00000370: bbfa 273c 7b3d f0ba dd0e 46bd 6324 aebb
00000380: 098c c9bc 13b5 0cbd e497 85bd fb73 e03c
00000390: 2f39 0abd 2f2c 0bbd 6745 b2bc 44ef a9bc
000003a0: e50b 3f3c 34a2 e43c 63e9 57bd 867a 56bd
000003b0: 5324 02bd d19a 07bd 1858 c33c c523 2ebd
000003c0: 0b45 263d 197e 10bd 4e52 673c 75af 353b
000003d0: f6f9 76bd c634 103d f671 fbbc b52a 5ebd
000003e0: c76f a53a 7d2b 38bd cff9 10bc 2137 283c
000003f0: b1de d33c 7e57 c7bc 7001 c0bc 6475 26bd
-0.023172047 -0.02421556 0.0046167546 -0.010070619 -0.06367254 0.026958022 -0.044801943 -0.00071902527
-0.03397694 -0.015280221 -0.00342874 0.034469396 -0.010511545 -0.034112826 0.011277371 0.012818065
-0.0031055927 0.0054254755 0.012881402 -0.038615223 0.023810772 -0.014331329 -0.0039361254 0.038485203
-0.045255296 -0.052312918 0.0052619297 0.01862552 -0.002668808 -0.018986948 0.001543079 -0.0086661605
-0.021058356 -0.011946674 -0.0017861341 -0.056432296 -0.02747791 0.016530313 0.02271581 0.004509307
0.025774766 -0.016204923 -0.043803517 -0.035902906 0.016291639 -0.052319847 0.03608737 -0.01253636
0.010390445 0.0032853303 -0.052067667 0.02810055 -0.033705655 0.029018005 -0.03843143 -0.06186453
0.011248471 -0.054605775 0.02208613 -0.0072776442 0.012185748 -0.03943114 -0.044839125 -0.045771126
-0.057838187 -0.016428096 -0.0031278103 -0.05998838 -0.05375032 -0.010730191 -0.03227703 -0.02756677
-0.047032557 0.010505907 -0.04975178 0.0032035203 -0.022389567 -0.02383556 -0.045738813 0.015400277
-0.019484732 0.024170088 -0.011114557 -0.0019766337 -0.014517563 -0.06105538 -0.042809997 -0.006507504
0.018319167 0.040627226 0.009130773 -0.075694256 -0.046367787 -0.012478162 0.008655199 0.019296428
-0.035636622 -0.016457373 -0.0048736245 0.0009055852 -0.05075476 -0.043450125 -0.005315571 0.030401612
-0.030475944 -0.003473032 -0.001123893 -0.055395395 0.019661648 0.032906514 -0.010185833 -0.029887704
-0.022868002 -0.019443002 0.0042778826 -0.04794148 0.024174593 -0.066014536 -0.029155582 -0.0031021233
-0.029406695 0.013861775 0.023050679 -0.043525137 -0.017333189 0.019799098 -0.058055747 -0.0077509633
-0.056610223 -0.015491596 0.020249598 -0.021723533 0.016092075 -0.0025105758 0.024517315 -0.02703347
-0.046844665 0.00843817 -0.036965236 -0.027611341 -0.0257782 -0.050938815 -0.010857253 0.000101890946
0.004585923 -0.001820796 -0.0077844625 -0.014179039 -0.033389285 -0.045458227 -0.056214713 -0.05425962
-0.043058142 0.0018988325 -0.02343742 -0.0072533954 -0.052587662 -0.022328202 0.0155514525 0.029773867
0.012568862 -0.014448757 0.0047671297 0.010884476 0.043725207 0.013851094 -0.04607865 0.014326288
0.028074061 0.012731806 -0.01829878 -0.020284416 0.0037527028 -0.044120647 -0.0028375809 -0.04269016
-0.020631986 0.008038588 0.011978673 -0.01244174 -0.041425213 0.0064632203 -0.055333417 -0.0445374
-0.06000012 -0.05161643 -0.01584416 -0.019795025 0.003996033 -0.037703905 -0.051622976 -0.0012101833
0.02839636 -0.021897327 -0.032172013 -0.023995956 0.024009762 0.022629092 0.0052255616 -0.061020892
-0.0509727 0.020963877 0.032636732 -0.06719332 -0.0560829 0.021090336 -0.031377766 0.006338803
-0.04185936 -0.06153683 -0.05230299 0.014239991 -0.05001224 -0.0007740965 -0.0513233 -0.0486982
-0.022890026 -0.06761728 -0.06167478 -0.04708108 0.01025265 -0.001832887 -0.04835402 -0.005314396
-0.024602907 -0.034352373 -0.065231115 0.027399054 -0.03374594 -0.033977684 -0.02176161 -0.020743974
0.011660551 0.027909376 -0.05271281 -0.05236294 -0.031772923 -0.03310663 0.023845717 -0.04251458
0.04059319 -0.035276506 0.014118744 0.0027722989 -0.060296975 0.03520658 -0.03069399 -0.054239947
0.0012621813 -0.04496335 -0.0088486215 0.01026705 0.025863023 -0.024333712 -0.023438185 -0.040639296

fc2.weight f4 [20, 256]
00000000: 7e0f 9fbc edf7 4ebd cbc6 bdbb 031b 283d
00000010: a326 74bc 96a7 993b 4362 5f3c 1d4c 41bc
00000020: 3730 603c 0487 d7bc 9a63 04bb 2473 373d
00000030: 1639 35bd 9217 4cbc bcf0 463d e94f edbb
00000040: a984 8d3c cb7c a5bb 82a9 293d 8916 a03c
00000050: fa84 20bd 9580 9bbc 94f0 2b3d 56cd 0dbd
00000060: 9361 90bc c899 9c3c d736 b638 6dc2 ef3b
00000070: ba4b 4cbd 56d4 a83c aff5 cc3c 32fb c43c
00000080: 413a 0f3b b977 e93c 054f efbb 4db7 d1b9
00000090: 972f e3bb dfe1 2cbd 64f1 65bb 4132 153c
000000a0: f973 a8bc f96e d2bc e517 17bd b2f0 7bbc
000000b0: 0c7d 58bc f39c 41bd 8cfc 6c3d 7e23 b6bc
000000c0: a071 f73c db4d 62bc 9023 9cbc 166f 9dbc
000000d0: 7fc8 91bc b5b8 f839 9be3 d33c 6ba6 f23c
000000e0: cabb c1bc fe74 b23c ab60 813d 78ea 13bd
000000f0: 13be 1d3b 2a0f bc3a d7d3 91bb cd46 59bd
00000100: 4b45 b3bc ef73 23bd 6a96 30bd 8491 ec3c
00000110: 7f90 c93a df81 bc3b 88cc 3b3d 68a2 16bd
00000120: 88f9 8ebc 72ea 31bc 9fb8 f2bc 1985 0b3c
00000130: 8393 933c 729b 6d3c a9b7 5b3c 782f 413b
00000140: ceb3 223d 7901 3a3c 0b3b 0c3c 5231 473c
00000150: b186 673c 932b 033d 6871 6f3b f0fb 933b
00000160: be49 9bbc 0742 c93a 7f6c 3c3c 0132 263d
00000170: d52b c3bc 3999 25bc 3045 563d ff27 e43c
00000180: 5d06 5d3d 26fe 493c d4d1 023c ae9f 113c
00000190: e55e cdbc 03b3 2ebd f141 573d 68f7 2fbb
000001a0: 6f3c 1ebc 4bb7 033c 17bb ed3b 339e 55bd
000001b0: ef4d 89bc 86b0 58bd 9e11 55bd 3f3d 2dbd
000001c0: c06c 0a3d deff 64bc 2b16 dcbc fbd4 b5bc
000001d0: 609f a73b 73e9 16bd e3e8 ccbc e51f 4039
000001e0: 2b6b ebbc 1fc2 243d f1cb 3bbb dceb 1b3d
000001f0: 4289 3fbb e152 853b 0d68 383d 2662 43bb
00000200: 0b73 a73c e14f e6bb 5ad0 443b 4229 f5ba
00000210: 4b50 07bd 10fc 0b3c 644a 1e3d 9c65 43bc
00000220: b80d 213b 060c 8cba 2b93 593b b492 bdbb
00000230: dd59 09bc 61c8 973c fe31 b8bc 786f 493a
00000240: 495b 57bc 03a3 4cbc 3da6 60bb 195e ae3c
00000250: 45ca 8c3a ae7d 563b e44b 8fbc d671 dfbb
00000260: ec21 70bb 75b3 1139 eb1a cb3b 235e 08bd
00000270: f51c c1bc ee44 463d 6e36 bc3c 90b8 8c3c
00000280: 76f1 6dbc 5e5d 47bc 12ba 113c e73b f43a
00000290: 5eff 893b 817f aabc 3784 cfbc 5a06 3bbd
000002a0: fb38 a3bc 7a50 fb3c edf4 59ba e8a1 17bd
000002b0: ad55 85bc c3c0 41bb dba7 7abb 833b a2bc
000002c0: 2ed2 67bc 1d1a a9bc 4d2c 58bc 4688 073d
000002d0: 53aa 233a bc23 26ba ca20 72bb af07 4ebd
000002e0: 6b50 423c 21be 2e3a 6153 353d 173e 423c
000002f0: 19d1 13bd 94a7 c43c 2257 b43c b7c6 fa3c
00000300: 36ac 90bc 8d4a c73b a72a 3139 d6c0 0fbc
00000310: 1601 2b3c f29a a43c 99c1 54bb b2a2 013d
00000320: b91f 6cbc 3c03 2b3d 4b5c c03c 98ed 493d
00000330: 33cf 12bd f664 a3bc bb33 4a3c ce00 d6bb
00000340: ff50 32bc 29e3 493d 2d6c 22bd 696f 4fbb
00000350: a245 b63c 816d 96bc 1cde d83b 668e dcbc
00000360: d409 3bbd 141b 003d bec4 26bc 6c57 b3bb
00000370: df44 673b 01fe e53c 7a39 ab3c 65d3 ee3c
00000380: 330c 533d fc01 003c 88f2 2cbc fbb8 13bd
00000390: 992b b6bc d783 86ba 1022 10bd 977f 033c
000003a0: 337c d8bc b72b eebc a861 2c3d f230 3b3c
000003b0: a43f c83c 89c7 493c b197 223b 7ee8 f93c
000003c0: 215f 14bc 307e c0bb 927e 3f3d 952a 4d3c
000003d0: 2fb9 5bbd 9396 d83c 000e 1cbd a98c 02bc
000003e0: ab7d 1abd 2661 853c 2b33 18bd 5adc b83c
000003f0: 3a2a bb3c d4ba 03bd 6893 b93c 6105 64bc
-0.019416567 -0.05052941 -0.0057915202 0.041041385 -0.01490179 0.0046891673 0.013634267 -0.011797932
0.01368337 -0.026309498 -0.0020200969 0.04478754 -0.044243895 -0.0124567915 0.048569426 -0.007242192
0.017275171 -0.005050277 0.04142142 0.019541996 -0.039189316 -0.018982211 0.04197748 -0.03461965
-0.017624652 0.019116297 8.688651e-05 0.0073168785 -0.049876906 0.020609062 0.025019495 0.02404556
0.002185479 0.028499471 -0.007303121 -0.00040000156 -0.0069331634 -0.042207595 -0.0035086507 0.00910622
-0.020563113 -0.025687682 -0.036888022 -0.01537721 -0.013213407 -0.04726882 0.057858035 -0.02223372
0.030205548 -0.0138125075 -0.019059926 -0.019218009 -0.0177958 0.00047439864 0.025865367 0.02962037
-0.023649115 0.021784302 0.06317266 -0.03611228 0.0024069592 0.0014347781 -0.004450302 -0.053046037
-0.021883627 -0.039905485 -0.043112196 0.028877981 0.0015378146 0.0057527865 0.045849353 -0.036775976
-0.01745297 -0.010859119 -0.02962905 0.00851562 0.018014675 0.014502393 0.013410487 0.0029477756
0.039722256 0.01135289 0.008558999 0.012157755 0.014131234 0.032023977 0.0036536101 0.0045161173
-0.018956061 0.0015354761 0.011500477 0.04057503 -0.023824612 -0.010107332 0.052312076 0.027851103
0.053961147 0.01232866 0.007984597 0.008888168 -0.025069663 -0.042651188 0.05255312 -0.0026850346
-0.009657963 0.008039306 0.007254969 -0.052152824 -0.016760794 -0.05290272 -0.052018754 -0.042294737
0.03379512 -0.013977019 -0.02686604 -0.022196284 0.0051154345 -0.03684373 -0.025013393 0.00018322429
-0.028737625 0.04022419 -0.0028655494 0.03806673 -0.00292261 0.004068718 0.045021106 -0.002981314
0.020440599 -0.0070285653 0.0030031414 -0.0018704312 -0.033035558 0.008543983 0.038645163 -0.011926081
0.0024574827 -0.0010684736 0.0033199291 -0.0057853106 -0.0083832415 0.018528165 -0.022484776 0.00076841516
-0.013144323 -0.012490037 -0.0034278773 0.021285104 0.0010741433 0.003272872 -0.017492242 -0.00681899
-0.0036641313 0.0001389513 0.006198277 -0.0332929 -0.023573378 0.04840558 0.022975173 0.01717785
-0.014522901 -0.012168257 0.00889446 0.0018633575 0.0042113503 -0.020812752 -0.0253316 -0.045660354
-0.019924631 0.030678023 -0.000831439 -0.03701964 -0.016276205 -0.0029564358 -0.0038247022 -0.019803768
-0.014149232 -0.020642335 -0.013194156 0.033088945 0.0006243337 -0.00063377223 -0.0036945813 -0.050300296
0.011859993 0.00066659047 0.04426897 0.011855624 -0.036088083 0.024005689 0.022014204 0.030612333
-0.017660242 0.006081885 0.00016895925 -0.008774003 0.010437271 0.020093415 -0.0032464026 0.0316493
-0.01441186 0.04175113 0.023481509 0.049298853 -0.03584213 -0.019945603 0.012341435 -0.0065308576
-0.010883569 0.049288902 -0.039653946 -0.00316521 0.02225 -0.018362762 0.0066182744 -0.02692337
-0.04566367 0.031275824 -0.010178743 -0.005473068 0.0035288853 0.02807522 0.02090143 0.029153535
0.051525306 0.007812973 -0.010555871 -0.036065083 -0.022237586 -0.001026268 -0.035188735 0.008026025
-0.02642641 -0.02907358 0.04208532 0.011425244 0.024444409 0.012315639 0.0024809653 0.030506369
-0.009055884 -0.0058744177 0.046751566 0.012522359 -0.0536434 0.026438987 -0.03809929 -0.007968106
-0.037717503 0.016281676 -0.037158173 0.02256601 0.022847284 -0.032160595 0.022653297 -0.013917298

fc2.bias f4 [20]
00000000: 67b7 c239 dc2a 8c3c 9966 4cbc f2ba 913b
00000010: c22d 0e3b 6a1f 373c 454f 06bb 0b00 143c
00000020: 6ec1 363c 0812 9dbc 9039 b6bc d9a0 1dbc
00000030: 9a0d f03c d905 6cbb e26e 90bc b5f4 dfbb
00000040: 8c25 243c 7d6a a1ba b517 903c a2a6 d2bc
0.0003713921 0.01711028 -0.012475633 0.0044473344 0.0021694754 0.011176923 -0.0020494026 0.009033213
0.011154516 -0.019173637 -0.022244245 -0.009620869 0.02930336 -0.0036014228 -0.017630998 -0.0068345913
0.0100187175 -0.0012315061 0.01758943 -0.025714222

fc3.weight f4 [20, 256]
00000000: ebd1 44bd 79de dd3c 0356 13bc 764d 2ebd
00000010: cf23 cfbb d636 1d3c 411a 58bc 5d86 84bc
00000020: 5d7f 92bc 32a3 f53c 1dc6 b5bc cc74 803c
00000030: c931 24bc 6769 04bd 5514 253d 1994 063d
00000040: 2ff9 19bd 9c9d 963b e3a5 4d3d dea3 943c
00000050: 9fcc bebc c5b5 013d 2d0c a83c f121 1cbb
00000060: 1c3a 0a3c 8f79 22bd 4bc4 143d b2c3 6d3b
00000070: a733 05bd f2b2 c1bc 0b67 f43b ba42 78bc
00000080: 37ca f83b 877b cd39 9f5d bc3c d779 f1bb
00000090: 089e 503d ebfe dbbc 86f6 d7bc 51c4 e43c
000000a0: 16c9 213c 7d30 b5bc c7dd 7dbb 0031 e43b
000000b0: 9bab ddbc e100 b2bc 33ba 343d 7d17 523c
000000c0: d61c bd3c 9102 c0bb 736e 03bc eab2 8fbc
000000d0: 79c5 cbbc 2ece 84bc a397 12bd 7696 77bd
000000e0: 8180 eebc fa34 dfbc 7e52 1a3d 8820 98bc
000000f0: b68d ffbc 14fd 1b3d 5e0a 44bd e7dc 3d3c
00000100: eaab 0b3d defd af3c 2536 05bd e378 fe3b
00000110: 5dae a93c 003e ab3b 1e9e afba c86e ee3c
00000120: a483 f93a 8322 8ebb 9eb8 0b3d 35dd 06bd
00000130: ca6a 3dbd 99ab 18bd d8c6 283c 76fa f1bc
00000140: 08f3 2b3d 58bc 143d 0641 31bc 4789 413d
00000150: b76b 883b 176c 033d e539 babb 9211 653b
00000160: ed5d ca3a 0654 a23b 2f34 023c 078e cc3c
00000170: 5e2a f3bc 6b03 e73b 0155 94bc 3d64 36bc
00000180: a93c 033d e50e 443b 1fe0 9cbb 13e6 99bb
00000190: 86da 79bc 2bbf 27bc f62a 7abb e70f 533c
000001a0: 8b11 74bb a636 813c dec3 46bc ad7c 1bbd
000001b0: e95d 223d e89f f0bc db51 2ebd b701 33bc
000001c0: 7e1b d4bb d53c dabc ed38 efbc 056d c2bc
000001d0: e02a dbba fa50 133d 81a5 2cbb 960d 65bb
000001e0: e60a 32ba 0cfc b53c dfed 683c b1c6 b33c
000001f0: 2402 b33a c748 27bb ae60 fb3c 923e 5e3c
00000200: 8e1d 13bc 728e 3ebd dd68 efbc 3551 6f3d
00000210: c7d5 343c 6506 153a 126b 823c 7b9e 54bb
00000220: f07c 44bc 0b15 c63b 77db 743c 66db 88bc
00000230: b8c5 02bd 313f 33bd 92ff 0abd fab4 aabc
00000240: c061 8bbc e518 7fbd 70a2 bb3b fc69 afbb
00000250: b2a9 56bb 2431 29bb 6071 e73c 71fc 4d3d
00000260: d569 0bbd 141a c53c ff8b ddbc 8abb 2dbb
00000270: b1dc a4bb 340c 9a3c 1fa9 94bb 8d9b 023c
00000280: 7415 03bd a825 cd3b ade8 833c cb1c 2ab8
00000290: d387 9e3c 2f47 aa3c d5a9 b4bc 831c dbbc
000002a0: 50de 42bc 20c0 eb3c 1f33 1cbd 3747 db3a
000002b0: e0be bb3b 52ee 47bb fc53 4e3c 2103 3e3d
000002c0: 7546 723c 092d 9bbc 913c e1bc 54cd c3bc
000002d0: b0d3 04bd 9554 43bd 0189 42bd bf8a cdbc
000002e0: d4d3 3c3d 66e8 083b c854 1b3d ddfd a7bc
000002f0: e91a 933c b61d 8b3c cf7c fdbc a5e3 d8bc
00000300: 12e5 0cbd 1c1e 283c fe24 643b ea31 103c
00000310: 1bca ab3b 6a9f 0d3c ab95 e3bb 3bfa 39bd
00000320: bad3 813c 80f0 643c 3954 df3c 064f 16bd
00000330: ae90 343d 6b6d 243d 636a 863c 2057 01bd
00000340: 4882 49bc 7940 4c3c 73d3 26bd a6c0 143c
00000350: 06e7 8bbc 2983 25bc 05e3 013d a7f9 0c3d
00000360: c27b 0bbd bbcf 99bc 0f38 123d a90e 893c
00000370: 1f76 82bc e84e 183d d25f cbbb 3385 64bb
00000380: b445 993c 576f 21bd 9401 e13b 1307 753b
00000390: d2f1 e03c 0f8e 863c a6fe 00bc eab2 8abb
000003a0: 86a4 303d e9dd f43b bece 23bd 0afc c9bc
000003b0: bea7 223c 3191 34bb 1ed0 13bd eaea ef3c
000003c0: 5657 34bc 04a0 043d 0d6b 00bd 1220 873c
000003d0: 0ca9 f13c e836 8c3c 362e a2bc 9dea 4cbb
000003e0: c212 c1bc 44ae e8bb 9c72 373c 14dd 8d3c
000003f0: 4e24 2b3d a647 41bc 7d49 10bd 25f5 77bc
-0.048051756 0.027083622 -0.008992675 -0.04255434 -0.0063214074 0.009595593 -0.013189853 -0.01617735
-0.017882997 0.029985044 -0.022189194 0.015680693 -0.010021635 -0.032327082 0.040302593 0.03285608
-0.037591156 0.004596425 0.05020703 0.018144544 -0.02329093 0.03166749 0.020513618 -0.0023823942
0.008436706 -0.03966671 0.036320012 0.0036279974 -0.032519963 -0.023644898 0.0074585727 -0.015152628
0.0075924653 0.00039192682 0.02299386 -0.007369261 0.05093196 -0.026854953 -0.026362669 0.027925642
0.009874603 -0.022117848 -0.0038736926 0.006963849 -0.027059367 -0.021728935 0.044122886 0.012822983
0.02308504 -0.005859681 -0.008021939 -0.017541368 -0.024874436 -0.016211595 -0.035789143 -0.060446225
-0.02911401 -0.02724694 0.037676327 -0.0185702 -0.031195503 0.03808315 -0.04786145 0.011588312
0.034099497 0.021483358 -0.03252234 0.0077658757 0.020713026 0.005225897 -0.0013398563 0.029105559
0.0019036424 -0.00433761 0.03411161 -0.032925803 -0.04624442 -0.037273023 0.010301314 -0.029538374
0.04197982 0.03631243 -0.010818725 0.04725006 0.0041632312 0.032085504 -0.005683171 0.00349531
0.0015439369 0.004953864 0.007947012 0.024970068 -0.029683288 0.007049968 -0.01810694 -0.011132297
0.032040272 0.0029916104 -0.0047874595 -0.0046966164 -0.015249854 -0.010238449 -0.003817258 0.012882209
-0.0037241902 0.015773129 -0.012131659 -0.037960697 0.03964034 -0.029373124 -0.042558532 -0.010925702
-0.006473004 -0.026640335 -0.029201949 -0.023733625 -0.0016721152 0.035965897 -0.0026343765 -0.0034950725
-0.0006791785 0.022214912 0.014216869 0.02194533 0.0013657254 -0.0025525556 0.030685749 0.013564723
-0.008979214 -0.046522565 -0.029224807 0.058427054 0.011037297 0.0005684852 0.015920196 -0.0032443095
-0.011992678 0.006044989 0.014944903 -0.01670618 -0.03192684 -0.043761436 -0.033935137 -0.02083825
-0.017014384 -0.0622796 0.005726151 -0.0053532105 -0.0032754955 -0.0025816644 0.028252304 0.050289575
-0.034036476 0.024060287 -0.027044294 -0.0026509487 -0.0050311913 0.018804647 -0.0045367624 0.0079716565
-0.03200288 0.0062605925 0.01610216 -4.0557974e-05 0.019351875 0.020785896 -0.022053638 -0.026746994
-0.011893824 0.028778136 -0.03813469 0.0016729598 0.005729541 -0.003050704 0.012593266 0.046389703
0.014787306 -0.018942373 -0.0274947 -0.023901619 -0.032428443 -0.047688086 -0.04749394 -0.025090573
0.046100453 0.0020890473 0.03792265 -0.020506794 0.017957168 0.01698194 -0.030943302 -0.026475737
-0.034398146 0.010261085 0.0034812088 0.008800963 0.0052425987 0.008643964 -0.006945332 -0.045404654
0.01584803 0.013973355 0.02726184 -0.036696456 0.04408329 0.04014341 0.016408151 -0.03157723
-0.012299128 0.012466543 -0.040728997 0.009079134 -0.017077934 -0.010102072 0.031710643 0.034417775
-0.03405357 -0.018775811 0.035697993 0.016730623 -0.015925465 0.037184626 -0.006206491 -0.0034869432
0.018709995 -0.039412823 0.006866643 0.003738825 0.027459059 0.01642516 -0.007873213 -0.004232754
0.04312565 0.007472743 -0.039992087 -0.024656314 0.009927688 -0.002755236 -0.036087148 0.02928682
-0.011007151 0.032379165 -0.03135209 0.016494785 0.029499553 0.017116025 -0.019797426 -0.003126777
-0.023568515 -0.007100852 0.011196759 0.017317332 0.04178267 -0.0117968675 -0.035226334 -0.015134131

fc3.bias f4 [20]
00000000: efad 04bc ed0c 76bc b24e 45b7 7679 c2bb
00000010: 480d 95bb 48e2 e93c 715c 813c 32dd 63bc
00000020: 2569 7b3c 75ce 1bbc 34fc 27bc 1331 f1bb
00000030: d685 7fbc 3b50 273c 95c4 1fbc d351 9ebb
00000040: 365c ad3c 9ad3 633b 0696 71bc 5937 573c
-0.00809811 -0.01501773 -1.1760438e-05 -0.0059348894 -0.0045487024 0.028550282 0.01579115 -0.013907718
0.015344893 -0.009509672 -0.010253001 -0.0073605864 -0.015595874 0.0102119995 -0.009751459 -0.0048315316
0.021162134 0.0034763576 -0.014745241 0.0131357545

fc4.weight f4 [256, 20]
00000000: a6cc b43c 82c4 343c 2342 1d3d 8bdb f6bc
00000010: ca02 dfbc c005 083d 2d3d 47bc 8203 273c
00000020: e0f5 3c3b da27 1d3c 641a a23c e8ad 253d
00000030: c51e 203d 73aa 85bc 3d92 8cbc fe95 edbc
00000040: 9eba 9eba 3afb bf3b 5fc9 693b 2dfc 84b9
00000050: dedb 863c c09c b7bb 5a62 143a 92aa 453c
00000060: d936 5d3c d24f d1bb faae 03bc f0dd d13c
00000070: 128a 29bb 7536 18ba f1c2 61bb 428e 843b
00000080: 0c32 3dbc 80fe 1a3b 673f 6a3c 0300 893c
00000090: d3f8 873c 63d9 e9bb 9997 053c 2ffb c4bb
000000a0: b131 7fbc 6514 d63c 2ef2 5b3c 9ad4 0a3d
000000b0: ca2b cf3c 79aa d9bc c9ce 423c d126 d6bc
000000c0: f7b4 1e3d d73d e23c 3523 afbc 2c88 253d
000000d0: 9e08 b8bc d3d0 bcbb 5e84 0ebc 6d06 003d
000000e0: 2d6b 4e3c 93c0 883c e0d7 c8bc 077a 9ebc
000000f0: c588 9abc 4d07 99bb 0a94 4e3b 0edb c13c
00000100: dcb5 253c f197 80bc d24d 103c faf0 02bd
00000110: cfeb 003b 36f2 2139 df0b 303d 0d96 973c
00000120: 9e4b d03c b993 023d 1ab3 af3c a269 6a3c
00000130: 1b09 4a3c 6f19 9e3c fd08 72bc a609 8ebc
00000140: bd87 7d3c 6c1d 87bb cd4b 9dbb 9076 423d
00000150: 929b 3abd 8209 083d 43e2 82bd 7b5f 2f3a
00000160: 65f1 2b3d 1d16 363d 2681 13bd 2c54 b7bc
00000170: b51b 21bd 388e bdbb dd39 a5bb 8871 e4bb
00000180: dafb 0f3d eb7f 93bb b2f2 02bd d849 34bd
00000190: 5235 08bc 26c3 99bc d6e1 f63a 611c 37bc
000001a0: fea1 f3bb 88f6 d1bc 8369 36bb 94d1 8bbc
000001b0: 7789 123c b0c6 2cbc f580 f8b9 fe80 68bb
000001c0: 497a 44bb 29e5 cc3b 45c7 94bb 3f54 da3c
000001d0: 7ce7 91ba dc74 cc3c 6180 dc3b 9ef8 1e3c
000001e0: 10ec c33b 953a 4dbd ae1f 1e3c d220 b9bc
000001f0: ea4d a43c 442d a53c 13ed cd3b b730 8abc
00000200: 447b 40bc e97f 8c3c 75cb 533c 215c 983b
00000210: 13e7 36bb 2bfd 633d 9569 d1bc 5eb5 33bd
00000220: a674 d6bc 0075 6e3c 308b ab3c ab15 2b3d
00000230: 1adf 89bc 2480 0cbd 0316 6abc 7710 15bc
00000240: 0350 133d ce6f 0bbd 1407 7dbc 5431 083b
00000250: 4d4e 9bbc edd8 0bbd bae9 0bbc 0b9f 113d
00000260: dc87 28bd 89b0 aeba a931 0a3d 62f9 2bbc
00000270: c494 233c 83de e53b 9d0a a73c 6c8e 43bc
00000280: d10b bb3c 746c b1bc 46a9 05bd e6ec 923a
00000290: ae2d 39bb 427d 123d a46b ed3b d467 b03c
000002a0: 6ffe 153b 87f6 423d 29a5 7cbc 8370 28bc
000002b0: 3c20 10bd d2dd b8bb 1801 bcbc 8157 0f3c
000002c0: 00d9 43bd d8c7 283d f0ac 463c ba17 38bc
000002d0: 3aef 3cbc 4a51 3c3d 4686 c4bc 4dd1 e93c
000002e0: 8659 cbbc 0e73 5d3c ee7d 143d 89f8 9abb
000002f0: 15c8 b13c f62b 9c3c 8ef5 f8b9 fe0d 2fbc
00000300: 6a01 93bc 40eb 78bc 02ed 9cbc 0501 d13b
00000310: bea8 7a3c 0b2d 23bd 96ac 53bc 2b63 f3bc
00000320: 268c d43c 8deb 82bc 1937 143b 676c 0ebb
00000330: 9942 513b 14e8 9d3c ac6f bf3b 9af5 713c
00000340: c8c9 a83c 2ef9 813c f967 58ba a4c2 123c
00000350: 2ed2 463c 41ab 4d3c 9d21 0cbc 51e2 6bbc
00000360: d6d3 b8bc 0ba4 283c 1d60 92b9 3d7f a6bb
00000370: 45ed a3bd 4967 26bd dac4 563c a659 17bb
00000380: 0420 433d 4a17 2dbd 847d 943d 948a e5bc
00000390: 8163 4fbd dac2 78bc 0db1 54bc ea6e 1dbc
000003a0: 4d83 a33d 2b72 4abd 42d8 86bd 1918 673d
000003b0: 2e92 753d ebe1 42bd 0eaa e5bc 6277 a43a
000003c0: 5207 393c 6ac7 093c b9e9 943b 319d cabb
000003d0: fd9c c73b 3fd1 163c 3b47 a03c c03a 883c
000003e0: cecd 72ba 1bcc 0ebc f7c0 6a3a 6c6b bf3b
000003f0: 0008 a03b 99d9 31bb c75d 80bc 7542 92bb
0.02207024 0.011033179 0.03839315 -0.030133983 -0.02722301 0.03320861 -0.012160582 0.010193707
0.0028833076 0.009592021 0.019787975 0.040449053 0.039091844 -0.016316628 -0.017159576 -0.029002186
-0.001211006 0.005858806 0.0035673005 -0.00025364888 0.016462263 -0.005603403 0.00056604075 0.012064593
0.013501846 -0.006387689 -0.008037323 0.025618523 -0.002586965 -0.00058064546 -0.003444847 0.0040452788
-0.011547577 0.002365023 0.014297343 0.016723638 0.01659814 -0.00713651 0.0081538195 -0.0060113887
-0.015575812 0.026132772 0.013424439 0.03389416 0.025289435 -0.026570546 0.011890122 -0.026141556
0.0387468 0.027617378 -0.021379093 0.040413067 -0.022465046 -0.0057621985 -0.008698551 0.031256128
0.012598795 0.016693389 -0.024517 -0.019345297 -0.018864045 -0.00467006 0.0031521344 0.023664024
0.010114159 -0.015697451 0.008807616 -0.031968094 0.0019671803 0.00015444387 0.04298007 0.018504167
0.025426682 0.03187916 0.021447707 0.014307411 0.0123312725 0.019299237 -0.014772651 -0.017338585
0.015474257 -0.0041233804 -0.004800296 0.04747635 -0.04555852 0.033212192 -0.06390812 0.0006689948
0.04197826 0.044454683 -0.036011837 -0.022379003 -0.039333064 -0.005784776 -0.005042298 -0.006971542
0.035152294 -0.004501333 -0.031969734 -0.044015735 -0.008313494 -0.018769812 0.0018835615 -0.0111762
-0.0074350825 -0.02563025 -0.0027833886 -0.017067708 0.008943907 -0.010545418 -0.00047398327 -0.0035477276
-0.0029980114 0.006252904 -0.0045403563 0.0266515 -0.001113161 0.024958067 0.006729171 0.00970283
0.0059790686 -0.050104696 0.009651108 -0.022598658 0.020056684 0.020163186 0.006284365 -0.016868932
-0.011748139 0.017150836 0.012926926 0.0046496545 -0.0027908727 0.05566136 -0.02556304 -0.043874137
-0.02617867 0.014554262 0.020940393 0.04176871 -0.016830016 -0.034301892 -0.014287475 -0.009098164
0.035964977 -0.034042172 -0.015443582 0.0020781355 -0.018958235 -0.034142423 -0.0085396115 0.035552066
-0.04114519 -0.0013327758 0.033738766 -0.010496469 0.009984199 0.007015051 0.020390803 -0.0119358115
0.022832783 -0.02165816 -0.032632135 0.0011209517 -0.0028255987 0.035763986 0.007245498 0.021533884
0.002288725 0.047598388 -0.015420237 -0.010280731 -0.03518699 -0.0056416774 -0.02294974 0.00874889
-0.04781437 0.04120621 0.012126192 -0.011236126 -0.011531645 0.04597596 -0.023989808 0.028542185
-0.024822962 0.013516201 0.03625291 -0.0047293347 0.021701852 0.019063931 -0.000474852 -0.010684488
-0.01794501 -0.015192807 -0.019155983 0.0063782954 0.01529902 -0.03983788 -0.012919566 -0.029710373
0.025945734 -0.01598146 0.0022615849 -0.0021732093 0.0031930564 0.019275703 0.0058421697 0.014768029
0.02060403 0.015865888 -0.0008255239 0.008957539 0.012135072 0.012553037 -0.008552936 -0.01439722
-0.022561949 0.010293017 -0.000279189 -0.005081086 -0.0800424 -0.040625844 0.0131084565 -0.0023094206
0.047637954 -0.04225854 0.07250503 -0.02802018 -0.050632004 -0.015183175 -0.012981665 -0.0096089635
0.07984028 -0.049425285 -0.06584217 0.056419466 0.05995386 -0.047578733 -0.02803519 0.0012547786
0.011293249 0.00840936 0.0045444635 -0.0061832895 0.0060917125 0.009205162 0.019565215 0.016629577
-0.00092622347 -0.008715655 0.00089551456 0.005841663 0.004883766 -0.0027137755 -0.015669717 -0.0044634887

fc4.bias f4 [256]
00000000: 064d c03d 672a e0bc fe2e da3d b66e 15be
00000010: 5651 66be be1e 7a3d 99c3 3e3e 6098 da3d
00000020: a116 6dbe 6d92 e63d 928d c0bc c6a3 3d3e
00000030: 7aae d43c 5ac1 2abc e7d9 053e 8f9b a7bd
00000040: 418a 973d 774b d2bd 6fbc 413e f5a2 773d
00000050: 0c77 623d 7a05 0a3d 9c2d 0f3e 1862 3cbe
00000060: acb8 a4bc ab97 8a3c 73ca cfbd 6a03 f63d
00000070: 3756 94bd 3972 84bd e826 c7bd 919f bd3d
00000080: 3368 453e 9d79 17be d1cd 3ebe 5212 c1b9
00000090: a82e e93c b0d8 1a3e 5a5d bd3d 56fd 2f3d
000000a0: 1a94 7b3d b5d6 23be 333d b4bd 6dcc 513e
000000b0: b397 8cbd 1c33 c23c fb66 4a3e 639a 93bd
000000c0: f3dc 96bc 2387 24be a539 2dbe 6633 f63d
000000d0: 401f c5bd 2400 5c3e cc95 c0bd 79f4 4cbe
000000e0: 717e 2f3d f295 293e dfe6 413c 44e8 e3bc
000000f0: 2fec 233d cc45 793d c21d 2bbe a890 bf3d
00000100: c0f9 23be f583 22be 5ce7 30be 1c06 9f3d
00000110: 90c1 0b3e 97ad 8f3d e406 7a3d f9cc 0d3e
00000120: 23c1 1bbe 55b4 35be 31c5 b1bc de77 11be
00000130: f405 1d3e 24e1 c9bd d30d 3a3e c96a d13d
00000140: 46c2 b5bd 370e c9bd bb66 44be 1e72 f7b9
00000150: 1523 33be de53 1f3e 80a8 d33c 866b 2fbe
00000160: 93b9 1dbe e1ea 5dbd f668 4b3e c068 0dbe
00000170: 99cb 40be 3f64 d53d 952c adbd 1084 12be
00000180: 5fd1 02bd 0af0 1ebd 8363 283e 8776 bfbc
00000190: 4a57 01be d59c 533c 8e69 de3d 51ba 483e
000001a0: 66a6 05be 5694 45be 8c26 923d 66b9 24bd
000001b0: 453b 6dbd 3f0d cdbd 5f79 05bd 0def 66bd
000001c0: 6be0 89bc ee71 bebd 5426 33be 9bbb 8e3c
000001d0: 6ecd dfbd 3393 27be 1977 f6bc 3c7a 2bbe
000001e0: b117 dd3d 0703 1dbe 869f ea3d c84e 3c3d
000001f0: 2efb 4e3e b324 eebd 0086 47bd ff8e 0c3e
00000200: 19ca ef3a ccb9 cc3d 2a59 8e3d 5379 bebb
00000210: 3cef 9c3d 543f 1dbd 13c2 22be ec59 3dbe
00000220: a0a4 353e 8770 14be 5bdb 023e ed27 1bbe
00000230: ba26 823d 917a 8bbc 476e 1d3d d7b0 2f3e
00000240: a039 b43d 70b2 4cbe 6c6b 1ebe 1f5c fdbc
00000250: 25b0 1c3e 2d97 2c3c 3261 99bd e8ee 99bc
00000260: b634 91bd 0b72 6fbd 024a 20be 6f06 bb3d
00000270: 490d 953c 3097 7a3d 9ab7 2ebd 1b7a 153e
00000280: 64d7 2b3e 9bfd 243e a14a ecbd 22ad 20be
00000290: 49e8 253e 8d5d 073e 1789 5b3d ea88 abbc
000002a0: 9781 3ebd 21b9 953c bb45 a43d aabe f83d
000002b0: 26c3 2ebe 62de 0e3e a8e9 443d 4c31 36bd
000002c0: 8890 09be 7aac d53d d620 d93d 5607 083e
000002d0: b1c9 07bc 9d4b fb3d ecd9 b7bd 40d3 43be
000002e0: 3870 22be 0f05 20be b33e 753e b5eb 60be
000002f0: e29e 5ebe 528d bdbc 8755 16be 8a0d 583e
00000300: 29b3 39be fe97 c53d c4b5 c1bd e1d7 2dba
00000310: b3df 81bb 9c56 59bd ee4b 3dbd 3845 0e3d
00000320: aaa8 223d c157 54be 4f8f f13d 8e86 923d
00000330: 4ffc 6f3d 4f43 323d 1e12 513c 8290 babd
00000340: 0e26 ebbd c431 f93c 15cb 02be b86a 743d
00000350: 8706 473e 77cd edbd 6ee4 91bc a838 07bc
00000360: b4d0 813e 7527 a2bd 0e73 c2bd 6618 aebd
00000370: 0350 54bc d665 22be 380e 1b3e 5b2b a33d
00000380: ebd3 a1bd 7ad7 14be 1558 5ebe d0c5 ebbd
00000390: 0efe 58bc 64f4 7dbd fd48 7cbd 8d6c 6f3b
000003a0: 3a11 e4bd a387 18be a248 d0bd b3b9 01be
000003b0: 140c e1bb 05a6 61bb 212d 973a 0c78 d93d
000003c0: b762 8b3d e40a 173d 6fbd 003e 3535 313e
000003d0: fe7a 20be 6559 57bd 60d7 313e 2dbc 2f3e
000003e0: 9092 ffbd c947 983b 4750 dbbd 6448 fe3c
000003f0: 0415 0ebe 8404 12be cd9a 053e 98a0 cd3d
0.09389691 -0.027363969 0.10653494 -0.14593014 -0.22491965 0.061064474 0.18629302 0.106735945
-0.23153163 0.11258397 -0.023505006 0.18519506 0.025962103 -0.010422075 0.13071404 -0.08183967
0.07399417 -0.102683 0.18919538 0.060458142 0.055289313 0.03369663 0.13982242 -0.18396795
-0.02010759 0.016918024 -0.10146036 0.1201237 -0.07243007 -0.06467099 -0.09724218 0.092589505
0.1927803 -0.14792486 -0.186332 -0.00036825478 0.02846463 0.15121722 0.09246321 0.04296621
0.061420538 -0.15999873 -0.08800735 0.20488138 -0.06864872 0.023706011 0.19765846 -0.07207181
-0.018415904 -0.16067176 -0.16916521 0.12021522 -0.09625101 0.21484429 -0.094035715 -0.20015134
0.042845193 0.16561106 0.011834829 -0.027820714 0.040020164 0.06085758 -0.1671057 0.09353763
-0.16013241 -0.1587065 -0.17275757 0.07764837 0.13648057 0.070155315 0.061041728 0.13847722
-0.15210395 -0.17744572 -0.021700474 -0.14205882 0.15334302 -0.09857395 0.18169336 0.10225446
-0.08874945 -0.098171644 -0.19179814 -0.00047196535 -0.17493851 0.15559337 0.025837183 -0.1713086
-0.15402822 -0.054179076 0.19864258 -0.1380949 -0.18827666 0.10419511 -0.08455769 -0.1430819
-0.031937953 -0.038803138 0.1644421 -0.023371948 -0.12630954 0.01291581 0.10859977 0.19602324
-0.13051757 -0.19294867 0.071362585 -0.040215872 -0.057917852 -0.10012292 -0.03258645 -0.05638032
-0.016830644 -0.09299074 -0.1749509 0.017423442 -0.109278545 -0.16364746 -0.030086087 -0.16745847
0.107955344 -0.15333186 0.11456208 0.04597357 0.20213005 -0.116280936 -0.048711777 0.13726424
0.0018294483 0.099963754 0.069506004 -0.005812803 0.07662818 -0.038390473 -0.15894346 -0.18491334
0.1773858 -0.14496051 0.1277899 -0.15151949 0.06355043 -0.017026218 0.038435247 0.17157303
0.088000536 -0.19989944 -0.15470666 -0.030927716 0.15301569 0.01053409 -0.07489242 -0.018790677
-0.07090132 -0.05845837 -0.15653232 0.091320865 0.018194811 0.06117934 -0.042655565 0.14597361
0.16781384 0.16112368 -0.11537672 -0.15691045 0.16201891 0.1321928 0.053597536 -0.02093931
-0.046510305 0.018276753 0.080211125 0.12145741 -0.1706663 0.1395202 0.048074394 -0.044480607
-0.1343404 0.10433288 0.10601966 0.13284048 -0.008287833 0.122702815 -0.08977112 -0.19123554
-0.1586312 -0.1562693 0.23949699 -0.21964915 -0.21740296 -0.023138676 -0.14681064 0.21098915
-0.1813475 0.09648131 -0.09458497 -0.0006631595 -0.0039634346 -0.053061113 -0.04621499 0.03473398
0.03971163 -0.207366 0.11794912 0.071545705 0.05859023 0.04352122 0.012760667 -0.09109594
-0.11481868 0.030419238 -0.12772782 0.059672087 0.19436084 -0.11611455 -0.01780912 -0.008253254
0.2535454 -0.07917682 -0.09494601 -0.085007474 -0.012958529 -0.1585916 0.15142143 0.07967254
-0.07901748 -0.14535323 -0.21713288 -0.11512339 -0.013244165 -0.062000647 -0.061593045 0.0036533207
-0.11136098 -0.14895491 -0.101701036 -0.12668495 -0.006867895 -0.003443123 0.0011533835 0.106186
0.06805938 0.03687562 0.12572263 0.17305453 -0.15671918 -0.052575488 0.17367315 0.17161627
-0.124791265 0.0046472293 -0.10708671 0.031040378 -0.13875204 -0.14259535 0.13047333 0.100403965

fc5.weight f4 [384, 256]
00000000: 6198 2d3c 2b40 30bc efdd d93c 40c1 613c
00000010: 3077 8cbb 611f 223c 754a 783c e670 e93a
00000020: b3e8 89bb b9be 01bc 1218 b8bb 8c79 17bb
00000030: 7257 943a fc6f fbba c3ff 8c3c abdf b43b
00000040: 10bd 8ebb f793 f7bc 9f83 4cbb d499 1fbc
00000050: 977c dcbc f958 e23c 0826 3ebc 3b2a 40bb
00000060: 97e9 4cbc 3355 833c 0a41 b1ba 889c 45bd
00000070: 109d df3c f8cf afbc fbf7 5b3d 1cec 7bbb
00000080: 48b2 b9ba fb7d ea3b 5728 803b db9c b8bc
00000090: 8725 883c cded e7bb f640 17bb d3b9 a93c
000000a0: 4023 f83c 820a 64bb a952 cb3c 14df 483c
000000b0: bfc7 63bc 90b1 eb3b 6804 5aba f21f 4cbc
000000c0: 50aa 2e3c 70fe 423b 1b6d 5abb 12a3 c83b
000000d0: bb68 85bc 653b 48bc 6984 0f3c 88cf e33c
000000e0: d1d7 dabc 9459 28bc 873f 7f3d 0a6f ab3c
000000f0: a94a 6ebb 751f 29bc 6d2e fbba 934d abba
00000100: 3b55 cabc 1a00 aabb 7f17 113c f863 9abc
00000110: ef22 10bd 6343 a23c 76ee e13c dd21 2f3c
00000120: 3215 ccbb 5b65 0bbc 5e71 b6bc 6b6c 063b
00000130: 5ada 0fbc 0878 5c3c 6a1f 8bbc b294 b8bc
00000140: 6fb5 833c f9cb 1e3c ba0d 453a 0b8e bebc
00000150: 4cb6 893b afdd 833c 1098 eb3c 6660 a43b
00000160: d2b1 81bb 17fa 33bc f559 b9ba 158f bbbc
00000170: c2ae fc3b 6848 2ebc 87ae fc3a 40c1 e53c
00000180: 5f49 4a3c d984 49bd 0adf 10ba 68cb ddbb
00000190: 1309 0abc 3733 c33b 9fc5 16bc bc80 21bc
000001a0: cfb5 b0bc 1e32 a538 1ca4 653c 8c8b 13bc
000001b0: 9f40 3b3c 6161 dabb 314f 9abc 38c9 003c
000001c0: 62ca 6d3d 3b70 e5bb e688 d2bb 1343 97bb
000001d0: 4e7c 043a ed0b 6f3c c49e 2f3b d497 febc
000001e0: cfdb d8bc 616e c23b 5367 efb9 f2ea c93c
000001f0: 5115 20bc efea 81bb 2d9b a63c 4b84 063c
00000200: 7aa4 efbc d69f 7dbc c9bb b63b 1188 44bb
00000210: 8e43 6a3c 786e 1d3d 28d0 9e3c 5b25 fe3b
00000220: 54a9 a5bc 4542 e13c 08af 9ebc 2321 3ebd
00000230: 12ad be3c 3b7f 1dbd 4e0e 283c 855a 4c3c
00000240: df07 b3bc c21b c03b 668e 70bb ca85 c8bb
00000250: ae92 d1bc 82ea a6bc 83ec 75bc 4691 53bc
00000260: f0d5 1ebc bc22 2fb9 a9fc 5cbc 5c42 e1bb
00000270: 7c06 ae3c 2cf8 bcba bf63 083c 73fd e0bb
00000280: 4400 08ba f653 193d fb72 b33c 5761 82bc
00000290: 7b72 0abb 3b19 2dbb 67d5 dcba 3215 483c
000002a0: 6cd2 593c 0be7 eb3b 0131 68bc d3af 25bc
000002b0: bf43 a6bb e1bf e23b 5a31 eb3b c208 b63b
000002c0: bc20 5fbc 69a1 1dbb c98a 413b 4f1d c7bb
000002d0: 471e bc3c d036 983c 7eda c2bc 6bf4 37ba
000002e0: db48 ad3b 8fdd cebb 96c2 453c 629d 7abc
000002f0: 46c5 d43c 1037 8dbc 6412 60bc c076 d53c
00000300: 8200 85bc c8ad 54bc 30d0 8abb 4f48 50bc
00000310: 813f b53c 6cdb bebc a4d9 c4bc 1e5a 1ebc
00000320: be6c a43a 4d7d 4f3c 13f6 01bb e609 89bb
00000330: 9475 57bc 3e6b 133d 02f2 3d3b e372 a63c
00000340: 69f1 dc3a 7650 3bbc e19f 7b3c 05fc 76bb
00000350: 60f2 23b8 80ca e238 9472 78bb 907d 663c
00000360: 7ee7 9a38 4cc1 543c cb3d 423c 93cb 803d
00000370: be25 89bc c81d 103b 0581 bb3c 46f7 383b
00000380: 93f3 54bc 1df7 933c 5674 213c 28bc c7bc
00000390: a6f7 823c 68b1 7e3c e6bb 01bc cf34 933b
000003a0: 503c c7bc e958 143d 21ee 5cbc 1ea9 a1bc
000003b0: a71f 423c 31f7 c23c 3031 c1bb 41bd 083c
000003c0: 8a9a f6bc caaa 63bb ed6e 2a3c 6aea 0bbc
000003d0: 9af3 663c 13ed 2e3b 8de5 3abb 3bdc ed3b
000003e0: c17f 033c d64e 683b 69fd dbbc 37eb ebbb
000003f0: 2b8a 76bc e3e4 23bd f724 12bb 261f 4c3d
0.010595412 -0.010757486 0.026595084 0.013778985 -0.004286669 0.009895177 0.015154471 0.0017810136
-0.004208648 -0.007919007 -0.005618104 -0.002311322 0.0011317565 -0.0019183154 0.0172118 0.0055198274
-0.004356034 -0.030221922 -0.0031206382 -0.009741265 -0.026914878 0.027630316 -0.011605747 -0.0029322046
-0.012506864 0.016031837 -0.0013523411 -0.048244983 0.027296573 -0.021461472 0.05370329 -0.0038440293
-0.0014167512 0.0071561313 0.003911059 -0.022535732 0.016619457 -0.0070779086 -0.0023079491 0.02071849
0.030290246 -0.0034796302 0.024819689 0.012260217 -0.013902604 0.007192798 -0.00083166966 -0.012458788
0.010660723 0.0029753707 -0.0033329192 0.006122955 -0.016285291 -0.012221192 0.008759596 0.02780892
-0.026714237 -0.010275263 0.062316444 0.020926971 -0.003636042 -0.010322441 -0.0019163616 -0.0013069384
-0.024698844 -0.0051880004 0.0088557 -0.018846497 -0.035189565 0.019807523 0.027579527 0.010689226
-0.0062281126 -0.008508052 -0.022270855 0.00205114 -0.008780086 0.013456352 -0.016982753 -0.022531841
0.016077725 0.009692186 0.0007516999 -0.02326109 0.0042026397 0.016096918 0.028759032 0.0050163744
-0.0039579654 -0.010984919 -0.0014141189 -0.022895375 0.0077112624 -0.01063738 0.0019278087 0.02804625
0.012346595 -0.04919896 -0.00055263995 -0.0067686327 -0.008425015 0.005957033 -0.00920239 -0.009857353
-0.021571068 7.877148e-05 0.0140161775 -0.009005439 0.011428981 -0.0066644405 -0.01883659 0.007860474
0.058054335 -0.0070019043 -0.006425011 -0.00461615 0.0005053923 0.014590246 0.0026797513 -0.031078257
-0.026472 0.0059335683 -0.00045662615 0.024648163 -0.009770707 -0.003964774 0.020337665 0.008210252
-0.029253233 -0.015480002 0.005576585 -0.0029988328 0.014298333 0.03843543 0.019386366 0.007755918
-0.020222344 0.02749742 -0.01937057 -0.04641832 0.023275886 -0.038451415 0.010257317 0.012472753
-0.02185434 0.005862684 -0.003670597 -0.0061194645 -0.025582638 -0.020375494 -0.015010002 -0.012913054
-0.009694561 -0.0001670224 -0.013487973 -0.0068743657 0.021243326 -0.0014417223 0.008324563 -0.006866151
-0.0005188028 0.037433587 0.021905413 -0.015915556 -0.0021125365 -0.0026412744 -0.0016848267 0.012212085
0.013294797 0.0071991733 -0.01417184 -0.010112721 -0.005073994 0.0069198464 0.007177514 0.005555243
-0.013618644 -0.0024052507 0.0029532185 -0.006076492 0.022963656 0.018580824 -0.023785826 -0.0007017317
0.005288226 -0.006313033 0.012070319 -0.015296312 0.025972974 -0.01723817 -0.01367626 0.026057601
-0.016235594 -0.012980886 -0.0042362437 -0.012712552 0.022125008 -0.023297988 -0.02402956 -0.00966504
0.0012544615 0.012664151 -0.001983051 -0.004182088 -0.013150591 0.035990946 0.002898336 0.020318454
0.0016856614 -0.011432758 0.015357942 -0.0037686836 -3.9087958e-05 0.00010814238 -0.003791009 0.014068022
7.386411e-05 0.012985539 0.011855553 0.06288829 -0.01674163 0.0021990407 0.02288867 0.0028223558
-0.012997526 0.018062169 0.009854397 -0.024381712 0.015987229 0.015545227 -0.007918334 0.0044923793
-0.024320751 0.036217604 -0.013484509 -0.019733962 0.011848367 0.02379951 -0.005895756 0.008345903
-0.030102987 -0.003473925 0.010402423 -0.008539775 0.014096165 0.00266916 -0.002851817 0.0072589195
0.008026064 0.003544738 -0.026854234 -0.0071996707 -0.01504759 -0.040013205 -0.0022299865 0.049834393
