customized/model/trained_model/vae/vae_z_30batch_128.pth (torch, 924830 bytes, 10 tensors)

fc1.weight f4 [256, 403]
00000000: 8e1e 92bc 8336 afbc 51f5 ca3c 2f62 123d
00000010: 6c47 05bd 1997 b1bc b1a9 4ebd ec55 1abd
00000020: c080 90bc a2b3 22bd 070f 40bd e695 163d
00000030: a197 243d 874b 46bd 416c 2a3c c5c3 3e3d
00000040: 30f5 083d 74be 5cbb 81c6 e93c 98aa ad3c
00000050: ee3c 453d 6704 303d d474 0f3a 09c2 03bd
00000060: 3471 e7bb 9b2d ebbc 73ab 0d3d 7284 5bbd
00000070: abc0 06bd 14ea 2d3d 5c47 5e3a 4285 c9bc
00000080: ae2b 3ebc 3558 8fbc 898b e9bc aac5 fa3b
00000090: 8d0c a9bb a913 45bc 0fd6 ae3c e789 1e3d
000000a0: f079 dfbc a9db 2e3d 64ba 1a3d 6976 a13c
000000b0: df86 14bd 7edc 143c 8281 6f3c 7edf d83b
000000c0: d960 3abc a5cc 1c3d 42c5 583d f390 13bd
000000d0: 425d c2bc 3d6e 5dbc c248 063d e9d9 0fbc
000000e0: f54e 4d3c 34e8 0d3d 1519 2f3d 66a4 85bc
000000f0: 9dad 343c 3630 be3c 01ae b93c 798a d03b
00000100: 1038 c0bb 5d5a 1f3d 5ca2 163d 508e 713b
00000110: 8151 d83b a1d1 e73c 6692 043d 0569 cbbc
00000120: 0c96 3ebd c9cc 15ba 9bbe ffbb f872 fabc
00000130: e047 1b3d 15cf 0e3d f373 8bbc 86cc 843b
00000140: 8851 5bb9 9681 b2bc 4da2 8dbc eec7 0e3c
00000150: f87b 693c db6a cfbc d83a bfbc b517 be3c
00000160: d67f 33bc 868f 993c 1ed3 f2bb 6655 1dbd
00000170: 60dd 213d 58fd 8d3c 6835 333d e6a2 a93c
00000180: f28d 0abc 3b82 393d 3489 d63c cf22 173d
00000190: 4142 ea3c 8fac 373d 0a3c eebc 55e4 53bd
000001a0: 098e b6bc 6c52 14bd 8907 893c bd55 e93c
000001b0: f3fa 16bd 2971 353d c40c 60bd 0484 13bd
000001c0: e521 8cbc 298d 873c 34e9 28bd fdde 883c
000001d0: aeaf 173d f5ac 1f3b c5e6 a03c 5cfe 8abc
000001e0: 11d2 37bc fdb5 2e3b 4b0a dd3b 1ff2 40bd
000001f0: 19d8 17bd e7e9 b63c f449 a43c b3c3 a73c
00000200: 1698 773c 56a4 2fbd 357d 6abd 784f 253d
00000210: ec0f 6ebd c746 1e3d bc24 603c 82b3 683d
00000220: d0d5 37ba b0a6 163d fe46 21ba 343e 4b3d
00000230: 6cf7 113d 066f a6bc 46f3 8cbb df23 e8bc
00000240: 05c9 05bd 384d 6f3d 8743 323c 7e00 25bd
00000250: a913 f83b 952a 6a3d d76a ce3c e463 1fbc
00000260: 80b7 923c 8f27 ad3c 91e1 503d b953 873c
00000270: d320 de3c 0ab9 ea3b 12c6 143d 8543 2f3c
00000280: 9e1b 77bc 02fe d73b 21f7 84bc c16a b2b9
00000290: 3940 a03c bc7b cd3c 5015 1a3d 969d 943b
000002a0: 8e8c 2cbd 5915 1e3c 742a 4f3d 06fe e03c
000002b0: 126d 733c ba77 083d 19b6 6abc 63b9 be3b
000002c0: 3329 2abd dae2 673d de1b f3bc b222 1dbd
000002d0: ca8c b53c c95e a93c bbfa b7bb 3f65 3e3d
000002e0: 7673 05bd 3b8f 923c 137f fbbc 0c2f f23c
000002f0: ac51 0fbd 8461 f1bc 8639 0d3d 5839 9f3c
00000300: b6f7 403d a8fb 533d 154e 863c fdf7 523c
00000310: 54b3 433d a695 24bd a594 003d 5c3c 143c
00000320: 3bd4 80bc ed17 42bd a69b 6ebc 2ada 513d
00000330: 7914 503c b48b 52bb 35d3 31bd 1d59 61bd
00000340: 80ab 58bd 5738 9f3b 5326 c53c df72 e4bc
00000350: 09f4 cd3c ccb8 ccbb f45b 25bd e32c 803c
00000360: a7f9 643c d220 fdbc 9fb0 02bd ee14 b1bc
00000370: f8db 493d eca2 ae3c 2501 03bc 28d7 f4bc
00000380: cebf c53c 12e8 82bc c006 cc3c 9d1d 49bb
00000390: 3f59 0f3c 0185 bdbc 3800 2a3c 281c ae3c
000003a0: 4502 c4bc e523 98bc f91f 94bc 3fb5 d7bb
000003b0: 9f07 29bd 4618 bb3c 3d30 73bd 069e 40bc
000003c0: 3531 52bd 3ff1 e43c d4af 713d f8e9 d53c
000003d0: ef59 113d fb97 cb3c 615e 96bd 47b2 bb3c
000003e0: 8b80 76bd ff18 cebc 68f7 c23c 61e5 0f3c
000003f0: ce09 17bd affb 3b3c 96e5 ed3c 10c4 a3bc
-0.017836835 -0.021388298 0.02477518 0.035738166 -0.032538816 -0.021678494 -0.0504548 -0.037679598
-0.017639518 -0.039722092 -0.04688933 0.036764048 0.040183667 -0.048411872 0.010401786 0.04657342
0.033436954 -0.0033682855 0.028537037 0.02119951 0.04815381 0.04297295 0.0005472426 -0.03216747
-0.0070630554 -0.02870827 0.034587335 -0.053593107 -0.032898586 0.042459562 0.00084792613 -0.024599675
-0.011607094 -0.017498115 -0.028508918 0.007652958 -0.005158967 -0.012028613 0.021342305 0.038705733
-0.027279824 0.042689953 0.037775412 0.019709783 -0.036261436 0.009085773 0.014618279 0.006618439
-0.011375629 0.0382811 0.052922495 -0.036026906 -0.02372611 -0.013515052 0.03278423 -0.008779981
0.012531032 0.034645274 0.04274853 -0.016313743 0.011027721 0.023216348 0.02266598 0.0063641635
-0.005866058 0.038904537 0.03677593 0.0036858507 0.006601513 0.028298201 0.03236618 -0.02483035
-0.046529815 -0.00057144143 -0.0078047044 -0.0305724 0.037910342 0.034865458 -0.017023062 0.0040527014
-0.0002091584 -0.021790307 -0.017289305 0.008714659 0.014250748 -0.025319507 -0.023343489 0.023204664
-0.010955771 0.018745195 -0.007410421 -0.03841152 0.03951776 0.017332718 0.043752104 0.020707559
-0.008456694 0.045290213 0.02618847 0.03689843 0.028596045 0.0448423 -0.029081363 -0.051731426
-0.022284525 -0.036211416 0.016727226 0.028483266 -0.036860418 0.04429737 -0.054699674 -0.03601457
-0.017106006 0.016546803 -0.041238025 0.016707892 0.037032776 0.0024364565 0.01964129 -0.016966991
-0.011219517 0.0026658766 0.006745612 -0.047105905 -0.03707132 0.02232833 0.020054795 0.020479059
0.015111944 -0.042881332 -0.057248313 0.04035899 -0.058120653 0.038641717 0.013680633 0.056811817
-0.00070127565 0.03678006 -0.0006152241 0.04961987 0.03563635 -0.020316612 -0.0043014614 -0.028337417
-0.03266241 0.05842325 0.010880358 -0.040283673 0.007570703 0.057169516 0.02519743 -0.009728406
0.017909765 0.021137027 0.050996367 0.016519414 0.027115261 0.0071631717 0.036321707 0.01069725
-0.015082268 0.0065915594 -0.016231121 -0.00034030344 0.019561874 0.025083415 0.03761798 0.0045353873
-0.04212623 0.009648644 0.050577596 0.027464878 0.014857547 0.033317305 -0.014325642 0.0058204397
-0.041543197 0.056612827 -0.029676374 -0.038363166 0.02216186 0.02067508 -0.005614606 0.046483275
-0.032580815 0.017890563 -0.030700242 0.02956345 -0.034989998 -0.029465444 0.034478687 0.019436523
0.047111236 0.05175367 0.016394654 0.012876508 0.047778443 -0.04018178 0.03139176 0.009047594
-0.0157262 -0.0473861 -0.014563477 0.051233448 0.012700194 -0.0032126727 -0.043414313 -0.055016626
-0.05289793 0.004859011 0.024066126 -0.027886806 0.02514078 -0.0062476154 -0.040370896 0.015646404
0.013975537 -0.030899439 -0.03190672 -0.021616425 0.049282044 0.021317922 -0.007995878 -0.02988775
0.024139311 -0.0159798 0.024905562 -0.0030687817 0.008749305 -0.02313471 0.010376029 0.02125366
-0.023926863 -0.018571803 -0.018081652 -0.0065828855 -0.041267034 0.022838723 -0.059372175 -0.011756426
-0.05131646 0.027947066 0.059005573 0.026112542 0.035486158 0.024852743 -0.0734222 0.022912158
-0.060181182 -0.025158403 0.023799613 0.008782716 -0.036874585 0.01147358 0.02904014 -0.01999095

fc1.bias f4 [256]
00000000: 98fa 253c 89ce 57bd 6439 af3b b245 203d
00000010: 752d 0f3d 44e1 18bd b0c8 49bd 6e12 073d
00000020: 4a7c 8c3c 24f4 fa3a ebf9 2ebd b329 febc
00000030: efdf 5dbd 2004 aa3c 3c1f 54bc e1b3 29bd
00000040: 3f89 39bd b28c 2ebd dc42 cd3b cc87 1cbd
00000050: 5342 3ebd 3660 e9bb 0b50 4abc c209 703b
00000060: 8e7f 4fbd d762 fc3c 6fb8 4bbd 07be 33bd
00000070: 68f6 e13c e2ec 533c 2010 48bd 4415 8b3c
00000080: baf6 2fbd 5df7 4fbd ed1e e7bc a22b 4dbd
00000090: 41da 52bd 26e6 6bbd ddce 22bd 803c 4dbd
000000a0: 2d9a 25bd 21d3 28bd 0492 a7bb b756 9f3c
000000b0: 69d7 73bc fb24 debc 1018 b83b 311a 323c
000000c0: 17be cebb 14f7 0c3d 7bf8 7a3c 00c8 c6bc
000000d0: 279b 34bd ad91 463c 37b3 eabc 9c61 1b3d
000000e0: df23 56ba 02db b63c 04a2 59bc 6317 1ebb
000000f0: fb57 843c 21b4 f63c 8596 3fbd a607 e4bc
00000100: fad6 27bd 1350 133d dbc7 183d 89bd cdbc
00000110: 4962 00bc 8e83 a33c c3f2 86bd bf95 09bb
00000120: 8bf6 6a39 4f93 ac3b f48b ae3c 0a73 9abc
00000130: c929 acbb 39a7 2fbc 2552 07bd fbcd 4dbd
00000140: 0f96 6a3b aa7c 173d 05da 7ebc 7bcb bd3b
00000150: 53f0 18bb 8631 b2bc ecda 6fbb 5af1 693b
00000160: 7746 a13c 357a 92bc a71b 3cbc 4402 2dbd
00000170: 945d 2ebd 6568 fc3c 7560 f5bc 58d8 b23c
00000180: 10ae a3bc 1a5f 1e3d 944c e6bb 6721 e23a
00000190: d4f4 12bc aa37 b0bc 8acb 4fbd 5704 86bc
000001a0: 0fb7 a63c 90ae bf3c e07a 01bc 5939 993c
000001b0: e8ca 3bbd 9699 05bc 8315 0f3d c4db 4c3c
000001c0: 3f05 fa3c 7746 d73c be59 2bbd 428a 033a
000001d0: 4f8b a7bc 5417 df3c 118e 6b3c b4e5 9f3b
000001e0: 41c5 d8bb f5fc 863c ee9e 18bd 4b16 25bd
000001f0: 16e2 e03c cdb0 183d ad54 073c db17 4fbc
00000200: a1ac 1bbd 6e8a f039 fc77 f23c de6f 9f3c
00000210: 7129 3dbd 0c7a a93c 1dde a3bc 2503 933c
00000220: 844a 5ebc a15e 003d c317 ebbc 8edd b339
00000230: 03d6 0a3c 2a59 7ebc c206 3ebd a4fd 9a3c
00000240: 003a af3c 772f 133d 59a8 23bd 89a8 e13c
00000250: 24a0 30bd 6df7 b4bc 214a e0bc 0ac8 12bb
00000260: 4aa2 16bd dcdf fa3b 3bf4 45bd 21dd 293d
00000270: 634f 963d 894f f33b 1a8e 5dbd 2239 663b
00000280: bdaa ac3c e7d9 133d d1b4 8bbc 06d2 163d
00000290: a685 a2bb b2df 01bd 9a2e 42bd 40dc 08bd
000002a0: 3bfe 73bd 6d37 1bbd d737 533b 3e3f cbba
000002b0: dbb3 38bc 2543 203d 4af0 64bd 2895 66bd
000002c0: 3831 c03c 53cd ccbc 384c 0b3d 772c 20bd
000002d0: 70b1 d53a 1989 d8bc 4378 64bd ea3c 1ebd
000002e0: 3a24 433c cd0c 683d 10d8 67bd 57fe 25bb
000002f0: 4f6f fa3b 70ad 183d 8477 c0bc 6690 ae3c
00000300: f45b 183d 6c46 e4bc 925e 4b3c 6dab 0fb9
00000310: 249c 3dbd b5d3 8f3b d5a4 893b 3a92 823b
00000320: 0463 51bd 8719 293d 2cd4 333b e9f3 ffbc
00000330: f69c 8abb cf33 2ebd fb8c 11bd 5739 0e3d
00000340: 71ad 163d d9aa 58bd 98c3 30bd 04ce 6d3c
00000350: e552 733c 1c9b a33c 1fdf ca3c 10f4 d6bc
00000360: 59b0 1c3c c9bf 79bc 22f2 c23c 18c8 72bc
00000370: 5a0b 96bb d6ca d73c 6a37 d5bb c145 1b3d
00000380: c238 24bd 436b 9fbb ef17 913c 8359 963c
00000390: b048 b53c 3172 28bd 2194 29bd 3060 cabc
000003a0: bd4d d63c 4fc9 1b3d 88d9 3cbc 9486 0cbd
000003b0: 422b 23bc ebde ae3c 7e1f 2bbd 92a6 563c
000003c0: 20f9 4dbd 7a8c a7bc 1e89 57bd 8171 dc3c
000003d0: 230d 47bd a1b0 64bd ad3b e83c 5fe9 8bbc
000003e0: 9f18 b0bc 7fb1 07bc 31b2 48bd a645 0ebd
000003f0: 98a8 fd3c a22f 843b f824 383c 615c 253b
0.010130547 -0.0526872 0.0053474177 0.039128967 0.03495546 -0.037324205 -0.049263656 0.03297656
0.01714911 0.0019146246 -0.04271881 -0.031025743 -0.054168638 0.02075392 -0.0129469 -0.04143131
-0.045296904 -0.042614646 0.006264074 -0.038215443 -0.04644997 -0.007122065 -0.012348185 0.003662691
-0.050658755 0.03080885 -0.049736436 -0.043882396 0.027583316 0.012934895 -0.048843503 0.016977914
-0.042959906 -0.050773013 -0.028212989 -0.05009044 -0.051477674 -0.057592534 -0.03974806 -0.050106525
-0.040430237 -0.041216973 -0.005113842 0.019450529 -0.014882901 -0.027117243 0.005618103 0.010870502
-0.0063092816 0.03441532 0.015318031 -0.02426529 -0.044093277 0.012119693 -0.02864991 0.037934884
-0.00081687974 0.022321228 -0.013283256 -0.0024122826 0.016155234 0.030115189 -0.046774406 -0.027835678
-0.040976502 0.035965037 0.037299972 -0.025114791 -0.007835933 0.019960191 -0.06589272 -0.0020993797
0.00022407823 0.005266584 0.02130697 -0.018853683 -0.0052540046 -0.010721021 -0.033037324 -0.050245266
0.0035795008 0.036984123 -0.01555491 0.005792079 -0.0023336604 -0.02175213 -0.0036598993 0.0035696835
0.01968692 -0.017880538 -0.011481202 -0.04223849 -0.04256971 0.030811498 -0.02995322 0.021831676
-0.01998046 0.038664915 -0.007028172 0.0017252386 -0.008969504 -0.021510918 -0.05073122 -0.016359491
0.020350961 0.023398668 -0.007902831 0.018704103 -0.045847803 -0.0081542935 0.034932625 0.012503568
0.03052008 0.026278717 -0.04183363 0.00050178554 -0.02045217 0.027232803 0.014377133 0.0048796777
-0.0066153114 0.016478041 -0.037260942 -0.040304463 0.027451556 0.037277985 0.008259934 -0.012639965
-0.03800643 0.00045879505 0.029598229 0.019462522 -0.0461821 0.02068808 -0.020003373 0.017945835
-0.013567571 0.031340245 -0.028697854 0.00034306612 0.008473876 -0.015524188 -0.046393164 0.018919773
0.021389961 0.035933938 -0.03995547 0.027546184 -0.043121472 -0.022090638 -0.027379097 -0.0022397065
-0.036775865 0.0076560806 -0.04832862 0.04147065 0.073393606 0.007425253 -0.054090597 0.0035129269
0.021077508 0.03609648 -0.017053993 0.036821388 -0.00495978 -0.031707473 -0.047407724 -0.03341317
-0.059568625 -0.037894655 0.0032229328 -0.0015506519 -0.01127335 0.039126534 -0.05589322 -0.05629459
0.02346097 -0.02500025 0.034008235 -0.039104905 0.0016303491 -0.02643256 -0.055778753 -0.03863231
0.011910493 0.056652833 -0.056602538 -0.00253286 0.0076426635 0.037274778 -0.02349449 0.021309089
0.03719707 -0.027865611 0.012412684 -0.00013701404 -0.046291485 0.004389251 0.0042005577 0.0039847167
-0.05111982 0.04128411 0.0027439697 -0.031244235 -0.004230137 -0.042529877 -0.03553484 0.034722652
0.0367865 -0.052897308 -0.043155283 0.01451445 0.014851307 0.019971423 0.024764596 -0.026239425
0.009563529 -0.015243479 0.023797099 -0.014818214 -0.00457899 0.026341837 -0.00650685 0.03790832
-0.04009319 -0.0048650815 0.017711608 0.01835323 0.022129387 -0.041124526 -0.041401032 -0.024704069
0.026160115 0.03803378 -0.011526473 -0.03430803 -0.009959044 0.02134653 -0.04177808 0.013101237
-0.050286412 -0.020452727 -0.052621 0.026909592 -0.048596513 -0.05583251 0.028348768 -0.017079053
-0.021496115 -0.008282064 -0.04899806 -0.03473439 0.03096418 0.0040339986 0.011239283 0.0025232064

fc2.weight f4 [30, 256]
00000000: f3f4 4e3d c509 1c3d bfc9 27bd 1091 d0bc
00000010: 407e 5b3d d1b0 9c3b 5a36 b3bc e7e1 1ebd
00000020: bdec cabb a4da 2d3d 9278 283d e265 363d
00000030: 0dcb 563b 4779 1abd a6c0 26bd 3350 e63c
00000040: cad7 26bd c60c ef3b 6c7b 443d 50d8 bbbc
00000050: dde8 50bd 0ce8 37bd 3cfe 51bd d845 42bd
00000060: 434e 2d3c 78a7 46bd 05ee 07bd 6906 653d
00000070: 436a 563d 519a 023d 0b6e 5ebd 6c6e 8abb
00000080: c339 693d 847c 6ebd 0790 1b3c 2fa7 f8bc
00000090: ab0c 5ebd d981 dbbc 80d7 d0bc 461f 873c
000000a0: 5a37 cb3c c743 03bd ae3f 9e3c 7277 c9bc
000000b0: 3ca8 c23c 2c76 afbc 6a99 1d3d a5d4 29ba
000000c0: b5a6 8e3b 36c2 593c 411f bf3c fae3 38bd
000000d0: bce3 2b3d 6912 efbb e78a 343d 9025 6a3d
000000e0: c8f4 1c3d 69d4 01bd d4e5 0e3c 70b4 39bd
000000f0: b2e2 1b3d 92a3 163c 8cc4 1c3d e3a8 1fbd
00000100: 0b2b 033c 4912 383d 66c1 34bb 2670 7f3d
00000110: d869 4ebc 9df6 113d a20b 4bbd f974 fbbc
00000120: 306a 173c a36d 48bd ef4d cebc 2862 0bbb
00000130: f47c 473d 56af e4bc 6ebb 12bc 819c 683d
00000140: 1139 343d 41f6 1dbd b625 e2bc 06b2 823d
00000150: 41b7 1f3c f050 21bd 6ba8 b83c cc9e 29bc
00000160: 3cbe 3b3d e4e3 e4bc 4a4d d1bb 2881 79bc
00000170: 8ddc 783d 5bb8 1bbd f624 c8bc 6a0b 3d3d
00000180: 9307 e83c 635c 26bd 0d15 55bd 750c 293d
00000190: b831 b63c 5593 533d e199 cfbc 4b08 c6bc
000001a0: 8168 5d3d 1f58 cbbc 2dd8 32bd a5ec ee3c
000001b0: 6687 3cbd cccc 42bd 1849 b83c e296 b53c
000001c0: 1829 ecbb f55a 3f3d 9f3f 5abd e39a ca3c
000001d0: 731a d3bc c725 41bd 8872 123d 25dd 123d
000001e0: 8291 623d d2e8 ffbc 36b0 96bc 1eb4 303d
000001f0: 201b 82bc 914e 70bb 3e1c d7bc d39f 0e3d
00000200: 16c6 0ebc f136 49bc 47bf 78bc e2f7 39bd
00000210: d74d 203d 7a48 2bbd 7356 733d afed 67bb
00000220: e14c 4b3c 6dd9 b2bc 8d1e 763d 6af8 34bd
00000230: 80df 243b 5978 483d dc3f 473d 7af3 233d
00000240: 8867 0cbd 8ea6 64bd 3310 07bd ef51 803d
00000250: dbcf 34bc f22c 813d e221 2b3d 2a44 29bd
00000260: 1221 0c3d fc00 c1bb b10b c93c cd19 243d
00000270: d092 0c3d 9a24 3d3d d01f 2bbd e8e1 283c
00000280: 1688 883d 3ab2 503a 94e2 283d 4fc2 863b
00000290: 3f19 5dbd 62b4 51bd 64bc 753c e646 043d
000002a0: b6a1 5bbd 70ee cfbc 5ca2 27bd e16c c9bc
000002b0: fc63 863d 2b0c 473d 326b cf3b 7a3f 04bd
000002c0: bc25 1e3d 6a9d ed3c 6973 323b 2461 56bd
000002d0: 8032 46bc 4168 0cbd 3569 2f3c 0031 403c
000002e0: ae97 5dbd 203c 84bc 6d11 293d 83cf d4bc
000002f0: b61c a53b 3e82 4a3d 03a8 8b3d 10b1 813d
00000300: 8439 16bd 472e 5bbc 9fed c33c d49b 213d
00000310: 9038 4c3d 3e05 05bc e462 65bc 9c4d 45bb
00000320: 1500 373c 74d6 87bc 9cf8 5eb9 7f7f 0b3c
00000330: 2e32 2d3b 570a 96bc 7cd6 0abd 3067 c5bb
00000340: c5b0 79bc ab6c 24bd 1da2 383d 7926 8ebb
00000350: 3fd6 0b3c a183 123d 80de 0fbc fc8e 943d
00000360: ea42 843c b6a4 27bb e627 1bbd 86f3 433d
00000370: f2b0 8a3c 7c40 243b 575d 403d 8837 4c3c
00000380: 73e9 233d 9f11 163d 6030 78bd d293 69bc
00000390: e544 f0bc fb78 21bd 50fa 5d3d 081c dc3c
000003a0: 990a 30bc 0d28 c43c c7ab 733a d52a f23c
000003b0: d3eb a2bc b0e5 783d d538 3c3b 2fc5 4bbd
000003c0: 996b b5bc a65d 1abd 9e26 e7bc 626b ae3c
000003d0: fff7 853d 91ad 773d 6e71 723d 0e37 d23c
000003e0: 3f2a 2cbd 7fd4 d3bc 95c9 353c 3d9c 4d3d
000003f0: 7d8f 3a3d 56e8 543c c807 82bd d31c 6c3b
0.05052657 0.038095254 -0.040963884 -0.025459796 0.0535872 0.0047818203 -0.021876503 -0.038789656
-0.006192772 0.04244484 0.04113061 0.044530757 0.0032774836 -0.037713315 -0.040711068 0.028114414
-0.040733136 0.007295224 0.047969267 -0.022930294 -0.051003326 -0.04489903 -0.051267847 -0.04742989
0.010577741 -0.048499554 -0.033185977 0.055914316 0.052347433 0.03188545 -0.054304164 -0.004224589
0.05693985 -0.058224216 0.009494788 -0.030353157 -0.0542113 -0.026795315 -0.025493383 0.016494405
0.024806667 -0.03204706 0.019317474 -0.024593089 0.023761861 -0.021418653 0.038476385 -0.0006478525
0.004353369 0.013290932 0.023330333 -0.04513929 0.04196523 -0.007295896 0.04407778 0.05716473
0.03831938 -0.03169671 0.0087217875 -0.045338094 0.03805799 0.009194272 0.03827338 -0.038979422
0.008005868 0.044939313 -0.0027581095 0.062362812 -0.012598477 0.03563558 -0.04957164 -0.030695425
0.009241626 -0.048932683 -0.025183646 -0.0021268222 0.04870315 -0.027915638 -0.0089558195 0.05678988
0.043999735 -0.038564924 -0.027605873 0.063816115 0.009748281 -0.03938383 0.022541245 -0.0103528015
0.04583572 -0.027940698 -0.0063873874 -0.015228547 0.06075721 -0.038017612 -0.024431687 0.046153463
0.028323924 -0.04061545 -0.05202203 0.041271646 0.022240505 0.05165418 -0.02534193 -0.024173876
0.05405474 -0.024822293 -0.043663193 0.029165575 -0.046027564 -0.04755859 0.022495791 0.022166673
-0.007207047 0.046717603 -0.05328333 0.024732059 -0.025769448 -0.047155168 0.035753757 0.03585543
0.05531455 -0.031238947 -0.01839457 0.043140523 -0.015882075 -0.0036667923 -0.026258584 0.03482039
-0.00871422 -0.012281165 -0.015182323 -0.045402415 0.039136734 -0.041817166 0.059408616 -0.0035389473
0.012408466 -0.021832192 0.06008773 -0.04418222 0.002515763 0.048942897 0.048644885 0.04002712
-0.034278423 -0.0558229 -0.032974433 0.062656276 -0.011035885 0.06307401 0.04178036 -0.041324772
0.034211226 -0.00589001 0.024541708 0.040063668 0.0343197 0.046177484 -0.041778386 0.0103077665
0.06666581 0.0007961128 0.041231707 0.004112519 -0.053979155 -0.051197417 0.014998529 0.032294177
-0.053621016 -0.02538225 -0.040926322 -0.02458805 0.06562039 0.04859559 0.0063299173 -0.0322871
0.038610205 0.029005725 0.0027229434 -0.052338734 -0.012097001 -0.03427911 0.010706236 0.0117304325
-0.05409973 -0.016141951 0.041276384 -0.025977856 0.005038823 0.049440615 0.06819155 0.063326
-0.036675945 -0.013377733 0.023917018 0.03945525 0.04985863 -0.008118926 -0.014000628 -0.0030106073
0.011169453 -0.016581751 -0.00021264184 0.008514284 0.0026427615 -0.018315477 -0.033895954 -0.006024264
-0.015239899 -0.040142696 0.04507648 -0.0043380824 0.008534967 0.035770062 -0.0087810755 0.072538346
0.016145188 -0.0025580353 -0.037879847 0.047839664 0.016930077 0.002506285 0.046964016 0.012464412
0.040017556 0.0366379 -0.06059301 -0.0142564345 -0.029329726 -0.039422017 0.054193795 0.026868835
-0.010744714 0.023944879 0.0009295311 0.02956144 -0.01988784 0.060765922 0.0028720398 -0.049748596
-0.022146033 -0.037686966 -0.028216656 0.021291438 0.06541442 0.06046826 0.059190206 0.025661018
-0.042032477 -0.025858162 0.011095424 0.05019783 0.045546997 0.012994846 -0.063491404 0.0036027923

fc2.bias f4 [30]
00000000: 7b73 e2bc 6e2b 72bc 12cf d53b dada 03bd
00000010: bbfc af3c b307 993c dc5f a7bc 681b ffbb
00000020: c96c 343c d77c 303c 0b84 433c 8975 8f3b
00000030: 16e9 ae3a f64f 19bd 2baa 17bd 34ad d9bc
00000040: 8f0b 88bc 79f9 153d d286 12bd 8da3 113d
00000050: de25 debc e98a 273d 0023 583c bdd6 92ba
00000060: ad8e 39bd 0f56 e2bb f9c4 e6bc 7f04 31bc
00000070: d44f edbc 9312 82bc
-0.027642956 -0.014780862 0.006524929 -0.032191135 0.021482816 0.01868043 -0.020431451 -0.0077852495
0.0110122645 0.010771952 0.011933337 0.004378025 0.0013344612 -0.037429772 -0.03702752 -0.026571847
-0.016607074 0.03661487 -0.035773106 0.035556365 -0.027117666 0.04090396 0.013191938 -0.0011202913
-0.04530208 -0.0069072316 -0.028170096 -0.010804295 -0.02896873 -0.015877998

fc3.weight f4 [30, 256]
00000000: 09a9 59bb dc0c 23bd baf5 563c 8a37 0c3d
00000010: c490 043d 3d8d b5bc 4441 ccbc 7bb0 1e3d
00000020: 38a3 123d 84b7 ac3c 616d 46bc 713e b53c
00000030: a0b2 cdbb 22a3 db3c 3939 e03b bd9a 59bd
00000040: d47b b93b 8e4a 383d 0dfd 733d a3c9 0d3d
00000050: 249c 9d3c 61cb f93c c51d 34bd 2f85 623d
00000060: 76d8 163d eaf4 9a3d 19e0 f63c 3b0f 85ba
00000070: 355a 6e3d c152 05bd aef8 f0bc 7a1c c33c
00000080: 7412 503d 8d2f 2fbc a12e 44bd ddc4 933d
00000090: 0cb0 5abc ce9a 653d 4d20 353b a0f5 00bd
000000a0: 77eb 1d3c d48f 7bbc b7c8 4ebb d411 273c
000000b0: eaac 2d3d 479f 63bc 986e d7bc e400 2abd
000000c0: bae6 3ebd 8817 4a3d 6842 0e3d 63d9 20bd
000000d0: 0263 7ebc dbcb 823d a21f 8e3d dee9 8cbc
000000e0: 155a 893d abda 543b f349 113d be7e f4bb
000000f0: ab16 fc3c 741f 28bd 8a6e 3c3d 97a6 653d
00000100: 15eb cd3c 5f17 db3c c754 c13c dba9 183d
00000110: b266 693d bf71 2b3d 91cc c13c 4daa 0e3d
00000120: fce6 5c3d a4fc 3e3d d866 c93c 6e12 45bd
00000130: c5f0 7f3c 55fc 743c 9f80 cdbc 5127 1e3c
00000140: c3a3 febb 425a 20bc 18cc f4bc 5287 233d
00000150: c8d0 0cbc 1258 833d ff54 803c 2fb5 6c3d
00000160: 2df9 613d 6e63 1d3d c2ec 3ebd 2df7 0b3c
00000170: b2c4 a8bc 0209 bf3c 6584 323c 0dc1 5c3b
00000180: c3e7 2abd c4e2 32bd c79e 0c3d 7c18 a1bc
00000190: 94a2 06bd f008 edbb 3cc7 35bd 834f 143d
000001a0: fa24 31ba 5289 81bb fce5 153d 078d 843d
000001b0: 8f76 21bc a690 863d ef10 383d 00ac 84bc
000001c0: 60a1 a6bb 79ec f1bc ae53 f93c 7a7c 683c
000001d0: b6ec 45bd b45a 0f3d 9a4b 1fbd de90 193d
000001e0: 99c8 0abd d43d 51bd 6369 8abb 48b3 3abd
000001f0: 764b 8b3c eaf1 503c d7fc 023d 189d e7bc
00000200: d581 0a3d 8fc2 0fbd 9d4d 54bd eaa7 653d
00000210: 6a4d b23c 0b1e 5cbc 1244 84bc b6bf 873d
00000220: 7432 773d d758 20bd 4bb3 683c 9fce 23bc
00000230: ca9c 0dbd bebc 20bc f91c 3bbd 6e20 033c
00000240: a6fd 3dbd 1a93 c63c f63b cfbc c084 12bd
00000250: f82a cd3c 0af1 6f3d b392 573d 8673 3c3c
00000260: 57b8 0dbb db98 703d b24d 203d 343b b53c
00000270: f6e7 493c e175 a03c 5a33 19bd 0896 38bd
00000280: 5112 523d 1617 29bd a270 91bc 7bec 1dbd
00000290: ee01 17bd 7f54 013d 0f8e 81bd 522e 113d
000002a0: bec1 a33b cbd5 4d3b 96fc 39bd 5506 fabb
000002b0: 5b3b 2abd e7a2 183d c7f9 4d3d e001 363d
000002c0: e6e3 b538 54d4 2cbd 39e5 eb3c d528 d9bc
000002d0: d03e 013d e9ab 88bc 68d7 813d e752 153d
000002e0: 25ba 50bd b586 9f3c 06b2 b73a 0cfd 81bd
000002f0: 68e4 1a3d ffd4 bf3c 09c4 fbbc 6f3d 1c3b
00000300: 70fd 6d3d 5d45 903c bddd b3bc e05a 4ebd
00000310: 9c8d c2bc f551 debb e3c5 76bc 1319 47bd
00000320: 8528 8d3d 4d1e 4d3d d7ab c3bc ab70 4dbc
00000330: 7a5c 66bc 1025 353c 875a e23c 3361 5a3d
00000340: b901 86bb 5244 bebc b3e6 903b 96cc 1e39
00000350: ce09 1cbd 2a42 29bd 4fa9 0cbd f88c 74ba
00000360: d251 abbc 308d 503b 5137 283d 884b 8f3c
00000370: 2924 023d 6e01 033b 8afe 883d bf56 323d
00000380: 9276 423d 7e4b 84bc f9c4 bf3c 5757 8b3d
00000390: fe87 293d 3d17 3abc f527 2a3c f25e 76bc
000003a0: c3c5 5cbc 206a 68bc 79b2 8abd 6256 583c
000003b0: 7f03 d3bc 433e 993c 0732 283d f96e 2bbc
000003c0: 2faa 4b3b d774 c9bb c8f2 313d 381d 823d
000003d0: ba23 fdbb e549 13bd b719 0b3c bb38 3e3d
000003e0: 2612 32bd c907 1c3d c719 3c3d 730b 303d
000003f0: bb4c 8abc 8c02 da3c ae21 e6bc 6947 22bd
-0.0033212325 -0.039807186 0.013120109 0.034232654 0.03236462 -0.022162074 -0.024933465 0.038742524
0.03580019 0.0210836 -0.012111039 0.022124501 -0.0062773973 0.026811186 0.006842759 -0.053126086
0.0056605134 0.044992976 0.0595675 0.034616124 0.019239493 0.030492486 -0.043973703 0.055302795
0.036827527 0.07566245 0.030136155 -0.0010151634 0.058191497 -0.032549623 -0.029415455 0.02381729
0.05079885 -0.010692489 -0.04789603 0.07215283 -0.013347637 0.056055836 0.002763766 -0.031484246
0.009638659 -0.0153541155 -0.003155274 0.010197122 0.04240123 -0.013892955 -0.026297852 -0.041504756
-0.046606757 0.049338847 0.0347313 -0.039269816 -0.015526535 0.063865386 0.06939627 -0.01720136
0.06706635 0.003247897 0.035470914 -0.007461398 0.030772528 -0.04104562 0.046003856 0.056067076
0.02513651 0.026744543 0.023599995 0.03727136 0.056982704 0.041856524 0.023657115 0.03483038
0.05393122 0.046627656 0.024585173 -0.04811328 0.015621369 0.014952739 -0.025085745 0.009652928
-0.0077709868 -0.009787144 -0.029882476 0.039923973 -0.008594699 0.064132825 0.01566553 0.057789978
0.055169273 0.0384249 -0.04661251 0.008542818 -0.020601604 0.023319725 0.010895823 0.0033684403
-0.04172493 -0.04367329 0.03433111 -0.019664995 -0.03286989 -0.0072337314 -0.044379458 0.03620864
-0.0006757524 -0.0039531374 0.036596283 0.06472211 -0.009854927 0.06570558 0.044938024 -0.016195297
-0.0050851554 -0.029531704 0.03043541 0.014189834 -0.04832145 0.03499861 -0.03889046 0.03749167
-0.03388271 -0.051084355 -0.004223989 -0.045581132 0.017003756 0.012752989 0.031979408 -0.02827315
0.033815224 -0.035097655 -0.05183183 0.05606834 0.02176543 -0.013434897 -0.01614574 0.06628363
0.06035085 -0.039147224 0.014202903 -0.009997993 -0.034573354 -0.009810625 -0.045681927 0.008003337
-0.046384476 0.024240065 -0.025297146 -0.03577113 0.025044903 0.058579482 0.052630138 0.011502152
-0.0021624768 0.058739524 0.039136596 0.022122957 0.01232337 0.019587459 -0.03740249 -0.045064956
0.051287 -0.041281782 -0.017753903 -0.038555603 -0.036867075 0.031574722 -0.06325924 0.035444565
0.004997461 0.0031407948 -0.0454069 -0.0076301494 -0.041560512 0.03726473 0.050287034 0.044435382
8.673202e-05 -0.04219468 0.028795825 -0.026508728 0.031554043 -0.016683536 0.063399136 0.036456015
-0.05095877 0.019473413 0.0014014847 -0.06347093 0.03781548 0.023416994 -0.030733125 0.0023840328
0.058103025 0.0176112 -0.021956319 -0.050379634 -0.023749165 -0.0067846724 -0.015061828 -0.048607897
0.06892494 0.050077725 -0.02388565 -0.012539069 -0.014060134 0.0110562 0.027631057 0.053315353
-0.004089561 -0.023225937 0.0044220327 0.00015144268 -0.038095288 -0.041322865 -0.034341153 -0.00093288673
-0.020913038 0.0031822436 0.04106838 0.01749207 0.031772766 0.0019989866 0.066891745 0.04353976
0.04747636 -0.016149279 0.023409354 0.06803768 0.041389458 -0.0113580795 0.010385503 -0.015037285
-0.013474884 -0.014185458 -0.06772322 0.013204189 -0.025758503 0.018706447 0.041063335 -0.01046347
0.003107678 -0.0061479616 0.043444425 0.06353229 -0.007725206 -0.035959143 0.008490018 0.04644082
-0.04347434 0.038093362 0.04592302 0.04297967 -0.016882291 0.026612543 -0.028092232 -0.039618883

fc3.bias f4 [30]
00000000: e384 adbc fabd d83c b3a1 a33c a014 8dbc
00000010: 2a38 013d cfbc 6fbc 297e cfbc 35f8 25bc
00000020: 3ebe 343d 5fdd 08bd 784a a43c c64a 83bc
00000030: c504 d2bc 235f 55bc 0412 93bb f8f6 6ebc
00000040: cf75 233d 423b 32ba adb8 4fba afa0 7dbc
00000050: 5053 3dbc 7787 e43c 1cc2 eebc 3571 be3c
00000060: 2ea7 f2bc ca00 d9bb 8fd4 093c f98d 47bd
00000070: 8f2e 3bbc c7ae 003c
-0.02118153 0.026457775 0.019974565 -0.017221749 0.031547703 -0.014632418 -0.025328713 -0.010129978
0.04412674 -0.03341424 0.02005504 -0.016026866 -0.02563704 -0.013023171 -0.0044882316 -0.014585249
0.039907273 -0.0006798991 -0.0007923942 -0.0154802045 -0.011555508 0.027896626 -0.029145293 0.02324734
-0.029620733 -0.0066224085 0.008412494 -0.04871938 -0.011424675 0.00785417

fc4.weight f4 [256, 30]
00000000: 46b0 06bd 8573 25bd 71bc 95bc 5640 36bd
00000010: d92d 2ebc c10c 383d 8ad8 dabc 9ba0 a93c
00000020: f201 d73c eb00 043d 851a d5bc 3651 3bbd
00000030: fa9c 253d f23e 05bd 815b 2dbc 5132 3dbd
00000040: b7ba ca3c f717 6ab8 e699 ecbc f653 023c
00000050: ed51 d6bc bcac 3a3c f611 753d 46f1 733c
00000060: 6315 083d 4c76 f13c 6eb5 05bd 4c4e 9ebb
00000070: 6233 043d 5254 33bd 60a9 2e3d ed1e e93c
00000080: b83f e2bb 8247 e13b f44b ffb8 91f5 703d
00000090: 294b 7fbd bf91 9e3c 80af c6bb 251d 4d3d
000000a0: e7f2 cf3b 7cb9 203d 44a5 03bd 9f5e 5ebd
000000b0: f2ac 53bc 3d75 3ebd 6d36 84bd e72b 5d3d
000000c0: 0768 193d 9101 a3bb 40ad dabb 6a92 683d
000000d0: 16bc 90bd b1b0 a03c e184 733d c38f 483d
000000e0: d73b 1a3d 89a9 f63c e11b c3bc cefc f5bb
000000f0: c6a0 6abd f10f 10bd cec0 853c c2be 603c
00000100: 9d49 4bbd 5d25 1d3c 929d 5bbd 8068 be3c
00000110: e1d2 633d c37e 76bd 9e1c 843a 6822 563d
00000120: c043 c53c 218a 823d 13b5 45bd 7a90 643d
00000130: f67e 92bc e25d 66bd 03c2 a5bd 31c9 c3bc
00000140: 887e 6b3d c669 763d 1890 293d 3188 263d
00000150: 9157 4b3b c630 5bb9 49a1 1f3d 7573 12bd
00000160: 578a 8b3d a09a 593d 7be5 db3b 7c9a 353d
00000170: 4d6f 3d3b fe6a 163d 0c51 0dbd fa1b 533d
00000180: 21eb cebc 7aa2 a03d 43ef f3bc e462 95b8
00000190: 017e 273d cdc9 1bbd fd32 9bbd b771 393c
000001a0: 72a3 d03b 6150 26bd 1c76 0abd 05e2 c1bc
000001b0: 72bb 06bd 7e0b b9bb 9032 2a3d bcfc 69bd
000001c0: 5d29 363c e47f 52bd aa59 353d 16f8 1c3b
000001d0: 0af9 43bd 4375 18bc 0aeb 103b 827f 8cbd
000001e0: 22c0 58bd 2e2d 36bc bfb4 4a3c af95 36bd
000001f0: 042a 39bd c675 29bd e3c9 e03b 3092 973d
00000200: edf0 033d ccf1 963d 6993 083d b948 c43d
00000210: 3d36 e6bc 5ebb 4bbd a75b 893c 875d 38bd
00000220: df45 f83c 4138 5e3d a909 a03d 7b03 be3b
00000230: c178 a2bc 5ab7 663c e899 223b 31ca 883b
00000240: 1e0a df3c 7108 a1bd 76b2 1c3d f329 06bd
00000250: 4cdd ca3c 385d 533d 6303 a3bc 3f11 e0bc
00000260: 6223 863d 2643 27bd 3255 213d bded 833d
00000270: 5b86 15bd 984a e63a db7c 2f3c c2bd 7e3d
00000280: 2988 a5bd b110 b8bc 1438 c83b 16d0 433b
00000290: 488c 33bd 2cdd 693d 58c0 1cbd f686 8d3d
000002a0: f390 8c3c be7a 5d3c 9739 87b7 7369 3abd
000002b0: ce44 7d3d 167b 493d 5b83 af3d c5dd 8fbd
000002c0: 56f3 a3bc 89eb a6bc bbfa 30bd 1d27 193d
000002d0: 1cb1 52bd f703 20bd 8af1 383c 7213 683d
000002e0: 6e18 c8bc ec48 5ebd abe1 68bd 33e6 51bd
000002f0: 226e 9cbd cdb5 6cbd 9785 fb3c 1451 47bd
00000300: f33d 073c eb80 e3bc e672 16bc 6c86 27bb
00000310: f515 86bc 17b7 9abb 1d31 debc 511b 283c
00000320: 029d 26bd 84c0 3c3d 850c 4cbd 6259 6f3d
00000330: 8278 25bc c7d9 083d 3ecd 03bc 484f dd3c
00000340: 077f 963c 1625 913d 8d8e 29bc 220c ba3c
00000350: 5e6b 873d cd68 9ebd 9076 0fbc 8e32 20bd
00000360: e129 aebc 511f 46bd d49a 4dbc 668c d33c
00000370: cc5e 213d 81ca d239 a800 b23d 68e9 c53b
00000380: f138 d43d 5f22 6ebd 9c50 853d 0c8e acbd
00000390: 97a4 ee39 465e 1e3d c633 373d 3527 8dbb
000003a0: 0e64 de3b 1612 7e3c 5aa9 913d 39aa 89bc
000003b0: d0e6 b83b e49c 6c3d f7a6 363d 1343 d63c
000003c0: 3002 46bc b247 9ebc 4cb8 253d 2930 a03d
000003d0: 1899 353d 0250 09bc 772d 573d 5e33 5fbd
000003e0: 8a65 8ebc bc54 40bd a881 e83c 154d 753a
000003f0: d52b 893c 3d46 01bd 1a41 c7bc 9336 61bc
-0.03288295 -0.04039337 -0.018278332 -0.04449495 -0.010631048 0.044934038 -0.026714582 0.020706465
0.026246045 0.032227438 -0.026013622 -0.045731746 0.040432908 -0.032530732 -0.010580898 -0.046190564
0.024747236 -5.5812267e-05 -0.028881978 0.007954588 -0.026162112 0.011393722 0.059831582 0.014889067
0.03322352 0.029475354 -0.032643728 -0.004831111 0.032275565 -0.043781586 0.042641997 0.02845713
-0.0069045685 0.0068749795 -0.00012173495 0.05882794 -0.062327538 0.019356607 -0.0060634017 0.050076623
0.006346095 0.03923939 -0.03214003 -0.054289456 -0.012919651 -0.046498526 -0.064556934 0.053996947
0.037452724 -0.004974552 -0.006673485 0.056780256 -0.070671245 0.019615503 0.059452895 0.048965227
0.037654724 0.030110138 -0.023817005 -0.0075069433 -0.05728223 -0.035171453 0.016327288 0.013717355
-0.04963075 0.009591428 -0.053617068 0.023243189 0.05562103 -0.060179483 0.0010079329 0.052278906
0.024080157 0.06374002 -0.04826839 0.055801846 -0.017882805 -0.056241877 -0.080936454 -0.023899646
0.057493716 0.060159467 0.041397184 0.040657226 0.0031027535 -0.00020903637 0.038972173 -0.03575464
0.068134956 0.053125978 0.006710706 0.04433678 0.0028905452 0.03672313 -0.03450112 0.051540352
-0.025258603 0.0784349 -0.029777175 -7.1232935e-05 0.04089165 -0.03803425 -0.075780846 0.011318616
0.0063671404 -0.040604 -0.033804044 -0.023667345 -0.032893606 -0.005647122 0.041552126 -0.057125792
0.01111826 -0.051391497 0.044274963 0.0023951582 -0.047844924 -0.009305301 0.002211275 -0.06860258
-0.052917607 -0.01111917 0.012372195 -0.044576343 -0.045206085 -0.041372083 0.0068600043 0.0740093
0.032212187 0.07370338 0.033343706 0.09584183 -0.028102035 -0.049739234 0.016767336 -0.04501107
0.030306755 0.054252867 0.078143425 0.0057987547 -0.01983297 0.0140818 0.0024810974 0.0041744937
0.027226504 -0.07862938 0.03825613 -0.03275485 0.024763726 0.051602572 -0.019899076 -0.027351974
0.065497175 -0.040835522 0.03938789 0.06441829 -0.036505084 0.0017569838 0.01071092 0.062192686
-0.08082611 -0.022468897 0.0061102007 0.0029878668 -0.043834955 0.05709569 -0.03826937 0.069105074
0.01715896 0.013518034 -1.6120071e-05 -0.04551072 0.061833195 0.04918965 0.08569976 -0.07024721
-0.020013493 -0.020375984 -0.043207865 0.037390817 -0.051438436 -0.03906628 0.011288056 0.05665917
-0.024425711 -0.054268762 -0.05685584 -0.051244926 -0.07638194 -0.057790566 0.030703349 -0.048661307
0.008254516 -0.027771434 -0.009182667 -0.00255623 -0.016367892 -0.004721533 -0.027123028 0.010260419
-0.040677078 0.046082035 -0.049816627 0.05843485 -0.010099532 0.033410814 -0.008044539 0.027015343
0.018371118 0.07087152 -0.010348928 0.022710864 0.066122755 -0.07734833 -0.008756295 -0.039110713
-0.021260204 -0.04836971 -0.012549121 0.025823783 0.039397046 0.00040205198 0.086915314 0.006039787
0.10362423 -0.058138248 0.06509516 -0.08425531 0.00045517526 0.038664125 0.04472711 -0.0043076524
0.00678683 0.015507242 0.07112379 -0.016804801 0.0056427494 0.05776681 0.044592824 0.02615503
-0.0120854825 -0.019321296 0.040458962 0.07821686 0.044335455 -0.008380892 0.052533593 -0.054492347
-0.017382402 -0.04695581 0.028382137 0.00093574944 0.016744534 -0.031561125 -0.024323035 -0.013745922

fc4.bias f4 [256]
00000000: 1754 1cbe 71a3 b23d 534a 6dbe 25c2 52be
00000010: 9c8c 423e 55f8 763e 6b6e 263e ba7d e7bc
00000020: c31b ac3c 86fb 4dbe 28ec 36be e178 1f3e
00000030: 2c92 75bd 90ef 3c3e 9436 febd 7bf3 30be
00000040: 51a8 80be 534c 3abe 55e2 593e 256b 613e
00000050: a611 26be fcdb ee3d 2969 8fbd 44a8 0a3e
00000060: 7598 cebc f074 b8bd f8b0 f4bd b7d4 12be
00000070: 1842 c53d 3542 d73d 3305 febd 8f59 773e
00000080: 0752 b03d 6f5d c53d 37db 58bd 608b 20be
00000090: 77d2 70be 8418 0ebe 93f6 183e 7cf1 f3bd
000000a0: aa35 c2bd 7b32 cebd 3025 2b3e 5c07 83bd
000000b0: 714f 1f3e 6762 86be 3f9d 533e 41a3 b83d
000000c0: 9b89 a13d c1f1 2dbd ca62 803d 4479 00be
000000d0: 9450 963c fd99 213e 4efe 863d 2779 44be
000000e0: 45f0 5abe 36f4 193e d0d8 69be e248 6fbe
000000f0: 0113 223e 67c0 913d 2cfd 8abb b59d 2d3e
00000100: 61d9 11bd 4b34 b4bc 47ce d33c 4e8a 16be
00000110: 59d1 553e 7847 75be 21b8 253e 97a1 3e3e
00000120: 3379 51bd 9c46 cd3d d070 053e 8dd3 19be
00000130: bc22 cabd 7e51 70be e9b3 423e 3ad0 14be
00000140: b295 3d3e 0b67 4fbe be1c 7cbd 919e 39be
00000150: 43d3 e9bd 33bf bf3b fee0 40be 94a9 60be
00000160: 3a2c 083e 4427 73be 8c69 5c3e d8fc 473e
00000170: 1f66 323e 3617 4dbe 6a63 2b3e 2cfb 183e
00000180: 709e 05be a9d2 4abe b052 b73b db6e 263e
00000190: f8a6 363e 4381 0b3e 4462 ea3d 0373 1b3e
000001a0: 2d4a 4f3e cbcd 103e 8dfc 193e caee 58be
000001b0: b7f9 d83d 955b 493e cb61 4a3d 00cc 81be
000001c0: 3851 963d 9b19 28be 4958 0f3e 2abf b4bc
000001d0: 3383 3cbd 04ef 0e3e b36b bbbd b87f 153e
000001e0: 59e8 a1bd 4ac9 593e 474a 0f3e 4b2a 403e
000001f0: f00f 203e 3e36 03bd 2b78 47be 2c35 633e
00000200: feef 23be 1f60 21be cf63 12be 6d7e 79be
00000210: 2bf4 1abe dd06 863d b837 00be 1e38 0cbe
00000220: 1493 42be fdc3 703e 0e15 3c3e 3614 323e
00000230: 4bac 6c3e b9b4 dbbd b397 c73d ac59 713d
00000240: c437 50be fc43 b2bd 9243 ee3d d06c fdbd
00000250: 9404 073e bad3 e3bd 2256 cbbd 7bd5 4abe
00000260: bb04 0abd 47b9 e43b a698 27be 4e29 493e
00000270: f0c0 0e3e dba7 3fbe 86aa adbd f518 6e3b
00000280: 5a76 393c b1e7 4dbe 342c 873d e348 50bd
00000290: 55a6 aebc 0264 7b3e a915 abbd 681a a33d
000002a0: 50f5 76be 8a38 6d3e 6d81 553d 96b7 403e
000002b0: 46dd fcbd 7c1c 01be e0cd 55be 741a 563e
000002c0: 984a 983b 2c8f 203e bf90 383e b678 783e
000002d0: 6c2e 6bbe 5cf7 1dbe 99b7 3abe 0925 f5bd
000002e0: 8bc8 00be fbf6 fa3c d4d3 3ebe 43da 4dbe
000002f0: feb0 13be c37e f73d e7a3 f0bd d375 34be
00000300: 7308 493e 1a9e 40be aab3 233e fa05 263e
00000310: 272e 0ebe e8f4 62be 13dd 70be a731 343e
00000320: 7d53 3bbe 8345 743e c1b8 303e d499 223e
00000330: e4be 4f3d e362 f5bd ffbe 5a3e d774 323e
00000340: d7bb e5bd ab54 893c bec7 22be af81 5abe
00000350: 0f19 553e 1f8b 97bd 08c9 6b3e 1999 24be
00000360: 92c4 733e 196b 093b a00a 1a3e a53a 72be
00000370: 07bd 2ebe 6b0b 37be 34f1 aabd 44e2 26be
00000380: ba80 6f3e b52f 303e 46d7 373e 3717 debd
00000390: 4da6 6dbe caac 143e f199 2dbe a096 5bbe
000003a0: 0caa 25be 47de 5f3e 140c 0bbe 2ab2 ecbd
000003b0: 39ee 513e 8d7a 4e3e c7dc dbbd e7c6 803e
000003c0: 1b53 2d3d 44df 84be 4f14 37be 39f5 f8bd
000003d0: c3cd ac3d b9c6 19be 0102 18be 1cab e53d
000003e0: 912c 483e 866a 1abe 736b f9bc 3a9b 1bbe
000003f0: 41ef 3ebe e963 123e 939f 56be ff96 0c3e
-0.15266453 0.0872258 -0.23172884 -0.20581873 0.1899895 0.24118169 0.16253059 -0.028258193
0.021009332 -0.2011548 -0.17863524 0.15573455 -0.059953853 0.18450761 -0.12412754 -0.1728038
-0.25128415 -0.18193178 0.21277745 0.22013529 -0.1621767 0.116630524 -0.070024796 0.1354075
-0.025219182 -0.09006679 -0.119478166 -0.14338957 0.09631747 0.10510675 -0.124033354 0.24155258
0.086093955 0.09636962 -0.052943435 -0.15678167 -0.23517786 -0.1387654 0.1493781 -0.11911294
-0.09482892 -0.10068222 0.16713405 -0.06397888 0.15557648 -0.2624695 0.20665453 0.09015513
0.07887574 -0.042466883 0.062688425 -0.12546259 0.01834897 0.15781398 0.065914735 -0.19186841
-0.21380718 0.15034565 -0.22836614 -0.23367646 0.15827562 0.07116776 -0.004241606 0.16954692
-0.0356077 -0.021997591 0.025855197 -0.14701197 0.20880641 -0.23953044 0.16183521 0.18616329
-0.051140975 0.10023233 0.13031316 -0.15022106 -0.09869906 -0.23468587 0.19013943 -0.14532557
0.18514135 -0.20254152 -0.06155085 -0.18126895 -0.11417248 0.00585165 -0.18835828 -0.21939689
0.13298121 -0.23745447 0.21524638 0.19530046 0.17421769 -0.20028386 0.16737142 0.14939564
-0.1304872 -0.19806923 0.005594574 0.16253226 0.17837131 0.13623528 0.11444524 0.15180592
0.2024314 0.14141004 0.15037747 -0.21184841 0.10594504 0.19663842 0.04940967 -0.25350952
0.0733971 -0.16416018 0.13998522 -0.02206381 -0.04602356 0.13958365 -0.09151401 0.14599502
-0.07905645 0.21268192 0.13993178 0.18766133 0.1563108 -0.03203415 -0.19479434 0.22188252
-0.16009519 -0.15759324 -0.14295886 -0.24364634 -0.15132205 0.06544278 -0.12521255 -0.13693282
-0.19001418 0.23512264 0.18367407 0.17390522 0.231126 -0.107278295 0.09745731 0.05892341
-0.20333773 -0.08704373 0.11633982 -0.1237427 0.1318534 -0.11124368 -0.09928538 -0.19807999
-0.033695918 0.0069800946 -0.16366825 0.19644663 0.13940787 -0.18716376 -0.084797904 0.0036330794
0.011319721 -0.20107915 0.06600228 -0.05085076 -0.021319548 0.24549869 -0.08353741 0.07964021
-0.24117017 0.23166099 0.052125383 0.18820032 -0.12346892 -0.12608522 -0.20879316 0.20908529
0.004647564 0.15679616 0.18023966 0.24264798 -0.22966927 -0.15426391 -0.182341 -0.119699545
-0.12576501 0.030635348 -0.18635494 -0.20102791 -0.14422986 0.12084725 -0.11750012 -0.17623071
0.1963213 -0.18810311 0.15986505 0.16213217 -0.13884793 -0.22163737 -0.23521833 0.17597066
-0.18293567 0.23854642 0.17257978 0.15878993 0.050719157 -0.11981752 0.21361922 0.17427383
-0.11217468 0.016764006 -0.15896508 -0.21338533 0.2081034 -0.07399582 0.23025906 -0.16074027
0.23805454 0.0020968376 0.15043116 -0.23655184 -0.17064296 -0.1787545 -0.08346787 -0.16297251
0.23388949 0.17205699 0.17953214 -0.10844272 -0.2320797 0.14519039 -0.16953255 -0.21444178
-0.16178149 0.21862136 -0.13578826 -0.115574196 0.20501031 0.20163937 -0.10735469 0.2515175
0.042315584 -0.25951588 -0.17878841 -0.121561475 0.084376834 -0.15017213 -0.14844514 0.11214277
0.1954825 -0.15079698 -0.030446744 -0.15195933 -0.18645956 0.14295925 -0.2095931 0.13729475

fc5.weight f4 [403, 256]
00000000: bfb8 2dbd 17b2 243c 53ac 2bbc 0cfa 813c
00000010: f998 5f3d 1fd7 0bbd cfc7 b0bc 8fde dc3c
00000020: 2d8f 813c e6be ef3c 5d46 8f3c bb7e 8cbc
00000030: 5807 ba3c a9b1 17bd 17c6 b2bb 1141 a13b
00000040: 66bd 97b9 b92c 0bbc 236c 78bc a14c 8fbc
00000050: 3b48 a43c c21b 3f3c 640f 02bd 405d fd3c
00000060: 333c 5b3d d1f9 d53c de5d a4bc 806b 43ba
00000070: cd72 7bbc fcd0 913d 7abf ee3c 8021 b2bb
00000080: 21f2 00bd 6406 e9bb 7807 aeba c9fb 83bc
00000090: 1029 e5bc c62d e6bc 623f 75bc 9bd4 0ebd
000000a0: 692a 4bbb 6e9a e9bc ef58 23bb b1df 7cbb
000000b0: 8688 51bc 69b1 403d 009d 3abd 3e5a 873d
000000c0: 79bd 50bd 0fa1 193c f827 eb3c a920 853d
000000d0: 91ee e0bb a84a d33b 7e91 223c 4fb3 24bc
000000e0: b8bd f9bc 4e2c e6bc 9b21 c8bc d9c9 92bb
000000f0: 398c d23c ec70 8bbc 174c 88bc b7e8 4e3c
00000100: c665 aabb 1d16 d6b9 9f10 fa3b 1923 b0bc
00000110: ff8c 6fbc 3678 bbbc 01e9 943c e60e 023d
00000120: 5552 29bd 2a6c 0a3d b9f0 7dbc c6d2 343d
00000130: 6a46 46bd db1f 78bc bc6a 1ebd 71b1 0ebc
00000140: 803c bfbc 2c6e 5bbc ce16 673c f1b2 cabc
00000150: 2c8a 9cbc 56af 39bd 2fd8 c1bc 74c2 753d
00000160: 8d97 9b3b 9563 193d 200f f43c 64ce 923b
00000170: 7729 9dbc 1b96 ddbc ff9c 5dbc 6063 bdbc
00000180: c0b2 8ebc dab6 18bd faeb e83c ef61 03bd
00000190: 5fcb 97bb 321a e9bc 44b9 4fbc b15e 6dbc
000001a0: 612b 953c 9359 f7bc aae7 523d 8782 643b
000001b0: 34cd fdbb adab 73bd bff1 2ebd 5cc6 1a3d
000001c0: 46f8 04bd ddce 733c 0999 6abd 789f afbb
000001d0: c80a 38bc 1423 773b efc3 453c b106 b43c
000001e0: edca 92bb f087 2dbc ad27 02bd 07ac 09bc
000001f0: 0cbc 18bb 16b8 443c 7b3c 263c 1973 a13c
00000200: 92e1 04bd 61ab 28bd c19c 4fbc a0ab 163d
00000210: b4ab 163d 46f0 903c 18e7 003d a3c4 1fbd
00000220: 7a13 1f3d d94f f6bc 542b 45bd f434 8c3c
00000230: e118 66bb d1a9 613d 23d1 eabc 3787 fbbc
00000240: 61e6 cfbb c860 29bb e9b5 4ebd ac70 c23c
00000250: cd51 c53c 7018 513b e3eb 08bd 50e4 643c
00000260: d15d 913c 51f4 ccbc 1f52 393d ec60 aebc
00000270: 4d8e 2a3d 2098 8abc 85eb 573c 2b14 3fbc
00000280: 682b 153d 6b60 d73c 37b1 05bd dfe6 523d
00000290: f95b 88bc a9c2 69bd 7fd6 2e3d a13f 093d
000002a0: f69c fdbc f54c c63c 739a 843c f557 c9bc
000002b0: f5d9 ba3c 1cdc 183d 045a 0abd 90f2 adbc
000002c0: c744 5bba 9a5e 8dbc a970 39bd 1984 0f3c
000002d0: 0464 463c 8766 983c 7796 bdbc f4b0 c63b
000002e0: 3e94 73bb a2ca e13c 6e73 3d3d c4d3 a2bc
000002f0: af7d 5f3d 9bb8 3bbd 6b9c ea3a d7ba a63c
00000300: 83f1 1dbd 96e2 113d 8052 2ebd 25bd 48bd
00000310: 57dd 303d e807 123d f92c 683c 0e08 3dbd
00000320: 7755 1d3c 44d2 1ebd 4e8c f6bc d40d c6bc
00000330: ed7a e1b9 6b5c 45bd 50ae a1bc 3b94 b0bb
00000340: f340 d83b 4e5b 1f3d a799 2abd 0de1 18bc
00000350: a044 62bd 8d5b 63bd 5c8d 793b 868a f8bc
00000360: 4e97 e7bc 79bd 833d 3e92 a5bc 660b 983d
00000370: 13b4 0a3c d65c c1bc 3537 98bc 4fd0 fcbb
00000380: a09b 7cbd 9db8 c7bc 4769 c6bc 8938 153d
00000390: d294 4a3d 8aab dabc 05d8 aa3c 79ee 4a3d
000003a0: da2c f3bc a8d0 f9bb 23e3 45bc 1142 74bc
000003b0: f1ee 223c 2ab2 403d 65d7 cabc e94a e63a
000003c0: 12d2 3ab9 118b 46bb 1aca 43bd fa8e 0cbc
000003d0: 8ed8 673c 8ceb c13c bfe7 07bc 30e9 d73b
000003e0: 03b5 3ebc 5bb8 d9bb 2572 153d e55d eebb
000003f0: 8c42 ffbc 5a1f 1abd 3c31 bfbc 7d61 95bc
-0.042412516 0.010052226 -0.010478097 0.015866302 0.054589245 -0.034140702 -0.021579651 0.026961593
0.015815342 0.029265832 0.017489607 -0.017150274 0.02270858 -0.037034664 -0.005455743 0.0049210866
-0.00028942077 -0.008494549 -0.015162501 -0.017492594 0.020053973 0.011664333 -0.03175296 0.030928254
0.053524207 0.026120098 -0.02006429 -0.00074546784 -0.015347195 0.07119939 0.029144038 -0.0054361224
-0.031480912 -0.0071113575 -0.0013277372 -0.016111271 -0.027973682 -0.028097998 -0.014968725 -0.034870725
-0.003100062 -0.02851602 -0.0024924835 -0.003858548 -0.012788897 0.04704419 -0.045559883 0.06609009
-0.050961945 0.009376778 0.028705582 0.0650037 -0.006864377 0.0064481087 0.009922383 -0.010052516
-0.030485973 -0.028097298 -0.024430087 -0.0044796285 0.025701629 -0.017021619 -0.016637845 0.012628726
-0.0052001206 -0.00040833736 0.007631376 -0.02150111 -0.014621018 -0.02288447 0.018177511 0.03175249
-0.041338284 0.03379456 -0.015499287 0.04414632 -0.048406996 -0.015144314 -0.03867601 -0.0087092975
-0.023344278 -0.013392966 0.014104558 -0.024743529 -0.019108854 -0.04533323 -0.023662655 0.059999898
0.004748291 0.037448484 0.029792368 0.00448017 -0.019184811 -0.027049115 -0.0135262 -0.023118675
-0.017419219 -0.037283756 0.028432835 -0.03207582 -0.004632398 -0.028454874 -0.012678448 -0.014487908
0.018209161 -0.03019408 0.051490463 0.003486784 -0.0077454094 -0.059489895 -0.042711016 0.037786826
-0.032463335 0.014880863 -0.057274852 -0.0053595863 -0.011233039 0.0037710117 0.01207064 0.021975847
-0.004479757 -0.010591492 -0.03177612 -0.008402831 -0.0023305444 0.01200678 0.010146256 0.019708203
-0.032441683 -0.041179065 -0.01267165 0.036784768 0.036784843 0.017692696 0.03147039 -0.039005887
0.038836934 -0.030067371 -0.048137024 0.017115094 -0.0035110044 0.05509359 -0.028664177 -0.030704124
-0.006344602 -0.002584504 -0.05046645 0.023735367 0.024086857 0.0031905435 -0.033428084 0.01397045
0.01774493 -0.025018843 0.045244332 -0.02128645 0.041639615 -0.016918242 0.013178711 -0.011662523
0.03641835 0.026291093 -0.03263971 0.051489707 -0.016645418 -0.057070408 0.04268503 0.033507947
-0.030958634 0.024206618 0.016186928 -0.024578074 0.022809008 0.037319288 -0.03377725 -0.021233827
-0.00083644356 -0.017257024 -0.045273457 0.008759522 0.0121088065 0.018603576 -0.023143036 0.006063575
-0.0037167217 0.027562443 0.04625266 -0.019876368 0.05456322 -0.04583035 0.0017899399 0.020352764
-0.0385604 0.03561648 -0.042559147 -0.049008507 0.043179836 0.03565207 0.014170879 -0.04615026
0.009602896 -0.038774744 -0.0300962 -0.024176516 -0.0004300693 -0.04818384 -0.019736439 -0.005388764
0.0065995394 0.038905434 -0.04165044 -0.009331 -0.055241227 -0.05550723 0.0038078642 -0.03033949
-0.02827039 0.064326234 -0.020211335 0.07424049 0.008465785 -0.023603838 -0.018581012 -0.007715262
-0.061671853 -0.024380023 -0.024220122 0.03643087 0.049458332 -0.026693124 0.02085496 0.04954383
-0.029684473 -0.0076237507 -0.012078079 -0.01490833 0.009944663 0.04704491 -0.024760911 0.0017569932
-0.000178166 -0.0030295292 -0.04780016 -0.00857901 0.014150752 0.023671888 -0.008294999 0.0065890774
-0.011639836 -0.0066442913 0.03648581 -0.0072743767 -0.031159662 -0.037627555 -0.023338906 -0.018234963
