customized/model/trained_model/vae/vae_z_20batch_64.pth (torch, 894046 bytes, 10 tensors)

fc1.weight f4 [256, 403]
000000 fe c8 2e 3c 05 90 b3 3c 91 fe 3a 3d 5c cf 92 3b
       0.010668037 0.02191926 0.04565293 0.0044802856
000010 fc 48 01 bd f4 43 36 bd 58 39 10 bd ee 1a c4 bc
       -0.031563744 -0.0444984 -0.035210937 -0.023938622
000020 11 f8 0d 3d 60 5c 27 3d 99 08 10 bd bb 5e a8 3b
       0.034660403 0.04085958 -0.03516445 0.005138246
000030 ce 9a a2 bc ca 16 90 3b a1 04 a5 bc 31 e8 86 3c
       -0.019849207 0.004397248 -0.020143809 0.01646814
000040 6f 2c 4d bd 20 26 18 bd 02 79 90 bc 1a 17 2a 3d
       -0.050091203 -0.037145734 -0.017635826 0.041525938
000050 95 f2 ef bb 69 36 25 3d bc f2 43 3d d8 29 83 bc
       -0.007322619 0.040335093 0.04783891 -0.016011164
000060 e3 0a 23 bd 8c 50 93 bc df a1 34 bc 57 1d 1f bd
       -0.039805304 -0.017982744 -0.011024921 -0.03884634
000070 69 3d d6 3c 37 2a 35 3d 38 04 e3 3c 6e f0 09 3d
       0.02615233 0.044229712 0.027711973 0.033676557
000080 eb 8a 1f 3d 16 94 e8 3a f1 f1 83 3c 72 55 90 bc
       0.038950842 0.0017744328 0.016106578 -0.017618868
000090 28 ac ca 3c ff 86 81 3b 23 f1 08 3d c3 f7 22 3c
       0.024740294 0.0039528604 0.03343309 0.009946766
0000a0 16 17 1c 3d 4c d9 9e 3c d8 9b 15 3d 5f 99 b0 bc
       0.038107954 0.019390725 0.036525577 -0.021557508
0000b0 c9 60 0e 3d 8e 99 55 bb 6e 84 8f bc fd c5 10 3d
       0.03476027 -0.0032592746 -0.017519202 0.035345066
0000c0 0f 91 25 3d b4 5b 1c 3d 7b 20 01 3d e5 b0 b0 bb
       0.04042154 0.038173392 0.031525116 -0.005392181
0000d0 7d 8c 55 3d 16 a1 15 3d f5 ea 40 bd 1c f5 1a bd
       0.052135933 0.036530577 -0.047099072 -0.03783141
0000e0 9f 27 03 bc 8c 98 35 bd 5c 0c 1a 3d 88 f3 09 3d
       -0.008005052 -0.044334933 0.037609443 0.033679515
0000f0 2f d7 18 bd 5e b5 dc 3c 9e 6d 88 bc d1 4c cb bb
       -0.03731459 0.026941951 -0.016653832 -0.0062042256
000100 77 72 2c bd 7a a8 9c 3b 90 11 40 3d e0 66 97 39
       -0.04210135 0.004780826 0.04689175 0.00028877612
000110 43 b5 05 3d f8 73 58 3c b4 82 91 3c d6 f1 18 3d
       0.032643568 0.013211243 0.01776252 0.037340008
000120 0e 68 4e bd 2f 3a 51 bd c1 4c d2 bc ac 4b 27 3d
       -0.050392203 -0.05108088 -0.025671365 0.04084365
000130 39 d1 a3 bb 07 49 fc bc 19 15 c5 3c 8a 33 05 3c
       -0.0049993065 -0.03079654 0.024057912 0.008129964
000140 1a 81 8d bc 3f e9 f5 3c 94 63 df bc db d1 1b bd
       -0.017273474 0.030018447 -0.027269162 -0.03804193
000150 ab 35 3a 3d da c2 13 3d 5f cf f5 bc 33 8b 2a bd
       0.045461338 0.036074497 -0.030006109 -0.041636657
000160 51 ac 2f bd ff 08 50 bd 23 0e 90 bc f9 bd 79 3c
       -0.042888943 -0.05078983 -0.017584866 0.015243047
000170 3f 5e cb 3c 31 01 d7 3c 96 e3 2e 3d ce f0 0e bc
       0.024825213 0.026245685 0.04269751 -0.0087244045
000180 72 fd de 3c 81 8a 05 3d 5e 20 91 bc 92 34 61 bc
       0.027220462 0.03260279 -0.01771563 -0.013745444
000190 b3 d6 3b bd 77 af 99 bd c4 d3 bb bc 9d 04 0e 3d
       -0.04585905 -0.075041704 -0.022928126 0.03467237
0001a0 e6 80 19 3d fc 7a 25 3d 6a ac 24 3d 2d fc 77 3c
       0.037476443 0.04040049 0.04020349 0.015135807
0001b0 c8 04 32 3d f3 ae 1d bd cd 5c ab 3b 57 64 a3 bb
       0.04346159 -0.038496923 0.0052295686 -0.0049863267
0001c0 38 55 17 bc f9 b9 56 3c 53 66 18 bd 26 44 2b bd
       -0.009236626 0.013105863 -0.03720696 -0.04181304
0001d0 7c a7 dd 3b 19 ac d5 bc 4c f0 80 3c dc 8c b9 bc
       0.0067643505 -0.02608304 0.015739582 -0.022650175
0001e0 cc 20 85 3c 31 36 33 bd 1a 68 06 3d d0 11 e7 bc
       0.01625099 -0.043752853 0.032814123 -0.028206736
0001f0 0b 5a ed 3c 58 06 dd bb 81 53 74 bc e6 8b ca 3c
       0.0289736 -0.006745141 -0.014912487 0.024724912
000200 b3 80 2a 3d bb 1e 15 bc f8 39 a7 3c d1 f1 0a bc
       0.041626643 -0.009101565 0.020413384 -0.008480505
000210 8e de f8 bc 79 a0 ab 3c 55 38 e9 b9 be 9a 84 bb
       -0.03037956 0.020950543 -0.00044483194 -0.004046767
000220 61 0e e6 bc b3 5b 0a 3d 6b ca 08 3d 9b 1d b6 3c
       -0.028083028 0.033778857 0.033396166 0.022230914
000230 e4 22 cc 3c 62 da 3b 3d 98 d7 2f bb 24 17 f6 bc
       0.02491898 0.045862563 -0.0026831385 -0.030040331
000240 2c 2e c3 3c 45 54 4e 3d e9 c5 81 3c 69 92 d1 bc
       0.023825727 0.050373334 0.015841441 -0.02558251
000250 22 e4 38 3d ff 78 47 3d cf 77 0c 3c e9 c8 8c 3c
       0.04513944 0.048699375 0.0085734865 0.017185645
000260 00 0f 0a 3d 87 c8 12 b8 23 ac 12 3d 3d ff 2e bd
       0.03370571 -3.499587e-05 0.035808694 -0.042723883
000270 bb 27 d8 bc 96 4b 03 bd db db 4a 3d 61 e7 48 bd
       -0.026386132 -0.032054506 0.049526077 -0.049048785
000280 8d 60 0d 3d b4 fc 09 bd dc f2 8d 3c 39 95 01 bd
       0.034515906 -0.033688262 0.017327718 -0.03163645
000290 c3 95 27 3d b4 e4 bc bc 80 9b 3a bd 3b 8e 40 bd
       0.04091431 -0.023058273 -0.045558453 -0.04701064
0002a0 69 1e a1 bc 25 a7 35 3c 82 e3 15 bc da 69 4d bc
       -0.019667821 0.011087214 -0.00914848 -0.012537444
0002b0 41 68 6d 3b 6c 93 f1 3c 84 b6 4b 3c e1 88 37 3b
       0.003622547 0.029489242 0.012433652 0.002800517
0002c0 a1 8a 24 bd 45 98 6d bc 1a f3 ae bc 24 a1 d3 ba
       -0.04017127 -0.014501636 -0.021356154 -0.0016146046
0002d0 d0 65 af 3c 5a cd 0e bd eb 81 ef bc 3d 35 f7 bc
       0.021410853 -0.034863807 -0.029236754 -0.030176753
0002e0 44 ee a2 bc fd 9e b2 bc 70 e6 36 3c 02 61 d3 bc
       -0.019889005 -0.021804327 0.011163339 -0.025803093
0002f0 fc 82 38 bd d4 8d 7a 3c 42 48 54 bd 15 97 36 3d
       -0.04504679 0.0152926035 -0.051826723 0.044577677
000300 11 66 1d 3d e6 df 13 3d 90 2e d1 3b 4e c2 ac 3b
       0.038427416 0.036102198 0.0063837245 0.0052721864
000310 bb 43 dd bc 79 0f a9 bc fd ae d7 bc e4 55 78 bb
       -0.027009835 -0.02063726 -0.026328558 -0.0037892992
000320 67 58 96 bc a4 ab 5a bb 2f c0 1d bd 4a 65 15 bd
       -0.0183527 -0.0033366466 -0.03851336 -0.03647355
000330 59 a2 2c 3d 88 82 52 bd e0 27 8a bc 49 61 fb 3c
       0.042147014 -0.051394016 -0.016864717 0.030686038
000340 01 5a 2d 3d b3 ef 06 3d 3c 73 d2 bc 56 52 1e 3d
       0.042322163 0.03294344 -0.025689714 0.03865274
000350 6e ef 2a 3d f3 4b 4e 3d 35 a0 95 bb 63 ac 58 bc
       0.041732244 0.0503654 -0.0045662173 -0.013224694
000360 cd e5 74 bb f2 5a fe bc 32 38 43 3d 68 70 e0 bc
       -0.0037368417 -0.031049225 0.047661014 -0.02739735
000370 3e 7c da 3c 78 fc 23 3d 79 89 2b 3d 45 21 53 3d
       0.026670571 0.040035695 0.04187915 0.0515454
000380 bc d2 1e bd fb dc f3 bb 73 89 82 3c e4 8b 0f bc
       -0.03877519 -0.0074421144 0.015934682 -0.00876138
000390 e2 62 7a 3b bc 04 1e bd ab d5 dd bc 75 4a 1d 3d
       0.0038205911 -0.038578734 -0.027079424 0.038401086
0003a0 89 cd 0a 3d a3 3a 03 3d ba 60 59 3c 9a 07 0c bd
       0.03388742 0.032038342 0.01326769 -0.034186937
0003b0 cc ae 77 3a 33 cc 10 bc cb 75 60 3d 97 a4 f0 b9
       0.0009448349 -0.008837747 0.054799836 -0.00045898996
0003c0 a0 19 59 bd 00 93 a1 3c 24 d0 38 bd 1c f0 34 bb
       -0.053002954 0.019723415 -0.045120373 -0.0027608937
0003d0 8d 1d 43 3c 3a 38 25 3d e4 72 b7 bc 90 9a 9b 3c
       0.011908901 0.040336825 -0.022393651 0.0189946
0003e0 d8 41 02 3c 63 2f 3d 3d ac 3a 9c bc 3c f5 ba 3c
       0.007950269 0.04618777 -0.019070946 0.022822015
0003f0 4f 7b 34 3d 16 f6 bb bc 65 e7 03 3d 76 43 ad bc
       0.04406291 -0.022944491 0.032203097 -0.021150332

fc1.bias f4 [256]
000000 f3 d7 e0 bc 22 03 f8 3c d0 f9 07 3d 3a c0 67 3c
       -0.027446723 0.030274931 0.033197224 0.0141449515
000010 6a da 44 bc 3a 9a 24 bd 87 8c 50 3c 6f 05 b9 bc
       -0.012014965 -0.040186144 0.012728817 -0.022585599
000020 f9 2c e2 3a 26 50 4b bd 46 0c 7a 3a 57 a3 96 3c
       0.0017255835 -0.049636982 0.0009538572 0.018388433
000030 30 cb f2 bc 1d d6 09 bd f1 ca 7c bc f1 82 c2 3c
       -0.029637903 -0.03365146 -0.015429244 0.023744078
000040 40 e4 d8 bc 40 a0 92 3c 88 ae ab bc 34 c2 94 bb
       -0.026476026 0.017898679 -0.020957246 -0.0045397524
000050 78 bf 12 bd 82 ba ff bc d2 1b 00 bd 8c 0f b5 bc
       -0.03582713 -0.031216864 -0.03127653 -0.02210214
000060 85 d7 2b bd 36 99 8c bc 29 f6 b4 bb 15 d3 8f bc
       -0.041953582 -0.0171629 -0.0055225086 -0.017556706
000070 88 61 07 bd bb aa 20 bd d0 6d 17 bd 81 4e 21 3c
       -0.033051997 -0.03922532 -0.03696996 0.009845377
000080 ad 47 e5 bc bd 1a 14 3d 6c 9b 40 bd 33 6f 7e 3c
       -0.02798828 0.036158312 -0.04702322 0.015529442
000090 15 67 96 3c a7 32 be 3c 04 de 12 3d b9 99 56 3c
       0.0183597 0.023217512 0.03585626 0.013098174
0000a0 08 83 cc 3c cd a5 fb 3b 41 92 ab bc b2 28 d5 bc
       0.024964824 0.007679677 -0.020943763 -0.026020382
0000b0 19 25 05 bd bf c5 3b bd a5 ba 11 3d dd 9a 09 3d
       -0.032506082 -0.045842882 0.03557839 0.033594955
0000c0 80 95 33 bd f7 67 a3 b8 e5 03 18 3d d9 d7 9e 3c
       -0.043843746 -7.791811e-05 0.03711309 0.019390034
0000d0 bc c6 01 3b f9 6d 8f 3c 15 2c 3d bd 5a 95 8c 3c
       0.0019802293 0.017508494 -0.046184618 0.01716106
0000e0 3d 64 d6 bc 6f cf 44 3b d3 11 61 bd 39 0b 00 3d
       -0.026170844 0.0030030867 -0.05494864 0.031260703
0000f0 4a c7 68 bd f3 b3 a6 ba ba 12 6f 3c e6 a8 b5 3c
       -0.05683068 -0.0012718424 0.014591867 0.022175264
000100 d0 d6 20 3d a7 85 cf bc fb 40 b3 bc 8a 0e b7 3c
       0.03926736 -0.025332285 -0.021881571 0.0223458
000110 6b b9 e9 bb 0a 6b fb bc 72 d6 1b bd e5 ba 0d bd
       -0.0071326992 -0.030690689 -0.038046308 -0.034602065
000120 8c c6 b1 bc 31 7e cd 3c ed 5a b0 3c f5 af 38 bd
       -0.02170112 0.025084587 0.021527732 -0.04508968
000130 10 b9 80 3c 16 c0 0d bd 43 5a 97 bc f8 48 aa bc
       0.015713245 -0.034607016 -0.018475657 -0.020786747
000140 ad 51 3b bd 31 b3 3a bd e2 36 0d 3c 5d 9d ba 3b
       -0.04573219 -0.045581046 0.008619042 0.0056950287
000150 c9 34 e0 bc ff e4 b2 3c 8b ce 21 3d 10 ef 6f bd
       -0.02736892 0.02183771 0.039503615 -0.058577597
000160 fb e7 87 bb b8 34 8c bb 57 10 37 3c 04 76 23 3b
       -0.0041475273 -0.0042787455 0.011173329 0.002494217
000170 6a 10 4c bd 9b 4e 25 bc ed 03 35 bc f3 22 b3 3c
       -0.04982034 -0.010089542 -0.011048299 0.021867251
000180 a1 d7 5e bc 9a a8 2f bd 0c a6 47 bb 7e 9a 1e bd
       -0.013601215 -0.0428854 -0.0030463962 -0.038721554
000190 2a 11 51 bd 41 ed 0c bd 22 47 56 bd 76 2e 6e bd
       -0.05104176 -0.03440595 -0.05231393 -0.058149777
0001a0 b5 59 08 bd 00 cc 29 bd 23 56 40 bc a8 91 17 3c
       -0.033288676 -0.041454315 -0.011739287 0.009251036
0001b0 db 3a 0b 3a f8 13 23 bd da 1d 2f 3c d1 d1 05 bd
       0.00053111993 -0.039813966 0.0106882695 -0.0326708
0001c0 40 d5 b3 bc 7b ef 95 bc a3 0d 9b bb b9 ac 12 3d
       -0.021952271 -0.01830267 -0.0047318502 0.035809252
0001d0 f1 27 58 bd 00 b5 09 3d e1 9b 49 bd 64 98 a7 3c
       -0.052772466 0.03361988 -0.049220923 0.020458408
0001e0 3f 99 31 bd 12 7a 11 bd 93 17 30 bd cb 67 a8 bc
       -0.043359037 -0.035516806 -0.042991232 -0.020557305
0001f0 80 08 7c bc bd 02 34 3c 8a 9e 2a 3b c9 5a 05 bd
       -0.015382886 0.010986981 0.0026034438 -0.032557283
000200 e7 71 01 3d f0 c4 02 3d 57 73 ae 3c 52 8a 71 bc
       0.031602766 0.031926095 0.021295233 -0.014742451
000210 99 91 14 bd 85 e9 3c bd 49 51 57 3c 91 87 62 bd
       -0.036271665 -0.04612114 0.0131419385 -0.055305067
000220 ea d4 8e 3b c7 6d 30 bc 97 29 7a 3c 15 d9 27 3d
       0.0043588774 -0.01076836 0.015268705 0.04097851
000230 ee f0 6c 3c 5d 06 89 bb 4c 5b b7 3c ea e1 2d bd
       0.014461739 -0.0041816668 0.0223824 -0.042451777
000240 81 a3 2b 3b b3 41 97 bc b7 64 09 3d 34 b6 22 3d
       0.0026189985 -0.018463945 0.033543315 0.039724544
000250 63 1a 41 3b 24 60 6d 3c b9 bf 4d 3c 67 aa 2f bd
       0.002946519 0.014488254 0.012557917 -0.042887118
000260 6a 0a 3c bc b9 fc da bc 40 4a 0c 3c 40 4d c2 3b
       -0.011477092 -0.026731836 0.008562624 0.005929619
000270 9f f8 02 bd 03 47 8e bc c7 3f 42 bc e0 27 57 bb
       -0.031975385 -0.017367845 -0.011856026 -0.0032830164
000280 e4 41 13 3d 2a d6 dc 3b 55 8c b6 bc 5f 1f 99 3b
       0.03595151 0.0067393975 -0.022283712 0.004672929
000290 0e bb 54 bd bd 67 22 3b 48 bf f6 bc 15 72 99 3c
       -0.0519362 0.002478107 -0.030120507 0.018731156
0002a0 b9 d6 e8 3c 17 c4 87 bc cb de 45 3c 10 e6 5e bd
       0.0284227 -0.016572995 0.012077044 -0.054418623
0002b0 24 5b cb 3c a5 e6 25 3d f2 c7 36 bd 51 b3 95 3c
       0.024823733 0.040503163 -0.044624276 0.018273981
0002c0 78 98 fa 3c 95 92 13 bc 76 c4 1f bd cd 3d d2 3c
       0.03059028 -0.009007116 -0.03900572 0.025664235
0002d0 3e 4b 04 3c 46 f9 ce bc 52 48 c4 3c 91 51 0a 3d
       0.00807458 -0.025265347 0.023960266 0.033769194
0002e0 f9 ae 98 bc 28 65 c2 bc 96 03 9f 3c b8 ce 88 bc
       -0.018638121 -0.023729876 0.01941089 -0.016700134
0002f0 71 96 05 bd 6f fe d9 3c b4 5c 08 3d 3d bc 5d bd
       -0.032614175 0.026610581 0.033291534 -0.054134596
000300 d4 cc 3c bd 6c 87 ad 3b 70 2f 5a bc 4a 6e a5 3c
       -0.046093777 0.0052956846 -0.013316974 0.020194191
000310 01 fc 04 3d a2 d3 4f bd 2f 23 05 3b 96 08 16 bd
       0.032466892 -0.05073894 0.002031516 -0.036629282
000320 d7 46 4b bc 41 dc f9 bc 72 70 d6 3c 7a 7e b6 bc
       -0.012407026 -0.030500533 0.026176665 -0.022277106
000330 5b 7f af 38 6b c5 40 bd 5d ba 9a bc 4f d1 35 bd
       8.368372e-05 -0.047063272 -0.018887693 -0.044389065
000340 43 80 1c bd 5a e3 80 bd 62 37 19 3c 69 f8 21 3d
       -0.038208257 -0.06293364 0.009351583 0.039543543
000350 54 ed 26 3d a5 b3 2b bd e4 5f e7 bb 87 4e 60 bc
       0.040753677 -0.04191937 -0.0070609916 -0.013690597
000360 6e 84 86 bc c1 45 34 bd 27 ee 15 3c 13 ed a4 3c
       -0.01642057 -0.044011835 0.009151018 0.020132577
000370 9d 0b 8a bc 6e 2b 66 bd 32 d9 1f bd 2b 6f eb bc
       -0.01685124 -0.05619376 -0.039025493 -0.028739532
000380 64 98 34 bd b3 95 8d bc cf a5 08 3d af 6a 16 bd
       -0.044090644 -0.017283296 0.033361252 -0.036722835
000390 84 00 ae bc 5f a4 90 3b 01 cb b6 bb 75 1a b3 b9
       -0.02124048 0.004414126 -0.005578399 -0.00034161253
0003a0 fc 17 07 bd 3d e1 6c 3b 99 8f e6 bc 57 a4 56 39
       -0.032981858 0.0036144995 -0.028144645 0.00020469852
0003b0 79 79 bc 3c 3e 58 00 bd 92 5c a9 bc cf c3 a9 3b
       0.023007141 -0.031334154 -0.020674024 0.005180813
0003c0 f7 08 1b 3d 69 9e 28 bd c5 06 0a 3c 80 b4 00 bd
       0.037850346 -0.041166697 0.008424466 -0.03142214
0003d0 42 a1 7e bb 63 04 dc bc 51 9d 80 3c 94 5f 87 bc
       -0.0038853441 -0.02685756 0.015700014 -0.016525067
0003e0 fb 27 61 bd 27 bc 04 3d 32 c5 72 bc 8d 9a 06 bd
       -0.05496977 0.032406 -0.014817523 -0.032862235
0003f0 52 33 0f 3d d0 96 25 bc dd e4 04 3d e9 44 5e bd
       0.034961052 -0.010106757 0.032444824 -0.054264937

fc2.weight f4 [20, 256]
000000 1b d7 b1 3c cb 82 dd 3b 3a c4 27 bd cd 38 76 bc
       0.021709016 0.0067599765 -0.04095862 -0.015028191
000010 fa 1a 3c 3d c0 95 7a 3c 02 63 22 bb 7b 80 34 ba
       0.045924164 0.015294492 -0.0024778252 -0.00068856
000020 ae 3b 5c bd d6 84 00 bb d4 a6 fc 3c 23 ff 32 3d
       -0.053767852 -0.0019610426 0.030841269 0.04370035
000030 b2 9e 1b 3d 58 dd 56 bd a2 57 24 bd 21 46 1c 3b
       0.03799314 -0.052457184 -0.040122636 0.002384551
000040 44 cd 08 3d a6 62 73 3c ea 68 f1 bc 19 17 2c bc
       0.03339888 0.014855063 -0.029468972 -0.010503554
000050 b7 aa 0e bd ac 1f 0c 3d d7 9a f3 bb a1 cd 54 bd
       -0.034830775 0.034209892 -0.00743423 -0.051953916
000060 d9 82 b9 bc 29 14 a4 3c 0e 2f 23 bd 8a d8 76 bb
       -0.0226454 0.020029144 -0.039839797 -0.0037665688
000070 5e be 11 bd c3 62 b3 bc f4 e7 a3 bb 4a d2 d6 ba
       -0.03558194 -0.02189768 -0.005002016 -0.0016389575
000080 31 e5 4d bd ca 4f c8 3c 83 31 eb 3b 0e 14 9d 3c
       -0.050267402 0.024452109 0.007177533 0.019174602
000090 28 c1 a4 3b fa ae 22 bd 80 e2 46 bd fc cc 1a 3c
       0.005027909 -0.039717652 -0.04855585 0.009448286
0000a0 fe b0 75 bc e2 5d 43 3d a1 6b 17 3d 77 2f 1c bd
       -0.0149958115 0.047696956 0.036967877 -0.038131204
0000b0 ad 9a 45 bd a2 48 6d 3d 25 15 ee bb d7 a4 64 bd
       -0.048243213 0.057930596 -0.007265704 -0.055821266
0000c0 0c 13 07 bb 74 4d 63 3d ac 05 1c bc 01 64 02 3d
       -0.0020610718 0.055493787 -0.009522837 0.031833652
0000d0 58 09 4b 3d 29 5a 5b bd be 07 71 bc 5f 2d 7c bb
       0.049569458 -0.05355278 -0.014711319 -0.0038479192
0000e0 82 e2 61 ba 0e 40 10 bd 49 d2 49 bd 2c 89 33 bd
       -0.0008616821 -0.035217337 -0.04927281 -0.04383199
0000f0 34 7c 95 3c ef 5a c8 3a 6c fe b1 bc 5e b6 15 3d
       0.018247701 0.0015285889 -0.021727763 0.036550872
000100 d2 2a f7 3c df 4b ee 3b 83 af 16 3c 67 d9 16 bd
       0.030171786 0.007272228 0.009197119 -0.036828425
000110 94 f3 e2 3c 39 47 8f bc a4 79 f2 bc b4 c9 c8 bc
       0.027704038 -0.017490016 -0.029599018 -0.024510242
000120 e8 82 ad 3a cb 9f ce bc db 6a 26 bc 39 0e a9 bb
       0.0013237866 -0.02522268 -0.010157312 -0.005159166
000130 21 f8 eb bc d4 c4 0d bc 59 fd c4 bc fd af d2 3c
       -0.02880484 -0.0086528845 -0.024046587 0.025718683
000140 92 52 f6 bc 57 80 8f 3b 1b de a3 3c 19 04 44 bb
       -0.03006867 0.004379313 0.02000337 -0.002990967
000150 5f 3a 1a 3d f3 f5 4f 3d e8 cb fa bc 31 54 dc bc
       0.037653323 0.050771665 -0.030614808 -0.026895614
000160 a9 d1 8b bb f1 bb d0 3c 9f 39 9e bc b8 dc 4c 3d
       -0.004266937 0.025480242 -0.019314585 0.05001518
000170 45 9c 0a 3d 16 dd 03 bd 8b 5a f6 bc b8 95 5d bd
       0.033840436 -0.032193266 -0.030072471 -0.05409786
000180 2f 6b 0f 3d bd 12 1a bd 34 64 45 3d 85 6f 09 3d
       0.035014328 -0.037615526 0.048191264 0.03355362
000190 ee d7 b3 3c b5 3e f4 3a fa 2e 4f bd a4 c8 0a 3d
       0.02195355 0.0018634411 -0.05058191 0.033882752
0001a0 d2 47 e4 3c 7f 1d b6 3c 4e f8 73 bc bb 65 96 bb
       0.027866278 0.022230862 -0.014890743 -0.004589764
0001b0 c7 d6 1b bd b7 a9 38 3d a9 1d 87 3d 4e f9 52 39
       -0.038046625 0.045083728 0.06597454 0.00020120034
0001c0 8c 2b 58 3d 97 1d 5b ba 61 93 57 bd c7 25 29 bd
       0.052775905 -0.0008358596 -0.052630786 -0.041295793
0001d0 6f 3e 61 bc 53 03 08 3c a2 df 81 3b d7 bd d9 3c
       -0.0137477955 0.008301574 0.0039634267 0.02657978
0001e0 e4 83 36 bd 7a b0 97 bc 09 b3 de bc 6f 93 49 3d
       -0.044559374 -0.018516768 -0.02718498 0.04921287
0001f0 fb 11 26 bd 31 df a2 3c ab 04 26 3d 17 2e b6 3c
       -0.04054449 0.019881817 0.040531795 0.022238774
000200 2f 31 58 bc 0f 10 77 bc c1 a9 8e bc e2 38 fc bc
       -0.01319532 -0.015079512 -0.01741493 -0.030788843
000210 13 91 66 bd 52 f3 a8 3c 7a de 36 bc 9a 9e 83 3d
       -0.056290697 0.020623837 -0.011161441 0.06426735
000220 4c c0 80 3c e7 ac 19 bd 71 38 84 bc 4c 79 e2 3c
       0.015716694 -0.03751841 -0.016140195 0.02764573
000230 e6 2c 43 bd c3 98 a8 bb d6 de 20 bd 39 ff 2d 3d
       -0.04765024 -0.0051451637 -0.039275013 0.042479727
000240 3f 7d 40 3c ff 59 82 3c 99 7f 34 bd 7e 44 03 bd
       0.011748611 0.015912054 -0.044067 -0.03204774
000250 5d 9f 2e bc df d9 70 3c 68 9e db 3c e6 c4 ff bc
       -0.010658112 0.014700382 0.026808932 -0.031221818
000260 ad 63 55 bc e2 d1 b7 bc a7 10 3a 3c d0 2d 5b 3c
       -0.013024253 -0.022438947 0.011356509 0.013377622
000270 a0 33 cf bb ab 35 11 3d 18 0c 16 3d 6c 52 4e bc
       -0.006323293 0.035451572 0.036632627 -0.012592893
000280 71 67 89 3b 9a ed 31 3d 1b c4 ee 3c 6c 02 3e 3d
       0.0041932394 0.043439485 0.029146245 0.04638903
000290 dd f3 20 bd 79 33 6f bd db 4b 6e 3d ba c7 1f bc
       -0.039295066 -0.058398698 0.05817781 -0.009752208
0002a0 76 21 30 bd db 48 67 3b e9 fd 0b 3c fa 1e c1 3c
       -0.04300066 0.0035291228 0.008544424 0.023574341
0002b0 0a 85 7a bb 76 5a 2c 3d 90 5a 6a bd 61 5f 75 3c
       -0.003822627 0.042078458 -0.057215273 0.014976353
0002c0 21 20 17 bb d5 3c 9b 3b 23 d3 d2 3c d6 db cb 3b
       -0.0023059922 0.0047374764 0.025735443 0.006221275
0002d0 07 01 9f 3c f7 2b 4a 3c ae f4 74 bd 6b 08 3a 3d
       0.01940967 0.012339584 -0.059803657 0.045418184
0002e0 ad f6 40 bd 8a 43 6e bd 52 01 19 3d b8 d0 3b 3d
       -0.04711025 -0.05816988 0.037354775 0.045853347
0002f0 cc e4 c4 3c 8b c5 43 bd cd ef 5b 3d f5 69 f7 3c
       0.02403488 -0.047795814 0.05369549 0.030201891
000300 97 74 c7 3c fa 53 88 bc f3 08 d1 3a 9e ea ad bc
       0.024347587 -0.016641606 0.0015948102 -0.021230038
000310 58 b4 4c bd 7e 60 59 3d de 7e 08 3d 3d 99 ae 3c
       -0.049976677 0.053070538 0.033324115 0.021313304
000320 f1 2e b4 bc 21 fb 98 bb d8 1d 2d bd 87 12 b2 3c
       -0.02199504 -0.004668609 -0.04226479 0.02173735
000330 37 e1 b9 3a a0 44 54 3c db 19 36 bb 85 43 81 bd
       0.0014181499 0.012955815 -0.0027786407 -0.063117065
000340 2c 22 32 3d b9 40 32 3c d3 2f 4a 3d e6 f1 7d 3c
       0.04348962 0.010879689 0.049362015 0.015499568
000350 3f 8a 02 3c a8 77 18 3d d3 a3 ce 3c 7f 06 9d 3c
       0.007967531 0.037223488 0.025224602 0.019168137
000360 2c 09 5d 3c f6 32 4e bb b7 4c 54 3d d4 b3 17 bd
       0.013490956 -0.003146348 0.051830973 -0.03703673
000370 0f 54 ed bc d4 0b 47 bb df b7 47 3d c0 e1 91 ba
       -0.028970746 -0.003037204 0.048759338 -0.0011129901
000380 f1 a0 5a bd f8 14 87 bb 3f 01 05 3c 5d 44 d7 bc
       -0.053376142 -0.0041223727 0.008117973 -0.026277715
000390 15 8e cd bc d0 de 6b bd 17 e0 8a bd 75 e4 e5 3c
       -0.025092164 -0.057585537 -0.06781023 0.028063038
0003a0 a1 7f 0a 3d a5 9e 0e 3c 4d 3d 0c bd 74 e9 2b bc
       0.033813123 0.008704816 -0.03423815 -0.010492671
0003b0 24 71 76 bc 5f 16 a8 bc c0 69 5d bd fb a5 29 bc
       -0.015041623 -0.02051848 -0.05405593 -0.010354514
0003c0 98 d0 68 3d 01 12 4e bd c7 8a 8a 3c b6 da f6 bc
       0.056839556 -0.05031014 0.016911877 -0.030133586
0003d0 5a fe e0 3c ac dc 34 bd 5d b5 4a bd 7d 8f 1f 3d
       0.027465034 -0.04415576 -0.049489368 0.0389552
0003e0 fb 15 14 bd 8f cf e2 bb 80 c2 35 3d 7b a5 2f bd
       -0.036153775 -0.0069217156 0.044374943 -0.042882424
0003f0 7b d7 6f 3d 0c 74 e5 bb 26 82 6a bd 5d 76 42 3d
       0.058555108 -0.0070023593 -0.057253025 0.04747616

fc2.bias f4 [20]
000000 74 19 06 3d 92 7c 99 bb 9f 8f 70 bc 9f 4d 70 3c
       0.032739118 -0.0046840394 -0.014682679 0.014666944
000010 7e 9d 47 3c e6 77 07 3c 67 ad 34 bc a4 43 b5 bc
       0.012183545 0.008268332 -0.01102767 -0.02212698
000020 d3 f0 d0 3c 4a a6 bb 3c 07 6f 21 bd bb e2 1a bd
       0.025505459 0.022906441 -0.039412525 -0.037813883
000030 21 b0 88 bc a2 7a ea bc 07 65 8d bc ed 2c 43 bb
       -0.016685547 -0.028622929 -0.017260088 -0.0029781417
000040 67 d0 30 3c 93 54 ac 3c 85 58 ad bc 43 ea 09 3c
       0.0107918745 0.021036422 -0.021160373 0.008417669

fc3.weight f4 [20, 256]
000000 ab 71 2a bd 32 a6 93 bb c7 4f 54 bd b0 be 6c bd
       -0.04161231 -0.004505896 -0.051833894 -0.05779904
000010 2a b6 32 bc 56 ca d0 bc f2 3e 13 3d 35 46 ec 3c
       -0.010907689 -0.025487106 0.0359487 0.028842071
000020 e2 91 85 bc b1 58 64 b9 2c c0 14 3d 22 6d d3 bb
       -0.016304914 -0.00021776815 0.036316082 -0.0064522186
000030 64 63 76 bd a5 df 6d 3c d4 82 ec 3c fe 27 01 3b
       -0.06015338 0.014518653 0.028870977 0.0019707675
000040 87 e7 3c bd d1 5b 28 3d 36 61 f0 3c 35 9e 2e 3d
       -0.04611924 0.041103188 0.029343229 0.042631347
000050 c3 68 d3 bc 03 05 0b bc 5f 81 a9 bb a7 df e8 3c
       -0.02580679 -0.008485082 -0.005172893 0.028426958
000060 eb 7f 3c 3b a4 a6 2b bd 57 38 ac bc 34 cb 54 3c
       0.0028762768 -0.041906968 -0.021022959 0.0129879005
000070 26 0f 90 bc 66 8c 9f 3c 9c f1 22 3d 00 e4 2e 3d
       -0.017585348 0.019476127 0.039781198 0.042697906
000080 ab 56 63 3d 7b 39 3a 3d 41 6c c7 3c 41 c1 ad 3c
       0.055502575 0.045464974 0.024343612 0.021210315
000090 d0 5a 94 bc 36 bd 02 bd e0 c7 52 bd 97 a6 05 3d
       -0.018109709 -0.031918727 -0.051460147 0.032629576
0000a0 34 9b 74 3c aa 79 b8 bc 65 ed 06 3c 85 43 09 bc
       0.014929581 -0.022518951 0.00823531 -0.008377914
0000b0 32 b5 b6 bc df 3a 61 bc 3a 22 c3 bc 84 77 21 bc
       -0.022303198 -0.013746946 -0.023820031 -0.009855155
0000c0 8d a1 70 3b 4f d0 d2 bc 1a 03 26 bc 41 01 ee bc
       0.0036717386 -0.025734095 -0.010132575 -0.029053332
0000d0 8e 5f f7 bc e0 2e f4 3c 15 82 23 3d 37 49 25 3d
       -0.030196931 0.029807508 0.039918978 0.040353026
0000e0 cd 04 84 3c 2c 2b 3d bd 8b 14 06 bd db d0 00 bd
       0.01611557 -0.04618375 -0.032734435 -0.03144918
0000f0 be 45 64 bd 53 23 20 bd 9d 20 f8 bc 70 b7 18 3d
       -0.055730574 -0.039096188 -0.030288989 0.037284315
000100 7b 57 b6 3c ca dc 02 3d 00 2d cb bc 32 86 6e 3b
       0.02225851 0.031948842 -0.024801731 0.0036395905
000110 98 8f 05 bd df d3 f7 3c 0e f7 eb 3c 26 af 9d 3c
       -0.032607645 0.030252395 0.028804328 0.019248556
000120 ef e8 44 bb e0 17 e1 bc 45 39 72 bc 76 b3 cb 3b
       -0.0030046066 -0.027477205 -0.014784162 0.006216462
000130 fd f2 70 3c 7e ad b4 bb db 2d 71 ba 3f 59 5b 3d
       0.01470637 -0.005513846 -0.00092002534 0.05355191
000140 06 06 85 3d 19 20 23 3b 0b 20 f3 3b 3a 87 48 bc
       0.064952895 0.0024890958 0.0074195913 -0.012239272
000150 ea 87 3c 3d 9a 1f 02 bd 92 fc 2a bd 64 cd 36 3d
       0.046028055 -0.03176842 -0.041744776 0.04462947
000160 36 66 19 bb 4f 6f f7 3c c0 ba 44 bd c0 4e 5d 3d
       -0.002340687 0.030204443 -0.04802966 0.05403018
000170 a6 a6 0d bb b5 89 07 3d ca 3b 5e bc a5 63 20 bc
       -0.0021614223 0.033090312 -0.0135640595 -0.009789382
000180 3b 78 22 3d 8d b5 30 bd 71 b3 77 3c e0 28 b2 3b
       0.039665442 -0.04314189 0.015118466 0.0054370016
000190 62 9f e7 3c 32 d5 21 bd e4 a5 42 bc ff 54 4d 3d
       0.028274242 -0.03950996 -0.011880372 0.050129887
0001a0 16 e7 6a 3d 7d b2 7a 3c 96 74 11 3d bd fb c1 bc
       0.057349287 0.015301344 0.035511576 -0.023679608
0001b0 9d 93 bd 3b a7 bb aa 3c 4f 7e 18 3d 9f ea 17 bc
       0.005785419 0.020841433 0.037229832 -0.009272247
0001c0 1b 4b 2f 3c 64 4f 95 3c e1 78 15 3d 0e 7f 1f bd
       0.010699059 0.018226333 0.036492232 -0.03893953
0001d0 6b e9 18 3d fa a4 98 bc 49 69 88 bd d4 57 4d 3d
       0.03733198 -0.018633354 -0.066607065 0.050132588
0001e0 b9 c5 44 3d 91 4c 75 bd 7d 67 39 bb bd c7 5e bd
       0.048040126 -0.059887473 -0.0028290444 -0.054389704
0001f0 b1 6a 2f 3d 97 8d 5a 3d 7e b4 51 3d 68 8d 2e bb
       0.04282636 0.053357687 0.05119752 -0.0026634578
000200 fe c3 75 bb 4b a4 15 bc 11 4c 55 bd e0 0a e4 3c
       -0.0037500854 -0.009133409 -0.052074496 0.027837217
000210 29 a5 dc bc be 78 22 3d 6a 05 d2 bc 01 5d e8 ba
       -0.026934223 0.03966593 -0.025637347 -0.0017727913
000220 b4 fe 0f 3c 6f 5c aa 3c f2 bb dd 3c 4e f9 f8 bb
       0.008788753 0.020796029 0.027067158 -0.007598079
000230 5c c4 cb bc 66 a7 33 3d 18 e9 3a bb 85 c4 24 3c
       -0.024873905 0.043860815 -0.0028520282 0.0100566195
000240 11 fa 49 3d 67 8f 42 3c 9b b0 6d bc 45 48 cb bc
       0.049310748 0.01187501 -0.014507438 -0.024814734
000250 80 01 ad bc 04 ba 29 3d f8 45 02 bd 03 bd 97 bc
       -0.02111888 0.041437164 -0.03180501 -0.018522745
000260 27 bc 9a 3c 72 3d c9 3b 86 8e 17 bd e2 db 39 bd
       0.018888546 0.006141358 -0.037001155 -0.045375712
000270 75 32 31 3d 1c ec 44 bd 0c 6f f7 bc 75 2b 5c bd
       0.04326101 -0.048076734 -0.030204318 -0.05375238
000280 e4 4f f6 3c d9 c8 6a 3c 51 1d 3d bd 84 d7 13 3d
       0.030067392 0.014330112 -0.046170536 0.036094204
000290 d5 8f c9 bc 05 7e 2e bd 4d 99 42 bd 84 d1 9b 3c
       -0.024604717 -0.04260065 -0.04750948 0.019020803
0002a0 0d d6 65 bd 7d 28 ae bc dd 28 6b 3d f8 8d 0e bd
       -0.056112338 -0.02125954 0.057412017 -0.03480336
0002b0 36 c9 75 3c 0f f2 fa bb a8 8b 48 bd bb 67 ca 3c
       0.015001586 -0.00765825 -0.04896131 0.024707666
0002c0 8f 36 3a 3d c2 89 33 bc 9d 0d 52 3d 06 f4 3d 3c
       0.045462187 -0.010958137 0.051282514 0.011593824
0002d0 08 24 ad bc a2 67 9e 3c 1f 36 c9 3b 85 a5 36 bd
       -0.021135345 0.019336525 0.006140485 -0.044591445
0002e0 f9 f4 62 3c da 04 c8 3c 7c 72 b0 bc bc f9 31 3d
       0.013852351 0.024416376 -0.021538965 0.043451056
0002f0 21 8c 41 3d b3 bb 87 3b 00 aa 33 bc dc 30 90 3c
       0.047252778 0.0041422485 -0.010965824 0.017601423
000300 13 cf 9f bb dd ad c2 bc 61 78 04 3d ec ad b5 3a
       -0.00487698 -0.023764545 0.032341365 0.0013861037
000310 2b ba ea bc 30 51 b7 3b 5b 17 35 bc 4a 19 5c 3c
       -0.028653225 0.005594395 -0.011052932 0.013433764
000320 ec bc 9d bc 48 ea a5 3c 53 47 c8 bc 7b 7c 81 3d
       -0.019255124 0.020253316 -0.024448073 0.06322571
000330 f0 aa 49 bd b0 85 1d bd 4d 93 d7 3c 6d 6b fb 3c
       -0.049235284 -0.038457572 0.026315356 0.030690873
000340 ba 0e 22 3d dc 41 56 bd 05 2c 2e bd 70 51 bd 3c
       0.039564826 -0.052308902 -0.04252245 0.023110121
000350 a4 37 12 3d 78 c6 89 bd 0e 5d 72 3c 1d 0c 3f bd
       0.035697594 -0.06727308 0.014792694 -0.04664241
000360 5d bb a2 3c c4 df 6f 3c 06 6f 0a 3d a7 80 2c 3d
       0.019864732 0.014640752 0.033797286 0.04211488
000370 07 de 03 bd a9 eb 6e 3d 17 d4 91 bd 85 db db bc
       -0.032194164 0.05833021 -0.07120531 -0.026838074
000380 37 80 70 3d 12 d8 04 bd 12 63 f4 bc 09 30 c0 bc
       0.058716025 -0.032432623 -0.029832397 -0.023460405
000390 68 68 e5 3c 02 46 5f ba 42 e6 9e bc 76 b1 3a bd
       0.028003886 -0.0008517207 -0.019396905 -0.045579396
0003a0 d0 10 e4 3b 2e 5d 38 3c 9f df 21 bc 25 1e 8f 3c
       0.006960012 0.0112526845 -0.009879976 0.017470429
0003b0 d8 ae bc 3c e5 28 3b 3c 80 0f 2f bd fe 90 f5 3b
       0.02303259 0.011423324 -0.04273939 0.007494091
0003c0 35 c0 10 3d a5 cc 88 bc fd 24 a9 bb 0a cb 80 bd
       0.035339553 -0.016699145 -0.00516188 -0.06288727
0003d0 1e 24 34 bd b6 cd 0b bd d1 67 85 bd 63 07 f3 bc
       -0.043979757 -0.034131728 -0.06513942 -0.029666608
0003e0 55 8d d9 3c 54 66 b6 bc 41 af 85 3b bb 7c 08 bd
       0.02655665 -0.02226559 0.00407973 -0.033322077
0003f0 fa 1a 31 3d d3 39 50 3b 4b 14 27 3d f9 29 0b bd
       0.043238617 0.0031772747 0.040790837 -0.033975575

fc3.bias f4 [20]
000000 e1 60 c7 3c 53 c9 8e 3b 35 c7 da 3c f6 61 75 3b
       0.024338188 0.004357496 0.026706317 0.0037442422
000010 b7 ea 2e 3d 1c e5 9e bc 51 f5 69 3c 08 bc 2c 3b
       0.04270431 -0.019396357 0.014279679 0.0026357193
000020 31 8a 60 3c 78 56 8a bb 44 26 06 3d b7 05 8e 3c
       0.013704822 -0.0042217337 0.032751337 0.01733671
000030 83 22 c9 3c 3e 20 bc bc 16 70 60 bc 23 1d 8a bb
       0.02455259 -0.022964593 -0.013698598 -0.004214899
000040 c1 ef fb 3c 21 72 00 bd 12 2f 38 3d 8e e2 11 ba
       0.030753972 -0.03135884 0.044966765 -0.00055650703

fc4.weight f4 [256, 20]
000000 34 71 92 bc 22 f8 01 bc 56 8c 07 3d ab 24 f2 bc
       -0.017876245 -0.007932695 0.03309282 -0.0295585
000010 62 a1 a2 bb df 65 43 3c 18 dd db bc b2 fa c1 3c
       -0.004963086 0.011926143 -0.026838824 0.023679111
000020 2e 37 f6 bc aa 2d 44 bc 53 b5 ea bc db cb 42 bc
       -0.030055609 -0.011973778 -0.028650915 -0.011889423
000030 aa 24 29 3c 90 28 af 3b 0c 86 83 bc 44 1c 35 3c
       0.010323683 0.0053454116 -0.01605513 0.011054102
000040 55 b7 03 bd 5f ea 76 3c 68 8c 5a 3b 22 d7 5e bc
       -0.03215726 0.015070527 0.0033347849 -0.013601096
000050 f1 31 d7 bb cc 9a 8c bb 27 c2 08 bc 76 61 ed bc
       -0.006567233 -0.004290914 -0.008347071 -0.028977137
000060 27 1a a9 ba 7e 11 bc 3b 6b ab 49 3d 87 fc 0b bd
       -0.0012901471 0.00573939 0.049235743 -0.034176376
000070 fc 3c 1f bd c4 cc d1 bb e3 9e 4d bc fc a0 1e bb
       -0.03887652 -0.006402584 -0.012550089 -0.002420484
000080 3e f2 96 3c 9e 2d 0f bc 98 62 de 3c b6 ef ba bc
       0.018426057 -0.008738903 0.027146623 -0.022819381
000090 0f e9 1f 3d ac 1f 5e bc fa 8c 9b 3b e0 2f b1 3b
       0.03904062 -0.013557356 0.0047470303 0.0054073185
0000a0 5d d8 98 bc cc 1a 36 3d 89 3b 53 bc b5 65 da bc
       -0.018657858 0.04445915 -0.012892612 -0.026659826
0000b0 c4 f0 24 bd 57 b3 89 bc 73 18 9b 3b 74 d9 7d 3c
       -0.040268674 -0.016809149 0.004733139 0.015493739
0000c0 35 6c 38 3c 15 83 15 bb 2c 20 a4 bc e6 5d 36 bc
       0.011256267 -0.0022813727 -0.020034872 -0.011130786
0000d0 15 83 51 bc 5e 79 b8 bb 63 1c 9a 3b c7 dd 34 3c
       -0.0127876 -0.0056297025 0.004703091 0.011039204
0000e0 d8 6c 86 bc 59 76 a1 bc 31 98 77 3c a3 76 8a bc
       -0.016409323 -0.019709753 0.015111969 -0.016902274
0000f0 6e 96 a1 bc d0 cd 03 3c b0 51 00 3d be dd 6d bc
       -0.01972505 0.008044675 0.031327903 -0.0145181995
000100 d5 cf a0 bc 6f 1e 29 3d dd 1a 46 bc 37 9c fd 3a
       -0.019630352 0.04128879 -0.012091366 0.0019348924
000110 21 3d 03 bd 61 34 08 bd 49 75 8f 3c 67 46 ac 3c
       -0.03204072 -0.033253077 0.01751198 0.021029664
000120 f7 fa 06 bb d6 de af 3b ac d3 5e bc 46 3e c8 3c
       -0.0020596364 0.0053671403 -0.013600271 0.024443757
000130 bd 8c 97 3c 2c bd 2e 3d 5b 77 77 bc dc 02 30 bb
       0.018499726 0.042660877 -0.01510414 -0.0026857173
000140 61 0d b1 bc 10 ed 86 bc e0 26 f7 bc 66 14 f9 3c
       -0.021612825 -0.016470462 -0.030169904 0.030405235
000150 3c f1 70 3c ea 5c c8 bb cd da 09 bd 6e ff 83 bc
       0.014705952 -0.006114592 -0.03365593 -0.01611301
000160 96 69 c2 bc 32 f2 af bc 47 82 92 bc f3 eb c1 bc
       -0.023731988 -0.021477792 -0.017884387 -0.02367208
000170 c1 b6 1e bc 62 34 15 3c f0 45 c7 bb d0 e8 1f 3c
       -0.009687127 0.009106727 -0.0060813352 0.009760097
000180 8c b0 10 bd c4 37 cf bb d1 16 f8 3b fc 5c dc bb
       -0.03532462 -0.0063237865 0.0075710793 -0.006724952
000190 5f c6 7f bb 0d 0f dc bb c9 03 74 bc 3a 0f 5f bc
       -0.003902815 -0.0067156614 -0.014893481 -0.01361447
0001a0 01 9d 28 bc 65 cf 99 ba 0e 31 64 3c d7 3a ad 3b
       -0.010291339 -0.0011734782 0.013927711 0.0052865553
0001b0 40 06 59 3c e3 f2 93 3c 89 ec 81 3c 02 ef 0e 3d
       0.013246119 0.018060153 0.015859859 0.034895904
0001c0 dc 8e aa 3c 24 ff 97 bc d9 23 b0 bb ef 53 f3 bb
       0.020820074 -0.018554278 -0.005375367 -0.007425777
0001d0 9c 9e 8e bc 49 d2 03 3d 45 cc a3 3b 8c cb af bc
       -0.017409615 0.032182965 0.004998716 -0.021459363
0001e0 2e 73 47 bd 34 5d 15 bd e7 8f 43 bd 6b b5 1b bd
       -0.04869383 -0.03646584 -0.047744658 -0.03801481
0001f0 e8 42 e3 3c 74 32 00 3d a3 ea e4 bc cd 23 0c 3c
       0.027741864 0.031298116 -0.027943915 0.008553457
000200 6f a8 24 bc d3 de a6 bc 37 21 77 bb 29 bf 8b bd
       -0.010049923 -0.020369923 -0.0037709007 -0.0682357
000210 c3 2f 9e bc 90 f4 0a bd 76 ae 26 bd 49 15 c5 3c
       -0.019309884 -0.03392464 -0.040693723 0.024058001
000220 db 41 03 3c b9 e1 97 3a ac 4a e6 bc aa a2 22 bd
       0.008011307 0.0011587656 -0.028111778 -0.03970591
000230 cb e9 45 ba 0f 40 11 3c f5 66 92 3c 49 d8 86 bb
       -0.00075497915 0.00886537 0.01787136 -0.0041151387
000240 16 82 1f bb a6 b9 93 3c db 32 93 bb c8 fc 52 3c
       -0.0024339012 0.01803286 -0.0044921464 0.012877651
000250 96 f9 87 3c eb 88 18 3c 01 a4 f4 bb ed 93 e8 3b
       0.016598504 0.009309988 -0.00746584 0.0070977123
000260 13 7f c5 3a 7d 61 8a 3c c3 f3 86 bc 38 72 bd bb
       0.0015067778 0.01689219 -0.016473657 -0.005781438
000270 da 95 a5 3b cc 0c 18 3c 4b f9 bb 3c 80 ca 47 bb
       0.005053264 0.009280395 0.02294602 -0.003048569
000280 a0 62 31 3c f6 5d 6b 3c 91 c9 1c 3b 3f 2c 2a 3b
       0.010826737 0.014365664 0.0023923854 0.0025966314
000290 c7 cd 51 bb cb 2b 18 bc 03 e7 7a 3b 51 9f 19 3c
       -0.0032013522 -0.009287785 0.0038284666 0.009376363
0002a0 95 e7 56 b9 c4 71 0d bb 5d 01 32 3c 52 e6 da 3b
       -0.00020494901 -0.0021582702 0.010864583 0.0066802884
0002b0 7a 06 ec ba 23 50 9d bc 3c e8 e4 3b 79 17 76 3b
       -0.0018007301 -0.019203251 0.0069856923 0.0037550612
0002c0 bc 6d 20 bc 4c 83 86 3c d8 e0 38 bc dd 91 0a ba
       -0.009791788 0.01642003 -0.011284076 -0.00052860175
0002d0 0e 7b 3e bc e4 01 aa bc 05 0c 06 3c 36 ab cc bc
       -0.011626018 -0.020752855 0.008181577 -0.024983983
0002e0 66 25 32 3d 4e 04 da bc ba c5 f6 3a 9b 4e 86 bb
       0.043492697 -0.02661338 0.0018827238 -0.004098726
0002f0 d6 e3 d3 3c 9d 09 86 3c 76 e3 9d bc b2 ef ef bc
       0.025865477 0.016362006 -0.0192735 -0.0292891
000300 d6 1e fb bc c1 bf 92 3a 8d dc dd bb 43 05 ce bc
       -0.030654352 0.0011196063 -0.0067706765 -0.025148993
000310 4f 5a 6b 3c a2 f1 37 bc 20 60 13 bd cb 78 a9 bc
       0.014364793 -0.011227043 -0.035980344 -0.020687481
000320 0e c8 8e 3c dc ff ae 3c a9 b2 a3 bc ea 0c 08 ba
       0.017429378 0.021362238 -0.019982653 -0.00051899126
000330 27 08 13 bc 7b 62 8a bc 1f ee ec 3a de 6c 54 bc
       -0.008974112 -0.016892662 0.0018076337 -0.012965409
000340 e7 bc 6b bc 00 89 c8 bb e8 c5 32 3c 17 0a 9c bb
       -0.0143883 -0.0061198473 0.010911442 -0.004761945
000350 df ba dd bc e2 e6 c2 bc 5c e5 cc 3c 1f e7 6d bc
       -0.027066646 -0.023791734 0.02501171 -0.014520436
000360 88 8d 7f bc de 91 27 bb 12 41 04 bd ee 23 84 bc
       -0.0155977085 -0.0025569121 -0.03228862 -0.016130414
000370 44 36 7c 3c a8 a0 82 bc f7 53 dc 3b 2f 9d 0c 3d
       0.015393797 -0.015945747 0.0067238766 0.03432959
000380 ce 25 85 bc ad d9 f3 bc 94 ac b7 3c fc c4 c3 bc
       -0.016253378 -0.029766882 0.022421159 -0.02389764
000390 9a cd df bc f5 32 26 3d f9 7c 36 bb 1f 85 08 3d
       -0.027319718 0.04057594 -0.0027845486 0.03333008
0003a0 57 e3 b3 bc 43 92 ba 3c 2b 28 f8 3c 24 be 11 bd
       -0.02195899 0.022774821 0.030292591 -0.035581723
0003b0 42 ea 13 bc 53 0b 96 ba 5b a8 1a ba a8 3e af 3c
       -0.009028019 -0.0011447467 -0.00058997207 0.021392182
0003c0 ab d9 66 bb 77 ca 0c 3c 7c 42 db ba 8f a6 a6 bb
       -0.0035224955 0.008593193 -0.0016728188 -0.0050857733
0003d0 66 11 43 3a fd 44 a0 3b 04 cf c3 3c 1d cf 0c 3c
       0.0007441252 0.0048910365 0.023902424 0.0085943015
0003e0 d5 46 85 b9 89 28 ef 3c 42 70 11 3c e3 8b ba ba
       -0.0002542051 0.029194133 0.008876862 -0.0014232363
0003f0 dd 1c 30 3c 99 61 9f 3c 2c 99 f8 3b f3 b5 44 bb
       0.010749069 0.019455718 0.007586619 -0.0030015677

fc4.bias f4 [256]
000000 10 37 0a bd c6 2c 93 bd 06 64 95 bd 6c 1e 20 3e
       -0.033743918 -0.07186274 -0.072944686 0.15636605
000010 80 ee c5 bd d6 98 ca bd fc b0 3c 3e 5c 52 83 3d
       -0.09664631 -0.098924324 0.18426889 0.06412193
000020 46 be 07 bc 50 47 bd 3d af 1f d6 bd 71 75 29 3e
       -0.008285111 0.092421174 -0.10455262 0.16548707
000030 ef f9 9b bc 61 04 2a 3e 30 0b 20 3a 66 7e e6 bd
       -0.019040076 0.16603233 0.00061051827 -0.11254577
000040 1a f1 01 be cc 36 ed 3d d9 4a 5d bd 37 79 19 bd
       -0.12689629 0.11582717 -0.05402646 -0.037469115
000050 b7 f7 08 3c 07 be f4 bd e8 3b 02 3e 9a f6 ac 3c
       0.008359841 -0.11950307 0.12718165 0.021113683
000060 81 16 19 bc 57 0a 82 bd 76 02 37 be 79 9c 1f be
       -0.009343744 -0.063496284 -0.17872033 -0.15587033
000070 66 64 23 be ed da ff bd b5 25 42 3d c8 f4 af bd
       -0.15956268 -0.12492929 0.04739924 -0.0859161
000080 a1 7b de bb 8b 37 94 bc 64 2f 2a 3e ba bb 98 bd
       -0.00678964 -0.018092891 0.1661964 -0.07457681
000090 6c bd 43 bd 47 4d 30 be fa 7b c8 b8 b0 b7 17 be
       -0.04778807 -0.17216979 -9.5598356e-05 -0.14816165
0000a0 50 99 cb 3d 36 b2 f9 3d 5c 9d 17 be c4 05 34 be
       0.099413514 0.12192194 -0.14806122 -0.17580324
0000b0 c5 82 81 be a8 e7 75 be 3b 19 18 3d 8e 34 0a 3e
       -0.25295082 -0.24014151 0.037133437 0.1349661
0000c0 29 45 75 3d dd 7f 2f 3d 13 a3 83 bc 61 96 69 be
       0.05988041 0.04284655 -0.01606897 -0.22811271
0000d0 ec 3d c0 3d 4e f6 85 3d 04 56 0b 3e 1b 0e bf 3d
       0.09386811 0.065411195 0.13607031 0.09328862
0000e0 33 22 99 bc c0 ef dc bb 24 64 42 3d 55 96 31 3e
       -0.018693065 -0.0067424476 0.047458783 0.17342503
0000f0 be 0e fb 3c 6d e4 9e 3d d8 6b 8d 3d 8f a7 a7 3d
       0.030646678 0.077584125 0.06905335 0.08186256
000100 8f 0f e2 3c 32 76 fa bc 0d d2 56 bd 45 c4 b8 bd
       0.02759531 -0.030573938 -0.052446414 -0.090218104
000110 a1 62 d8 3c 31 a1 50 3d 0b 71 fb bd e4 ac 7c 3d
       0.026414217 0.050934974 -0.122774206 0.06168832
000120 81 a9 ad bd 64 b0 39 be 7e 36 8c 3c 1f 15 ee bd
       -0.08479596 -0.18133694 0.017115828 -0.11625122
000130 23 22 cb bd 59 81 6f 3e f3 8e 91 bd a3 49 b0 bd
       -0.099186204 0.23389186 -0.071073435 -0.08607795
000140 cd 28 b6 bd 06 b9 8f 3d 40 5e 08 be f6 b4 4c be
       -0.08894501 0.07017712 -0.13317204 -0.19990906
000150 d4 c1 04 3e 8c 6c 50 3d 25 81 75 be 17 98 8c 3d
       0.12964565 0.05088477 -0.23975046 0.06864946
000160 20 30 04 3e e2 71 5b 3e 3a 3a 83 3d d4 86 1b 3e
       0.12908983 0.21430162 0.0640759 0.15188152
000170 3e 15 da bd 07 6f fa 3d 6a bd 39 3e 50 bf 1b be
       -0.10648583 0.12228208 0.18138662 -0.15209699
000180 64 16 ea 3d 5b b3 88 3d bc 8c 17 3b 16 93 40 3e
       0.11430052 0.06674834 0.0023124656 0.18806109
000190 7f 5b 69 bd 63 8e 1a 3e 91 60 85 ba f9 44 a1 bd
       -0.056972023 0.15093379 -0.0010175874 -0.078744836
0001a0 3f 32 42 3c f8 18 b8 3d 7b 47 4e 3e fe f0 78 be
       0.0118528 0.089891374 0.20144455 -0.24310681
0001b0 86 0a f2 3d 53 24 63 be 11 26 29 bd cf 69 40 bd
       0.118184134 -0.22181825 -0.04129607 -0.046975907
0001c0 43 d0 20 3d 15 29 93 bd d1 e9 8a 3d ed e7 f3 bd
       0.039261114 -0.0718557 0.06782878 -0.11909471
0001d0 eb f4 34 3d d7 9c 0e 3d e2 d7 00 be 59 79 17 bd
       0.044178884 0.034817543 -0.12582353 -0.03698096
0001e0 79 35 80 be 91 c3 57 bc eb 24 56 bd b3 0a 10 be
       -0.25040796 -0.013169185 -0.0522813 -0.14066581
0001f0 66 75 bb 3c d8 87 27 3e 7a a8 05 3e 61 d6 0d bc
       0.022883128 0.16360414 0.1305255 -0.008657069
000200 6a 95 d2 3d 46 7d b3 bb 62 cd 0c be 26 ed a2 3c
       0.10282405 -0.0054775802 -0.13750222 0.019888472
000210 71 85 27 3e f3 42 3a 3e 76 36 59 3c 69 a0 1d be
       0.16359498 0.18189602 0.013257613 -0.15393223
000220 11 2f 38 3e d3 03 31 be 98 d0 62 be 6d 27 dc bd
       0.17986704 -0.17286615 -0.22149885 -0.10749707
000230 b1 3b 42 be 1f de be 3d 65 df 6b be 06 b8 4d 3b
       -0.18968083 0.0931971 -0.23034437 0.0031390204
000240 b9 b2 2b be 57 32 37 bd a7 7c 0f 3e 2a c4 19 bd
       -0.16767396 -0.044725742 0.14012395 -0.037540592
000250 ec b6 11 3e 4c 68 3b 3c 0b 1e dd 3d e8 3d ed 3c
       0.14229935 0.0114384405 0.10796746 0.028960183
000260 35 15 d6 bd 9b ee 0e be 8b 04 cd 3d d1 f7 3b be
       -0.10453264 -0.13958208 0.10010632 -0.18356253
000270 46 75 b8 3d d2 a8 16 bd 22 97 4c 3b ba a0 cd bd
       0.09006743 -0.036782093 0.0031218012 -0.10040422
000280 b1 6e e9 bd 08 9d be 3b 81 db 3f be 78 ea 1c be
       -0.11398066 0.0058170594 -0.18736078 -0.15323818
000290 1f df 9d 3d 19 06 68 bd cc 9b e4 3d 87 ab 48 3e
       0.077085726 -0.05664644 0.111625284 0.19596682
0002a0 20 c3 43 3e f6 6d ea 3d e3 05 79 3c 45 be 40 3d
       0.19117403 0.11446755 0.015199157 0.047056455
0002b0 38 8c f2 3d 01 83 f4 3d 9f f2 55 3a ee 1d 51 3e
       0.11843151 0.119390495 0.00081614585 0.20421574
0002c0 ca c4 9a 3d 86 1b e1 bc ea f6 d9 bd b1 83 52 3e
       0.07557066 -0.027478945 -0.10642798 0.20558049
0002d0 99 7f 05 3d 9f 23 8d be 00 ad cc 3c 36 76 2f 3e
       0.03259239 -0.2756624 0.024984837 0.17134938
0002e0 c2 0c 35 be 2e 9b 27 be 03 51 31 be 27 3f 0c 3e
       -0.17680648 -0.1636779 -0.1731606 0.13695966
0002f0 04 31 2d bd 0b 86 4c 3e 45 38 6e b9 8c d1 4d 3e
       -0.042283073 0.19973008 -0.00022718411 0.20099467
000300 cf 03 a9 3c 5d f2 03 bc de fd 40 3e 6f 27 0a 3e
       0.020631699 -0.008053389 0.18846843 0.13491605
000310 95 e6 51 bd 7f fe f1 bb d0 9c 84 3d d9 d9 eb bc
       -0.05124529 -0.0073850746 0.06475222 -0.028790401
000320 53 fd bc 3c 45 71 0d bd 74 54 56 bd cf 92 c1 3c
       0.023070013 -0.03453185 -0.052326635 0.023629574
000330 96 70 31 be b4 08 84 3d 44 d7 16 be b8 b3 ac 3d
       -0.17328104 0.064469725 -0.14730555 0.08432716
000340 9b be 26 3e d8 63 2e 3e 3a 44 e0 3c 4c 67 08 3e
       0.16283648 0.17030275 0.027376283 0.13320655
000350 d5 18 0c 3e f0 51 9f 3d 2e 77 5e be cc b4 d1 bd
       0.13681348 0.077793 -0.21725151 -0.102395624
000360 dd e4 9b bd 95 48 64 3e e5 30 8a 3d 76 a9 f4 bd
       -0.076120116 0.22293313 0.06747607 -0.119463846
000370 f6 2a 32 3e ff 0b 56 3e d5 6e eb 3d e0 be 4c 3e
       0.17399201 0.20903014 0.11495749 0.19994688
000380 d9 6f d5 bc 87 b3 76 3c 4d c5 00 be 06 f2 10 3e
       -0.02605431 0.015057451 -0.12575264 0.14154825
000390 4c c0 3b be 56 e2 93 3d 5b 56 15 3e 54 a4 72 3e
       -0.18335074 0.072209045 0.14583723 0.23695499
0003a0 34 2c d7 bd 99 eb 74 3e 27 44 57 3e ba cf 3e bd
       -0.10506478 0.23917998 0.21022092 -0.046584822
0003b0 19 79 bb 3d c6 6f f0 bd 0b c6 38 3c 0f 17 68 3d
       0.09153957 -0.11740069 0.011277686 0.056662615
0003c0 83 6b 86 bd 8d cb 02 be d2 94 87 bd 7d 00 ef bd
       -0.06563475 -0.12772961 -0.06620182 -0.11670015
0003d0 74 69 30 3e 2e 6a 5b 3d cc c7 25 3e 8d 38 f9 3d
       0.17227727 0.053568058 0.16189498 0.12168989
0003e0 89 78 89 bd c4 41 87 bd 46 a0 b7 bd 81 ff 41 be
       -0.067124434 -0.06604341 -0.089661166 -0.18945123
0003f0 35 ff fe bd f8 91 43 3d 23 d1 a9 3d c5 91 8d be
       -0.12451021 0.04774663 0.08291843 -0.27650276
