customized/model/trained_model/vae/vae_z_30batch_64_test_blur.pth (torch, 935137 bytes, 10 tensors)

fc1.weight f4 [256, 408]
000000 d7 75 86 3c ae 1a 62 3d 58 92 13 3d 7c 31 34 bd
       0.016413612 0.055201225 0.036028236 -0.043992504
000010 51 49 45 bb 22 49 32 bd 9f 9a 4a bd b4 da aa bc
       -0.0030103514 -0.043526776 -0.049463864 -0.020856239
000020 a8 bf 0c 3d cd ab d2 3b c5 0c 40 bd 2a 11 55 bb
       0.034362465 0.0064291717 -0.046887178 -0.0032511451
000030 5a 36 80 3c 3c e5 83 3d a2 b4 c1 3c 3c 9d 3d 3b
       0.015650917 0.06440207 0.023645703 0.002893283
000040 d6 c3 a4 bc d7 f3 f5 bc e8 dc 4a 3c 9e ab 17 3b
       -0.020112913 -0.030023498 0.01238177 0.0023143063
000050 62 df 22 3c 20 62 12 3d 0c 28 1e bd 13 95 08 3d
       0.009940954 0.03573811 -0.03861241 0.033345293
000060 9c 02 24 bd a7 3c 83 3d 5e e0 08 3d 39 f7 0c 3c
       -0.04004155 0.06408053 0.0334171 0.008603864
000070 88 97 4e bd a9 2b 19 3d 15 4c 4a bc 42 3c 73 3d
       -0.05043748 0.037395153 -0.012347241 0.05938364
000080 65 8b b8 3c 4a 1e 8b bd 12 e8 ce bc 87 62 a8 bc
       0.022527406 -0.067928866 -0.025257144 -0.020554794
000090 8d 50 a4 3b 7d c8 51 bd 5f 78 9e bb 95 d9 8c 3c
       0.005014485 -0.05121659 -0.0048361267 0.017193595
0000a0 40 16 63 bd 10 77 86 bc a4 e4 16 3d e5 12 a0 3b
       -0.05544114 -0.016414195 0.036839142 0.004885065
0000b0 34 e8 fa bb a4 a0 23 3d 1d 83 20 3c 24 3d 7b 3d
       -0.0076570753 0.03994812 0.009796885 0.061337605
0000c0 d7 41 60 3c 8b 9c 15 bd 17 d9 5b bc ca d9 86 3d
       0.013687572 -0.036526244 -0.0134184575 0.06584509
0000d0 ec 31 2c bd 11 b7 37 bc cd 9f 11 bd d9 25 e1 bb
       -0.042039797 -0.01121308 -0.03555279 -0.006870967
0000e0 c8 8e 09 bd ae ff 88 bd 85 c4 d9 bc 3d 36 15 3d
       -0.033583432 -0.06689392 -0.026582966 0.03642868
0000f0 ea 56 09 bb d2 44 a8 3c da eb c1 bc 46 32 ce 3c
       -0.0020956346 0.020540629 -0.023672033 0.025170457
000100 20 43 b7 bc ca c5 b5 3c 26 15 c9 3b 93 28 3e 3d
       -0.022370875 0.02218904 0.0061365543 0.046425413
000110 c3 29 b2 bc 26 92 d8 bc b7 4a a3 3b f9 87 77 bd
       -0.02174843 -0.026436877 0.004983272 -0.060432408
000120 e0 a5 ad bc 5d 75 97 3c 23 3a 3f 3d 95 e6 f8 3c
       -0.02119726 0.01848858 0.046686303 0.030383388
000130 0a 1c e1 3c 84 c5 ad 3a 97 26 4d bd d2 8c af 3c
       0.02747919 0.0013257717 -0.05008563 0.021429453
000140 77 84 5a 3d 89 56 1a bd 91 f7 85 3d 2c 63 0f bd
       0.053348985 -0.037680183 0.0654136 -0.035006687
000150 fb e3 3d bb f9 c2 72 bd 11 83 c7 3c a4 b5 84 bd
       -0.0028974998 -0.05926797 0.02435449 -0.06479958
000160 fa 54 65 3d d7 ca 3b 3d 6f e6 ad bc ad 8e 21 bc
       0.055989243 0.04584774 -0.021228043 -0.009860677
000170 8b 3b fe bc 18 4f 3d 3d fa 9f 3e bd 57 ea 02 bd
       -0.031034252 0.046218008 -0.046539284 -0.031961765
000180 ad 03 c6 3c 07 36 4f 3d d6 0f 35 3d e0 f0 bf bc
       0.024171675 0.050588634 0.044204555 -0.023430288
000190 31 e3 03 bb 3e 00 bd bc 1f f8 3b bd 2a 32 94 3c
       -0.002012443 -0.023071405 -0.045890924 0.018090326
0001a0 34 dd a0 39 64 7e cb bb 64 84 26 3d a0 9c 1b bc
       0.00030682387 -0.0062101353 0.0406536 -0.0094977915
0001b0 07 ce fa 3c e8 49 af bc 2a 42 2a bd b5 14 50 3c
       0.03061582 -0.021397546 -0.041567005 0.012700249
0001c0 15 2b 44 3c 7b 3d a0 bc 4e 72 a3 3c 44 99 b6 bb
       0.011973162 -0.019560566 0.019951966 -0.00557247
0001d0 45 c1 43 3d 8a f8 85 ba c7 1d 07 bc 4b cd 9d 3b
       0.047791738 -0.0010221165 -0.008246846 0.0048157326
0001e0 36 cb 3b bd 97 ea 8f bd b7 7d 71 3d 32 77 7f bd
       -0.045848094 -0.07027166 0.05895778 -0.062369533
0001f0 2d 4c 11 bd 74 13 3b bc 5e 05 88 3d 81 54 66 3c
       -0.035473038 -0.011418212 0.06641649 0.014058233
000200 1d 79 04 3d f8 76 10 bd e9 c5 a9 bc 84 6f 08 3c
       0.032342065 -0.035269707 -0.020724254 0.008327369
000210 99 da bf bc 7d 92 86 3d 2f aa b5 3c ee 24 0a 3d
       -0.023419665 0.06570909 0.022175876 0.033726625
000220 62 43 1b bd 86 ae 2a bc b6 b6 cd bc 98 c4 2d bc
       -0.037906058 -0.010417586 -0.025111537 -0.010605954
000230 58 e3 73 3d 60 04 42 bb a6 3b f4 3c aa 5d e1 bc
       0.059542984 -0.0029604658 0.029813599 -0.027510483
000240 89 4e 08 bd 20 b6 e1 bb 55 72 90 bc 45 39 9a bc
       -0.033278022 -0.006888166 -0.017632643 -0.018826136
000250 00 15 eb bc 98 25 a2 bb 7e b4 3f 3d 11 c9 8a bd
       -0.028696537 -0.004948329 0.04680299 -0.067766316
000260 bf a0 1b 3d 73 68 2f 3d d7 21 9c ba 65 70 83 3b
       0.037995096 0.04282422 -0.001191194 0.004011201
000270 99 fd 3b 3d 19 56 dc 3b 51 c9 65 3c fe 3f 34 bc
       0.045896146 0.006724131 0.014025048 -0.011001585
000280 77 25 14 bd 9f 09 69 3d 19 55 85 bb 1f c7 0a bd
       -0.03616854 0.05689394 -0.0040689823 -0.033881303
000290 ea 20 46 3b 35 57 74 bd 87 58 2e 3d 33 6a 45 3d
       0.003023202 -0.05965348 0.042564895 0.048196983
0002a0 25 c4 c5 3c 5e 9a c7 3a 2c 9d 70 3b c9 15 31 bc
       0.02414138 0.00152285 0.0036714775 -0.010808417
0002b0 68 3d b9 3c c2 1e fe 3c a5 7f 72 3d 23 18 ca bc
       0.022612289 0.031020526 0.059203763 -0.024669712
0002c0 42 d1 ab 3b 80 2f 28 ba 03 6e 99 3c ad 82 25 bc
       0.0052434513 -0.00064157695 0.018729215 -0.010101956
0002d0 ef 5d b7 bc ae 58 a1 3c 1e 67 68 bc 10 c9 c6 bb
       -0.022383658 0.019695606 -0.014184741 -0.006066449
0002e0 46 5c 24 3c d6 1e 78 bd a4 00 ad bc 6f c5 37 bc
       0.010031765 -0.060576282 -0.02111847 -0.011216505
0002f0 18 d4 74 bc b2 19 3e 3d 50 9e 20 3c 4f 65 2d bd
       -0.014943145 0.046411224 0.00980337 -0.042332944
000300 e2 39 2c bc 14 b7 8b bd b2 87 71 bc 60 b5 9a bc
       -0.010511847 -0.06822029 -0.014741825 -0.018885314
000310 3e d1 13 3d 94 f4 09 3d a6 7c fa 3c 55 d3 bf 3c
       0.03608822 0.033680514 0.030577015 0.0234162
000320 2d 07 8e bc 9d a6 b6 3c 5b 30 fa bc b0 b9 09 bc
       -0.017337406 0.022296244 -0.030540636 -0.008406088
000330 fe 3f 0d bd d1 fe c5 3a e7 a9 38 3c e0 1e 22 3d
       -0.034484856 0.0015105848 0.011270977 0.039580226
000340 45 3c 74 3c d0 e6 27 bd 6f 8e e9 3c d2 e2 62 3c
       0.0149069475 -0.040991604 0.0285103 0.0138480235
000350 98 3f e0 bb 33 75 5c 3d da 99 29 3d 5b 15 e6 bb
       -0.0068435185 0.053822707 0.04140649 -0.0070215887
000360 6a da 4e bd 0d 30 3a 3c 73 f4 6d bd 4e 70 31 3d
       -0.050501265 0.011363995 -0.058094453 0.043319993
000370 0b c5 6c 3b 1d 32 8b 3b 37 0b 9f 3c e0 88 f7 bc
       0.003612819 0.0042479173 0.019414527 -0.030216634
000380 42 f0 27 3d ae b2 86 3c d5 85 0f bd c4 b3 8d bc
       0.041000612 0.016442623 -0.03503974 -0.017297633
000390 2e af 62 3b 3d e6 36 bb 4c ab af bc ad 02 10 bd
       0.0034589279 -0.0027908229 -0.021443985 -0.0351588
0003a0 18 de e8 3b 0f c1 aa bc 4e 71 5d 3d 7a ce a9 3c
       0.0071065538 -0.02084401 0.054063134 0.020728339
0003b0 f3 0d 09 bd af ef 8b 3d a5 b2 b1 3c c3 70 d4 3c
       -0.03346057 0.068328254 0.02169163 0.025932675
0003c0 55 0f 7c bd d1 7d a3 3c c7 59 3c bd 30 fe ca bb
       -0.06153806 0.019957455 -0.045984056 -0.0061948523
0003d0 6a f5 2d bd f3 1a 6d 39 68 f3 93 3c 4c cb 83 b8
       -0.042470373 0.0002261212 0.018060401 -6.284434e-05
0003e0 54 12 63 bc d8 2a 9d bb 6e cb f4 bc 9e 75 4c 3d
       -0.01385935 -0.004796367 -0.02988216 0.049916856
0003f0 e9 61 a1 bc 7e 30 14 bd 5c 7b 83 bd 20 cb 43 bb
       -0.019700008 -0.03617906 -0.06420013 -0.002987571

fc1.bias f4 [256]
000000 e9 95 84 bd 66 2b 46 bd 88 05 6c bd 6f 90 66 bd
       -0.064739056 -0.04838123 -0.057622463 -0.056290086
000010 15 4b 36 bc ef 01 ca 3c c2 73 6c bd be 22 16 bc
       -0.011126299 0.024659125 -0.057727583 -0.009163557
000020 e4 13 1d bd 75 42 6d bc 60 37 f3 3a b6 9a cb 3c
       -0.038349047 -0.014481177 0.0018555932 0.024854045
000030 b4 a4 26 3c 72 58 5f bc 02 68 e6 bc d6 c2 68 bd
       0.010171104 -0.013631927 -0.028125767 -0.056826435
000040 0e da ae 3c 23 ba 7b bb 0e 2a 05 bd b9 b5 2d bd
       0.021344211 -0.0038410507 -0.03251081 -0.042409632
000050 07 23 d1 3c cf 8b b4 3c d5 3f d6 3b ea b0 62 bc
       0.025529398 0.022039322 0.006538371 -0.013836125
000060 55 92 5d 3c e1 1c 17 bd a3 c5 c2 3c df 69 d2 3b
       0.013523658 -0.036892775 0.023775881 0.006421312
000070 bc 6b 40 bd da 09 98 3c b5 80 ad 3b 08 f2 86 3a
       -0.046977744 0.018559385 0.005294884 0.001029552
000080 5e f3 52 bb be b7 81 bd 37 d5 b5 bc c8 45 a0 bc
       -0.0032188515 -0.06333874 -0.022196395 -0.019564524
000090 b7 32 91 3c bb 82 08 bd bb 93 8f bd ad 0c 1d bd
       0.017724378 -0.0333278 -0.07010599 -0.038342167
0000a0 9c 7b 75 bc a9 68 8c bd 84 87 26 bd 4c 04 95 bc
       -0.014983084 -0.068559 -0.04065658 -0.018190525
0000b0 b9 2f 00 bd 54 31 2b bd 57 c5 6a bc ed bc 27 bd
       -0.031295512 -0.04179509 -0.014329276 -0.040951658
0000c0 f5 62 38 bd 25 d7 04 bd e5 0f 72 bd c5 59 f2 3b
       -0.045016248 -0.03243174 -0.05909719 0.0073959553
0000d0 32 00 e7 bc 1b a7 ef bc ce 58 ba 3c 8a 49 c0 3c
       -0.028198335 -0.029254487 0.022747423 0.023472566
0000e0 d3 70 10 bc 76 0c ac bc 42 e4 bc 3b 40 05 56 bb
       -0.008815962 -0.021002036 0.005764515 -0.0032656938
0000f0 52 da d3 3b 0b ab ba 3b 69 69 77 bd 53 a4 c9 3b
       0.006465235 0.0056966594 -0.06040326 0.006153622
000100 0a 93 2b ba 75 1e 51 bd 8e 30 80 bc ff 23 60 bc
       -0.0006545043 -0.051054437 -0.015648153 -0.013680457
000110 19 d4 df bb dd 3e 99 3c 1e 85 67 bc 02 b1 0f bd
       -0.006830704 0.018706733 -0.014130859 -0.035080917
000120 84 a3 d2 bb d5 2a 5c bd 51 ba 2b bd 5d 9e 1a bd
       -0.006428184 -0.053751785 -0.041925732 -0.037748683
000130 53 b7 b0 3c 89 15 48 bd 0d 3f ef bb 23 ed 54 bd
       0.02157179 -0.048848663 -0.0073012174 -0.051983964
000140 53 45 d6 3c 79 7d 79 bc 08 58 73 bd 5d e0 03 bc
       0.026156103 -0.015227669 -0.059410125 -0.008049098
000150 b2 5f 08 bd 9c bb 70 39 fd 14 df bb e7 b4 13 bb
       -0.033294387 0.00022958074 -0.006807922 -0.0022538246
000160 21 b1 1c bd 48 36 c2 3c fd 4b 28 ba 19 74 1d 3c
       -0.03825486 0.023707524 -0.00064200145 0.009610199
000170 a7 4d ad 3c 68 0d 2a bd da 7f e7 3b cb 93 83 bc
       0.021155192 -0.04151669 0.0070648016 -0.016061684
000180 a1 7f 90 bd f8 27 57 3c 91 61 42 3c 7d 02 f2 3c
       -0.07055593 0.013132088 0.011864082 0.029542202
000190 01 d6 8a bc ec 99 8d 3c ed 43 c8 bc 3b 90 94 3c
       -0.016947748 0.01728531 -0.024446452 0.01813518
0001a0 99 88 78 bd 0b 4e 82 bc 07 f0 37 3d 93 26 33 bd
       -0.060677145 -0.015906354 0.044906642 -0.04373796
0001b0 cf fa 82 bd 7f bd 28 bd a3 0f 7f 3c 45 2a 22 bd
       -0.06395494 -0.041196343 0.015567693 -0.039591093
0001c0 a4 b6 bc 3c 79 b0 15 bd d7 9c 18 3b 17 12 96 3a
       0.023036309 -0.03654525 0.0023286843 0.0011449483
0001d0 b4 e7 03 3a 2c 02 b5 bb 6d 23 63 bd af 74 99 ba
       0.000503178 -0.0055239405 -0.055453707 -0.0011707748
0001e0 64 19 3f bd f2 b6 4f bc f9 75 23 bd 91 b3 86 bd
       -0.046655074 -0.012677895 -0.03990743 -0.06577218
0001f0 03 02 aa 3c 9a c3 83 3c 8a d1 86 3c 2a 9e 2f bc
       0.020752912 0.016084481 0.016457338 -0.010718862
000200 5c 6e 91 3c 5e b0 1f bd ea d7 46 bd 57 09 a1 3c
       0.017752819 -0.038986556 -0.048545755 0.019657774
000210 53 8b 10 bd 93 9e ae bb 33 29 02 bd 2f 22 c4 3c
       -0.03528912 -0.005328962 -0.031777572 0.023942081
000220 21 ed db bc ce cb 56 bd 4b 37 aa 38 46 78 1f bd
       -0.02684647 -0.052440457 8.116531e-05 -0.03893306
000230 70 60 a0 bb 55 ce e7 bc d3 b0 4a bd a2 4f 60 bd
       -0.0048943087 -0.028296629 -0.04948504 -0.054763444
000240 25 a2 7a bd 3f f9 37 bd 7f 9c b3 3b d0 eb 94 3c
       -0.06118979 -0.044915434 0.0054813023 0.01817885
000250 ad bb 0f bc 70 ca 93 bc db 2b 85 bc 85 1e df 3c
       -0.008772773 -0.018040866 -0.016256263 0.027236233
000260 42 0c a0 3d e3 0e be 3c 47 87 32 bd ac 0a 5c bd
       0.07814838 0.023200458 -0.04358604 -0.053721115
000270 7f 80 5e bd 9e 34 0b bd 4a b5 1d 3c 86 cd 15 bd
       -0.054321762 -0.033985727 0.009625742 -0.036572956
000280 8a 57 7e bb 29 d2 81 3c 24 0d 3f bd 35 67 b7 bc
       -0.0038809502 0.015847282 -0.04664339 -0.02238808
000290 14 9b a9 b8 b1 92 5f bd 4c a5 0b bd 27 90 93 bc
       -8.0874335e-05 -0.054583255 -0.034093186 -0.018013073
0002a0 32 8f fe 39 83 2a 88 bd 0c 8b d9 bb 5f 6b af bc
       0.00048553344 -0.066487335 -0.00663889 -0.021413503
0002b0 ad 7f e6 3c 3d ab 05 bd 5d 91 16 bd 2c 5c 48 3c
       0.028137052 -0.03263401 -0.036759723 0.012229007
0002c0 80 d0 50 bd 53 4f b2 3c 18 cb 18 bd ca ee ba 3c
       -0.05098009 0.02176634 -0.03730306 0.022818942
0002d0 24 6b 4f 3c c1 a9 01 bd e9 c4 4e bc 46 c1 3b bd
       0.012659822 -0.03165603 -0.012620189 -0.045838617
0002e0 00 8d e0 3b 3f d7 7a bd b1 96 7a bd 76 29 53 bd
       0.006852746 -0.06124043 -0.061178867 -0.051553212
0002f0 6b 36 1f bd d6 bf 1d bd 7c 6b 18 bd 42 ae 1e bc
       -0.038870256 -0.038513027 -0.03721188 -0.009685101
000300 ad 96 b3 bb 56 23 6d bd c2 23 27 bd 9e 42 56 3b
       -0.0054806084 -0.057895027 -0.040805586 0.0032693516
000310 48 c7 8c 3c 3e bd de 3c b1 b9 cd ba 2c 9a 28 bc
       0.017184868 0.027189847 -0.0015695599 -0.010290664
000320 7d d8 06 bd 79 2a 09 bc e5 cb 97 3c ef 34 13 3c
       -0.032921303 -0.008371943 0.018529842 0.008984788
000330 76 f9 1f bc 16 9a 10 bd b3 fa 27 bd 05 fb 01 3c
       -0.009764066 -0.035303198 -0.04101057 0.007933383
000340 52 fd b3 3c 03 22 f6 bc 78 dd bf 3b 53 4e 6d 3c
       0.021971378 -0.030045515 0.0058552586 0.014484006
000350 b3 75 0e bc 9f 0a b9 bc 65 2b 20 bd 5c 62 82 bd
       -0.008695054 -0.022588072 -0.039103884 -0.06366417
000360 68 ff 16 bc 31 b5 b6 bc 87 33 74 bc f0 d9 97 bd
       -0.009216167 -0.022303196 -0.014904863 -0.07414615
000370 11 26 8e bd d6 8b a2 3c 0c 0a 3e bd da cb e1 3c
       -0.06940854 0.01984207 -0.0463963 0.027563024
000380 ef d9 22 bd 72 7c 4b bd 99 92 12 bd a7 fb 18 3b
       -0.03975862 -0.049679227 -0.035784338 0.0023343356
000390 87 f1 85 3c 98 bd 4c bd 5a a4 6c bd 47 fa 9e 3c
       0.01635052 -0.0499855 -0.057773925 0.01940645
0003a0 1c e5 a2 3c ce 72 11 bd d5 12 70 bd f9 f0 a7 bc
       0.019884638 -0.035509877 -0.05861171 -0.020500647
0003b0 91 0b 14 bd 13 4d 6c bd 16 15 bc 3b 1e 63 33 3c
       -0.036143843 -0.05769069 0.0057398183 0.010948924
0003c0 7e f2 7b ba 47 c0 b9 3a a7 cb 4b 3c 0c 1f 70 3c
       -0.0009611024 0.0014171683 0.012438691 0.01465584
0003d0 6e 0c 64 bd be c7 18 3c c0 98 bc 3c a3 de 3e bc
       -0.055675916 0.009324966 0.023022056 -0.01164976
0003e0 0b 2e 83 bd ea 6a 4c bd 91 b0 8c 3c b3 5c 12 bc
       -0.064052664 -0.04990665 0.017174037 -0.008933234
0003f0 7c 73 7c 3c b9 60 6f 3b 41 1c 76 bd 8d 8b f4 bb
       0.015408393 0.0036526157 -0.06008554 -0.007462925

fc2.weight f4 [30, 256]
000000 3f 9a 44 bc ab ad 1b bd 19 70 5d bb 70 fc 56 3c
       -0.011999666 -0.03800742 -0.003378874 0.013121709
000010 8c b5 23 3d c2 3e b7 bc f6 79 e3 3b d1 d3 6c bd
       0.03996806 -0.022368792 0.006942029 -0.05781919
000020 2b 51 0b 3d ac 07 77 bb c3 15 4a bd 8e 43 0f bd
       0.034012955 -0.0037693782 -0.04933716 -0.034976535
000030 36 8f 18 bc 43 4d d9 39 72 02 0a 3b 75 bb fa bc
       -0.009311488 0.0004144703 0.0021058586 -0.030606965
000040 22 5b 29 3d 21 df 56 bc 26 b6 f8 3c 61 41 cb bb
       0.041346677 -0.0131147215 0.030360293 -0.006202862
000050 62 c1 77 3c 4e 49 94 bb 3b 93 d5 bb b9 1e e1 ba
       0.01512179 -0.00452534 -0.0065177954 -0.0017175294
000060 56 f9 89 3c b6 9e 47 3d 9d 61 07 3d db 8e 02 bb
       0.016842525 0.048735343 0.033052076 -0.0019921574
000070 40 7a 37 bd fe 1d 27 bd 77 f4 98 3c 4e 0c 47 bc
       -0.04479432 -0.040800087 0.018671257 -0.01214893
000080 9f c9 93 bc 8f fc bc bc 3d 08 56 3c f4 76 bf 3b
       -0.018040476 -0.023069648 0.013063488 0.0058430377
000090 33 4e 2a bd 49 5c d8 3c df 34 2b bd 21 c9 35 bc
       -0.041578483 0.026411192 -0.04179847 -0.011095316
0000a0 8e ee 52 3d 82 9a c0 3c 20 f6 2e bc 60 6e 3b 3d
       0.051497035 0.023511175 -0.010678798 0.04575956
0000b0 74 98 3a bd 50 43 13 3c 1c 21 ed bc 3c f0 80 3c
       -0.045555547 0.0089882165 -0.028946452 0.015739553
0000c0 24 7f 45 ba 70 98 84 bd 92 88 14 3c 64 36 98 bc
       -0.0007533899 -0.06474388 0.009065764 -0.018580623
0000d0 84 27 49 3d 32 a8 a9 bc 88 e8 5e bd db 1b 98 bc
       0.04910995 -0.020710085 -0.054420978 -0.01856797
0000e0 fe bc 32 bd 89 18 11 bc d6 80 07 3c b4 70 9c 3c
       -0.04363727 -0.008855947 0.008270463 0.01909671
0000f0 56 ce 06 bd 5a 07 22 bd bb 56 7d 3c cc f0 8a 3b
       -0.03291162 -0.039557792 0.015462573 0.004240131
000100 21 f6 02 3d 9f 67 56 bd 68 be d2 3c 1c d5 c6 bc
       0.031973008 -0.052344915 0.025725558 -0.02427154
000110 b9 da b6 bc 01 e3 6b bc 82 95 5f bd 4d df 53 bd
       -0.022321092 -0.014397384 -0.05458594 -0.051726628
000120 3f 14 25 3d ed 1f b4 3b c0 80 35 bb 18 d9 50 3c
       0.04030251 0.00549697 -0.002769515 0.012747072
000130 04 28 6f 3b 12 58 fb bb 4b a5 d6 bc 06 f4 d1 bc
       0.0036492357 -0.007670411 -0.026201865 -0.025629055
000140 bb 7c ee bc 79 9d 69 3c 39 cd c3 3c 9d a7 d6 3b
       -0.02911221 0.014258736 0.023901569 0.006550743
000150 8f e9 80 bc 77 08 0c bc 24 ac 15 3d ae 8b 27 b9
       -0.01573637 -0.00854694 0.03654112 -0.00015978396
000160 e6 e6 32 bc 87 88 2b 3c 7e e9 43 3d 9b c7 0d 3d
       -0.010919308 0.010469562 0.047830097 0.034614187
000170 70 d6 ed bc 46 ba 85 3c 52 f6 12 3d 63 4b 16 bd
       -0.029032916 0.016324174 0.03587944 -0.036692988
000180 0b cf 0e bd 3d 11 a4 3c d1 92 56 3c 7b 59 2c 3d
       -0.03486542 0.020027751 0.013096527 0.042077523
000190 d1 e1 65 bc 74 f8 a7 bc 5b bd c2 bc 40 84 49 3b
       -0.01403089 -0.020504214 -0.023771932 0.0030748993
0001a0 37 f8 b1 3c 30 3e c3 bc da cc 7b bb c5 d9 fc bc
       0.021724803 -0.023833364 -0.0038421662 -0.03086556
0001b0 c6 ef 41 3d 0b a2 d5 bb 5c 18 e2 bc f1 0e de bc
       0.047347806 -0.006519561 -0.027599506 -0.027106734
0001c0 7d 27 02 3d a5 2e f2 bc ae 27 0b bd f2 55 11 3d
       0.03177594 -0.029563257 -0.03397339 0.035482354
0001d0 b6 02 05 bd 30 14 48 bd 12 5d e5 3c 2c e2 10 3d
       -0.03247329 -0.048847377 0.027998481 0.035371944
0001e0 b8 6b 2e bd 5c 79 d7 ba 2a 9a 42 bd ab 20 92 3c
       -0.042583197 -0.0016439366 -0.047510304 0.017837843
0001f0 95 3f 1f 3d b1 f6 1c 3c 3c 3a 2b 3d cc 4a b8 bb
       0.038878996 0.0095803 0.041803584 -0.005624151
000200 fe 2f 36 3c 29 ce 8a 3c b0 10 2a 3c db f4 4d ba
       0.011119841 0.016944008 0.010379955 -0.00078566157
000210 b5 5d ba 3c 90 5d a7 3b c9 4f ec 3c f8 d2 7a bb
       0.022749761 0.005107589 0.028846638 -0.003827272
000220 bc 0c 96 bc f8 ff 31 bd 40 c5 1e 3c d8 24 4c bd
       -0.01831662 -0.043457 0.009690583 -0.049839824
000230 90 c5 97 3a e9 19 24 3d 53 6b d3 bc 63 b7 1d bd
       0.0011579264 0.040063772 -0.025808012 -0.03850497
000240 f7 bb ff bc 83 4e ee bc 2b a8 85 b9 b9 85 33 3d
       -0.031217558 -0.029090172 -0.00025493032 0.0438287
000250 7b 57 03 bd 88 4a 9f bc 12 38 44 bd 0a c6 41 3c
       -0.03206585 -0.019444719 -0.047905035 0.011827001
000260 7c b0 8a bb 4e 51 49 bd 45 fd d8 bc 27 59 ce 3c
       -0.0042324644 -0.049149804 -0.026487956 0.025188996
000270 dd 07 35 3d c7 0d ea 3c 10 2a 26 bc d6 c0 82 3b
       0.044196952 0.028571023 -0.010141864 0.003990273
000280 d9 8a 63 3c e5 99 19 3d 4a 5d 44 3c 58 00 ee 3c
       0.013888084 0.03750028 0.0119851325 0.029052898
000290 5f 5c 37 bc fb 6e b1 bc eb 25 4f bc 21 e7 5e 3b
       -0.011191457 -0.021659365 -0.012643318 0.0034012275
0002a0 57 a0 df bc 4e 54 c4 3c 84 44 f1 bc a4 9c 7c bc
       -0.027298136 0.02396598 -0.029451616 -0.015418205
0002b0 1c 91 52 3d bd 46 80 3c 5f 8e b5 3b d9 18 a4 bc
       0.05140792 0.01565873 0.0055406536 -0.02003138
0002c0 8c 72 e3 3c 79 9f 1b 3b 01 54 59 3c 85 fc 87 bb
       0.027764581 0.0023746176 0.013264657 -0.0041499757
0002d0 74 e4 2c bd 4a fa 00 3d 27 bc 1f bd 7a b4 f7 3c
       -0.042210057 0.031488694 -0.038997795 0.030237425
0002e0 15 17 0b 3d 73 5c 32 bd c2 f7 e1 bc 2d c8 0a 3d
       0.03395756 -0.043545198 -0.02758396 0.03388231
0002f0 38 e5 4f bd a8 ab 14 3d c3 a7 da 3b 88 90 f2 3a
       -0.05075571 0.036296517 0.006672831 0.0018506208
000300 c0 ff 01 3d 71 fb 05 bc e4 72 53 bc 81 33 09 3c
       0.031738043 -0.008177624 -0.01290581 0.008374096
000310 d3 df f8 bc bf 11 2f bd c5 e6 0a 3c 72 d2 52 bd
       -0.030380165 -0.042741533 0.008477871 -0.051470228
000320 3b 78 47 bd a0 76 0b 3d ee ff 62 bc 82 6e 2f 3d
       -0.048698645 0.034048676 -0.013854964 0.042829998
000330 f1 e5 d0 bc a5 f7 8f 3b bc 7e d0 3c 36 ca 52 bd
       -0.02550027 0.004393535 0.025451057 -0.051462375
000340 18 b8 d8 3c fd cc 07 bd 7a a2 37 3c 59 37 03 3d
       0.02645497 -0.033154476 0.011208171 0.032035206
000350 38 bf 07 bd 19 a9 3a 3d db 1f 93 3c 48 4e 14 3d
       -0.033141345 0.04557142 0.017959526 0.036207467
000360 e2 87 d9 bb 5d 41 f6 bc 39 32 1f 3c 29 7e 23 3d
       -0.006638513 -0.030060465 0.009716564 0.039915238
000370 c1 52 8e 39 7a b9 09 bd 6b 78 4a bd 4d c8 8a bc
       0.00027146007 -0.03362415 -0.049431246 -0.016941214
000380 4f d5 7e 3c db 05 d4 3c 23 36 07 3a 6b 6a 81 bd
       0.015553786 0.025881698 0.00051579083 -0.06319126
000390 68 7d 44 3d 0f 41 03 3d 05 c2 88 bc 95 e3 b4 bc
       0.04797116 0.032044467 -0.016694078 -0.022081176
0003a0 ee 8c 20 3d db b9 7d bd 1c 2f 7e 3c 98 7b 28 bc
       0.0391969 -0.061944824 0.015514161 -0.010283373
0003b0 ef 39 f6 bc 2b 96 06 bd d9 a5 3a bd 3b 10 7c bb
       -0.030056922 -0.032858055 -0.04556832 -0.0038461823
0003c0 63 c9 0f bc a1 81 22 3c 76 e9 1e bc cb 44 a7 3b
       -0.008776042 0.009918601 -0.009699216 0.0051046363
0003d0 4a 5c 18 3b 8c 12 82 3c 3a 67 53 3d 1b 26 2f bd
       0.0023248368 0.015877984 0.051612116 -0.04276095
0003e0 c9 e0 34 3d 9e fc ae 3c 1d e3 0a bd 68 12 ac 3c
       0.044159684 0.021360692 -0.033908 0.02100487
0003f0 b9 6c 28 3d 66 cd 65 3c 54 25 4e 3d 21 34 a6 bc
       0.04111931 0.014026022 0.050328568 -0.020288529

fc2.bias f4 [30]
000000 97 88 3f 3b 41 be ae 3c f3 d3 3e 3c f8 c8 ca b9
       0.00292257 0.021330955 0.011647212 -0.00038678176
000010 4f 65 bb ba 28 c1 63 3b 54 a6 71 3c 5c b0 52 bc
       -0.001429716 0.0034752581 0.014749128 -0.01285943
000020 7c 7c 19 bc b6 f2 19 3c f6 20 d7 bc 5b 45 28 3c
       -0.009368058 0.009396246 -0.026260834 0.010270442
000030 d8 b3 21 bc 34 a4 a8 3c 4f 1d 2a 3c 4a cb 08 bc
       -0.009869538 0.02058611 0.010382964 -0.008349249
000040 b8 9a 23 bc fc 28 f9 3b 43 46 49 3a f5 79 ea bb
       -0.009985618 0.0076037627 0.00076780113 -0.0071556517
000050 04 77 7b bc 6e 5f 22 3c 3f 3f c8 3b 0c f3 39 3c
       -0.0153482 0.0099104475 0.006111055 0.011349451
000060 af cd 32 bb f5 3f 01 3a 9d b0 92 bb 7b 32 ed 3b
       -0.0027283242 0.000493049 -0.0044766204 0.0072386838
000070 81 56 4e bc 73 c6 70 bb
       -0.012593866 -0.0036739379

fc3.weight f4 [30, 256]
000000 93 57 be 3c d6 31 aa 3c 32 f4 d1 bc 9e 1a cf bc
       0.023235118 0.020775717 -0.025629137 -0.025281247
000010 89 c8 90 3c 41 be cf bc 53 b8 9a ba 90 8f 75 bd
       0.017673748 -0.025359275 -0.00118042 -0.059951365
000020 82 8c e3 bc ac 73 b1 3c 2a 5b 37 bc ba 0a 30 3d
       -0.02777696 0.021661602 -0.011191169 0.04297898
000030 7f 8d c5 bc cf 24 ed 3c c4 5a 07 3c 2c 1a 35 bd
       -0.024115322 0.028948216 0.008261386 -0.044214413
000040 5c 22 f0 3c d1 b4 2f 3d 8b 17 41 3d b6 b7 ee 3c
       0.029313259 0.04289705 0.047141593 0.029140335
000050 38 69 25 3d c8 2a 1c 3d 37 1d fc 3c d2 c9 7a bd
       0.040383548 0.038126737 0.03077565 -0.061227627
000060 82 3f 47 bd 33 75 a1 3c a4 db 02 3d 47 73 e8 bc
       -0.04864455 0.019709205 0.031947747 -0.028375281
000070 7b 65 8d bc c9 27 3d bd c7 de f2 bb f2 0d 9b bc
       -0.017260304 -0.04618052 -0.007411811 -0.018927548
000080 34 9c 49 bd 2b 71 02 3d cc d0 a0 bc 09 64 56 bd
       -0.049221233 0.031846207 -0.019630812 -0.052341495
000090 38 b0 96 bc 50 e3 07 3d e0 15 3d bd df dd 7d bd
       -0.018394575 0.033175766 -0.04616344 -0.06197917
0000a0 e9 b7 20 3d fd 59 12 bd d1 03 cd bb cf e1 29 bd
       0.03923789 -0.03573035 -0.0062565585 -0.041475113
0000b0 42 3c 67 bd e3 27 d2 3c 59 e8 55 bd f5 91 3a bd
       -0.05645395 0.025653785 -0.052223537 -0.04554935
0000c0 6c f9 15 3d d5 68 71 3d 28 4d be bc 7b 36 bb 3c
       0.03661482 0.058937866 -0.02323015 0.022853127
0000d0 fe 41 17 bb f5 8a d5 bc 4f 5d da bc 83 3a bf b9
       -0.0023080106 -0.026067236 -0.026655821 -0.00036473954
0000e0 8c ff 67 bd 51 d7 aa bc 68 10 24 3d 42 ec a0 bc
       -0.056640193 -0.020854624 0.04005471 -0.019643907
0000f0 ac f4 41 bd 18 a7 4d bd 14 f7 69 3d 96 79 01 bd
       -0.047352478 -0.05020818 0.057120398 -0.031610094
000100 5e 68 d9 39 79 43 66 bc aa 7a 47 bd 8b d4 0d 3d
       0.00041467225 -0.014054173 -0.048700966 0.034626525
000110 fc 20 1d bc b0 78 d1 bc dd 08 0b bd d5 68 63 bc
       -0.009590384 -0.025570244 -0.033944 -0.013879974
000120 92 08 24 3d 5a 9e 6e bd e5 87 0b bd e5 f6 2b bd
       0.040047236 -0.058256485 -0.034065146 -0.041983504
000130 e0 f8 a6 b9 87 d8 54 bd 52 dd 85 bc 57 f5 d3 3b
       -0.00031847414 -0.05196431 -0.016340885 0.006468456
000140 24 58 25 3d 19 3f f2 bb 32 c9 35 bd 1f 03 b7 3c
       0.04036726 -0.0073927757 -0.044381328 0.022340355
000150 39 bd 74 bd 67 f5 22 3d 42 d5 6e bd 2f af 55 bd
       -0.05975077 0.039784815 -0.058308847 -0.05216902
000160 b8 fe 0c 3d 93 df 01 3d 1c 98 03 bd 13 ad d6 3c
       0.034422606 0.031707358 -0.032127485 0.026205575
000170 70 38 1a 3b 0f 14 fd bc c9 00 62 bc 16 74 57 bc
       0.0023532175 -0.030893354 -0.0137941325 -0.013150236
000180 ec e4 22 bd 9e 5a ad bb 74 b0 20 3d ed 8f 1d 3d
       -0.0397691 -0.0052903434 0.03923078 0.038467336
000190 ad 23 80 3b 01 d2 3c bd 7d b9 9c bc e6 13 65 bd
       0.003910503 -0.046098713 -0.019131416 -0.05592718
0001a0 d1 38 13 3d 96 cf b8 bc a2 04 8b bc b3 2c 95 3c
       0.035942856 -0.022559922 -0.016969983 0.01820979
0001b0 92 f4 6f ba 25 6d 0b bc 95 36 7f bd c1 68 6b ba
       -0.000915357 -0.008509909 -0.062307913 -0.0008980148
0001c0 43 f8 0b bd 23 3e 6a 3d de 46 2a bc f1 19 79 3c
       -0.034172308 0.057188164 -0.010392873 0.015203939
0001d0 25 b3 28 bc 56 91 4f bd be f7 6a 3c cf 63 11 bc
       -0.010296618 -0.050675713 0.014341293 -0.008873894
0001e0 3b e4 6e 3c a0 6a 83 3c 50 9c a3 bc 85 cc d2 3c
       0.014580782 0.016042054 -0.019971997 0.025732288
0001f0 71 da e5 3c e1 53 eb 3c 4b 49 93 bc f5 bb 2f bd
       0.028058263 0.02872652 -0.017979285 -0.04290386
000200 2c 56 a5 bc f1 da 5b bb 45 3b 46 3c 6f 66 98 bc
       -0.020182692 -0.0033547247 0.012099092 -0.018603532
000210 7e a0 03 3d 9a 46 14 bd 72 8c 00 bc 90 ea eb 3c
       0.03213548 -0.036200143 -0.007845985 0.028798372
000220 83 98 b4 bc 9f 8e 2f bc df 49 df 37 a4 34 a0 bc
       -0.02204538 -0.010715156 2.661807e-05 -0.019556351
000230 9b 77 f3 3c a9 66 04 bd eb f5 9f bc 63 f0 6e 3a
       0.029720118 -0.032324467 -0.019526443 0.00091148
000240 fd e4 fa bc 48 71 53 bd ab f9 c4 bc 37 f3 9a 3b
       -0.030626768 -0.051621705 -0.024044832 0.0047287005
000250 52 59 70 bd 98 9b 23 bd 66 23 43 3c dd fc 5c bd
       -0.058678932 -0.039943308 0.011910295 -0.053952087
000260 47 e7 ae bc a3 8c 18 3d 0d 21 c7 3c 7c 93 55 bd
       -0.021350516 0.037243497 0.024307752 -0.052142605
000270 b1 30 5e bd b8 99 6e 3c c7 1a 12 bc 31 a3 bf 3a
       -0.054245654 0.014563017 -0.008917517 0.0014620778
000280 4f cd 3a 3d ba eb a5 3c 97 fe 20 3c 36 67 0a 3d
       0.045605954 0.020254005 0.009826324 0.033789836
000290 2e 8b 11 bd 14 43 81 bc 93 cf e3 3a 38 05 3d bd
       -0.035533123 -0.015779056 0.0017380588 -0.046147555
0002a0 5f 47 20 bd 14 bd ae 3c be a6 8b bc d5 8a 60 ba
       -0.039130565 0.021330394 -0.017047282 -0.00085656095
0002b0 23 9e 22 3d 12 01 c2 bc 52 9e 03 bd 31 d0 ab 3c
       0.039701592 -0.023682151 -0.032133408 0.020973297
0002c0 f0 53 68 3c 14 70 25 bd 4e 0d 95 bc 53 bc 8a 3c
       0.0141801685 -0.04039009 -0.01819482 0.016935503
0002d0 12 c7 14 bd b7 8f 47 3d 04 25 ff 3c b3 4e 1d 3d
       -0.03632266 0.04872104 0.03114558 0.03840513
0002e0 74 73 5e 3d 31 28 54 3c 0a bf 4e bc 8d fd 70 bc
       0.054309323 0.0129490355 -0.012618789 -0.014708889
0002f0 f9 4e f3 3c e3 8d 7d 3b c2 39 dd 3c ce 0c 08 3d
       0.029700743 0.0038689307 0.02700508 0.033215337
000300 5c 98 14 bc c3 ae 81 3c f5 97 18 bd 39 51 1c 3d
       -0.009069528 0.015830403 -0.037254293 0.038163397
000310 6a 27 c8 bc 1c ce 48 bd 0e 07 0f bd e8 ba 03 bd
       -0.024432857 -0.049024686 -0.034918837 -0.03216067
000320 2a 0f 39 3d c8 fe 11 3c e3 09 80 bd c3 d0 a1 3b
       0.045180477 0.008910842 -0.06251886 0.0049382164
000330 8b 58 32 bb cb 13 d3 3c 6e 98 0e bd 63 85 0a 3c
       -0.002721342 0.025766274 -0.034813337 0.008454653
000340 34 32 b3 3c d2 49 c9 3c 92 d6 b6 3c cb 09 83 3c
       0.021874525 0.024571333 0.022319112 0.01599588
000350 2b 8a 99 bc 12 c0 95 3c 82 62 c4 3c 50 30 2a bd
       -0.018742641 0.018280063 0.023972753 -0.04154998
000360 62 03 73 3c ef 37 fc 3c c5 0a 4c bc e7 30 00 3d
       0.0148323495 0.03078839 -0.0124537395 0.031296637
000370 16 7a 01 3d e3 f1 9a 3c 4b ff 66 bc 83 d1 a0 bc
       0.03161057 0.018914169 -0.0140989525 -0.019631153
000380 db 47 1d 3d 0c e5 f5 bc 71 4c cc bc 87 17 ff bc
       0.038398605 -0.030016445 -0.024938794 -0.031139148
000390 af e5 91 bc 9d 38 f0 3c 1f 5b 1f bd fb a9 0e bb
       -0.017809717 0.02932387 -0.03890526 -0.0021768797
0003a0 a9 a9 d9 3c 48 ad 85 bd 78 58 8c 3a 7f 81 67 bc
       0.026570158 -0.065271914 0.0010707518 -0.014129995
0003b0 6a 82 0e 3d 3b a4 0a bd 29 17 94 3c 07 01 a6 ba
       0.03479234 -0.03384803 0.01807745 -0.0012665101
0003c0 f1 92 bb bc eb 25 54 3b 42 8e f4 bb 5a 13 a9 3c
       -0.022897216 0.0032371234 -0.0074632475 0.02063911
0003d0 24 a8 87 3c ab f8 fe bb d1 9c e0 3c f2 31 1d 3c
       0.016559668 -0.0077811084 0.027418526 0.009594427
0003e0 48 81 66 bb f9 a6 33 3d c5 76 f9 3c 14 c0 c4 bc
       -0.0035172272 0.04386041 0.030452142 -0.024017371
0003f0 30 3c c0 bc 4d 72 9b 3c f3 b6 b5 bc 0d d8 92 3c
       -0.0234662 0.018975401 -0.022181964 0.017925287

fc3.bias f4 [30]
000000 85 47 61 3c 73 fe 83 3b 98 a5 6e bb 92 0e 93 bb
       0.013749962 0.0040281354 -0.003641462 -0.004487821
000010 a1 cc 0c 3c ca 92 aa bc 45 32 99 3b 31 a3 54 bb
       0.008593709 -0.020821948 0.004675182 -0.0032445902
000020 3b 31 31 3c 81 4d 29 3c d8 10 8b bb 7d 33 c2 3b
       0.01081496 0.01033342 -0.0042439513 0.005926548
000030 b5 ca 48 3b 5d aa 5b 3c f9 90 3f bc d5 67 c6 ba
       0.00306384 0.013407317 -0.011692279 -0.0015137146
000040 02 e1 85 3b ce 9b 81 3c 31 cd fc 3b ec f7 4d bc
       0.004085661 0.015821364 0.0077148904 -0.012571316
000050 d6 ad 72 3c 74 b5 6b 3b bc b3 96 3a cc d2 80 bb
       0.0148119535 0.0035966309 0.0011497657 -0.003931379
000060 57 7b 95 bb bc 68 61 bb 3b e2 9f 3c 1b 91 0d bc
       -0.0045618224 -0.0034394702 0.019517055 -0.008640553
000070 05 09 30 bc 05 63 11 bc
       -0.010744338 -0.008873706

fc4.weight f4 [256, 30]
000000 5d ae 35 bc a4 14 b6 3c ef 47 7e 3b f2 7d 11 3d
       -0.011088935 0.02222664 0.00388002 0.0355205
000010 a6 a0 5f 3c 0a 67 46 3a 1c 71 6e 3c 90 9f b4 3c
       0.013649141 0.00075684546 0.014553335 0.022048742
000020 8a 1b 3c bc 88 47 66 3c 21 2e 33 3b c0 8c cc 3c
       -0.011481175 0.01405514 0.0027340727 0.024969459
000030 e5 eb fa bb 79 45 2e 3c 44 cc 81 ba ac b5 1d 3b
       -0.0076575154 0.010636681 -0.0009902795 0.0024064584
000040 fe 25 b8 3c 74 24 3e 3c 84 ea 47 3b 2e aa 08 3b
       0.022479054 0.011605371 0.0030504772 0.0020853388
000050 70 6f 9f ba 5d 18 8c bc bd 80 a8 3b 45 ad 0c 3c
       -0.0012163948 -0.017101461 0.0051423 0.008586233
000060 62 49 16 3b 80 a8 c3 bb 7b 55 81 bb 40 b9 3d 3b
       0.0022931923 -0.0059710145 -0.0039469576 0.002894953
000070 45 46 8b 3c 1a 2a 57 3c 2e 7f 8f 3b e4 80 d0 ba
       0.01700128 0.013132596 0.0043791747 -0.0015907553
000080 d4 e0 24 3c eb 3f 42 3c d7 73 aa 3b cf a4 3f 3c
       0.010063369 0.01185606 0.0052017975 0.011697008
000090 6c 2b 2f 3c 0b ae 4f 3c 3e 1a 9c bc 6b 6e c0 bb
       0.010691505 0.012675772 -0.019055482 -0.005872538
0000a0 bc 5e c1 bb 58 3a 33 3b cc a0 16 bb ab e7 98 3c
       -0.005901186 0.0027348008 -0.0022984026 0.018665155
0000b0 51 8f ce bb ec 67 94 bb cb e0 fe 3b d2 c5 8e ba
       -0.0063037057 -0.00452899 0.0077782623 -0.0010892695
0000c0 3e ff a5 38 87 27 16 3c 0f f3 e2 3b 05 87 12 bc
       7.915356e-05 0.0091646975 0.0069259475 -0.008943324
0000d0 be b1 97 39 0d 5d 66 bb 30 30 de bb 9a 2f 8f bb
       0.00028933393 -0.0035150677 -0.0067806467 -0.004369688
0000e0 79 c1 c0 bb e4 67 bd 3a 44 c0 33 3c 98 57 89 bb
       -0.0058824387 0.0014450517 0.010971133 -0.00419135
0000f0 47 0a 07 bc 05 06 7e 3c 03 a0 db bb c9 63 44 bb
       -0.008242196 0.015504365 -0.0067024245 -0.0029966703
000100 22 7a e8 3b 23 85 82 3b 7f 48 71 3c f6 5e 86 3c
       0.0070946375 0.0039831563 0.014726757 0.016402703
000110 92 8c 39 bb e9 93 91 ba db c3 99 ba 54 3d 7d ba
       -0.0028312546 -0.0011106703 -0.0011731343 -0.00096603227
000120 79 c9 aa 3b e8 cc de 3b 40 f1 58 3b d1 5c 78 bc
       0.0052120057 0.006799329 0.003310278 -0.015158848
000130 94 64 fe bb 83 df ae 3b 88 ad f1 bb 12 05 74 3b
       -0.0077634547 0.0053367033 -0.007375423 0.0037234467
000140 ab 95 f4 3b 65 ee 3c bc 6e 33 eb bb 8c 5a 9c 3b
       0.007464131 -0.011531447 -0.0071777618 0.004771536
000150 57 99 8f 3a 8c ce 9e 3b 6f 73 14 3c 9f f9 93 3c
       0.0010955733 0.0048463996 0.009060725 0.018063365
000160 cb 08 38 bb 89 bf 88 3b 10 92 29 bc e0 f6 cd 3a
       -0.0028081413 0.0041732234 -0.010349765 0.0015713833
000170 e3 fb a8 ba f8 58 33 bc 32 3d be 3a a2 6e 77 3b
       -0.0012892451 -0.010946505 0.0014514087 0.0037755151
000180 58 fd 90 bb e9 32 a5 b9 cf ef 25 3b d3 95 9e 3c
       -0.004424732 -0.00031509183 0.002531994 0.019358551
000190 82 b3 37 bb 55 ff 5d bc 54 de 35 3c 68 c9 d0 3b
       -0.002803058 -0.013549645 0.01110037 0.0063716657
0001a0 15 13 12 3c 8c 7d 57 3b d1 f1 5c bb 6f 5a a8 bb
       0.008915682 0.0032881228 -0.003371347 -0.0051377336
0001b0 b4 69 f1 3b 62 58 2a 3b e8 ff db bb 37 af cd 3a
       0.007367337 0.0025992622 -0.006713856 0.0015692477
0001c0 9f 55 9b 3b 7d d3 6f 3b 5a fa be b9 39 df 0e 3c
       0.0047404314 0.0036594563 -0.0003642615 0.008720213
0001d0 97 83 05 3c 38 67 b3 ba 9f a2 8b bb 9c 5e 69 bb
       0.008149049 -0.0013687378 -0.0042613293 -0.003560937
0001e0 0a 5e 4d bb 58 76 05 bc a7 2e 2b bc 20 9f 2c 3c
       -0.003133657 -0.008145891 -0.0104481345 0.010535985
0001f0 75 47 75 bc 70 65 a0 bb 94 2a 7b 3c 8f dc 8b bb
       -0.01497065 -0.004894905 0.015329976 -0.004268236
000200 ef cd 05 3b 57 b2 8d bc f1 3d 46 bb c1 9d b3 3b
       0.0020416935 -0.017296953 -0.0030249322 0.005481452
000210 bc 37 a5 bc e2 2d fb 3b 85 33 66 bc f3 47 3e ba
       -0.020168178 0.0076653818 -0.014050369 -0.0007258646
000220 17 3d b9 3a 8e e9 81 bc 93 1e 39 39 e1 6b d9 ba
       0.0014132586 -0.015858438 0.00017654365 -0.0016587937
000230 53 31 a9 3c 3c 73 83 bc cc a3 fe bb b1 d9 d2 b9
       0.020653402 -0.016046159 -0.007770991 -0.00040216514
000240 56 dc 80 3b df e8 75 bb ba 56 6b bc 7d b7 35 bb
       0.003932516 -0.0037522835 -0.014363939 -0.0027727776
000250 56 ef 9c 39 e1 55 a6 bb 07 df 43 3b 0e ef 21 bb
       0.00029932958 -0.0050761555 0.0029887573 -0.0024709138
000260 a3 24 dc ba 66 4d 6a bc 81 90 83 bc a8 48 36 bb
       -0.0016795587 -0.01430068 -0.016060116 -0.0027814303
000270 a3 1c 0a bc d3 28 a4 3c 7c 1f 1d bc 4d 63 02 bc
       -0.008429679 0.020038998 -0.009590026 -0.007958245
000280 79 a5 99 3b 34 33 70 3b cc d9 d8 ba 38 1c c5 3b
       0.0046889153 0.0036651613 -0.0016544401 0.006015327
000290 94 80 97 bb 60 95 0c bc 93 1c 63 bc 3c 4c 24 3b
       -0.004623482 -0.008580536 -0.013861793 0.0025069853
0002a0 7f ab 3b 3a c4 c3 c2 ba 33 5c 20 3b e9 b2 c9 3b
       0.0007159039 -0.0014859368 0.0024469018 0.006155361
0002b0 e1 2a a3 bb 56 81 74 bc cd f8 1b 3b 50 63 6a bb
       -0.004979477 -0.014923414 0.002379942 -0.0035764761
0002c0 99 e1 c1 b9 a1 02 99 3b a9 6d 62 3b 0e a0 98 3b
       -0.00036979912 0.004669503 0.0034550226 0.004657752
0002d0 0a 82 35 3b 45 4f b5 bb c5 3b 24 bc 96 13 57 bc
       0.0027695918 -0.0055331313 -0.010024016 -0.013127228
0002e0 3e 5a bb bb b2 21 dc 3b 8c 12 a5 b9 19 d1 c6 ba
       -0.005717545 0.006717884 -0.0003148507 -0.0015168517
0002f0 1d 79 bd bb da 7d 80 bc 79 77 b8 bb 02 05 85 bc
       -0.00578226 -0.01568501 -0.0056294766 -0.01623774
000300 7d 35 a6 bc 82 7a 7c 3c 77 0e 30 bc 08 8d 87 3b
       -0.020289177 0.0154100675 -0.010745636 0.0041366853
000310 ec c9 d0 bb 71 82 fe 3a 89 24 62 bb c2 aa 1e 3c
       -0.006371727 0.0019417537 -0.003450664 0.0096842665
000320 bb 18 fd 3b fd 74 44 3c ca b3 0c 3b bb f9 24 bc
       0.0077238954 0.011990783 0.0021469467 -0.010069306
000330 c0 6a 0e 3b 53 d1 f4 b9 e4 66 18 bc e9 ac 21 3c
       0.0021731108 -0.00046695265 -0.009301875 0.009867885
000340 71 03 05 bb 72 9b d9 bb 8b 2c 31 3c 0c 5d a1 bc
       -0.002029624 -0.006640845 0.0108138425 -0.019697689
000350 7e b0 f9 3b b9 3c 83 bc 79 d4 6b 3c a6 37 0b bc
       0.0076199165 -0.016020166 0.014393919 -0.008497154
000360 a4 73 5e bb 33 d0 f1 bb 27 80 49 3c c6 13 3f bc
       -0.003394344 -0.0073795556 0.01229862 -0.011662429
000370 5d 1c f6 3b df b8 9a ba fd 49 12 3c a5 b0 27 bc
       0.0075107054 -0.0011804363 0.008928773 -0.010234986
000380 7e 66 22 bc a6 8a 0a 3b 44 35 8f ba 1d cc 1d 3b
       -0.009912131 0.002113977 -0.0010925909 0.002407796
000390 5a 4b ee ba 16 75 e8 3b 74 65 f0 bb dd d7 85 3c
       -0.0018180415 0.007094036 -0.007336313 0.016338283
0003a0 08 29 ea bb ac 73 ca bb 9b 41 c0 3b ac ef d4 bb
       -0.0071460046 -0.00617834 0.005867196 -0.0064982977
0003b0 7f df 5a bc 06 95 b4 36 e0 ab 86 ba 8b c4 06 3b
       -0.01335895 5.3817666e-06 -0.0010274611 0.0020563926
0003c0 41 e9 8c bb 5b ba 05 bb ca c9 ed 3c 07 9b da 3a
       -0.004300267 -0.0020405266 0.029026885 0.0016678282
0003d0 5e e3 dd 3c 9c e8 70 bc d0 9e 7b bb 7f da 95 bc
       0.027085956 -0.014703896 -0.003839422 -0.018292664
0003e0 a7 bb b8 3c 0b 76 ca bb 5a 2b a7 3c c8 74 af 3b
       0.022550417 -0.0061786226 0.020406414 0.0053544976
0003f0 5a 9b b4 3c 06 76 e8 bc 37 fb de bb fb fb 2d 3a
       0.022046734 -0.02837659 -0.0068048495 0.0006636974

fc4.bias f4 [256]
000000 6e 2e 1c 3e af 01 ac 3d d2 4c 21 be af 92 fb 3c
       0.15252087 0.083987586 -0.15751961 0.030709593
000010 59 77 76 3e 86 0d 79 be 8c 89 63 3d 9b 8e 4f 3b
       0.24068965 -0.24321565 0.055551097 0.0031670693
000020 5e 29 20 bb 08 6f bc 3b dc 85 87 bc ac fb 1c 3b
       -0.002443872 0.0057505406 -0.016543321 0.002395372
000030 6b e0 68 3c 16 2a 23 3e 3a 7e 81 be a9 84 54 bd
       0.014213662 0.15934023 -0.25291616 -0.051884327
000040 b8 3e e3 bb e7 46 f0 ba 61 4c 0b bc cf 45 09 3d
       -0.006934967 -0.0018331677 -0.008502097 0.03351384
000050 f0 eb a3 ba ad 4c 0a bd 17 4d f5 bb df 14 13 39
       -0.0012506228 -0.03376453 -0.0074859965 0.00014026788
000060 12 12 8a ba f1 1e 71 b9 85 20 33 bc ed 05 24 3e
       -0.001053395 -0.00022995078 -0.010933046 0.16017886
000070 2e fa 12 3d d0 f5 db bd 16 58 27 bd eb d8 2b 3d
       0.03588312 -0.107402444 -0.04085549 0.041954916
000080 aa bb 0a be b8 6f 9c 3b ee d8 ad 3d 3c 18 47 be
       -0.1354815 0.00477406 0.08488642 -0.19442838
000090 22 4a fc bb 2f 63 15 be 7a f5 a5 bd 4c 36 0d 3c
       -0.007699267 -0.14588617 -0.081034616 0.008618902
0000a0 c9 15 82 3e 63 6e dc ba 22 0f 92 3d 75 1d 0d 3c
       0.25407246 -0.0016817566 0.071317926 0.00861298
0000b0 d7 d6 20 bd 72 cc 0e 3d f5 71 31 3e 68 3e 02 bc
       -0.039267387 0.034862943 0.17328627 -0.007949449
0000c0 82 cd 92 bd e5 6a bc 3c d9 2e a6 3a fa fe 3e bd
       -0.07168104 0.02300019 0.0012678757 -0.046629883
0000d0 77 0e 72 3c e9 0b fa 39 46 83 44 bc 34 3a e1 bd
       0.0147739565 0.0004769259 -0.011994189 -0.109974295
0000e0 76 3b ae bc e9 d7 a7 3d 81 8a 9d 3c e7 ca d5 3b
       -0.021268588 0.081954785 0.019231083 0.006524432
0000f0 60 4e cc 3d d5 80 45 3d f9 63 13 b9 e0 ad d3 bb
       0.09975886 0.048218567 -0.00014056255 -0.0064599365
000100 7c 30 b1 3b 15 af e4 3c 24 cb 88 3e bb 34 41 be
       0.005407391 0.027915517 0.26717484 -0.18867771
000110 7d c1 5d 3e 28 ba 92 3a 26 c6 b7 3d bc 0f 46 3d
       0.21655841 0.0011194395 0.08973341 0.04835485
000120 af f5 9e 3d 85 38 85 3e 34 8b 0a bc c9 b5 90 3d
       0.07761704 0.26019683 -0.00845604 0.07065923
000130 fc dc e0 3b 78 38 13 be df 0c 5d ba 2f 9f 0e 3c
       0.006862281 -0.1437701 -0.0008432399 0.0087049445
000140 0e 5b 35 3c 04 a5 42 bc e9 73 27 3e a1 ae 05 bd
       0.011069072 -0.011880163 0.1635281 -0.032637242
000150 0e a5 96 3e 6d e8 3b 3c 08 bb ff 3a 90 f0 10 3d
       0.29422802 0.011468989 0.0019510696 0.03538567
000160 b2 f1 93 39 17 c0 87 bb 61 c0 fb 3b ee 14 1a 3b
       0.00028218102 -0.004142772 0.0076828455 0.002351101
000170 83 35 7b 3e f7 17 16 be fe a3 0e be f3 64 3e 3c
       0.24532132 -0.1465758 -0.13929746 0.011620748
000180 4c 0d 87 bb c9 40 a6 3d 1b a0 6b 3d 18 9b b6 bc
       -0.004121458 0.081178255 0.057525735 -0.022290751
000190 e9 73 ab 3b 36 da a6 3b 32 aa 5c ba 27 23 50 bb
       0.0052323234 0.0050919307 -0.0008417695 -0.0031759234
0001a0 1a d7 6a 3b c1 bc 3e bc ad fc c0 ba 3a f9 c9 b7
       0.0035833777 -0.011641682 -0.0014723741 -2.4077122e-05
0001b0 1f 11 c6 3b af bb 82 3e 4c 48 8e be fd 64 22 bb
       0.0060445215 0.25533816 -0.27789533 -0.0024779432
0001c0 08 b7 0d be 67 1a c0 39 5a ba 5a 3a 3c 11 e5 3b
       -0.13839352 0.00036640765 0.00083438086 0.00699058
0001d0 11 8b 41 bd 2d c4 75 3b e9 5e a9 3c 56 13 d4 bc
       -0.047251765 0.0037500963 0.02067514 -0.025888126
0001e0 24 26 fd bd ae f4 2c bd 17 d7 b8 bb 09 4a 53 3c
       -0.1236079 -0.042225532 -0.005640875 0.012896069
0001f0 a4 3d 1d 3b 1a 3c 94 3b 86 77 91 3b 22 bc 84 3e
       0.002399304 0.004523766 0.004439297 0.25924784
000200 f5 ec 7e bb d6 cc 1a bc 1b 6e 36 3d 78 29 29 bc
       -0.0038898562 -0.009448251 0.0445386 -0.010324828
000210 32 5b e2 3c 88 c6 4f bc 87 b0 81 39 ef 57 cd bb
       0.027631376 -0.012681611 0.0002473632 -0.006266586
000220 35 fe a0 3d a4 1a 07 3e 8c 0d 9b 3a 26 cd 31 3c
       0.07860986 0.13193756 0.0011829599 0.010852134
000230 f6 58 fd 3b 8d c9 9d ba c5 91 a2 3d 44 2c 74 bb
       0.0077315522 -0.0012038216 0.079379596 -0.003725783
000240 9e de f7 3b 89 5d c3 3b 22 39 93 3d f8 1d 38 be
       0.00756438 0.005962078 0.071886316 -0.17980182
000250 8e 6a 3c be e8 ef 36 3b 21 2a a4 bb 04 16 ed bd
       -0.18400022 0.0027913991 -0.005009905 -0.11576465
000260 e6 4a 21 be 48 6b 1c 3d f0 b2 71 3c 30 5e 7e bb
       -0.15751228 0.03818825 0.014752135 -0.0038813464
000270 75 fc 5e be 4d ec ca 3d ec 15 ee 3c 6d 59 1d bc
       -0.21775992 0.09908352 0.029063188 -0.00960384
000280 55 b3 4a b9 2b 36 34 3d 42 30 c2 3d e5 f6 6f 3e
       -0.00019331028 0.04399697 0.09481861 0.23434027
000290 9a 0e a7 bd 8d 0f 14 3c 40 b2 00 bc 89 22 f7 3b
       -0.08157082 0.009036911 -0.007854998 0.0075419587
0002a0 43 e1 12 be 9a ee 2c 3c 09 cc a4 bb c2 ca ba 3d
       -0.14343743 0.010554934 -0.0050292057 0.09120704
0002b0 c6 68 64 be 92 1a 43 3b 07 be 69 ba b9 a8 54 3a
       -0.22305593 0.0029770476 -0.0008916561 0.00081123
0002c0 5a 34 c5 3b 3f 8d 82 3c a7 64 62 be ea c0 8d bb
       0.0060182037 0.015936492 -0.22108708 -0.0043259757
0002d0 cf 89 be 39 74 00 a6 bb 59 18 58 bc 4e 47 1d be
       0.000363423 -0.005065972 -0.013189399 -0.15359232
0002e0 55 01 c1 ba 49 f0 4c bc 8e 75 e5 3b 06 9b 39 3e
       -0.0014725128 -0.01250846 0.007002539 0.18125543
0002f0 0b 3f 99 3b b7 a9 f1 3b a0 39 54 bd 1e 39 e2 3d
       0.0046767048 0.007374968 -0.051812768 0.110460505
000300 1d ed cc 3d 6d 74 ea bb 3d c4 b3 3d bc 9e 1f bc
       0.10006163 -0.0071549923 0.08777664 -0.009742435
000310 81 7e c4 bd 9b 43 c5 bb f3 96 00 be b8 db 65 bd
       -0.09594441 -0.006020022 -0.12557583 -0.056117743
000320 0e 80 96 3d 7f 82 2d 3e e5 5a 2c bc 78 ef 11 bb
       0.07348643 0.16944312 -0.010519718 -0.0022267979
000330 d8 89 33 bc 84 3a 29 be dd 33 18 be 5a 46 bf bb
       -0.0109581575 -0.16526228 -0.14863534 -0.005837244
000340 6c 0d 74 3b a6 0a 62 3e 08 3a cb bc 9e 2a 9b 3d
       0.0037239445 0.22074375 -0.024807945 0.07576488
000350 59 a9 4b be 96 3b b2 bb 60 a1 9c bc 43 04 5c bc
       -0.1988882 -0.005439232 -0.019119918 -0.01342875
000360 5f 29 07 3d 9b 39 fc 3b b9 8d 50 be e4 53 ad 3c
       0.03299844 0.007697297 -0.20366563 0.021158166
000370 93 48 8d 3c 74 f1 c2 bc f8 ad 65 3d ff ba 78 ba
       0.01724652 -0.023796774 0.056074113 -0.0009488314
000380 71 42 78 3e aa 83 f0 3b ae a6 a2 bb 73 b2 3f be
       0.24244095 0.0073399143 -0.0049637174 -0.18720417
000390 cb 65 1d 3c 71 2f 21 bc 86 7d 66 bb b9 4c e2 ba
       0.009606789 -0.009837971 -0.0035170033 -0.0017265297
0003a0 e2 ee 28 bd a1 a9 53 be 9e 04 12 3c 28 ee ad bb
       -0.04124344 -0.20670177 0.008912234 -0.0053079315
0003b0 3b d0 5c 3c 24 1d 93 bc e5 cb e8 bb da 37 f7 bc
       0.01347738 -0.017958231 -0.0071043842 -0.030178
0003c0 e1 e7 29 bb da b8 f3 bc b7 bf dd 3b 97 90 13 3e
       -0.0025925564 -0.02975123 0.006767239 0.14410625
0003d0 dc b0 31 3c 32 6e ce 3b 9b aa 01 3e 70 f1 c4 3d
       0.010845389 0.0062997574 0.12662737 0.09616363
0003e0 62 2c c7 3b b1 7a 95 bd 26 97 32 39 ae 1c d6 b9
       0.006078289 -0.07298792 0.0001703171 -0.0004083863
0003f0 a8 2b 28 bc 18 7d 44 be 63 71 a1 bc b0 ba 70 3e
       -0.010264315 -0.19188344 -0.019707387 0.23508716
