customized/model/trained_model/vae/vae_z_50batch_64.pth (torch, 947488 bytes, 10 tensors)

fc1.weight f4 [256, 384]
00000000: d266 fb3c a0ab 12bc 441b 0d3d 912e 89bd
00000010: e682 a6ba 1c54 e3bc 6caf b0bc 43b2 25bc
00000020: a98d 89bd c024 a4bc 1416 70bc 6034 b9bc
00000030: 1cac 9e3c dff4 d8bc fa3f 52bc bb0e 4cbd
00000040: 57a5 bb3c d1fd b5ba 7c1a 8d3d c3fd 7ebc
00000050: 9b1b d33c 1d16 ae3b 50c6 0bbd 53b7 5f3c
00000060: 8538 cb3c aa0d 563d 5ce8 85bd 96f0 ffbc
00000070: 31bd 28bc 8b20 823b cd50 c63c c1d0 02bd
00000080: 925c df3a 84c1 3bbc 02b0 8bbd 10e1 ea39
00000090: cb7c 3bbc 8661 a3bc 7f40 49ba 9184 103d
000000a0: ab7f c2bc a72d 833d aa47 45bd d013 0abd
000000b0: 5315 12bd 4a65 cbbc 50f0 d5bc 8d2e 13bd
000000c0: 4773 b4bc 9cff 9abc d862 1abd 89d6 d7bc
000000d0: b5c0 6abd bb27 0d3d ad81 923c 7351 14bc
000000e0: c421 18bd d9d0 763c 9004 d0bb 6cca 3e3d
000000f0: 4e4c ca3c e63c 6e3d 9d09 9a3c d20a 583c
00000100: 3921 72bc b7be 3e3d 128e 913c 2964 a4bc
00000110: 4a2b 083d 51cd f6bc f2d6 e53c a428 f73c
00000120: ba18 94bc fc6a 95bc 2143 d73b faed 67bd
00000130: bbdd 3abd 3ec3 dcbc 6e57 15bc 1969 8fbd
00000140: 717a 5c3c 3dfb 18bd 0142 0a3c fc37 2cbc
00000150: 05c9 cabc 1f61 fabc 4f01 8bbb d7e2 23bc
00000160: f880 343d 6e1d 2ebd 5b88 0f3d 8cb3 7dbd
00000170: df2b 713c 51e6 59bc f268 72bd ec95 f5bc
00000180: 1899 37bd 0c50 033d 146d 4d3c 998d 1fbd
00000190: 6424 743d d6d2 1bbc 048c d03b 8562 6cbc
000001a0: b166 29bd 328e 4c3c 2a17 e9ba d605 8f3c
000001b0: 0d47 eebb 0946 0bbd 8c66 df3c 86c4 763c
000001c0: ce5c 083d beb6 873d d268 eb3c a42a 503d
000001d0: 43e5 e1bc 95f6 323d 4513 35bc 72cb 673d
000001e0: af89 08bb c402 913d b094 8ebc ae52 033d
000001f0: 6206 f23c 842b 33bd bafa 4f3b 50be 263c
00000200: 23e9 523d 1dbb a83c e4ec 52bc 1a89 6a3d
00000210: cade e23c e145 813c 0373 a03c 4a90 34bd
00000220: 6b58 00bd 5ba9 033c e21e 353d 85b5 563c
00000230: 8896 05bd b08f d339 bcd0 2dbc 24b3 55bc
00000240: c29a 0a3b b9b3 e9bc 16c7 023d 7c9d b43c
00000250: ceec 41bc 9a19 44bd 25ef 103d 31ce 2a3b
00000260: fd3f 5db9 42e1 2a3c af27 2d3b 509a 4a3d
00000270: 5ce1 cabc 5c18 6ebc 6406 45bc 136c 86bd
00000280: ec0e a03c c1f0 cb3c 8730 94bc 9ad3 3dbd
00000290: e84e 23bd 661c cbbc 380a 703c 9df9 9c3c
000002a0: 9338 293d 7cbb 16bd c3b2 53bd efc4 55bc
000002b0: 76bf 163c 617b a33c db38 813c 0112 043d
000002c0: fec6 21bc 119a 8439 99fd a93c 7e9b 543d
000002d0: 9891 3bbc f7e1 703c 42a6 01bd 1a5f 04bd
000002e0: c330 30bc a3a1 123c 5a32 163b fb89 d63b
000002f0: b586 e1bc b2f6 343d 0d07 5fbd 369d 20bc
00000300: 7c71 8ebd 013b 863c 6e33 493d df37 e9bc
00000310: 4a59 46bd ba43 fdbc 6c4c 183c d3cd e6bc
00000320: a035 8dbc 3cec 2abd db7c a83c ed84 26bc
00000330: 15e8 223c 1aaa c7bc 5f40 dabb d807 eb3c
00000340: 75d0 b4bc fe20 92bc 2fad 863b e10c c23c
00000350: 28bc 2abd 6095 3c3d 0535 4e3d 7260 34bd
00000360: adcf 103d 4183 e2bc af7c 19bd 9b67 173d
00000370: 7fe6 fa3c 18ef 123d c2b2 303d 6629 823d
00000380: 5427 2b3d f32f 88bd c0e6 5d3c 4a25 28bc
00000390: 0f84 653d 6d8c c73b 40e9 053d f07d 82bd
000003a0: e0b1 6f3c 3a3e 453c e49e 0c3d 9ebd 2bbd
000003b0: 510d 823c d856 36bb 8b5b fbbb defd 30bc
000003c0: 963f 9abc b93d 943c d483 b2bc 420a a7bb
000003d0: 3dc3 73bd 553d 06bd cc8e 81bc c0f1 db3c
000003e0: 2b0c 3fbc 1068 88bd 0135 c7ba c279 f3bc
000003f0: 65ec bf3b 079d 983c 1c7a 07bd 237f 173d
0.030688677 -0.008952051 0.03444983 -0.06698335 -0.0012703806 -0.027750067 -0.021568023 -0.010113302
-0.06716473 -0.020037055 -0.014653701 -0.022607982 0.019369178 -0.026483951 -0.012832636 -0.049818736
0.022905989 -0.0013884847 0.06889817 -0.015563431 0.02577 0.0053126947 -0.034124672 0.013654548
0.024807224 0.052259125 -0.0653846 -0.03124265 -0.010299013 0.0039711646 0.02420845 -0.031937364
0.0017041138 -0.011459712 -0.0682068 0.00044799643 -0.011443327 -0.019943964 -0.0007677152 0.035282675
-0.023742517 0.06405192 -0.048164047 -0.0337103 -0.035664868 -0.024828572 -0.026115566 -0.035933066
-0.022027625 -0.018920712 -0.03769192 -0.026347416 -0.057312686 0.034461718 0.0178841 -0.009052622
-0.037141576 0.015064442 -0.0063482 0.046579763 0.024694588 0.058163546 0.018803412 0.0131861735
-0.014778429 0.0465686 0.01776794 -0.020067291 0.03324441 -0.0301272 0.028056595 0.030170746
-0.018078197 -0.01823949 0.0065692817 -0.056623437 -0.045621615 -0.026948567 -0.009115083 -0.07002468
0.013456927 -0.037348974 0.008438588 -0.010511395 -0.024754057 -0.03056389 -0.0042420994 -0.010002813
0.044068307 -0.042508535 0.035042148 -0.061938807 0.014719932 -0.013299541 -0.059182115 -0.029978715
-0.044823736 0.03205876 0.012538213 -0.038953397 0.059605017 -0.009510716 0.0063643474 -0.014427786
-0.0413577 0.012485074 -0.0017783393 0.017458837 -0.0072716535 -0.034002338 0.027270578 0.015061503
0.03329163 0.06626652 0.028736506 0.050821915 -0.02757514 0.04369219 -0.0110519575 0.056590505
-0.002083402 0.070806056 -0.017404884 0.03206127 0.02954406 -0.04374267 0.0031735138 0.01017721
0.051491868 0.020597035 -0.012873862 0.057259656 0.027694125 0.015780391 0.019586092 -0.044082917
-0.031334322 0.008035983 0.044218905 0.013104801 -0.03261426 0.00040352112 -0.010608848 -0.013043199
0.0021149372 -0.028528081 0.031928144 0.02204775 -0.011836244 -0.047875978 0.035384316 0.002606284
-0.0002110004 0.010429682 0.0026421358 0.04946357 -0.024765663 -0.014532175 -0.012025449 -0.06563582
0.019538365 0.024895074 -0.018089546 -0.046344377 -0.039870173 -0.024793815 0.014650874 0.019161994
0.04131372 -0.036799893 -0.051684152 -0.013047441 0.009200921 0.019956293 0.015774181 0.032243732
-0.009874104 0.0002529179 0.020750808 0.0519061 -0.0114482865 0.014702312 -0.031652696 -0.03231726
-0.010753813 0.00894967 0.0022918195 0.0065472103 -0.027530054 0.04418058 -0.054450084 -0.009803107
-0.06955239 0.016385557 0.049121313 -0.028469024 -0.048424996 -0.030916084 0.009295564 -0.028174317
-0.017237484 -0.041729197 0.020567348 -0.010163528 0.009943028 -0.024373103 -0.0066605057 0.028690264
-0.022072056 -0.017837998 0.0041100006 0.023687782 -0.041683346 0.046040893 0.050343532 -0.04403729
0.035354305 -0.027650477 -0.037472423 0.03696404 0.030627487 0.03587255 0.043139227 0.063555524
0.041785553 -0.066497706 0.013543785 -0.010262797 0.056034144 0.006089738 0.032693148 -0.06371677
0.014629811 0.012038762 0.034331217 -0.04192888 0.01587549 -0.002782276 -0.007670825 -0.010802714
-0.018829148 0.018095838 -0.021791376 -0.0050976584 -0.059512366 -0.032773335 -0.015815161 0.026848674
-0.011660616 -0.06660473 -0.0015198292 -0.029721145 0.005857038 0.018629564 -0.033075437 0.03698648

fc1.bias f4 [256]
00000000: 5e62 1abd f4f5 eb3c 8eb0 953c f948 45bd
00000010: ed64 29bd c688 82bd bbe5 0cbd 99b4 83bd
00000020: c126 68bd 2ea1 7fbd d8f3 06bd d2e1 72bd
00000030: cbf3 1ebd d29a e33c 2645 c23b 234e ab3c
00000040: 6d0c 13bd d434 1abd 220d 3bbd 2666 77bd
00000050: a597 efbc 0fc3 a03b a9dd 05bd 8135 ee3b
00000060: c16f 03bd 2363 89bb c76b f83b 676f e0ba
00000070: 8eb4 9fbc d48f 3fbd 006b 7bbd 0ffa adbc
00000080: 61d9 16bd e314 bfbc dd97 3ebd 67c0 ecbb
00000090: 3bad ebbb 5f43 623c fcac 51bc e99e e73b
000000a0: 72b1 32bc a0b6 50bd 6d84 8fbd a163 6d3c
000000b0: 5c27 39bb b825 80bd ebb9 26bc e1ae 50bd
000000c0: bde3 7fbd 68d8 c43c c5ac 01bd 0082 efba
000000d0: e25f 98bc 3f9e c8bb 8ba2 5ebd 1dcb 40bd
000000e0: 2d94 60bd 695b fcbc 1191 f3bc 1f5d 93bc
000000f0: a07e 82bd ad5c 57bd 7c95 a7bc 4e69 06bd
00000100: dad0 dfbb f616 f5bc adc3 89bd 190a 8dbc
00000110: 0162 d3bc e551 65bd da21 873c e84d 4ebc
00000120: 1085 4abc 91be 36bd 21cf 00bd 7c0a 4ebd
00000130: 1837 e4bc 1e5e 52bc ea41 a5bc 2e6a 4cbd
00000140: 8335 74bc baba c1bc e778 e93b 85c7 f4b8
00000150: e890 93bc b033 eabc db22 8b3c 3883 e5bc
00000160: ff5a 573c c890 a13c 1f55 a9bc f7ad 88bc
00000170: 8434 88bd 69ef b93c 1a93 8bbd 4045 babc
00000180: 8ea4 16bd 2ffe 4ebc 90ae 153d ae01 413b
00000190: 02f0 b43c 21fa 72bd ab1a 443b 70a2 3abc
000001a0: 5bb7 8cbd be1c 47bd 54fb dbbc c180 edbc
000001b0: b94d 60bb f7e4 2cbc 337d 903b fe2e 39bd
000001c0: 76e5 eabc e6e3 013c 50b5 2abb cae3 2fbc
000001d0: 56c9 f3bb c2d8 2cbc cdc6 2ebc 38c9 63bd
000001e0: e101 84bd b534 5cbd 346c 8e3b 281c c1bc
000001f0: a2c1 54bc 9769 78bc 567e a53c a915 5a3c
00000200: b0c4 2bbb b906 853c a9d6 75ba 25ac 10bd
00000210: c0a5 9d3c 6c6a 473c 4367 3bbd 6f41 a43c
00000220: c5de 383a ed54 11bd 787a c2bb 752b 0f3d
00000230: 3617 923c 13bc d3bc 4ad2 1cbd b860 c6bc
00000240: 1c44 dabb 08ee 29bc 87b4 c4bc 50e8 b03c
00000250: 1dc4 c03c 9c27 85bd 23e9 ccbb d151 6cbd
00000260: 85f1 53bd 8d57 a93c 6ee9 733c ad7a cfb9
00000270: f95f 5cbd c423 5bbc e322 d5bc b5c1 80bd
00000280: ed67 1dbd 17ee 813b 8976 80bd ec71 d33c
00000290: 20bc 59bd 01d2 3cbd 7408 8bbc 699d a93c
000002a0: 083c bf3c 504e 3b3c 28ef 8dbd f740 d3bc
000002b0: b59d 403c 9ab2 8a3c 148a a9bb 7e62 51bd
000002c0: bf2c 85bd e30e dbbc dbd4 bf3b 9856 7abd
000002d0: 92d4 14bd 3202 85bc 2366 f2bc 0a54 83bd
000002e0: 4894 abbb d544 32bb bd53 e1bc 9765 e03c
000002f0: 4142 80bd 15cb aebb 4221 f33b 1769 a8bc
00000300: 2f94 59bd a20e 30bc bd58 33bd 54cf 54bb
00000310: f8f1 1c3d 4110 79bd 1bf6 03bd fc99 cebc
00000320: dfca 4cbd 6849 c2bc 4d35 01bd 451b 6cbd
00000330: cb4b a23b 634e ddbc d4d5 9bba 8376 02bd
00000340: 7fab f3bc dad3 433b a768 2dbd 7f2c 8ebc
00000350: f978 63bd 425a a9bc bcbc 77bd 476f 073c
00000360: 2525 083c 6fa9 993c f162 cf3c 06ed 13ba
00000370: 3ed4 84bd 2bc2 08bd ddbb 0ebd db12 7ebd
00000380: 30a8 3abb 11c7 bcbb fe7d ecbc 0152 1b3c
00000390: 4424 17bd d917 603c cf11 f8bc b106 043c
000003a0: 0436 f0b9 4b6b ee3c d071 35bd 8259 01bd
000003b0: c637 e73b 8238 803c 9db3 cabc 455a 5ebd
000003c0: 4246 6dbd 5bd0 9cbc 5243 41ba 243d 84bd
000003d0: 036a 0bbd 9eeb c33b daa2 973b 0ef2 2d3c
000003e0: 031d 8dbd 12f2 1bbc ae3d c6bb df7a 6bbd
000003f0: 59b0 3dbd af71 703d 66d8 f6bb 5325 da3b
-0.037691467 0.028803803 0.018272664 -0.048165295 -0.041356016 -0.06373744 -0.034398776 -0.06430931
-0.056677584 -0.062409572 -0.03294739 -0.05929739 -0.038806718 0.027783785 0.0059286533 0.020911282
-0.035900522 -0.037648037 -0.04566682 -0.06040015 -0.029247114 0.0049060653 -0.032682095 0.0072695618
-0.032089 -0.004192726 0.0075812074 -0.0017123044 -0.019495275 -0.046768025 -0.06138134 -0.021237401
-0.036828402 -0.02332539 -0.046531547 -0.0072250846 -0.0071922815 0.013810008 -0.01279759 0.007068504
-0.010906564 -0.050955415 -0.0700768 0.014489085 -0.002825222 -0.06257194 -0.010176162 -0.050948028
-0.062473048 0.024028972 -0.031658906 -0.0018272996 -0.018600408 -0.00612238 -0.05435423 -0.047068704
-0.05482881 -0.030805307 -0.029732259 -0.01798874 -0.06371808 -0.052578617 -0.020457022 -0.03281527
-0.006830317 -0.029918175 -0.06726775 -0.017216729 -0.025803568 -0.055986304 0.016495634 -0.0125918165
-0.012360826 -0.044615332 -0.031447534 -0.050302967 -0.027858302 -0.012839822 -0.020173032 -0.04990595
-0.014905336 -0.023648608 0.0071250084 -0.0001167199 -0.018013433 -0.0285891 0.016984394 -0.028016672
0.013144254 0.019722357 -0.020670472 -0.016684515 -0.066506416 0.022697167 -0.06815167 -0.0227381
-0.036778025 -0.012633844 0.03654343 0.0029450464 0.0220871 -0.059320573 0.0029923122 -0.011391267
-0.0687091 -0.048611395 -0.026853241 -0.028992059 -0.0034226014 -0.010552636 0.004409456 -0.04521083
-0.028673869 0.00792787 -0.0026048012 -0.0107354615 -0.0074397726 -0.010549726 -0.010667515 -0.05561182
-0.06445671 -0.053761203 0.004346395 -0.023572996 -0.012985619 -0.015161893 0.020201843 0.013310828
-0.0026209764 0.016238557 -0.0009377995 -0.03532042 0.019244075 0.012171369 -0.045752775 0.020050732
0.0007052238 -0.035481382 -0.0059350096 0.034953553 0.017833333 -0.025846517 -0.038286485 -0.024216041
-0.0066609513 -0.0103716925 -0.024011863 0.02159515 0.023531014 -0.065016955 -0.006253378 -0.057695214
-0.051744003 0.02067163 0.014887197 -0.00039573517 -0.053802464 -0.013375226 -0.026017612 -0.06286947
-0.03842919 0.00396515 -0.06272609 0.025811158 -0.053157926 -0.046098713 -0.016971804 0.020704942
0.023344055 0.011432245 -0.06930381 -0.025787814 0.01175635 0.016930867 -0.005173931 -0.05111932
-0.06502675 -0.026740497 0.005854232 -0.06111774 -0.036335535 -0.016236398 -0.029589718 -0.064125136
-0.0052361824 -0.0027201672 -0.02750575 0.027392192 -0.06262637 -0.005334268 0.007419736 -0.020557923
-0.053119835 -0.010745676 -0.0437858 -0.003247221 0.038316697 -0.060806517 -0.032217126 -0.02521991
-0.04999816 -0.023716643 -0.031544972 -0.057643194 0.004952883 -0.027014917 -0.0011889287 -0.031851303
-0.029744862 0.0029880912 -0.042336132 -0.017355202 -0.05553529 -0.020672921 -0.060482726 0.008266277
0.008309637 0.01875755 0.025315734 -0.0005642924 -0.064857945 -0.033388298 -0.03484713 -0.0620297
-0.0028481595 -0.0057610353 -0.028868672 0.0094800005 -0.03689982 0.013677561 -0.03028193 0.008058236
-0.00045816612 0.029103896 -0.044297993 -0.031579502 0.0070562093 0.015651945 -0.02474385 -0.054285306
-0.05792833 -0.01914232 -0.0007372397 -0.06456974 -0.034036648 0.0059790155 0.0046275677 0.010616792
-0.06890299 -0.009518163 -0.0060498333 -0.057490226 -0.046310756 0.058702167 -0.007533121 0.0066572814

fc2.weight f4 [50, 256]
00000000: 5553 1c3d bec1 8cbc 8078 40bd 6c67 0ebd
00000010: 1a5a 09bd 0370 de3c 72dc 1a3c 2f73 8c3b
00000020: 4798 8ebb fdb2 763d 3b49 a8bc 52f8 6dbd
00000030: ad37 c0bc cc57 81bb cf09 f43c d760 f0bc
00000040: e07a 1f3d 3155 19bd 24b3 363d 9d1b bb3a
00000050: 395c 213d 092c 98bc e294 24bd 0ac0 aa3b
00000060: 6284 813b 3c47 1d3d 15e3 fc3c 6bdc 14bd
00000070: b855 03bc 3a2d 14bb cc2d 32bd 365f e33b
00000080: 9e00 48bc 6593 cc3c 82e2 f2bb 11c7 4d3d
00000090: 06fd ef3c 410c 5b3a ba11 aa3c 26ba 54bd
000000a0: a464 f93b caf1 b4bc 2a41 e9bc 2090 7ebc
000000b0: 0c46 6dbd 65d2 aebc 3dc4 2a3d 3ec8 ff3c
000000c0: 06a5 113d dce1 b3bc 0ae7 65bb 6f80 0bbd
000000d0: 7efe af3c b6ae 90bc e97d e2bc 53e0 783d
000000e0: bb2f 8f3c 7ca1 6dbd 08a4 283d 12c4 053d
000000f0: 28a2 c53c 77e1 6b3d 0e40 f9bc 4d81 a43c
00000100: d418 36bd b7c6 84bd af8c 163d 9186 a4bc
00000110: 8cb5 e63c 7d5f 55bd d728 0f3d be92 08bc
00000120: e1d8 d43c 8c02 45bc 605e 39bd e1f5 4e3d
00000130: 4ac8 bf3c 8420 0dbd d7fc 99bc 4e39 063d
00000140: dac1 1abd 0f2e 84bb ccfc 133d bd9f 87bd
00000150: 2e84 2cbd 561d 39bc 094f 2ebd dfc4 32bd
00000160: a38c d53b 2089 013d 8fe8 60bb b505 7abc
00000170: f436 31bc 18c9 e13c 69a2 bb3b dc50 e8bc
00000180: 1a8c 3d3d ce28 a33c 6bd6 643c cd26 84bd
00000190: 7c5b a3bc 3c27 b53b efd5 e73c 6e5b 3a3d
000001a0: 3660 12bd 0cda e3bc a1a6 fabb 013d dcbc
000001b0: 630e 163d 2ec2 053d 57da ad3c f5c0 923b
000001c0: c211 463c 3303 753c f4f6 22bd 25f5 8bba
000001d0: 2cfa ac3b 4f57 7cbd 8f99 7b3c 6c6b 263d
000001e0: f9ac 083d 172a 043d f237 0c3d 59a8 613c
000001f0: ca8a d03c 170c 303c f184 243d 01ce fe3c
00000200: 3995 20bc 21bb 423a 95f1 35bd 8288 393c
00000210: d828 363d c33d 273d ecd3 34bd 65ef 04bc
00000220: fcb1 c23b 1b8f 15bc e36e c93b 5c1e 453d
00000230: 5747 9cbc 102f 8f3c 7d66 f1bc 9e97 46bb
00000240: a760 29bd 6fad 50bd 54f6 c03c eb81 a1bc
00000250: f254 873c cec1 c93b 342d 84bc dde5 8bbc
00000260: 6bbd 143d be29 c53c 1667 013d 858c 3cbd
00000270: 03b6 68bd 737e b53c acd7 d23b 7a4c 183d
00000280: e539 b13c 7fe8 44bd fe46 3bbc ba6a eb3c
00000290: 19a4 32bd c60f eb3c 3a41 43bd a18e cfbc
000002a0: 22e2 92bb 7c90 423d 4f61 c5ba fc79 08bd
000002b0: f36c ddbb 8a3e d73c 7d05 0a3d c7da 0dbc
000002c0: 9569 a43c 767e a7bc a668 22bd 7ee0 b13c
000002d0: fdd5 2bbd 7460 e8bc 385e 58bd 5800 4a3d
000002e0: bee8 123d 23f0 98bb 475a 503d 03d4 17bd
000002f0: 441b debc fce9 23bd 1d8a 983c bc44 69bc
00000300: aeb8 55bd a0c7 113c 49cb 1abc 745a 473c
00000310: 4d45 c73c ff0c 043d a969 92bc 4684 333d
00000320: 548f 503c 5ff4 e13c b9cd 96bb 1d1b 64bd
00000330: ac68 5bbc c0ac 82bd 26bb f5bc 9bce 0c3d
00000340: 7648 fd3c b194 363c 224d 063d 14ff 22bd
00000350: 6315 df3b 085a 543d 2417 43bd f357 81bd
00000360: a99d df3c d489 fa3c c618 a2bc b511 0fbd
00000370: f0ad 87bc 61fc b1bc f32e 5a3b 0f38 0d3d
00000380: 3002 893b d72d a33c 9c8f 043d f823 153c
00000390: fa3a 823b 29c9 d8bc b73f 7bbc 342d e6ba
000003a0: 4554 113d 7369 dbbc 5a1e 20bd c39e cabc
000003b0: 67b2 5cbd 4069 74bc 6741 93bc 16e6 503d
000003c0: 1502 fe3c a7b8 c0bc e712 7ebc 5fd0 84bd
000003d0: fa3e 19bd 55f9 69b8 b637 05bd 1345 e1bc
000003e0: 3304 eebc 2dc8 ad3b 0f1e 24bd e022 0bbb
000003f0: 569d 633c 48f6 9aba 61ae 86bc f07d c33c
0.03816541 -0.017182227 -0.046989918 -0.0347666 -0.033533193 0.02715302 0.009451972 0.004286192
-0.004351649 0.06022929 -0.020542732 -0.058098145 -0.023464048 -0.003947234 0.029789833 -0.029343052
0.038935542 -0.03743476 0.044604436 0.0014275197 0.03939459 -0.018575685 -0.04018105 0.005210881
0.003952549 0.038398013 0.03087 -0.03634302 -0.008016042 -0.0022609965 -0.043500707 0.0069388403
-0.012207178 0.024972627 -0.0074122557 0.050238673 0.029295456 0.0008356013 0.020760406 -0.051935337
0.0076108743 -0.02208795 -0.028473455 -0.015537292 -0.05792813 -0.021340558 0.041691054 0.031223413
0.03555777 -0.021958284 -0.0035080337 -0.03405803 0.021483656 -0.017661434 -0.02764793 0.060760807
0.017478814 -0.05801533 0.041172057 0.03265769 0.024125174 0.057588067 -0.030426051 0.020081187
-0.04445727 -0.06483214 0.03675526 -0.020083698 0.02816274 -0.052093018 0.034951057 -0.008335767
0.025982322 -0.012024533 -0.04525602 0.050527457 0.023410935 -0.034454837 -0.018797321 0.032769494
-0.037782528 -0.004033811 0.036129758 -0.066222645 -0.042118244 -0.011298498 -0.042555843 -0.043644782
0.0065170093 0.031624913 -0.0034318303 -0.01526015 -0.0108163245 0.02756171 0.005726148 -0.02835887
0.04627619 0.019916918 0.013967137 -0.06452713 -0.019941084 0.0055283587 0.028300254 0.04549735
-0.035736285 -0.027813934 -0.0076492582 -0.026884558 0.036634814 0.032655887 0.021222277 0.0044785687
0.012089195 0.014954376 -0.039786294 -0.0010677917 0.0052788462 -0.0616067 0.015356435 0.04062979
0.033368085 0.032266703 0.03423304 0.013773047 0.025456805 0.01074507 0.040165845 0.03110409
-0.009801202 0.0007428397 -0.044419844 0.01132405 0.044472545 0.040830385 -0.044147417 -0.008113717
0.0059416275 -0.009128357 0.006147252 0.048124656 -0.019076986 0.017478496 -0.029467816 -0.0030302773
-0.04135194 -0.05094665 0.023554958 -0.01971527 0.016519997 0.0061571365 -0.016134836 -0.01707738
0.036313456 0.024067756 0.03159245 -0.046032447 -0.056814205 0.022155022 0.0064344015 0.03718231
0.021634052 -0.048073288 -0.0114305 0.028737415 -0.043613527 0.028694045 -0.047669627 -0.025336565
-0.0044825235 0.047501072 -0.0015058907 -0.03331946 -0.0067573725 0.026274938 0.03369664 -0.008658118
0.020069877 -0.020446043 -0.03965058 0.021713492 -0.041952122 -0.028366305 -0.05282423 0.049316734
0.03586649 -0.0046672984 0.050867345 -0.037067425 -0.02711261 -0.040018067 0.018620545 -0.014237579
-0.052178077 0.008897692 -0.009447881 0.012167562 0.024325037 0.032238957 -0.017872648 0.043827318
0.012729485 0.027582346 -0.004602161 -0.05568992 -0.013391655 -0.06380606 -0.029996466 0.03437672
0.030918341 0.011143849 0.032788403 -0.039794043 0.0068079694 0.051843673 -0.04762949 -0.06315603
0.027296858 0.0305833 -0.019787204 -0.034928996 -0.016562432 -0.021726789 0.0033292144 0.03447729
0.004181169 0.01991932 0.03236352 0.009102814 0.0039743157 -0.026463108 -0.015335015 -0.0017561079
0.035480756 -0.02678368 -0.039091446 -0.024733907 -0.053881075 -0.014917672 -0.017975522 0.051000677
0.031006852 -0.02352555 -0.015507436 -0.06485056 -0.037413575 -5.5783737e-05 -0.032523833 -0.027498757
-0.029054737 0.005303404 -0.04006773 -0.0021230504 0.013892492 -0.0011822665 -0.016440572 0.023863763

fc2.bias f4 [50]
00000000: 95bc 2f3c 7900 ba3a 33c7 e83b 1f8f 7e3a
00000010: 8dee 6a3c 4c2a 033d e8a8 cd3b 9829 ccbb
00000020: 8f4c c8ba 4329 b83c db88 33bc 3150 823b
00000030: 99fa b0bb 20da 053a ecba d1bb 5c57 16bc
00000040: 8aa5 97bb bda4 efbb 8b96 acba a801 233d
00000050: 34ad 403c 9015 f33b 4214 1eba 5783 683c
00000060: 7780 d83a 9702 fc3b 053a dfbb f360 aabc
00000070: 916a 73bc 2fe8 9eba 8f08 d83a b9fe f33a
00000080: cd9b 9f3b 5633 033c 73a6 853b 9b65 183b
00000090: 7770 97bb 4342 1d3c b188 e93b 60c5 e7bb
000000a0: d0d4 6ebb 14fe b7bb 245b ca3a 6cae 2ebc
000000b0: eef9 9a3c db8a 083c 4173 04bc 1ae2 0bbc
000000c0: d6d1 9cbc d356 76bb
0.010726114 0.0014190815 0.0071038245 0.0009710658 0.0143391015 0.03202276 0.0062762387 -0.0062305443
-0.0015281605 0.022480613 -0.010957922 0.0039768447 -0.0054009673 0.00051060505 -0.0064004567 -0.009176102
-0.004627888 -0.0073133395 -0.0013167424 0.0397965 0.011760045 0.007418342 -0.00060302403 0.01419147
0.0016517778 0.0076907384 -0.0068123364 -0.020798182 -0.01485695 -0.001212364 0.0016482043 0.0018615342
0.004870868 0.008007845 0.00407868 0.002325392 -0.004621561 0.009598318 0.0071268906 -0.0070730895
-0.0036442764 -0.0056150053 0.0015438539 -0.010661703 0.018918004 0.008333887 -0.008084119 -0.0085377935
-0.019143026 -0.0037588372

fc3.weight f4 [50, 256]
00000000: 51ac 7bbd 9aa8 54bd 5ade 97bc 935f 67bd
00000010: 00ee 19bc 7bcd 06bd fe71 04bd bba7 bdbc
00000020: 65fa 123c ab5a 463d 5ca8 cfbc 9410 1abd
00000030: 3b51 fcbc abb1 28bd 6bb0 bdbc 9f1b c7bc
00000040: d413 143d 3f85 423c 8596 423c 8cb7 213d
00000050: 8e3c 0f3a 2d4b 973c 46de 50bd 239e 0cbc
00000060: d2fb 0b3d 3e37 22bd 7ea0 b73c e7c0 4cbd
00000070: 0b4b 1c3d fe70 83bc 9ba4 123d 0d57 11bc
00000080: 8864 603d 2f46 08bd 0d5e 5d3c 8714 5f3d
00000090: 3bd6 d53c 1fbd 25bd 2b42 443d 9de8 0dbd
000000a0: a9bd 13bd 1482 8dbd 3ce1 4c3c cb91 043d
000000b0: bc78 9bbc 3389 4abc d5ac 91bc f09b 33bd
000000c0: 5663 fc3c 914a 39bc 2cb3 6d3c 0a43 bd3b
000000d0: d975 323d e236 80bc 2f08 3e3d 6c42 39bd
000000e0: 2270 0abd 9a90 383d 4c3a 0dbd f582 9b3c
000000f0: c30e 483d 21d6 94bc 03f2 02bd 2814 173d
00000100: 6499 58bd fcd1 4b3d 3e67 bf3b a063 ccbc
00000110: e753 a73a 2e8f a03c 2af7 ee3c d5e9 133d
00000120: f409 7fbd 4d30 d73c 92f3 39bd 8d75 2b3d
00000130: dc7e 363d 99da c5bb 9f22 39bd 885a bb3c
00000140: b504 4b3d 9137 65bb cff8 9ebc 2c7f fcbc
00000150: 0498 b13c daea 3cbc 6634 b83c 154f 5ebc
00000160: 6fea 7cbc 0773 3abd dcab 563d 9350 2dbd
00000170: 154a 2c3d 5387 8ebb 41bf c2bc 3ef7 57bc
00000180: 016b 553d bb33 01bd 4fdc cebc 3b54 903c
00000190: 1352 d2bc c25b 88bc a172 14bd faaf 42bd
000001a0: e1de 38bd b7a3 623b 1507 223d a743 de3c
000001b0: 48b4 d6b9 a9b5 71bd d51f 24bd 0706 b1bc
000001c0: c688 0fbd 1b4f 2e3d e970 89bd e8bb bcbc
000001d0: 3729 b83b 7c1f 583d dd22 0fbd 2e07 debc
000001e0: 3282 043d 80cc 38bd 227e 293d 027a 5ebd
000001f0: efeb 4f3d 607d 883b 4d30 aa3c f4f6 16bd
00000200: e99b 7ebc 4adf 64bd fb00 3e3d 4fd0 d7bc
00000210: 6f92 23bd 96d1 d53c 010c 23bd 62a6 253d
00000220: 31bc 46bb 6270 983c 6fca 2bbc 3134 e8bc
00000230: 8034 073d 3c66 543d 41c1 283d 767d c8bb
00000240: ec76 913c e398 563d 33a6 0fbc 91c9 4f3d
00000250: b208 2cbd af07 e03c 92a9 3f3d 0037 92bc
00000260: 5d11 d03c 3aad 073c 30dd 3a3d 3064 0fbd
00000270: 819b 0d3d 1edc f0bc c653 26bd 0c4c c2ba
00000280: de98 c1bc 8333 07bd 0427 d5bc 4d74 24bd
00000290: b805 35bd fba4 3bbd 02cf 643c 12ad 933b
000002a0: 380c 5e3b 62e8 47bd 97fc 6dbd d544 123d
000002b0: 9107 54bd 5ecb 79bd abd6 34bd 508c c33c
000002c0: baac 6cbd e90f 0c3d eb14 19bb 3cb8 4c3d
000002d0: 24dd 5bbd fcac f0bc 4045 123d cf62 83bd
000002e0: 36ab a2bc 510a 01bd 0c2d 61bd 2039 b83c
000002f0: 9d70 fcbc c3c7 143d 7f81 503d 1caa 67bd
00000300: b730 afbc 35ed 4c3c a1d9 833b f5c2 ef3c
00000310: 56c8 4bbd 044b 89bd cfb0 7bbd c9ab bcbc
00000320: 0068 6cbd 2285 32bd 99ca 7d3c 4027 a7bc
00000330: a503 07ba a048 593d dde7 eabc b8da 813c
00000340: e51b 563d 1f20 523b e233 253c d8e0 09bd
00000350: c5c7 0d3c 7cda ea3b f575 e5ba 9334 72bd
00000360: fd21 00bd f2eb ecbc 7723 9abc 9433 b63c
00000370: d60a e4ba 30f4 e7bc 9ab6 c6bb f820 b43c
00000380: a0b5 19bc 3909 3c3d c92c 84bd 67cb a53c
00000390: d148 cb3c 396e e93c 48f2 863c 2936 cb3c
000003a0: 95ff 7ebc e87b 023d 9d5b 8e3c c07c f83c
000003b0: 0917 82bc 9f3e 77bd 69a6 d93b 0fa9 b23c
000003c0: 6854 b7bc bdf8 14bd ee3e ca3b 00cb 93bc
000003d0: 7f39 30bd 32d7 16bd 6a3c dcbc f755 0c3d
000003e0: c05d b43c 9487 76bc 8cd8 3c3c 91fa ca3a
000003f0: b834 883c 0f1c 7d3b 97b1 3e3c b694 5b3d
-0.06144363 -0.051918603 -0.018538643 -0.05648763 -0.0093951225 -0.032910805 -0.032335274 -0.02315127
0.0089708315 0.04842631 -0.025348835 -0.037613466 -0.030800452 -0.041185062 -0.023155412 -0.024305163
0.036151722 0.011872589 0.011876707 0.039481685 0.00054640404 0.018468464 -0.050993226 -0.008582625
0.0341757 -0.039603464 0.022415396 -0.049988654 0.038157504 -0.01604509 0.03580151 -0.008870852
0.054783374 -0.033270057 0.013511193 0.054462936 0.02610313 -0.040463563 0.047914665 -0.034645665
-0.036069546 -0.06909576 0.012504872 0.0323656 -0.01897847 -0.012361812 -0.017782608 -0.043849885
0.030809086 -0.011309282 0.01450805 0.005775814 0.04356942 -0.01565117 0.046394523 -0.04522936
-0.033798344 0.045059778 -0.034479424 0.018983344 0.048842203 -0.01816851 -0.03196908 0.036884457
-0.05288066 0.049760804 0.005841165 -0.024949849 0.0012766094 0.019599523 0.029170591 0.03611167
-0.06226535 0.026268149 -0.045398302 0.041860152 0.044554576 -0.0060380218 -0.045199033 0.022870317
0.049565036 -0.0034975747 -0.01940575 -0.030822359 0.021678932 -0.011530602 0.022485923 -0.013568659
-0.015436753 -0.045519855 0.05240999 -0.04231317 0.042062838 -0.004349628 -0.023772838 -0.013181506
0.052104 -0.031543475 -0.025251536 0.01761829 -0.025673902 -0.016645316 -0.03624213 -0.047531106
-0.04513443 0.0034582445 0.039557535 0.027131869 -0.0004095158 -0.059011135 -0.04006942 -0.02160932
-0.035042547 0.04255591 -0.06710989 -0.02303882 0.0056201476 0.0527644 -0.034945358 -0.027103033
0.032350726 -0.0451169 0.041380055 -0.054315574 0.050762113 0.0041653365 0.020774985 -0.036856607
-0.015540102 -0.055877008 0.046387654 -0.026344446 -0.03993457 0.026100915 -0.03980637 0.04044188
-0.0030324573 0.018608276 -0.010485276 -0.0283452 0.033009052 0.05185531 0.041199926 -0.0061184717
0.017756902 0.052391898 -0.008767652 0.050729338 -0.04200048 0.027347414 0.046792574 -0.017848492
0.025398904 0.0082810465 0.045621097 -0.035007656 0.03457213 -0.029401835 -0.040607236 -0.0014823689
-0.023632463 -0.03300811 -0.02601958 -0.040149976 -0.044194907 -0.045811635 0.01396537 0.0045067156
0.0033881795 -0.048805602 -0.058102217 0.035710175 -0.05176503 -0.06098496 -0.044150036 0.023870617
-0.057781912 0.03419486 -0.0023358415 0.049980387 -0.053677693 -0.02937936 0.035710573 -0.064153306
-0.01985703 -0.03150398 -0.0549746 0.022488177 -0.030815417 0.03632332 0.050904747 -0.056558713
-0.021385534 0.012507726 0.004023746 0.029267767 -0.049751602 -0.06703761 -0.061447915 -0.023031132
-0.05771637 -0.043583997 0.015490198 -0.020404458 -0.00051503844 0.053047776 -0.028675014 0.015851364
0.052272696 0.0032062603 0.010083171 -0.033661693 0.008653586 0.0071671586 -0.0017506467 -0.05913217
-0.031282414 -0.028921101 -0.01881574 0.022241391 -0.0017398249 -0.02831468 -0.0060642483 0.021988377
-0.009381682 0.045907233 -0.064538546 0.020238591 0.024814995 0.028494941 0.01647295 0.024806099
-0.015563865 0.031856447 0.017377669 0.030332923 -0.015880125 -0.060362455 0.006642152 0.021809129
-0.022379115 -0.036370028 0.0061720526 -0.018041134 -0.043023583 -0.03682632 -0.026884276 0.03426167
0.02201736 -0.015046973 0.011526238 0.0015486052 0.0166267 0.003862146 0.01163902 0.05360862

fc3.bias f4 [50]
00000000: 54e9 5f3c d057 fe3b 1b4c a83a 8cdf dfbb
00000010: 309e 79ba f9ad 39bb 9048 b13c dbf8 29bc
00000020: a9a0 e73b 08b5 80bc 6dec 51bc a404 edbb
00000030: 01aa 1ebc e1d2 e33a ce83 553c 7a38 503b
00000040: 283a 143b ecf5 553c 80f6 e83b c4de ba3c
00000050: 80a4 24bb 89a2 ac3c f107 9c3c b216 9c3c
00000060: 98c4 01bd c756 10bb 8615 8b3b ec1d 00b6
00000070: 20b7 d5bb 08cf 9bbb 3195 93bb 73ae 853c
00000080: 2828 95bb ddf3 feba 8651 093c 8eeb b6bb
00000090: e50f 173c 2e66 e7bb d774 b93b e0a6 e73b
000000a0: ec55 19bc f56d f3bb 9a50 233c 538d 08bc
000000b0: 5404 0ebc 811c 7f3c dcda 51bb 944e 7dbc
000000c0: 2490 61bc f128 cabb
0.01366647 0.007761933 0.0012840064 -0.006832069 -0.0009522168 -0.0028332456 0.021641046 -0.010374273
0.0070687127 -0.015711322 -0.012812716 -0.007233219 -0.009684087 0.0017381572 0.013031913 0.0031771944
0.0022617672 0.013059121 0.007109463 0.022811301 -0.0025122464 0.021073597 0.019046756 0.01905379
-0.031681627 -0.002202438 0.004244509 -1.9090903e-06 -0.0065220743 -0.0047549047 -0.004503869 0.016318535
-0.004551906 -0.0019451339 0.008381253 -0.0055822795 0.009220098 -0.0070617413 0.0056596803 0.0070694536
-0.009358864 -0.0074288794 0.009967947 -0.008334476 -0.008668024 0.015570761 -0.003202132 -0.015460629
-0.013767276 -0.0061694314

fc4.weight f4 [256, 50]
00000000: 07a5 eb3b b52b b0bb 05a9 2bb9 449a 43bb
00000010: 26ae 12bc 0a7b b73c 5c77 7ebc da13 083b
00000020: a1d3 2cbc 40b3 f23b 610f 863a fb60 b8bb
00000030: 4acd a0bc 4682 e8bb d2d5 d3bc 80cf a9bc
00000040: 7b4a 5fbb 43f9 bfbb 2026 0cbc 5077 44bc
00000050: 6fa2 65bc 7d01 4dba c521 9439 958e bebb
00000060: bde7 3d3c 7cda 4cbc b2e9 7abc 1fe7 df3a
00000070: a499 51bb 4c67 f5ba 33b8 ad3b e27e 3cbc
00000080: 0e6b 1f3c 2092 2dbc 6b1a 393c f578 f73b
00000090: e3a6 1b3b f194 003a bce4 843c 7826 00bb
000000a0: 0940 57bc 53c7 753c a86b 8cbb 02f1 1a3c
000000b0: 0724 2fbb b10e 01bc e43a 163c 358a 6d3c
000000c0: b4e8 17b9 c5ea a939 7ff1 103c 2ef1 a33b
000000d0: de22 8d3c 82a3 4ebc 48e1 07bc 67a8 aa3b
000000e0: cd44 18bc 93bc c5bb ac6f 7b3c 02c2 a2bc
000000f0: 2586 2aba cf95 ce3b 6fa0 063b 9413 32bc
00000100: ac42 083d 844c 3abc 4ae0 aa3a d3de dd3b
00000110: eb2a 843b d6a7 dabb 8fdb 8abc 1fd6 a13b
00000120: 9da6 223c 1b2b 5e3c 2f72 723c b359 92bc
00000130: 2516 203c 2693 133c ed13 f1bb 9bce 92bb
00000140: 5589 8ebc 4db0 b13c c3c0 47bb a33e 75bb
00000150: 6324 1bbc b355 483c 247a f1bb c0e7 a8bc
00000160: 9b42 aabc 2316 f43b fed4 29bc 03da cb3a
00000170: 0367 a03a a4c6 c63c 5427 383c 66b7 72bc
00000180: afed a3bb bf0d 503b 3ba6 db3b c82c 65bb
00000190: e358 d8bb 115a 2c3c 752f 78bc 6241 66bc
000001a0: 05f2 143c dc80 6f3c 85d2 83bc cb42 5c3b
000001b0: c94e 33bc 4e24 52bb 15da 56bb f255 54b7
000001c0: e25a b5bb 51e1 4dbc c47b 97bc 4588 a3bb
000001d0: 5005 82ba d1c9 253c 85c0 52bc 023d c1bc
000001e0: 9bb9 3ebc 84ef 003b b76d 503a 84c6 a7bb
000001f0: 5719 673c 118e 61bc 4197 4abc 9b2e 423c
00000200: 6510 d23b e1f9 23bc a416 45bb 6e75 b5b9
00000210: e982 b3bb 0c2e 5ebc 1365 d93c 20d0 5c3c
00000220: fbdb fa3b 2408 0bbc 1fe8 ba3b c8a6 90ba
00000230: c509 613c 44b8 d2bb 5a4e d13a 4c77 3c3c
00000240: 0c06 b73b 06df 013c 3392 b8ba b92d 5dbc
00000250: 08b9 8f3c a662 4bbc ff30 053c ae64 6639
00000260: dce2 67bc 1053 a7bc 085e 953b fa10 bb3b
00000270: 02b8 c8bb c322 01bc 08d1 693b a071 433c
00000280: 4a69 293c b268 1e3c 1b4f 853c 13e7 8bbc
00000290: 2992 9f3a 37de b43b 8dbb 1cbc eb6a 243a
000002a0: 0570 87bc 13aa 6cbb ee20 d93a 730e 9d3c
000002b0: 25e1 753a b07c 0c3c de77 32bb 4a25 77bc
000002c0: 3522 8bbb 3d74 87bc c7c0 933a 504c cb39
000002d0: 9b3f a43b f763 b6ba 194e b9bc ce35 b8bc
000002e0: cb3d 133c 883a 8e3b 1366 99bc 589e 56bc
000002f0: 439c b2ba f597 b7bc f15c 1e3b 7667 f0bb
00000300: 5e0e 583c c0f1 57bb c501 07bc 207c 6bbc
00000310: 450f eabb 1796 ccbc ea9b 9ebc d0ae 213c
00000320: 672b 873c b0e4 b7bb 82fb fe3b 558d 3dbc
00000330: 2cea 173c 032b 5d3b a419 dcbb 80c0 983b
00000340: 2a66 57bc 1a34 3d3c 4807 01bc fc66 52bd
00000350: 5f1a 80bc d076 c93c bb36 68bc c977 273c
00000360: 43c4 ddbb 016b 57bc b032 363c a2fa 9fbb
00000370: 4e5a dabb c542 a5bc 821e 32bc 364d 7abc
00000380: 7f32 413c 345a a83b 4728 c93c 94fe 453c
00000390: 9739 a83b 82d8 343b 9fba a63c 2413 d8bb
000003a0: 3b87 de3b a9b8 853c 2f67 0ab7 5be9 4bbb
000003b0: ee96 a1bb f1dc 253c 8619 123c cf6b 643c
000003c0: 90ce 3e3c 379c 4db9 da74 973b 9efe e23c
000003d0: 9399 aa3c 85ec 123c c67f 2a3c ce6d 92bc
000003e0: 5b8c 153c ae45 eabc 0f52 b7bb f664 edbc
000003f0: 2fcf 9f3b 3cd1 3638 5e3f 6e3a b9be 4f3c
0.0071913037 -0.005376304 -0.00016370795 -0.0029846588 -0.008952653 0.022397537 -0.015531387 0.0020763786
-0.010548503 0.007406622 0.0010227972 -0.0056267953 -0.01962914 -0.007095608 -0.025858793 -0.020728827
-0.0034071493 -0.0058585717 -0.008554012 -0.011991337 -0.014015778 -0.0007820351 0.0002825392 -0.005815337
0.011590895 -0.012503263 -0.015314506 0.0017082429 -0.0031982446 -0.0018722801 0.0053014993 -0.011504861
0.009730114 -0.010593921 0.011297802 0.007552261 0.0023750595 0.00049050065 0.01622235 -0.001955418
-0.013137826 0.015001136 -0.0042852946 0.009456875 -0.0026724355 -0.007877038 0.009169314 0.014498283
-0.00014487171 0.0003240911 0.00884664 0.005003116 0.01722854 -0.0126122255 -0.008293457 0.0052080634
-0.009293747 -0.0060344427 0.015346449 -0.0198679 -0.00065049744 0.0063044797 0.0020542403 -0.010868926
0.03326671 -0.011370782 0.0013036814 0.0067709475 0.0040334365 -0.0066728396 -0.016950397 0.0049388553
0.009927419 0.013560082 0.014797731 -0.017865038 0.009770905 0.009007251 -0.0073571117 -0.0044801957
-0.01739947 0.021690512 -0.0030479885 -0.0037421368 -0.0094691245 0.012227464 -0.0073692966 -0.02061832
-0.020783713 0.007448928 -0.010365723 0.0015552643 0.0012237731 0.024264641 0.011239845 -0.014814233
-0.0050026993 0.0031746475 0.006703166 -0.0034969319 -0.006602393 0.01051952 -0.015148033 -0.014053674
0.009090905 0.014618125 -0.016091594 0.0033609148 -0.010944077 -0.0032065096 -0.0032783796 -1.2656195e-05
-0.0055345157 -0.012565927 -0.018491633 -0.00499061 -0.0009919796 0.010118918 -0.012863283 -0.023588661
-0.0116409315 0.0019674012 0.0007950919 -0.0051201005 0.014105163 -0.013766781 -0.012365163 0.011851932
0.006410646 -0.010008306 -0.003007331 -0.00034610502 -0.005478252 -0.013560783 0.026537454 0.013477355
0.0076556182 -0.008485828 0.0057039405 -0.0011036033 0.013735239 -0.0064306576 0.0015968785 0.011503052
0.0055854376 0.007926708 -0.0014081657 -0.013499671 0.017544284 -0.012413656 0.008129357 0.00021972015
-0.014153209 -0.02042535 0.0045583285 0.005708811 -0.006125451 -0.007881823 0.003567757 0.011928946
0.010340044 0.009668516 0.016273072 -0.017077958 0.0012174296 0.005519654 -0.0095662 0.00062720355
-0.016532907 -0.0036112114 0.00165656 0.019171929 0.00093795575 0.00857465 -0.002723209 -0.015084574
-0.004246021 -0.016534919 0.0011272662 0.00038776034 0.005012465 -0.001391529 -0.022620248 -0.022486594
0.008986901 0.0043404736 -0.01872543 -0.0130992755 -0.0013626892 -0.022411326 0.0024164284 -0.0073365523
0.013187019 -0.003295049 -0.008240168 -0.014372855 -0.0071429336 -0.024973912 -0.019361455 0.009868339
0.016500188 -0.0056119785 0.007781447 -0.011569341 0.0092721395 0.003374756 -0.006716924 0.0046616197
-0.013146916 0.0115480665 -0.007875271 -0.051367745 -0.015637575 0.024592787 -0.014173205 0.01022143
-0.006767781 -0.01314807 0.011120483 -0.0048821727 -0.006663597 -0.02017344 -0.010871531 -0.015277198
0.011791824 0.005137706 0.024555339 0.012084622 0.0051338184 0.002759487 0.02035266 -0.0065940786
0.006791023 0.016323404 -8.249465e-06 -0.0031114432 -0.0049313223 0.010123477 0.008917218 0.013941719
0.011645928 -0.00019608518 0.004622084 0.027709302 0.020825183 0.008967523 0.01040644 -0.017874625
0.009127702 -0.028597679 -0.005594499 -0.028978806 0.004876993 4.3587046e-05 0.0009088422 0.012679749

fc4.bias f4 [256]
00000000: 4cdf 3abc 5c4b 833e 24e0 ffbb d020 a2bd
00000010: ff42 13bc d550 22bd a89b a1bd 435d 3039
00000020: 142f 80bb f7e1 60be 456c 22be e1f7 7fba
00000030: c4e0 1c3b 09d4 c3ba 4d85 4d3c c67e 2a3d
00000040: fa8d 61ba 4000 873d ee57 3fbc 4a8e 9d3e
00000050: e2c7 593e 08b0 67bd 255f 52ba bdea a43c
00000060: a54d ccba 047a 583c 91c7 003b 3866 41bb
00000070: 1874 0dbd a3df 96bb cce3 f93b dd05 30bc
00000080: 12c7 1cbd 9049 cdbd 70ab 993e 5fb3 bf3d
00000090: 928a 5d3c 1618 2dbc 4608 0c3d d5e0 28bc
000000a0: e814 afbe 99b7 943b a974 0fbd c819 123e
000000b0: bf5c 423c 48a6 e8bc e662 953d fa5b 91bb
000000c0: dc2f 79bd a0da 083e 4c4f 963c 1639 483c
000000d0: fd64 02b8 c7af 37be f418 32bd e203 603c
000000e0: 2f77 8a3c ce35 803c 6d45 8dbd f4d5 ee3b
000000f0: 4be4 34be 07f4 183b 772e 63bc 3217 6bbd
00000100: 8b56 943b aacd 8ebc 248f 9cbb 26e7 15be
00000110: a92d 343c 5798 cebd c1e9 a2ba a1ac df3d
00000120: be4c 11bd 59a0 54bc 6e49 8cbe 3359 7a3e
00000130: 504a 10bd bcf8 073b 925a 093e 08a1 3db9
00000140: 0680 92bb 1441 923d 23fb a9bb 8f26 8bbe
00000150: 3306 4abb 6c69 953d ca2c 9bbb de96 5abb
00000160: 9526 05bc ad87 693d 1086 153d 7e71 59bb
00000170: 8633 1e3a 9510 0a3e eaee a73b cc15 c83a
00000180: 6ab8 13bd 9434 f5bb 9441 623e 8148 5dbb
00000190: dd5c 8d3e 640a b93a 52fb 223c b94c e53c
000001a0: c100 873e 4ab1 973b 7918 d03b 246c 8e3b
000001b0: ee6a ac3b a736 4abe f319 1b3d dac6 57be
000001c0: 9be7 a4b9 08d4 c6ba ab43 093d 3cd3 99be
000001d0: 1cad 53bb d206 273c 4005 c23b 580f c2bb
000001e0: 12ea 063c 816b b1ba 3364 313d fd1e 823b
000001f0: 93b3 85bc cb9e a4bb 6c5c c7bb 9826 4c3e
00000200: 3cbd 15be 7481 11bc dc0e f5bc a779 9cbe
00000210: fc49 583d 6767 1fbd e862 e53b 7a7e 073c
00000220: f868 5d3b 7ecc 4f3c 0d12 003c b543 063e
00000230: 2291 1ebc be01 59be 8713 67bd 60c1 bfbd
00000240: cda2 b23b 38e9 bd3b 49d2 51bc 5335 62bb
00000250: 0ab1 7bbe 47ca 58bc fdfd 84bd 496c 22bd
00000260: 4473 cdbb 0113 c1ba 6276 0bbe e055 9d3b
00000270: d061 e43d e400 5bba b122 3abe dfe9 a53d
00000280: e860 9d3e d2ee fb3b e3e0 40bc 041d c53b
00000290: a164 293c 56d2 a03c 2aea 91be e17f 8e3c
000002a0: c7d8 28bb fe53 563b 1306 073b 46ca 8bbe
000002b0: ecfb a8bd 226d 01bc 4464 ba3e cadf 053d
000002c0: dbdc 4a3b 3ffa a73b c158 983c 2da3 85bb
000002d0: ea7d ffbd 3001 c93c 1e2a ca3c 8fdb 32bc
000002e0: b617 17bb c1b1 8b3b 3488 7f3b 1c88 6dba
000002f0: 3a16 433b be07 3d3c e0cf 85bb 4581 56bd
00000300: b8cd 123e 12bd 323c a390 aa3b 495e ee3c
00000310: c37d 83ba dccb d83a db8e 85bc 8a35 6fbd
00000320: 3606 21bc 5bff cbbd 7db2 bb3b 6fc3 49be
00000330: b2bc 1a3d 704e 893a 4cc8 fabd a164 64ba
00000340: daca 12bd 7ca1 333c 77bd 2cbc 85cc 943e
00000350: 9111 5abe f2fe 07bb e88c 76bb edcb a4b9
00000360: 85c8 103c 032c c1bb 3d48 5fbc 99c0 bb3e
00000370: 4573 af3b 84c1 ccbd ca3f a03d f1b5 453d
00000380: 09a3 79be bbe0 7b3b bd7e 763c 5fd7 75be
00000390: b29e 16bc 0ccf f2ba b6ac c53c 8cc3 613c
000003a0: fc0d 5bba 846f 0c3c 227f b63d 0b58 e2bb
000003b0: c7db c03b e945 8ebc bdad 1ebd 6f6c 843c
000003c0: 4a9d 5d3b 2d69 013d 996d 06be 84d4 da3d
000003d0: eb87 94bb 15f2 243e 3b51 32be 2748 703e
000003e0: 7425 bf3d 6422 de3d af80 26be 72f5 d93b
000003f0: 14cf e13d 1b6a b7bb 1402 0b3e 5aed d0bd
-0.011405777 0.25643432 -0.007808702 -0.07916415 -0.008988141 -0.03962787 -0.07891017 0.0001681941
-0.003911862 -0.21961199 -0.15861614 -0.0009764415 0.0023937682 -0.0014940511 0.012543988 0.041624807
-0.0008604225 0.065918446 -0.011678679 0.3077262 0.21267655 -0.05656436 -0.0008025042 0.020131463
-0.0015587105 0.013212685 0.00196502 -0.002951039 -0.034534544 -0.0046042963 0.0076260325 -0.010743585
-0.038275786 -0.100237966 0.3001361 0.09360384 0.013521807 -0.010564825 0.034187578 -0.01030751
-0.34195638 0.004538488 -0.035023365 0.14267647 0.011862933 -0.028399602 0.07294254 -0.0044360133
-0.060836658 0.13364649 0.018348359 0.012220642 -3.1088468e-05 -0.17938147 -0.04348083 0.013672801
0.016902534 0.015650656 -0.068980075 0.007288689 -0.17665212 0.002333881 -0.013866059 -0.057395168
0.0045269183 -0.017432053 -0.004777806 -0.14638957 0.010997214 -0.1008765 -0.0012429283 0.10921598
-0.035473578 -0.012977683 -0.27399772 0.2444809 -0.03522712 0.0020747622 0.13413456 -0.00018084433
-0.004470828 0.07141319 -0.0051874085 -0.27177855 -0.003082645 0.07295498 -0.004735564 -0.0033354084
-0.008126874 0.057014156 0.036504805 -0.003317922 0.0006034899 0.13482888 0.0051249163 0.0015265285
-0.036064543 -0.0074830744 0.22095329 -0.003376514 0.27609912 0.0014117477 0.009947615 0.027990686
0.26367763 0.004629289 0.0063505736 0.0043463875 0.0052617704 -0.1974741 0.037866544 -0.2107195
-0.00031453077 -0.0015169391 0.0335118 -0.30043972 -0.0032299226 0.010194497 0.005921036 -0.0059222393
0.008234518 -0.0013536067 0.043308448 0.0039709792 -0.01632098 -0.0050238124 -0.0060840156 0.19936597
-0.14622968 -0.008880962 -0.029914312 -0.30561563 0.052804932 -0.03891697 0.007000316 0.0082699
0.003378449 0.012683032 0.007816804 0.13111766 -0.009678157 -0.21192071 -0.056415107 -0.09363055
0.0054515363 0.005795624 -0.012806484 -0.0034516647 -0.24579254 -0.01323182 -0.06493757 -0.03965405
-0.0062698442 -0.0014730395 -0.13619378 0.004801497 0.11151469 -0.000835432 -0.18177296 0.08101248
0.30737996 0.0076883817 -0.011772367 0.006015422 0.010338933 0.019631546 -0.28498966 0.017394962
-0.0025763975 0.0032703872 0.0020602986 -0.2730276 -0.08251175 -0.007899554 0.36404622 0.032684125
0.0030954394 0.005126267 0.018597009 -0.00407829 -0.12475188 0.024536699 0.024678286 -0.010916605
-0.0023054904 0.0042631333 0.0038991095 -0.00090611144 0.0029767887 0.01153749 -0.0040836185 -0.052369375
0.14336288 0.010909336 0.0052052303 0.029097693 -0.0010031987 0.0016540247 -0.01630347 -0.05840067
-0.009828141 -0.099608146 0.0057280646 -0.19703458 0.03777761 0.0010475647 -0.12245235 -0.00087125046
-0.035837986 0.010963794 -0.010543219 0.29062286 -0.21295764 -0.0020751324 -0.0037620608 -0.00031432454
0.00883687 -0.005895139 -0.013628063 0.36670378 0.0053543174 -0.09997848 0.07824667 0.048269216
-0.24378599 0.003843351 0.015044865 -0.24007939 -0.009193109 -0.001852484 0.024130207 0.013779532
-0.0008356271 0.008571509 0.089109674 -0.006907468 0.0058855745 -0.01736732 -0.03873991 0.016164986
0.0033815675 0.031594444 -0.13127746 0.106850654 -0.0045328042 0.16107972 -0.174138 0.23465024
0.093333155 0.10846403 -0.16260026 0.006651574 0.11025825 -0.0055973656 0.13575011 -0.10201521

fc5.weight f4 [384, 256]
00000000: fe05 c93a 530b 08bb 44a8 21bc 0a0e 79ba
00000010: eee5 b53b 144c 10bc c5c0 15ba ca3e 3839
00000020: 423f f53b 13ce fd39 c14a e93a 9037 ba3c
00000030: 8537 95ba af2d 40bc edcc f9bb 124d 5a3c
00000040: 145b 463c bfdb cabb b9eb c33b 84fb 86bb
00000050: b0c5 b13b 011c 1d3c b6a9 813c a5bb 4fbb
00000060: f290 35bc 1b63 51bb f956 74bb f22e 4bbc
00000070: 2cd6 31bb 280f bf3c f482 303c 530b 023c
00000080: 4cf6 843b 8414 31ba 5d9e 26ba eec9 66bb
00000090: d435 e33b 3931 6d3c 1676 f53b 0861 fc3b
000000a0: d3f9 763b fedf 6bbc 1d4f 71ba 794e b53b
000000b0: 2bcc 5bbc 1a0f 39bc 60b9 63bc 8de2 983b
000000c0: 41fa c5bb bacc 79bb 82a3 e63b 252d ec3b
000000d0: c3ac ef3b 2c92 4cbb a63a c2bb d3b2 ea3b
000000e0: ce5c 8d3c 2409 ee3b bb08 b5bb 1582 6abc
000000f0: 5dc3 18bc a53f 6fbb c5ec 0ebc f389 eb3b
00000100: 8a05 04bc 0336 d3bb 7dcf 92b9 1061 78bb
00000110: 146c 113c a828 91ba 2872 22bc 8ce3 cfbb
00000120: e991 04bb 49a6 dc3b 406b e1bb 3dbe 43bb
00000130: 5671 59bc e243 83bc 5246 15bb fc3e b93a
00000140: 3764 0a3c 27a8 52ba 9bf1 27bc b4ff 96bb
00000150: 01dd 9c3b aa7a 24bc ebf7 34bc 9c78 faba
00000160: dfec 933c a32e aabb b6d5 5fbb 6ca7 30bc
00000170: ee31 16bb 21c1 20bb 8e7c 25bc 9ba4 37bc
00000180: 8e28 283c 28c5 5b3b edc1 c1b9 35df 1e3c
00000190: f02d 7bb9 8cd8 aabc cf53 1c3a e792 b6bb
000001a0: 9b69 05bb 6127 433a 747a 5dba 5b16 063b
000001b0: 7fef 2ebc bba9 6dbb a321 633b 5479 553a
000001c0: a2a3 3c3a 916e 963c 0d49 8bbb 5a72 263a
000001d0: a64c 2abb 1f67 933a e07a 68bc 28fc f8ba
000001e0: 0227 af3a e3d0 dc3c e4c1 c6bb bb5b 85bb
000001f0: 1a32 36bc 4897 f1bc a1cf 6fbc c4f3 2cbb
00000200: ec35 1fbc 6e7a b0bb 04db 723b 1017 9c38
00000210: 723c a43a f3e5 36bc cc62 b93b 51de 5e3b
00000220: 81c3 cfb9 76f6 1bbb d0e2 7e3b 0684 533c
00000230: c09a 483c b999 483b fc33 133b f97a 29bb
00000240: aa9b b3bc f9e4 70bb ee20 cbbb 5852 9cbb
00000250: 55cd 6bbb 24a3 ed3b 2558 43bc 81d7 a3bb
00000260: c571 263c 06ce 903c 01cb c23a e0f7 9f3c
00000270: 5ec0 bfbb 37b2 68bc 7330 bb3b b986 153c
00000280: 8f8b 1339 ef70 083c c62c 063c 30a1 8cbb
00000290: 6f3a 02bc c599 ff3a ae02 e638 27fd 13bb
000002a0: df3f f93b 7ac4 05ba e295 7e3c 6fc9 f03a
000002b0: 73ae 8c3a 5023 e7bb fe00 d6ba b79c 193b
000002c0: 3893 ecbb bc5d 5f3c 4e5c 52bb dab5 3bbc
000002d0: 655f 3ebb 18b7 be3b 0575 263a 5d4e 313a
000002e0: 72f2 7ebc 5a3e 533b 4e51 52bc 26ce 613c
000002f0: 30be 1d3b 4e20 07ba 10df 4d3c 0bef a83b
00000300: 97e7 9cbb f1f9 c23b af2e dcbb dc8f 17bb
00000310: f0d7 0fbc 4148 eebb 5fca 323b 5311 333a
00000320: 5936 793b 0257 84bb 8c18 1c3c 8c41 443b
00000330: 0670 17bc ea6f 0fbb 0231 683c 7e77 243b
00000340: b0b1 9fbb 6c88 fc3b 4fe1 a0bc a739 edba
00000350: 6366 64bb 11e0 6f3b e0d5 aabc 063e 2abb
00000360: 2ed4 213a 9205 ab3b be84 2c3c ac7f 063b
00000370: 9ea2 b13b d9a3 ef3b 86cb a23b 71ff 6cbb
00000380: e1b0 b6bb 8dd7 1b3c 48c4 4b3c cd02 9f3b
00000390: 5a81 e33b f873 9b3b 2abe d93a 5818 55bc
000003a0: a1df 80bc ffd4 46bc 0094 fcbb 9b9a a03c
000003b0: a0f1 d13c b8d4 553b 9466 4c3a 99da aebb
000003c0: 88a5 8e3b 3b94 57ba 0375 3d3b 9b8b 22bb
000003d0: 78da 7e39 3422 2dbb cff5 a6ba e94d 8eb9
000003e0: 75ad 85bb 0051 203c cab3 7cbb 612f e33b
000003f0: 97d6 c9b9 2586 8cbc 2821 3d3b f15e 0b3b
0.0015336869 -0.0020758703 -0.009866778 -0.0009500688 0.0055510914 -0.008807201 -0.0005712624 0.00017570998
0.0074843476 0.00048409458 0.0017798768 0.022731572 -0.0011384344 -0.011729642 -0.007623306 0.013324039
0.012106676 -0.0061907466 0.005979028 -0.0041193385 0.0054251775 0.009589196 0.015827995 -0.0031697538
-0.011081921 -0.003194994 -0.0037283285 -0.012401329 -0.0027135713 0.023322657 0.010773409 0.00793727
0.004057681 -0.0006755071 -0.00063559954 -0.0035215574 0.006933907 0.014477068 0.0074908836 0.0077019967
0.0037685528 -0.014396666 -0.0009205209 0.0055330363 -0.013415377 -0.011295104 -0.013899177 0.004665679
-0.0060417955 -0.0038116411 0.0070385346 0.00720753 0.007314296 -0.0031215055 -0.0059274016 0.007162431
0.017256167 0.0072642732 -0.0055247224 -0.014313241 -0.009323922 -0.003650644 -0.008723442 0.0071880757
-0.008057961 -0.0064456477 -0.0002800188 -0.003789965 0.0088758655 -0.0011074739 -0.009914912 -0.0063442644
-0.002022857 0.00673369 -0.0068792403 -0.002986803 -0.01327165 -0.01602358 -0.002277751 0.0014133151
0.008446745 -0.0008035921 -0.010250474 -0.004608119 0.004787088 -0.010039011 -0.011045436 -0.0019109431
0.018057285 -0.005193548 -0.0034154481 -0.010782104 -0.0022917944 -0.0024529176 -0.010100497 -0.011208679
0.010263575 0.0033534262 -0.00036956315 0.009696771 -0.00023954338 -0.02085521 0.0005963416 -0.0055717113
-0.0020357135 0.00074445276 -0.0008448728 0.0020460102 -0.0106772175 -0.0036264497 0.00346575 0.00081433845
0.0007196014 0.018363269 -0.0042506517 0.0006349437 -0.0025985627 0.0011245942 -0.014189452 -0.0018996047
0.0013363066 0.026955074 -0.006065594 -0.004069773 -0.011120344 -0.029491082 -0.014636905 -0.0026390413
-0.009717446 -0.0053856885 0.0037056813 7.4429554e-05 0.0012530221 -0.011163223 0.0056575295 0.0034007023
-0.00039627778 -0.0023798025 0.0038892515 0.012909895 0.0122439265 0.0030609204 0.0022461405 -0.002586065
-0.021924812 -0.0036757572 -0.006198994 -0.0047705583 -0.0035980542 0.007252114 -0.011922871 -0.0050000553
0.010158961 0.017676365 0.0014861525 0.019527376 -0.0058517894 -0.014202646 0.0057125627 0.009126359
0.00014071002 0.008327707 0.008189386 -0.004291676 -0.007948502 0.0019500783 0.00010967754 -0.002258131
0.007606491 -0.00051028247 0.015538665 0.0018370579 0.0010733142 -0.00705377 -0.00163272 0.0023439357
-0.0072196983 0.013633188 -0.0032098475 -0.011456931 -0.0029048559 0.0058201663 0.0006349835 0.0006763691
-0.015560733 0.003223321 -0.012836767 0.01378206 0.002406966 -0.0005154655 0.012565389 0.0051554493
-0.00478835 0.0059502055 -0.0067194323 -0.0023126518 -0.008779511 -0.007271797 0.0027281267 0.00068308896
0.0038026778 -0.0040386925 0.009527337 0.0029946296 -0.009243017 -0.0021886774 0.014171841 0.0025095637
-0.004873477 0.0077066924 -0.019638686 -0.0018098847 -0.0034851066 0.003660206 -0.020853937 -0.002597691
0.000617328 0.00521917 0.010529695 0.0020522876 0.005420997 0.0073132333 0.0049681095 -0.0036162997
-0.005575285 0.0095118405 0.012436934 0.004852629 0.00694291 0.004744049 0.001661246 -0.013006292
-0.015731635 -0.012135743 -0.0077080727 0.019604972 0.025627911 0.003262801 0.0007797268 -0.0053361175
0.004353229 -0.0008223687 0.0028908856 -0.002480245 0.00024304714 -0.0026418092 -0.0012738052 -0.00027142398
-0.0040795156 0.009784937 -0.003855931 0.0069331382 -0.0003849759 -0.017153809 0.0028858874 0.0021266306
