trained_model/customer_streamer/gru_64_5.pth (torch, 240317 bytes, 6 tensors)

gru.weight_ih_l0 f4 [384, 23]
-0.13582595 -0.07842321 0.123771615 0.067470826 0.026630316 -0.0017296212 0.14030412 0.13077398
-0.018872175 0.14723724 0.007782787 -0.07944526 -0.15114638 0.008579171 -0.09874435 0.092459284
-0.13433066 -0.101267345 0.11775309 0.15872227 -0.018581571 0.1947874 0.060184404 0.017296208
0.030217988 0.06605109 0.009345858 -0.029583232 0.013672797 0.03966141 0.065110125 -0.029078213
-0.026955966 -0.03801171 0.08036953 0.046127766 0.10341303 0.12615335 -0.08092984 0.031006234
0.027538411 -0.14208867 0.012111375 -0.04268625 -0.08153695 0.053290054 -0.1208316 -0.0061060404
0.11621062 -0.09558391 0.033960942 -0.04571819 0.081007674 -0.03784688 -0.0022804784 -0.08977023
0.019484287 0.037999157 -0.018891986 0.05600034 0.056826983 -0.0685681 0.18223171 0.06497506
-0.08138296 -0.0019664194 -0.15081269 -0.05238992 -0.06649216 -0.13854413 0.18586804 -0.23055108
0.28744742 0.09974487 0.089512095 -0.031105911 -0.096621424 -0.15942168 0.5256498 -0.09630921
-0.24545483 0.5533491 -0.35012826 -0.34923068 0.25700688 -0.34806988 0.3671418 -0.20056579
0.38184562 0.34959614 0.25556904 0.093123086 -0.20732868 -0.2956318 0.03997756 -0.16337802
-0.12017657 -0.016463267 0.012064788 -0.12436391 -0.008150807 -0.14433709 -0.30158147 0.061977223
-0.08404746 0.1205065 0.13337523 -0.016968938 -0.16274178 0.14774063 -0.13593388 -0.022488717
-0.2051206 0.0823738 -0.16956708 -0.080699146 0.06991661 -0.11157754 0.08241368 0.07250238
0.0537881 0.12506318 0.14887005 0.10831577 0.14086826 0.09436169 -0.051889498 0.024325728
-0.09229714 -0.03415535 -0.0062413025 -0.015395765 -0.015835049 -0.18379173 -0.03905249 0.10164127
0.090948775 0.015081311 -0.3003914 -0.31439883 0.4637102 -0.26670545 0.16410168 0.24113524
0.20546511 0.17870028 0.3328792 0.020128759 0.13116336 -0.1266826 -0.100723945 -0.16407372
-0.19320546 0.09622211 0.10165753 0.39673105 -0.20888014 0.18449135 -0.0659828 0.29381585
0.054863553 -0.17756604 0.054653976 0.043999597 -0.07177017 0.07218441 0.04269143 -0.07576912
0.044092026 0.02396713 0.2635341 0.17089875 -0.26044556 0.35022816 -0.24037433 -0.24639584
-0.0072240145 0.32855356 0.21571074 -0.26001036 0.0770178 0.05121881 0.047809917 -0.054630954
-0.14253876 -0.0851916 0.24533087 0.10381705 0.31685197 0.28499922 0.27854577 0.30978563
0.27583227 0.2175179 0.32412866 -0.23696445 -0.11003152 -0.20666374 -0.14502585 0.1850836
0.12558515 -0.028378932 -0.024205435 0.25567263 0.09763589 0.2851577 0.1391624 -0.112315476
-0.057907037 0.23431277 -0.13122353 0.11626231 0.048060767 0.091329195 0.12862855 0.10677837
-0.040953636 0.1567433 0.019181771 -0.020408068 -0.11987037 0.001161107 -0.043587644 -0.0049386527
0.109386034 0.022261024 -0.029634325 0.08814548 0.09751446 0.07867669 0.22461991 0.05457449
-0.09235147 0.07825375 0.0199794 0.028133124 0.10750345 0.032675426 0.048000276 0.041338895
0.14697114 0.17335466 -0.21463642 0.10625167 0.09447056 0.07006618 0.1660448 -0.14218543
0.034450162 0.086574316 -0.05161768 -0.16609846 -0.013018668 0.09055577 0.14952743 -0.16821446
00000000: f515 0bbe 599c a0bd f97b fd3d 252e 8a3d
00000010: d227 da3c 75b4 e2ba e2ab 0f3e 9de9 053e
00000020: d299 9abc 5cc5 163e c006 ff3b 32b4 a2bd
00000030: 1ec6 1abe a78f 0c3c 7a3a cabd 4b5b bd3d
00000040: fa8d 09be 4165 cfbd 8828 f13d 1788 223e
00000050: 6138 98bc 5976 473e ec83 763d c7b0 8d3c
00000060: b78b f73c cb45 873d 5f1f 193c 8958 f2bc
00000070: de03 603c 0174 223d 7558 853d 6f35 eebc
00000080: c2d2 dcbc 2bb2 1bbd c898 a43d 78f0 3c3d
00000090: 36ca d33d 582e 013e 8bbe a5bd c900 fe3c
000000a0: 3c98 e13c b17f 11be ca6e 463c c7d7 2ebd
000000b0: d8fc a6bd ac46 5a3d 8f76 f7bd 2e15 c8bb
000000c0: d5ff ed3d 7fc1 c3bd a11a 0b3d ff42 3bbd
000000d0: 5ae7 a53d 5405 1bbd 1474 15bb 74d9 b7bd
000000e0: 839d 9f3c 01a5 1b3d 5ec3 9abc 9d60 653d
000000f0: 69c3 683d 6f6d 8cbd f39a 3a3e a511 853d
00000100: 1cac a6bd 0bdf 00bb a46e 1abe d096 56bd
00000110: 0b2d 88bd 83de 0dbe 3154 3e3e 9515 6cbe
00000120: 4f2c 933e 0a47 cc3d 1e52 b73d d3d1 febc
00000130: 74e1 c5bd 703f 23be fc90 063f c33d c5bd
00000140: 8358 7bbe 49a8 0d3f 0344 b3be 5dce b2be
00000150: 6896 833e 3736 b2be 03fa bb3e 1e61 4dbe
00000160: 4581 c33e 44fe b23e f2d9 823e 51b7 be3d
00000170: f84d 54be 0d5d 97be 83bf 233d 914c 27be
00000180: 221f f6bd f9dd 86bc 63ab 453c 81b2 febd
00000190: f68a 05bc 1acd 13be e368 9abe d4db 7d3d
000001a0: 1321 acbd 1dcc f63d 8493 083e 7102 8bbc
000001b0: c8a5 26be 5249 173e 4032 0bbe 423a b8bc
000001c0: 220b 52be 98b3 a83d fea2 2dbe 9845 a5bd
000001d0: 7130 8f3d c482 e4bd 81c8 a83d 217c 943d
000001e0: e950 5c3d 9010 003e 6471 183e a9d4 dd3d
000001f0: c53f 103e b440 c13d 158a 54bd c046 c73c
00000200: 4806 bdbd 7be6 0bbd d783 ccbb 853e 7cbc
00000210: 81b8 81bc e633 3cbe 81f5 1fbd 4c29 d03d
00000220: 5a43 ba3d 9a17 773c e7cc 99be e2f8 a0be
00000230: 6c6b ed3e 9e8d 88be 450a 283e 28ec 763e
00000240: 7265 523e 35fd 363e 246f aa3e 11e5 a43c
00000250: b04f 063e 15b9 01be 5b48 cebd f102 28be
00000260: a7d7 45be 1910 c53d d331 d03d 5520 cb3e
00000270: ade4 55be 4deb 3c3e fe21 87bd 086f 963e
00000280: 9bb8 603d dfd3 35be d9dc 5f3d ec38 343d
00000290: 3dfc 92bd 6cd5 933d 35dd 2e3d d72c 9bbd
000002a0: d799 343d b756 c43c f1ed 863e 1500 2f3e
000002b0: 1f59 85be 1b51 b33e b024 76be 314f 7cbe
000002c0: 6db7 ecbb 2c38 a83e 47e3 5c3e 1420 85be
000002d0: 82bb 9d3d d1ca 513d 55d4 433d b5c4 5fbd
000002e0: aef5 11be ef78 aebd 0438 7b3e 099e d43d
000002f0: 6c3a a23e 6beb 913e 8d9d 8e3e 399c 9e3e
00000300: e339 8d3e 03bd 5e3e 31f4 a53e cfa6 72be
00000310: 3558 e1bd a99f 53be a881 14be 8e86 3d3e
00000320: 6599 003e ef7a e8bc 7a4a c6bc 86e7 823e
00000330: 53f5 c73d 3100 923e 9780 0e3e a805 e6bd
00000340: ee2f 6dbd b0ef 6f3e 765f 06be ef1a ee3d
00000350: 5edb 443d cd0a bb3d 34b7 033e 9eae da3d
00000360: 00bf 27bd 5181 203e 1723 9d3c d22e a7bc
00000370: 997e f5bd 4930 983a f588 32bd 6cd4 a1bb
00000380: c905 e03d c05c b63c afc3 f2bc 9e85 b43d
00000390: a9b5 c73d 3f21 a13d c302 663e 8089 5f3d
000003a0: c422 bdbd 8143 a03d d7ab a33c 7077 e63c
000003b0: c52a dc3d abd6 053d f09b 443d f952 293d
000003c0: 9a7f 163e e283 313e a6c9 5bbe 7a9a d93d
000003d0: c879 c13d db7e 8f3d a607 2a3e 0f99 11be
000003e0: 9d1b 0d3d e04d b13d 0f6d 53bd b715 2abe
000003f0: 404c 55bc 4e75 b93d b81d 193e 6940 2cbe

gru.weight_hh_l0 f4 [384, 128]
0.1815605 -0.24126169 -0.06728142 0.26068035 0.277034 0.0077737593 0.1348279 -0.33989957
0.028969627 -0.06771771 0.032241117 -0.18544066 -0.16042528 0.01532037 0.18526025 0.066655226
-0.09171912 -0.023191797 -0.011819972 -0.0042247633 -0.03765546 -0.15260403 -0.14085591 0.12989032
0.1494884 -0.02791721 0.00018679624 0.3556672 -0.20300072 -0.004860748 0.09076356 -0.08808544
0.25359836 0.14194383 0.19077858 -0.1543144 -0.06046535 -0.022655753 0.12077409 -0.2691466
-0.23610064 0.11722715 -0.0038034024 0.13263577 -0.11124785 -0.26518753 -0.24586223 -0.060021564
-0.010427727 0.012234884 0.18728529 0.20195217 0.130092 -0.16256641 0.17848337 0.0045988336
0.04869808 -0.04476304 0.24293724 -0.14776027 0.030136025 0.09806671 -0.044429075 -0.03758347
-0.062485307 -0.04932057 -0.123172656 0.30803746 -0.08392026 0.014663896 0.009920176 0.14871392
0.021719825 -0.16553111 -0.029386878 -0.2839705 0.051437754 -0.07142824 -0.3054746 -0.33328903
-0.18293111 -0.20170039 -0.06933913 0.023587428 -0.07521127 -0.050402567 0.06909069 0.2187151
0.047666226 0.07344274 -0.1628184 0.03975561 -0.29649144 -0.022568332 0.07266527 -0.028010802
0.19548035 0.10520805 0.023738084 0.17939441 0.097952604 0.0040461784 -0.06560401 -0.024959061
0.10462526 -0.008023815 -0.084517956 -0.28510898 -0.050657514 0.06528315 0.17026442 -0.0603705
-0.11557513 -0.2135659 0.16501427 -0.21389723 0.072573155 0.36125582 -0.14667772 0.0779283
-0.077154495 0.07515121 -0.1334601 -0.05741518 -0.2979841 0.048191894 0.05350222 0.04984859
0.0032124615 -0.034523137 0.023295008 0.07256632 -0.030437268 0.12522149 0.117436536 -0.04247971
0.13764133 0.0041609094 -0.008752099 0.010673778 0.08344429 0.18726999 -0.0653707 -0.0009475888
0.111498885 0.031108666 0.011582864 0.030472297 0.04658512 -0.013645215 -0.009775303 -0.09186529
0.0032781907 0.09801659 0.116265774 0.30286103 0.046563096 -0.11440917 0.042912133 0.07807749
0.06378112 0.14722645 -0.008161023 0.12665845 -0.02336057 0.08485212 0.12079816 0.0047535324
0.011746973 -0.00945422 0.033786837 0.013601156 0.08970797 -0.0936397 -0.067034625 -0.13821799
-0.17317013 0.039867204 -0.019008178 -0.07708564 -0.024938585 0.080417246 -0.030607924 -0.008784745
0.036441136 0.028233418 -0.025103047 -0.0152876675 0.029717552 -0.034365676 -0.058469128 0.014990182
0.14743407 -0.10288943 0.05200939 -0.0012459386 0.21749912 -0.1952683 0.09589644 0.09685514
0.029559894 -0.07400996 0.041898746 0.012905953 -0.07843698 -0.003719314 0.028577298 -0.061953805
0.030479753 0.037670337 0.19031435 -0.039229825 -0.11950518 -0.0061449953 0.1179382 -0.007122683
0.13639002 -0.06786945 -0.27409706 0.019015733 -0.08174579 -0.106864564 0.05049226 0.06409814
0.0058098943 -0.04522091 -0.21238293 -0.06387921 -0.02433857 -0.048656337 0.11050364 0.06948294
0.10240508 -0.06198571 0.07841231 0.047739152 0.04088861 -0.03958705 0.10673358 0.11217785
-0.121688694 -0.05453389 0.02003553 -0.07105348 0.06914107 0.012759528 -0.050634805 -0.0002540948
0.17054331 0.07225568 -0.028705547 0.16361114 -0.07057561 0.1942056 0.17953835 0.053802587
00000000: ffea 393e 4e0d 77be d7ca 89bd e577 853e
00000010: 67d7 8d3e 05bb fe3b 5310 0a3e 5107 aebe
00000020: b651 ed3c 95af 8abd 430f 043d 28e4 3dbe
00000030: 8646 24be 4a02 7b3c ddb4 3d3e 8982 883d
00000040: 3cd7 bbbd b9fc bdbc 8ea8 41bc e26f 8abb
00000050: 9d3c 1abd 3b44 1cbe 883c 10be f801 053e
00000060: 7d13 193e a2b2 e4bc bcde 4339 031a b63e
00000070: 6cdf 4fbe e946 9fbb 3fe2 b93d 2466 b4bd
00000080: a5d7 813e b959 113e 765b 433e 9804 1ebe
00000090: 84aa 77bd 8f98 b9bc 6858 f73d 95cd 89be
000000a0: 5ec4 71be ca14 f03d 8142 79bb acd1 073e
000000b0: ead5 e3bd a9c6 87be 4fc3 7bbe 2cd9 75bd
000000c0: 0fd9 2abc d374 483c b7c7 3f3e 8dcc 4e3e
000000d0: d636 053e cf77 26be 58c4 363e d0b1 963b
000000e0: a377 473d 7359 37bd 8ac4 783e 784e 17be
000000f0: d3df f63c 33d7 c83d 43fb 35bd 20f1 19bd
00000100: 98f0 7fbd 5e04 4abd f241 fcbd 16b7 9d3e
00000110: 63de abbd d640 703c 3c88 223c 7648 183e
00000120: c6ed b13c fd80 29be c0bc f0bc 9564 91be
00000130: 65b0 523d f848 92bd 2b67 9cbe dca4 aabe
00000140: 4b52 3bbe 8c8a 4ebe ac01 8ebd 6c3a c13c
00000150: 5e08 9abd ec72 4ebd 6b7f 8d3d daf6 5f3e
00000160: a93d 433d 2669 963d deb9 26be c7d6 223d
00000170: bacd 97be 39e1 b8bc 87d1 943d e976 e5bc
00000180: 002c 483e 5177 d73d 5f76 c23c 2bb3 373e
00000190: 609b c83d ce95 843b 655b 86bd f276 ccbc
000001a0: c545 d63d 5276 03bc c017 adbd cef9 91be
000001b0: 417e 4fbd 2cb3 853d cc59 2e3e 0f47 77bd
000001c0: a7b2 ecbd 05b1 5abe 80f9 283e e007 5bbe
000001d0: 3ca1 943d 86f6 b83e af32 16be df98 9f3d
000001e0: 2d03 9ebd e1e8 993d c4a9 08be 2e2c 6bbd
000001f0: 5f91 98be dd64 453d 2525 5b3d 092e 4c3d
00000200: 2988 523b 2268 0dbd 2cd5 be3c a79d 943d
00000210: 9457 f9bc 103a 003e 9182 f03d 34ff 2dbd
00000220: d9f1 0c3e 3d58 883b f764 0fbc 12e1 2e3c
00000230: d7e4 aa3d b4c3 3f3e 13e1 85bd 9c67 78ba
00000240: 8759 e43d 9ad7 fe3c 0ec6 3d3c 0aa1 f93c
00000250: 0ad0 3e3d 2e90 5fbc 9828 20bc df23 bcbd
00000260: ead6 563b ecbc c83d c01c ee3d 9a10 9b3e
00000270: f2b8 3e3d 5b4f eabd a2c4 2f3d 17e7 9f3d
00000280: ad9f 823d 88c2 163e d0b5 05bc c1b2 013e
00000290: ab5e bfbc f3c6 ad3d 0765 f73d 85c3 9b3b
000002a0: 6076 403c dfe5 1abc 1164 0a3d 62d7 5e3c
000002b0: d0b8 b73d 2cc6 bfbd 7349 89bd 0489 0dbe
000002c0: 8353 31be cb4b 233d 0ab7 9bbc 13df 9dbd
000002d0: 014c ccbc ccb1 a43d 78bd fabc e4ed 0fbc
000002e0: 4d43 153d c549 e73c e8a4 cdbc 2079 7abc
000002f0: 3972 f33c 06c3 0cbd 537d 6fbd 6199 753c
00000300: f5f8 163e b2b7 d2bd cc07 553d c34e a3ba
00000310: 17b8 5e3e 6af4 47be 5a65 c43d fd5b c63d
00000320: 9727 f23c 8992 97bd 059e 2b3d 7e73 533c
00000330: 91a3 a0bd bcbf 73bb f01a ea3c 46c3 7dbd
00000340: adb0 f93c 364c 1a3d c4e1 423e 74af 20bd
00000350: 22bf f4bd f55b c9bb 9589 f13d 6565 e9bb
00000360: d3a9 0b3e 23ff 8abd 7356 8cbe e2c6 9b3c
00000370: 566a a7bd cfdb dabd f9d0 4e3d e345 833d
00000380: ed60 be3b 9039 39bd e97a 59be 1ad3 82bd
00000390: ae61 c7bc de4b 47bd bb4f e23d 124d 8e3d
000003a0: c1b9 d13d bae4 7dbd a296 a03d 218a 433d
000003b0: d17a 273d 0826 22bd 2397 da3d 80bd e53d
000003c0: ec37 f9bd ee5e 5fbd 8d21 a43c 7d84 91bd
000003d0: d599 8d3d 570d 513c 7166 4fbd 0738 85b9
000003e0: e8a2 2e3e c9fa 933d e527 ebbc ae89 273e
000003f0: f289 90bd d5dd 463e e7d8 373e 1a60 5c3d

gru.bias_ih_l0 f4 [384]
0.025588635 -0.092040524 0.12521264 -0.063316904 -0.07146852 -0.14775477 0.069258824 -0.08755261
-0.16593365 -0.03489982 0.0801087 0.014564718 -0.089871176 -0.07065309 -0.032782417 -0.0480878
-0.083522715 -0.0111644445 -0.011184728 -0.046941668 0.035356596 -0.07839345 0.06511177 -0.00017759227
-0.029780252 -0.08609647 -0.14234027 0.1356315 0.08567015 -0.09707321 0.03199282 -0.023969382
-0.21575756 0.03404108 0.14323787 -0.16891868 0.121947534 0.021210266 0.02685502 0.041383103
0.06380337 -0.09290831 -0.0043036547 -0.011637686 -0.0608581 0.033179432 0.118229285 -0.08699969
0.032224413 0.09695268 -0.07638413 0.024752168 -0.098703094 -0.04887724 0.25333497 -0.08127524
0.0122473445 0.035028126 -0.02905093 -0.011403622 0.053617354 0.1855601 -0.009173292 0.02789305
-0.057307724 -0.061884608 -0.03536284 0.06444537 -0.031551752 0.07842398 -0.049718548 0.0672585
0.099636815 0.09492226 0.046117287 -0.03792432 0.00625137 0.019705953 -0.025109593 0.09103181
-0.09396042 -0.066988975 -0.051335607 0.099054225 -0.16567846 -0.03929973 0.07240436 -0.10823544
0.017821917 -0.035519812 -0.0365019 0.14036877 -0.0228085 -0.08497804 -0.036861997 -0.020862538
0.117293894 0.0069867554 0.13738415 -0.024375644 -0.04572108 0.05181888 -0.0632542 0.052423514
0.08607546 0.03867369 0.11971161 -0.10077747 0.07316991 0.064243264 0.06547772 -0.055072352
0.04323912 0.02235134 -0.085298195 0.110571705 -0.057213206 -0.08668165 -0.0773067 -0.05527378
0.028953165 -0.029307168 0.0059801633 -0.04549642 -0.11689995 0.047186386 -0.1462612 0.1444531
-0.21079662 0.15728478 -0.10122466 -0.051936418 0.06483755 0.010492801 -0.08315514 -0.06728216
-0.094202384 -0.10486265 -0.13450427 -0.12010342 -0.018283434 0.029490458 0.018651294 -0.052207835
-0.039976075 -0.011627934 -0.124960065 0.07810216 0.0064027286 0.11932984 -0.028620344 -0.04335299
-0.025047664 -0.22741899 0.07472279 -0.20269722 -0.07080365 -0.085809074 0.08961064 -0.18199576
-0.11288694 0.029161684 -0.16132228 -0.12555663 -0.09532364 -0.058366287 -0.08389712 -0.041864254
-0.17335491 -0.039121374 -0.008570204 -0.102399245 -0.10706747 -0.07578562 -0.06791874 0.017136034
-0.068413645 -0.06477284 -0.04577121 0.08084611 -0.08817733 -0.0062698456 -0.067671046 -0.10889079
-0.21886496 0.03896023 -0.15201987 -0.05706532 -0.13734938 -0.09458744 0.037434004 -0.07943335
0.034120668 -0.07781348 -0.13990152 -0.075937055 -0.084088035 -0.094498426 -0.028747115 -0.040705234
-0.1856139 0.061208688 0.020779949 -0.038632743 -0.04066769 -0.05903265 -0.078552775 -0.22591567
0.018084787 -0.011681263 0.049452085 0.09564168 0.059741072 0.1495375 0.030932724 -0.14591719
-0.20899437 -0.13700679 0.052999288 -0.118916266 0.004007274 -0.05632696 -0.03039852 -0.03287466
0.08076783 -0.058172252 0.021850983 -0.09349583 0.0041074 0.008937944 0.069240466 -0.14126909
0.089470774 -0.16933627 -0.07727933 -0.013200559 -0.08969835 -0.06297361 0.07719347 -0.017288746
-0.0641498 -0.15179911 0.019796845 -0.155822 0.056490783 -0.038013905 -0.041772533 -0.16226697
0.067201145 -0.04525266 0.057967935 0.081431344 -0.06979656 0.025516612 0.046248317 -0.083795756
00000000: 429f d13c be7f bcbd be37 003e 4bac 81bd
00000010: 165e 92bd 074d 17be 92d7 8d3d c84e b3bd
00000020: 83ea 29be 1df3 0ebd 0810 a43d dba0 6e3c
00000030: 610e b8bd 91b2 90bd db46 06bd b7f7 44bd
00000040: f50d abbd 13eb 36bc 2640 37bc e845 40bd
00000050: 14d2 103d bf8c a0bd 5259 853d 1038 3ab9
00000060: b7f5 f3bc 5953 b0bd a6c1 11be fce2 0a3e
00000070: d573 af3d 52ce c6bd e70a 033d 705b c4bc
00000080: 8def 5cbe a96e 0b3d f3ac 123e 05f9 2cbe
00000090: a1bf f93d 27c1 ad3c 0fff db3c 5481 293d
000000a0: 57ab 823d b646 bebd ac05 8dbb feab 3ebc
000000b0: 5846 79bd 28e7 073d 3222 f23d e52c b2bd
000000c0: bffd 033d 208f c63d 486f 9cbd 0fc5 ca3c
000000d0: d924 cabd 8033 48bd 1fb5 813e a273 a6bd
000000e0: 16a9 483c a779 0f3d 37fc edbc 42d6 3abc
000000f0: df9d 5b3d 7803 3e3e 934b 16bc f77f e43c
00000100: 81bb 6abd b77a 7dbd a0d8 10bd effb 833d
00000110: 693c 01bd c09c a03d ada5 4bbd d3be 893d
00000120: 630e cc3d 9a66 c23d 7be5 3c3d 8856 1bbd
00000130: 4bd8 cc3b 616e a13c a2b2 cdbc e36e ba3d
00000140: 526e c0bd 8431 89bd 4945 52bd f1dc ca3d
00000150: 9da7 29be c1f8 20bd bd48 943d 8baa ddbd
00000160: 45ff 913c 397d 11bd 0483 15bd d5bc 0f3e
00000170: e4d8 babc f708 aebd 9bfc 16bd eae7 aabc
00000180: c837 f03d 27f1 e43b 6eae 0c3e 6eaf c7bc
00000190: 0746 3bbd 0940 543d 6b8b 81bd 0aba 563d
000001a0: 5548 b03d 4e68 1e3d 5c2b f53d 6b64 cebd
000001b0: 1bda 953d f991 833d 2f19 863d 8c93 61bd
000001c0: 811b 313d 281a b73c d2b0 aebd 6b73 e23d
000001d0: 6558 6abd 2686 b1bd fa52 9ebd c266 62bd
000001e0: 302f ed3c 9615 f0bc 3ff5 c33b 745a 3abd
000001f0: 3e69 efbd 8346 413d 7fc5 15be 83eb 133e
00000200: 12db 57be 430f 213e e04e cfbd 48bb 54bd
00000210: 8dc9 843d ffe9 2b3c 3e4d aabd 3bcb 89bd
00000220: 2eed c0bd 3bc2 d6bd 7dbb 09be c8f8 f5bd
00000230: 24c7 95bc f995 f13c 99ca 983c e2d7 55bd
00000240: f4bd 23bd 1783 3ebc 10eb ffbd 06f4 9f3d
00000250: fbcd d13b 3463 f43d 3675 eabc e892 31bd
00000260: c230 cdbc 86e0 68be 4308 993d dc8f 4fbe
00000270: 8101 91bd abbc afbd c985 b73d 195d 3abe
00000280: 4531 e7bd 7ce4 ee3c ab31 25be eb91 00be
00000290: 0a39 c3bd 7d11 6fbd 41d2 abbd da79 2bbd
000002a0: f383 31be bc3d 20bd 0a6a 0cbc b2b6 d1bd
000002b0: 3146 dbbd 7e35 9bbd fb18 8bbd de60 8c3c
000002c0: 741c 8cbd 9fa7 84bd 987a 3bbd a592 a53d
000002d0: 5196 b4bd 4773 cdbb 1e97 8abd 2202 dfbd
000002e0: 231e 60be c394 1f3d 19ab 1bbe 53bd 69bd
000002f0: 51a5 0cbe 0fb7 c1bd 6654 193d f4ad a2bd
00000300: 1dc2 0b3d ac5c 9fbd 5842 0fbe e384 9bbd
00000310: 5936 acbd 6488 c1bd 127f ebbc 88ba 26bd
00000320: 9211 3ebe f6b5 7a3d b63a aa3c 5e3d 1ebd
00000330: 2a93 26bd 38cc 71bd 47e0 a0bd 7056 67be
00000340: 8c26 943c c562 3fbc 458e 4a3d c9df c33d
00000350: 0eb3 743d 5c20 193e a066 fd3c 516b 15be
00000360: 9f02 56be 824b 0cbe c815 593d 5f8a f3bd
00000370: 734f 833b 19b7 66bd 5106 f9bc 94a7 06bd
00000380: 9b69 a53d 0746 6ebd d500 b33c be7a bfbd
00000390: 5e97 863b 7470 123c f2cd 8d3d d8a8 10be
000003a0: 743c b73d 7d66 2dbe a044 9ebd 2847 58bc
000003b0: c5b3 b7bd 4ff8 80bd 9c17 9e3d 21a1 8dbc
000003c0: f860 83bd 3a71 1bbe fe2c a23c cd8f 1fbe
000003d0: e162 673d 78b4 1bbd ad19 2bbd 5029 26be
000003e0: c1a0 893d da5a 39bd c96f 6d3d 7ac5 a63d
000003f0: 80f1 8ebd 3708 d13c e06e 3d3d 1c9d abbd

gru.bias_hh_l0 f4 [384]
0.08407186 -0.012734579 0.13672167 0.021864947 -0.11333993 0.0044409726 0.07496668 -0.23089555
-0.08110798 0.04412329 0.058300246 0.08204819 -0.04469364 -0.094112284 -0.03383865 -0.13639519
-0.118407376 0.03199632 0.024637992 -0.0948833 0.090014294 -0.14469762 -0.025283474 -0.012610219
-0.07661244 -0.06490827 0.02773985 0.14415401 0.0015576727 -0.08636586 -0.015583984 -0.039695945
-0.14687763 0.03511967 0.12828985 -0.103598505 0.060193863 0.01725528 -0.003925266 0.016411481
-0.07098341 -0.060886856 0.003482484 -0.052854974 0.04483247 0.0881123 -0.022848865 -0.04673841
0.17250201 0.092544 -0.054723162 0.064191975 0.035834964 -0.10559841 0.1702555 0.01779461
0.025699535 -0.01587314 -0.05026649 -0.026066784 -0.070520535 0.15919182 -0.039030217 0.03261098
-0.13837765 -0.014490551 -0.1449303 0.09429597 0.014367316 0.020881372 -0.06790449 0.054770444
0.058341883 0.05287797 0.069395736 -0.1491892 -0.0404956 0.14330362 0.094428435 0.04104005
-0.11018674 -0.040107958 -0.017240465 -0.032230586 -0.18513568 -0.0257998 0.12055915 -0.040363368
0.070492126 -0.02741584 0.038064353 0.15204439 0.02047012 -0.10942817 -0.011440942 0.04032535
0.035985872 -0.063303486 0.1273628 0.07639967 -0.12933958 0.0024677976 0.008986837 0.01737888
0.029388402 0.040317345 0.11748297 0.026463615 0.0725947 -0.06709634 0.21319509 0.07470309
0.1117968 0.089217305 0.0009400477 0.13776955 -0.019132685 -0.09709091 0.005716772 0.006745204
0.023639793 0.0041532055 0.04949134 -0.039030712 0.0021951713 -0.004075716 -0.19196464 0.030661782
-0.18632069 0.061507415 -0.078020304 -0.041317064 0.10063394 0.009014799 -0.08818236 0.033916716
-0.055405486 -0.04828693 -0.07608284 -0.042994894 -0.13778776 -0.07742037 0.032028534 -0.02612545
0.026595345 0.029021956 -0.08674976 -0.040656757 0.010907399 0.035584074 0.048677765 -0.015643338
-0.0040419353 -0.23505445 0.10190204 -0.20806937 -0.05450647 -0.11722851 0.18947874 -0.14623679
-0.13930306 0.07041801 -0.16165166 0.007923879 -0.051127568 -0.20192571 -0.10426014 -0.0071726628
-0.20068267 -0.03082415 0.013388542 -0.0484614 0.0002224548 -0.036888037 -0.0017105535 0.07346013
-0.05850304 0.057614878 -0.04091892 -0.021344371 -0.17548206 -0.020907477 -0.07529549 -0.10826272
-0.25500682 0.11212918 -0.014373479 -0.10470935 -0.24835299 -0.0988298 0.019484874 -0.06550529
0.03410841 -0.1418342 -0.11565556 -0.07729766 0.05256352 -0.095268644 0.049957857 -0.08321811
-0.09842255 0.03816367 -0.028141329 -0.08933098 -0.009724618 0.05019848 -0.12074604 -0.20764758
0.08571445 -0.047954846 -0.073110364 0.055311363 -0.037067857 0.0809485 -0.0076664323 -0.2033702
-0.0874502 -0.044377465 -0.001765821 -0.0065581743 0.073263295 -0.047085363 -0.03857177 0.046589207
0.10923943 -0.013510892 -0.019957487 0.014415612 -0.10245487 -0.036824517 -0.00020215906 -0.2638065
0.11690073 -0.16072625 -0.17995901 0.10171556 -0.095545635 -0.058607467 0.109745555 -0.009092037
0.08751645 -0.14826527 -0.11388025 -0.041354064 0.046197485 -0.06935123 -0.059989993 -0.0800518
-0.030022347 0.031501368 0.024218211 -0.052068353 -0.020226445 -0.031680748 -0.059012063 -0.038033407
00000000: de2d ac3d b2a4 50bc c400 0c3e 1e1e b33c
00000010: c41e e8bd 9485 913b 2188 993d e26f 6cbe
00000020: f11b a6bd 9fba 343d 3dcc 6e3d e208 a83d
00000030: ae10 37bd f1bd c0bd 659a 0abd 2eab 0bbe
00000040: 917f f2bd 930e 033d 9dd5 c93c 2d52 c2bd
00000050: 6a59 b83d 9d2b 14be 4a1f cfbc 189b 4ebc
00000060: fce6 9cbd a1ee 84bd af3e e33c 1c9d 133e
00000070: d32a cc3a 96e0 b0bd f753 7fbc 3798 22bd
00000080: 1767 16be a5d9 0f3d 6a5e 033e 742b d4bd
00000090: d78d 763d f25a 8d3c 859f 80bb 5f71 863c
000000a0: c05f 91bd 7f64 79bd 633a 643b 757e 58bd
000000b0: 41a2 373d 3974 b43d 8b2d bbbc c670 3fbd
000000c0: 5ea4 303e b587 bd3d 6525 60bd 1577 833d
000000d0: afc7 123d fb43 d8bd 7557 2e3e 00c6 913c
000000e0: d587 d23c 6308 82bc 3ce4 4dbd 028a d5bc
000000f0: 126d 90bd 2e03 233e 26de 1fbd 1793 053d
00000100: dfb2 0dbe c769 6dbc 9c68 14be 3f1e c13d
00000110: e464 6b3c 690f ab3c 8211 8bbd f956 603d
00000120: e6f7 6e3d 9296 583d 5a1f 8e3d 0ec5 18be
00000130: b7de 25bd 2fbe 123e b263 c13d 9d19 283d
00000140: 96a9 e1bd 3e48 24bd e03b 8dbc 3804 04bd
00000150: 3594 3dbe 1a5a d3bc b7e7 f63d 0f54 25bd
00000160: 2d5e 903d 2f97 e0bc 5ee9 1b3d 86b1 1b3e
00000170: f4b0 a73c e01b e0bd ca72 3bbc 322c 253d
00000180: ec65 133d 42a5 81bd 656b 023e 6e77 9c3d
00000190: 9871 04be c6ba 213b 873d 133c 275e 8e3c
000001a0: f2bf f03c cd23 253d e99a f03d 39ca d83c
000001b0: 88ac 943d ce69 89bd d04f 5a3e effd 983d
000001c0: b8f5 e43d 90b7 b63d 896d 763a 7613 0d3e
000001d0: 26bc 9cbc 99d7 c6bd c253 bb3b df06 dd3b
000001e0: 3da8 c13c 9d17 883b 6eb7 4a3d abde 1fbd
000001f0: dddc 0f3b 958d 85bb 6192 44be 6b2e fb3c
00000200: daca 3ebe 33ef 7b3d 1cc9 9fbd 153c 29bd
00000210: 2b19 ce3d cfb2 133c f498 b4bd 41ec 0a3d
00000220: ddf0 62bd 84c8 45bd 52d1 9bbd 6a1b 30bd
00000230: 3c18 0dbe 928e 9ebd 5a30 033d 0a05 d6bc
00000240: 7bde d93c 74bf ed3c dca9 b1bd b387 26bd
00000250: f2b4 323c 9bc0 113d 5662 473d 7526 80bc
00000260: 3672 84bb 1db2 70be 04b2 d03d 2310 55be
00000270: 2d42 5fbd 8015 f0bd b706 423e 19bf 15be
00000280: 76a5 0ebe 5137 903d 0388 25be 28d3 013c
00000290: 246b 51bd 9dc5 4ebe 5786 d5bd a808 ebbb
000002a0: c27f 4dbe ee82 fcbc 9e5b 5b3c 767f 46bd
000002b0: c142 6939 e917 17bd a734 e0ba 4472 963d
000002c0: e2a0 6fbd 94fd 6b3d 999a 27bd 64da aebc
000002d0: 92b1 33be 2846 abbc 8634 9abd d8b8 ddbd
000002e0: 4190 82be fca3 e53d be7e 6bbc db71 d6bd
000002f0: 3f50 7ebe 4767 cabd be9e 9f3c a327 86bd
00000300: 43b5 0b3d fc3c 11be d2dc ecbd 3c4e 9ebd
00000310: d84c 573d 351c c3bd 9ca0 4c3d 426e aabd
00000320: c391 c9bd 8251 1c3d a588 e6bc 29f3 b6bd
00000330: 0154 1fbc ec9c 4d3d b349 f7bd 91a1 54be
00000340: 0f8b af3d 4d6c 44bd e3ba 95bd 2b8e 623d
00000350: 77d4 17bd 54c8 a53d b236 fbbb 4740 50be
00000360: 1719 b3bd 25c5 35bd 1f73 e7ba f4e5 d6bb
00000370: 110b 963d 95dc 40bd 6ffd 1dbd 53d4 3e3d
00000380: ecb8 df3d ca5c 5dbc e27d a3bc 762f 6c3c
00000390: dcd3 d1bd 4ed5 16bd a9fa 53b9 a511 87be
000003a0: a669 ef3d 6c95 24be 2d47 38be 3f50 d03d
000003b0: 6ead c3bd 620e 70bd 47c2 e03d c4f6 14bc
000003c0: d33b b33d dad2 17be 0c3a e9bd e162 29bd
000003d0: 9339 3d3d 0508 8ebd 11b8 75bd 33f2 a3bd
000003e0: 6df1 f5bc 9407 013d 4565 c63c a045 55bd
000003f0: eeb1 a5bc acc3 01bd a2b6 71bd ebc8 1bbd

fc.weight f4 [7, 128]
-0.099495165 0.016420435 -0.0476729 -0.114943475 -0.017468624 0.041271467 -0.06232611 0.0408789
0.14428593 0.06866556 0.09740856 0.08259143 0.008549189 -0.0017817259 -0.072146244 0.062784374
-0.0013681449 0.115219 -0.16008426 0.038400766 0.04246613 0.015180775 0.089072146 -0.037159912
-0.019451754 0.08037315 -0.026842514 -0.04348486 0.10628693 0.024478573 -0.00068307045 0.029879656
-0.09549029 -0.090729244 0.052138034 0.079123735 0.08860357 0.09506898 0.02216508 0.10932338
-0.062839806 -0.11124684 -0.16730207 -0.056562204 -0.025064318 0.0016694679 -0.03609544 0.07537346
0.16268843 0.035856444 0.007559406 -0.032719593 0.17220734 0.06705864 -0.060778413 -0.12384209
-0.028365823 -0.0406792 0.017457943 -0.042650696 -0.037286803 -0.095776245 0.15073495 0.046553217
0.011867921 0.10504794 0.023861885 -0.053909026 -0.027775928 0.07002169 0.11104719 -0.09219053
0.09238045 0.0020638946 -0.10923638 0.06377814 0.20713581 0.14962226 0.04283045 -0.0065609696
0.08631704 -0.0026101358 0.06598542 0.04114846 0.086332075 0.028259275 -0.103029 0.03992471
-0.08793967 -0.079200424 0.032828905 -0.056636058 -0.062033467 0.07435212 -0.07871422 0.046961173
-0.010141691 0.051383425 0.10228867 0.00064834516 0.035144303 -0.058918335 0.10555655 0.014960101
-0.060803346 -0.1268174 0.008592468 0.10300528 0.09870907 0.083874725 -0.12484966 -0.0037703062
0.023751805 0.022525096 -0.07626476 0.019006444 -0.06566903 -0.110234626 -0.06882357 -0.10630335
-0.039304633 -0.06364767 0.065085284 0.08526857 0.02360079 -0.21127726 -0.046873115 -0.017736163
0.07069112 0.003936501 -0.17358959 0.10756708 0.009143143 0.03001477 -0.06270093 0.15564786
-0.07077116 -0.048345957 0.04878577 -0.040893596 -0.114651576 0.07872175 0.055548795 -0.07871034
0.0063127503 -0.11946994 0.14882937 -0.0050864373 -0.065917544 -0.036347765 -0.019552257 0.07122165
0.013071549 0.07101777 0.016563894 0.001642705 0.027037911 0.02447336 0.01381789 0.14671257
-0.16741379 -0.015718518 -0.198765 -0.005569084 0.034378115 -0.13841325 0.09989115 -0.078465156
-0.1762685 -0.13625716 0.038760178 -0.012393047 0.095951416 0.10548885 0.030943103 -0.03847517
-0.056837693 0.004805335 0.05690838 -0.004169548 -0.030115321 0.06272081 -0.06620842 0.12533092
0.2692311 0.057465013 0.038226478 0.031125102 0.15436569 0.023420583 -0.11546434 0.1429381
0.10420899 -0.041809216 -0.10499809 -0.11768417 0.11331908 -0.04608406 0.1273524 -0.119295426
0.12510785 0.06304489 0.16063192 0.03401828 -0.17636369 0.032181557 -0.17440106 0.19218019
0.016865883 0.05625866 -0.014054851 -0.09352785 -5.682741e-05 -0.098960534 -0.05474694 -0.2206906
-0.044316374 0.022034356 -0.035329796 -0.10771725 0.08402471 -0.03387012 -0.019527601 0.09409201
0.021739973 0.05319606 -0.06720931 0.06359316 -0.09667679 0.05242216 -0.03564489 -0.07519363
0.052489724 0.10942301 -0.15305331 0.011305672 0.12634273 0.08882583 0.10385632 0.18327796
-0.057643857 0.065005474 -0.006490758 0.109232314 0.09039696 -0.043944158 0.029725328 -0.01847289
0.00073284196 -0.09994456 0.06471298 -0.04851321 -0.014895303 0.12265625 -0.041657496 0.10802212
00000000: 1fc4 cbbd 2684 863c a944 43bd 7c67 ebbd
00000010: 5c1a 8fbc 450c 293d aa49 7fbd a270 273d
00000020: b1bf 133e 87a0 8c3d 247e c73d b225 a93d
00000030: e611 0c3c cd88 e9ba 69c1 93bd 1895 803d
00000040: 5353 b3ba f0f7 eb3d 21ed 23be 1f4a 1d3d
00000050: f7f0 2d3d c9b8 783c 756b b63d fe34 18bd
00000060: 4959 9fbc ae9a a43d d5e4 dbbc 2e1d 32bd
00000070: f6ac d93d 4a87 c83c 1510 33ba 2ec6 f43c
00000080: 6a90 c3bd 41d0 b9bd b18e 553d a00b a23d
00000090: ca75 b53d 86b3 c23d 8b93 b53c f0e4 df3d
000000a0: 28b2 80bd 62d5 e3bd 3c51 2bbe c5ad 67bd
000000b0: af53 cdbc 0cd2 da3a d0d8 13bd 675d 9a3d
000000c0: cc97 263e 35de 123d e5b4 f73b fb04 06bd
000000d0: 1f57 303e 0a56 893d c9f2 78bd eca0 fdbd
000000e0: 715f e8bc 3c9f 26bd f603 8f3c 7fb2 2ebd
000000f0: 0cba 18bd 5626 c4bd 435a 1a3e 96ae 3e3d
00000100: ab71 423c 6023 d73d 007a c33c b6cf 5cbd
00000110: 588a e3bc 8867 8f3d b66c e33d 63ce bcbd
00000120: f631 bd3d 6842 073b 53b7 dfbd 1d9e 823d
00000130: 691b 543e 9436 193e fb6e 2f3d 67fd d6bb
00000140: fdc6 b03d d00e 2bbb 5d23 873d 4a8b 283d
00000150: dfce b03d ff7f e73c de00 d3bd 1888 233d
00000160: b719 b4bd d533 a2bd 9a77 063d 36fb 67bd
00000170: ce16 7ebd ed45 983d ec34 a1bd 5c5a 403d
00000180: 5629 26bc 6d77 523d b97c d13d b5f5 293a
00000190: 79f3 0f3d 5a54 71bd 082e d83d 361b 753c
000001a0: ee0c 79bd 6cdc 01be 6cc7 0c3c 6ff4 d23d
000001b0: fb27 ca3d 83c6 ab3d 2eb1 ffbd 3e17 77bb
000001c0: 2593 c23c 8d86 b83c b330 9cbd 67b3 9b3c
000001d0: 7c7d 86bd b1c2 e1bd 5ff3 8cbd 92b5 d9bd
000001e0: e5fd 20bd b659 82bd 6f4b 853d 4aa1 ae3d
000001f0: 7256 c13c 1159 58be 06fe 3fbd 6e4b 91bc
00000200: 82c6 903d c4fd 803b 78c1 31be 214c dc3d
00000210: 1fcd 153c 89e1 f53c 5869 80bd 2762 1f3e
00000220: 78f0 90bd 6906 46bd 96d3 473d 0b80 27bd
00000230: 72ce eabd de38 a13d 2287 633d e332 a1bd
00000240: 30db ce3b a8ac f4bd ba66 183e 21ac a6bb
00000250: c7ff 86bd 65e1 14bd 0e2c a0bc a8dc 913d
00000260: 0d2a 563c c471 913d 01b1 873c 0950 d73a
00000270: 9c7e dd3c 5b7c c83c 6e64 623c d23b 163e
00000280: 856e 2bbe 1fc4 80bc 0d89 4bbe dd7c b6bb
00000290: 11d0 0c3d 34bc 0dbe bb93 cc3d 57b2 a0bd
000002a0: bb7f 34be ff86 0bbe fec2 1e3d 350c 4bbc
000002b0: 2d82 c43d 8a0a d83d 647c fd3c 2498 1dbd
000002c0: a4ce 68bd 1276 9d3b c318 693d b4a0 88bb
000002d0: 68b4 f6bc c573 803d 4898 87bd c056 003e
000002e0: a9d8 893e 6f60 6b3d 5e93 1c3d 12fa fe3c
000002f0: 0a12 1e3e 86dc bf3c 9178 ecbd 5e5e 123e
00000300: 866b d53d 2440 2bbd 3d09 d7bd 6604 f1bd
00000310: d513 e83d a4c2 3cbd ab68 023e 2951 f4bd
00000320: 461c 003e ae1d 813d b27c 243e c156 0b3d
00000330: af98 34be cfd0 033d 3196 32be e2ca 443e
00000340: 522a 8a3c 7b6f 663d 5146 66bc 888b bfbd
00000350: f859 6eb8 d2ab cabd 543e 60bd b7fc 61be
00000360: 1685 35bd 6581 b43c fab5 10bd dd9a dcbd
00000370: 2615 ac3d 65bb 0abd 59f8 9fbc 50b3 c03d
00000380: 0718 b23c 1de4 593d 09a5 89bd 213d 823d
00000390: 7bfe c5bd 9eb8 563d 6000 12bd 1eff 99bd
000003a0: 77ff 563d 2c19 e03d 02ba 1cbe 6d3b 393c
000003b0: fd5f 013e 51ea b53d 9fb2 d43d 38ad 3b3e
000003c0: f71b 6cbd 9721 853d 6db0 d4bb 31b5 df3d
000003d0: 0b22 b93d cafe 33bd 8882 f33c 7554 97bc
000003e0: 311c 403a bcaf ccbd 3d88 843d cab5 46bd
000003f0: 6e0b 74bc 3333 fb3d 0da1 2abd b43a dd3d

fc.bias f4 [7]
-0.042306513 0.03456431 -0.1549871 0.02556532 -0.06863255 0.0186055 0.07460476
00000000: 9849 2dbd 4e93 0d3d f0b4 1ebe 5d6e d13c
00000010: 398f 8cbd 906a 983c 61ca 983d
