trained_model/customer_streamer/gru_32_15.pth (torch, 240318 bytes, 6 tensors)

gru.weight_ih_l0 f4 [384, 23]
000000 48 0f 6b bb 53 65 26 3e a2 bf 3c bc e7 a3 5a 3a
       -0.0035867263 0.1624959 -0.011520298 0.00083404634
000010 c3 0b 05 bb 24 68 c0 3d 7d 1e e6 3c a8 1d c2 3a
       -0.00203012 0.09394863 0.02809071 0.0014809864
000020 7e 6c a3 bd 5c 65 59 3d 81 9c 3c 3d 2e e3 37 bd
       -0.079796776 0.05307518 0.04604769 -0.04489439
000030 8c f3 0b 3c 2c 93 71 bd f3 20 cf bd c2 23 1d 3d
       0.008541953 -0.058978245 -0.101137064 0.03836418
000040 69 68 0a 3e 5e 2c 00 bc 38 ac ad 3d 62 7e d2 3c
       0.13516392 -0.007823078 0.08480114 0.02569503
000050 59 34 03 3e 54 cf 1a bc 9b 2b 06 3e 78 c1 57 bc
       0.12812938 -0.009448845 0.13102572 -0.013168685
000060 be 0e 5f bd fb 87 fd bc e0 54 de 3d a5 17 77 3d
       -0.05445742 -0.03094863 0.10856032 0.060325284
000070 5f 40 69 bc 0f fb 07 3e fc 3b 3c 3b d7 6b 16 3d
       -0.014236539 0.13279365 0.0028722277 0.036723938
000080 60 1f 85 3c 93 73 15 bd b6 b2 ba 3b 12 6f 13 3e
       0.016250312 -0.036487173 0.0056975735 0.14397839
000090 94 0e b9 3b ac 2f d9 b9 6b 89 da 3a 7e 2e f0 bd
       0.00564749 -0.00041424984 0.0016673034 -0.11727618
0000a0 76 51 0d 3e 85 83 4e be e2 41 e2 3d 25 34 7f bd
       0.13800606 -0.20167358 0.110477224 -0.06230559
0000b0 1c 91 f5 3d 35 4e f5 39 b2 7b 05 bd 3f 7d e3 bc
       0.11990568 0.0004678831 -0.03258867 -0.027769683
0000c0 89 f0 f0 3d 41 65 de bd 2c be 1c 3e 87 91 a8 3d
       0.117646284 -0.108591564 0.1530692 0.08230882
0000d0 bc f9 63 3e c0 78 50 3e 6b d9 5b 3e 29 9f a8 3c
       0.22263235 0.20358562 0.21469657 0.020583706
0000e0 3c 7b a7 3d e0 52 ae bd 09 5b df 3d d3 f3 ee bd
       0.08177802 -0.08511901 0.109060355 -0.116675995
0000f0 2b 2d 1c be 7d 2d de 3c 95 23 18 3e e0 04 31 3e
       -0.15251605 0.0271213 0.14857323 0.17287016
000100 2a 6c 5c bd 78 4d b1 3d 62 87 cb 3d 03 91 1d 3d
       -0.05381409 0.08657354 0.099379316 0.038468372
000110 4a 31 b0 3d 9b 1f 90 bc 7a 23 d3 3d 2a 09 13 3d
       0.08603151 -0.017593196 0.10309501 0.03589741
000120 35 2e e1 bc ae 61 35 bd c8 7d cc 3b a0 ac c2 3c
       -0.027487854 -0.044282608 0.00624058 0.023763955
000130 b4 05 50 3d 84 44 5f 3d e3 bb 4a 3d 9c f6 4e 3d
       0.05078669 0.0545087 0.04949559 0.050528154
000140 0e 61 a2 3d dc 4e 82 bd db df 54 3d 79 02 93 3d
       0.07928668 -0.063626975 0.051971298 0.07178206
000150 56 a8 81 3d 9f 8f 20 3d 96 95 66 bc d9 f8 09 bc
       0.06330936 0.039199468 -0.01407375 -0.008421146
000160 0c 21 92 3c d0 f1 bc 3b 5a e5 6a bd 39 0c 3d 3d
       0.017838024 0.005766131 -0.057347633 0.046154235
000170 34 f2 07 be da 36 e1 bd cd 22 2e 3d 80 6c 00 be
       -0.13275987 -0.1099679 0.042513657 -0.1254139
000180 38 bb 84 3b b6 e3 de bd fe 0e 1d be 08 ee 9a bd
       0.0040506385 -0.10883276 -0.1533775 -0.07564932
000190 7f 7d 32 bd b1 c9 c4 bc 63 e5 38 be 39 96 95 3d
       -0.043576714 -0.024021955 -0.18056254 0.07304043
0001a0 c0 f9 83 3d c3 45 8b 3d d1 f0 db 3d 2e 96 3c bd
       0.064441204 0.06800415 0.107392915 -0.04604166
0001b0 eb 17 1e be c6 75 18 3e 79 0f d3 3d 9a 4a 1e 3d
       -0.15438811 0.14888677 0.103056855 0.038645364
0001c0 a5 4c fd bc 24 e3 c6 bb 8a e8 3e be 42 14 d4 3d
       -0.030920336 -0.0060695577 -0.18643394 0.10355426
0001d0 25 e6 60 3c 22 19 15 3e 56 c6 60 be 14 3d af 3e
       0.013726746 0.14560369 -0.21950659 0.34226286
0001e0 a4 af 97 3e b2 df a8 3e 9f 34 96 3e 6c 46 b0 3e
       0.2962619 0.32983166 0.29337022 0.34428728
0001f0 df 2c c4 bd 60 41 78 3e b6 64 2d bb 58 ad 17 3d
       -0.09578871 0.24243689 -0.0026457733 0.037030548
000200 9e 70 73 bc 40 b7 30 3d 24 7b 5c bd 8a 81 8f 3c
       -0.014858393 0.04314351 -0.053828374 0.017517824
000210 b1 46 12 3c b4 38 0d be 02 ca ae 3d 1c c8 ce 3d
       0.008927987 -0.13791162 0.08534624 0.100967616
000220 f6 3a 76 bd 48 92 ae 3e a6 73 ba bd 8c 95 cb bd
       -0.060114823 0.3409598 -0.091040894 -0.09940633
000230 4e 79 e4 3d 32 65 fe 3c 0d 81 61 bd 55 19 88 bc
       0.111559495 0.031054113 -0.055054713 -0.016613642
000240 fe 9b 3d 3c f0 5d 36 3d 85 ca 30 bd 37 5a 1f bc
       0.011572836 0.04452318 -0.043161888 -0.009726099
000250 69 a9 b1 bc c5 de 00 bd 60 ff a3 ba da d9 40 3d
       -0.021687226 -0.03146245 -0.0012512021 0.04708276
000260 22 a9 ca bd 7f 42 ce 3d 55 2f 53 bb 49 49 01 3e
       -0.09895541 0.10071277 -0.0032224257 0.12625612
000270 e2 42 e8 3d 1d 84 60 3d a1 07 52 bd 12 0e a8 3d
       0.11340882 0.054813493 -0.051276807 0.08205809
000280 64 b6 a6 3c 4a 91 c6 3c 98 9d 9f bd 03 fc cf 3d
       0.020350643 0.024239201 -0.077937305 0.10155489
000290 4a f2 eb bd 32 b1 81 3d c2 b0 cb 3d b7 64 47 3e
       -0.11520822 0.063326254 0.09945823 0.19472013
0002a0 b1 6f 1b 3e 52 31 b6 3d dc a0 7d bd 5c f1 20 3e
       0.15179326 0.08896126 -0.061920986 0.15717071
0002b0 74 c4 38 bc 0b 18 37 be 8f da 92 3d 6a 80 a5 3d
       -0.011277307 -0.17880265 0.07170593 0.08081134
0002c0 82 cd 84 3d 1a 38 78 3d d6 02 b2 3d f2 7d a7 3a
       0.0648451 0.060600378 0.08691947 0.0012778623
0002d0 a0 13 3b 3d 32 d2 81 bd 9f ca 30 bc c2 db 0e 3e
       0.045673013 -0.0633892 -0.010790496 0.13951018
0002e0 b1 6f ff bd cb 51 50 bd 00 ab 20 3c 07 80 c5 3d
       -0.12472475 -0.050859254 0.009806395 0.0964356
0002f0 bc 40 5d bc 82 af 59 bc d0 b3 69 3c 7f e2 ba 3d
       -0.013504203 -0.013286473 0.014264062 0.09125232
000300 2c 18 20 bd 52 67 06 3d 72 a7 74 bb 6a f5 3a be
       -0.039085552 0.032813378 -0.003733125 -0.1825768
000310 e6 8d 38 3e bc d2 21 be 6a ef 0d be 70 56 2f 3e
       0.1802288 -0.15803045 -0.1386086 0.17122817
000320 b9 1c d4 bc 4e 94 31 3c 61 84 be 3c 48 df 28 3e
       -0.025892602 0.010838581 0.023256483 0.16491425
000330 64 6d f4 3c 30 28 11 3e ce 25 8d bb 01 9a 7b be
       0.029837318 0.14175487 -0.004307485 -0.24570467
000340 ca 17 39 be 4d 98 8e 3e 1a fd 0d be bb 6f 9f bd
       -0.18075481 0.2785057 -0.13866082 -0.07784983
000350 20 1c ca bd 1d e2 f9 bd d9 9b 9c 3c 3d b2 bd 3c
       -0.09868646 -0.12201331 0.019117283 0.02315628
000360 97 70 7e bd af 88 05 3d ba 1e 2e be c1 bb 30 bd
       -0.062119093 0.032601055 -0.17003909 -0.043147806
000370 3e 03 00 be ad 9c 4a be 86 70 5f bb b6 6c 9e 3d
       -0.12501237 -0.1978633 -0.0034094169 0.07735579
000380 7f 27 16 3d c3 dc 5f 3d d7 87 fa bd be 26 ba bd
       0.03665876 0.054653894 -0.12232941 -0.09089421
000390 04 20 f6 bc 39 bc 4b be d3 73 25 be 1a 8f 58 bc
       -0.030044563 -0.1989602 -0.16157465 -0.013217712
0003a0 18 7a 7e 3d 1d 69 d6 3d 76 e5 ad bc 8b 00 fc bc
       0.062128156 0.104692675 -0.02122758 -0.030761978
0003b0 db 06 04 3e 6a ea 75 3d b7 8f f3 bc bd 58 93 bc
       0.1289324 0.060038008 -0.029731615 -0.01798665
0003c0 59 81 86 3d 1c 72 31 be 40 d2 4f 3d 15 01 0e be
       0.0656764 -0.17328686 0.05073762 -0.138676
0003d0 0f e5 b7 bc a3 bc a3 3b 36 12 64 bc ad 88 37 bc
       -0.02244809 0.0049968525 -0.013920357 -0.01120202
0003e0 98 f1 a0 3d 86 45 38 3c a7 ef 7d 3c 09 e3 2c 3c
       0.0785858 0.011247044 0.015499032 0.010552176
0003f0 d8 83 21 b8 cc da 2d be 9d fe cf bc 46 55 83 3d
       -3.850818e-05 -0.16977996 -0.025389964 0.06412749

gru.weight_hh_l0 f4 [384, 128]
000000 79 5d 46 3d d1 c9 9e bd 3b 9d 9c bb e7 ff c1 3b
       0.048428986 -0.07753337 -0.0047794855 0.0059203985
000010 3a 49 09 3e 08 1d 08 3d 64 bc c5 bd f2 11 a4 3b
       0.1340684 0.03323081 -0.09655073 0.005007022
000020 59 30 f1 3d d9 8c 65 bd 24 a0 0a 3d f9 e1 eb 3d
       0.117768 -0.056042526 0.03384413 0.1151771
000030 6b eb b0 bc 5c 39 d5 bd f3 13 1b 3d c7 91 76 3d
       -0.021596631 -0.10411331 0.037860822 0.060197618
000040 a0 2f 4a bc 48 ae 1f bc 2c d4 3d bd f0 b3 33 bd
       -0.012340456 -0.009746142 -0.04634492 -0.043872774
000050 e5 37 68 bc e6 78 07 3e 7b 06 41 bc eb 95 92 bd
       -0.014173483 0.13229713 -0.01178133 -0.07157501
000060 36 98 01 bd f3 f4 ed bb ad d0 d3 bd 83 74 dc bc
       -0.0316393 -0.0072618662 -0.10342536 -0.026911026
000070 9d 1c bd 3d 12 49 83 bd 3f 0b 18 3e 7e 4d 9f bd
       0.09233973 -0.064104214 0.1484804 -0.07778452
000080 1c b1 e9 3c 21 95 2b bc f6 57 b0 bd 2d c7 03 3e
       0.028526835 -0.010472567 -0.08610527 0.12868948
000090 a2 5a ac 3d 48 fc fc 3b f9 03 a2 bc dc 69 fe bc
       0.08415724 0.007720504 -0.019777285 -0.031056337
0000a0 70 8c 8f 3c 6f f7 08 bb 50 ac 52 3c 6c 3d 03 3d
       0.01752302 -0.0020899435 0.012858465 0.032041
0000b0 d4 6a d7 3c 7f a6 89 3d 51 24 0b bd 5d 8f 0d 3e
       0.026296057 0.0672121 -0.03397018 0.1382422
0000c0 e0 6a 72 bd de a1 0c 3e 1f f4 ad 3c 57 bc 01 3d
       -0.059183955 0.13733622 0.02123457 0.031673755
0000d0 f8 86 4b bc 45 e1 ee 3d c9 f8 4f 3b 13 7e f3 bd
       -0.012422316 0.116640605 0.003173398 -0.11889281
0000e0 ef 1d 2d be 2a 6f 12 bd 4d 3f 74 bd 86 4d 12 3e
       -0.1690595 -0.035750546 -0.05963068 0.14287385
0000f0 27 74 8c 3b cc 1d 81 3d fe 83 eb 3d f5 41 19 bd
       0.0042863074 0.063045114 0.11499785 -0.037416417
000100 56 98 19 3b 9b c1 18 be 8e 92 46 bd e6 9b 8c bd
       0.0023436747 -0.14917605 -0.04847961 -0.06865673
000110 51 1e 03 3d 5d 4c 29 3d 90 4a 25 3d 85 7e 02 bd
       0.032011334 0.04133259 0.04035431 -0.03185894
000120 91 80 da ba ba 0e 41 3c 66 c3 8e 3d 35 c9 5b be
       -0.0016670396 0.011783296 0.06970863 -0.21463473
000130 35 e5 be bd b8 a7 9f bd 9c 4b 41 bd fa 0a 26 3d
       -0.093210615 -0.07795662 -0.047191247 0.04053781
000140 44 f8 21 bd 5f e5 c4 bd 00 c3 e9 bb d6 07 32 3d
       -0.039543405 -0.096140616 -0.0071338415 0.043464504
000150 e3 8d b2 39 6a ee d2 bc 2f 64 dd 3d 2f 25 a0 bc
       0.0003405652 -0.02574845 0.10810124 -0.01954898
000160 ca 86 f8 bd 89 fa 63 3d 94 c6 f3 bd a7 02 a9 3d
       -0.12135084 0.05565885 -0.1190311 0.08252459
000170 94 1f ef 3d c9 b2 37 bd 81 6d 2f bc 0d cf 13 3e
       0.11675945 -0.044848237 -0.01070726 0.14434452
000180 e5 82 81 3d 81 cd 5c bd 49 78 b4 bd b6 3d f7 bd
       0.06323794 -0.05390692 -0.08812005 -0.12072317
000190 86 f4 46 bd 9c 2e 0a bd 5d 8c 28 3c 96 af 31 bc
       -0.04857304 -0.033735856 0.010287371 -0.010845086
0001a0 9e 87 b8 3d 1d 4d 0c bc 88 53 13 be e2 c9 62 bd
       0.09010242 -0.008563307 -0.14387333 -0.05536831
0001b0 0e a1 1b 3b 01 17 44 3c 1f 77 93 3d 5e 78 d0 3d
       0.002374712 0.011968375 0.07200455 0.10179208
0001c0 7d 58 b3 3c d4 63 19 3d 1b 26 75 bd 80 5c a6 3d
       0.02189278 0.03744872 -0.059850793 0.08123112
0001d0 8c d2 a1 3d 46 fe ee bc 55 6a 14 bd 8d 92 38 bc
       0.07901487 -0.029173981 -0.03623422 -0.011265409
0001e0 f2 86 06 bd ec 49 e8 3c 42 42 17 bd 0c c7 0e bd
       -0.032843538 0.028355561 -0.036928423 -0.034857795
0001f0 46 39 92 bd d6 9a c1 3c ac 6d 47 bd 2e 3d 59 3d
       -0.0713983 0.023633402 -0.048688576 0.05303686
000200 7c 0d 0f bd a8 fc 83 3d 29 89 20 3d 30 77 37 3d
       -0.03492497 0.06444675 0.039193306 0.0447914
000210 39 21 96 3c c5 50 e4 3d 04 4d 85 bd e3 e8 df bc
       0.018326389 0.11148218 -0.0650883 -0.027332729
000220 73 75 1f 3e 98 f9 c9 3d 82 e2 11 3c 44 44 1d 3d
       0.15572147 0.09862059 0.008904101 0.03839518
000230 74 ea 72 3d 5d 84 b0 bd 44 6f 2b 3d 77 2d a6 bd
       0.059305623 -0.08618996 0.041854158 -0.081141405
000240 92 8e a0 3d e5 21 b1 3c 11 8c ce 3d 05 6c 43 3d
       0.07839693 0.021622607 0.10085309 0.047710437
000250 2c a9 4a bd d2 09 9b 3d 1e 62 93 bd cd 38 26 be
       -0.04947774 0.075702325 -0.07196449 -0.16232605
000260 06 58 06 bd 3a a5 74 3d e3 84 76 bd 53 ac 6e 3c
       -0.03279879 0.059727885 -0.060185324 0.0145674525
000270 2b 28 58 3d 35 b4 61 3d 61 dc fb 3c e6 3f a1 b9
       0.052772682 0.0551035 0.030744733 -0.0003075592
000280 4a 7b c7 3d 28 eb 80 bd f1 e7 e7 3c 89 71 48 3c
       0.097403124 -0.062948525 0.02830884 0.0122341
000290 7c 25 27 ba 96 97 7e bd 7d b5 20 bd 11 4e f5 bc
       -0.000637613 -0.062156282 -0.03923558 -0.029944452
0002a0 33 49 91 bd 15 16 58 3d 90 d8 3f 3e f3 df ab 3d
       -0.0709404 0.052755434 0.18734956 0.08392324
0002b0 0c b6 ab 3b ea bb 95 3c c0 0f 27 bd 2a 44 35 bd
       0.0052402075 0.018278081 -0.040786505 -0.04425446
0002c0 95 78 f1 3d ee 1e 8f bd e6 a8 0c bd 45 06 a9 3d
       0.11790577 -0.06988321 -0.03434076 0.08253149
0002d0 79 ae 34 bd c5 27 c6 3d 50 04 32 3c 1d b7 2f be
       -0.044111703 0.09675554 0.010865286 -0.17159696
0002e0 ab 89 13 bd ec 2a cd bd 31 ad ba 3d 84 4a 0c 3e
       -0.036019962 -0.10017952 0.09115065 0.137003
0002f0 9b f6 5c 3d b1 f2 0d 3d 43 e2 c5 3d 4a 46 40 bd
       0.05394612 0.034655277 0.096622966 -0.046942033
000300 3d 88 1a bc 22 3d 2d be 0c 61 ca bd d5 95 1b 3d
       -0.009431896 -0.16917852 -0.098817915 0.037984688
000310 3c b5 0a bd b6 ac 02 3d aa 6d f1 3c 56 41 db bd
       -0.033864245 0.03190299 0.029471237 -0.10705821
000320 d6 a2 99 bd 6b b6 52 bd ea f2 cf 3d 20 20 72 be
       -0.075017616 -0.0514435 0.10153754 -0.23645067
000330 18 4b 65 3e fe df f2 bd 77 94 13 bd 20 38 cb 3d
       0.22391927 -0.11859129 -0.03603026 0.09922814
000340 a9 2f c4 3d 73 6f 9f bd aa 6a 17 3c 9e e2 1a bd
       0.09579403 -0.07784929 0.009241739 -0.037813775
000350 0f bf 73 3c fd a2 6f 3c f6 e2 79 bd 0a da 6f 3d
       0.014877095 0.014626262 -0.061007462 0.058557548
000360 37 22 ae 3d ca be 79 3d 91 64 48 bd 8a bb 18 3e
       0.0850262 0.060972966 -0.048924033 0.1491529
000370 51 07 02 be 6c c2 0a 3d 34 f8 57 bd 3e 81 81 bd
       -0.12698103 0.03387682 -0.05272694 -0.06323479
000380 c0 5a 0c bd e1 e8 bd ba fb 14 c2 3d 67 56 28 bc
       -0.034266233 -0.0014488959 0.09476658 -0.010274506
000390 90 7a e3 3d 54 f8 af 3d cc ac 09 3d dd da 2e 3d
       0.11107361 0.08592287 0.033612058 0.042689193
0003a0 03 4b 51 bc a7 f5 97 3d 4b 15 95 3d a2 31 c9 bc
       -0.012774232 0.07419901 0.07279452 -0.0245598
0003b0 85 1b f0 bb 7b 3e fe 3b e5 e1 ef 3c 96 a5 35 be
       -0.0073274993 0.007758913 0.02928252 -0.17738947
0003c0 3a 67 6c 3d d8 d0 dc 3d c2 67 9b 3d 51 e3 4d 3c
       0.057715632 0.10782021 0.075881496 0.0125664035
0003d0 eb 86 ce 3c 18 3b 0e 3d 7b c1 00 be d1 9c 1e be
       0.025210818 0.034724325 -0.12573807 -0.15489508
0003e0 95 99 4e bc f4 d4 2f bd 30 3e e5 bd 76 bd 97 3d
       -0.012609859 -0.042927697 -0.11193502 0.07409184
0003f0 ef ee 9d 3d fa 25 e1 3d 19 cd d4 bd 02 87 f5 bb
       0.077115886 0.109935716 -0.10390682 -0.007492901

gru.bias_ih_l0 f4 [384]
000000 ca 68 fe bc 01 2f 66 3d 6c 19 8e bc 02 99 b8 3d
       -0.031055827 0.05619717 -0.017346106 0.09013559
000010 6e cf 24 bd cd 9b ef bc 5f 52 50 bc 70 24 2a 3d
       -0.040236883 -0.029249096 -0.012714951 0.041538656
000020 e0 6e a3 3c 1a da 99 3d ef 32 ba bd ba c6 d9 bc
       0.01995033 0.07512303 -0.09091746 -0.026584018
000030 0b ad ed 3c 12 d3 62 bd 04 00 69 bc 3e 3b ba 3c
       0.029013177 -0.055377074 -0.014221195 0.022733327
000040 67 aa 4f 3d 58 57 21 bc d8 c5 42 3e 5e 07 e6 3d
       0.050699618 -0.0098474845 0.19020784 0.11231874
000050 b2 a1 83 bb 7a cd 89 bd 9a 1c a2 bd 0a a1 64 bd
       -0.0040170783 -0.06728645 -0.079156116 -0.05581764
000060 f3 ad bd bd 0b db fa 3a ad ed 80 bd 8e 07 25 3e
       -0.09261694 0.0019138766 -0.06295333 0.16116163
000070 5a 9a ea bd 77 1d 87 3d 2f c3 48 3c bb 9e 9b 3c
       -0.114552215 0.06597417 0.012253567 0.018996587
000080 87 ac d2 3d 7b ea 3d bc 4b 01 e0 3d 07 bd c6 bd
       0.10286813 -0.011591549 0.109377466 -0.09704023
000090 b2 74 10 bd 11 4b 58 3e e6 99 b5 bd 73 75 63 bd
       -0.03526754 0.21122386 -0.088672444 -0.05553193
0000a0 34 ff aa bc 4f ae 68 3c 7b 9c c3 ba 55 fe 27 bc
       -0.020873643 0.014201715 -0.0014923954 -0.010253509
0000b0 a6 3b cf 3d 15 9c bf bd e5 b4 71 bd a9 7b 83 bc
       0.10118799 -0.09355942 -0.059010405 -0.016050177
0000c0 c0 f8 86 bd 7e 8d 20 3e 0f e0 b8 bc c5 dd bc 3d
       -0.06590414 0.15678975 -0.022567777 0.09221987
0000d0 45 d0 cb 3d f9 eb fc bc 53 0e c6 bd b2 67 8f 3d
       0.09951834 -0.03087424 -0.09670701 0.070022
0000e0 1f 3c 18 3d 11 26 27 bd 7a 2f 2c bd 8b 8b 21 3d
       0.03716671 -0.040807787 -0.042037465 0.03943972
0000f0 5f 87 de bd bb cb bb bc 8c ea 1a 3e 55 92 3e bd
       -0.10865664 -0.022924295 0.15128535 -0.04652627
000100 3f fe c6 3d f4 12 44 3d 74 5f a1 3d 6a 59 f1 3c
       0.09716462 0.047869638 0.07879534 0.029461581
000110 c7 9e a9 bd 47 b6 0c 3e 16 a2 97 bd 99 f8 39 bc
       -0.082822375 0.13741408 -0.07403962 -0.011350774
000120 fd dc 93 3d 82 3f a5 bd a0 23 8a bd ad ca 8a bd
       0.072198845 -0.08068754 -0.06745076 -0.067769386
000130 72 f6 a2 bd 82 c3 ae bd 59 f3 1f 3d 45 37 fc bb
       -0.07957162 -0.08533384 0.039050434 -0.0076970183
000140 6c b7 7a 3d 06 e8 35 bd 46 1d 83 3d 6c 1a 3f 3c
       0.06121008 -0.044410728 0.06402068 0.011664014
000150 45 d7 42 bb bc eb d5 bd 32 54 19 3c 7c 75 6e bc
       -0.0029730361 -0.104453534 0.009358453 -0.014554378
000160 76 d0 59 bd e8 8a b8 3d 22 d7 14 bd 02 7d 12 3c
       -0.05317732 0.09010869 -0.03633798 0.008940937
000170 19 97 05 be 91 38 0b 3d c8 4b 33 3d 4b f7 09 bc
       -0.1304592 0.033989493 0.043773443 -0.008420776
000180 8c b0 c4 3d 15 87 be bd dd f5 50 3d 56 f9 72 bc
       0.09603986 -0.093031086 0.051015723 -0.014829954
000190 2e ef 37 3c 6a 5b de 3a 92 56 08 3e 03 3c 90 bc
       0.0112264585 0.0016964499 0.13314274 -0.01760674
0001a0 b4 4a 8f 3d 03 a4 d9 bd 21 95 8d 3d 63 c9 bd bd
       0.0699667 -0.10626986 0.0691321 -0.09266927
0001b0 ed d1 96 bc cd 3f df 3c 94 ad ac 3b 62 18 2f 3e
       -0.018410647 0.027252102 0.0052697156 0.17099145
0001c0 b3 00 fd bd a1 df ea bb 2f c0 1f bd ae 4a f8 bc
       -0.12353649 -0.007167772 -0.03900164 -0.030309048
0001d0 ff c0 82 bd 43 44 b0 3d 11 e0 13 bb 7e 2e da bd
       -0.06384467 0.0860677 -0.0022563974 -0.10653399
0001e0 1f 13 90 bd de 6e 7b bd 29 91 8d bd 70 df c6 bc
       -0.07034897 -0.061385028 -0.06912453 -0.024276465
0001f0 f2 82 38 3d e9 46 c3 3d 92 0d d4 3d 04 4f 00 bc
       0.045046754 0.095350094 0.10354151 -0.007831339
000200 95 7d 8d 3c dd 44 57 bb 3f 8c 97 3c de 22 b2 bd
       0.017271796 -0.0032847442 0.018499492 -0.08698057
000210 79 5d 25 3e 82 51 20 3e e1 d5 46 3a 34 a1 85 3d
       0.16148938 0.15656093 0.0007584971 0.06524888
000220 07 18 3d bb 3a a2 3b be a8 dd 22 3e 3c 3f 03 3d
       -0.0028853433 -0.18323603 0.15904868 0.032042727
000230 78 b4 42 3d 12 bb ce bd 7a aa e3 3d 66 c5 2c 3e
       0.04753539 -0.100942746 0.111165 0.16872177
000240 7b 8a 0e 3e 8c bb 40 3c 1b c2 13 3e 6a fb 2c 3e
       0.13920014 0.011763465 0.14429514 0.16892782
000250 3f ff e8 bb cb aa 13 3c 2e 8e 49 3d 69 e9 17 3e
       -0.007110506 0.009012888 0.04920786 0.14835133
000260 97 56 95 3d 35 3b 09 be 8a 8a 1e 3c c8 4d 40 bd
       0.07291906 -0.13401492 0.009676585 -0.046949178
000270 bd fa 80 3d 1a ec a1 bd 8d d0 9c bd 05 11 75 3d
       0.062978245 -0.07906361 -0.076569654 0.059830684
000280 86 68 d3 3b b7 4b c5 bd f0 ac ac bd 6a d9 4b 3e
       0.006451669 -0.09633582 -0.08431423 0.19907156
000290 85 5a 38 3e 69 11 bb bd b7 ac f8 3d e1 47 0a 3e
       0.1800328 -0.0913418 0.12142318 0.13503982
0002a0 6e 6c 2a be 83 d1 ab 3a 07 40 1d bc 9c 5b 23 3d
       -0.16642925 0.0013108704 -0.009597785 0.039882287
0002b0 db c1 00 3e c2 48 ea bd f2 1e 70 bd 3d a0 ae 3b
       0.1257395 -0.11439659 -0.05862326 0.0053291605
0002c0 db 36 b8 bd 6d 86 4c 3e c3 eb ac bd 6a 5b e2 3d
       -0.08994838 0.19973154 -0.084434055 0.11052592
0002d0 48 b0 d2 3d 35 5c 0c 3e 45 70 32 3c 54 a9 6b bd
       0.10287529 0.13707049 0.010891025 -0.05753453
0002e0 30 58 ec bd 45 ac 1c 3e 54 d5 93 3d 27 c7 a4 3d
       -0.11540258 0.1530009 0.072184235 0.08045798
0002f0 0c c7 8a 3c 6c fe 09 bc 3d 1e ea 3d f4 4e 82 3d
       0.016940616 -0.008422475 0.11431549 0.06362715
000300 a3 84 b7 bc 9d 8c e1 3d 0e b2 95 3e 72 ad 45 3c
       -0.022402113 0.11013148 0.29237407 0.012065278
000310 bf b9 c0 3d c8 df f2 3b e0 44 ba bc b2 d0 bc 3d
       0.09410428 0.0074119307 -0.02273792 0.09219493
000320 ec 26 01 b6 56 c8 b0 3d fc f1 bc 3c 52 16 0f 3e
       -1.9245153e-06 0.08631961 0.023064606 0.13973358
000330 b1 28 00 be 49 e3 04 3e cf 59 a8 bd 1f 0b 78 3e
       -0.12515523 0.12977327 -0.08220255 0.24222992
000340 22 04 39 3c 9c b6 81 3d 81 ea 21 be 63 37 52 3d
       0.011292489 0.06333658 -0.15812112 0.051322352
000350 2e 93 37 bd 60 42 a9 3d c6 9b 1c be ce 53 cd bd
       -0.044818096 0.08264613 -0.15293798 -0.1002575
000360 56 46 9e bb 66 b1 8d 3c cc 02 2d 3d 66 b6 16 3d
       -0.004830162 0.017296504 0.042238995 0.036795042
000370 2b 93 c7 3c ab b1 16 3e 11 55 52 3e c3 fc d4 3d
       0.024362167 0.14716212 0.20540263 0.10399773
000380 12 de 2b 3e 46 3b 8f 3d 22 82 12 3e 8b 64 03 bd
       0.16783932 0.069937274 0.14307454 -0.032078307
000390 5c 06 4a 3d b1 95 36 3e 62 77 71 bd 5d 80 07 3d
       0.04932247 0.1783054 -0.058951743 0.0330814
0003a0 a1 94 60 bd 8c 98 da bd 16 80 06 3e b9 79 3d bd
       -0.054829244 -0.10673627 0.13134798 -0.046258662
0003b0 fb 0d 10 3e ea 37 5c 3e b5 a4 ba ba d3 4c d8 3d
       0.14067833 0.21505705 -0.001423976 0.10561528
0003c0 9c 17 b3 3d 1b 1a 7a bd be 37 d1 3c af 12 3a 3e
       0.087447375 -0.061060052 0.025539275 0.1817119
0003d0 d5 e0 97 3c 43 be 37 3c dd 8d 17 bc f8 87 16 3e
       0.018539825 0.0112147955 -0.009250131 0.14700305
0003e0 a8 8a 35 3e 15 88 3e bd ae 2a 92 3d f5 1b 09 3e
       0.17728674 -0.046516497 0.07137047 0.13389571
0003f0 a0 38 b8 3d 68 2a 16 3e 58 b2 5a bb d0 25 a3 bc
       0.08995175 0.14664614 -0.0033370461 -0.019915491

gru.bias_hh_l0 f4 [384]
000000 32 b4 9a bd 5c 38 ad 3a 94 3f 9e bd 72 6c 4f bd
       -0.07553901 0.0013215649 -0.0772697 -0.05064053
000010 ab 4c 1c bd 23 44 07 3c 5f 46 3d be 6f c4 d9 bc
       -0.038159054 0.008255991 -0.18483876 -0.026582925
000020 68 c3 19 bd 6f b0 c8 3c 1e 68 90 bd 67 80 6c bc
       -0.03753987 0.024498193 -0.07051109 -0.01443491
000030 5c ac e2 bc 95 93 56 3c 41 a3 20 3d d4 17 34 bd
       -0.027670078 0.01309671 0.03921819 -0.043968037
000040 eb e4 5b bc d8 20 4d 3d fa 0d 85 3e e3 e1 20 3e
       -0.0134212775 0.05008015 0.25987226 0.15711169
000050 41 0d bc bc 56 8b 74 bc 69 fc b9 bc f2 c5 bd 3d
       -0.022955539 -0.014925798 -0.022703366 0.09266271
000060 97 75 9b 3d 07 c7 0d be 45 9b d7 bc c6 2f a4 3d
       0.07590788 -0.13845454 -0.026319155 0.080169246
000070 5c bb b5 3b 12 ce c4 3d 12 77 6e bc 82 99 dd bd
       0.0055460166 0.09609617 -0.014554756 -0.10820295
000080 a3 3d 4f 3c b8 7e 3e bd b6 73 b7 3d 42 ac 46 bd
       0.012648973 -0.046507567 0.08957617 -0.04850412
000090 fe 89 9b bd 8d 56 90 3d 63 89 a9 bc cf 9a 88 bd
       -0.07594679 0.07047758 -0.020695394 -0.066701524
0000a0 74 6f 1c bd a0 d2 dc 3d 5f 53 5f 3d dc 2b 2a bd
       -0.038192227 0.10782361 0.05452287 -0.041545734
0000b0 99 35 af 3d d5 f7 21 3c 95 ba 5d 3d 49 67 05 3d
       0.08555145 0.009885748 0.054133017 0.032569204
0000c0 c4 fd b1 bd d9 35 cd 3c 41 89 de bd 20 d5 b2 bc
       -0.0869098 0.02505009 -0.10866023 -0.021830142
0000d0 bc 15 c8 3d e4 ab eb bd 21 93 fe 3c d1 c4 33 3e
       0.097697705 -0.11507395 0.031076016 0.17555548
0000e0 26 2d ce 3c bd 39 5b bb 1f 02 65 bd 81 7d 60 3d
       0.025168013 -0.0033451163 -0.055910226 0.05480719
0000f0 c9 73 d2 bc d3 1d 9c bd 06 b4 87 3d 1a cd 71 3d
       -0.025689976 -0.07622876 0.066261336 0.05903349
000100 a7 2e d3 3d 2e ce 8e 3b f1 f6 0c 3e f2 aa 9a 3d
       0.103116326 0.0043580746 0.13766076 0.075521365
000110 e1 85 28 bd 12 22 c1 3d eb 34 42 bd a0 14 34 be
       -0.041143302 0.094303265 -0.047413748 -0.17585993
000120 fd dc ac bd 11 5c 06 3d 1f e3 4d bd 78 96 9b 3c
       -0.08440588 0.032802645 -0.050265428 0.018992648
000130 cd 16 33 be 0c f6 9b 3d 3d 60 aa bd e8 f4 3a 3d
       -0.17489167 0.07615289 -0.08319137 0.045643717
000140 b4 ae 02 bd bd 44 de 3d 48 1b 0b 3d 0c 17 b6 3c
       -0.03190489 0.108529545 0.033961564 0.022227786
000150 4b ac a2 3d 44 37 d7 3a 1a dc 0e 3d 02 e3 40 bd
       0.079430185 0.0016419669 0.034877874 -0.04709149
000160 7c 67 50 bd e3 cd c4 bc 93 f7 9c 3d 89 09 89 bc
       -0.05087994 -0.024023956 0.076644085 -0.01672818
000170 34 84 1b bd c7 da 2c 3d 84 25 19 3d 33 41 5b 3d
       -0.037967876 0.04220083 0.037389293 0.053528976
000180 46 44 00 3e b8 b9 5c bc 40 50 05 3e b6 bc 1e be
       0.12526044 -0.013472013 0.13018894 -0.15501675
000190 22 3e 1e bd f6 ee b8 bd 5c ef c9 3d 60 6a 81 bd
       -0.038633473 -0.09029953 0.09860107 -0.063191175
0001a0 ac d1 bf 3c 7a 7d 4c 3b ed 7d 8c bc 6a 57 47 3d
       0.023415409 0.003120272 -0.01714989 0.04866735
0001b0 0c be e9 3c 15 4e 86 bd 38 5b 6c 3d 82 cf 31 3e
       0.028533004 -0.06557862 0.05770418 0.17364314
0001c0 cf 26 8a 3c 68 65 63 3d f7 6b 21 3d b7 d3 91 bd
       0.016864209 0.05551663 0.039409604 -0.071204595
0001d0 b7 44 97 3b 80 75 3d 3d 46 7f ad 3d 4d 80 82 3d
       0.0046163457 0.046254635 0.08471541 0.06372128
0001e0 00 fe a0 3d 5d 5d 22 bd cd 0e 0b bd 5f 2b 04 3d
       0.07860947 -0.03963982 -0.033949662 0.032267924
0001f0 b8 aa 1e 3e 1c 56 3c bd 70 82 c5 3d 1a 31 d7 bc
       0.15494812 -0.045980558 0.096440196 -0.02626853
000200 02 00 e1 bc cf 7c 0b 3d 1b ca 32 bd 41 69 36 3d
       -0.027465824 0.034054574 -0.043649774 0.04453397
000210 be a3 99 3d bf e1 1f 3e 4d d2 aa bd de 10 99 3d
       0.075019345 0.15613459 -0.08340893 0.0747392
000220 57 b3 46 bd e4 eb 20 be b2 20 4f 3d 79 60 99 3c
       -0.048510876 -0.15714985 0.05056829 0.01872276
000230 05 ee b5 3d e2 a8 b3 bd 53 aa 1f 3e f2 6d 39 3d
       0.08883289 -0.08772446 0.15592317 0.045270868
000240 f6 5c 98 3d 8e 83 22 be 89 ee 2d 3d 87 4d 10 3e
       0.07439606 -0.15870497 0.042463813 0.14092074
000250 1a b6 ca 3c 1a 96 f0 bc 9b 3b d7 ba 9f 97 b6 3d
       0.024745036 -0.029368449 -0.0016420962 0.08915638
000260 70 41 ae 3b ae 5f 83 bb b3 20 fa bd 79 22 2e bc
       0.0053178594 -0.0040092086 -0.12213268 -0.010628336
000270 25 84 3c 3e f6 cd 82 bd f6 7e 25 bd 6c 64 c0 bc
       0.18409784 -0.0638694 -0.040404283 -0.023485385
000280 10 e9 c5 3d 4f 91 27 3c 15 5a 05 bd 04 51 ed 3d
       0.09663594 0.010227515 -0.032556612 0.11587718
000290 b3 c0 e4 3d 67 92 15 bc 6c b7 ba 3d db 2d 7b 3d
       0.11169567 -0.009129143 0.09117016 0.061323028
0002a0 aa a8 25 be e0 44 67 bd 59 81 9a 38 66 d1 99 3c
       -0.16177621 -0.05646217 7.367385e-05 0.018776607
0002b0 fa 17 38 ba 38 78 fd bd 53 d7 b6 bd 27 ea 76 3d
       -0.0007022616 -0.123764455 -0.089277886 0.0602819
0002c0 11 d5 b0 bd 6f 88 81 3d 38 42 25 be 0f dd 12 3e
       -0.08634389 0.06324851 -0.16138542 0.1434214
0002d0 7b 11 be 3d ed ff fd 3d 9a 72 d1 3d 92 25 aa bc
       0.09280678 0.124023296 0.10226937 -0.020769868
0002e0 74 0a aa 3b 31 79 eb 3c 77 5d c4 3d 01 c3 6c bd
       0.0051892344 0.028744312 0.095881395 -0.057803158
0002f0 9d 65 6f 3c 78 e9 00 bd a5 4f 0d 3d 66 f3 a1 3d
       0.014611629 -0.031472653 0.034499783 0.07907753
000300 4b 21 6a bd 99 80 5e bd 43 a4 6b 3e 81 a9 33 3d
       -0.057160657 -0.05432186 0.2301188 0.043862823
000310 3c e2 8c 3d 84 22 85 bd 5f 44 c5 bd 0d 94 58 3c
       0.06879088 -0.06500724 -0.096321814 0.013218892
000320 f8 08 db 3d 8a e8 ee 3d eb b4 1e 3b b3 bd 03 3e
       0.1069507 0.11665447 0.0024216722 0.12865333
000330 33 46 f7 bc 47 4d ba 3d d8 1a 34 bc eb f8 40 3e
       -0.03018484 0.09096771 -0.010992728 0.18844955
000340 ea b4 05 3d 1a 29 40 3d 2e ea 10 be 89 4e 2b 3e
       0.032643236 0.046914198 -0.14151832 0.16729178
000350 28 c2 e0 3c 2a c7 b7 bc d0 83 15 bd 8a a4 92 bd
       0.02743633 -0.022433836 -0.03650266 -0.071602896
000360 73 0c ea bb f5 d5 17 bd d9 13 3a 3e 54 31 ec bc
       -0.0071425973 -0.03706928 0.18171634 -0.028832115
000370 cb e6 53 3d fe 5a 9c 3c eb 8b a1 3d b9 ff 2e 3e
       0.051733773 0.019086357 0.07888015 0.17089738
000380 bb da 83 3c e6 1e 00 3e 37 41 ec 3c f8 40 4e 3d
       0.01609551 0.12511787 0.02883969 0.050354928
000390 e0 bb 0f bd 58 1f f4 3d a5 2a 9e 3d b6 16 92 3d
       -0.03509128 0.11920041 0.077229775 0.07133238
0003a0 7a ac 23 3b 99 87 6e 3c 9a a5 0e 3d f8 c4 0a bd
       0.002497463 0.014558696 0.0348259 -0.03387925
0003b0 4c 5e 3f 3e 19 07 0a 3e b7 17 03 3e 4e fe 8a 3d
       0.18688315 0.1347927 0.12802015 0.06786786
0003c0 c9 97 a2 3d 7a f2 bf 3c b9 62 cc 3d 3a 26 09 3e
       0.07939107 0.023431052 0.09979767 0.13393489
0003d0 9f 13 7f bd 47 9a 8f 3d 98 19 ff 3d 22 6b 38 3d
       -0.06227457 0.07011848 0.124560535 0.045024045
0003e0 a9 12 ae 3d e7 74 51 3d f1 62 a1 3c 54 88 1b 3b
       0.08499653 0.051136877 0.0197005 0.002373238
0003f0 80 cc 44 3e 7c 31 9d 3d 08 cf 88 bd 48 f3 8d 3b
       0.19218636 0.07675454 -0.06680113 0.00433198

fc.weight f4 [7, 128]
000000 09 0d d8 3c bc 6e b8 bd 85 5b c0 3d e0 6e 07 3e
       0.026373403 -0.09005496 0.09392456 0.13225889
000010 4e 9b 1e 3d c9 ff 53 ba bc 15 a1 bd a5 c2 ac bd
       0.03872233 -0.0008087126 -0.07865474 -0.08435563
000020 1a 12 b2 3d 0f dd 0b 3e 83 0d 4f bd 4e a1 c0 bc
       0.08694859 0.13658546 -0.050549995 -0.023514416
000030 03 90 06 3e a4 a6 f7 bd 28 ac 32 3e 97 a2 ab 3d
       0.13140874 -0.12092331 0.17448485 0.08380621
000040 74 b7 9a bc c8 d6 88 bd c6 3c 69 3e 35 84 4a be
       -0.018886305 -0.06681591 0.2277709 -0.19776995
000050 d6 8c 0c 3b d0 6a 86 3d d6 4b f3 bd 50 03 2a be
       0.002144625 0.065633416 -0.11879699 -0.16602826
000060 38 ea 96 3c 97 26 27 3d d6 2e 38 38 64 08 b6 3d
       0.018422231 0.040808287 4.3912638e-05 0.08888319
000070 ad ab 3f bd bf a4 56 bc 7a d4 67 bc 99 04 ef 3c
       -0.046794582 -0.013100802 -0.014149779 0.029176997
000080 45 17 37 bb b8 78 de bd 5c 1a ba bd e7 31 33 3d
       -0.0027937454 -0.10862869 -0.09087059 0.043748762
000090 59 b9 07 be 7d ff b8 bc a8 85 46 bd 67 ec 71 bd
       -0.13254298 -0.022582764 -0.04846731 -0.05906334
0000a0 8b 88 0b be 8b 87 a3 3c e5 df fd 3d 16 d0 5c bc
       -0.13626306 0.019962093 0.1239622 -0.013477346
0000b0 fc c2 87 3c 30 1c 03 be f5 2e 74 bd aa d4 05 3e
       0.016572468 -0.12803721 -0.059615094 0.13069406
0000c0 9c d8 2f bd 39 6b 29 be 40 b1 b2 3d b0 e8 1e 3d
       -0.042931184 -0.16544808 0.08725214 0.038796127
0000d0 09 37 3d 3e a0 4f 9e 3d 29 8f 41 bc 01 a6 14 bd
       0.18478025 0.07730031 -0.011813917 -0.036291126
0000e0 45 da 0b bc a8 42 65 3c 6f fb 70 3d 24 2b c8 3d
       -0.008535926 0.013992943 0.058833536 0.097738534
0000f0 ee fa 54 3d b8 34 30 bd b6 63 8d 3d b5 20 db bd
       0.051997118 -0.043019027 0.06903784 -0.10699598
000100 33 17 b4 bd ea d5 01 be 24 af 26 be ff 5a ee bd
       -0.087934874 -0.12679258 -0.16277748 -0.1163845
000110 13 5a 23 bd b2 77 28 be 60 b3 b8 3d 13 af b4 bd
       -0.039880823 -0.1645191 0.09018588 -0.08822455
000120 4e 74 f6 3d 76 92 05 bd bb ab b7 3d c0 70 64 bd
       0.12033902 -0.03261038 0.08968302 -0.05577159
000130 5e f4 8c bd fc 15 81 bd f7 08 ec bb b2 bf c5 3d
       -0.06882547 -0.06303021 -0.007203217 0.096557036
000140 d5 65 e6 3c 74 1d ef bd 3e c0 c8 bd 70 ed 01 bd
       0.02812473 -0.116755396 -0.09802292 -0.03172058
000150 92 ee 9f 3d 98 a7 8d 3d b4 e8 84 bd db 19 82 3d
       0.078091756 0.069167316 -0.06489697 0.06352588
000160 b8 1b d7 bd 15 13 41 3d 13 4f e5 bd b1 37 5c bd
       -0.10503334 0.04713734 -0.11196723 -0.05376405
000170 91 27 3e 3d d0 04 a1 bb f7 20 00 3d 1b 96 c5 3d
       0.046424452 -0.004913904 0.031281438 0.09647771
000180 b9 40 4f 3e 2d 98 86 3d 15 2c a6 3d 99 4f 18 bd
       0.20239533 0.06571994 0.08113877 -0.037185285
000190 62 f2 8e 3d 45 5a a5 bd fa a4 b6 bc d5 07 62 bc
       0.069798246 -0.08073858 -0.022295464 -0.013795813
0001a0 9e 6d d4 3d 6b 84 90 bd ed 52 ab 3b 60 3d bf 3c
       0.1037247 -0.07056507 0.0052283914 0.023344696
0001b0 4f b4 ef bd 3f 87 37 3d 61 e7 5b 3d d8 ac 9c bd
       -0.11704313 0.044806715 0.053687457 -0.07650155
0001c0 22 ba 4b 3d 4f 3f 0a 3e 9a 53 d3 3c 8b 6d f1 3d
       0.049738057 0.13500713 0.0257967 0.11788472
0001d0 99 e9 9a bd 38 e1 06 3e 53 95 dc bd c8 89 4a bc
       -0.075640865 0.13171852 -0.10770669 -0.012361951
0001e0 1f a2 cf bd f8 fa f1 bb 6e 96 9d bd 4c 16 8c 3d
       -0.10138344 -0.007384654 -0.07694708 0.0684019
0001f0 53 41 dc 3d ea b1 a1 bd 4c a6 18 bd 84 e0 dd bd
       0.10754647 -0.078952625 -0.037267968 -0.108338386
000200 98 0a 90 3d be c2 d9 3d 65 73 35 be 53 90 1b be
       0.070332706 0.10632847 -0.17719801 -0.15191774
000210 b8 a0 a9 bc ab 9c 19 be 20 63 b0 bc b7 36 2e bc
       -0.02070652 -0.1500117 -0.021531641 -0.010633162
000220 2e 42 fd bd 27 5c 91 bd 02 a9 2c 3d f7 b9 c1 bd
       -0.123661384 -0.07097655 0.042153366 -0.09459298
000230 c0 98 1b 3d 2a b5 bd 3d 7d ad 2f bd b1 ec 01 be
       0.03798747 0.0926307 -0.04289006 -0.12687947
000240 0e 09 d0 3d de b8 97 3d f8 68 5d bd dc 36 91 3d
       0.10157977 0.074083075 -0.054055184 0.07090542
000250 a5 05 1b 3e 66 d4 cc bd 78 2c f3 3d 53 f3 5c 3d
       0.15138872 -0.10001449 0.11873716 0.05394299
000260 02 4e f5 3d 9d 4c 54 bc 48 58 d4 bb 27 8e fe bd
       0.119777694 -0.012957719 -0.0064802505 -0.12429457
000270 76 d0 42 3b fd f3 f7 bd 2c 1c c6 bd a6 9e d8 3d
       0.0029726303 -0.12107084 -0.09673342 0.10577135
000280 3a 54 8c bd ce b7 bd bd af c3 e4 bd de 09 b7 bd
       -0.068520024 -0.092635736 -0.11170136 -0.08937429
000290 49 99 98 bd eb 83 35 3d 27 ac a9 3d e9 a2 26 bd
       -0.07451112 0.04431526 0.082847886 -0.040682707
0002a0 5c 21 f3 3c 3b ba 74 3d 29 7f 8a 3d eb 49 9f bd
       0.029678993 0.059747916 0.06762535 -0.077777706
0002b0 3a d9 6e bb 39 fa 4f bd 65 69 1a 3d 72 6d 07 3d
       -0.0036445395 -0.05077574 0.03769817 0.03306336
0002c0 b3 81 db bd 95 ec f5 3c cf 00 17 be 81 00 4e bd
       -0.107180975 0.030020038 -0.14746402 -0.05029345
0002d0 ba f1 3b bd f9 b8 43 bb 3a 08 5f bd 4d b6 0b 3e
       -0.045884825 -0.002986489 -0.054451205 0.13643761
0002e0 33 b4 02 3e d6 92 07 3d b0 d7 49 3b 80 65 88 bd
       0.12764053 0.033099018 0.0030798726 -0.066599846
0002f0 7a 08 63 bd fd b0 ec bd f3 d8 66 bd 36 1b 76 bd
       -0.055428006 -0.11557195 -0.056359243 -0.060084544
000300 22 01 85 bd d5 1c 94 3d 4b 76 b3 3d 43 29 b4 bc
       -0.06494357 0.07232062 0.08762797 -0.021992331
000310 48 a2 65 bd 40 29 20 3d b4 6e f4 3d c7 7d 52 3a
       -0.056062967 0.03910184 0.119351774 0.00080296065
000320 e6 4c db bd 8e 2b b6 3d ac c8 6b bc 51 0a f0 3d
       -0.107080266 0.08895026 -0.014391106 0.11720718
000330 26 00 3c bd 9c 54 9c bc 2d c3 fd 3d 3c 1c c9 bd
       -0.04589858 -0.019083314 0.123907425 -0.098198384
000340 93 92 07 be b9 df 6b 3d ab 0e 16 3d 89 76 5b bd
       -0.13239507 0.057586405 0.036635082 -0.05357984
000350 e1 4f bb bd 89 49 60 bd fe db 35 be ae 69 1e be
       -0.09146095 -0.05475763 -0.17759702 -0.15470001
000360 cc e7 bb 3d 21 28 a1 bd 82 49 92 3b 6d 57 bb bd
       0.09175071 -0.07868982 0.004464329 -0.091475345
000370 f5 db 32 3b 5b 1d 9a bd 74 57 ed 3c e3 1d c9 bd
       0.002729175 -0.0752513 0.028972365 -0.098201536
000380 f6 8c cc bc 4d 5e e4 3d eb 23 72 bd f5 bb b0 bd
       -0.02496956 0.11150799 -0.059116285 -0.086296
000390 20 5f 8f 3c d4 b1 49 3c 7a 7d 17 3d ee b7 4f 3d
       0.017501414 0.012310464 0.0369849 0.05071252
0003a0 0b 8b fe bd 68 54 2c be e8 99 1e 3e 4e f9 b9 bd
       -0.12428864 -0.16829073 0.15488398 -0.09080754
0003b0 39 e4 db 3b ad 1b 16 bd f3 3c 86 bc b7 16 10 3e
       0.006710556 -0.036647487 -0.016386485 0.14071165
0003c0 24 ec b8 3d 6b 6c 01 be e2 eb c1 3d 83 3e a4 bd
       0.09029415 -0.12639014 0.09468819 -0.08019736
0003d0 07 9c 2d bd 65 0b d3 bd ab f6 12 3e ab 6d f8 3d
       -0.042385127 -0.10304908 0.14351909 0.121302925
0003e0 76 8f 32 3e d3 03 ac bd 73 53 b1 3d 3d 89 40 3c
       0.17437539 -0.08399167 0.08658495 0.01175147
0003f0 ca 3b a0 bc df d4 2f 3e fc 35 ea 3d ee f5 02 3e
       -0.01955976 0.17171048 0.11436078 0.12789127

fc.bias f4 [7]
000000 78 00 43 3d 16 b4 58 3d 7f 2b 9a bd 0e 9b 7d bd
       0.04760787 0.05290612 -0.075278275 -0.06191545
000010 9c 87 c3 bc aa 99 ad 3c 04 85 05 bd
       -0.023868375 0.021191437 -0.032597557
