trained_model/customer_streamer/gru_64_10.pth (torch, 240318 bytes, 6 tensors)

gru.weight_ih_l0 f4 [384, 23]
-0.12475119 -0.07731873 0.18448819 -0.16541997 0.011709334 -0.010903293 -0.13183838 -0.07210598
-0.0059857066 -0.020920949 -0.03525858 -0.15432467 0.08674029 -0.18847628 -0.070673935 0.030229446
0.02744081 0.19351956 0.17017762 -0.08236879 -0.10907728 0.09388309 -0.0907132 -0.012868812
-0.022236174 0.07121789 0.101160705 0.16744941 0.11755429 0.0081271585 0.14524451 0.06604411
0.120840065 0.025725447 -0.09780532 0.057358712 -0.08654013 -0.006110664 0.11835906 0.032039955
-7.447652e-05 -0.045140885 0.020882208 0.1007763 0.15441547 0.012426034 -0.03230225 -0.03430939
0.021723952 -0.075829394 0.029288093 0.11124948 -0.023951039 0.065087356 0.01247856 -0.011393271
-0.024804765 -0.08434918 0.029830825 -0.09181371 0.06572428 -0.03641895 -0.03787864 0.12031767
-0.037770182 0.096114606 0.13032481 0.08834773 0.046573687 0.095930584 0.066178486 -0.011931014
0.15182206 0.14102714 0.0768111 -0.015007693 0.047830652 0.04536976 0.10980766 0.14590758
-0.044889662 -0.029335734 -0.004492093 -0.0077375094 0.011129347 0.039666276 -0.113796875 0.0698436
0.1406552 0.18149783 0.12018033 0.16991492 0.069146834 0.20650187 -0.080469064 0.072548665
-0.0020229688 0.079841144 -0.0808905 -0.01248921 -0.01990404 -0.0230894 -0.023214309 0.098613635
0.13265839 0.1106695 0.04190348 -0.10467845 0.0047971 0.012347556 -0.117234044 -0.058217887
0.10939191 -0.06277022 0.11434538 -0.014196152 0.060443953 -0.214892 0.043139987 -0.009126706
-0.043052845 -0.13561007 0.013270526 -0.07081144 0.025204757 -0.03151376 0.06944805 0.06660381
0.0023446574 0.031120889 0.04343727 -0.1213224 -0.014791445 0.00010939488 -0.07977712 0.0146249505
-0.039792404 -0.11823663 0.019895814 -0.02763476 -0.067929894 0.008188109 0.032321144 -0.0073210425
-0.104529075 -0.019222915 -0.10400587 -0.0020387836 0.072286695 0.040419288 0.12124829 -0.052998804
-0.035989504 -0.013758605 -0.07022464 -0.0052504214 -0.00827634 0.053133752 0.09759102 0.031339712
-0.01348118 -0.046827316 -0.010313686 0.0611622 -0.122472666 -0.09138994 -0.046457216 -0.15814844
-0.1554341 -0.120990016 -0.01726581 -0.0454066 0.06463918 0.07783428 -0.05627049 0.052725803
-0.04198027 0.06006405 0.119478054 0.013833711 -0.13911785 -0.11165688 -0.011017698 -0.12798911
0.09805176 0.08314857 -0.23311746 0.1599267 0.0071629314 -0.029119456 0.022089481 -0.01983832
0.062529705 0.13583812 -0.02102627 -0.012555373 0.0879681 -0.06510612 -0.029719912 0.018346675
0.008932897 -0.036224633 -0.25252655 0.028218085 0.02378747 -0.09997724 0.025951225 -0.012386047
-0.10896359 0.1440971 0.2294318 0.2243789 0.17312418 0.20337997 0.2098719 0.20965578
0.09134512 -0.008745906 -0.13838896 -0.0065833214 -0.05381685 -0.13869958 0.21241985 -0.11184395
-0.114175 0.054300822 0.26482776 0.0022521776 0.20323779 0.14584947 -0.15720014 0.006537992
0.09885805 -0.047783732 0.009579208 -0.01054885 0.060269147 0.03034955 0.018642059 -0.13637914
-0.098877184 0.06937629 0.03500508 -0.074567914 -0.06180732 0.032751855 -0.04365321 0.06506643
-0.03790167 -0.04255717 -0.073013805 -0.08883347 0.042203076 -0.18527265 -0.1124313 0.07348884
00000000: 8d7d ffbd 4859 9ebd 79ea 3c3e da63 29be
00000010: 82d8 3f3c baa3 32bc a400 07be 4dac 93bd
00000020: bf23 c4bb 6962 abbc 4d6b 10bd 4907 1ebe
00000030: e5a4 b13d edff 40be 7fbd 90bd bea3 f73c
00000040: 8dcb e03c fe29 463e 0b43 2e3e f8b0 a8bd
00000050: e963 dfbd c745 c03d d8c7 b9bd b6d7 52bc
00000060: a328 b6bc afda 913d 582d cf3d dc77 2b3e
00000070: 4ec0 f03d c627 053c faba 143e 2242 873d
00000080: ff7a f73d 2cbe d23c 284e c8bd f8f0 6a3d
00000090: f43b b1bd f73b c8bb 3c66 f23d 543c 033d
000000a0: 4730 9cb8 a6e5 38bd 2a11 ab3c ce63 ce3d
000000b0: 171f 1e3e 9096 4b3c 5d4f 04bd 0188 0cbd
000000c0: 6ef6 b13c 714c 9bbd 95ed ef3c c4d6 e33d
000000d0: f834 c4bc 854c 853d e072 4c3c d8aa 3abc
000000e0: 5d33 cbbc 43bf acbd c65f f43c d408 bcbd
000000f0: 749a 863d 092c 15bd a226 1bbd 1c69 f63d
00000100: e8b4 1abd bcd7 c43d de73 053e a8ef b43d
00000110: 0dc4 3e3d 4177 c43d 9688 873d 4d7a 43bc
00000120: 3e77 1b3e 6b69 103e 234f 9d3d d4e2 75bc
00000130: 13ea 433d a4d5 393d d7e2 e03d cc68 153e
00000140: 39de 37bd 7e51 f0bc 6832 93bb ef8a fdbb
00000150: dd57 363c 1b79 223d 560e e9bd 290a 8f3d
00000160: eb07 103e 91da 393e 1b21 f63d 2dfe 2d3e
00000170: db9c 8d3d 3a75 533e f7cc a4bd 6594 943d
00000180: c993 04bb c183 a33d eba9 a5bd 8b9f 4cbc
00000190: cc0d a3bc fb25 bdbc ef2b bebc f2f5 c93d
000001a0: 9ad7 073e b1a6 e23d fca2 2b3d a861 d6bd
000001b0: fe30 9d3b 674d 4a3c 6718 f0bd e175 6ebd
000001c0: de08 e03d ac8d 80bd e92d ea3d fa96 68bc
000001d0: 1494 773d a60c 5cbe 8eb3 303d 2e88 15bc
000001e0: 2e58 30bd 5edd 0abe 9f6c 593c 9705 91bd
000001f0: 357a ce3c 9314 01bd c73a 8e3d 9467 883d
00000200: d3a8 193b 3cf1 fe3c 47eb 313d e177 f8bd
00000210: d157 72bc ee6a e538 3062 a3bd 7d9d 6f3c
00000220: 5cfd 22bd 0c26 f2bd 8cfc a23c 4b62 e2bc
00000230: d41e 8bbd 6b27 063c 2d63 043d 5be5 efbb
00000240: 5713 d6bd 6079 9dbc 0801 d5bd 1d9d 05bb
00000250: 0c0b 943d b28e 253d 0651 f83d 4615 59bd
00000260: bb69 13bd c66b 61bc f0d1 8fbd ba0b acbb
00000270: 7c99 07bc c7a2 593d cddd c73d 125e 003d
00000280: 2be0 5cbc 00ce 3fbd bcfa 28bc 3785 7a3d
00000290: f3d2 fabd a62a bbbd ec49 3ebd aaf1 21be
000002a0: 1e2a 1fbe 9dc9 f7bd 0771 8dbc 45fc 39bd
000002b0: 8c61 843d 9467 9f3d e37b 66bd 03f7 573d
000002c0: 81f3 2bbd b905 763d e9b0 f43d caa6 623c
000002d0: e974 0ebe 5dac e4bd 9383 34bc 940f 03be
000002e0: 5ccf c83d cc49 aa3d 58b6 6ebe d3c3 233e
000002f0: 06b7 ea3b ed8b eebc 00f5 b43c f983 a2bc
00000300: 930f 803d 2619 0b3e 493f acbc 0db5 4dbc
00000310: 9f28 b43d 5c56 85bd 2c77 f3bc c44b 963c
00000320: 495b 123c 4860 14bd 294b 81be 9d29 e73c
00000330: f1dd c23c dec0 ccbd aa97 d43c d9ee 4abc
00000340: 4d28 dfbd 318e 133e 2bf0 6a3e 95c3 653e
00000350: 7747 313e d742 503e a9e8 563e 01b0 563e
00000360: 2613 bb3d fd4a 0fbc d6b5 0dbe e7b8 d7bb
00000370: 0f6f 5cbd 4307 0ebe 9784 593e 710e e5bd
00000380: 95d4 e9bd 8a6a 5e3d 8197 873e 4599 133b
00000390: 911d 503e 9059 153e 13f9 20be a73c d63b
000003a0: 1776 ca3d e0b8 43bd 1cf2 1c3c 15d5 2cbc
000003b0: c8dc 763d 9f9f f83c 3bb7 983c f9a6 0bbe
000003c0: 1f80 cabd 2815 8e3d 7d61 0f3d 10b7 98bd
000003d0: ac29 7dbd cf26 063d b5cd 32bd 8c41 853d
000003e0: c83e 1bbd 6d50 2ebd 4388 95bd 53ee b5bd
000003f0: 22dd 2c3d 1db8 3dbe 6242 e6bd 5181 963d

gru.weight_hh_l0 f4 [384, 128]
-0.0060293437 -0.064900674 0.03065457 -0.0060605207 0.028461246 -0.09097762 0.011644606 0.050338414
0.0050152205 -0.052321788 0.047797102 -0.056469582 0.00023141915 -0.12384215 0.11781042 -0.033357643
-0.02155147 0.07098295 -0.15902928 0.046122402 -0.028480219 0.022343254 -0.021617724 -0.085747264
0.06174424 0.026033372 0.08291101 -0.08873112 -0.036438026 -0.10728235 0.013577252 -0.05678116
-0.048890453 -0.11689026 -0.042145673 -0.05290019 0.037472017 -0.043588012 -0.035810027 0.08344634
0.023207238 -0.058420032 -0.108499005 -0.07003912 0.03654428 0.10128632 0.028882647 -0.10672379
0.02907659 -0.042014122 -0.036969624 0.025011696 -0.049927875 0.06569776 0.09072699 0.082823895
0.009643528 0.024187185 0.04830924 0.020750452 -0.031786997 -0.120171145 -0.024884507 0.019481475
0.034704898 -0.04086056 -0.025132097 -0.0065768426 0.01457272 0.08257019 0.007598165 -0.05495665
-0.11808615 -0.070831664 -0.041904815 0.045975085 0.026830265 0.089113526 -0.112389535 -0.030184336
0.15425485 -0.10358499 0.11753989 -0.0063294014 -0.069874346 0.04845749 0.05366002 0.030688833
-0.09083499 -0.006796851 -0.07105546 0.086048774 0.07761297 -0.04383709 0.017629065 -0.029770575
-0.071683966 -0.040202253 -0.040958382 0.08540333 -0.08248072 0.12944244 0.062212948 -0.056289688
0.033582173 0.06789557 -0.101304166 -0.027822562 -0.13713102 -0.09047524 -0.1049285 -0.06876333
-0.018319985 -0.12566338 0.06298346 -0.010153969 0.115780644 -0.036333926 -0.056602843 -0.00906313
-0.14276242 0.03850238 -0.035913102 -0.059571143 0.08222998 0.014061859 -0.0017802728 -0.05568512
-0.17242837 0.12775348 -0.0015683988 0.21820648 0.1361662 -0.11865831 -0.03497747 0.03486637
0.041659325 -0.0026337826 0.107389115 -0.05316659 0.1177798 0.04153455 -0.14778228 0.057357606
0.0006024524 0.027297998 -0.02282425 -0.0765405 0.09334209 -0.0653353 -0.025531692 0.016560556
-0.038133856 0.29899055 -0.18341488 0.073522 0.014629185 0.16582008 -0.15048662 -0.018637251
-0.039541557 -0.0016419251 0.015049411 -0.01798673 0.021246662 -0.08712469 0.17824146 -0.045803607
-0.075148664 -0.019402442 0.02147083 -0.030719345 0.15518649 -0.06390873 0.035256427 -0.00023606178
0.0042350874 -0.22393374 -0.061981805 0.12400954 -0.044205766 -0.04881878 -0.15865085 -0.10355561
0.19949412 0.06310695 -0.0195746 -0.0077561405 0.02360305 0.12449715 0.07766893 -0.059543166
-0.025510067 0.030700512 0.1139795 0.22163846 -0.04002481 0.093761116 -0.21736017 -0.18246984
-0.0055105356 0.082280226 0.106365 0.08662296 0.10795331 -0.20317769 0.08492492 0.21564502
-0.20363005 0.022063129 -0.07749113 0.0405023 0.014408464 0.03232825 -0.18278816 -0.069206305
-0.014612539 0.023356415 0.18473239 0.01324158 -0.1785625 -0.0501164 0.07183013 -0.15701021
0.092051595 -0.013641748 -0.052426994 0.010815285 -0.00964652 -0.058653597 0.02923642 0.16113247
0.06444989 -0.137192 0.14831334 0.111006334 -0.11946044 0.003722007 0.07839865 0.08034381
-0.035032652 -0.076998934 -0.14528935 -0.0456553 -0.047996767 0.02229814 0.033208556 0.19855005
0.21111438 0.14879315 0.18174706 0.083100505 -0.12929864 0.017820884 0.08060604 -0.02008583
00000000: cd91 c5bb a5ea 84bd 4b1f fb3c 5597 c6bb
00000010: 8f27 e93c 7952 babd 04c9 3e3c a72f 4e3d
00000020: b856 a43b 5f4f 56bd e5c6 433d a64c 67bd
00000030: 1ba9 7239 f4a0 fdbd 9746 f13d 06a2 08bd
00000040: b58c b0bc 825f 913d 92d8 22be d8ea 3c3d
00000050: 594f e9bc 3309 b73c a717 b1bc 439c afbd
00000060: 87e7 7c3d f043 d53c 3fcd a93d a9b8 b5bd
00000070: 0a40 15bd d9b6 dbbd 1f73 5e3c 5d93 68bd
00000080: 5b41 48bd 2964 efbd f1a0 2cbd dfad 58bd
00000090: 427c 193d 5889 32bd 89ad 12bd eae5 aa3d
000000a0: 1b1d be3c d849 6fbd ba34 debd ac70 8fbd
000000b0: 74af 153d 346f cf3d 4d9b ec3c 0192 dabd
000000c0: 0732 ee3c 0017 2cbd 766d 17bd 54e5 cc3c
000000d0: 2c81 4cbd 8c8c 863d 12cf b93d 939f a93d
000000e0: e3ff 1d3c 3424 c63c e9df 453d dafc a93c
000000f0: 1533 02bd 4a1c f6bd 98da cbbc 9d97 9f3c
00000100: b926 0e3d 675d 27bd d4e1 cdbc 8e82 d7bb
00000110: 6bc2 6e3c 8f1a a93d 07fa f83b 391a 61bd
00000120: 27d7 f1bd 3110 91bd 62a4 2bbd 5f50 3c3d
00000130: 25cb db3c 2781 b63d 7c2c e6bd 2445 f7bc
00000140: fcf4 1d3e 5e24 d4bd c1b8 f03d de66 cfbb
00000150: 481a 8fbd 5c7b 463d 9cca 5b3d 2667 fb3c
00000160: b207 babd 1eb8 debb 8685 91bd 573a b03d
00000170: 8cf3 9e3d 858e 33bd d46a 903c 6ce1 f3bc
00000180: 0bcf 92bd 1eab 24bd fac3 27bd f1e7 ae3d
00000190: a7eb a8bd 8f8c 043e 01d3 7e3d 0490 66bd
000001a0: 768d 093d d50c 8b3d 8f78 cfbd 24ec e3bc
000001b0: 136c 0cbe 154b b9bd c1e4 d6bd cad3 8cbd
000001c0: cb13 96bc e7ad 00be 79fd 803d d55c 26bc
000001d0: 671e ed3d e2d2 14bd 62d8 67bd 867d 14bc
000001e0: 5030 12be acb4 1d3d 9e19 13bd df00 74bd
000001f0: 3168 a83d b663 663c 0b58 e9ba 1516 64bd
00000200: 1091 30be cfd1 023e bb92 cdba 8571 5f3e
00000210: 276f 0b3e 2103 f3bd 8944 0fbd 0ad0 0e3d
00000220: f8a2 2a3d 8a9b 2cbb d3ee db3d 36c5 59bd
00000230: 8936 f13d 2220 2a3d 3d54 17be cfef 6a3d
00000240: e5ed 1d3a 0da0 df3c ecf9 babc 44c1 9cbd
00000250: 232a bf3d 84ce 85bd d727 d1bc 01aa 873c
00000260: 3f32 1cbd 4a15 993e 1cd1 3bbe b492 963d
00000270: 40af 6f3c bdcc 293e 2a19 1abe 26ad 98bc
00000280: 54f6 21bd dd35 d7ba ce91 763c e858 93bc
00000290: 7b0d ae3c 6e6e b2bd ee84 363e 909c 3bbd
000002a0: 8be7 99bd dff1 9ebc 98e3 af3c 23a7 fbbc
000002b0: 35e9 1e3e 95e2 82bd 0b69 103d 5a87 77b9
000002c0: 7dc6 8a3b e34e 65be a2e0 7dbd b7f8 fd3d
000002d0: 1b11 35bd 33f6 47bd 5e75 22be f714 d4bd
000002e0: 3048 4c3e 373e 813d e95a a0bc 3927 febb
000002f0: 2f5b c13c 5df8 fe3d e310 9f3d 89e3 73bd
00000300: 7dfa d0bc a47f fb3c 166e e93d 31f5 623e
00000310: 0ef1 23bd d405 c03d aa93 5ebe 60d9 3abe
00000320: b991 b4bb 8982 a83d e5d5 d93d 6167 b13d
00000330: a016 dd3d d00d 50be 1eed ad3d 0cd2 5c3e
00000340: 6584 50be bcbd b43c abb3 9ebd bde5 253d
00000350: 7a11 6c3c a16a 043d d22c 3bbe 09bc 8dbd
00000360: 6e69 6fbc f455 bf3c 7d2a 3d3e 36f3 583c
00000370: 17d9 36be db46 4dbd ad1b 933d 49c7 20be
00000380: 8c85 bc3d a381 5fbc b0bd 56bd 9832 313c
00000390: 700c 1ebc c13e 70bd 3781 ef3c e9ff 243e
000003a0: 4efe 833d 0f7c 0cbe 74df 173e 4a57 e33d
000003b0: ada7 f4bd eaec 733b 798f a03d 4c8b a43d
000003c0: 667e 0fbd 9eb1 9dbd bbc6 14be 0d01 3bbd
000003d0: 4298 44bd 97aa b63c b205 083d b450 4b3e
000003e0: 5e2e 583e 3b5d 183e e71b 3a3e 9930 aa3d
000003f0: dd66 04be 1afd 913c c814 a53d 0a8b a4bc

gru.bias_ih_l0 f4 [384]
-0.072709605 -0.0292259 -0.12832402 0.12891723 0.14814886 0.07488043 -0.11513695 0.075757325
-0.013358034 -0.019041583 0.08048084 -0.0396065 0.047825683 0.12642375 0.075636536 -0.018129982
0.132254 -0.064147025 0.015855955 -0.08345686 -0.013299445 0.032101642 -0.0059702774 0.090735786
-0.008013648 0.13742676 -0.005371533 -0.104669385 0.03177507 -0.04928634 -0.04297052 -0.040352173
-0.018533042 0.008741534 0.026952686 -0.042176265 0.021605285 0.032412544 -0.078878984 0.123263374
0.055338833 -0.14250547 0.018289903 0.099018656 -0.061073 0.028501559 0.052689884 -0.011315753
-0.07943311 0.086641006 0.07073779 -0.10140855 0.15811466 -0.040838532 0.015057136 -0.06478439
-0.019888578 0.03651153 -0.007027909 0.0023621295 -0.03216643 0.07021983 -0.0047683497 0.083018735
-0.102050945 -0.0020431757 -0.02400241 0.006510356 0.037185993 -0.027737223 0.078233816 0.010663123
0.13371125 0.037228096 -0.07106677 0.063499175 0.0220323 0.068275645 -0.07998116 0.09397977
0.0106010055 0.012467511 0.034516364 -0.08210504 -0.039158404 0.036387164 0.073797315 0.022985218
-0.003809071 -0.0352424 -0.030428149 0.032051697 0.11702394 -0.014672152 -0.046658732 0.093969285
-0.017948734 0.09277207 -0.00017293343 -0.04884679 0.11305434 -0.019310359 0.03995621 -0.06074765
0.18914078 0.099752985 0.03282715 -0.029465789 0.0915638 0.035154823 0.040723566 -0.011346291
0.11984897 -0.047305543 -0.030477613 -0.053697836 0.055466812 -0.025255954 -0.066924684 0.030519834
-0.025716515 -0.085092306 0.028207302 0.0033157996 -0.003311397 -0.01786102 0.0800957 -0.06569274
0.042103805 0.08007441 -0.0651072 0.14581947 -0.014645496 0.053875584 0.23549753 0.030641185
0.12477829 -0.039008107 0.01765238 0.0067429827 -0.028356781 0.04370389 -0.08136502 0.061017673
-0.047582433 0.042423446 0.002494893 0.073089294 -0.19184197 -0.07296605 -0.005754209 -0.09549897
0.035539787 0.04916851 -0.14802223 -0.080967665 0.047147058 -0.17808598 -0.0043036756 0.038358
0.037938196 0.03336607 0.05852388 -0.04374674 -0.00962182 0.065203495 0.19673902 0.0666121
-0.09338057 -0.050149634 -0.012421958 -0.019939318 0.01183732 0.002402755 0.2238389 0.09527607
-0.271619 0.09890163 0.11347092 0.057626326 0.116844766 0.097156286 0.012666021 0.05716284
-0.0057921265 0.00076145417 0.080418386 0.13879998 0.13566059 0.11789404 0.093734175 -0.07545535
0.12688549 -0.06901564 -0.040615354 0.09964987 -0.034364227 0.013606166 0.03165136 0.10792935
-0.032600358 0.11781313 0.098130316 0.124673285 0.18962406 -0.09590681 -0.087474056 0.10409299
0.017605988 0.018049676 0.0021998328 -0.0404229 0.08902072 0.15943748 0.067149244 0.020553557
0.017464755 0.01294516 0.04272411 -0.041913055 0.09109657 0.07044477 0.12125929 0.05118823
-0.031078521 -0.020467479 0.06662101 -0.020497447 0.11781254 -0.025096966 0.02631459 -0.02098523
-0.015968287 0.07148095 -0.08758668 -0.0074901725 0.01980335 -0.004403996 0.009859538 0.053634264
-0.07599509 0.015668273 -0.06886902 -0.06839468 0.07563434 0.088174656 0.09843144 -0.0024199504
-0.03593677 0.025589557 -0.041281063 0.11805236 -0.007489692 0.08141404 0.01991442 -0.10186149
00000000: c6e8 94bd 286b efbc 5f67 03be e102 043e
00000010: 56b4 173e e95a 993d eccc ebbd a826 9b3d
00000020: a8db 5abc 18fd 9bbc 23d3 a43d 6d3a 22bd
00000030: dde4 433d 3a75 013e 54e7 9a3d 5485 94bc
00000040: 986d 073e 845f 83bd 59e4 813c 6eeb aabd
00000050: eae5 59bc 037d 033d 51a2 c3bb afd3 b93d
00000060: ad4b 03bc 9ab9 0c3e af03 b0bb e75c d6bd
00000070: 9326 023d 79e0 49bd db01 30bd 5248 25bd
00000080: 9bd2 97bc a738 0f3c e1cb dc3c 05c1 2cbd
00000090: 91fd b03c 04c3 043d 4e8b a1bd 8271 fc3d
000000a0: f9aa 623d f4ec 11be b5d4 953c 4bca ca3d
000000b0: af27 7abd 1a7c e93c 59d1 573d b565 39bc
000000c0: d4ad a2bd d770 b13d f9de 903d 49af cfbd
000000d0: cfe8 213e 4e46 27bd 35b2 763c aead 84bd
000000e0: 5fed a2bc 1d8d 153d 604a e6bb f5cd 1a3b
000000f0: f2c0 03bd 6acf 8f3d d13f 9cbb ba05 aa3d
00000100: 1600 d1bd cde6 05bb b4a0 c4bc d354 d53b
00000110: 5750 183d 2c39 e3bc 0d39 a03d 61b4 2e3c
00000120: 9aeb 083e 7d7c 183d 748b 91bd db0b 823d
00000130: 157d b43c 1ad4 8b3d 2acd a3bd 7778 c03d
00000140: d7af 2d3c 8844 4c3c 0861 0d3d b026 a8bd
00000150: 9064 20bd b50a 153d 0c23 973d 7f4b bc3c
00000160: 9ba1 79bb 565a 10bd 7444 f9bc a448 033d
00000170: 3faa ef3d 7763 70bc 3a1d 3fbd f872 c03d
00000180: 3909 93bc 48ff bd3d 7755 35b9 9213 48bd
00000190: 0989 e73d c230 9ebc 1fa9 233d 87d2 78bd
000001a0: 1fae 413e 4b4b cc3d c375 063d 3d62 f1bc
000001b0: cd85 bb3d 81fe 0f3d c1cd 263d cbe5 39bc
000001c0: 6073 f53d 75c3 41bd 30ac f9bc 43f2 5bbd
000001d0: 2b31 633d 93e5 cebc cf0f 89bd bb04 fa3c
000001e0: 71ab d2bc e044 aebd 0013 e73c e34d 593b
000001f0: 0604 59bb 4651 92bc 3709 a43d ea89 86bd
00000200: 0a75 2c3d 0dfe a33d ec56 85bd b351 153e
00000210: aaf3 6fbc a5ac 5c3d 4426 713e 3903 fb3c
00000220: c38b ff3d f7c6 1fbd b99b 903c 3df4 dc3b
00000230: 7b4c e8bc da02 333d b4a2 a6bd abed 793d
00000240: cce5 42bd 35c4 2d3d 5c81 233b d7af 953d
00000250: 3972 44be 396f 95bd ce8d bcbb f794 c3bd
00000260: 2b92 113d eb64 493d 2493 17be 60d2 a5bd
00000270: 461d 413d 2c5c 36be d905 8dbb 471d 1d3d
00000280: 1565 1b3d dcaa 083d bcb6 6f3d c82f 33bd
00000290: d7a4 1dbc 6989 853d f475 493e ed6b 883d
000002a0: 503e bfbd b469 4dbd 7885 4bbc c857 a3bc
000002b0: 52f1 413c 8a77 1d3b 0636 653e 1a20 c33d
000002c0: a511 8bbe f08c ca3d 7163 e83d 9509 6c3d
000002d0: 4f4c ef3d e0f9 c63d 2485 4f3c 9523 6a3d
000002e0: e1cb bdbb 539c 473a 65b2 a43d 9521 0e3e
000002f0: 9cea 0a3e 6e72 f13d b4f7 bf3d 5688 9abd
00000300: 45ee 013e 1258 8dbd 495c 26bd 3b15 cc3d
00000310: 81c1 0cbd 65ec 5e3c dba4 013d 100a dd3d
00000320: f487 05bd 0348 f13d 8cf8 c83d b554 ff3d
00000330: cf2c 423e ca6a c4bd 9925 b3bd b52e d53d
00000340: 6f3a 903c eadc 933c 122b 103b 7c92 25bd
00000350: 7f50 b63d 9443 233e 8b85 893d ef5f a83c
00000360: 3f12 8f3c f017 543c 7aff 2e3d 06ad 2bbd
00000370: d790 ba3d 5945 903d ca56 f83d c0aa 513d
00000380: 6298 febc 6aab a7bc 9970 883d 43ea a7bc
00000390: b347 f13d 2798 cdbc b291 d73c 38e9 abbc
000003a0: edcf 82bc 9b64 923d a560 b3bd 1f70 f5bb
000003b0: a33a a23c 654f 90bb e689 213c 9aaf 5b3d
000003c0: 50a3 9bbd c05a 803c 330b 8dbd 8312 8cbd
000003d0: 2de6 9a3d ea94 b43d 6c96 c93d 0898 1ebb
000003e0: 6f32 13bd 31a1 d13c 5516 29bd 70c5 f13d
000003f0: 176c f5bb 67bc a63d 9123 a33c c29c d0bd

gru.bias_hh_l0 f4 [384]
-0.12109512 -0.029704012 -0.12143149 0.090677574 0.08841119 0.097286195 -0.10189348 0.052670475
-0.014196295 -0.097500466 0.0482761 -0.002627426 0.024542635 0.038058426 0.061624702 -0.03377441
0.10703448 -0.016106613 0.09499322 -0.017341672 -0.050109237 -0.026532343 0.03618402 -0.0021253915
-0.034331948 0.050386436 -0.096140936 -0.032126337 0.0007801589 0.059554264 -0.09910369 -0.007997985
0.079044305 0.08189991 -0.0029427765 -0.042673957 -0.09433918 -0.016647039 0.0032774003 0.17207327
-0.06903614 0.011181977 0.050312947 0.15756859 0.036503766 -0.010008563 0.0724096 -0.039956532
-0.0194177 0.115593426 -0.09328701 -0.066106066 0.04592418 -0.010513092 0.07533027 -0.042216778
-0.0640042 0.023372179 0.024209995 -0.06341722 -0.006261153 0.06324939 0.12458927 -0.031553753
0.034550168 -0.06615794 0.009807597 3.0985648e-05 0.031654626 0.040853515 -0.07161874 0.044013247
0.0855186 -0.10065462 -0.057449527 -0.040436633 -0.0774675 -0.053495042 -0.021442264 0.0012981326
-0.02569619 -0.028265968 0.015577927 -0.04083631 -0.048703026 0.047608536 -0.010251044 0.048058152
0.09292973 0.0840895 0.059715226 0.010118963 0.16714388 -0.14326581 0.041837875 0.017862422
0.02895471 0.106350385 -0.014785515 -0.107987724 -0.0028608697 0.04347883 0.055500213 -0.082650155
0.12784415 0.08361863 -0.0918462 -0.008369681 0.13922292 -0.095573485 0.006452672 -0.06678626
0.0800989 0.068029396 0.04989282 0.0055716475 0.005503607 0.055199422 -0.044046313 0.054103866
-0.049256787 -0.0463843 0.08137524 -0.061349373 0.028020808 0.0140004065 0.07788379 0.04191336
-0.07066848 0.06215996 -0.02883794 0.082208455 0.04321503 0.046003286 0.14608744 0.048577573
0.14303358 -0.03096687 0.10343431 0.06354771 -0.1189706 0.083102696 -0.046735648 0.028957015
-0.033767678 -0.029373668 0.10706074 0.0703981 -0.0704111 -0.0295701 0.032941584 -0.11607712
0.0037399044 -0.08520815 -0.20047714 -0.06613805 0.01317954 -0.27298883 0.038958978 -0.11302556
0.0007477465 0.029965991 0.15806673 0.02180601 -0.06323683 0.0932325 0.09261239 -0.0016383823
0.016364662 0.047938224 -0.054522708 -0.055448957 -0.033040382 -0.066642426 0.14967841 0.031024292
-0.11184509 0.07798229 0.09816571 0.15644012 0.11435524 0.13199751 0.1199591 0.033670124
-0.042833544 0.06611883 -0.032983333 0.16247958 0.08270092 -0.0371845 0.08973361 -0.0008480801
0.13039061 -0.11488136 0.079830565 0.17777295 0.012005981 0.030107796 0.10319438 0.21440005
0.054260246 0.1167831 0.10949798 0.06008496 0.097353056 0.015461026 -0.01634041 -0.028291605
0.12096449 -0.024777915 0.00015458566 -0.026984962 0.027294926 0.036209594 0.04772359 0.016807383
0.026110014 -0.05380675 -0.085144535 -0.08841862 0.13230452 0.0010811553 0.19387881 -0.08301584
-0.05134187 -0.038059358 0.032573566 0.038561665 0.0640488 0.04995363 0.077319734 0.024079902
-0.04643426 0.033220764 0.03338949 0.03325576 0.04061831 -0.0334748 0.010337771 0.15655088
0.030237801 0.04972015 0.10067696 0.021099756 0.024965277 0.12877601 0.09542728 0.04665576
0.035210393 0.12533149 -0.023379855 0.048486963 -0.020830993 -0.060900584 0.045009732 -0.039487977
00000000: b800 f8bd d455 f3bc 13b1 f8bd 2ab5 b93d
00000010: ed10 b53d fc3d c73d 87ad d0bd ffbc 573d
00000020: 9497 68bc 53ae c7bd 29bd 453d e530 2cbb
00000030: a30d c93c 27e3 1b3d 2f6a 7c3d 0957 0abd
00000040: e534 db3d 04f2 83bc ce8b c23d 1f10 8ebc
00000050: 583f 4dbd 5b5a d9bc b235 143d 274a 0bbb
00000060: a89f 0cbd 0262 4e3d 8ae5 c4bd e896 03bd
00000070: 9483 4c3a 2cef 733d e0f6 cabd fb09 03bc
00000080: fbe1 a13d 24bb a73d 99db 40bb e3ca 2ebd
00000090: e634 c1bd 5f5f 88bc a7c9 563b fa33 303e
000000a0: d262 8dbd 9c34 373c f314 4e3d a959 213e
000000b0: f984 153d f5fa 23bc 7c4b 943d 76a9 23bd
000000c0: de11 9fbc 3fbc ec3d 430d bfbd 9e62 87bd
000000d0: fe1a 3c3d 1b3f 2cbc c246 9a3d 80eb 2cbd
000000e0: a214 83bd 0377 bf3c 0a54 c63c e3e0 81bd
000000f0: 5c2a cdbb e588 813d a928 ff3d 823e 01bd
00000100: 7a84 0d3d d07d 87bd 0bb0 203c 96f6 0138
00000110: 48a8 013d 0456 273d d9ac 92bd 3c47 343d
00000120: 6024 af3d 0224 cebd 3250 6bbd e2a0 25bd
00000130: 48a7 9ebd 9e1d 5bbd b0a7 afbc 1a26 aa3a
00000140: d180 d2bc 088e e7bc 903a 7f3c f943 27bd
00000150: d37c 47bd 2b01 433d fff3 27bc a0d8 443d
00000160: f151 be3d 1e37 ac3d f497 743d 02ca 253c
00000170: c427 2b3e 46b4 12be 315e 2b3d 3754 923c
00000180: 6e32 ed3c 3bce d93d f23e 72bc ab28 ddbd
00000190: 6e7d 3bbb dc16 323d 3154 633d 7c44 a9bd
000001a0: 94e9 023e 3f40 ab3d dc19 bcbd fd20 09bc
000001b0: 7490 0e3e 08bc c3bd f070 d33b 3cc7 88bd
000001c0: e40a a43d ff52 8b3d 6a5c 4c3d 5e92 b63b
000001d0: 9a57 b43b ca18 623d e869 34bd 049c 5d3d
000001e0: 7cc1 49bd 77fd 3dbd 10a8 a63d 7b49 7bbd
000001f0: e58b e53c f661 653c 8981 9f3d 58ad 2b3d
00000200: a3ba 90bd 719b 7e3d 8b3d ecbc e85c a83d
00000210: 3e02 313d f16d 3c3d f297 153e 47f9 463d
00000220: 6577 123e 3cae fdbc 5ed5 d33d 4d25 823d
00000230: dca6 f3bd bf31 aa3d e16d 3fbd 4337 ed3c
00000240: fa4f 0abd 0ca1 f0bc a942 db3d e12c 903d
00000250: b233 90bd ff3c f2bc c1ed 063d d7b9 edbd
00000260: 2f19 753b 9c81 aebd e149 4dbe 6373 87bd
00000270: ffee 573c 31c5 8bbe 7393 1f3d f279 e7bd
00000280: 6b04 443a 3d7b f53c 3fdc 213e 84a2 b23c
00000290: 5082 81bd aef0 be3d 91ab bd3d fdbe d6ba
000002a0: 2f0f 863c df5a 443d 3453 5fbd 721e 63bd
000002b0: 5a55 07bd d37b 88bd 4c45 193e a826 fe3c
000002c0: 0a0f e5bd 2eb5 9f3d 1b0b c93d d731 203e
000002d0: 1433 ea3d 5b2a 073e 1ead f53d afe9 093d
000002e0: 3a72 2fbd 4f69 873d 8819 07bd 0c61 263e
000002f0: 1a5f a93d c64e 18bd 41c6 b73d b151 5eba
00000300: 1e85 053e eb46 ebbd 357e a33d 1d0a 363e
00000310: bcb4 443c a0a4 f63c 9357 d33d b08b 5b3e
00000320: fe3f 5e3d fa2b ef3d 7a40 e03d a61b 763d
00000330: 0a61 c73d 3e50 7d3c 53dc 85bc ccc3 e7bc
00000340: 3bbc f73d 0efb cabc 4618 2239 910f ddbc
00000350: 9c99 df3c 8350 143d d079 433d a3af 893c
00000360: abe4 d53c 7764 5cbd 4260 aebd d214 b5bd
00000370: d67a 073e 8db5 8d3a 2b88 463e 3504 aabd
00000380: da4b 52bd 21e4 1bbd dc6b 053d d6f2 1d3d
00000390: 042c 833d 2d9c 4c3d cf59 9e3d 3743 c53c
000003a0: da31 3ebd 7f12 083d 6bc3 083d 3137 083d
000003b0: 635f 263d df1c 09bd c15f 293c e04e 203e
000003c0: 44b5 f73c 5ba7 4b3d b92f ce3d 65d9 ac3c
000003d0: fb83 cc3c dcdd 033e 616f c33d 1c1a 3f3d
000003e0: c638 103d e656 003e 1c87 bfbc 449a 463d
000003f0: c2a5 aabc e472 79bd 205c 383d 25be 21bd

fc.weight f4 [7, 128]
-0.04561855 -0.080090955 0.04901741 -0.10446222 0.005826316 0.049538586 0.013362104 0.107705735
0.010151524 -0.057737738 -0.16932033 0.083467826 0.07292086 0.09036622 -0.049308505 -0.036209214
0.066424616 0.10558617 0.110089205 0.14949511 -0.12886801 0.03845427 -0.004490741 -0.082175925
-0.02660794 -0.03066636 -0.14396489 -0.07593845 -0.1387545 -0.14199564 -0.07207211 0.038497705
0.060235523 -0.09637768 0.04845083 -0.15249245 -0.10659358 -0.057708215 0.037955713 -0.015136035
0.07778447 -0.09099765 -0.06892138 0.054269925 -0.13020763 0.04209437 0.14710031 -0.045576505
-0.073916085 0.034403317 -0.0587725 0.02073725 0.16614558 0.01403782 0.061781447 0.05303115
-0.11196118 -0.016192539 -0.0066390075 -0.002500136 -0.15132307 0.03800111 -0.06697124 -0.029576663
0.12470227 -0.00391254 -0.062224552 -0.10356837 -0.0856375 -0.069596365 0.089365445 0.06602134
0.15940659 -0.030894792 -0.0020421501 -0.06856644 0.057894304 0.08326938 0.048183832 -0.09545637
-0.0009177261 -0.090156354 -0.0036831 0.07094307 -0.04939648 0.055185046 0.002525727 0.006470287
-0.095508404 -0.1100123 -0.09069322 -0.059585128 0.12025065 0.035047147 -0.13530403 0.018827036
-0.074374005 -0.01259359 0.084538735 0.101462744 0.11377737 -0.050875023 -0.09861882 -0.041954335
-0.175685 0.1623376 -0.06439756 -0.038685862 -0.0060137794 -0.022203336 -0.10317901 0.00014586415
0.012812244 0.053381808 0.16005577 0.058921255 -0.11940793 -0.033836696 -0.10088331 0.018429117
-0.025683928 0.036770757 0.022929933 -0.07980639 0.008501829 0.052093353 0.002475218 0.008522171
-0.056676105 0.03753982 0.07620228 0.113849975 0.08365351 -0.14809711 0.06882333 -0.014381049
-0.042404097 0.006145108 -0.0056434316 -0.12832403 0.037597876 0.16520359 0.051153637 0.03194317
-0.15137248 -0.17399207 -0.01605918 0.018563038 0.19629529 0.0009958491 -0.040130578 0.1545515
-0.13929352 0.14577878 0.06654415 0.01925403 0.026477022 0.112374164 -0.13027932 0.073064186
0.017869167 0.0652049 0.065607555 0.040615946 -0.07088454 -0.19989675 0.04492031 -0.06002302
0.068823 -0.0035546864 0.11692386 -0.10603926 -0.007953393 -0.17431046 -0.11383316 0.0818173
0.1466701 -0.041165955 0.12078735 0.034948066 -0.03749502 0.0180352 0.04966437 0.07669649
-0.015285396 -0.03587604 -0.10561499 0.12779306 0.06497194 0.0061155353 0.099016435 -0.10075282
-0.06798904 0.11952643 -0.024287239 0.0899482 -0.009524376 0.084322885 -0.14373454 -0.1058356
0.013805717 -0.008796858 0.082926236 0.026912423 -0.020573275 0.019079972 0.107367344 0.1573641
0.07324747 0.1380656 0.027535649 0.06697138 0.1676965 0.063506685 0.025803411 0.01139473
0.009777378 0.092489325 0.20124486 -0.014675507 -0.027833315 0.0031131029 0.14492139 -0.10669247
0.17024377 -0.1368658 0.093671665 0.027800452 0.08801569 0.10039559 0.049375255 0.13055909
0.087483935 -0.08564176 0.023168948 0.09407697 0.054536857 0.00598334 0.032246474 0.085991114
0.0072155884 0.045086715 0.049167998 0.11334277 0.0010222953 0.17993888 -0.048320834 0.06280253
0.099625275 0.11747676 0.16011685 0.010405645 -0.12506866 -0.088479094 -0.01149874 -0.07792635
00000000: 84da 3abd ba06 a4bd 7bc6 483d 4af0 d5bd
00000010: aeea be3b f9e8 4a3d baec 5a3c d394 dc3d
00000020: 9452 263c 687e 6cbd 4f62 2dbe 2ef1 aa3d
00000030: 8857 953d ed11 b93d b7f7 49bd 1d50 14bd
00000040: a109 883d 903d d83d 7376 e13d 3f15 193e
00000050: faf5 03be 3a82 1d3d 1127 93bb da4b a8bd
00000060: e5f8 d9bc 0538 fbbc 886b 13be 9e85 9bbd
00000070: a915 0ebe 4e67 11be 8b9a 93bd c5af 1d3d
00000080: 86b9 763d a961 c5bd 6174 463d fb26 1cbe
00000090: bc4d dabd 735f 6cbd 7377 1b3d 22fd 77bc
000000a0: 774d 9f3d fa5c babd a726 8dbd 244a 5e3d
000000b0: 2655 05be 256b 2c3d 77a1 163e 6eae 3abd
000000c0: 5161 97bd 7eea 0c3d 6fbb 70bd 2ae1 a93c
000000d0: 1122 2a3e e2fe 653c 8b0e 7d3d 3137 593d
000000e0: e74b e5bd 37a6 84bc 088c d9bb 52d9 23bb
000000f0: 6ff4 1abe 0da7 1b3d 3828 89bd c24a f2bc
00000100: e763 ff3d c434 80bb 2cdf 7ebd a71b d4bd
00000110: b762 afbd 8a88 8ebd 3b05 b73d 3236 873d
00000120: 7b3b 233e 1317 fdbc 98d5 05bb 906c 8cbd
00000130: 9422 6d3d 2389 aa3d 695c 453d a17e c3bd
00000140: 8e93 70ba e5a3 b8bd 2a60 71bb 9a4a 913d
00000150: f753 4abd b709 623d ab86 253b b404 d43b
00000160: e999 c3bd 214e e1bd 5ebd b9bd 890f 74bd
00000170: f945 f63d 998d 0f3d 248d 0abe 283b 9a3c
00000180: 6651 98bd 5855 4ebc a522 ad3d b3cb cf3d
00000190: 1c04 e93d 5462 50bd aaf8 c9bd 4fd8 2bbd
000001a0: c5e6 33be d43b 263e dee2 83bd 1175 1ebd
000001b0: 3d0f c5bb c5e3 b5bc 844f d3bd 1cf3 1839
000001c0: 72ea 513c e2a6 5a3d a9e5 233e 6a57 713d
000001d0: 258c f4bd 5998 0abd e99b cebd a9f8 963c
000001e0: 1a67 d2bc ef9c 163d 8ed7 bb3c 8871 a3bd
000001f0: 414b 0b3c d75f 553d 4437 223b 93a0 0b3c
00000200: 3425 68bd 5bc3 193d f10f 9c3d 2d2a e93d
00000210: 8852 ab3d c5a6 17be 3ff3 8c3d 7e9e 6bbc
00000220: ebaf 2dbd e75c c93b 89ec b8bb 6067 03be
00000230: 3b00 1a3d 212b 293e 7a86 513d d7d6 023d
00000240: 6301 1bbe fa2a 32be 8b8e 83bc 8311 983c
00000250: a201 493e 2787 823a f65f 24bd c042 1e3e
00000260: f6a2 0ebe 0847 153e 4d48 883d a1ba 9d3c
00000270: 57e6 d83c 6d24 e63d f167 05be ada2 953d
00000280: 5c62 923c 268a 853d 415d 863d e85c 263d
00000290: ea2b 91bd bcb1 4cbe 5cfe 373d b3da 75bd
000002a0: 13f3 8c3d bef5 68bb c775 ef3d 1d2b d9bd
000002b0: f34e 02bc 717e 32be 5c21 e9bd d48f a73d
000002c0: b030 163e a29d 28bd 5c5f f73d b425 0f3d
000002d0: 6194 19bd 8ebe 933c de6c 4b3d 0d13 9d3d
000002e0: 996f 7abc c1f2 12bd ac4c d8bd 2fdc 023e
000002f0: 0210 853d d464 c83b 21c9 ca3d 7f57 cebd
00000300: d63d 8bbd 46ca f43d 08f6 c6bc c336 b83d
00000310: 210c 1cbc 7ab1 ac3d 262f 13be 56c0 d8bd
00000320: 6031 623c b220 10bc 3bd5 a93d 7177 dc3c
00000330: 4989 a8bc 9a4d 9c3c 69e3 db3d 0e24 213e
00000340: c502 963d 1261 0d3e 7192 e13c 4a28 893d
00000350: a2b8 2b3e cb0f 823d ad61 d33c f6b0 3a3c
00000360: 4c31 203c 0b6b bd3d 2213 4e3e 8a71 70bc
00000370: b102 e4bc 3305 4c3b 4666 143e 9581 dabd
00000380: 6254 2e3e 8c26 0cbe eed6 bf3d c6bd e33c
00000390: 9241 b43d 349c cd3d b53d 4a3d 48b1 053e
000003a0: c72a b33d f264 afbd cecc bd3c 6dab c03d
000003b0: 0a62 5f3d e50f c43b e114 043d 1c1c b03d
000003c0: be70 ec3b d9ac 383d 6264 493d 4120 e83d
000003d0: 8afe 853a e641 383e 11ec 45bd 9d9e 803d
000003e0: 5608 cc3d a897 f03d acf5 233e 707c 2a3c
000003f0: 0012 00be 8734 b5bd 3665 3cbc da97 9fbd

fc.bias f4 [7]
0.074831374 -0.018933475 -0.11842497 -0.02158767 -0.005589797 -0.00029519957 -0.015944863
00000000: 3141 993d 601a 9bbc ca88 f2bd a0d8 b0bc
00000010: 9e2a b7bb 04c5 9ab9 cd9e 82bc
