customized/model/trained_model/ae/ae_z_20batch_128_static.pth (torch, 460027 bytes, 16 tensors)

encoder.0.weight f4 [256, 55]
0.09012566 0.119569845 -0.044357363 0.03577347 -0.03858567 0.09601789 -0.050526775 0.0023035798
-0.13975735 -0.07581133 -0.021312462 0.12213801 -0.07062857 0.5368221 -0.15755686 0.07514786
0.22110881 0.019291831 -0.032319702 -0.10578004 -0.08018137 -0.07596725 -0.10392146 0.09204678
-0.11406588 -0.08099822 0.24347995 0.05289674 -0.14168441 0.09161346 0.016688503 -0.085956715
0.08554819 0.0368846 -0.097412325 -0.04807223 -0.10782887 -0.0223599 -0.08750892 -0.1292414
0.07316246 -0.047034174 -0.025923144 0.0673158 0.18631244 0.028759308 0.13562858 0.04251668
-0.21039018 -0.056249194 0.11808664 0.061081983 0.06674519 0.033339903 -0.14160268 -0.12274982
0.12311223 0.089235574 -0.086540945 0.053805515 -0.06915519 -0.09751786 -0.044779927 0.128248
-0.12560089 -0.056444507 0.069639124 0.1843142 -0.20779431 0.025259418 0.027592914 -0.11939732
-0.012410857 0.1085428 -0.06508596 0.028028414 0.001832876 0.057858847 0.09516631 -0.04363193
0.12430562 -0.094838955 -0.06057606 -0.0473948 -0.1232955 0.06840659 0.16063216 0.04850944
0.07648601 -0.03186788 0.09498101 0.063612975 -0.07214289 -0.094513476 -0.04201247 -0.060327314
0.045067254 -0.0961653 -0.118488386 -0.16787206 0.05335927 -0.13381743 -0.020940244 0.08466279
-0.074267864 -0.14712554 -0.12323711 0.05252771 0.121620096 0.09395056 -0.06096325 0.12689288
-0.039786354 0.16810645 0.19479941 -0.005197619 0.0450116 -0.045135602 0.06537312 -0.072256014
0.015972381 0.046516728 -0.026275357 -0.07187115 0.016443752 -0.093456484 -0.08331364 0.021085102
0.073698565 -0.077691555 0.02089889 -0.013957867 -0.03418665 -0.0682217 0.08441927 -0.021163994
-0.15645765 -0.07842458 0.035528917 -0.19558132 -0.11052119 -0.1472046 -0.008458023 -0.0760061
0.006918929 0.011812072 0.111132324 -0.10224023 -0.015943915 -0.12842187 -0.11885534 -0.051113147
-0.054508723 -0.118696645 -0.1587746 -0.058780808 -0.03664072 -0.045790013 -0.0024046802 -0.019840091
0.02655242 -0.029659377 0.014496345 -0.09528231 0.058486596 -0.03419777 0.038861938 0.11801262
-0.11797665 0.0043602646 -0.07935826 0.019828105 0.12697744 0.0733062 0.00058926473 -0.027847487
-0.20103414 0.021705672 -0.012879713 -0.04028533 -0.07488358 -0.11190594 -0.0943612 0.048663117
-0.11019382 0.071216315 -0.1461405 -0.01982306 0.03474383 -0.055350844 -0.093626894 0.09118241
-0.13960077 -0.030796196 -0.025726285 0.019385666 -0.08181878 0.050568163 -0.037360247 -0.0022136706
-0.0030608238 0.048727084 -0.10244417 -0.03650965 -0.12087959 -0.121008754 0.031495597 0.04192394
0.10783948 0.029335503 0.017634008 -0.09294125 0.05970716 -0.013550115 0.04897361 0.13681498
-0.09767625 -0.052372273 -0.095188215 -0.095952295 0.19103244 0.14946471 0.1044765 -0.10667144
-0.033400126 -0.034593005 -0.13678034 -0.10436119 -0.0074662785 -0.15925166 -0.112783946 -0.0862428
0.18999569 0.13235939 -0.026120285 0.03877084 -0.100232586 0.014955173 0.022555958 -0.113538034
-0.13195015 -0.057769746 -0.014517176 0.017390648 -0.10635724 -0.0011862551 0.013777557 0.053739924
-0.055274755 0.08263095 0.086515866 0.07421032 0.049534313 -0.11499755 -0.068544164 0.21760032
00000000: cd93 b83d 09e1 f43d 11b0 35bd 3487 123d
00000010: 020c 1ebd 07a5 c43d 2af5 4ebd a8f7 163b
00000020: 8d1c 0fbe f842 9bbd 7997 aebc 7e23 fa3d
00000030: b6a5 90bd 2c6d 093f 9656 21be 1fe7 993d
00000040: 596a 623e e709 9e3c aa61 04bd 35a3 d8bd
00000050: 2136 a4bd b894 9bbd c6d4 d4bd 0683 bc3d
00000060: 5f9b e9bd 65e2 a5bd cf52 793e 41aa 583d
00000070: b815 11be d69f bb3d 54b6 883c 130a b0bd
00000080: e433 af3d 4e14 173d 1d80 c7bd 63e7 44bd
00000090: 62d5 dcbd 1c2c b7bc e037 b3bd dc57 04be
000000a0: 33d6 953d e8a6 40bd c65c d4bc dedc 893d
000000b0: b0c8 3e3e a498 eb3c 38e2 0a3e f825 2e3d
000000c0: 8670 57be 8e65 66bd 69d7 f13d 1a31 7a3d
000000d0: b4b1 883d 6c8f 083d 4b00 11be 4264 fbbd
000000e0: 4422 fc3d 24c1 b63d 613c b1bd 2c63 5c3d
000000f0: 3ca1 8dbd 72b7 c7bd 286b 37bd 7253 033e
00000100: 859d 00be 5b32 67bd f59e 8e3d ddbc 3c3e
00000110: 08c8 54be d7ec ce3c 890a e23c 9586 f4bd
00000120: e856 4bbc b04b de3d ca4b 85bd d89b e53c
00000130: 1d3d f03a 66fd 6c3d 8ee6 c23d 65b7 32bd
00000140: f293 fe3d ed3a c2bd 9a1e 78bd 0d21 42bd
00000150: 5a82 fcbd c118 8c3d c27c 243e d6b1 463d
00000160: b2a4 9c3d e587 02bd 6785 c23d 8547 823d
00000170: a7bf 93bd 4890 c1bd 4515 2cbd c619 77bd
00000180: 7198 383d 50f2 c4bd 0aaa f2bd a7e6 2bbe
00000190: 408f 5a3d 7007 09be e08a abbc af63 ad3d
000001a0: c019 98bd 14a8 16be bd63 fcbd 4c27 573d
000001b0: f513 f93d 2769 c03d 9ab4 79bd 35f0 013e
000001c0: 04f7 22bd 1924 2c3e 7f79 473e ca50 aabb
000001d0: 155e 383d 1ce0 38bd 58e2 853d f6fa 93bd
000001e0: 83d8 823c 5388 3e3d 6b3f d7bc 2e31 93bd
000001f0: 0cb5 863c 1d66 bfbd 57a0 aabd aaba ac3c
00000200: 46ef 963d c01c 9fbd 2634 ab3c 8aaf 64bc
00000210: 4d07 0cbd d2b7 8bbd 03e4 ac3d 1d60 adbc
00000220: 6f36 20be 119d a0bd c586 113d 7846 48be
00000230: ef58 e2bd cdbc 16be 8593 0abc 16a9 9bbd
00000240: 2fb8 e23b 6c87 413c 5899 e33d 5363 d1bd
00000250: d09c 82bc 0681 03be 6e6a f3bd 055c 51bd
00000260: 8a44 5fbd 3a17 f3bd cf95 22be 25c4 70bd
00000270: 9414 16bd 4f8e 3bbd d797 1dbb b087 a2bc
00000280: 7684 d93c 39f8 f2bc 1482 6d3c 5f23 c3bd
00000290: a48f 6f3d f612 0cbd b22d 1f3d 9ab0 f13d
000002a0: be9d f1bd 8de0 8e3b 9586 a2bd 8d6e a23c
000002b0: 6006 023e 9021 963d e378 1a3a 6a20 e4bc
000002c0: e5db 4dbe 18d0 b13c 6f05 53bc 3b02 25bd
000002d0: 905c 99bd f12e e5bd 7240 c1bd fa52 473d
000002e0: 4cad e1bd dcd9 913d dba5 15be f863 a2bc
000002f0: 8c4f 0e3d 91b7 62bd 75bf bfbd d8bd ba3d
00000300: 81f3 0ebe 4e48 fcbc eebf d2bc b0ce 9e3c
00000310: 9b90 a7bd 9020 4f3d 0f07 19bd 3b13 11bb
00000320: 1a98 48bb 0d96 473d 40ce d1bd 258b 15bd
00000330: b88f f7bd 70d3 f7bd 8701 013d 70b8 2b3d
00000340: f2da dc3d 0251 f03c 3275 903c fb57 bebd
00000350: 7f8f 743d 4d01 5ebc 8d98 483d 3a19 0c3e
00000360: 7c0a c8bd 4f84 56bd 0af2 c2bd a382 c4bd
00000370: 029e 433e 470d 193e c6f7 d53d 8e76 dabd
00000380: 92ce 08bd 65b1 0dbd 2510 0cbe 52bb d5bd
00000390: afa7 f4bb de12 23be 45fb e6bd 11a0 b0bd
000003a0: 3b8e 423e 3889 073e 35fa d5bc 2cce 1e3d
000003b0: be46 cdbd 8b06 753c 46c7 b83c a186 e8bd
000003c0: f11d 07be f89f 6cbd 73d9 6dbc d576 8e3c
000003d0: d3d1 d9bd 1e7c 9bba 43bb 613c 651e 5c3d
000003e0: c867 62bd 6a3a a93d 3b2f b13d 95fb 973d
000003f0: 7ee4 4a3d d683 ebbd e260 8cbd 9ed2 5e3e

encoder.0.bias f4 [256]
-0.092389695 0.11654037 0.054400645 0.12323669 0.07241036 -0.044286236 -0.079722255 0.09637802
0.013448296 -0.08482887 0.029555874 -0.13592376 -0.09377588 0.043517556 -0.07265104 0.09358917
0.036694642 0.0645539 0.0681784 0.03305733 0.06571229 0.052360177 -0.08310382 0.0553821
0.07387566 0.068530075 -0.09304383 0.023151947 -0.10900046 -0.08840988 0.034056466 0.0012391559
0.03855713 0.024853166 0.14985974 0.040717103 0.08181432 -0.026453828 -0.08565067 0.089601904
0.029101618 0.022624947 -0.045552447 0.04860214 0.009722196 -0.10265155 0.080545284 -0.0922263
-0.10580392 0.075268455 0.05830302 -0.08817392 0.070722274 0.10818293 -0.0604517 0.10065414
-0.042461947 -0.095926836 0.10822029 -0.035828583 -0.0101178195 0.015961489 0.11404584 -0.0494655
0.06890125 0.08066494 0.023251936 -0.09581337 0.059486654 0.019753711 -0.06851323 -0.045750573
0.047829777 -0.069532 -0.026585516 -0.0073794643 0.0738781 0.091934934 -0.02657678 0.028622586
-0.0016354066 -0.009982717 0.07905786 -0.0316404 -0.018455112 0.017503805 0.064626604 -0.02012726
0.03994692 0.030709466 -0.009580245 -0.036481574 -0.022723485 0.01570384 -0.081304535 0.09967417
-0.043389924 -0.035550885 0.04927266 -0.10533445 0.10425191 0.05379077 -0.013634265 0.028364984
0.06857462 -0.033005662 0.014639447 -0.021207314 0.013861489 -0.027130026 -0.032776117 -0.027192386
0.07114183 0.032741904 0.043703247 0.03626404 0.12382849 0.03639297 -0.029114423 0.061398104
-0.009452555 -0.14365165 0.06556802 0.007783308 -0.09042976 0.052698407 -0.065062925 0.093817614
0.08278204 -0.065797955 0.07190102 0.0014716231 -0.0006131179 -0.03472122 0.0128401965 0.09960573
0.023502726 -0.034081854 -0.08154099 0.017933251 -0.029935732 -0.012535738 -0.116702974 0.0072556953
0.07785027 0.10425297 0.023130583 -0.06932842 -0.02903672 -0.051650397 0.039148998 0.010025504
-0.09143315 0.042597316 -0.030904753 -0.11900231 0.037808076 -0.014893524 0.0074879164 0.061304394
0.02879932 -0.07362529 0.04205138 0.14729217 -0.04891674 -0.05569453 0.045530137 -0.018604564
-0.1008767 0.028343564 -0.0042908257 -0.08410802 0.048017237 -0.06361191 -0.030865746 -0.0646043
-0.05951126 0.06875867 -0.025210036 0.08571403 0.013654993 -0.0767291 -0.006398971 -0.09785356
-0.14684133 -0.004099073 0.08494645 0.060945857 0.09888176 0.044399906 0.064027496 0.017929273
-0.07312332 -0.0839243 0.040732153 -0.0669986 -0.07476724 0.107566364 -0.048270803 -0.078023516
-0.07148654 -0.014032538 0.008967418 0.09796068 -0.004516538 0.033441834 0.09031724 0.0021066526
-0.04875267 -0.03542712 0.119036034 -0.037083603 -0.014106478 0.09389754 0.07035318 0.075017124
-0.1266336 0.03988037 0.06471199 0.024567207 -0.030286249 -0.02830352 -0.0039018965 0.047045022
-0.071596466 0.09625922 -0.081728496 0.07585761 -0.100669816 -0.02101274 -0.017425539 -0.10393202
0.08554333 -0.01782061 -0.007875658 -0.06703204 0.05309822 0.06670492 0.09173337 -0.065879636
0.017188843 0.1345137 -0.026107952 -0.017776592 0.03708319 -0.1443454 -0.008528691 -0.0685341
0.11309672 -0.09659803 0.011066874 -0.011260745 0.09296398 0.12897623 0.016367653 -0.065167926
00000000: cf36 bdbd b8ac ee3d 36d3 5e3d 8563 fc3d
00000010: e24b 943d 7c65 35bd 6c45 a3bd d761 c53d
00000020: 3e56 5c3c c2ba adbd 291f f23c 992f 0bbe
00000030: 920d c0bd 773f 323d 12ca 94bd aeab bf3d
00000040: 1f4d 163d d634 843d 1ea1 8b3d 1f67 073d
00000050: 2a94 863d a077 563d 5632 aabd 57d8 623d
00000060: 1f4c 973d 7f59 8c3d c38d bebd 27a9 bd3c
00000070: a23b dfbd 3d10 b5bd cb7e 0b3d 2c6b a23a
00000080: 15ee 1d3d de98 cb3c d574 193e fac6 263d
00000090: 448e a73d b3b5 d8bc 9e69 afbd 3481 b73d
000000a0: 8466 ee3c f457 b93c 3495 3abd 0a13 473d
000000b0: d849 1f3c fa3a d2bd edf4 a43d 24e1 bcbd
000000c0: baaf d8bd 5926 9a3d 26cf 6e3d 8794 b4bd
000000d0: d7d6 903d 038f dd3d 349c 77bd c223 ce3d
000000e0: 94ec 2dbd 4a75 c4bd 99a2 dd3d fec0 12bd
000000f0: 36c5 25bc abc1 823c de90 e93d 569c 4abd
00000100: 191c 8d3d a933 a53d d87a be3c cd39 c4bd
00000110: 47a8 733d 89d2 a13c aa50 8cbd f464 3bbd
00000120: 28e9 433d cb66 8ebd dec9 d9bc 6fcf f1bb
00000130: 674d 973d 6248 bc3d 8cb7 d9bc ea79 ea3c
00000140: 245b d6ba 8d8e 23bc 16e9 a13d 5d99 01bd
00000150: 2d2f 97bc 2464 8f3c f45a 843d ece1 a4bc
00000160: 629f 233d 6b92 fb3c 76f6 1cbc b46d 15bd
00000170: 9a26 babc 57a5 803c fe82 a6bd f921 cc3d
00000180: a2b9 31bd ce9d 11bd 21d2 493d 97b9 d7bd
00000190: 0682 d53d b653 5c3d 4162 5fbc af5d e83c
000001a0: da70 8c3d f230 07bd 4bda 6f3c f6ba adbc
000001b0: 4c1b 633c ca3f debc 4040 06bd 91c2 debc
000001c0: cfb2 913d 601c 063d 2d02 333d 9a89 143d
000001d0: cb99 fd3d cb10 153d 5f81 eebc 947c 7b3d
000001e0: e4de 1abc 6b19 13be 8748 863d 1f0b ff3b
000001f0: 3d33 b9bd 49da 573d b63f 85bd 7323 c03d
00000200: a189 a93d 14c1 86bd d840 933d 7ae3 c03a
00000210: a5b9 20ba d737 0ebd b05f 523c 17fe cb3d
00000220: ca88 c03c 6a99 0bbd f6fe a6bd c1e8 923c
00000230: c83b f5bc b262 4dbc f801 efbd 2fc1 ed3b
00000240: f66f 9f3d 9582 d53d 597c bd3c 0ffc 8dbd
00000250: 6ade edbc 5e8f 53bd b35a 203d 0342 243c
00000260: 4e41 bbbd 867a 2e3d f72b fdbc 7cb7 f3bd
00000270: a4dc 1a3d f803 74bc 325d f53b 511a 7b3d
00000280: 8dec eb3c dbc8 96bd 113e 2c3d c2d3 163e
00000290: eb5c 48bd f31f 64bd cf7d 3a3d 9968 98bc
000002a0: 7198 cebd c330 e83c 0e9a 8cbb d340 acbd
000002b0: b9ad 443d f646 82bd 29da fcbc 424f 84bd
000002c0: 14c2 73bd 58d1 8c3d 4785 cebc d68a af3d
000002d0: 31b9 5f3c 2524 9dbd 76ae d1bb 7267 c8bd
000002e0: 935d 16be 8451 86bb 68f8 ad3d 5da2 793d
000002f0: 8582 ca3d addc 353d d920 833d 69e0 923c
00000300: aec1 95bd 81e0 abbd c2d6 263d 9036 89bd
00000310: 911f 99bd c14b dc3d 9bb7 45bd cbca 9fbd
00000320: 8967 92bd bbe8 65bc 14ec 123c 9c9f c83d
00000330: 78ff 93bb 4efa 083d 3ff8 b83d c40f 0a3b
00000340: e1b0 47bd 071c 11bd 2ac9 f33d fae4 17bd
00000350: db1e 67bc 5a4d c03d 5415 903d 94a2 993d
00000360: 3dac 01be 9959 233d b887 843d 2b41 c93c
00000370: de1a f8bc c9dc e7bc f6b6 7fbb 48b2 403d
00000380: 2ba1 92bd 8e23 c53d 4561 a7bd 3c5b 9b3d
00000390: fa2b cebd e922 acbc 01c0 8ebc 50da d4bd
000003a0: 5731 af3d 87fc 91bc e708 01bc 1848 89bd
000003b0: 857d 593d 979c 883d b5de bb3d e7eb 86bd
000003c0: 9ecf 8c3c f6bd 093e 58e0 d5bc 37a0 91bc
000003d0: 8be4 173d 48cf 13be ecbb 0bbc 9b5b 8cbd
000003e0: 419f e73d 30d5 c5bd d551 353c fd7e 38bc
000003f0: e663 be3d 5812 043e 7515 863c c376 85bd

encoder.2.weight f4 [128, 256]
-0.032840624 -0.012628663 -0.029981134 -0.022162039 -0.10593266 0.028542116 -0.036215566 0.07589653
0.13593599 0.03489662 -0.017069964 -0.009710108 0.04197562 -0.046455584 0.0010488366 -0.012298424
0.018126639 0.015032741 0.032679934 -0.099514276 -0.00020897885 -0.04604406 0.02242408 -0.029093597
-0.06378129 -0.022333395 0.046246417 -0.006211676 -0.10524119 0.0033037593 -0.033819646 0.06456045
0.027518611 0.003455344 -0.06584044 -0.075853445 0.062546164 -0.011680199 -0.05346254 -0.041825708
0.06545936 -0.04757564 -0.018922504 -0.03279226 -0.015924523 -0.026910676 0.016072955 -0.054620434
0.03360213 -0.02246681 -0.045165207 -0.06377981 -0.011723511 -0.044471156 0.032685637 -0.013535122
0.030020094 0.042150456 -0.07887575 -0.03978202 -0.018266711 0.04470651 0.04907454 -0.031870246
0.07821028 0.04961727 0.01132386 -0.028330665 0.0106413355 0.088890254 0.0924627 -0.027615426
-0.01851639 0.030116135 -0.07159891 0.076 0.029383544 -0.052065823 -0.10731968 -0.077665575
-0.04142477 -0.028803244 -0.0039018914 -0.042449996 0.071270175 0.024995595 0.030665495 -0.02874699
-0.018354531 -0.0049056294 -0.08742955 0.06606566 0.026198678 0.046178922 0.021195464 -0.041989602
0.074083894 0.041612502 -0.047028374 -0.0028405124 -0.031116115 -0.0046950313 -0.04504774 -0.0016398886
0.010860463 -0.029529631 -0.033112813 -0.027909836 -0.012994739 -0.03180515 0.0035611873 -0.019609518
-0.06827238 0.09118514 0.00029945635 -0.049674835 -0.14556766 0.0150569305 -0.046630647 -0.06967409
-0.052208412 0.053705182 -0.06585464 0.00086834753 -0.010591009 -0.020797592 0.072060384 -0.03094685
-0.024562484 -0.10440296 -0.06143446 -0.025596589 -0.077740446 0.028663795 0.023709064 -0.011270886
0.03057578 -0.078126885 -0.041028764 0.08480661 -0.010394859 0.03169722 0.06969863 -0.031978443
-0.065833054 -0.012876303 -0.09347027 -0.015077785 -0.06398983 0.029581655 -0.058534596 0.012675225
-0.0793838 0.104766354 0.08311757 -0.057125177 0.051872153 -0.0050337208 0.073773906 -0.1196523
-0.027907752 -0.036760204 -0.04544304 -0.12766534 -0.08451954 -0.0033361916 0.009951279 -0.0019898722
0.05199033 0.020842077 0.0008592117 0.09186561 0.056407988 0.066563666 -0.030495321 0.0035594378
-0.010498386 0.07164751 0.039916843 -0.024237096 0.051243983 0.029548738 -0.063710034 0.06883466
0.006006192 0.01656349 -0.10488846 -0.010979021 -0.014615121 -0.0015440554 -0.0070409295 -0.08458858
-0.04168983 0.05279738 0.007826217 -0.016956344 0.0504996 -0.056073308 0.034424692 0.06218755
-0.03189906 -0.02598103 0.061758306 0.0019240517 0.050031763 -0.035801683 0.0054334495 -0.051181126
0.045669347 0.06356954 -0.09787577 -0.07028204 0.08275652 -0.049751062 0.0145359095 -0.08163812
0.12941909 0.0812628 0.05399495 0.0138210775 -0.05431666 -0.039037764 -0.0529087 -0.011483089
0.011330451 0.047587935 -0.068592496 0.09101158 0.027412208 -0.030819254 0.014103647 0.08852904
0.025091207 0.08537571 0.015232212 -0.01497609 0.0043827384 0.09477655 -0.05773188 -0.053838354
0.013366285 -0.08989128 -0.00029979157 0.0051408513 -0.016597716 -0.02641898 0.0007955286 0.015437692
-0.036520593 -5.0205195e-05 0.07112303 0.10703681 0.025870165 0.028342776 -0.017202511 0.034358427
00000000: e483 06bd 74e8 4ebc ff9a f5bc 2a8d b5bc
00000010: 39f3 d8bd 28d1 e93c c656 14bd a46f 9b3d
00000020: ce32 0b3e c2ef 0e3d 4fd6 8bbc 2517 1fbc
00000030: a1ee 2b3d 3648 3ebd 1e79 893a 547f 49bc
00000040: 517e 943c e34b 763c 65db 053d 24ce cbbd
00000050: 5521 5bb9 b298 3cbd b4b2 b73c b255 eebc
00000060: c49f 82bd 86f4 b6bc e26c 3d3d 518b cbbb
00000070: b188 d7bd e283 583b 7886 0abd 4538 843d
00000080: b66e e13c 0d73 623b 5ad7 86bd 0d59 9bbd
00000090: 3418 803d 4e5e 3fbc 89fb 5abd 6f51 2bbd
000000a0: 8f0f 863d adde 42bd 5e03 9bbc 2d51 06bd
000000b0: 2574 82bc c773 dcbc 6eab 833c adb9 5fbd
000000c0: 63a2 093d 510c b8bc 27ff 38bd fd9e 82bd
000000d0: f813 40bc 6327 36bd 60e1 053d 6bc2 5dbc
000000e0: b3ec f53c f5a5 2c3d 9c89 a1bd 79f2 22bd
000000f0: 12a4 95bc 2c1e 373d 6302 493d 608a 02bd
00000100: b62c a03d 7a3b 4b3d b687 393c b615 e8bc
00000110: ff58 2e3c 180c b63d 165d bd3d bf39 e2bc
00000120: afaf 97bc 1db6 f63c 73a2 92bd e3a5 9b3d
00000130: c2b5 f03c f942 55bd 6cca dbbd 210f 9fbd
00000140: 05ad 29bd c8f4 ebbc e0b6 7fbb 0ce0 2dbd
00000150: 19f6 913d 90c3 cc3c 3436 fb3c cf7e ebbc
00000160: 3e5c 96bc 67bf a0bb 440e b3bd 6f4d 873d
00000170: 9c9e d63c 1c26 3d3d 1ca2 ad3c 4afd 2bbd
00000180: 4cb9 973d df71 2a3d d3a0 40bd e427 3abb
00000190: 39e7 febc c7d8 99bb fb83 38bd 88f1 d6ba
000001a0: 15f0 313c 20e8 f1bc 4da1 07bd 2ba3 e4bc
000001b0: e3e7 54bc 1e46 02bd cf62 693b 24a4 a0bc
000001c0: 64d2 8bbd 46bf ba3d 5a00 9d39 d777 4bbd
000001d0: b00f 15be 58b1 763c c7ff 3ebd 4ab1 8ebd
000001e0: 7dd8 55bd f7f9 5b3d ccde 86bd d1a1 633a
000001f0: e985 2dbc b65f aabc 6594 933d 4084 fdbc
00000200: 4337 c9bc 38d1 d5bd b3a2 7bbd f0af d1bc
00000210: 6236 9fbd 56d0 ea3c 8339 c23c 86a9 38bc
00000220: 0f7a fa3c fd00 a0bd c70d 28bd 17af ad3d
00000230: 334f 2abc f2d4 013d 28be 8e3d d4fb 02bd
00000240: 7bd3 86bd 21f7 52bc 576d bfbd d008 77bc
00000250: 1a0d 83bd 3a55 f23c f9c1 6fbd bfab 4f3c
00000260: f993 a2bd be8f d63d 8b39 aa3d 17fc 69bd
00000270: e577 543d e9f1 a4bb c616 973d 440c f5bd
00000280: cc9e e4bc de91 16bd 7b22 3abd b4ba 02be
00000290: 9518 adbd 02a4 5abb b00a 233c 8468 02bb
000002a0: d0f3 543d 01bd aa3c b93c 613a 0924 bc3d
000002b0: 100c 673d 8852 883d 53d1 f9bc 7545 693b
000002c0: 6c01 2cbc eebb 923d d87f 233d e08c c6bc
000002d0: 36e5 513d 3210 f23c 687a 82bd 30f9 8c3d
000002e0: 97cf c43b 28b0 873c c3cf d6bd 5ae1 33bc
000002f0: 4374 6fbc e761 caba 99b7 e6bb c73c adbd
00000300: f5c2 2abd 1142 583d 8939 003c 08e8 8abc
00000310: abd8 4e3d 20ad 65bd e800 0d3d 5fb8 7e3d
00000320: 97a8 02bd 2bd6 d4bc 47f6 7c3d 7630 fc3a
00000330: 1bee 4c3d c9a4 12bd 140b b23b 4da3 51bd
00000340: c80f 3b3d bf30 823d 1773 c8bd 08f0 8fbd
00000350: 407c a93d c5c7 4bbd 0628 6e3c e331 a7bd
00000360: 7086 043e 1c6d a63d cf29 5d3d cd71 623c
00000370: 257b 5ebd 10e6 1fbd cbb6 58bd 9123 3cbc
00000380: 5ba3 393c 91eb 423d 397a 8cbd 4764 ba3d
00000390: 918f e03c a978 fcbc fc12 673c b74e b53d
000003a0: 138c cd3c 76d9 ae3d 8790 793c 465e 75bc
000003b0: 139d 8f3b 351a c23d 4478 6cbd 9b85 5cbd
000003c0: 43fe 5a3c eb18 b8bd 582d 9db9 9674 a83b
000003d0: eff7 87bc 9e6c d8bc 058b 503a 60ee 7c3c
000003e0: 9e96 15bd 6b93 52b8 f3a8 913d 1d36 db3d
000003f0: abed d33c 1c2f e83c 48ec 8cbc 6cbb 0c3d

encoder.2.bias f4 [128]
-0.0031472181 -0.015171435 -0.048859682 0.035254817 -0.046163816 -0.032144964 -0.006692886 0.029068373
-0.0132066365 -0.010843141 -6.0976607e-05 0.053442802 -0.01813453 0.03900649 0.026164453 -0.0024785881
-0.052125096 0.031176474 -0.05878081 0.016302751 -0.005776177 -0.016629284 -0.016364828 0.0013921567
0.012595119 -0.038580485 0.00823988 -0.036825784 -0.061303724 -0.02860987 0.03447079 -0.025670638
0.013571235 -0.038530976 0.03984001 -0.011382718 0.033896778 -0.014511457 -0.045407172 0.021128744
-0.00090557284 0.034994602 -0.037978318 0.03625067 -0.026631288 -0.026125664 0.060058787 0.017684719
0.013275742 -0.016787658 -0.014924658 0.05169274 -0.072359145 0.02418234 -0.038101498 -0.022559458
0.025676442 -0.0007469582 -0.020029556 -0.014843593 -0.012718469 -0.04758381 0.02649105 0.03184255
0.018709924 -0.0022244263 -0.04272942 0.0039251195 -0.03351873 -0.020915765 0.028003246 0.07846081
0.05306357 0.08079705 -0.020451758 0.022330059 -0.03977294 0.034221724 0.009197183 0.030435618
0.081064105 -0.11004634 -0.016204707 0.023061384 0.03854803 -0.011826549 0.002253162 -0.016971715
0.030202102 -0.013209173 0.045456573 0.04927532 -0.006147595 0.033604812 0.03753147 -0.0579237
0.010649692 0.0313861 -0.019965146 0.031569943 0.012631035 -0.0058364696 -0.03991655 0.010248992
0.056919124 0.033395354 -0.006761842 0.004564537 0.0004925102 -0.017210394 0.05956322 0.036253676
0.012951267 0.052506875 -0.07050801 -0.044858657 0.035825923 -0.011736174 0.050278865 -0.01530438
-0.022100694 -0.08014837 -0.025183685 -0.021859203 0.10887554 0.004543881 0.045107983 -0.054229088
00000000: 8f41 4ebb 9c91 78bc 1721 48bd 5b67 103d
00000010: 4516 3dbd 70aa 03bd ff4f dbbb cc20 ee3c
00000020: a660 58bc 6ea7 31bc 22c1 7fb8 d7e6 5a3d
00000030: de8e 94bc 45c5 1f3d d656 d63c cf6f 22bb
00000040: 2081 55bd ce65 ff3c 26c4 70bd 598d 853c
00000050: 1646 bdbb 233a 88bc 880f 86bc 0779 b63a
00000060: c25b 4e3c 9206 1ebd 9000 073c a2d6 16bd
00000070: 9d19 7bbd 3f5f eabc 3e31 0d3d 3b4b d2bc
00000080: e359 5e3c a8d2 1dbd 472f 233d 947e 3abc
00000090: 59d7 0a3d 76c1 6dbc dffc 39bd 3016 ad3c
000000a0: f763 6dba 8056 0f3d 278f 1bbd 957b 143d
000000b0: dc29 dabc 7d05 d6bc 3400 763d 8bdf 903c
000000c0: 7f82 593c 4586 89bc 8e86 74bc c4bb 533d
000000d0: 0831 94bd 0b1a c63c 5110 1cbd 9dce b8bc
000000e0: 6757 d23c 84cf 43ba 0615 a4bc 8b32 73bc
000000f0: 2061 50bc 3ee7 42bd c203 d93c 556d 023d
00000100: 8e45 993c aec7 11bb 0b05 2fbd 4a9e 803b
00000110: f04a 09bd 8a57 abbc 1067 e53c 10b0 a03d
00000120: 3059 593d ec78 a53d 728a a7bc 87ed b63c
00000130: f3e8 22bd 142c 0c3d c8af 163c 1e54 f93c
00000140: f004 a63d fa5f e1bd bcbf 84bc 3aeb bc3c
00000150: 8ae4 1d3d 24c4 41bc c9a9 133b 4408 8bbc
00000160: 666a f73c 4a6b 58bc ac30 3a3d ebd4 493d
00000170: c471 c9bb 33a5 093d 99ba 193d 6741 6dbd
00000180: 0c7c 2e3c b68e 003d f28d a3bc 7c4f 013d
00000190: 67f2 4e3c db3f bfbb 897f 23bd 63eb 273c
000001a0: 0724 693d 91c9 083d 7192 ddbb 1d92 953b
000001b0: cd1b 013a d0fc 8cbc 90f8 733d bc7e 143d
000001c0: 8d31 543c 7311 573d 8166 90bd b6bd 37bd
000001d0: 34be 123d 1549 40bc 36f1 4d3d 39bf 7abc
000001e0: 840c b5bc d424 a4bd 044e cebc 1212 b3bc
000001f0: 24fa de3d d6e4 943b 26c3 383d 521f 5ebd

encoder.4.weight f4 [64, 128]
-0.011064404 -0.03416682 -0.14202927 0.011545176 0.06580596 0.09208932 -0.017526299 -0.035481233
-0.057914548 0.023510246 0.018079195 -0.008060191 -0.051465426 0.039716683 -0.08002146 -0.02217873
0.0666528 0.0555021 -0.08220346 0.013798062 0.0047925203 -0.013773866 -0.046950206 0.07927144
-0.012153963 -0.030380217 0.058118638 0.051940575 0.031630628 -0.042724952 -0.11892039 0.092328
0.0028157262 0.08517275 0.03459702 0.08193644 0.05370083 0.042531457 -0.033251736 -0.009247465
-0.006746829 0.046715323 0.10018193 -0.02670124 -0.07654703 0.0025188627 -0.05867392 -0.07280951
0.005578436 0.0828991 -0.124601185 0.0027603535 -0.06317181 -0.07302641 0.013898589 0.028410101
-0.020685144 0.020270253 0.050850064 -0.062968425 0.011441306 -0.032885037 -0.042512584 0.061615087
0.059073523 0.015099096 0.057278432 0.0025955949 0.030677974 0.012179275 0.04074201 -0.06480617
-0.021685522 0.10565671 -0.013412133 0.07965443 0.005200806 -0.033962283 -0.018195627 0.054116905
0.022183418 0.028594576 -0.094435304 -0.0351898 0.07665213 -0.016959118 -0.07481499 -0.04625073
0.03663977 -0.093060575 0.037471183 0.015422865 -0.05974854 0.008822416 0.05244094 -0.010565811
0.08319138 0.008546386 -0.05315817 0.051856264 -0.022100367 0.050814748 -0.03236137 0.022015996
-0.14285801 -0.05603594 0.11860669 0.04158332 -0.044289574 0.04449936 0.03418555 0.0847376
0.0088224225 0.07008685 0.056580596 0.035484344 -0.09277264 -0.06837653 -0.018722966 0.015492164
-0.10499794 -0.057993352 -0.0663657 0.013478359 -0.07898599 -0.021889554 -0.10238136 0.024072098
0.031747825 0.024702825 0.0055940617 0.0711482 -0.119713284 0.047799524 -0.024590116 0.043153252
-0.020302618 -0.01782521 0.073072046 0.014141697 -0.0013565226 0.081775546 0.009585576 0.0065323072
0.024437757 -0.14025465 0.09569917 0.08833489 -0.015757434 0.1422471 0.0048016254 0.0079256585
-0.09997763 -0.02132176 -0.03053506 0.13697891 -0.025209332 0.06718597 0.031253953 0.060639493
0.09060663 0.07414576 0.01738896 -0.064025514 0.06259917 0.10812744 0.08242174 0.16569678
-0.07880626 0.02947662 -0.1011356 -0.037619654 0.115072414 -0.00018828244 0.09438768 -0.047472667
-0.11945414 -0.026617259 -0.14832737 -0.036497932 0.032285452 -0.08287778 0.0032600989 0.055688303
0.022168899 0.07649116 -0.042749364 -0.029241249 -0.05335264 -0.042429604 -0.09796019 0.03410406
-0.017321235 -0.06907832 -0.14690347 0.039009936 -0.09183445 0.024442833 -0.036500204 -0.05489602
0.032227747 -0.04650111 0.06420022 0.041671026 -0.053954702 0.004878849 0.017593293 0.08059426
0.021098388 -0.048705 0.10647725 0.07924655 -0.06279797 -0.0031711317 0.03645088 -0.007549527
0.09932011 -0.039011598 0.070623964 0.072777815 -0.105551735 -0.033293743 -0.10788274 0.018502764
-0.03629507 0.11264098 -0.049622912 -0.024930675 -0.083285086 0.098686285 -0.061468516 0.10160202
-0.1231762 -0.110316 -0.011016278 0.005404425 -0.042877816 -0.0045466307 -0.0067645693 0.2003165
0.013136503 0.013930251 -0.022955067 -0.030779237 0.010810472 0.041012764 0.052349385 -0.08462033
-0.05417649 -0.047912613 0.05622148 -0.07654276 0.03886247 -0.16291314 0.039038204 0.13847877
00000000: 7947 35bc 82f2 0bbd 1f70 11be fa27 3d3c
00000010: 46c5 863d 5399 bc3d 5093 8fbc c554 11bd
00000020: ce37 6dbd 8f98 c03c d21a 943c e40e 04bc
00000030: 69cd 52bd f6ad 223d 4be2 a3bd 2bb0 b5bc
00000040: 4381 883d 2c56 633d 4a5a a8bd 4411 623c
00000050: 930a 9d3b c8ab 61bc dc4e 40bd 1159 a23d
00000060: 6a21 47bc efdf f8bc cf0d 6e3d a4bf 543d
00000070: 1e8f 013d 5c00 2fbd 898c f3bd 7616 bd3d
00000080: 0c88 383b 0d6f ae3d 9bb5 0d3d 4bce a73d
00000090: 67f5 5b3d 7735 2e3d f932 08bd ae82 17bc
000000a0: 8114 ddbb 9158 3f3d 2f2c cd3d 8fbc dabc
000000b0: b0c4 9cbd 8113 253b 1054 70bd 271d 95bd
000000c0: 50cb b63b 01c7 a93d e82e ffbd 0ce7 343b
000000d0: 3960 81bd df8e 95bd e8b6 633c 4dbc e83c
000000e0: e473 a9bc cd0d a63c 2848 503d 97f5 80bd
000000f0: 5174 3b3c 76b2 06bd ad21 2ebd 1a60 7c3d
00000100: 14f7 713d 3362 773c ca9c 6a3d db1a 2a3b
00000110: 6050 fb3c 958b 473c 18e1 263d 19b9 84bd
00000120: d6a5 b1bc 8c62 d83d 90be 5bbc dd21 a33d
00000130: 866b aa3b 091c 0bbd ff0e 95bc b0a9 5d3d
00000140: 00ba b53c 2c3f ea3c 4c67 c1bd 2e23 10bd
00000150: cbfb 9c3d d9ed 8abc 9a38 99bd 6871 3dbd
00000160: 9513 163d 8b96 bebd 627b 193d 2fb0 7c3c
00000170: e3ba 74bd e58b 103c 50cc 563d 391c 2dbc
00000180: 3e60 aa3d 2406 0c3c 62bc 59bd 3c67 543d
00000190: d40b b5bc 2023 503d 5b8d 04bd e45a b43c
000001a0: 5f49 12be f185 65bd 10e8 f23d 4553 2a3d
000001b0: fc68 35bd f644 363d 2606 0c3d e88a ad3d
000001c0: ec8b 103c b289 8f3d 0ec1 673d 0858 113d
000001d0: 95ff bdbd ff08 8cbd e860 99bc d8d2 7d3c
000001e0: 2909 d7bd 708a 6dbd bdea 87bd 56d4 5c3c
000001f0: 68c3 a1bd b951 b3bc 52ad d1bd d932 c53c
00000200: 020a 023d 945d ca3c 644e b73b 26b6 913d
00000210: 3d2c f5bd 6fc9 433d 3671 c9bc 77c1 303d
00000220: ad51 a6bc 2d06 92bc cca6 953d 94b2 673c
00000230: 58cd b1ba f079 a73d d20c 1d3c f70c d63b
00000240: b131 c83c ea9e 0fbe edfd c33d ece8 b43d
00000250: bc15 81bc 39a9 113e f456 9d3b 9fda 013c
00000260: 12c1 ccbd f9aa aebc aa24 fabc 3344 0c3e
00000270: cd83 cebc cc98 893d 2504 003d 1e61 783d
00000280: f88f b93d bbd9 973d 4b73 8e3c cf1f 83bd
00000290: fe33 803d eb71 dd3d bbcc a83d 6bac 293e
000002a0: 2d65 a1bd f478 f13c 2e20 cfbd 1117 1abd
000002b0: 16ab eb3d af6d 45b9 544e c13d b372 42bd
000002c0: 5fa4 f4bd 700c dabc 21e3 17be db7e 15bd
000002d0: c03d 043d d3bb a9bd 62a7 553b 6b19 643d
000002e0: 8d9b b53c 66a7 9c3d f519 2fbd 588b efbc
000002f0: 4c88 5abd aaca 2dbd 5a9f c8bd b3b0 0b3d
00000300: 43e5 8dbc ef78 8dbd dd6d 16be e2c8 1f3d
00000310: b313 bcbd 563c c83c 3d81 15bd a6da 60bd
00000320: 3e01 043d f377 3ebd 687b 833d 3daf 2a3d
00000330: 9bff 5cbd c0de 9f3b cf1f 903c 9a0e a53d
00000340: 87d6 ac3c e57e 47bd bf10 da3d 044c a23d
00000350: 399c 80bd c3d2 4fbb 854d 153d 0662 f7bb
00000360: 5868 cb3d a0ca 1fbd 4ca3 903d 890c 953d
00000370: 822b d8bd 055f 08bd a0f1 dcbd 1c93 973c
00000380: 24aa 14bd 50b0 e63d 6541 4bbd 6a3b ccbc
00000390: 5f91 aabd 091c ca3d 69c6 7bbd b814 d03d
000003a0: ce43 fcbd 5bed e1bd 9e7d 34bc 9a17 b13b
000003b0: a6a0 2fbd e7fb 94bb 52a9 ddbb c51f 4d3e
000003c0: 7d3a 573c b53b 643c 440c bcbc bd24 fcbc
000003d0: 681e 313c 00fd 273d 4f6c 563d 6c4d adbd
000003e0: 2be8 5dbd 0440 44bd 7f48 663d 73c2 9cbd
000003f0: 412e 1f3d b4d2 26be 86e6 1f3d 61cd 0d3e

encoder.4.bias f4 [64]
0.07180347 -0.06770047 0.046416793 -0.07299381 -0.011859211 0.0025970829 -0.0068501574 0.088427804
-0.010421593 -0.033020817 7.582103e-05 0.016366126 0.0060021435 0.05434693 -0.07864453 -0.021350268
-0.07179169 0.016729694 0.07810362 -0.034378618 -0.027961176 -0.0015539974 0.01350134 0.026645072
0.17658724 -0.107376084 -0.040204845 0.028457083 0.039624672 -0.072655946 -0.057700995 0.050439626
-0.007803813 0.042596515 0.053368334 -0.06597576 0.018381808 -0.014157674 -0.10886607 0.009363122
-0.03814257 -0.05661201 -0.059733555 -0.094360374 -0.08861727 0.0727253 -0.004438678 -0.1527903
0.047466967 0.037409864 0.06502342 0.022911271 0.103162095 -0.058112822 0.066530906 0.028882494
0.07813187 -0.055687904 0.08044651 0.031551618 -0.08761618 -0.03878937 0.053052854 -0.064847305
00000000: b30d 933d 8ba6 8abd 891f 3e3d c77d 95bd
00000010: 234d 42bc d233 2a3b 4977 e0bb a319 b53d
00000020: 54bf 2abc d640 07bd 1b02 9f38 4112 863c
00000030: a1ad c43b e39a 5e3d 6210 a1bd c2e6 aebc
00000040: 8607 93bd b60c 893c caf4 9f3d 98d0 0cbd
00000050: d60e e5bc 80af cbba b934 5d3c c446 da3c
00000060: 49d3 343e fee7 dbbd d6ad 24bd d41e e93c
00000070: 7b4d 223d a4cc 94bd e157 6cbd c899 4e3d
00000080: 21b7 ffbb af79 2e3d c198 5a3d 4d1e 87bd
00000090: 7295 963c 97f5 67bc 2df5 debd c867 193c
000000a0: 623b 1cbd ffe1 67bd 2cab 74bd 0340 c1bd
000000b0: f97c b5bd 01f1 943d 5472 91bb 0f75 1cbe
000000c0: b96c 423d 163b 193d 002b 853d 6bb0 bb3c
000000d0: a646 d33d b607 6ebd 5b41 883d fb9a ec3c
000000e0: 9a03 a03d 0019 64bd 24c1 a43d 453c 013d
000000f0: 1d70 b3bd 9ae1 1ebd f34d 593d aace 84bd

encoder.6.weight f4 [20, 64]
-0.07080333 0.1028243 -0.05902697 0.048649285 -0.033685062 -0.1280472 -0.0586515 0.038449377
-0.061213784 -0.07026736 -0.13212205 -0.020185646 -0.15331717 -0.018538458 -0.09393714 -0.03722759
-0.0016341117 -0.07230845 0.005508759 -0.0324902 0.05676261 0.02578627 0.09596956 0.037299678
0.119101 -0.10754819 0.044178285 0.08318755 0.11868627 -0.07717549 0.025698774 -0.08361002
0.1586016 0.1032146 -0.005619374 0.114388846 0.127306 0.020012945 -0.17049992 0.103408664
-0.05560405 -0.18563196 0.14497764 -0.12943673 0.007227293 -0.102666505 0.08978277 0.025685718
0.107337825 -0.014562499 0.115163244 0.10533018 0.14980792 0.12146612 0.112277895 0.10739902
0.029935634 -0.11048699 0.03532142 -0.11704564 -0.15517038 -0.08451757 0.09158777 -0.01421324
-0.14790241 0.00088059774 -0.030684717 0.0319715 0.05213026 -0.035121262 -0.058754925 0.04027693
0.13830052 0.07974989 -0.06562009 -0.026941001 -0.064644866 0.14576818 0.061064534 -0.031138802
0.10004908 -0.0017847292 0.19256586 0.051795635 0.102742106 0.08384201 -0.07741996 0.19528574
0.07463453 0.06288785 -0.14178045 -0.09607235 0.23221794 -0.114084706 -0.20969608 0.26310048
0.057618015 0.08341298 -0.13719678 0.09356693 -0.047917455 -0.03758983 -0.08271855 -0.04801273
0.088708796 -0.11410591 0.012965757 0.06708996 -0.04966756 0.08388001 0.07477772 -0.022034293
0.08777613 0.0348891 0.03199966 -0.16326042 -0.09158504 -0.050221182 -0.10164939 -0.026899507
0.024865733 0.0041834284 -0.083483085 0.15917964 -0.05907232 -0.053719454 0.0017252978 -0.07339072
-0.08508747 0.03374065 -0.094110325 -0.14167513 -0.014799918 0.17782399 0.08491263 -0.031167788
-0.031150289 -0.10585391 0.017489344 -0.069517754 -0.040868197 -0.05803631 0.009277816 0.06186892
-0.05829668 0.07563676 -0.05811251 -0.18023986 -0.016887737 -0.15379956 0.027536798 0.08788176
-0.059980832 -0.034147527 0.030576538 0.00020531198 -0.043676447 0.17216602 -0.11766615 0.017088018
0.041329306 0.11695412 -0.1273005 -0.10454406 -0.19206683 -0.14459787 -0.12667875 0.063114785
-0.014047909 0.1514008 0.14433603 0.021148518 -0.01367059 0.0038350173 0.053754993 -0.092908986
0.13493608 0.14746104 0.15349145 -0.045199923 0.13758634 -0.21344878 -0.19406909 0.06470293
-0.15286563 -0.10608935 -0.11365533 0.036681645 -0.07419143 -0.056308247 0.050811782 -0.007404268
-0.04552025 -0.099409185 0.15999861 -0.043756213 0.015977966 0.024066979 -0.06278705 0.14163373
0.17822662 0.087255836 0.12316488 -0.155283 -0.13924232 0.12086676 0.0024145052 -0.016912598
0.052168142 -0.08775674 0.062096838 -0.11373263 -0.03357677 0.06326476 0.023956625 -0.008828317
-0.019107008 -0.15135095 0.12517564 0.097487554 0.030820457 -0.016864475 0.005890823 -0.006281707
0.03621168 -0.010251345 -0.01799382 0.0046869256 0.07103715 0.02947816 0.13672799 -0.030695096
-0.051673368 -0.024955682 0.0928028 0.10921391 0.03316676 -0.1096797 0.098296486 -0.08791486
0.08864272 -0.103098474 -0.06093705 -0.01838057 0.0477347 0.08542384 0.021718185 0.039864887
0.1212012 0.17572433 -0.18132664 -0.08758612 0.08995503 0.06442737 -0.13913073 0.010790676
00000000: 5601 91bd 8c95 d23d 44c6 71bd 7944 473d
00000010: 59f9 09bd ce1e 03be 8e3c 70bd 187d 1d3d
00000020: 4ebb 7abd 55e8 8fbd 014b 07be 5e5c a5bc
00000030: 2dff 1cbe f7dd 97bc 1e62 c0bd f57b 18bd
00000040: b12f d6ba 7416 94bd d282 b43b 7214 05bd
00000050: e97f 683d ba3d d33c b08b c43d 8cc7 183d
00000060: 3aeb f33d 3a42 dcbd 4af4 343d 3c5e aa3d
00000070: ca11 f33d 2f0e 9ebd 3c86 d23c bb3b abbd
00000080: 7568 223e 2d62 d33d ba22 b8bb b344 ea3d
00000090: 815c 023e 30f2 a33c 8897 2ebe ecc7 d33d
000000a0: 13c1 63bd 4e16 3ebe 0575 143e 108b 04be
000000b0: eed2 ec3b d142 d2bd 07e0 b73d db6a d23c
000000c0: efd3 db3d 8c97 6ebc b5da eb3d 59b7 d73d
000000d0: 3f67 193e 3bc3 f83d f4f1 e53d 04f4 db3d
000000e0: 933b f53c 0147 e2bd 31ad 103d a0b5 efbd
000000f0: fce4 1ebe 8c17 adbd 5e92 bb3d a6de 68bc
00000100: bb73 17be ead7 663a 845e fbbc 8cf4 023d
00000110: 8a86 553d 50db 0fbd 01a9 70bd 6cf9 243d
00000120: a79e 0d3e e953 a33d d363 86bd 60b3 dcbc
00000130: 8764 84bd 4144 153e ce1e 7a3d cd16 ffbc
00000140: 88e6 cc3d 93ed e9ba fc2f 453e a927 543d
00000150: 746a d23d 5cb5 ab3d 5b8e 9ebd fcf8 473e
00000160: fdd9 983d 58cb 803d e52e 11be 95c1 c4bd
00000170: 8aca 6d3e 3ea5 e9bd 92ba 56be 1bb5 863e
00000180: de00 6c3d 6dd4 aa3d 507d 0cbe 05a0 bf3d
00000190: 1845 44bd cbf7 19bd 5868 a9bd ffa8 44bd
000001a0: f5ac b53d 5cb0 e9bd 546e 543c 7666 893d
000001b0: 3670 4bbd 48c9 ab3d 1025 993d 4381 b4bc
000001c0: f9c3 b33d dfe7 0e3d 1312 033d bd2d 27be
000001d0: f090 bbbd bab4 4dbd 8e2d d0bd 5b5c dcbc
000001e0: 39b3 cb3c 2415 893b 2ef9 aabd fdff 223e
000001f0: d1f5 71bd ee08 5cbd 6323 e23a e04d 96bd
00000200: 5742 aebd a333 0a3d eabc c0bd 4913 11be
00000210: 5b7b 72bc 7e17 363e ace6 ad3d 9753 ffbc
00000220: e42e ffbc efc9 d8bd d045 8f3c 535f 8ebd
00000230: 6965 27bd 7bb7 6dbd fb01 183c 446a 7d3d
00000240: 80c8 6ebd 72e7 9a3d 6207 6ebd cc90 38be
00000250: 2758 8abc a27d 1dbe da94 e13c 5afb b33d
00000260: 76ae 75bd 47de 0bbd a67b fa3c 0449 5739
00000270: 13e6 32bd 4a4c 303e f3fa f0bd 2cfc 8b3c
00000280: eb48 293d a485 ef3d 105b 02be 321b d6bd
00000290: 2bad 44be 7711 14be 13b8 01be 5342 813d
000002a0: 3329 66bc d008 1b3e d3cc 133e a83f ad3c
000002b0: 9cfa 5fbc ea54 7b3b 322e 5c3d 1147 bebd
000002c0: af2c 0a3e 0700 173e dd2c 1d3e 8e23 39bd
000002d0: 6fe3 0c3e 5192 5abe 0cba 46be f882 843d
000002e0: cf88 1cbe 6045 d9bd 20c4 e8bd 7e3f 163d
000002f0: adf1 97bd 7aa3 66bd 0420 503d 809f f2bb
00000300: 7173 3abd 0b97 cbbd add6 233e b739 33bd
00000310: 39e4 823c 1d28 c53c 7f96 80bd 6f08 113e
00000320: 0a81 363e 30b3 b23d de3d fc3d 8202 1fbe
00000330: 8a95 0ebe fe88 f73d ad3c 1e3b 4a8c 8abc
00000340: 43ae 553d ceb9 b3bd 4159 7e3d a7ec e8bd
00000350: cc87 09bd f490 813d af40 c43c a5a4 10bc
00000360: 4d86 9cbc befb 1abe 0b2e 003e 8ea7 c73d
00000370: 2f7b fc3c 5e27 8abc ce07 c13b c7d6 cdbb
00000380: b352 143d 42f5 27bc c767 93bc c894 993b
00000390: ed7b 913d 2f7c f13c 6c02 0c3e 4874 fbbc
000003a0: 74a7 53bd dc6f ccbc 650f be3d 8bab df3d
000003b0: ded9 073d c09f e0bd ab4f c93d b50c b4bd
000003c0: 508a b53d 4b25 d3bd 2199 79bd d992 96bc
000003d0: 7685 433d b2f2 ae3d 56ea b13c 5d49 233d
000003e0: 5638 f83d 14f1 333e b1ad 39be 5a60 b3bd
000003f0: 583a b83d 7ff2 833d 4978 0ebe 60cb 303c

encoder.6.bias f4 [20]
-0.016937094 -0.0666618 -0.07375633 0.048776038 -0.025157059 0.07259979 -0.027723758 -0.046274107
-0.061963197 -0.12517002 0.06740517 0.009716097 -0.014556556 -0.044129446 -0.08404186 0.0886502
-0.04628241 0.06877767 0.09174629 -0.08211319
00000000: a9bf 8abc fb85 88bd 8f0d 97bd 62c9 473d
00000010: 2d16 cebc 33af 943d ef1c e3bc eb89 3dbd
00000020: 1fcd 7dbd 922c 00be b90b 8a3d 4430 1f3c
00000030: 9f7e 6ebc 14c1 34bd 241e acbd 3c8e b53d
00000040: a092 3dbd 4fdb 8c3d 7be5 bb3d f62a a8bd

decoder.0.weight f4 [64, 20]
-0.25243157 0.13339463 0.037261173 -0.18249476 0.09641131 0.17790209 0.15756916 -0.24596012
0.010106154 0.09735594 0.050208732 0.08302067 0.21187192 -0.11738551 -0.08238508 -0.20195423
-0.1301696 -0.07237726 -0.0020137911 -0.17471296 0.036335092 0.01737796 -0.11617168 -0.09636333
-0.23096232 -0.026811378 0.09617491 -0.27756524 -0.121114716 0.15112586 0.033151668 -0.20920919
-0.15592745 -0.17214064 -0.085758865 0.13631864 0.098518915 -0.15432803 0.17441806 -0.10021226
0.034653794 -0.020053692 0.044862825 0.08287337 0.14000233 0.061702315 -0.089466475 -0.07892346
-0.20371984 -0.07301082 0.010556408 -0.028699465 -0.020023394 0.03517736 -0.104683146 -0.23135868
-0.0022998676 -0.093497716 0.20142578 0.15537946 0.0025138033 0.12380135 -0.14342529 0.018728705
0.03806415 0.15493655 0.052835036 -0.1312066 -0.15465549 0.14843002 -0.058915295 0.122691154
0.19251199 -0.1462694 0.22670995 0.05883741 0.3855424 -0.04171569 0.096142374 0.09682342
0.116344705 -0.06978238 -0.20912267 -0.0281135 0.16546088 -0.09182701 -0.060211267 -0.13405576
-0.033262912 0.19495384 -0.17869985 0.12940502 0.10067858 0.12540609 -0.1672072 -0.09485509
-0.13383844 0.21285778 -0.10090458 -0.12600236 0.18889365 0.22710055 0.057397492 -0.18907179
0.105286755 0.0017284327 0.054628868 -0.1634723 -0.06358205 -0.13980526 -0.037073437 0.02752259
-0.062186286 -0.21858959 -0.17282888 0.015142455 0.04491439 0.019514712 -0.13354126 0.13860963
-0.15511036 -0.06705535 0.094119415 -0.068722494 -0.14226045 0.16204497 -0.15635969 0.14339371
0.060981188 0.06754854 0.18349165 -0.22344194 0.17622824 -0.006854909 0.024389004 0.19440986
0.16808012 0.047752686 0.12931503 0.21107836 -0.015703347 0.16170931 0.045931842 -0.04097117
-0.020039862 -0.023931876 -0.19878791 -0.15241848 0.1954143 0.10052244 0.05358991 -0.06833314
-0.121080495 -0.13750993 -0.02296232 0.014762948 0.19064748 0.08501411 -0.1372304 -0.04918413
-0.19832997 -0.033240624 -0.048259694 0.06081963 0.09184114 -0.023540765 -0.26390415 -0.061662268
0.24727982 -0.21299021 -0.15897891 0.098518535 0.18257447 -0.04317364 -0.07329117 -0.024076952
-0.14386721 -0.057736922 -0.038725223 -0.024744783 0.06474065 -0.12107825 -0.265845 0.053050265
0.16502136 0.16337548 0.16961956 -0.015361986 -0.045855768 -0.019982606 -0.10051081 -0.28963077
0.17676654 -0.039043907 0.16743097 -0.070827775 -0.10940834 0.22647846 -0.09141365 0.2785344
-0.032218505 0.06101133 0.07114139 -0.02420361 0.066161856 -0.12376321 0.0888385 -0.032894854
-0.008310329 0.21258585 0.1309806 -0.2044313 0.075144134 0.016714778 -0.043589305 0.28901646
-0.013874019 -0.13500549 -0.044236653 -0.12940992 0.18973635 -0.019833028 -0.14187756 0.18553226
-0.2518593 0.18039323 0.1327376 -0.17305666 -0.040764604 0.015074087 0.087033525 0.10144919
0.19965717 -0.18747257 -0.12944177 0.07686817 0.05307511 -0.07560026 -0.10585935 0.1141086
0.097040154 0.015203004 -0.20149791 -0.09288432 0.13235167 -0.039623223 0.04468159 0.09611753
0.05255312 -0.11262529 -0.024761198 0.21301451 0.23877297 -0.0035267922 -0.14716916 0.2269956
00000000: b63e 81be 9a98 083e 2c9f 183d e8df 3abe
00000010: 4b73 c53d f72b 363e cf59 213e f8dc 7bbe
00000020: 4894 253c 8d62 c73d aca7 4d3d be06 aa3d
00000030: f4f4 583e d067 f0bd 82b9 a8bd 17cd 4ebe
00000040: 2e4b 05be 873a 94bd cff9 03bb f4e7 32be
00000050: 1bd4 143d 395c 8e3c 6beb edbd 235a c5bd
00000060: 6381 6cbe 89a3 dbbc 5af7 c43d 081d 8ebe
00000070: fe0a f8bd bdc0 1a3e 0bca 073d ef3a 56be
00000080: 72ab 1fbe a345 30be 58a2 afbd 1d97 0b3e
00000090: 49c4 c93d 2b08 1ebe a69a 323e 163c cdbd
000000a0: 23f1 0d3d a447 a4bc 15c2 373d 83b9 a93d
000000b0: c55c 0f3e 91bb 7c3d 333a b7bd 9fa2 a1bd
000000c0: ef9b 50be b286 95bd c9f4 2c3c 241b ebbc
000000d0: 1a08 a4bc 2316 103d 1e64 d6bd 4ae9 6cbe
000000e0: 60b9 16bb bb7b bfbd 8f42 4e3e cb1b 1f3e
000000f0: 9fbe 243b 908b fd3d 14de 12be f16c 993c
00000100: 27e9 1b3d b0a7 1e3e 8d69 583d 065b 06be
00000110: 025e 1ebe 0afe 173e 2a51 71bd 8045 fb3d
00000120: dd21 453e a5c7 15be a726 683e 7fff 703d
00000130: d065 c53e 12de 2abd 4be6 c43d 5b4b c63d
00000140: 2246 ee3d 10ea 8ebd 4124 56be 484e e6bc
00000150: 946e 293e cd0f bcbd 17a0 76bd ea45 09be
00000160: b13e 08bd fba1 473e 18fd 36be c082 043e
00000170: 9230 ce3d 746a 003e 5d38 2bbe 6343 c2bd
00000180: f20c 09be 64f7 593e 0fa7 cebd c306 01be
00000190: 566d 413e 0c8d 683e a219 6b3d 099c 41be
000001a0: 95a0 d73d 948c e23a 85c2 5f3d 4865 27be
000001b0: 4e37 82bd 1c29 0fbe 51da 17bd 0e77 e13c
000001c0: 0cb7 7ebd f3d5 5fbe 0efa 30be 0f18 783c
000001d0: 27f8 373d 51dd 9f3c 0abf 08be afef 0d3e
000001e0: 40d5 1ebe 5154 89bd aec1 c03d 61be 8cbd
000001f0: b9ac 11be 1eef 253e c11c 20be cdd5 123e
00000200: 69c7 793d e456 8a3d 3ce5 3b3e f7cd 64be
00000210: 2d75 343e 259f e0bb 73cb c73c 6113 473e
00000220: 321d 2c3e 5298 433d 296b 043e ed24 583e
00000230: 4ea4 80bc 2097 253e 0723 3c3d 63d1 27bd
00000240: a32a a4bc c80c c4bc 0f8f 4bbe 9713 1cbe
00000250: b01a 483e b6de cd3d 1881 5b3d 3ff2 8bbd
00000260: 0df9 f7bd 67cf 0cbe 7a1b bcbc 4be0 713c
00000270: 1839 433e e11b ae3d 2086 0cbe 4c75 49bd
00000280: 0317 4bbe 5227 08bd f5ab 45bd 011e 793d
00000290: 3517 bc3d 90d8 c0bc 721e 87be 9391 7cbd
000002a0: ec36 7d3e 1b1a 5abe 5ecb 22be 16c4 c93d
000002b0: cdf4 3a3e d8d6 30bd ae19 96bd 073d c5bc
000002c0: ed51 13be 8d7d 6cbd 579e 1ebd 92b5 cabc
000002d0: bf96 843d e0f7 f7bd d61c 88be 3c4b 593d
000002e0: 5cfb 283e e74b 273e c0b0 2d3e d7b0 7bbc
000002f0: 42d3 3bbd 90b2 a3bc 9dd8 cdbd 7c4a 94be
00000300: 4a02 353e 81ec 1fbd 0673 2b3e 270e 91bd
00000310: 7b11 e0bd f8e9 673e 1437 bbbd 109c 8e3e
00000320: 8df7 03bd 04e7 793d 94b2 913d a646 c6bc
00000330: de7f 873d 9177 fdbd f6f0 b53d c1bc 06bd
00000340: 0c28 08bc 1bb0 593e c71f 063e 7056 51be
00000350: 2be5 993d 6eed 883c b38a 32bd f7f9 933e
00000360: da4f 63bc e13e 0abe 7e31 35bd 0984 04be
00000370: 3f4a 423e e078 a2bc 5a48 11be 2bfc 3d3e
00000380: b4f3 80be 01b9 383e 5eec 073e c435 31be
00000390: c9f8 26bd 4ef9 763c a23e b23d 98c4 cf3d
000003a0: ee72 4c3e cff8 3fbe 628c 04be 0f6d 9d3d
000003b0: 4965 593d 4fd4 9abd c9cc d8bd c5b1 e93d
000003c0: fdbc c63d 0516 793c 7855 4ebe 223a bebd
000003d0: 3287 073e f64b 22bd 0b04 373d 44d9 c43d
000003e0: f141 573d 17a8 e6bd ffd7 cabc 7a20 5a3e
000003f0: e780 743e c121 67bb 83b3 16be 8971 683e

decoder.0.bias f4 [64]
-0.16060278 -0.049769007 -0.14824818 -0.13337806 0.13203134 0.16272727 0.12481789 -0.18579581
-0.10549871 0.16847527 -0.05128298 0.0076309587 0.13380025 0.11691761 -0.2812497 -0.09599913
0.19868712 -0.019910887 0.03046552 0.05522006 0.031350393 0.08852682 -0.029522056 -0.15616913
0.06528367 -0.15057717 0.07103113 -0.06599009 0.09272185 -0.12271364 0.11349411 -0.019315217
-0.07356748 -0.00024197904 -0.09706449 0.14662094 -0.072373316 0.10582436 -0.020539293 -0.08955797
0.15220603 -0.057509746 -0.13928862 -0.064766444 -0.0045573204 -0.08469653 -0.0496589 0.082012095
-0.1700723 -0.004421496 0.061425272 0.12517348 0.034932893 -0.06926548 -0.1079553 0.14515698
-0.106172055 0.052614696 0.101800665 -0.11096354 0.15498737 0.040969893 0.31446958 -0.047070958
00000000: 0e75 24be 96da 4bbd 5fce 17be 4294 08be
00000010: 3933 073e faa1 263e 86a0 ff3d 4241 3ebe
00000020: b50f d8bd c884 2c3e 1a0e 52bd 1f0d fa3b
00000030: ef02 093e 8072 ef3d f6ff 8fbe 319b c4bd
00000040: a374 4b3e 281c a3bc d492 f93c 6e2e 623d
00000050: 4569 003d 8d4d b53d 3dd8 f1bc cdea 1fbe
00000060: 72b3 853d e730 1abe c578 913d d025 87bd
00000070: f4e4 bd3d 4a51 fbbd 9a6f e83d f23a 9ebc
00000080: 8caa 96bd c1bb 7db9 bfc9 c6bd cd23 163e
00000090: 7638 94bd 71ba d83d 0542 a8bc 2b6a b7bd
000000a0: e6db 1b3e 578f 6bbd ada1 0ebe 45a4 84bd
000000b0: 9355 95bb 6075 adbd 2167 4bbd f5f5 a73d
000000c0: 6f27 2ebe 32e2 90bb 1199 7b3d 7a2d 003e
000000d0: cb15 0f3d 0fdb 8dbd ab17 ddbd 08a4 143e
000000e0: bc70 d9bd 8282 573d de7c d03d da40 e3bd
000000f0: 02b5 1e3e 0cd0 273d 2802 a13e 7acd 40bd
