customized/model/trained_model/ae/ae_z_30batch_128_test_stat.pth (torch, 401597 bytes, 16 tensors)

encoder.0.weight f4 [256, 24]
0	0x3bef0783	0.0072945966
1	0xbd3b06d2	-0.0456608
2	0x3c41a973	0.011820185
3	0x3e39f17b	0.18158524
4	0x3e53656d	0.2064416
5	0x3de85a2b	0.11345323
6	0xbd87b7ab	-0.06626829
7	0xbdda360f	-0.10654842
8	0xbc6587f0	-0.014009461
9	0x3d9aba11	0.075550206
10	0x3e302d34	0.17204744
11	0xbcd23df1	-0.025664302
12	0x3da7c4c9	0.08191831
13	0xbdc146be	-0.09437321
14	0x3d28c24f	0.041200932
15	0x3d913d1e	0.07091735
16	0xbdf3ebd5	-0.11910216
17	0x3d56d418	0.052448362
18	0xbe9af50c	-0.3026508
19	0x3e6092ed	0.21931048
20	0x3e84a2e1	0.25905517
21	0x3d700af7	0.058604207
22	0xbe876dc9	-0.26450947
23	0x3e674545	0.22585018
24	0x3dee44b6	0.11634199
25	0xbe56874d	-0.2095005
26	0x3b578593	0.0032886013
27	0xbd787d3e	-0.060666315
28	0xbd971b94	-0.07378307
29	0xbe264d84	-0.16240507
30	0x3e4bcd96	0.19902644
31	0x3d708329	0.058718834
32	0x3c824330	0.015901178
33	0x3e73aaa9	0.2379557
34	0xbe0ca877	-0.13736139
35	0x3de5f3f1	0.11228169
36	0x3e3193ce	0.1734154
37	0xbc694ed7	-0.014239988
38	0xbc79d006	-0.015247351
39	0x3e004e7c	0.1252994
40	0xbe564c57	-0.20927559
41	0xbd02f5f1	-0.03197283
42	0xbe6d4e18	-0.23174322
43	0xbe5236d2	-0.20528725
44	0x3e17ff67	0.14843522
45	0x3d8568d6	0.065141365
46	0xbd5b2d38	-0.05350992
47	0xbe9c50dd	-0.30530444
48	0x3d8184ac	0.06324133
49	0xbdd7968a	-0.1052676
50	0x3cf01979	0.029309021
51	0xbd1bac45	-0.038006086
52	0xbdde9f92	-0.10870279
53	0x3e41f441	0.18940832
54	0xbcf7a1b4	-0.030228473
55	0xbdd5e65c	-0.10444328
56	0xbde40490	-0.11133683
57	0xbe4aab4e	-0.1979191
58	0x3c39f01a	0.011348749
59	0xbe2e5c3d	-0.17027374
60	0xbe8544a8	-0.26028943
61	0x3e808896	0.25104207
62	0x3df40925	0.11915807
63	0x3e8a4f94	0.27013838
64	0xbe5b988e	-0.21444914
65	0x3df439aa	0.11925061
66	0x3e70c0d1	0.23511054
67	0xbd7c4ae8	-0.061594874
68	0x3d221ce8	0.03957835
69	0xbe4ff402	-0.20307925
70	0xbe0aad89	-0.13542761
71	0x3d0482ad	0.032351185
72	0xbd7e3577	-0.062062707
73	0x3c6d4fd8	0.014484368
74	0x3dc1cd44	0.094629794
75	0x3d9b75d0	0.0759083
76	0x3e08b7a3	0.13351302
77	0x3e165b50	0.1468327
78	0xbddb2ccf	-0.10701906
79	0xbcbc1bdf	-0.022962509
80	0x3d9650eb	0.07339653
81	0x3e5744f1	0.21022393
82	0xbe2eaf8f	-0.17059158
83	0x3d168f9a	0.036758043
84	0x3de21fee	0.11041246
85	0x3cc6e7dc	0.024280481
86	0xbe304dbd	-0.17217155
87	0xbe6a52ef	-0.22883199
88	0xbd3c9a46	-0.046045564
89	0x3e22b1a0	0.15888071
90	0x3d6441bd	0.055726755
91	0xbdc7ac65	-0.097496785
92	0x3e854027	0.26025507
93	0xbdf77eba	-0.12084718
94	0x3e49cca9	0.19706978
95	0xbe7130e4	-0.23553807
96	0xbd2c4e78	-0.04206702
97	0xbd859556	-0.06522624
98	0x3e207872	0.15670946
99	0xbde82329	-0.11334831
100	0x3b927bae	0.00447031
101	0xbdae564f	-0.08512556
102	0x3e2f2cc9	0.17106928
103	0x3e010fe6	0.12603721
104	0xbda408ae	-0.08009468
105	0x3e18dec2	0.14928725
106	0x3dac8f1f	0.08425736
107	0xbc53e0fb	-0.0129320575
108	0x3e0e3f7d	0.13891406
109	0x3e886b03	0.26644143
110	0xbe882232	-0.2658859
111	0xbe815839	-0.2526262
112	0x3daf7274	0.08566752
113	0xbd664e22	-0.056226857
114	0xbe3d8c39	-0.18510522
115	0xbdf9792a	-0.12181313
116	0xbd5de66c	-0.054174826
117	0x3e12978a	0.1431562
118	0xbddc05f1	-0.10743321
119	0xbe76ba78	-0.2409457
120	0xbdc679b5	-0.096911825
121	0x3cb243a0	0.021760762
122	0x3da7cd93	0.08193507
123	0xbb1f0bff	-0.0024268625
124	0x3d98a5af	0.07453477
125	0xbe5bfae9	-0.21482433
126	0xbe688d27	-0.22710095
127	0xbda708e5	-0.08155993
128	0x3db498e6	0.088182256
129	0xbe46f249	-0.19428362
130	0xbe3750ea	-0.1790196
131	0x3e391e04	0.18077856
132	0x3d190091	0.037354056
133	0x3d957c93	0.07299151
134	0xbced3f6c	-0.028960906
135	0x3e56bb62	0.20969918
136	0xbd25b4c7	-0.040455606
137	0x3c9585dc	0.018252306
138	0x3d1f9ea9	0.03896967
139	0x3c3b88e0	0.011446208
140	0x3e8ba683	0.27275476
141	0xbd121715	-0.035666544
142	0xbc70086c	-0.014650445
143	0xbe8a64eb	-0.2703012
144	0x3bcfb1da	0.00633834
145	0xbdd4645f	-0.10370707
146	0xbda300fd	-0.07959173
147	0xbe42ef37	-0.19036566
148	0xbe3e164b	-0.18563192
149	0x3e1a4466	0.15065154
150	0x3d0a63ec	0.0337867
151	0xbd8e9522	-0.069620386
152	0x3d74a7fb	0.05973051
153	0xbdacc546	-0.084360644
154	0xbdb7bf3a	-0.089720204
155	0xbb5c694d	-0.00336321
156	0x3e2c4e56	0.16826758
157	0x3deb5452	0.11490692
158	0x3df14672	0.117810145
159	0xbd138e56	-0.036024414
160	0x3e3f5941	0.18686391
161	0x3d8a6b19	0.067587085
162	0xbe8c0141	-0.27344707
163	0xbe066e25	-0.13127954
164	0xbe7d3e54	-0.24730808
165	0x3ca29325	0.019845555
166	0x3e545e06	0.20738992
167	0x3d83933b	0.06424566
168	0x3db7f252	0.08981766
169	0x3c88f4bb	0.01671826
170	0x3dcf5d8a	0.10125263
171	0xbd2dbc5e	-0.04241597
172	0xbd8aadd6	-0.06771438
173	0x3dd82057	0.10553043
174	0xbe07c5e6	-0.13259086
175	0xbdcaf822	-0.09910609
176	0xbe7d6a85	-0.24747665
177	0xbe6e6939	-0.23282327
178	0x3e07ab45	0.13248928
179	0xbe2071e6	-0.15668449
180	0x3eb965ec	0.36210573
181	0xbe5ba986	-0.21451387
182	0x3d947d9a	0.07250519
183	0x3ea9a109	0.33130673
184	0x3ceaf6da	0.028682161
185	0xbdbff01a	-0.093719676
186	0xbd53e48c	-0.05173163
187	0xbd2b61e5	-0.041841406
188	0x3db7ebf5	0.08980552
189	0x3c92b924	0.017910548
190	0x3e3f3472	0.1867235
191	0xbc92fd69	-0.017943101
192	0x3c2cc03d	0.01054388
193	0x3d31425c	0.043276176
194	0xbe2fe25c	-0.17176193
195	0x3e36810f	0.1782267
196	0x3d97f4e3	0.07419755
197	0x3e3bde89	0.18346609
198	0x3da7b7ab	0.08189329
199	0xbd93ef34	-0.07223359
200	0xbe490b21	-0.19633152
201	0x3e373da8	0.17894614
202	0x3e56559b	0.20931093
203	0xbdbb2101	-0.09137154
204	0x3e932a71	0.28743318
205	0xbda4af7b	-0.08041283
206	0x3e432860	0.1905837
207	0x3c32c2c6	0.010910695
208	0x3e50dc6c	0.20396584
209	0xbdc6bf85	-0.09704498
210	0x3e27669e	0.16347739
211	0xbe49c1a8	-0.1970278
212	0xbddfbb08	-0.10924345
213	0xbd0c2656	-0.034216247
214	0x3ed30960	0.4121809
215	0x3d1bd789	0.038047347
216	0x3d45a921	0.048256997
217	0x3d7536c0	0.059866667
218	0x3da4efb9	0.08053536
219	0x3e02d18f	0.12775253
220	0xbe824652	-0.25444275
221	0x3d3e8031	0.04650897
222	0xbdfe1d50	-0.12407935
223	0x3c845c0e	0.016157176
224	0xbe0c81e3	-0.13721423
225	0xbe006bb8	-0.12541091
226	0x3c1d3fd9	0.009597742
227	0xbded49ef	-0.11586367
228	0xbe1d2207	-0.15345012
229	0xbdb28d71	-0.08718384
230	0x3db37b86	0.087637946
231	0x3e690b81	0.22758295
232	0x3e228880	0.15872383
233	0x3c9225c0	0.017840266
234	0x3e344dd4	0.17607814
235	0xbc40ef9f	-0.01177588
236	0x3e30e728	0.17275679
237	0xbe6198e3	-0.22030978
238	0xbe75b6f9	-0.2399558
239	0xbdc88e2d	-0.09792743
240	0x3be126a5	0.006871062
241	0xbd8d80be	-0.06909321
242	0xbdc698d7	-0.09697121
243	0xbd4f5144	-0.05061461
244	0xbe0e77de	-0.13912913
245	0x3e870e5e	0.2637815
246	0x3e592e9f	0.21209191
247	0xbd3d4f0a	-0.046217956
248	0x3dd55a99	0.10417671
249	0xbd94c1d2	-0.07263531
250	0x3e6fc773	0.23415928
251	0x3dac1ba0	0.084037066
252	0xbdd437c5	-0.103622
253	0xbc9bc2de	-0.019013818
254	0x3de8db41	0.11369944
255	0x3d466af2	0.048441835

encoder.0.bias f4 [256]
0	0xbe181b36	-0.1485413
1	0xbd20c35a	-0.0392488
2	0x3e14552d	0.14485617
3	0x3cdd6eed	0.027030433
4	0x3dceacfb	0.10091587
5	0x3e49887a	0.19680968
6	0x3e8d75d8	0.2762897
7	0x3d83b690	0.064313054
8	0xbe0dd52d	-0.13850851
9	0xbd79af0c	-0.060957953
10	0xbd7a8487	-0.061161544
11	0xbb523381	-0.0032074156
12	0x3d952a04	0.072834045
13	0xbe4ad0c8	-0.19806206
14	0x3e0256fe	0.12728497
15	0x3e91a50e	0.2844624
16	0xbe06ea47	-0.13175307
17	0xbe6ba56b	-0.2301232
18	0x3e1be3c2	0.15223601
19	0xbd9cd738	-0.07658237
20	0x3cae2d2f	0.02126178
21	0x3da8b2d4	0.08237234
22	0xbe27abc1	-0.16374113
23	0xbd5a959b	-0.05336533
24	0xbd972612	-0.07380308
25	0x3da5f9de	0.08104299
26	0x3e243c69	0.1603867
27	0x3bcb4f60	0.0062045306
28	0xbe039852	-0.12851074
29	0x3e1934e8	0.14961588
30	0xbdad3a95	-0.08458439
31	0x3dc7fc69	0.0976494
32	0xbd0d6aae	-0.034525566
33	0x3bb192aa	0.005419095
34	0xbcafcd36	-0.021460157
35	0x3e432ae6	0.19059333
36	0xbd9d698b	-0.07686146
37	0x3d829719	0.06376476
38	0xbe180132	-0.14844206
39	0xbddd8387	-0.108161025
40	0x3d665f46	0.056243204
41	0xbda73af9	-0.08165545
42	0xbe19413b	-0.1496629
43	0x3e280e9b	0.16411822
44	0xbe46c474	-0.19410878
45	0x3c214953	0.009844142
46	0xbd920576	-0.07129948
47	0xbe22b45b	-0.15889113
48	0xbe470458	-0.19435251
49	0xbe48add5	-0.19597562
50	0x3e595516	0.21223864
51	0xbe2274dd	-0.15864892
52	0x3e8702cf	0.2636933
53	0x3e6b938d	0.23005505
54	0xbe19a350	-0.15003705
55	0x3e57e940	0.21085072
56	0x3d8d685b	0.0690467
57	0xbe369a9c	-0.17832416
58	0x3e371ded	0.1788251
59	0x3e4154f6	0.18880066
60	0x3e05884b	0.13040273
61	0xbe28b9a3	-0.16477065
62	0xbdaa4eff	-0.083158486
63	0xbe682348	-0.22669709
64	0xbdd325ac	-0.1030992
65	0xbe4ec87c	-0.20193666
66	0x3d5fa53f	0.05460095
67	0x3c8ff7ef	0.017574279
68	0xbe2c323d	-0.1681604
69	0xbd8ec3f8	-0.06970972
70	0x3d4cd8b9	0.05001137
71	0x3e40f8ba	0.18844882
72	0x3dccd51b	0.10001584
73	0x3d64deac	0.05587642
74	0x3d2cad3d	0.0421574
75	0xbb9a8868	-0.004715968
76	0xbd91d96d	-0.07121549
77	0xbd29d912	-0.04146678
78	0x3e4aeab9	0.19816102
79	0xbbfd3f19	-0.007728469
80	0x3e29f5a1	0.16597606
81	0x3d5a21da	0.05325494
82	0xbd8429c1	-0.064532764
83	0x3e04c966	0.12967452
84	0x3d206f78	0.039168805
85	0x3c14ca80	0.009081483
86	0xbe245064	-0.16046292
87	0xbda0344f	-0.07822477
88	0xbe113710	-0.14181161
89	0xbe871150	-0.26380396
90	0x3d5fb249	0.054613385
91	0x3e295fc7	0.16540442
92	0x3e668d15	0.22514756
93	0x3d83db1b	0.064382754
94	0xbd5408ce	-0.05176621
95	0x3d18ea90	0.03733307
96	0xbe552b31	-0.20817257
97	0xbe5939e9	-0.21213497
98	0x3c438f1d	0.011935976
99	0x3e016077	0.12634455
100	0xbcf97c52	-0.030454788
101	0x3e399e94	0.18126899
102	0xbda09d0b	-0.078424536
103	0xbe1f0d3c	-0.15532392
104	0xbe0c55f2	-0.1370466
105	0xbd662597	-0.056188192
106	0x3e7fd33f	0.24982928
107	0x3a36698d	0.00069584773
108	0xbe354025	-0.1770025
109	0x3de7d6ec	0.1132029
110	0x3d84b5fe	0.06480025
111	0xbd447588	-0.04796365
112	0xbe43abc3	-0.1910849
113	0xbdb42483	-0.087960266
114	0x3e1cebee	0.15324375
115	0x3d5de5b1	0.05417413
116	0x3e70698d	0.23477764
117	0xbdd19787	-0.1023398
118	0x3d3047a0	0.043037057
119	0x3e5282c8	0.20557702
120	0x3d8b9524	0.06815556
121	0xbc8ddc9c	-0.017317109
122	0x3d8c752a	0.06858285
123	0xbd821224	-0.06351116
124	0xbdbd8918	-0.09254664
125	0xbdbb2a4e	-0.09138928
126	0xbd8c2cda	-0.06844492
127	0xbdea767f	-0.114483826
128	0xbd566618	-0.052343458
129	0x3e66575c	0.22494262
130	0x3d24a73b	0.040198546
131	0xbe273fb6	-0.16332898
132	0x3c9a3d8f	0.018828182
133	0x3e0021e4	0.12512928
134	0x3e0bfdea	0.1367108
135	0xbe141872	-0.1446245
136	0x3dd537bc	0.10411021
137	0x3dd846ef	0.105604045
138	0xbd278656	-0.040899597
139	0xbd83467b	-0.064099275
140	0x3e64a93f	0.22330187
141	0xbe2eed39	-0.17082681
142	0x3dbcf0a6	0.092255875
143	0xbdb5015e	-0.088381514
144	0xbe07e130	-0.13269496
145	0x3d465dbf	0.048429247
146	0x3e17f9ed	0.14841433
147	0x3ce3077d	0.027713532
148	0x3e8ba4f6	0.27274293
149	0xbd8f4cf5	-0.069971
150	0x3dd37623	0.10325267
151	0x3e6d384d	0.23166008
152	0xbdd68d9d	-0.10476229
153	0x3c96d05c	0.0184099
154	0x3e1a1314	0.1504634
155	0xbd9ad9ae	-0.0756105
156	0xbe2e4804	-0.1701966
157	0x3dcf0e0a	0.101100996
158	0x3cb73b41	0.022367122
159	0xbdf11d67	-0.11773186
160	0x3cdf5e92	0.027266774
161	0x3cd494b1	0.025949808
162	0xbd3c2715	-0.04593571
163	0xbc1bbc90	-0.009505406
164	0x3c825218	0.015908286
165	0x3d85f0de	0.065400824
166	0x3e2658b9	0.16244783
167	0x3e2e6985	0.1703244
168	0x3e1a6c92	0.15080479
169	0x3cd997c8	0.026561633
170	0x3e6f507a	0.23370543
171	0x3d8ca25e	0.068669066
172	0x3e082390	0.13294816
173	0x3e28e893	0.1649497
174	0xbe0b02f4	-0.13575345
175	0xbd49232f	-0.04910582
176	0xbe046a79	-0.12931241
177	0xbe6be504	-0.23036581
178	0x3dd3fc15	0.10350815
179	0xbe1bd668	-0.15218508
180	0x3d89e987	0.06733995
181	0x3e3ac359	0.18238582
182	0xbe7db69b	-0.2477669
183	0xbc9d0bcd	-0.019170666
184	0xbe6223b2	-0.22083929
185	0xbc8575cf	-0.016291527
186	0x3e216bb8	0.15763748
187	0x3e05840a	0.1303865
188	0xbe57eff1	-0.21087624
189	0x3dc29fff	0.09503173
190	0x3d22901c	0.039688215
191	0xbcf575d1	-0.029963406
192	0x3de1165e	0.10990594
193	0x3e638c19	0.22221412
194	0xbe0b4a44	-0.13602549
195	0x3e03caf3	0.12870388
196	0x3de569d2	0.11201824
197	0x3d0fef24	0.03514017
198	0x3da61f9b	0.08111497
199	0x3e6c3a8c	0.23069209
200	0x3d29ec5e	0.041485183
201	0x3dce4149	0.10071046
202	0x3ddbdac3	0.10735085
203	0xbe2f20ea	-0.171024
204	0xbd660c7b	-0.056164246
205	0xbe0b5baa	-0.13609186
206	0x3e0cba1e	0.13742873
207	0xbda608c4	-0.08107141
208	0x3d9aefb0	0.07565248
209	0xbe0ed5e0	-0.13948774
210	0xbda778c1	-0.08177329
211	0x3d1257d1	0.03572828
212	0xbe0cbdd0	-0.13744283
213	0x3e4df4aa	0.20112863
214	0x3d4828dd	0.048867095
215	0xbe914e01	-0.28379825
216	0x3cea0b70	0.028569907
217	0xbcd0142e	-0.025400247
218	0x3e2f47c0	0.17117214
219	0xbda8b8fd	-0.08238409
220	0xbc5cca7f	-0.013476013
221	0xbd47d8e6	-0.048790835
222	0x3dc3c88d	0.095597364
223	0xbe6f07d3	-0.23342828
224	0x3d6c2369	0.057650957
225	0xbda215a2	-0.079142824
226	0xbde4f2cf	-0.111791246
227	0x3daeb450	0.08530486
228	0xbe23fdcd	-0.16014786
229	0x3e2b51cb	0.1673042
230	0xbd155c9f	-0.036465283
231	0xbcdbbf75	-0.026824692
232	0x3d6f9903	0.058495533
233	0x3e515867	0.20443879
234	0x3d46bb1b	0.04851828
235	0x3dbea8e2	0.093095556
236	0xbd93a300	-0.07208824
237	0x3c89d0f6	0.016823273
238	0x3e4a5db6	0.1976231
239	0x3da23d68	0.079218686
240	0x3d8786ca	0.06617506
241	0x3d106922	0.035256512
242	0xbe17edff	-0.14836882
243	0x3d94096c	0.072283596
244	0xbe522c5a	-0.20524731
245	0x3e6ed722	0.23324254
246	0xbdb7b454	-0.08969942
247	0xbe73074b	-0.23733251
248	0x3e771c65	0.24131925
249	0x3e2a38b3	0.16623192
250	0xbe60312f	-0.21893762
251	0x3d810961	0.06300617
252	0xbe13a6f2	-0.14419153
253	0x3c626cdc	0.013819899
254	0xbd9354b8	-0.07193893
255	0x3dc9c3b4	0.098517805

encoder.2.weight f4 [128, 256]
0	0x3c648d6c	0.013949733
1	0x3c03ab2c	0.008036416
2	0xbcf9c8bd	-0.030491227
3	0xbe08b785	-0.13351257
4	0x3c8b5f59	0.017013239
5	0xbd2b0c1a	-0.041759588
6	0x3d530210	0.05151564
7	0x3bcd79ab	0.0062706075
8	0x3da84081	0.08215428
9	0x3cf035b8	0.02932249
10	0xbd8bfacb	-0.06834944
11	0xbdb94d81	-0.09047986
12	0xbcb01a68	-0.021496966
13	0xbd2f44dd	-0.042790283
14	0xb8f23b5e	-0.00011550517
15	0xbc48d2cf	-0.012257292
16	0xbd1618f7	-0.036644902
17	0x3dbb787a	0.091538385
18	0x3d5d3ff3	0.054016065
19	0x3a910965	0.0011065422
20	0x3be3d719	0.006953132
21	0xbcaae734	-0.0208622
22	0xbd52a308	-0.05142501
23	0x3bcdc279	0.0062792865
24	0xbd5e23a5	-0.054233212
25	0xbd1406f4	-0.036139444
26	0x3d92d33a	0.071691945
27	0xbcd3eaad	-0.025868738
28	0x3d1e485d	0.03864323
29	0x3d9e69b7	0.07735007
30	0x3d51211b	0.051056962
31	0x3d5d2461	0.05398977
32	0x3d0e54dd	0.0347489
33	0xbcbd146e	-0.02308103
34	0x3d0b5ad0	0.034022152
35	0x3db26114	0.087099224
36	0xbd9632a5	-0.073338784
37	0x3da94489	0.08265025
38	0x3c166024	0.009178195
39	0x3c2e947e	0.0106555205
40	0x3db114f0	0.08646572
41	0xbc82db48	-0.015973702
42	0x3ac46e84	0.001498655
43	0xbd6f5856	-0.058433853
44	0xbc744002	-0.014907839
45	0x3c9a8565	0.018862436
46	0x3b264a98	0.0025374051
47	0xbcf08135	-0.029358486
48	0xbb553ed6	-0.0032538674
49	0x3d90ef36	0.07076876
50	0x3d0a034c	0.03369455
51	0xbda00d4f	-0.078150384
52	0xbd360360	-0.044436812
53	0x3bfe7e96	0.007766555
54	0x3e0ed12c	0.1394698
55	0x3d2a0880	0.041512012
56	0xbc8b15bc	-0.016978137
57	0x3d39f86c	0.04540293
58	0xbd06a651	-0.032873455
59	0xbc9ef3c4	-0.019403346
60	0x3d6e4dbc	0.058179602
61	0xbdb31a0e	-0.08745204
62	0x3d1dec39	0.038555358
63	0xbd2938e9	-0.04131404
64	0xbe099768	-0.13436663
65	0x3d8de03a	0.069275334
66	0x3c147f1a	0.0090635065
67	0xbc0c128b	-0.008549343
68	0xbdb9ec78	-0.09078306
69	0x3d8dd97a	0.06926246
70	0x3d7d9cf1	0.06191725
71	0xbd3cd990	-0.04610592
72	0xbc97ac1e	-0.018514689
73	0xbad47fdc	-0.0016212421
74	0x3d9f899b	0.07789918
75	0xbcc5418a	-0.024079103
76	0xbcec266c	-0.028826915
77	0x3da8170f	0.08207523
78	0xbd41f613	-0.047353815
79	0x3d0cd3cd	0.034381676
80	0xbdc28cbb	-0.094994985
81	0x3d34a7c6	0.044105314
82	0xbb65bc93	-0.0035055026
83	0xbcd29920	-0.025707781
84	0x3d150c62	0.036388762
85	0xbd0859f3	-0.033288907
86	0xbd5ebde1	-0.0543803
87	0xbd251ada	-0.04030881
88	0x3d90c1df	0.07068228
89	0x3c4c3637	0.012464098
90	0xbce7457a	-0.028231371
91	0xbc4618a8	-0.012090839
92	0xbd601809	-0.05471042
93	0xbc8e9ed9	-0.017409729
94	0xbd237459	-0.03990588
95	0x3d0c1ce5	0.034207243
96	0x3d373822	0.044731267
97	0xbd843d4b	-0.06457003
98	0x3cfcd1d3	0.03086177
99	0x3d835cf9	0.064142175
100	0xbb75f38f	-0.0037529205
101	0xbd877cbf	-0.0661559
102	0x3d8e669b	0.06953164
103	0x3c8d4f67	0.017249776
104	0xbd03fa65	-0.032221217
105	0x3ce8fd74	0.028441168
106	0xbd7b6d3e	-0.06138348
107	0xbd74565d	-0.059652675
108	0x3d46cb3e	0.04853367
109	0xbc6e86b4	-0.014558483
110	0xbd87ede4	-0.06637171
111	0xbd21222f	-0.03933924
112	0xbc239b00	-0.009985685
113	0x3bd40819	0.006470692
114	0xbc1e8ca6	-0.009677088
115	0xbcd9528f	-0.026528625
116	0xbd2d3155	-0.042283375
117	0x3d6dcca3	0.058056485
118	0xbd135c68	-0.035976797
119	0x3dcbadc0	0.099452496
120	0x3d6c09b6	0.05762645
121	0x3d8c1023	0.06839015
122	0xbd031341	-0.032000784
123	0xbd9c6a4c	-0.07637462
124	0xbc24a0f5	-0.010048141
125	0xbd6cf525	-0.057850976
126	0x3cf2ea9b	0.029652884
127	0x3d8e995c	0.06962845
128	0x3c5580ad	0.013031167
129	0x3d01f3a5	0.0317265
130	0xbd69a562	-0.057042487
131	0x3bd495fa	0.006487605
132	0x3bfd8690	0.0077369884
133	0xbd8b1bc1	-0.06792403
134	0x3d546f30	0.05186385
135	0x3d04f7b2	0.032462783
136	0x3d99ceb4	0.075101286
137	0xbba53c48	-0.0050425865
138	0x3d6308cf	0.055428322
139	0x3d79a43a	0.060947634
140	0x3c2b256f	0.010445937
141	0x3d40de7a	0.04708717
142	0x3cc50fa6	0.024055313
143	0x3db42012	0.087951794
144	0xbbcea2f9	-0.006306049
145	0x3cf0fcc3	0.029417401
146	0xbdb4536b	-0.08804973
147	0x3d07666d	0.033056665
148	0xbcbc61cb	-0.02299585
149	0x3d121c3c	0.035671458
150	0x3d28b393	0.04118688
151	0xbd337d7a	-0.043820836
152	0xbd264d7f	-0.04060125
153	0xbd9efe84	-0.07763389
154	0xbd067666	-0.032827757
155	0xbc1e74e8	-0.009671427
156	0x3caadc2e	0.020856943
157	0x3bc10e19	0.005891573
158	0xbd864a58	-0.06557149
159	0xbca17ea7	-0.019713713
160	0xbcf706d0	-0.030154616
161	0xbda98933	-0.08278122
162	0xbd397304	-0.045275703
163	0xbc2816c1	-0.010259331
164	0xbc58075e	-0.01318535
165	0xbab0b757	-0.0013482374
166	0xbb9f2caf	-0.0048576216
167	0xbd5461ea	-0.05185119
168	0xbdab2279	-0.083561845
169	0xbca3f023	-0.020011967
170	0xbd29c7a8	-0.041450173
171	0x3d4938fa	0.049126603
172	0xbc3cb8c7	-0.011518664
173	0x3d8a2315	0.067449726
174	0xbd8b61f8	-0.068057954
175	0x3d40792f	0.04699057
176	0xbc7bf4cf	-0.015378191
177	0xbcf68324	-0.03009183
178	0x3d8d881e	0.06910728
179	0xbd37233a	-0.04471133
180	0xbd0b6848	-0.034034997
181	0x3d81dab3	0.06340542
182	0x3db4ac5f	0.0882194
183	0x3d2b7c43	0.041866552
184	0x3d71efb4	0.05906649
185	0x3c90ea77	0.017689927
186	0xbbb6296e	-0.005559138
187	0xbda3d774	-0.08000079
188	0x3d281321	0.041033868
189	0x3ca4f4bb	0.020136228
190	0x3ccb64f9	0.024828421
191	0xbd0f794a	-0.03502778
192	0xbd7b22c7	-0.061312463
193	0xbccce8d4	-0.025013365
194	0xbda414de	-0.080117926
195	0x3ae3c5e2	0.0017377699
196	0xbd20758a	-0.039174594
197	0xbcdee13a	-0.027207006
198	0xbd8818c1	-0.066453464
199	0xbd4bb63a	-0.04973433
200	0x3d84b8ce	0.06480561
201	0xbdf96c64	-0.12178877
202	0xbc988709	-0.018619077
203	0x3c7fc7ea	0.015611628
204	0x3d19c55f	0.037541743
205	0xbdbd6291	-0.09247316
206	0x3bba4dca	0.0056855427
207	0x3d8090c9	0.062776156
208	0x3dd83162	0.10556294
209	0x3d88d0dc	0.06680462
210	0x3c4bcc73	0.012438881
211	0x3d08c2d5	0.03338893
212	0xbce43614	-0.027857818
213	0xbc6576a5	-0.014005338
214	0x3d4d9719	0.050192926
215	0xbd1f35f8	-0.038869828
216	0xbcb400d0	-0.021973044
217	0xbcfe5fd7	-0.03105156
218	0xbd7d4279	-0.06183097
219	0x3d029027	0.031875756
220	0xbd141e6a	-0.036161818
221	0xbc6d4bef	-0.014483436
222	0xbd150804	-0.036384597
223	0x3ca1fa71	0.01977274
224	0x3c99c038	0.018768415
225	0xbc2e0648	-0.010621615
226	0xbd3debc4	-0.04636742
227	0x3c5e3bc6	0.013564056
228	0x3d9e95a9	0.07743389
229	0xbd7c52ee	-0.061602525
230	0xbd95f8bc	-0.07322833
231	0x3d86e9c2	0.065875545
232	0x3d8712c6	0.065953776
233	0x3d1f24e4	0.03885354
234	0x3c7f9d84	0.0156015195
235	0xbd294584	-0.04132606
236	0xbb6b09fd	-0.0035864108
237	0x3b95d4cd	0.004572487
238	0xbcc880c6	-0.024475466
239	0xbc62603d	-0.01381689
240	0xbd24b160	-0.04020822
241	0xbb8e8d6a	-0.004350354
242	0xbcf3ff23	-0.029784745
243	0x3d455448	0.04817608
244	0x3cdad62d	0.026713455
245	0x3cf48d6b	0.02985259
246	0x3cb2e75d	0.021838838
247	0xbd1ff466	-0.039051436
248	0xbb44e6b1	-0.003004473
249	0x3d0d432f	0.0344879
250	0xbd2cc65f	-0.04218137
251	0xbd901901	-0.07036019
252	0xbd3e9700	-0.046530724
253	0xbd834bce	-0.06410943
254	0xbd7cbd3c	-0.061703905
255	0xbda0e77d	-0.07856653

encoder.2.bias f4 [128]
0	0x3d52d47e	0.05147218
1	0xbc8edd31	-0.017439457
2	0x3b536e94	0.0032261955
3	0x3dd6a981	0.10481549
4	0x3cb37567	0.021906568
5	0xbd3857e0	-0.04500568
6	0x3d74c270	0.059755743
7	0x3d448b3a	0.04798434
8	0xbd5cae4f	-0.05387717
9	0x3d5243f1	0.051334325
10	0xbd222cc5	-0.039593477
11	0x3dc5d5b2	0.096599
12	0x3d56ee59	0.0524734
13	0xbbdb5022	-0.006692902
14	0xbd023894	-0.03179224
15	0x3c06cca8	0.008227505
16	0x3b942562	0.004521058
17	0x3d968d66	0.07351188
18	0x3cf8c083	0.030365234
19	0x3c12c032	0.008956956
20	0x3d8075ab	0.062724434
21	0xbd158787	-0.036506202
22	0xbd828960	-0.063738585
23	0xbdaaca03	-0.08339312
24	0xbd46bd34	-0.048520282
25	0x3d257361	0.040393237
26	0xbc18d8c6	-0.009329027
27	0x3c4524ab	0.012032668
28	0xbc5c4c8d	-0.0134459855
29	0x3d99d69f	0.07511639
30	0xbc93712f	-0.017998306
31	0xbd8ab537	-0.06772845
32	0x3d53e14f	0.051728543
33	0x3d253fbc	0.040343985
34	0xbd5f1fc4	-0.054473653
35	0x3c238deb	0.009982566
36	0x3c6f63d9	0.014611208
37	0x38df45bb	0.00010646457
38	0x3d61c6fe	0.055121414
39	0x3bd63880	0.006537497
40	0xbda73293	-0.08163943
41	0x3bb54c82	0.005532802
42	0x3cb79f0a	0.022414703
43	0x3da107a8	0.078627884
44	0x3c7a5bde	0.015280692
45	0x3c262824	0.010141406
46	0xbd7d4a26	-0.06183829
47	0xbc85f2fd	-0.016351217
48	0x3c2e1df5	0.0106272595
49	0xbb667d68	-0.0035169963
50	0xbd450728	-0.048102528
51	0xbd92c374	-0.07166186
52	0x3ca26b53	0.019826567
53	0xbcb8977d	-0.022533173
54	0xbcb0f179	-0.021599518
55	0x3cc2a7d5	0.02376167
56	0x3d4221ff	0.047395702
57	0x3b025e15	0.0019892503
58	0x3b126583	0.0022338338
59	0xbc419c79	-0.011817091
60	0x3d60d819	0.054893587
61	0xbd6f3f43	-0.05840994
62	0xbd777cf5	-0.060421903
63	0xbbfd3451	-0.007727184
64	0xbd5e9490	-0.0543409
65	0x3c79957b	0.015233393
66	0x3d16048c	0.03662543
67	0x3cea607a	0.028610457
68	0x3dac8b55	0.08425013
69	0x3c823205	0.015892992
70	0x3d5a7064	0.05332984
71	0x3cbd079d	0.02307492
72	0xbccba743	-0.02486003
73	0xbd712b3f	-0.058879133
74	0xbc065ae9	-0.008200386
75	0xbce15f9a	-0.027511407
76	0xbb519d82	-0.003198475
77	0x3d066712	0.03281314
78	0x3c93c1bc	0.018036716
79	0xbd9e185d	-0.07719491
80	0x3cc87bd0	0.0244731
81	0xbd5c39a5	-0.05376591
82	0x3d38bee4	0.045103922
83	0xbb5cb0ce	-0.003367472
84	0xbc4b6704	-0.012414698
85	0x3c11b302	0.008892776
86	0xbcacc84b	-0.0210916
87	0xbb55bdf1	-0.0032614435
88	0xbc996998	-0.018727109
89	0xbd1867ec	-0.037208483
90	0x3dae21e6	0.08502559
91	0x3cd42292	0.02589539
92	0x3c1e1330	0.009648129
93	0x3d32b674	0.043631032
94	0x3d7f9b31	0.06240386
95	0xbc2221ab	-0.009895722
96	0x3d573d55	0.052548725
97	0xbcfd6068	-0.03092976
98	0xbc39df09	-0.01134468
99	0x3db124cf	0.08649599
100	0x3cfab367	0.030603124
101	0xbd236317	-0.03988942
102	0xbd9c5a3f	-0.076344006
103	0x3be91248	0.007112775
104	0x3c2b6cfc	0.010462996
105	0x3d0bb44c	0.03410749
106	0x3d123fc1	0.03570533
107	0xbd8cec6a	-0.0688103
108	0x39db2032	0.00041794922
109	0xbb3711b4	-0.0027934136
110	0xbd0701c0	-0.032960653
111	0xbca3a938	-0.01997815
112	0x3be69950	0.0070373192
113	0xbc954168	-0.018219665
114	0x3b23eb61	0.0025012123
115	0x3d24895f	0.04017007
116	0x3d00e95c	0.03147255
117	0xbcef2ce6	-0.029196214
118	0x3d439236	0.04774686
119	0x3a727c3b	0.0009250079
120	0x3d73c14c	0.059510514
121	0x3d8629df	0.06550955
122	0xbd20f522	-0.039296277
123	0x3d4a2ad0	0.049357235
124	0x3d3f65c3	0.046727907
125	0xbca837bd	-0.02053439
126	0x3d14bc19	0.036312196
127	0x3d2cfd1a	0.042233564

encoder.4.weight f4 [64, 128]
0	0x3cd2fc60	0.025755107
1	0x3d2e0662	0.042486556
2	0x3d4a2661	0.049353007
3	0xbd359b89	-0.044337783
4	0xbe33c35a	-0.1755499
5	0x3d5d5889	0.05403951
6	0x3c56f598	0.013120078
7	0x3ca6a86b	0.02034398
8	0xbd92ad4d	-0.07161961
9	0x3dbf4d0b	0.09340867
10	0x3d778e55	0.060438473
11	0x3d2ce43c	0.04220985
12	0xbca09b2c	-0.019605242
13	0x3d4a5e3d	0.04940628
14	0x3ba60ebe	0.0050676754
15	0x3d2a74b3	0.0416152
16	0x3a8c4c05	0.0010703808
17	0x37182bdc	9.070118e-06
18	0x3c008ca0	0.007846028
19	0xbd32c4e6	-0.04364481
20	0xbc33f731	-0.010984228
21	0xbd31cd5c	-0.043408737
22	0x3d9e05fa	0.07715984
23	0x3e08a64c	0.13344687
24	0x3cbb8681	0.022891285
25	0x3d783764	0.0605997
26	0x3d85dd79	0.06536383
27	0x3cb1909c	0.0216754
28	0xbdbf42c7	-0.09338909
29	0xbcf5d7c8	-0.03001012
30	0x3c813072	0.01577017
31	0x3e450533	0.19240265
32	0x3d7dd16c	0.0619673
33	0x3e250c49	0.16117968
34	0x3c4387fa	0.011934275
35	0xbda30936	-0.07960741
36	0x3d64b146	0.055833124
37	0xbd978d60	-0.07400012
38	0x3cc718d8	0.024303839
39	0xbc35348e	-0.011059893
40	0x3cc921c2	0.02455223
41	0x3d114a12	0.03547103
42	0x3c1f2e1a	0.009715581
43	0xbdc281c8	-0.0949741
44	0xbda80c22	-0.08205439
45	0xbd6592af	-0.05604809
46	0xbcab903f	-0.020942805
47	0x3dba7590	0.091044545
48	0x3cf67253	0.03008381
49	0xbe3a14df	-0.18172024
50	0x3de6de66	0.11272888
51	0xbc840114	-0.016113795
52	0xbd63450c	-0.05548577
53	0xbd45298f	-0.048135336
54	0x3db10775	0.086440004
55	0xbcff61a5	-0.03117449
56	0x3d4dc630	0.050237834
57	0xbe1ed8f3	-0.15512447
58	0xbdbc8f66	-0.092070386
59	0xbdbf6840	-0.09346056
60	0x3cdc2a4f	0.026875643
61	0xbe32fbda	-0.17478886
62	0xbdac0a39	-0.08400387
63	0xbcde2872	-0.027118895
64	0xbcfe69ad	-0.03105625
65	0x3dab2dc1	0.08358336
66	0xbdb029cc	-0.08601722
67	0xbe293d81	-0.16527368
68	0x3e1f5abc	0.15561956
69	0x3d3e6f4a	0.046492852
70	0x3ccf4e02	0.025305752
71	0xbc34de58	-0.011039339
72	0xbd98d0f5	-0.074617304
73	0x3decd6b4	0.11564389
74	0xbc77bec7	-0.015121168
75	0x3d38c67b	0.04511116
76	0xb91e1927	-0.00015077424
77	0x3deb6b20	0.11495042
78	0xbd1186b5	-0.035528857
79	0x3e02a04c	0.12756461
80	0xbcc3ae49	-0.023886817
81	0x3d0c473e	0.03424763
82	0xbdc5db27	-0.096609406
83	0xbd0fcc0e	-0.03510671
84	0x3d38d2b6	0.045122825
85	0x3e05bcd0	0.13060308
86	0xbc6d4072	-0.014480697
87	0xbd9bf17b	-0.07614418
88	0x3d86d941	0.06584407
89	0xbe0458e4	-0.12924534
90	0x3d59cdfc	0.053174958
91	0x3cf118fe	0.029430863
92	0xbcd26d75	-0.025686959
93	0xbd69bfee	-0.057067804
94	0x3d9c5bbd	0.07634685
95	0x3cd44aab	0.02591451
96	0x3b1c4777	0.0023846307
97	0x3dc07a6c	0.0939835
98	0xbd5d1746	-0.053977273
99	0x3dc35566	0.09537773
100	0x3d64be9f	0.055845853
101	0x3dd12bc9	0.102134295
102	0x3cf0dbc3	0.029401666
103	0xbddc6dfe	-0.10763167
104	0xbc1add7c	-0.00945222
105	0xbd238f00	-0.039931297
106	0x3c141ebb	0.00904053
107	0xbb9c52a2	-0.004770593
108	0x3e1754ee	0.14778492
109	0xbda887c3	-0.082290195
110	0xbd82fe79	-0.06396193
111	0xbde244d7	-0.110482864
112	0x3d2b2ec8	0.04179266
113	0xbd53c11e	-0.051697843
114	0x3d83b29d	0.06430552
115	0x3bb1d12a	0.0054265456
116	0x3d02321a	0.03178606
117	0x3ce09e56	0.02741925
118	0xbe17d509	-0.1482736
119	0x3d03aec0	0.032149076
120	0xbd76942e	-0.06019991
121	0x3dbe657f	0.092967026
122	0x3c39ddca	0.011344383
123	0x3cc142ff	0.023591517
124	0xbcb9285d	-0.022602255
125	0xbdb2893f	-0.08717584
126	0xbc08d312	-0.008351104
127	0xbc6f322e	-0.014599366
128	0xbdc233da	-0.09482546
129	0xbc1b5024	-0.009479556
130	0x3c9e6fa8	0.019340351
131	0xbc1b8257	-0.009491525
132	0x3c045afa	0.008078331
133	0xbd993307	-0.07480436
134	0x3da8768c	0.08225736
135	0x3c963b36	0.01833878
136	0xbc55e59e	-0.013055233
137	0xbd82d111	-0.063875325
138	0xbc57e353	-0.013176757
139	0x3ce5fdd3	0.028075134
140	0x3b8a7688	0.004225556
141	0xbcdbe478	-0.02684234
142	0xbaae06c2	-0.001327716
143	0x3d5eaf9a	0.054366685
144	0xbc084095	-0.008316179
145	0x3c57e500	0.013177156
146	0x3cb176d9	0.021663116
147	0x3d4eb134	0.050461963
148	0x3cb59581	0.022166016
149	0xbceb0829	-0.028690415
150	0x3da6aecc	0.081388086
151	0xbd5020c1	-0.050812487
152	0xbd391c7e	-0.045193188
153	0x3d07b4e9	0.033131514
154	0x3d7fabb4	0.06241961
155	0x3d0c210c	0.034211203
156	0xbca8ca07	-0.020604147
157	0xbd03f18d	-0.032212783
158	0xbd6be0b8	-0.057587355
159	0x3d61a321	0.055087212
160	0xbb44e3a9	-0.0030042923
161	0xbd98253c	-0.07428977
162	0x3d5ce53e	0.05392956
163	0xbd6d39b9	-0.057916377
164	0x3c330aa8	0.010927834
165	0x3d010748	0.031501085
166	0xbdae9608	-0.0852471
167	0x3d70d060	0.058792472
168	0x3d073b6f	0.033015665
169	0xbd8ce6f4	-0.06879988
170	0xbc1cc15c	-0.009567585
171	0x3d6ad854	0.057335213
172	0xbcaad1b9	-0.020851957
173	0xbe016af2	-0.12638453
174	0xbdbdae2a	-0.09261735
175	0xbd27567c	-0.040853962
176	0x3db6522e	0.08902393
177	0xbc32ae5f	-0.010905831
178	0xbc286e44	-0.010280196
179	0xbca6b755	-0.020351091
180	0x3d80993b	0.062792264
181	0xbdb9165b	-0.09037467
182	0xbdff3f8f	-0.12463295
183	0xbdb15a70	-0.08659828
184	0xbbb38bea	-0.0054793255
185	0xbd27a5cf	-0.04092961
186	0xbdb5bc21	-0.08873773
187	0x3d3d0940	0.0461514
188	0x3d812e84	0.063077
189	0xbb5bbda9	-0.0033529794
190	0xbde41922	-0.11137606
191	0xbc55ef82	-0.013057591
192	0xbd2e6fbc	-0.042587027
193	0x3d5ad631	0.053426925
194	0x3d8cfefb	0.06884571
195	0xbd523905	-0.05132391
196	0x3e053b5b	0.13010924
197	0x3d712591	0.058873717
198	0xbdb89f40	-0.090147495
199	0xbd130108	-0.035889655
200	0x3d2b871d	0.0418769
201	0x3d81857e	0.0632429
202	0xbd080bb0	-0.03321427
203	0xbdc249f2	-0.0948676
204	0x3d4e53d3	0.05037291
205	0xbd8af169	-0.067843266
206	0x3b7d521b	0.0038653675
207	0xbda7f1e0	-0.08200431
208	0xbc473a7d	-0.012159941
209	0xbd657169	-0.05601636
210	0x3c57d5eb	0.013173561
211	0x3c9c5a71	0.019086095
212	0x3bacebd5	0.005277137
213	0xbd857af3	-0.06517591
214	0xbe0347a9	-0.12820305
215	0x3dd2d810	0.10295117
216	0xbd90fb2c	-0.07079157
217	0xbcd80e41	-0.026373984
218	0xbd600c5a	-0.05469928
219	0xbd422aad	-0.04740398
220	0xbc80ce9d	-0.01572352
221	0x3d292d01	0.041302685
222	0x3d8d9756	0.06913631
223	0xbd830b36	-0.06398623
224	0x3da24ec0	0.079251766
225	0x3dc884a4	0.09790924
226	0xbd106328	-0.035250813
227	0x3bcff312	0.006346115
228	0xbbd000cf	-0.0063477526
229	0xbd62562f	-0.055257972
230	0xbc1d629f	-0.009606033
231	0xbd31704d	-0.04331999
232	0xbd348c1d	-0.044078935
233	0x3d57f3c2	0.0527227
234	0x3d8c812e	0.068605766
235	0x3d96fb47	0.07372146
236	0x3d947327	0.07248526
237	0x3d1dfec3	0.038573038
238	0xbcb79ebb	-0.022414556
239	0xbd5438d3	-0.051812004
240	0x3d3d52f2	0.04622168
241	0x3d9cff3a	0.07665868
242	0x3de3e6cc	0.111280054
243	0xbc874f00	-0.016517162
244	0x3d87d1de	0.06631826
245	0x3d94d634	0.072674185
246	0xbc9b52e3	-0.018960422
247	0xbdbb9099	-0.09158439
248	0x3c4358be	0.011923013
249	0x3d3bf063	0.045883548
250	0xbdc12756	-0.09431331
251	0xbd7626fa	-0.060095765
252	0xbd946277	-0.07245343
253	0x3c51477d	0.012773392
254	0xbc5bee8c	-0.013423573
255	0xbbadad5b	-0.0053002066

encoder.4.bias f4 [64]
0	0x3c76a55b	0.015054072
1	0xbd9bf43d	-0.07614944
2	0x3d894a3e	0.06703614
3	0x3d54d2fe	0.05195903
4	0x3cb794d5	0.022409836
5	0xbcdb364d	-0.026759291
6	0xbda0c985	-0.07850937
7	0xbd1b49c4	-0.037912145
8	0x3d74c41e	0.059757344
9	0xbd9825bc	-0.07429072
10	0x3d62386d	0.055229593
11	0xbd31acc6	-0.04337766
12	0xbdaff16a	-0.08590968
13	0xbd1defc6	-0.038558744
14	0x3dace0f5	0.08441345
15	0xbcda9eb8	-0.026687011
16	0x3c9c3ddc	0.019072466
17	0xbd8e4a80	-0.069478035
18	0x3d888d98	0.06667632
19	0x3db3b0b2	0.08773936
20	0xbc94f04b	-0.018180987
21	0xbd7184cc	-0.058964536
22	0xbbefe2b3	-0.007320726
23	0xbd30ecfc	-0.043194756
24	0xbc84438a	-0.016145486
25	0xbd6598b7	-0.056053843
26	0x3ca2603f	0.019821284
27	0xbb8b538e	-0.004251904
28	0x3d9ff33c	0.07810065
29	0xbd839233	-0.0642437
30	0xbdbef8d9	-0.09324808
31	0xbce79d9f	-0.028273402
32	0xbce307f0	-0.027713746
33	0x3c837388	0.0160463
34	0xbca9afee	-0.020713773
35	0x3da1b778	0.07896322
36	0xbd478a56	-0.04871591
37	0xbd66607e	-0.056244366
38	0xbdcfa800	-0.10139465
39	0xbca1b7df	-0.019740997
40	0xbc13d45f	-0.009022801
41	0xbd1f6941	-0.038918737
42	0x3cca5954	0.024700798
43	0xbce92b08	-0.028462902
44	0x3d606dfb	0.054792386
45	0xbc652235	-0.013985206
46	0xbcfcd085	-0.030861149
47	0xbc9e1822	-0.019298617
48	0xbdd83536	-0.10557024
49	0x3d919f2e	0.07110439
50	0xbcce3eec	-0.025176488
51	0xbd4666f0	-0.048438013
52	0x3d2347a5	0.039863247
53	0x3d8cf282	0.06882192
54	0xbb22af1b	-0.002482361
55	0x3db1185e	0.08647226
56	0xbd228587	-0.039678123
57	0xbd78c38b	-0.06073336
58	0xbd2863d6	-0.041110836
59	0xbd05a769	-0.032630358
60	0xbd174192	-0.036927767
61	0xbdd18af7	-0.102315836
62	0xbd95eefd	-0.07320974
63	0x3d9b7881	0.07591344

encoder.6.weight f4 [30, 64]
0	0xbcefc4b6	-0.029268604
1	0xbc8e67f3	-0.017383551
2	0x3ccf8bc4	0.0253352
3	0xbda5813b	-0.080812894
4	0xbd85f36e	-0.06540571
5	0xbc32cb88	-0.010912783
6	0x3ceb931a	0.028756667
7	0x3e27deda	0.16393605
8	0xbdb664de	-0.08905958
9	0x3e0aa119	0.13538016
10	0x3c1de054	0.0096360035
11	0xbdb7a175	-0.08966342
12	0x3afddbe5	0.0019367902
13	0xbdc17fd5	-0.0944821
14	0xbce58428	-0.028017119
15	0x3dac0ec5	0.084012546
16	0x3e1165a3	0.14198928
17	0xbd56f758	-0.05248198
18	0xbe0965fa	-0.13417807
19	0xbda05259	-0.078282066
20	0xbe49a4c6	-0.19691762
21	0x3dcceded	0.10006318
22	0xbdf8197c	-0.12114236
23	0x3da51d0a	0.080621794
24	0xbbc5df9a	-0.0060386183
25	0x3dc5fa1a	0.09666844
26	0x3e3625eb	0.17787902
27	0x3d132d22	0.035931714
28	0xbe13aec0	-0.1442213
29	0x3e2cedd2	0.16887596
30	0xbe2e0e1e	-0.16997573
31	0x3cadcc2c	0.02121552
32	0xbd740bbe	-0.05958151
33	0x3e2dca58	0.1697172
34	0x3d9e24d9	0.07721872
35	0x3dcf0cd8	0.101098716
36	0x3d8e7e1b	0.069576465
37	0x3d8dd400	0.069252014
38	0xbdaac6f7	-0.08338731
39	0x3d03f04b	0.032211583
40	0x3d7a0eef	0.061049398
41	0x3e70186a	0.23446813
42	0x3db5b5d2	0.0887257
43	0x3d991b2a	0.07475884
44	0xbe19c621	-0.15016986
45	0xbdcf3281	-0.10117055
46	0x3cd4d520	0.025980532
47	0x3d8dea0b	0.06929406
48	0x3d25c9fe	0.040475838
49	0xbe20d54d	-0.15706368
50	0x3c7a48ea	0.015276173
51	0xbd4ea85b	-0.050453525
52	0xbd2c526b	-0.042070787
53	0xbdb35a8a	-0.08757503
54	0xbdeba2ca	-0.11505659
55	0x3c6d026c	0.014465909
56	0x3a8eb61e	0.0010888015
57	0x3cec7d65	0.028868387
58	0xbc3a7313	-0.011379975
59	0x3d0fb8d2	0.035088368
60	0xbe0922f4	-0.1339224
61	0x3dbd79a8	0.0925172
62	0xbe305431	-0.17219616
63	0x3db9adba	0.09066339
64	0xbd59313d	-0.053025473
65	0x3e00f851	0.12594725
66	0x3d8ec0c8	0.06970364
67	0xbe0fa593	-0.14028005
68	0x3dfd07af	0.12354981
69	0x3dcbda9b	0.09953805
70	0xbe00f08a	-0.12591758
71	0x3d8acc93	0.06777301
72	0xbe00e533	-0.12587433
73	0xbe0554f7	-0.13020693
74	0x3de6f172	0.11276521
75	0x3df70389	0.12061221
76	0xbc459486	-0.0120593365
77	0xbe0fbf4f	-0.14037822
78	0x3d6f74e5	0.05846109
79	0xbcc439e2	-0.023953382
80	0x3db52e80	0.0884676
81	0xbe11817c	-0.1420955
82	0x3d801699	0.0625431
83	0xbe17c541	-0.1482134
84	0x3b2ecb30	0.0026671402
85	0x3caf7555	0.021418253
86	0xbc2c6f84	-0.010524634
87	0x3e39d44c	0.18147391
88	0x3e4174dc	0.18892235
89	0xbdda8a1a	-0.10670872
90	0x3e1889f3	0.14896373
91	0xbce85cf9	-0.028364645
92	0xbd7eef79	-0.062240098
93	0xbddcf95c	-0.10789749
94	0x3e35a7a3	0.1773973
95	0xbc9a5173	-0.018837666
96	0xbc76ea65	-0.015070532
97	0x3d0ebd70	0.03484863
98	0x3c8c8eca	0.01715793
99	0x3cec7251	0.028863104
100	0xbddd5c12	-0.10808577
101	0x3e3adce9	0.18248333
102	0xbcd9d49f	-0.026590643
103	0xbde0798e	-0.10960685
104	0x3e14603b	0.14489834
105	0x3d881c24	0.066459924
106	0x3c4d7279	0.012539499
107	0xbced4ee0	-0.028968275
108	0x3ce8d4f0	0.028421849
109	0xbe4a1b01	-0.19736864
110	0xbe21a460	-0.1578536
111	0x3ca736bb	0.02041184
112	0xbdb261d8	-0.087100685
113	0x3da67a57	0.08128803
114	0xbe1a04c4	-0.1504088
115	0xbda6cbf8	-0.08144373
116	0xbdb3a166	-0.08771019
117	0x3dbc919b	0.092074595
118	0x3cadb605	0.021204958
119	0xbd90b91f	-0.07066559
120	0xbd0cde66	-0.034391783
121	0x3d96d9c3	0.073657535
122	0xbe1c531d	-0.1526608
123	0xbdd53946	-0.10411315
124	0xbd165e08	-0.03671077
125	0x3ddc3852	0.1075293
126	0xbdbcf35c	-0.092261046
127	0xbcc9b1db	-0.02462094
128	0xbd1bd9f9	-0.03804967
129	0x3c8020db	0.015640667
130	0x3cee8b8d	0.029119277
131	0xbd324a02	-0.04352761
132	0x3db6e4ed	0.08930383
133	0xbda32495	-0.07965962
134	0xbdab66cb	-0.083692156
135	0x3d0ad601	0.033895496
136	0x3e3b02ca	0.18262783
137	0xbd9cb5b1	-0.076518424
138	0x3df9e5a6	0.12202005
139	0x3e314c2b	0.17314212
140	0x3dbdde31	0.09270895
141	0xbdc74644	-0.09730199
142	0x3ccfa5b8	0.025347576
143	0x3dc31dfc	0.095272034
144	0x3d1c5445	0.038166303
145	0x3c307bb1	0.010771678
146	0x3e0abd95	0.13548882
147	0x3dab33ab	0.08359464
148	0x3e095946	0.13412961
149	0x3d70ff6b	0.058837336
150	0x3d1c619a	0.038179018
151	0x3d5f018a	0.054444827
152	0x3e142b64	0.14469677
153	0x3e16084d	0.14651604
154	0x3d26d5b6	0.040731154
155	0x3ddbb7b7	0.107284
156	0x3d28d09a	0.041214563
157	0xbe0aab6d	-0.13541956
158	0xbd7fc7ea	-0.062446512
159	0xbd39c5e1	-0.045354728
160	0x3e17b856	0.14816412
161	0xbbe82c09	-0.0070853275
162	0x3de1db17	0.11028116
163	0xbe156bd2	-0.14591911
164	0x3db42959	0.08796949
165	0xbdf64ce3	-0.12026384
166	0x3dd715ec	0.10502228
167	0xbd6b21f8	-0.057405442
168	0xbd1beb59	-0.038066242
169	0xbcb1b321	-0.02169186
170	0x3df2594f	0.118334405
171	0x3e0a34b6	0.1349667
172	0xbd9d8891	-0.076920636
173	0x3d3c6710	0.045996726
174	0x3d5bb2c6	0.05363729
175	0xbd6f918b	-0.05848841
176	0x3e1f8ee2	0.15581849
177	0xbddf8b36	-0.10915224
178	0x3d74c301	0.059756283
179	0xbdeb33af	-0.11484467
180	0x3bb2f9d2	0.00546191
181	0x3e06a009	0.13146986
182	0xbd546774	-0.051856473
183	0x3d14d100	0.03633213
184	0x3de843de	0.1134107
185	0x3d7fc29f	0.062441465
186	0xbcec1fc5	-0.028823743
187	0xbdbd4d4b	-0.09243258
188	0xbe117785	-0.1420575
189	0xbd85f7cb	-0.065414034
190	0x3e71711f	0.23578309
191	0xbcfd54fb	-0.03092431
192	0xbe21e775	-0.1581095
193	0xbe02e1fb	-0.12781517
194	0xbdb67e25	-0.08910779
195	0x3cf85bd3	0.030317223
196	0xbd1be7ca	-0.03806285
197	0x3d0047ff	0.03131866
198	0xbe2c925a	-0.16852704
199	0xbd2b31af	-0.04179543
200	0xbc40e701	-0.011773826
201	0xbe219561	-0.1577964
202	0x3e29345d	0.16523881
203	0x3de14aa3	0.11000564
204	0xbc02569e	-0.007955221
205	0x3dea4055	0.114380516
206	0xbdaaefa3	-0.08346488
207	0xbd03b6f7	-0.03215691
208	0xbe6a8652	-0.22902802
209	0xbcad5916	-0.021160644
210	0x3de2d439	0.110756345
211	0x3ce77d68	0.02825804
212	0xbe19a189	-0.15003027
213	0xbcfd40ad	-0.030914629
214	0xbe103297	-0.14081798
215	0x3d318044	0.043335214
216	0xbd39d8ed	-0.045372892
217	0x3d0bc02b	0.034118813
218	0x3ce992f3	0.028512454
219	0x3dea1cec	0.11431298
220	0xbca930f4	-0.020653225
221	0x3e1866f0	0.14883018
222	0x3e023a2f	0.12717508
223	0x3d8e75d2	0.06956066
224	0x3d9ba097	0.075989895
225	0xbd2295a8	-0.039693505
226	0xbe3a361b	-0.18184702
227	0x3e37979e	0.17928931
228	0xbdb5ca40	-0.08876467
229	0xbdb0df80	-0.08636379
230	0xbcc2c617	-0.023776097
231	0x3bb4b25e	0.005514427
232	0xbd13949d	-0.0360304
233	0xbe3db637	-0.1852654
234	0x3dab98c2	0.083787456
235	0xbd49b94c	-0.04924898
236	0xbcbd5f5c	-0.02311676
237	0xbe1616ca	-0.14657131
238	0x3d6c119a	0.057633974
239	0x3da47484	0.08030036
240	0x3d99d320	0.07510972
241	0x3d055fbc	0.032562003
242	0xbd982385	-0.0742865
243	0x3c8b481a	0.017002154
244	0x3d1462e5	0.036227126
245	0x3df7825b	0.1208541
246	0xbdbf9e8b	-0.093564115
247	0xbc9f4875	-0.01944373
248	0x3e0eb916	0.13937792
249	0x3caf4cc4	0.02139891
250	0xbd7cfe03	-0.061765682
251	0x3ccfa575	0.02534745
252	0xbe00b5aa	-0.125693
253	0xbe446690	-0.1917975
254	0xbcdd4963	-0.027012533
255	0x3e011bcf	0.12608264

encoder.6.bias f4 [30]
0	0x3d0c73f3	0.034290265
1	0xbbe0dd4c	-0.006862318
2	0xbd5e9950	-0.05434543
3	0x3d6416d9	0.05568585
4	0xbdd49950	-0.103808045
5	0x3d89ab45	0.0672212
6	0x3e0969f5	0.13419326
7	0x3e0cd438	0.1375283
8	0x3c9f9830	0.019481748
9	0x3dc3a2c0	0.095525265
10	0x3d274a6e	0.040842466
11	0xbddb3349	-0.10703141
12	0xbd2c074b	-0.041999143
13	0x3dce2b8b	0.10066899
14	0x3da5af33	0.08090057
15	0x3db82f43	0.089933895
16	0xbcd61fc1	-0.026138188
17	0x3d82279a	0.0635521
18	0xbd436cd0	-0.047711194
19	0x3cceca4c	0.025242947
20	0xbd8cd00f	-0.068756215
21	0x3d826acd	0.06368027
22	0x3cf48867	0.029850198
23	0xba21bc3d	-0.0006169712
24	0x3d8219f4	0.063526064
25	0xbcc053e2	-0.023477498
26	0xbce11b11	-0.027478727
27	0xbdcdf96c	-0.10057339
28	0xbd8a4f28	-0.06753379
29	0x3c8a1c73	0.016859269

decoder.0.weight f4 [64, 30]
0	0x3e370b87	0.17875491
1	0xbdd768df	-0.105180494
2	0x3e28f76d	0.16500635
3	0xbc83f1cd	-0.01610651
4	0x3db812d5	0.08987967
5	0x3d55de9e	0.052214257
6	0xbcc3a365	-0.023881624
7	0x3cd98fcb	0.026557824
8	0x3dd40781	0.10352994
9	0xbdda49e2	-0.10658623
10	0x3daa8d65	0.0832775
11	0x3ce47f4c	0.027892731
12	0x3e153c7e	0.14573857
13	0x3e7c33bf	0.24629115
14	0xbe016c01	-0.12638856
15	0xbe2ccce3	-0.16875033
16	0x3deeb241	0.11655093
17	0x3d4cfbdc	0.05004488
18	0xbd949117	-0.07254236
19	0xbd20c308	-0.039248496
20	0xbe16ef91	-0.14739825
21	0x3e7754c8	0.24153435
22	0x3d0e4355	0.03473218
23	0x3e80168a	0.25017196
24	0x3d993cf0	0.07482326
25	0xbda7ec03	-0.081993125
26	0x3ddabab6	0.106801435
27	0x3d491012	0.04908759
28	0xbdf184cd	-0.11792908
29	0xbe3c1686	-0.18367967
30	0xbe5bbaf3	-0.21458034
31	0x3c32494f	0.010881736
32	0x3e0fbbec	0.1403653
33	0x3da6527d	0.08121202
34	0xbe3294eb	-0.1743962
35	0x3e3b4ea6	0.18291721
36	0x3d897e20	0.067135096
37	0x3e4b20c0	0.19836712
38	0xbcc29ee0	-0.023757398
39	0x3d393caf	0.045223888
40	0x3d045ed8	0.032317013
41	0x3d8bc304	0.06824306
42	0xbafa891e	-0.001911435
43	0x3d40a73e	0.047034495
44	0x3dca24d1	0.098703034
45	0x3e060808	0.13089001
46	0x3e2254e1	0.15852691
47	0x3d83588f	0.064133756
48	0xbdf06ab3	-0.11739101
49	0x3e16b31c	0.14716762
50	0xbe047416	-0.12934908
51	0xbdbf2c21	-0.09334589
52	0x3d46ee0b	0.04856686
53	0x3e176453	0.14784364
54	0xbe3f3110	-0.1867106
55	0xbddf0718	-0.10890025
56	0x3e133ae3	0.14377932
57	0x3d93826b	0.0720261
58	0x3e659d87	0.22423373
59	0x3df8b7b2	0.12144412
60	0x3db36f1b	0.08761426
61	0xbd7e0048	-0.062011987
62	0xbe65f8cd	-0.22458191
63	0x3c5e42c6	0.013565725
64	0x3e503a10	0.20334649
65	0x3e1a0235	0.15039904
66	0x3c334e61	0.01094398
67	0x3c76cefc	0.015063997
68	0xbd7b3ea7	-0.061339047
69	0xbd0ca013	-0.034332346
70	0x3e1c3027	0.15252744
71	0xbe9068b4	-0.28204882
72	0xbe2fcbe1	-0.17167617
73	0x3e323e6a	0.17406622
74	0xbd9aa055	-0.07550112
75	0xbd1a1a69	-0.037622843
76	0x3e23426b	0.15943305
77	0xbe3d0233	-0.1845787
78	0x3dd8e9f3	0.10591497
79	0xbe35cf7d	-0.17754932
80	0x3ce39d05	0.027784834
81	0x3dc185d6	0.09449355
82	0x3dc981d5	0.098392166
83	0xbcea9601	-0.02863598
84	0xbd14e36f	-0.03634971
85	0xbe7d6266	-0.24744567
86	0x3da58a7f	0.08083057
87	0x3d9072d0	0.07053149
88	0x3d84cade	0.06484006
89	0x3dba8e58	0.09109181
90	0xbd0786a0	-0.033087373
91	0xbb13a1b6	-0.0022526807
92	0xbbb4b351	-0.0055145402
93	0x3de21c51	0.11040557
94	0xbe074d63	-0.13213114
95	0x3e4875e8	0.19576228
96	0xbe0a6f23	-0.13518958
97	0x3d3192f1	0.043353025
98	0xbe2d4742	-0.16921714
99	0x3e32685f	0.17422627
100	0x3e1701d4	0.14746791
101	0xbdd9bfd6	-0.10632293
102	0x3e0af986	0.13571748
103	0x3e099d05	0.13438804
104	0xbdccfc21	-0.10009027
105	0x3d0ef72b	0.034903686
106	0x3e7ea9bf	0.2486944
107	0x3df6194e	0.12016545
108	0x3d87281f	0.06599449
109	0x3d4598e5	0.048241515
110	0x3e47d5d2	0.1951516
111	0xbe343798	-0.17599332
112	0xbde3c4d6	-0.11121528
113	0xbdcbdbde	-0.09954046
114	0xbc1f2be1	-0.009715051
115	0x3e5fec19	0.21867408
116	0x3e3afee8	0.18261302
117	0x3db3cb71	0.08779038
118	0xbd646d00	-0.055768013
119	0x3ba52b91	0.005040594
120	0x3d423ccb	0.047421258
121	0x3e394faa	0.18096796
122	0xbe2f29cd	-0.1710579
123	0x3dd53642	0.104107395
124	0xbdcca184	-0.09991744
125	0x3b5d5ee6	0.0033778488
126	0xbdebc1fc	-0.11511609
127	0xbbffe547	-0.0078093144
128	0xbe4c5891	-0.1995566
129	0xbdef6198	-0.116885364
130	0x3db1dcda	0.08684702
131	0xbdf67b49	-0.120352335
132	0x3d00c535	0.03143807
133	0xbe370f52	-0.17876938
134	0xbd53c339	-0.05169985
135	0xbc6df473	-0.014523613
136	0xbe56cbb0	-0.20976138
137	0xbe27ccab	-0.16386668
138	0xbe07b328	-0.13251936
139	0x3d9ad323	0.075598024
140	0x3d47db90	0.048793375
141	0x3e45eddd	0.19329019
142	0x3dd11e19	0.10210819
143	0xbe61c712	-0.22048596
144	0xbd6fc5e3	-0.05853833
145	0x3e40bf22	0.18822911
146	0x3e0fe62f	0.14052652
147	0xbc5d4674	-0.013505567
148	0xbd984f17	-0.0743696
149	0x3e49a974	0.19693547
150	0xbe16697b	-0.14688675
151	0xbc275751	-0.010213689
152	0xbde6ec3f	-0.11275529
153	0xbe193385	-0.1496106
154	0xbe3345e8	-0.17507136
155	0x3dbf458b	0.09339436
156	0x3dfd3850	0.123642564
157	0xbbf3ade6	-0.007436502
158	0x3d68168b	0.056662124
159	0x3d5eec6b	0.054424684
160	0xbe6c5641	-0.23079778
161	0x3dbd3eb8	0.09240478
162	0xbdb18f8d	-0.08669958
163	0xbc999500	-0.018747807
164	0x3e1829f8	0.1485976
165	0xbe248bab	-0.16068904
166	0x3d8820ee	0.06646906
167	0x3d8ae2e6	0.06781559
168	0x3e1572b6	0.1459454
169	0x3d2dac73	0.04240079
170	0xbd164db0	-0.036695182
171	0x3e4cf04f	0.20013545
172	0x3b5e0e46	0.003388302
173	0x3cb554d4	0.022135176
174	0xbe02895c	-0.12747711
175	0x3e19856d	0.14992304
176	0x3d73e11e	0.05954086
177	0x3d6fcd9d	0.058545697
178	0x3dd8215c	0.10553238
179	0xbe1aa810	-0.15103173
180	0xbe34d2c0	-0.1765852
181	0x3e333236	0.17499623
182	0xbd9dc6f1	-0.07703961
183	0x3dd77e3f	0.105221264
184	0x3e1c9e59	0.1529478
185	0x3d623724	0.055228367
186	0xbe0d55d5	-0.13802274
187	0x3e5f1ec3	0.21789078
188	0xbda6ad9d	-0.08138583
189	0x3dab20b3	0.08355846
190	0xbe23ce90	-0.15996766
191	0xbe2820c2	-0.16418746
192	0xbd2fa670	-0.042883337
193	0xbd0ecc2d	-0.034862686
194	0x3d8264cc	0.06366882
195	0xbcc898a9	-0.024486857
196	0x3dd97cf0	0.10619533
197	0x3d0fc404	0.035099044
198	0xbce95409	-0.028482454
199	0x3d2fb9b7	0.04290172
200	0xbddf933e	-0.10916756
201	0x3e36a444	0.178361
202	0x3d204c1e	0.03913509
203	0x3de295ab	0.11063703
204	0xbdb35eac	-0.087582916
205	0x3e2e9686	0.17049608
206	0x3e216273	0.15760212
207	0xbddd4386	-0.10803895
208	0x3c5e0a8c	0.013552319
209	0xbe325757	-0.1741613
210	0xbe04fee3	-0.12987857
211	0x3d32bd02	0.043637283
212	0x3e92c9f1	0.28669694
213	0x3e873fb8	0.264158
214	0x3d13e0f6	0.03610321
215	0x3e37fc50	0.17967343
216	0xbd985eef	-0.07439982
217	0x3c69d7d0	0.014272645
218	0xbe2a592b	-0.16635577
219	0xbd6b7de2	-0.057493098
220	0xbe1f2e43	-0.15544991
221	0x3d85b1a5	0.06528024
222	0x3e23bc78	0.15989864
223	0xbe306a1b	-0.17227976
224	0xbd5f69ef	-0.054544386
225	0xbdbbd067	-0.09170609
226	0xbe3d36fd	-0.18478008
227	0xbc843186	-0.016136896
228	0xbdc75ea5	-0.09734849
229	0x3dce38d5	0.100694336
230	0xbd69ae4b	-0.057050984
231	0xbe260f9c	-0.16216892
232	0x3d2b3ccd	0.04180603
233	0x3d849e2d	0.06475482
234	0x3d07acf4	0.033123925
235	0x3d570f9c	0.05250512
236	0xbe2d520c	-0.1692583
237	0x3e38a0a7	0.18030034
238	0xbe0c241c	-0.1368565
239	0x3c902072	0.017593596
240	0x3d740c9d	0.05958234
241	0x3ddbdc9c	0.10735437
242	0x3e859b60	0.26095104
243	0xbb0b4d00	-0.0021255612
244	0xbdc57e02	-0.09643175
245	0x3d0babcf	0.034099396
246	0xbd110502	-0.035405166
247	0x3e477590	0.1947844
248	0xbe38c357	-0.18043266
249	0x3d914117	0.07092493
250	0x3c84e6da	0.01622336
251	0xbd65728c	-0.056017444
252	0xbdc5567e	-0.09635638
253	0x3e25d677	0.16195093
254	0x3c69621d	0.014244583
255	0xbe7a613f	-0.24451159

decoder.0.bias f4 [64]
0	0xbc5f0582	-0.013612153
1	0xbd89073b	-0.06690832
2	0xbe33fd76	-0.17577156
3	0xbdb15cfd	-0.08660314
4	0xbe151141	-0.14557363
5	0xbdb8d8bf	-0.09025716
6	0x3dcf033c	0.10108039
7	0xbdad6c5f	-0.08467936
8	0x3e05bdac	0.13060635
9	0xbe4aa08e	-0.19787809
10	0xbe289ca0	-0.16465998
11	0xbe335f20	-0.17516756
12	0x3e0d790f	0.13815711
13	0x3c0556dc	0.008138385
14	0x3d13aade	0.036051624
15	0xbe30fda8	-0.17284262
16	0x3e3b83fc	0.18312067
17	0xbd039315	-0.03212269
18	0x3e55c0fe	0.20874402
19	0xbd9c74ad	-0.07639442
20	0xbdd514e3	-0.104043745
21	0xbdfde6dd	-0.12397549
22	0x3c9d6973	0.019215321
23	0xbcbbc0b4	-0.022919036
24	0xbe2e6be8	-0.1703335
25	0xbe47ab57	-0.19498955
26	0xbc99a8b2	-0.018757198
27	0xbd696abc	-0.056986555
28	0xbd7f1b03	-0.06228162
29	0xbe179287	-0.1480199
30	0xbdf183d0	-0.11792719
31	0xbc5b2425	-0.013375317
32	0x3c98a1fe	0.018631931
33	0xbe14e19f	-0.14539193
34	0x3dc3b992	0.09556879
35	0xbc68af91	-0.014202015
36	0xbd6251f0	-0.055253923
37	0xbdbebc43	-0.09313252
38	0x3e18aed7	0.14910446
39	0x3dc72cce	0.09725343
40	0xbe2391d8	-0.15973604
41	0x3ddeaf48	0.10873276
42	0xbd3145a7	-0.043279316
43	0x3e46ba6d	0.19407053
44	0x3e35f695	0.17769845
45	0xbde08f00	-0.10964775
46	0x3d16ef27	0.036849167
47	0x3dd1b6f1	0.102399714
48	0xbe27d8e6	-0.16391334
49	0xbd96dd37	-0.07366412
50	0xbdc9c642	-0.09852268
51	0xbe15b4d2	-0.14619759
52	0xbcbc6d39	-0.0230013
53	0x3e197660	0.14986563
54	0xbdc45873	-0.09587183
55	0xbe0fd449	-0.14045824
56	0xbe51f1f4	-0.20502454
57	0x3c4c502e	0.012470288
58	0x3dcb7a80	0.099354744
59	0xbdafe246	-0.0858808
60	0xbdca6a38	-0.09883541
61	0x3d40de1c	0.04708682
62	0x3e6e77e4	0.23287922
63	0x3e14e68b	0.1454107
