customized/model/trained_model/ae/ae_z_23batch_128_streamer_hn.pth (torch, 611389 bytes, 16 tensors)

encoder.0.weight f4 [256, 128]
-0.25660622 -0.06349353 0.012494669 0.0924955 0.01732035 -0.08742969 0.069192916 0.026757635
0.006146123 -0.013712232 -0.114746995 0.040815692 -0.093893275 -0.07402405 0.042577725 -0.027729135
0.11295414 -0.041865353 0.04711696 0.024219003 0.012859347 -0.015592686 0.017076151 0.12012255
0.026834501 -0.12672809 0.0037138439 0.0039010101 -0.046180643 -0.09998179 0.023403611 0.02976772
-0.05009112 0.07773318 -0.019509302 0.11561268 -0.08516219 -0.028977785 -0.12621474 -0.1353887
-0.12916058 0.0032907857 -0.045112647 -0.02334964 0.013736802 -0.039500684 -0.06357763 0.029270345
0.019309293 -0.08071796 0.042333595 -0.045467503 0.023198262 0.12357254 -0.06962158 0.01046102
-0.046981804 -0.10145703 0.008008469 0.08815875 -0.0722748 -0.0828812 -0.038549226 0.11978074
0.07762044 0.015114938 0.25661123 -0.21137941 0.06889916 -0.036331818 0.105455756 -0.0037353495
0.13851395 -0.0015105014 0.044042416 0.09852349 0.007030735 0.069883175 -0.09764435 0.06433947
0.13250361 0.05477656 -0.14891088 0.06821278 -0.004385929 0.036656454 -0.13381568 -0.068519935
-0.085308634 0.03235818 -0.07776249 -0.074671745 -0.024038585 -0.011693699 0.030076014 -0.12078319
0.04123543 0.052152447 0.004201012 0.087311596 -0.14209516 -0.022092855 -0.06997745 -0.059147134
0.024717258 -0.029480191 0.08859672 0.012338517 -0.064883865 0.091031596 -0.069868475 0.050443314
-0.016097983 0.07699428 -0.10586202 0.07366514 0.08407159 0.077001 -0.1285191 -0.054286007
-0.08921104 0.15451793 -0.015369712 -0.054175887 0.10549914 -0.19545919 0.08705852 0.018317334
-0.08756706 -0.030035095 -0.030725073 0.08336611 -0.011226464 0.07715701 -0.06693122 0.10664067
-0.10101195 -0.14828098 0.110190704 -0.12478824 0.10950063 -0.111684464 0.022609744 0.035466015
-0.058853105 0.1130038 -0.06694662 0.0033890188 0.027718652 0.010791855 0.076385096 -0.07488314
-0.05342504 0.04571894 0.03279032 -0.06978261 -0.04473987 -0.16951367 -0.009911702 0.11595117
-0.0401276 0.113969006 -0.14714617 -0.025396945 0.12663199 -0.11507061 -0.0690085 0.009344132
-0.11014994 -0.096632466 -0.07191441 -0.0072886017 -0.062014233 0.07767228 0.07071638 -0.018000456
-0.077409476 0.047771018 -0.011645285 0.0052119885 -0.047120184 -0.026436897 -0.1382273 -0.039056968
0.0009371873 -0.0025819256 0.06162595 0.0721569 0.03077338 0.016089201 -0.07978492 0.054922894
-0.084978536 -0.1637035 0.08581826 0.011485088 0.004421865 0.03882275 -0.025608977 0.090933345
0.020306101 0.03729641 0.0863109 0.083040245 0.037856206 0.06553386 0.08201341 0.004574807
0.052975424 -0.021902785 0.044881336 -0.10863313 -0.027061071 0.052584082 -0.1290032 0.07501353
0.0231158 -0.08998731 0.1061775 0.13527682 0.00012768483 -0.06891376 -0.10016293 0.08212195
-0.00864857 0.014796972 0.021418503 -0.092190936 0.039122183 -0.025501018 -0.054423384 0.04163603
0.02492413 -0.095641255 -0.115027465 0.031690676 -0.0067530777 -0.04771508 -0.048188675 0.03414282
0.12542336 0.113726564 -0.12143358 -0.16670288 0.006307953 0.0744765 -0.0004992698 0.04048254
0.00015766427 0.023602923 0.022785204 -0.11599735 0.05399802 0.01871265 0.11800277 0.06683478
00000000: e461 83be e508 82bd 71b6 4c3c 486e bd3d
00000010: 68e3 8d3c 560e b3bd 04b5 8d3d d432 db3c
00000020: 6b65 c93b 45a9 60bc 7900 ebbd 5b2e 273d
00000030: 1e4b c0bd ec99 97bd fb65 2e3d 3628 e3bc
00000040: 8054 e73d 017b 2bbd b7fd 403d ee66 c63c
00000050: 03b0 523c 7778 7fbc 49e3 8b3c d002 f63d
00000060: 07d4 db3c 02c5 01be f663 733b 17a8 7f3b
00000070: ea27 3dbd 41c3 ccbd eeb8 bf3c 6fdb f33c
00000080: 592c 4dbd 9332 9f3d f9d1 9fbc 57c6 ec3d
00000090: 8469 aebd d262 edbc 703e 01be 56a3 0abe
000000a0: ac42 04be 39aa 573b 0ac8 38bd bf47 bfbc
000000b0: 5310 613c 78cb 21bd fd34 82bd 5dc8 ef3c
000000c0: 862e 9e3c 754f a5bd fe65 2d3d 223c 3abd
000000d0: 480a be3c 9a13 fd3d c295 8ebd b364 2b3c
000000e0: fe6f 40bd b4c8 cfbd f435 033c 938c b43d
000000f0: cf04 94bd 9ebd a9bd cbe5 1dbd 9b4f f53d
00000100: 77f7 9e3d a5a4 773c 8c62 833e d873 58be
00000110: 011b 8d3d acd0 14bd 30f9 d73d c4cc 74bb
00000120: 9ad6 0d3e 04fc c5ba d265 343d afc6 c93d
00000130: 1462 e63b e91e 8f3d c3f9 c7bd 69c4 833d
00000140: 07af 073e 635d 603d 187c 18be 24b3 8b3d
00000150: d7b7 8fbb 1425 163d fa06 09be 2e54 8cbd
00000160: 4bb6 aebd 038a 043d f141 9fbd 80ed 98bd
00000170: 91ec c4bc ee96 3fbc f961 f63c 2d5d f7bd
00000180: 7be6 283d ce9d 553d a5a8 893b 6cd0 b23d
00000190: 6581 11be 13fc b4bc 5650 8fbd 4444 72bd
000001a0: d97b ca3c 7180 f1bc 3272 b53d 7e27 4a3c
000001b0: d5e1 84bd c66e ba3d 3417 8fbd a69d 4e3d
000001c0: ebdf 83bc 2daf 9d3d 30ce d8bd c0dd 963d
000001d0: ba2d ac3d b3b2 9d3d 839a 03be 015b 5ebd
000001e0: 47b4 b6bd f339 1e3e 3fd1 7bbc 89e7 5dbd
000001f0: ef0f d83d 7426 48be bd4b b23d 3c0e 963c
00000200: 5c56 b3bd 290c f6bc 26b3 fbbc dabb aa3d
00000210: 34ef 37bc 7f04 9e3d 3c13 89bd 6c66 da3d
00000220: 5adf cebd f8d6 17be aaab e13d fa90 ffbd
00000230: de41 e03d d3ba e4bd 1238 b93c d044 113d
00000240: f40f 71bd 896e e73d 4f1b 89bd 4d1a 5e3b
00000250: 3a12 e33c 52d0 303c ca6f 9c3d 555c 99bd
00000260: 37d4 5abd c943 3b3d 254f 063d 2fea 8ebd
00000270: 2741 37bd fe94 2dbe b164 22bc cf77 ed3d
00000280: d75c 24bd 9568 e93d 7cad 16be 410d d0bc
00000290: d1ab 013e 24aa ebbd 5454 8dbd 2118 193c
000002a0: 4b96 e1bd 3ee7 c5bd dd47 93bd 39d5 eebb
000002b0: a302 7ebd a512 9f3d c0d3 903d b175 93bc
000002c0: dc88 9ebd 8bab 433d decb 3ebc 54c9 aa3b
000002d0: 1801 41bd 3192 d8bc 758b 0dbe 33fa 1fbd
000002e0: 93ad 753a 8635 29bb 7e6b 7c3d ffc6 933d
000002f0: 7518 fc3c 80cd 833c 4766 a3bd d4f6 603d
00000300: 3a09 aebd e4a1 27be 7cc1 af3d f32b 3c3c
00000310: 4be5 903b 9b04 1f3d ebc9 d1bc 433b ba3d
00000320: fb58 a63c 1fc4 183d c5c3 b03d 0111 aa3d
00000330: 1c0f 1b3d 9e36 863d a6f6 a73d 43e8 953b
00000340: c2fc 583d 786d b3bc 7ed5 373d 0c7b debd
00000350: 2eaf ddbc 6862 573d 6a19 04be b2a0 993d
00000360: 595d bd3c 444b b8bd 9773 d93d 0286 0a3e
00000370: 23e3 0539 a822 8dbd 3922 cdbd 8e2f a83d
00000380: bbb2 0dbc 006f 723c db75 af3c 9ace bcbd
00000390: 953e 203d 83e7 d0bc 0eeb 5ebd 8b8a 2a3d
000003a0: b02d cc3c 90df c3bd 8593 ebbd 15ce 013d
000003b0: ec48 ddbb e370 43bd 7d61 45bd 57d9 0b3d
000003c0: fb6e 003e 79e9 e83d 2bb2 f8bd 29b4 2abe
000003d0: f2b2 ce3b 2387 983d 6ee1 02ba 05d1 253d
000003e0: ae52 2539 eb5a c13c 09a8 ba3c 0590 edbd
000003f0: 072d 5d3d 454b 993c 70ab f13d ace0 883d

encoder.0.bias f4 [256]
-0.076262936 0.08923616 -0.105575316 -0.04638849 -0.008514891 0.034225587 5.019714e-05 -0.08081752
0.13544188 -0.026584469 -0.06654551 0.10214498 0.049838033 0.07290182 -0.016369687 -0.16250624
0.13476764 0.021222802 -0.15408011 -0.07426441 0.011152546 -0.07029869 0.10639666 -0.10263027
-0.01616408 0.07639686 -0.14044303 0.050273996 0.02750397 -0.018906308 0.050729554 0.068698175
0.008550319 0.06403598 0.026424581 0.018179962 -0.030848464 -0.09087168 -0.040861063 -0.020697879
0.12063253 -0.0054715723 -0.08401673 0.048167188 0.036746036 -0.05176833 0.03632265 0.0080213435
0.034226235 0.16112094 0.09153479 0.08286457 0.066996604 0.04553967 -0.042046905 -0.08491096
0.06869505 -0.11669164 0.12876427 0.0461222 0.0457874 -0.03768883 0.09984657 0.18246502
-0.020023445 -0.11893959 0.055660494 0.23095153 0.077350385 -0.044807255 -0.07362813 -0.084419675
-0.11281357 0.05493992 0.09712945 0.0409414 -0.033124767 0.12524995 -0.07951192 -0.08173182
-0.14999896 -0.08436986 0.05575194 0.123629846 0.0005173998 -0.11590239 -0.01277091 0.025728993
0.1864753 -0.06836615 -0.09266071 -0.1284816 -0.02567553 0.021511389 0.085592434 -0.06298318
0.18614839 -0.10340239 0.02111738 0.025307635 -0.09758901 -0.14072737 -0.00025613516 -0.08132952
-0.08018702 -0.23522861 -0.008468584 0.02329451 -0.037202477 0.040259194 -0.012629961 -0.018329786
-0.066223346 0.031345487 -0.0012198458 -0.054144617 -0.022746714 -0.122037575 0.025828265 -0.092177354
0.00015616037 0.0521813 0.037818402 0.022427594 -0.16691236 -0.11299149 0.076830484 -0.07604961
0.18793407 0.11287982 -0.03230675 -0.011646472 0.069584325 0.07316816 -0.11363986 0.108972825
-0.011336579 -0.061824627 -0.0057509593 -0.14344433 -0.117792115 0.030022504 0.028918214 0.19586584
0.06560685 0.028963787 0.032831553 0.005109281 0.04085693 -0.10309801 -0.07630975 0.047871858
0.09587485 -0.07218331 0.078412436 -0.1980011 0.08722898 0.076371424 0.010049435 0.07184462
-0.06249404 -0.01434935 0.12646638 -0.05029334 -0.07334873 0.13812041 0.085537426 0.057936735
0.022464419 0.10962325 -0.013964858 0.12038999 0.07514853 -0.05220515 0.0030120066 -0.04866934
-0.021050598 -0.1691986 -0.033176035 0.012156926 -0.034117553 -0.07894966 -0.09372538 0.06160139
0.058509022 -0.050925832 -0.06183927 0.0030179846 0.024943104 -0.11844077 -0.103685476 -0.011838224
-0.06006845 -0.057176616 -0.0020183504 -0.05476897 -0.16177137 0.057489272 0.017352978 0.08877237
-0.019368269 -0.036519926 -0.0454136 0.087985516 -0.08866452 0.16201425 -0.08782662 -0.097876675
0.0035492051 -0.0007704026 0.10702684 0.02855491 -0.039062712 0.04832283 -0.16169566 0.07432351
-0.0036500518 0.043050397 0.07033443 -0.031278964 0.030003065 0.07726168 0.017455438 0.0906442
-0.06856525 -0.2521298 -0.021861488 -0.026668798 0.040350545 -0.14308996 0.11465401 -0.014854464
-0.005903582 -0.014742668 -0.10530202 0.11379029 0.049574833 -0.029235005 0.11182601 -0.020934708
-0.021853054 0.007241633 -0.0055449693 -0.09607134 0.025525905 -0.06193778 0.08392749 -0.06423942
-0.048351303 -0.060150106 0.15331377 0.11899673 0.16846836 0.009274723 0.104543775 0.049491458
00000000: be2f 9cbd 73c1 b63d df37 d8bd db01 3ebd
00000010: 0b82 0bbc 2130 0c3d c58a 5238 a883 a5bd
00000020: 47b1 0a3e acc7 d9bc 0349 88bd 6331 d13d
00000030: f722 4c3d 8d4d 953d b919 86bc 0968 26be
00000040: 8700 0a3e 71db ad3c 2dc7 1dbe f017 98bd
00000050: 2bb9 363c c2f8 8fbd 7ee6 d93d d22f d2bd
00000060: 886a 84bc f575 9c3d 4cd0 0fbe 1bec 4d3d
00000070: 0150 e13c 67e1 9abc cbc9 4f3d a1b1 8c3d
00000080: a316 0c3c 4c25 833d 5d78 d83c 25ee 943c
00000090: ebb5 fcbc ee1a babd ee5d 27bd 998e a9bc
000000a0: 300e f73d e04a b3bb f710 acbd f54a 453d
000000b0: 0383 163d 070b 54bd 0fc7 143d f46b 033c
000000c0: cf30 0c3d e3fc 243e 9876 bb3d e6b4 a93d
000000d0: 8435 893d ce87 3a3d 6039 2cbd cce5 adbd
000000e0: feaf 8c3d 07fc eebd c8da 033e a2ea 3c3d
000000f0: 928b 3b3d 9a5f 1abd 5c7c cc3d 1cd8 3a3e
00000100: 3508 a4bc 9a96 f3bd 42fc 633d 8f7e 6c3e
00000110: e169 9e3d d087 37bd 58ca 96bd 39e4 acbd
00000120: cd0a e7bd ae08 613d ceeb c63d 2bb2 273d
00000130: d6ad 07bd 8641 003e 25d7 a2bd 0363 a7bd
00000140: 5499 19be 1bca acbd 255c 643d a531 fd3d
00000150: 1da2 073a 3b5e edbd 143d 51bc 9cc5 d23c
00000160: 62f3 3e3e 8d03 8cbd e6c4 bdbd ae90 03be
00000170: 7d55 d2bc a738 b03c 164b af3d 53fd 80bd
00000180: af9d 3e3e a2c4 d3bd 5bfe ac3c f551 cf3c
00000190: bfdc c7bd d61a 10be e149 86b9 1790 a6bd
000001a0: 1839 a4bd c5df 70be d1bf 0abc 21d4 be3c
000001b0: a061 18bd d3e6 243d e5ed 4ebc 5928 96bc
000001c0: 1ba0 87bd 2064 003d 3ce3 9fba bfc6 5dbd
000001d0: 5157 babc d6ee f9bd cc95 d33c 7bc7 bcbd
000001e0: fbbe 2339 0fbc 553d 78e7 1a3d 13ba b73c
000001f0: 13eb 2abe 1568 e7bd 4d59 9d3d e6bf 9bbd
00000200: ca71 403e 892d e73d 1554 04bd d8d0 3ebc
00000210: 3a82 8e3d 30d9 953d 04bc e8bd 252d df3d
00000220: 0fbd 39bc d23b 7dbd 8b72 bcbb 12e3 12be
00000230: fe3c f1bd c1f1 f53c e4e5 ec3c 0e91 483e
00000240: e25c 863d 7745 ed3c 617a 063d c16b a73b
00000250: 9959 273d 0d25 d3bd 4948 9cbd 4815 443d
00000260: 095a c43d d8d4 93bd b396 a03d cdc0 4abe
00000270: 1ca5 b23d 9f68 9c3d 63a6 243c 4623 933d
00000280: c0f9 7fbd 8919 6bbc 6780 013e 6400 4ebd
00000290: dc37 96bd 706f 0d3e 3f2e af3d 124f 6d3d
000002a0: 4d07 b83c 2882 e03d dccc 64bc 078f f63d
000002b0: 79e7 993d 11d5 55bd 1665 453b 8059 47bd
000002c0: 4e72 acbc 6642 2dbe 98e3 07bd d82d 473c
000002d0: d9be 0bbd 5cb0 a1bd 18f3 bfbd bd51 7c3d
000002e0: 28a7 6f3d 9b97 50bd 2d4b 7dbd 61c9 453b
000002f0: 7b55 cc3c 1391 f2bd 0d59 d4bd 1cf5 41bc
00000300: 560a 76bd 0732 6abd 4d46 04bb 6d55 60bd
00000310: 65a7 25be df79 6b3d d527 8e3c 4ace b53d
00000320: 34aa 9ebc eb95 15bd 9c03 3abd c031 b43d
00000330: be95 b5bd 10e7 253e 71de b3bd 9173 c8bd
00000340: c899 683b d8f4 49ba e330 db3d fdeb e93c
00000350: 3900 20bd 29ee 453d 8c93 25be ed36 983d
00000360: b535 6fbb 9d55 303d 7f0b 903d 5f1e 00bd
00000370: fdc8 f53c 5f3b 9e3d b5fe 8e3c aba3 b93d
00000380: f06b 8cbd 2817 81be dd16 b3bc 8678 dabc
00000390: 9d46 253d 2d86 12be b9cf ea3d 2360 73bc
000003a0: d672 c1bb 3b8b 71bc 96a8 d7bd e20a e93d
000003b0: fb0e 4b3d 407e efbc 0905 e53d 447f abbc
000003c0: 2d05 b3bc 384b ed3b 93b2 b5bb 0dc1 c4bd
000003d0: b41b d13c 78b2 7dbd 2de2 ab3d f58f 83bd
000003e0: 040c 46bd f55f 76bd 49fe 1c3e 8fb4 f33d
000003f0: f882 2c3e 02f5 173c 0c1b d63d 8eb7 4a3d

encoder.2.weight f4 [128, 256]
-0.013626398 0.06196725 0.10967507 0.05941084 -0.013512097 0.02140327 -0.0024056763 0.04070252
-0.15827307 0.06828243 0.060593948 -0.082034275 -0.040060855 -0.07418554 0.0390131 0.093463026
0.0025763179 -0.06920503 0.11983435 0.0018543625 -0.010761827 0.057259824 0.009579996 -0.024632383
0.06262449 -0.12510285 0.09194246 -0.052159216 0.06414387 -0.051508244 -0.0062506218 -0.09061623
-0.0037284752 -0.11126135 0.108610325 0.013807371 -0.0632929 0.04161595 0.012250693 -0.07515127
-0.09842164 0.049913306 0.11568529 -0.06038866 0.10041456 0.104624726 0.0038323172 0.024927855
-0.0223235 -0.09996738 0.010091736 0.009111278 -0.1065539 0.10605696 0.19168967 -0.0983391
0.05940613 -0.11965022 -0.118627846 0.043366577 0.07890102 -0.038318884 -0.020543577 -0.015251307
-0.079945 0.1345008 0.016981734 0.026404314 0.009281731 -0.06530775 0.044445455 -0.0021485116
-0.07260633 -0.049628213 -0.0318938 -0.09875745 -0.05919066 0.012521578 -0.016750915 0.033561375
0.18361296 0.070837304 0.03562655 0.023278281 -0.027475163 -0.021714127 0.05534642 0.07193006
-0.047815178 0.05917508 0.015503608 0.005351784 -0.0357555 -0.054875832 -0.14541745 0.019771783
-0.047014546 -0.0750078 -0.04500696 -0.0621087 0.032565016 0.07663393 0.04814618 0.036544915
0.02493122 -0.044752877 0.09397004 0.024716303 0.13360746 -0.061418943 0.028569791 0.17603427
-0.03621603 -0.07712684 0.010320873 0.01360061 -0.060219478 0.056071375 0.017802775 0.115164876
-0.033250056 -0.030434033 -0.032383773 0.025638804 0.18369025 -0.0040512285 -0.09464344 -0.021081604
-0.036164768 -0.100397386 0.06950881 0.0063959705 -0.0134615665 0.023725573 0.10056223 0.006093052
0.038241394 0.06786876 0.08146054 0.049889285 0.019545307 0.020986479 0.0038926664 -0.053229764
-0.012424038 0.11674952 -0.05239685 0.086392015 0.008968696 0.08165668 0.050434608 0.03671258
-0.05169844 -0.038053095 -0.028839301 0.037119955 -0.11817354 -0.062354703 0.026740655 -0.038865738
-0.0036204453 -0.01200205 -0.10566346 0.088464096 0.041015062 -0.031240294 -0.06388008 0.035289675
-0.102267206 0.011178419 0.06657834 0.0029248355 0.011738283 -0.026872167 -0.009720931 0.047647566
0.090079494 0.12748525 0.036510248 -0.03592432 -0.0136292875 -0.09687967 0.10602305 0.005662619
-0.051397167 -0.06420038 0.08212521 0.03745624 -0.06722695 0.111095525 0.07264744 0.044560242
0.026314445 0.038917255 -0.06313733 0.072393164 0.058105297 0.03844406 -0.11414763 -0.109969646
0.07898392 -0.06856024 0.025055462 -0.07812022 0.028863318 0.046265397 -0.052038968 -0.05636064
0.0805986 -0.076114975 0.015937924 0.055858478 0.015844673 -0.026834434 -0.028961169 0.0631981
0.118856706 -0.11361662 -0.050890673 -0.006648445 0.029179133 0.10005334 0.02373024 -0.04498776
0.011407603 0.1464721 0.06231023 0.07964935 0.047177404 0.10147189 0.06750129 -0.043681204
-0.020425588 0.03957535 0.044087756 0.019696344 0.02650114 -0.068649106 -0.021131454 0.07403253
0.11185568 0.04501466 0.053853136 0.08482819 -0.0152286375 0.052903216 0.059038255 0.006297125
-0.14817733 -0.10298168 -0.08837436 -0.04618803 -0.09023924 0.054330938 0.015065865 -0.081512436
00000000: 4141 5fbc 5fd1 7d3d 539d e03d c858 733d
00000010: d861 5dbc e955 af3c 8da8 1dbb b0b7 263d
00000020: 5612 22be a9d7 8b3d 5c31 783d 9601 a8bd
00000030: da16 24bd 97ee 97bd 33cc 1f3d 8b69 bf3d
00000040: 71d7 283b 5ebb 8dbd b66b f53d 150e f33a
00000050: 6052 30bc 4789 6a3d 6af5 1c3c dac9 c9bc
00000060: 4541 803d f61a 00be 544c bc3d e7a4 55bd
00000070: dc5d 833d 4ffa 52bd 04d2 ccbb 0195 b9bd
00000080: 6f59 74bb fedc e3bd 176f de3d 5038 623c
00000090: b59f 81bd 7d75 2a3d 21b7 483c e9e8 99bd
000000a0: 4991 c9bd e571 4c3d 69ec ec3d 195a 77bd
000000b0: 26a6 cd3d 7d45 d63d 9d27 7b3b 8035 cc3c
000000c0: c6df b6bc b3bb ccbd cf57 253c 7847 153c
000000d0: ee38 dabd 6434 d93d 4c4a 443e 0366 c9bd
000000e0: d853 733d 2d0b f5bd 28f3 f2bd 27a1 313d
000000f0: dc96 a13d 43f4 1cbd 014b a8bc 9ee0 79bc
00000100: 34ba a3bd 94ba 093e 471d 8b3c dc4d d83c
00000110: 6712 183c 12c0 85bd 700c 363d 0bce 0cbb
00000120: a1b2 94bd f446 4bbd 13a3 02bd 5941 cabd
00000130: e871 72bd 4e27 4d3c 3739 89bc a777 093d
00000140: 0905 3c3e 2613 913d 25ed 113d 18b2 be3c
00000150: 9813 e1bc d3e1 b1bc edb2 623d 1150 933d
00000160: d9d9 43bd 9261 723d d802 7e3c 055e af3b
00000170: 5c74 12bd 7bc5 60bd 50e8 14be 6ff8 a13c
00000180: 5392 40bd b09d 99bd 3859 38bd b165 7ebd
00000190: e562 053d 40f2 9c3d ee34 453d 1fb0 153d
000001a0: 8f3c cc3c cb4e 37bd 5d73 c03d d879 ca3c
000001b0: 65d0 083e 6e92 7bbd 320b ea3c 5442 343e
000001c0: 4357 14bd adf4 9dbd e118 293c 18d5 5e3c
000001d0: b3a8 76bd 19ab 653d 20d7 913c 90db eb3d
000001e0: 3631 08bd cb50 f9bc d9a4 04bd 7808 d23c
000001f0: 4c19 3c3e 2bc0 84bb 6bd4 c1bd 54b3 acbc
00000200: 8221 14bd 259d cdbd a35a 8e3d 4a95 d13b
00000210: e78d 5cbc 225c c23c 92f3 cd3d 3aa8 c73b
00000220: 02a3 1c3d c7fe 8a3d c9d4 a63d b558 4c3d
00000230: 7b1d a03c d6eb ab3c 1b1c 7f3b 7407 5abd
00000240: 318e 4bbc 5f1a ef3d 149e 56bd 4cee b03d
00000250: 70f1 123c 9e3b a73d 8594 4e3d ee5f 163d
00000260: bec1 53bd 90dd 1bbd 6640 ecbc 180b 183d
00000270: f804 f2bd a567 7fbd 380f db3c ae31 1fbd
00000280: fe44 6dbb 3fa4 44bc 1666 d8bd aa2c b53d
00000290: 69ff 273d a5eb ffbc 8fd3 82bd e88b 103d
000002a0: 7871 d1bd b025 373c 3a5a 883d 99ae 3f3b
000002b0: ed51 403c 0523 dcbc 8a44 1fbc 182a 433d
000002c0: 997b b83d 7e8b 023e c58b 153d 6125 13bd
000002d0: 604d 5fbc d968 c6bd 9d22 d93d 7e8d b93b
000002e0: d685 52bd 7d7b 83bd 4331 a83d b76b 193d
000002f0: 48ae 89bd 0d86 e33d 2ec8 943d cd84 363d
00000300: 6491 d73c b367 1f3d 254e 81bd de42 943d
00000310: d2ff 6d3d 8577 1d3d 3cc6 e9bd c437 e1bd
00000320: 52c2 a13d 5069 8cbd 1d41 cd3c 7efd 9fbd
00000330: c472 ec3c c980 3d3d d026 55bd 6ada 66bd
00000340: e110 a53d 2be2 9bbd 4090 823c dccb 643d
00000350: b0cc 813c e3d3 dbbc f93f edbc 016e 813d
00000360: 256b f33d d5af e8bd bd72 50bd 33db d9bb
00000370: 1409 ef3c c4e8 cc3d ec65 c23c 1645 38bd
00000380: f4e6 3a3c c8fc 153e 0339 7f3d 331f a33d
00000390: 183d 413d 7fd0 cf3d 1e3e 8a3d 10eb 32bd
000003a0: 9053 a7bc c319 223d 5d95 343d 3a5a a13c
000003b0: eb18 d93c e797 8cbd df1b adbc 5e9e 973d
000003c0: 9714 e53d 4b61 383d 1b95 5c3d 67ba ad3d
000003d0: 8981 79bc 0bb1 583d 19d2 713d 1d58 ce3b
000003e0: ccbb 17be 0fe8 d2bd 9efd b4bd a92f 3dbd
000003f0: 5acf b8bd 1e8a 5e3d d1d6 763c feef a6bd

encoder.2.bias f4 [128]
-0.13182317 0.08716565 0.03381004 -0.121905036 0.063798286 0.038171485 -0.11411726 0.069413155
-0.0704227 -0.02506566 -0.05667035 0.12140913 0.09326641 -0.07235344 -0.09099982 0.1098694
-0.019401796 -0.037480302 -0.0026756912 0.050488535 -0.07665566 0.05980971 -0.14128198 0.005827293
-0.011170732 0.1303509 0.2058151 0.05986428 -0.06546339 0.039687984 -0.040174622 -0.08587857
-0.07569803 -0.056006346 0.11965907 0.045159943 0.109075025 -0.037022542 -0.030753965 0.04554773
-0.0076359645 -0.02273744 0.07769383 0.085018836 0.06602119 0.035659265 -0.0025186853 -0.04385529
0.055498265 0.106628865 0.05839427 -0.0038556347 -0.09559215 -0.011682247 0.0015733215 -0.06694088
0.0037639558 -0.017617414 0.012116749 -0.055626445 0.06372681 -0.0065282863 -0.10830776 -0.044594683
-0.043146733 0.0027906108 -0.017551824 -0.0010526533 -0.012103465 0.098722644 0.019554108 0.0031848112
-0.026112469 -0.035500426 0.097715154 -0.020841941 0.013943579 -0.021363446 -0.0006050767 -0.10030181
0.058379393 -0.009178595 0.0019616317 -0.023515185 -0.035643727 0.10437967 -0.023615222 -0.09840086
-0.07433634 0.014425501 -0.06544677 -0.014267287 -0.05480462 -0.094621755 0.06939922 -0.06625945
-0.02163369 -0.005647351 0.06110194 0.08827804 0.114089034 0.072411686 0.08605852 -0.025450706
-0.12329866 -0.09309452 -0.038570616 -0.012442214 -0.018486956 0.06183552 -0.022159893 0.045317866
-0.025019323 0.06243167 -0.023666905 0.045723952 0.111780524 -0.0022067376 -0.112047255 0.05609133
0.06982839 -0.037971593 -0.121640116 -0.005014201 -0.010047711 -0.08656838 -0.06978097 0.06341844
00000000: a7fc 06be e883 b23d 667c 0a3d 59a9 f9bd
00000010: ada8 823d b459 1c3d 4fb6 e9bd 7c28 8e3d
00000020: c739 90bd 8056 cdbc 2b1f 68bd 5aa5 f83d
00000030: 7602 bf3d 0a2e 94bd 1d5e babd 3503 e13d
00000040: 84f0 9ebc f284 19bd a65a 2fbb 11cd 4e3d
00000050: a5fd 9cbd 07fb 743d 39ac 10be e0f2 be3b
00000060: 7205 37bc b57a 053e 32c1 523e 3f34 753d
00000070: ab11 86bd de8f 223d 258e 24bd 1be1 afbd
00000080: 9207 9bbd e966 65bd d10f f53d a2f9 383d
00000090: ba62 df3d f3a4 17bd bdef fbbc 4290 3a3d
000000a0: 1d37 fabb de43 babc f11d 9f3d 5b1e ae3d
000000b0: 1e36 873d 730f 123d 8710 25bb 9ba1 33bd
000000c0: 2652 633d 3c60 da3d d42e 6f3d d1ae 7cbb
000000d0: d1c5 c3bd e566 3fbc e937 ce3a 4d18 89bd
000000e0: b3ac 763b 6552 90bc 5485 463c 8ed8 63bd
000000f0: 3483 823d 3ceb d5bb 75d0 ddbd eaa8 36bd
00000100: a1ba 30bd aee2 363b d8c8 8fbc 2ff9 89ba
00000110: 9d4d 46bc 192f ca3d f02f a03c 44b8 503b
00000120: d1e9 d5bc e568 11bd e21e c83d b8bc aabc
00000130: 9c73 643c 6502 afbc 039e 1eba 096b cdbd
00000140: 3b1f 6f3d d161 16bc b88e 003b eba2 c0bc
00000150: 28ff 11bd 02c5 d53d b674 c1bc 6486 c9bd
00000160: a73d 98bd f058 6c3c f508 86bd 57c1 69bc
00000170: cf7a 60bd 0dc9 c1bd 2e21 8e3d 09b3 87bd
00000180: 2339 b1bc 6a0d b9bb 0746 7a3d 1ecb b43d
00000190: 83a7 e93d 944c 943d 733f b03d 007e d0bc
000001a0: 0284 fcbd 57a8 bebd 39fc 1dbd 6eda 4bbc
000001b0: f571 97bc 3e47 7d3d aa88 b5bc 3a9f 393d
000001c0: 53f5 ccbc 5ab8 7f3d 19e1 c1bc 0a49 3b3d
000001d0: 30ed e43d ea9e 10bb 0879 e5bd 06c0 653d
000001e0: 3002 8f3d 1a88 1bbd 741e f9bd 2b4e a4bb
000001f0: 289f 24bc c34a b1bd 53e9 8ebd 87e1 813d

encoder.4.weight f4 [64, 128]
-0.0041933977 0.10090795 0.0076290327 -0.0005242173 -0.013025208 0.14202753 -0.10338118 -0.066283606
-0.047303665 -0.19108258 -0.10618111 0.04724186 0.13020645 -0.124449186 -0.027612003 0.051466014
-0.023341266 -0.09177976 0.112349 -0.10910089 -0.06154432 0.07091036 -0.20715824 -0.09937178
0.011014612 -0.022455178 -0.032552127 0.024362756 -0.10103321 0.12768464 -0.0029493535 -0.08168569
-0.07114442 -0.057701483 0.13583218 -0.07275841 0.058973428 -0.060358524 0.05269525 0.12553929
0.08737834 -0.046548106 0.118376 0.06832165 -0.001227738 -0.0012175082 -0.11810012 -0.008314753
0.07449724 -0.05470472 -0.06666484 -0.01861733 0.07927435 0.042794622 0.123600155 0.13677973
0.102591746 0.022134842 -0.018835051 0.01819552 0.13572824 -0.07230207 -0.006064589 -0.06912506
-0.010870779 0.1022262 0.046625864 0.0022658063 0.0005079539 0.008996922 0.16299562 -0.034589693
0.00015088923 -0.03581552 0.09129254 0.11044375 0.0036286248 0.069656625 -0.19201748 -0.11656574
0.11275902 -0.0816035 -0.03842419 0.003009847 0.046408977 0.09321931 -0.06890919 0.062394425
0.0039939876 0.055769213 -0.0960683 0.05081755 0.051477913 0.027847996 -0.11851255 0.060292155
-0.06382361 -0.0332387 0.14915065 0.033939995 -0.12710553 0.02201786 0.02560867 -0.0614062
0.01011887 -0.10213072 -0.03483056 -0.10444852 -0.038365506 -0.09771682 -0.060484085 -0.100518316
-0.12001395 0.028173778 -0.0775156 0.1436894 0.16721424 0.06830187 0.046525974 -0.030945191
-0.044872694 0.103699155 0.0036420587 -0.06505873 -0.0020371932 0.03263742 0.013119081 -0.035489384
-0.050109155 0.15667383 0.03224236 0.049578752 -0.0012979337 0.0911075 -0.013912343 -0.10791084
-0.08549881 -0.012778291 0.10160184 0.0361122 -0.01956578 -0.030431772 -0.10501579 0.023241732
0.12127526 -0.05056635 0.04295671 -0.11170892 0.06682169 0.0076071583 0.13120979 0.039358616
-0.109259315 0.14417617 0.06283564 0.07605666 -0.10187898 0.03853668 0.028474081 0.032106455
0.101423696 -0.043467138 -0.09763464 0.0069055506 0.08186481 -0.13170744 0.117897965 0.021836536
0.1027961 0.1410835 -0.12377253 0.07412243 -0.08023319 -0.0020071154 0.059852082 -0.0478299
0.026712531 0.072210684 0.026783394 -0.076086275 -0.032374885 -0.09661454 -0.111482166 0.004343597
-0.02133994 0.014039173 0.06986846 -0.058970146 -0.17136602 -0.015802126 -0.04964189 -0.013661852
0.034022823 0.074036665 0.020279229 0.066429645 -0.03036973 -0.05655742 0.0147657925 0.040389553
-0.080404796 -0.034225937 0.020445144 -0.019036064 -0.0919121 -0.11369209 -0.009438216 0.088764094
-0.041776925 0.0034121603 0.18070136 -0.07607887 -0.034965444 0.035024904 0.04054788 0.0012674007
-0.054002963 0.043585245 -0.041002035 -0.044728067 0.015433905 0.07230784 0.009265132 0.082327805
0.10092245 0.025176486 0.06318356 0.07690197 0.03968359 -0.055450384 -0.08688665 0.0036206634
-0.063407935 -0.0396683 0.0582053 -0.030899635 -0.022745496 -0.12379791 -0.005976325 -0.036791712
-0.05247816 -0.09101945 -0.12821363 -0.081395805 0.0023896215 -0.00093046005 -0.07343802 0.0023475492
0.048753746 0.007056104 0.043769747 -0.012658494 0.01375425 -0.011062235 -0.07633005 0.051405296
00000000: c568 89bb d4a8 ce3d f7fc f93b a16b 09ba
00000010: af67 55bc aa6f 113e 83b9 d3bd b3bf 87bd
00000020: 7dc1 41bd 27ab 43be 7b75 d9bd ae80 413d
00000030: d754 053e 37df febd 9132 e2bc 07ce 523d
00000040: 2f36 bfbc 07f7 bbbd 3c17 e63d 4a70 dfbd
00000050: e615 7cbd 7339 913d 4a21 54be 6f83 cbbd
00000060: a276 343c ecf3 b7bc 6155 05bd 6794 c73c
00000070: 80ea cebd c3bf 023e f149 41bb d44a a7bd
00000080: 2ab4 91bd 6458 6cbd 9717 0b3e 5c02 95bd
00000090: 1f8e 713d 803a 77bd f9d6 573d 5f8d 003e
000000a0: 6af3 b23d 3aa9 3ebd 1e6f f23d 39ec 8b3d
000000b0: 0dec a0ba cc94 9fba 7ade f1bd 9a3a 08bc
000000c0: 0292 983d 0e12 60bd 9387 88bd 5f83 98bc
000000d0: 975a a23d 6a49 2f3d 1422 fd3d fc0f 0c3e
000000e0: 9f1b d23d 2154 b53c f74b 9abc c50e 953c
000000f0: 58fc 0a3e 1c13 94bd 76b9 c6bb 7191 8dbd
00000100: 5a1b 32bc f85b d13d c3fa 3e3d ec7d 143b
00000110: 3628 053a d367 133c 53e8 263e ecad 0dbd
00000120: 0538 1e39 4bb3 12bd 95f7 ba3d 5530 e23d
00000130: 39ce 6d3b 22a8 8e3d 3ba0 44be 05ba eebd
00000140: 33ee e63d bc1f a7bd af62 1dbd da40 453b
00000150: 5717 3e3d c4e9 be3d 4320 8dbd 4c91 7f3d
00000160: ffdf 823b 426e 643d 75bf c4bd 1026 503d
00000170: 81da 523d 7b21 e43c b5b6 f2bd e8f4 763d
00000180: f4b5 82bd 4e25 08bd f3ba 183e aa04 0b3d
00000190: f427 02be cd5e b43c 46c9 d13c 1185 7bbd
000001a0: 9ec9 253c e929 d1bd 7daa 0ebd 1be9 d5bd
000001b0: 2625 1dbd c21f c8bd 29be 77bd 8cdc cdbd
000001c0: e0c9 f5bd b2cc e63c 80c0 9ebd 5023 133e
000001d0: 363a 2b3e dae1 8b3d 0592 3e3d c580 fdbc
000001e0: 6ecc 37bd 3960 d43d 9baf 6e3b 833d 85bd
000001f0: 6e82 05bb d1ae 053d 6af1 563c 515d 11bd
00000200: 423f 4dbd 1b6f 203e 9110 043d 1713 4b3d
00000210: 6e1f aaba 9296 ba3d 99f0 63bc 5c00 ddbd
00000220: 001a afbd 095c 51bc a014 d03d 63ea 133d
00000230: 6a48 a0bc 0d4c f9bc 8512 d7bd 7265 be3c
00000240: 2a5f f83d a91e 4fbd 60f3 2f3d a5c7 e4bd
00000250: cfd9 883d 7845 f93b dc5b 063e 8036 213d
00000260: 59c3 dfbd eba2 133e f9af 803d 98c3 9b3d
00000270: eda5 d0bd a3d8 1d3d 7a42 e93c 0f82 033d
00000280: 3ab7 cf3d 990a 32bd acf4 c7bd f547 e23b
00000290: bda8 a73d 51de 06be 7d74 f13d 89e2 b23c
000002a0: c386 d23d 3178 103e 747c fdbd 80cd 973d
000002b0: 4c51 a4bd cf89 03bb 7527 753d 49e9 43bd
000002c0: 3dd4 da3c 32e3 933d d968 db3c 1fd3 9bbd
000002d0: 879b 04bd d8dd c5bd c350 e4bd bc54 8e3b
000002e0: 19d1 aebc 8f04 663c 3217 8f3d ae8a 71bd
000002f0: 937a 2fbe 7673 81bc 4b55 4bbd f6d5 5fbc
00000300: 845b 0b3d 89a0 973d a020 a63c 440c 883d
00000310: f1c9 f8bc c1a8 67bd 39ec 713c 846f 253d
00000320: 45ab a4bd 7f30 0cbd 937c a73c 85f1 9bbc
00000330: 693c bcbd 66d7 e8bd bfa2 1abc f3c9 b53d
00000340: 481e 2bbd 8d9e 5f3b c709 393e 3dcf 9bbd
00000350: ed37 0fbd 4676 0f3d 8915 263d e91e a63a
00000360: 3632 5dbd 7186 323d c0f1 27bd c734 37bd
00000370: 7dde 7c3c 2216 943d c8cc 173c 7b9b a83d
00000380: 6eb0 ce3d eb3e ce3c 6266 813d c87e 9d3d
00000390: 438b 223d f11f 63bd a1f1 b1bd a748 6d3b
000003a0: 05dc 81bd 3a7b 22bd ae68 6e3d 3b21 fdbc
000003b0: c354 babc c289 fdbd 0cd5 c3bb e8b2 16bd
000003c0: 57f3 56bd 6868 babd 6f4a 03be d8b2 a6bd
000003d0: 329b 1c3b 1eea 73ba ac66 96bd 57d9 193b
000003e0: 02b2 473d e436 e73b e847 333d 9265 4fbc
000003f0: 8159 613c 603e 35bc ee52 9cbd 5c8e 523d

encoder.4.bias f4 [64]
-0.03977276 -0.0512194 0.030408537 0.001903003 -0.030942926 0.04441207 -0.029953433 0.089849345
-0.09307858 -0.03327613 -0.0741457 0.07300405 0.028410928 -0.07315132 -0.07657166 -0.13852996
0.06154193 -0.002867966 -0.030971773 0.07621154 -0.06447176 0.028509941 0.08938016 -0.009010326
0.02300617 -0.0393673 0.00046863707 0.07500143 -0.064551294 -0.042967074 -0.00052655034 -0.02473834
-0.06057981 0.04029486 0.036309462 -0.052412175 -0.07968727 -0.0565324 0.012859557 -0.09360875
-0.07619402 0.17353554 0.0580276 -0.07891276 0.0005777446 -0.01152237 -0.03509971 -0.0026858924
0.04893604 0.07380974 0.010837022 0.030038942 -0.08021709 -0.08801598 -0.004082043 -0.011021668
0.028968526 0.006835899 0.029378548 -0.049285777 -0.13067237 0.011934301 -0.0060547516 -0.040245384
00000000: c3e8 22bd 6fcb 51bd 531b f93c 2f6e f93a
00000010: 057c fdbc 6ee9 353d e760 f5bc ef02 b83d
00000020: fc9f bebd 8d4c 08bd b3d9 97bd 2683 953d
00000030: 09be e83c 5cd0 95bd 9ad1 9cbd ccda 0dbe
00000040: 6413 7c3d 7cf4 3bbb 84b8 fdbc cc14 9c3d
00000050: c509 84bd ae8d e93c f20c b73d 0ca0 13bc
00000060: 6f77 bc3c 9b3f 21bd 67b3 f539 5a9a 993d
00000070: 7833 84bd 3efe 2fbd 3208 0aba 0fa8 cabc
00000080: 8922 78bd 390c 253d 3bb9 143d 26ae 56bd
00000090: 1433 a3bd 858e 67bd e4b0 523c f2b5 bfbd
000000a0: 9c0b 9cbd 4db3 313e 59ae 6d3d 039d a1bd
000000b0: c973 173a 53c8 3cbc b7c4 0fbd cc05 30bb
000000c0: 2871 483d 9029 973d c48d 313c 3a14 f63c
000000d0: dc48 a4bd b941 b4bd a9c2 85bb 3a94 34bc
000000e0: 674f ed3c adff df3b 48ab f03c e2df 49bd
000000f0: face 05be 1688 433c f066 c6bb 58d8 24bd

encoder.6.weight f4 [23, 64]
-0.04110586 -0.081202626 -0.16720603 0.14276259 -0.022477796 0.008031453 0.1438672 0.08180714
-0.2211288 0.12360237 0.19736397 0.11009809 -0.19402117 0.044142045 -0.0064222096 0.108750775
-0.15334368 0.18159896 0.12548856 -0.0010347558 -0.14154716 0.07253171 0.1293016 0.057589684
0.05971827 0.15292513 0.2643895 -0.07663403 0.13602193 -0.02441489 0.00019043442 -0.0023228587
0.024983767 -0.022180244 -0.016561855 -0.1487513 0.112679474 -0.03654541 0.12919216 0.14113018
-0.2509423 -0.1975066 0.14455971 -0.22821619 -0.052613884 -0.120307595 0.11900563 0.22616261
-0.05652494 -0.13169193 -0.09816289 -0.12876894 -0.15126619 0.2055546 -0.20131147 0.028162867
0.15632518 -0.16024159 -0.07284662 0.1782887 -0.05058454 -0.076906 0.17619632 0.08381702
-0.23849507 0.12414615 0.16797508 0.10529744 0.15827882 -0.063177235 0.019806748 -0.11271456
0.04284139 -0.059199333 -0.0034650208 -0.1114097 -0.26184848 0.08188269 0.14179213 0.0986138
-0.106129624 -0.1938992 0.11481716 0.057271015 0.11200572 -0.19609997 -0.16335492 -0.027287347
0.010905248 -0.12626223 0.12869206 -0.16388312 0.22262831 -0.17464365 0.016198833 -0.1251701
-0.22010936 0.1284224 -0.066377014 -0.05433692 0.18417811 0.11404802 0.114667796 0.11494979
-0.058251996 0.18822928 0.065300256 0.095483884 0.109652646 -0.08234834 -0.14178573 -0.11055549
-0.06370172 -0.03925487 -0.15191264 -0.001752535 -0.19255391 0.029339049 -0.17129435 0.16613199
0.23949409 -0.06442031 0.09866316 0.032655124 0.19874147 0.036228992 0.089746416 -0.12386225
0.098910324 0.08174153 0.1568591 0.050119173 0.15621719 0.20993736 -0.035625793 -0.029236907
0.055256 -0.1663916 -0.065598674 -0.049092002 0.033321697 0.008099776 -0.100338966 -0.070098914
0.19813614 0.08090237 -0.10621261 0.072568506 0.004928132 0.09577932 0.14001755 0.045949474
-0.13344324 -0.22091118 -0.11965284 0.106133394 0.0831209 0.08149593 0.10841933 0.15193567
-0.001100013 -0.06423463 -0.017856352 -0.026254706 -0.16756308 -0.13788252 -0.12833229 0.12639351
-0.023410302 -0.029910378 0.16954511 0.12596281 -0.0031654525 -0.13582662 0.112981334 0.100739196
0.00030281424 -0.054722812 -0.050556894 0.0774878 -0.018054897 -0.25338918 -0.06406513 0.027367268
-0.02348718 -0.047402836 -0.055941716 0.10235462 -0.011009703 -0.18794192 0.044050768 -0.056331873
0.24457617 0.12582558 0.16451241 -0.16382742 0.013267306 -0.05064148 -0.12670408 0.00474916
0.1390995 -0.018870806 -0.20877732 -0.27006269 0.21037881 0.20891899 0.24472363 0.065779634
0.18086538 0.018478557 -0.15299189 -0.18939151 0.004711334 0.14111722 0.04352347 -0.10777834
-0.24351154 -0.23818296 0.057833016 0.14751518 -0.091751635 -0.020507745 0.17679253 0.08750764
-0.1449938 0.0042919014 -0.028507259 0.14157532 -0.19591981 -0.1313182 -0.059486385 0.093812235
0.11798137 -0.1965717 0.14594838 -0.052611295 -0.051021814 0.13756981 0.18541439 0.16919342
-0.2022349 -0.109429985 0.018655423 0.1161063 -0.17781278 0.042907313 -0.038119715 0.15219016
-0.13912332 0.22713935 0.03611007 -0.005718478 0.15080428 -0.08061232 -0.047247786 -0.08122494
00000000: 9e5e 28bd 904d a6bd 0f38 2bbe 5b30 123e
00000010: 5b23 b8bc 5b96 033c ec51 133e 808a a73d
00000020: 976f 62be 3d23 fd3d c819 4a3e 1b7b e13d
00000030: 7cad 46be 4ace 343d 6671 d2bb bab8 de3d
00000040: 2006 1dbe 14f5 393e 1380 003e a5a0 87ba
00000050: bdf1 10be 818b 943d a367 043e 29e3 6b3d
00000060: 259b 743d 6898 1c3e 0f5e 873e 4df2 9cbd
00000070: 5549 0b3e bc01 c8bc 5aaf 4739 1a3b 18bb
00000080: c2aa cc3c 58b3 b5bc baac 87bc 4352 18be
00000090: 7fc4 e63d a4b0 15bd f34a 043e 6e84 103e
000000a0: 827b 80be 2c3f 4abe 7607 143e 81b1 69be
000000b0: a881 57bd d463 f6bd 39b9 f33d 2c97 673e
000000c0: b286 67bd 40da 06be a009 c9bd 01dc 03be
000000d0: 86e5 1abe e87c 523e 9824 4ebe d0b5 e63c
000000e0: b513 203e 5f16 24be 9c30 95bd 5091 363e
000000f0: bc31 4fbd e580 9dbd cf6c 343e 42a8 ab3d
00000100: 0d38 74be 5640 fe3d a901 2c3e 2fa6 d73d
00000110: d813 223e 1163 81bd c341 a23c e4d6 e6bd
00000120: 747a 2f3d 007b 72bd 6715 63bb c52a e4bd
00000130: 0111 86be 1db2 a73d f531 113e 08f6 c93d
00000140: 7d5a d9bd 838d 46be 4225 eb3d 0395 6a3d
00000150: 4163 e53d 6ece 48be 8346 27be b789 dfbc
00000160: edab 323c e34a 01be dac7 033e fad0 27be
00000170: adf8 633e c9d5 32be 6ab3 843c 972c 00be
00000180: 5964 61be 2981 033e acf0 87bd 6490 5ebd
00000190: 3099 3c3e 0292 e93d f3d6 ea3d cc6a eb3d
000001a0: a599 6ebd 2dbf 403e 24bc 853d 0e8d c33d
000001b0: 9191 e03d 3fa6 a8bd 4730 11be eb6a e2bd
000001c0: 0c76 82bd b7c9 20bd fd8e 1bbe 51b5 e5ba
000001d0: da2c 45be 7258 f03c c967 2fbe 811e 2a3e
000001e0: f03d 753e ccee 83bd e90f ca3d 61c1 053d
000001f0: e282 4b3e da64 143d f8cc b73d 7eab fdbd
00000200: 7f91 ca3d 1a68 a73d ac9f 203e c349 4d3d
00000210: 66f7 1f3e d2f9 563e 5aec 11bd 3d82 efbc
00000220: 1e54 623d 8f62 2abe 9958 86bd b214 49bd
00000230: 557c 083d ecb4 043c 847e cdbd 0590 8fbd
00000240: 33e4 4a3e 24b0 a53d ff85 d9bd cc9e 943d
00000250: 2b7c a13b f327 c43d c360 0f3e 8435 3c3d
00000260: 58a5 08be 8a36 62be 8c0c f5bd 775c d93d
00000270: 4a3b aa3d 57e7 a63d f40a de3d 0695 1b3e
00000280: 502e 90ba 728d 83bd 7c47 92bc 1c14 d7bc
00000290: a895 2bbe 1331 0dbe 8a69 03be 4d6d 013e
000002a0: f6c6 bfbc 9c06 f5bc 3c9d 2d3e 65fc 003e
000002b0: 7b73 4fbb 2216 0bbe c262 e73d 5a50 ce3d
000002c0: 0ac3 9e39 0725 60bd bf14 4fbd ecb1 9e3d
000002d0: dde7 93bc 3abc 81be 9434 83bd 5231 e03c
000002e0: 3068 c0bc 7a29 42bd 2423 65bd 4d9f d13d
000002f0: 0b62 34bc d973 40be 946e 343d 40bc 66bd
00000300: 2d72 7a3e 6cd8 003e f175 283e 60c2 27be
00000310: 1d5f 593c 716d 4fbd b7be 01be d79e 9b3b
00000320: 1970 0e3e f396 9abc b9c9 55be a845 8abe
00000330: 8b6d 573e dcee 553e d598 7a3e 79b7 863d
00000340: c634 393e 5860 973c e8a9 1cbe d9ef 41be
00000350: 8961 9a3b 0881 103e ab45 323d e4ba dcbd
00000360: 175b 79be 3ce6 73be 50e2 6c3d 380e 173e
00000370: 48e8 bbbd dcff a7bc 1a09 353e 3537 b33d
00000380: 4179 14be 14a3 8c3b 0e88 e9bc 1ff9 103e
00000390: 349f 48be 4778 06be ffa7 73bd a120 c03d
000003a0: 37a0 f13d 174a 49be 7e73 153e f17e 57bd
000003b0: 40fc 50bd 1adf 0c3e 45dd 3d3e 0a41 2d3e
000003c0: aa16 4fbe d41c e0bd 42d3 983c 24c9 ed3d
000003d0: 8e14 36be 94bf 2f3d 6b23 1cbd bdd7 1b3e
000003e0: 5876 0ebe 3897 683e 27e8 133d 1262 bbbb
000003f0: 706c 1a3e 1218 a5bd e586 41bd 4359 a6bd

encoder.6.bias f4 [23]
0.030284738 0.09712413 0.052754 -0.10021314 -0.043812547 0.029925035 -0.017882913 0.11965722
0.08549477 0.1490253 0.023602163 0.1829386 -0.005734375 0.077646375 0.049325462 -0.0041848607
0.07001203 -0.06563135 0.04594075 -0.15043542 0.11160293 0.13406959 0.1503818
00000000: b317 f83c 04e9 c63d 9414 583d 8c3c cdbd
00000010: c974 33bd 5925 f53c 307f 92bc d80e f53d
00000020: e217 af3d 179a 183e 5359 c13c 4254 3b3e
00000030: 6de7 bbbb 1005 9f3d 7f09 4a3d 2821 89bb
00000040: 7862 8f3d bb69 86bd 5e2c 3c3d be0b 1abe
00000050: 1490 e43d 8a49 093e b0fd 193e

decoder.0.weight f4 [64, 23]
0.07713058 -0.19167021 0.2609888 -0.058441956 -0.096531205 0.06780412 0.017134098 -0.24182793
-0.040786766 0.17447451 0.115413085 0.22863062 0.055806417 -0.022797696 0.16974662 -0.19813585
0.15631028 -0.19873053 -0.34309644 -0.08902279 0.039351515 0.28383934 -0.30155903 0.040872257
0.25346956 -0.038324475 0.14040975 -0.09326934 -0.32415193 0.29094443 -0.05303517 -0.217958
0.17032047 -0.08399269 0.27622506 0.036452614 -0.08491463 0.37432 -0.22687505 0.037498046
-0.13105528 -0.17456819 -0.060975954 0.009975787 0.16567318 0.09195826 -0.20356622 -0.0077697462
-0.11575974 -0.035783753 -0.08898167 0.080641046 -0.08107255 0.2652152 0.18201643 0.003943383
-0.0005280689 -0.16275738 0.2604623 0.0612778 0.21000692 0.33191687 0.27080187 0.23360741
0.18152799 -0.16185836 -0.085488364 0.2501442 0.031311337 -0.2804577 -0.1847698 -0.1324736
0.06812364 0.03213588 -0.21522385 -0.12691915 0.049388994 0.12852818 0.18553576 0.13873683
0.29699302 -0.16322601 0.19504516 -0.14866497 -0.06816979 -0.16045973 0.047400247 -0.0339441
-0.19287659 0.24739543 0.21014988 0.14319575 0.23416895 0.18533878 -0.09541728 -0.13992296
-0.17570464 -0.11228353 0.16516563 -0.1886719 0.09689687 0.19154163 -0.15994455 -0.018749788
-0.12349541 0.12857485 0.19625306 0.014252674 0.025040444 -0.06234967 -0.076292194 0.15473299
0.15351729 0.06095681 -0.28531787 -0.012168806 0.22198741 -0.27102104 0.13990405 0.19390914
0.06057078 -0.04556148 -0.26152405 -0.32714143 0.08808991 0.12210968 0.09006689 -0.052709725
-0.3467242 -0.17512439 -0.0754117 -0.13635385 0.08812473 -0.17776676 0.011416965 -0.21478595
-0.17770241 0.06813407 0.15179667 0.047952805 0.10838027 -0.16769953 0.10053674 -0.19632094
-0.058663413 -0.04164986 0.034233503 -0.33331624 0.06428794 -0.13805827 -0.071917005 0.37280983
-0.1402912 -1.3236699e-05 -0.10288657 0.08458749 0.08616644 0.12554966 0.29563487 0.32041126
-0.03127617 -0.054794364 0.23206332 0.06182915 -0.091203064 -0.14850393 -0.15964328 0.14226714
0.24217732 -0.16148955 -0.10572187 0.18437491 0.16739883 0.04363599 -0.25730437 -0.045990866
0.0836703 0.34028265 -0.08321455 -0.18482423 -0.29202458 -0.2221811 -0.27407697 -0.025203332
-0.0068462156 0.2036148 -0.20343837 0.24405766 -0.12062334 -0.14103304 0.18565153 0.043957315
0.05227278 -0.21218133 -0.079578586 -0.10845677 0.05851765 0.15942694 0.31183696 0.25446486
0.40225047 -0.1374543 -0.20959115 -0.057962067 0.10146682 -0.042678993 0.24770601 0.08014986
-0.15479574 -0.27655897 -0.3941618 0.19297254 -0.038079727 0.26379815 0.16876912 -0.08613331
0.018707417 -0.1630746 0.14923453 -0.18236151 -0.12675224 -0.29487044 0.12348549 -0.0073707975
0.16909032 0.19180425 -0.099375784 -0.018419135 0.17869085 0.07615246 0.09381495 0.2564709
-0.012681726 0.208468 0.15083118 -0.05328874 -0.040748514 0.11349266 0.04805852 -0.344578
0.27563146 -0.13052712 0.2366767 -0.1659477 0.15661454 -0.019967953 0.17977667 -0.08028976
0.07870189 0.23984188 0.02776811 -0.15749691 -0.1459373 -0.013517617 -0.12767798 -0.22057527
00000000: a3f6 9d3d 3245 44be 53a0 853e d560 6fbd
00000010: 27b2 c5bd e3dc 8a3d cf5c 8c3c bea1 77be
00000020: 0610 27bd 72a9 323e b25d ec3d 251e 6a3e
00000030: 4595 643d 3cc2 babc 0fd2 2d3e 20e4 4abe
00000040: cd0f 203e 0480 4bbe 56aa afbe 9551 b6bd
00000050: 0e2f 213d 6453 913e f265 9abe ab69 273d
00000060: c3c6 813e 20fa 1cbd 93c7 0f3e ff03 bfbd
00000070: 3ef7 a5be abf6 943e 683b 59bd 6230 5fbe
00000080: 7d68 2e3e 5c04 acbd 5f6d 8d3e 564f 153d
00000090: b9e7 adbd dfa6 bf3e ef51 68be 8d97 193d
000000a0: 5b33 06be 01c2 32be ecc1 79bd 7c71 233c
000000b0: 3ba6 293e 9d54 bc3d aa73 50be 5b99 febb
000000c0: 7113 edbd fc91 12bd 063c b6bd 2227 a53d
000000d0: 5d09 a6bd 49ca 873e 8462 3a3e 7f37 813b
000000e0: 1b6e 0aba dfa9 26be 515b 853e 6efe 7a3d
000000f0: 0e0c 573e 02f1 a93e 8ba6 8a3e c836 6f3e
00000100: 79e2 393e 33be 25be 8614 afbd e712 803e
00000110: 5140 003d 2798 8fbe 4b34 3dbe 29a7 07be
00000120: 6884 8b3d eaa0 033d a463 5cbe 18f7 01be
00000130: 1d4c 4a3d e49c 033e 16fd 3d3e 0711 0e3e
00000140: 780f 983e b824 27be ebb9 473e a13b 18be
00000150: 9a9c 8bbd 8e4f 24be c326 423d f808 0bbd
00000160: 7181 45be 3a55 7d3e 8831 573e e8a1 123e
00000170: fcc9 6f3e 73c9 3d3e 236a c3bd f747 0fbe
00000180: ebeb 33be e8f4 e5bd 2e21 293e 3533 41be
00000190: de71 c63d 7d23 443e 81c8 23be 2899 99bc
000001a0: 29eb fcbd 20a9 033e 90f6 483e 0c84 693c
000001b0: 9e21 cd3c 5e62 7fbd 153f 9cbd 5372 1e3e
000001c0: a333 1d3e d9ad 793d 2f15 92be ac5f 47bc
000001d0: ab50 633e 45c3 8abe 0243 0f3e 1e90 463e
000001e0: 1119 783d ad9e 3abd 7be6 85be 157f a7be
000001f0: 7c68 b43d a414 fa3d fd74 b83d 27e6 57bd
00000200: d685 b1be cf53 33be 7371 9abd 58a0 0bbe
00000210: bd7a b43d 7d08 36be 390e 3b3c d9f0 5bbe
00000220: 9ff7 35be e089 8b3d 9670 1b3e 296a 443d
00000230: 7af6 dd3d 6db9 2bbe 35e6 cd3d 5b08 49be
00000240: 0c49 70bd 0b99 2abd 6e38 0c3d 6da8 aabe
00000250: 65a9 833d 265f 0dbe 3949 93bd eee0 be3e
00000260: 7fa8 0fbe 3013 5eb7 32b6 d2bd 353c ad3d
00000270: 0878 b03d 1790 003e 745d 973e f20c a43e
00000280: 711b 00bd 0e70 60bd 02a2 6d3e 9040 7d3d
00000290: acc8 babd 6a11 18be 8779 23be 7aae 113e
000002a0: 55fd 773e 845d 25be b584 d8bd c7cc 3c3e
000002b0: 996a 2b3e a7bb 323d 66bd 83be eb60 3cbd
000002c0: 565b ab3d 8739 ae3e 646c aabd 9042 3dbe
000002d0: 3f84 95be 7183 63be d153 8cbe 3877 cebc
000002e0: 3856 e0bb 6680 503e 2652 50be 40ea 793e
000002f0: 5f09 f7bd f76a 10be 6f1b 3e3e 960c 343d
00000300: fc1b 563d 1046 59be 19fa a2bd 951e debd
00000310: 34b0 6f3d d140 233e 18a9 9f3e 3849 823e
00000320: c6f3 cd3e d2c0 0cbe 109f 56be a269 6dbd
00000330: d6cd cf3d 2bd0 2ebd a5a6 7d3e 9c25 a43d
00000340: c682 1ebe 2399 8dbe 93cf c9be 989a 453e
00000350: 7df9 1bbd 8d10 873e d0d1 2c3e a966 b0bd
00000360: 4c40 993c 07fd 26be f0d0 183e fabc 3abe
00000370: 57cb 01be 42f9 96be f6e5 fc3d bb86 f1bb
00000380: 0326 2d3e 5568 443e 8885 cbbd bae3 96bc
00000390: bcfa 363e d2f5 9b3d 0d22 c03d 2750 833e
000003a0: 04c7 4fbc a378 553e 7d73 1a3e 4b45 5abd
000003b0: eae7 26bd d76e e83d 03d9 443d 876c b0be
000003c0: 911f 8d3e e7a8 05be 605b 723e 32ee 29be
000003d0: 905f 203e d593 a3bc 6017 383e f56e a4bd
000003e0: 752e a13d 1c99 753e f379 e33c df46 21be
000003f0: 9670 15be ff78 5dbc 04be 02be 7cde 61be

decoder.0.bias f4 [64]
-0.09198518 0.0019788793 0.15735987 0.37701616 -0.31374514 -0.292602 0.00049719616 0.09490308
-0.2059183 0.18555744 -0.04546741 -0.3655698 0.010309157 0.023660857 0.25693527 0.13720527
0.10365136 -0.02988723 -0.23877424 -0.23713955 -0.19179654 0.071235165 0.013567513 -0.21003841
-0.24133845 -0.22755978 -0.21438637 0.13840361 -0.06099999 -0.16381507 -0.16475502 -0.11001545
-0.05174523 -0.27834767 -0.043462496 -0.24480508 -0.046669655 0.17989771 0.2701847 0.21931034
-0.34089282 0.023285672 -0.042790327 0.16118014 -0.0642068 -0.14658464 0.31332654 -0.11493484
0.12184966 -0.27038178 0.09368425 -0.19916347 0.34211734 0.28584528 -0.16826214 0.09576987
-0.122139074 -0.114811495 0.2423389 0.088238366 -0.09257882 -0.22757895 0.0036141488 0.015976088
00000000: ba62 bcbd 16b0 013b f222 213e 4308 c13e
00000010: 34a3 a0be eecf 95be 4556 023a 8c5c c23d
00000020: 3fdc 52be c502 3e3e 093c 3abd f72b bbbe
00000030: bde7 283c 6ad4 c13c 058d 833e 8a7f 0c3e
00000040: 2a47 d43d 10d6 f4bc 3c81 74be b6d4 72be
00000050: 5066 44be bee3 913d 464a 5e3c 4f14 57be
00000060: 6d21 77be 6e05 69be 1a88 5bbe adb9 0d3e
00000070: 20db 79bd 23bf 27be 8ab5 28be c84f e1bd
00000080: cef2 53bd 9683 8ebe bb05 32bd 2fae 7abe
00000090: ae28 3fbd 1b37 383e a655 8a3e e492 603e
000000a0: 8189 aebe 98c1 be3c e944 2fbd 680c 253e
000000b0: db7e 83bd 491a 16be 566c a03e f562 ebbd
000000c0: 518c f93d 7b6f 8abe 87dd bf3d 82f1 4bbe
000000d0: 012a af3e 505a 923e e94c 2cbe fe22 c43d
000000e0: 0d24 fabd 4a22 ebbd b027 783e 51b6 b43d
000000f0: f799 bdbd 750a 69be 5bdb 6c3b 49e0 823c
