customized/model/trained_model/ae/ae_z_30batch_128_static.pth (torch, 465147 bytes, 16 tensors)

encoder.0.weight f4 [256, 55]
0.03338203 0.14656691 -0.11635916 0.04660136 -0.094289236 0.0034524829 0.02749397 -0.20028841
-0.010587395 -0.0012196857 0.039129388 0.013010705 -0.01782031 0.31203648 -0.002215243 -0.11399689
0.010483863 0.11944751 0.12278007 -0.091956265 0.13480538 0.14941195 -0.029239161 0.0545883
0.062337514 -0.2402273 0.21447013 0.02223277 -0.020787565 0.056155946 -0.022175074 0.012831788
0.05093833 -0.03809723 0.0070672478 0.12968883 -0.11147223 -0.24284916 0.036582407 0.08190863
-0.06620566 -0.014819389 -0.17782277 0.08846124 0.090430796 -0.07180411 0.021819953 -0.06454107
-0.028831404 -0.052512325 -0.01664206 -0.109394476 -0.089716874 0.111822054 -0.018271178 0.12110318
0.05094003 0.036416177 0.08324835 0.010559172 0.055523954 0.08214362 -0.08109452 -0.041452143
-0.11343611 -0.12356991 -0.08011625 -0.08235767 0.43017706 0.02769104 -0.11493367 -0.03444193
0.028487915 -0.06543874 -0.03317948 -0.10502279 0.033015188 -0.022045368 -0.10245756 0.07119639
-0.037288584 -0.18096466 0.07063089 -0.016862474 0.075938456 -0.0747654 0.032070994 0.024671983
-0.030921616 -0.04828566 0.09735781 0.11415562 -0.07400704 -0.13079996 -0.11148912 -0.05573714
-0.07534753 0.0639768 0.089848466 0.060962737 0.108876385 0.028967097 0.05940585 0.064531386
0.03210958 -0.18391427 -0.07492581 0.0696601 0.12308279 0.030748947 -0.10195765 -0.07723324
0.05926995 -0.024113132 0.019372962 -0.13850293 0.040839724 -0.045371704 0.055069942 -0.09206151
0.03308285 -0.098377794 -0.06602545 -0.04493387 0.0043801568 -0.053858913 -0.1506819 0.02258541
-0.14066309 -0.062562816 0.092570715 0.048182752 -0.028346919 0.08437068 0.058951546 0.12960759
-0.131327 -0.03572666 -0.06852486 0.011500768 0.029952763 0.12261979 -0.100075535 -0.0518497
0.01314986 -0.114091486 -0.11141899 0.13919628 0.18441018 -0.030071639 -0.121128164 0.015227263
0.011301354 0.012631545 -0.10555702 -0.02689657 -0.06043638 0.08063206 -0.023324955 0.10513508
-0.1847757 -0.027021581 -0.04881801 0.11000943 0.043803252 -0.029344851 -0.13526908 0.02189874
0.1096654 0.042356074 -0.0254259 0.037415218 -0.0015442179 0.017720487 -0.033672187 0.033305407
-0.056591 0.096496895 0.032542974 -0.047886893 0.016417654 0.027347988 0.097271055 -0.070574574
0.09971225 -0.052201323 -0.007766313 -0.04229413 0.025980225 0.025704762 -0.07022362 -0.0023787578
0.09903663 -0.08687534 -0.0442338 -0.114483505 -0.13491523 -0.07519595 -0.06296893 -0.0013670985
0.088175364 0.09193312 -0.18668163 -0.14457646 -0.065428644 -0.049998004 0.091510676 0.11050602
-0.052846216 -0.04487056 -0.005698318 -0.0932529 0.035013825 -0.0019819408 -0.15613176 -0.18991129
-0.017599648 -0.02888653 -0.06099749 0.0053486316 -0.17049886 -0.010996534 0.08207282 -0.17594187
-0.11247013 0.121223494 0.16575359 0.008843259 -0.056897476 0.06891479 0.034703005 -0.061248466
-0.19533855 0.2390332 -0.01908116 0.086690284 0.13577369 -0.083118215 -0.079733714 0.01302131
0.058220346 0.08205362 -0.058015816 -0.08844774 0.11359271 -0.23251167 0.11635463 -0.13789594
-0.007020437 -0.15856192 0.10156098 -0.08816024 0.023188291 -0.07144265 0.056003504 0.11417728
00000000: 98bb 083d a315 163e b64d eebd 11e1 3e3d
00000010: b71a c1bd 0d43 623b 093b e13c 6818 4dbe
00000020: c176 2dbc dcdd 9fba 2346 203d da2a 553c
00000030: e6fb 91bc 3fc3 9f3e 9c2d 11bb 3477 e9bd
00000040: 82c4 2b3c e5a0 f43d 1e74 fb3d 9153 bcbd
00000050: 6c0a 0a3e 72ff 183e f786 efbc fb97 5f3d
00000060: 9f55 7f3d 25fe 75be 0f9e 5b3e 8021 b63c
00000070: af4a aabc c703 663d 80a8 b5bc 6b3c 523c
00000080: b6a4 503d d70b 1cbd 5f94 e73b 26cd 043e
00000090: 8d4b e4bd 73ad 78be 6fd7 153d b6bf a73d
000000a0: d596 87bd 06cd 72bc 2c17 36be 2b2b b53d
000000b0: c833 b93d 090e 93bd c2bf b23c 1c2e 84bd
000000c0: d62f ecbc 2a17 57bd ee54 88bc 360a e0bd
000000d0: 7bbd b7bd f602 e53d 70ad 95bc f204 f83d
000000e0: 7ea6 503d 2129 153d 1c7e aa3d 6100 2d3c
000000f0: 166d 633d ea3a a83d e214 a6bd b9c9 29bd
00000100: 3151 e8bd 3912 fdbd fd13 a4bd 23ab a8bd
00000110: 2b40 dc3e 52d8 e23c 5862 ebbd fb12 0dbd
00000120: 7d5f e93c bf04 86bd 35e7 07bd 3016 d7bd
00000130: ef3a 073d 7d98 b4bc 45d5 d1bd 6acf 913d
00000140: eabb 18bd cd4e 39be eea6 903d 2c23 8abc
00000150: 9f85 9b3d 9a1e 99bd e05c 033d e61c ca3c
00000160: 544f fdbc 2fc7 45bd 8863 c73d 6cca e93d
00000170: 0191 97bd 6df0 05be 6854 e4bd a14c 64bd
00000180: ce4f 9abd 4506 833d 7902 b83d 10b4 793d
00000190: 95fa de3d 684c ed3c 8c53 733d 0829 843d
000001a0: 5685 033d 0654 3cbe b472 99bd f4a9 8e3d
000001b0: d412 fc3d 37e5 fb3c 2ccf d0bd 762c 9ebd
000001c0: 0cc5 723d e788 c5bc 0cb4 9e3c b6d3 0dbe
000001d0: 8e47 273d aed7 39bd 0591 613d bf8a bcbd
000001e0: e281 073d 4c7a c9bd 5a38 87bd 940c 38bd
000001f0: 6b87 8f3b 2a9b 5cbd 5b4c 1abe 0a05 b93c
00000200: fc09 10be ef20 80bd b795 bd3d 475b 453d
00000210: cc37 e8bc 89ca ac3d 2d77 713d dab7 043e
00000220: 967a 06be 1e56 12bd c356 8cbd b86d 3c3c
00000230: 7f5f f53c 1620 fb3d 67f4 ccbd 5a60 54bd
00000240: 8372 573c cca8 e9bd a42f e4bd 7889 0e3e
00000250: 06d6 3c3e cc58 f6bc 0b12 f8bd c57b 793c
00000260: 5029 393c 8af4 4e3c 472e d8bd 3256 dcbc
00000270: 238c 77bd 6c22 a53d fa13 bfbc 1051 d73d
00000280: d735 3dbe 5d5c ddbc 65f5 47bd a04c e13d
00000290: 0a6b 333d 9d64 f0bc fa83 0abe fd64 b33c
000002a0: 4198 e03d 907d 2d3d fa49 d0bc b340 193d
000002b0: 5b67 caba 8e2a 913c d9eb 09bd 406b 083d
000002c0: f7cb 67bd 2aa0 c53d c84b 053d 0c25 44bd
000002d0: 517e 863c e308 e03c 0c36 c73d 6789 90bd
000002e0: f035 cc3d 0ed1 55bd 8e7c febb 9c3c 2dbd
000002f0: 7bd4 d43c cb92 d23c 67d1 8fbd efe4 1bbb
00000300: b7d3 ca3d b3eb b1bd 802e 35bd 5476 eabd
00000310: 3827 0abe 5600 9abd dbf5 80bd 3730 b3ba
00000320: 4995 b43d 6e47 bc3d 7829 3fbe da0b 14be
00000330: 74ff 85bd b5ca 4cbd f369 bb3d fb50 e23d
00000340: 4675 58bd 31ca 37bd f5b8 babb 60fb bebd
00000350: a86a 0f3d 73e3 01bb 01e1 1fbe 1b78 42be
00000360: 232d 90bc 72a3 ecbc 81d8 79bd 9343 af3b
00000370: 4197 2ebe ce2a 34bc cb15 a83d 1b2a 34be
00000380: bd56 e6bd 0644 f83d 4fbb 293e 51e3 103c
00000390: 540d 69bd 3323 8d3d bd24 0e3d acdf 7abd
000003a0: d406 48be 1fc5 743e 1850 9cbc ad8a b13d
000003b0: 4208 0b3e e239 aabd 6e4b a3bd 5557 553c
000003c0: 7578 6e3d ba0b a83d fea1 6dbd 1724 b5bd
000003d0: 4ba3 e83d 8a17 6ebe 564b ee3d 9834 0dbe
000003e0: b20b e6bb 0e5e 22be 34ff cf3d 5b8d b4bd
000003f0: 5ff5 bd3c 8650 92bd ee63 653d c7d5 e93d

encoder.0.bias f4 [256]
-0.08747807 0.031887747 0.09564189 -0.011908765 -0.0146133825 0.005607363 -0.035608616 -0.03605847
-0.055556733 -0.099034145 0.07027481 -0.0030210214 0.08326733 0.0440935 -0.0032047762 0.04884904
0.029495748 -0.03042505 -0.059085514 0.037392285 -0.06565307 -0.003969406 -0.040883645 -0.104462646
-0.054445542 -0.0012589975 -0.0003992803 0.07082025 0.013515549 0.09204281 0.00919091 0.016207619
0.021864384 -0.029527145 0.049506027 0.053641163 -0.11548394 0.056902025 0.042935867 0.025230067
0.012709987 -0.05974958 0.015014173 0.007341984 -0.0694148 -0.007873981 -0.0053512766 -0.09920906
0.06791448 -0.098871365 0.042443536 0.046045087 0.105278604 -0.043394603 -0.044570275 -0.10133627
-0.10887487 0.11672266 -0.07647158 -0.030246602 -0.031353664 0.12857746 0.054168403 -0.10485187
0.0038784554 0.04127935 -0.05912481 -0.07793766 -0.03634579 -0.09178654 -0.051987197 -0.07841744
-0.049385358 0.07529533 -0.050630137 0.008757459 0.073660314 -0.013776775 -0.049862463 -0.022746969
0.12413895 0.12702721 0.060564183 -0.00039013792 -0.03248969 0.0712132 0.06556865 0.028812198
0.008660243 0.043105505 -0.08385899 -0.061390903 -0.035140034 0.003113961 -0.082994804 -0.06723439
-0.0025825046 -0.01463979 0.012915609 -0.035765335 0.010194372 0.009174475 -0.0044787787 -0.07147512
0.116720654 -0.07242084 0.04667276 -0.02206728 -0.028632289 0.04599731 0.15022728 -0.008229117
0.110273995 -0.039542977 -0.111062914 0.07429344 0.051868685 -0.040982347 -0.08582667 0.08788517
-0.0247228 -0.024637077 -0.0017896 -0.09002606 0.026657872 0.11495804 0.043986954 -0.03580363
-0.091732174 0.11708251 -0.0039392496 -0.03307938 -0.022853786 0.005975034 -0.06117537 -0.035617694
0.03429616 0.011599699 0.044268616 -0.026374638 -0.0674688 0.05305729 -0.030992959 -0.11288013
0.011674017 0.057321113 0.082354546 -0.09894862 -0.014980627 -0.027738692 0.059657875 -0.029546142
0.009956567 -0.04451716 0.0088912 -0.004755357 -0.0033684575 0.1307674 0.106295116 0.009861116
0.04991899 -0.10974862 0.035550267 -0.004916692 0.028851515 0.016258763 -0.08697158 0.016157651
0.043948006 -0.05144568 0.052562937 -0.016981477 -0.051650155 0.014658268 -0.049027048 0.03618271
0.09163241 -0.052728385 0.08739062 0.021172289 -0.022743199 -0.06063399 -0.112921014 0.015212848
-0.101819135 0.07740571 0.06320871 -0.097027056 0.07093851 0.041755762 0.026461491 -0.078179516
0.034856286 -0.0023325486 -0.053880427 0.07047357 0.070517115 -0.016702663 -0.10571621 -0.12603047
0.05323312 -0.09788926 0.022082096 0.002455232 0.020468567 -0.026849084 -0.080604434 -0.08009015
-0.04881109 0.111846 0.014311399 -0.019563818 0.035290834 -0.06524888 -0.09270192 -0.053352613
-0.04290325 -0.065726854 0.028817445 -0.050213624 0.07176141 0.055772476 -0.069088 0.0073793693
-0.09223033 -0.032307804 0.006547939 0.013713399 -0.0054164347 -0.029310642 0.024349771 -0.030443156
-0.07580027 -0.02321952 0.009969 -0.0426853 -0.007727227 -0.045980174 -0.061265655 0.012431604
-0.039224766 0.05754252 0.059826627 0.053735815 -0.019804057 0.0034216717 0.07937062 0.023802703
-0.05338323 -0.086635865 0.01667523 0.044142425 -0.08550242 -0.0068669505 0.119262636 -0.13864504
00000000: b427 b3bd ba9c 023d e5df c33d fb1c 43bc
00000010: f86c 6fbc f8bd b73b 57da 11bd 0cb2 13bd
00000020: 758f 63bd 6ad2 cabd 3dec 8f3d 54fc 45bb
00000030: 1088 aa3d 639b 343d 3907 52bb ee15 483d
00000040: 11a1 f13c f43d f9bc a703 72bd a728 193d
00000050: 1e75 86bd ca11 82bb 9c75 27bd 83f0 d5bd
00000060: 4a02 5fbd f204 a5ba 7f56 d1b9 350a 913d
00000070: 5270 5d3c f180 bc3d 7895 163c d7c5 843c
00000080: f01c b33c e9e2 f1bc d5c6 4a3d d6b6 5b3d
00000090: d882 ecbd 1912 693d 85dd 2f3d 49af ce3c
000000a0: 8d3d 503c fabb 74bd 02fe 753c 0795 f03b
000000b0: 5929 8ebd df01 01bc c359 afbb 1f2e cbbd
000000c0: bf16 8b3d 127d cabd 46d9 2d3d c699 3c3d
000000d0: 4f9c d73d 8abe 31bd 528f 36bd 6489 cfbd
000000e0: caf9 debd 4a0c ef3d 229d 9cbd b9c7 f7bc
000000f0: b36c 00bd cfa9 033e b0df 5d3d 94bc d6bd
00000100: af2d 7e3b 8914 293d db2c 72bd c89d 9fbd
00000110: 53df 14bd 95fa bbbd 87f0 54bd 5399 a0bd
00000120: 4d48 4abd 7034 9a3d 8c61 4fbd 727b 0f3c
00000130: 38db 963d fcb7 61bc 953c 4cbd da57 babc
00000140: 903c fe3d 6c13 023e 2612 783d 6d8b ccb9
00000150: e913 05bd 3ad8 913d db48 863d 8f07 ec3c
00000160: b1e3 0d3c 668f 303d 43be abbd 0775 7bbd
00000170: ffee 0fbd 9913 4c3b 2ef9 a9bd 2fb2 89bd
00000180: 3d3f 29bb bbdb 6fbc fe9b 533c ac7e 12bd
00000190: 4c06 273c 8a50 163c b8c2 92bb 8c61 92bd
000001a0: 3d0b ef3d 6151 94bd f02b 3f3d 71c6 b4bc
000001b0: 438e eabc ad67 3c3d 2ed5 193e 6bd3 06bc
000001c0: 55d7 e13d d1f7 21bd f474 e3bd 2927 983d
000001d0: 4274 543d 1bdd 27bd e5c5 afbd 24fd b33d
000001e0: 7887 cabc b2d3 c9bc 0391 eaba 955f b8bd
000001f0: 9c61 da3c 1f6f eb3d aa2b 343d d4a6 12bd
00000200: 14de bbbd f4c8 ef3d d214 81bb 3e7e 07bd
00000210: dd37 bbbc 38ca c33b 0693 7abd dce3 11bd
00000220: 217a 0c3d aa0c 3e3c 0253 353d a00f d8bc
00000230: 152d 8abd 9a52 593d f2e4 fdbc b32d e7bd
00000240: 6044 3f3c 8bc9 6a3d 80a9 a83d 93a5 cabd
00000250: 4e71 75bc 413c e3bc d15b 743d c00a f2bc
00000260: de20 233c a057 36bd 65ac 113c d3d2 9bbb
00000270: 57c1 5cbb e4e7 053e 41b1 d93d 8590 213c
00000280: db77 4c3d e2c3 e0bd 289d 113d 341c a1bb
00000290: 035a ec3c 1931 853c 281e b2bd 0d5d 843c
000002a0: d302 343d b5b8 52bd 3c4c 573d bd1c 8bbc
000002b0: 1d8f 53bd 3b29 703c 96d0 48bd 5234 143d
000002c0: c6a9 bb3d b8f9 57bd daf9 b23d 8271 ad3c
000002d0: f24f babc 595b 78bd 2243 e7bd 4f3f 793c
000002e0: 8d86 d0bd e386 9e3d 9173 813d 1fb6 c6bd
000002f0: 3648 913d 1708 2b3d c5c5 d83c 951c a0bd
00000300: 77c5 0e3d acdd 18bb b9b1 5cbd 7254 903d
00000310: 476b 903d 06d4 88bc be81 d8bd 220e 01be
00000320: f90a 5a3d 2a7a c8bd 83e5 b43c f5e7 203b
00000330: b2ad a73c 9cf2 dbbc f013 a5bd 4e06 a4bd
00000340: 23ee 47bd 840f e53d 5c7a 6a3c 4d44 a0bc
00000350: 1f8d 103d 34a1 85bd 81da bdbd 4588 5abd
00000360: 51bb 2fbd cd9b 86bd 9012 ec3c cdac 4dbd
00000370: a5f7 923d ae71 643d 027e 8dbd a3ce f13b
00000380: 41e3 bcbd 3055 04bd 1890 d63b 2aae 603c
00000390: 597c b1bb df1c f0bc 2c79 c73c ed63 f9bc
000003a0: 2c3d 9bbd dd36 bebc 0455 233c c8d6 2ebd
000003b0: ae34 fdbb b555 3cbd b2f1 7abd edad 4b3c
000003c0: 26aa 20bd b5b1 6b3d c40c 753d 161a 5c3d
000003d0: 1e3c a2bc 203e 603b 108d a23d e3fd c23c
000003e0: 60a8 5abd 256e b1bd 7e9a 883c b0ce 343d
000003f0: e51b afbd 2804 e1bb f83f f43d f7f8 0dbe

encoder.2.weight f4 [128, 256]
0.070510864 0.02455481 -0.018649183 0.03285598 0.002753622 -0.09900571 -0.05001006 0.09516305
0.051738083 -0.04848114 -0.07463226 0.09731956 0.052470308 0.029365247 -0.00062907534 -0.014414516
-0.0018760627 -0.049790043 -0.12921925 -0.084984675 -0.05333691 -0.096866965 0.029318718 -0.01427037
-0.011837424 -0.08338429 0.0766264 -0.04762479 0.05727682 0.07483875 0.016589645 0.1040682
0.0059203496 -0.10921169 0.108872615 0.039105386 0.05650693 -0.046613317 0.018354421 0.07049853
-0.04450222 0.03527327 0.030316288 -0.055310823 -0.050252385 0.0033423544 0.0006707508 -0.0056539727
0.03712448 -0.09578806 -0.05119569 0.036091764 0.00044909763 0.053307127 -0.036348578 0.09697377
-0.12837766 0.0974627 -0.006384371 0.037682857 -0.003119604 0.05365465 0.008184183 0.04259643
0.059054226 0.050834883 0.04228878 -0.03074021 0.08225337 -0.022421531 0.030559331 -0.0068880916
0.027165258 -0.09057753 -0.0738608 -0.01775157 0.037868835 0.08951345 0.054872185 0.02611223
-0.011262084 -0.041446686 0.04662522 -0.036499154 0.024577515 -0.09104225 0.028863369 0.03563572
0.028660076 0.08057266 0.0011325554 -0.030890966 -0.019322608 -0.024543539 0.02927302 0.0042520566
-0.055384755 -0.027353585 -0.005605377 0.014215234 -0.017122684 -0.04266022 -0.08089216 -0.0543207
0.053550854 0.03220268 -0.008945131 -0.002612994 -0.045162722 -0.07031284 -0.097646266 -0.02342497
-0.056430027 0.031222578 0.05671872 0.045853984 -0.028661778 0.08691539 -0.050006874 0.065614395
0.00738922 0.01173207 0.05077903 0.057038754 0.026870795 0.0010371897 0.020569108 -0.09782224
-0.026402209 0.012880679 0.034973554 -0.09490249 0.025411991 0.12287572 -0.043320537 0.0012077369
-0.099986345 0.05917054 -0.049514167 -0.044740055 -0.06411244 -0.07794186 -0.02524442 0.03977354
-0.09337258 0.0014828029 0.053417224 0.0030166947 -0.042219777 -0.0075979736 -0.08205858 -0.066493906
0.037772287 -0.03923035 0.068916574 -0.092386365 0.033161815 -0.059039485 0.010457179 -0.03288771
-0.0201904 0.0036425728 -0.049847163 0.034918945 -0.060480084 0.03152985 0.064743415 -0.047511905
0.014522087 0.030828768 -0.018860511 0.062214676 0.033403046 -0.00059035333 -0.08975924 0.06307972
-0.053293552 0.09230342 0.001801262 -0.0681226 -0.04912546 -0.13027245 0.0056002294 0.068541564
0.004371659 0.025018245 -0.00077808433 0.032073744 -0.03198611 0.01289752 0.0017935042 0.001451443
-0.05891295 -0.010272607 0.029163696 -0.042513125 0.058726206 0.014338726 0.023707047 -0.10619316
0.06550233 0.025546113 0.054866172 -0.037728023 -0.061265886 0.060885504 -0.0381503 -0.05871332
-0.005842604 0.004876964 0.090055265 0.05983621 -0.028206103 0.00783531 0.013406772 -0.03791221
-0.009503924 -0.0025154233 -0.08205369 0.070418596 -0.06690939 0.1426712 -0.075244956 -0.03058784
0.0720302 0.0707438 -0.0071658553 -0.012735277 0.029603941 -0.06393926 0.086801246 -0.037129402
-0.007872799 0.07127395 -0.0047533247 0.0424281 -0.04752988 -0.0398087 -0.06740037 0.0027961724
-0.06561391 -0.03251642 0.02965927 -0.025325594 -0.070398726 0.015769819 -0.038044002 0.061408807
-0.056686897 0.02660621 -0.0159278 -0.0071480684 -0.03176159 0.11764992 0.040661052 -0.002683172
00000000: 0068 903d 2b27 c93c 2cc6 98bc fe93 063d
00000010: 1c76 343b 81c3 cabd 59d7 4cbd d8e4 c23d
00000020: 50eb 533d 2994 46bd ccd8 98bd 7a4f c73d
00000030: 1beb 563d 638f f03c 88e8 24ba dd2a 6cbc
00000040: 38e6 f5ba a5f0 4bbd 0d52 04be 720c aebd
00000050: ce77 5abd 3062 c6bd cf2d f03c 45ce 69bc
00000060: c1f1 41bc 62c5 aabd 4dee 9c3d 3612 43bd
00000070: 199b 6a3d 0f45 993d 02e7 873c b521 d53d
00000080: 7eff c13b 61aa dfbd 9bf8 de3d f82c 203d
00000090: d073 673d 9bed 3ebd 035c 963c 8961 903d
000000a0: f647 36bd b47a 103d dd59 f83c 9a8d 62bd
000000b0: 72d5 4dbd 670b 5b3b 53d5 2f3a f644 b9bb
000000c0: d70f 183d 882c c4bd 92b2 51bd f5d4 133d
000000d0: dd74 eb39 9358 5a3d 3fe2 14bd 2f9a c63d
000000e0: 6f75 03be 869a c73d fc33 d1bb 5759 1a3d
000000f0: 4572 4cbb fac4 5b3d f416 063c 9879 2e3d
00000100: d8e2 713d 3d38 503d 0037 2d3d e5d2 fbbc
00000110: 7474 a83d 5cad b7bc 9057 fa3c 80b5 e1bb
00000120: ad89 de3c b680 b9bd 5544 97bd be6b 91bc
00000130: 5a1c 1b3d d452 b73d a8c1 603d 51e9 d53c
00000140: 9b84 38bc 00c4 29bd 16fa 3e3d 2380 15bd
00000150: c956 c93c 5c74 babd df72 ec3c c3f6 113d
00000160: 89c8 ea3c 4703 a53d 4172 943a 0d0f fdbc
00000170: 724a 9ebc 880f c9bc f9cd ef3c d654 8b3b
00000180: 20db 62bd a014 e0bc 4fad b7bb 03e7 683c
00000190: df44 8cbc 7cbc 2ebd caaa a5bd 627f 5ebd
000001a0: 2458 5b3d f5e6 033d 998e 12bc c43e 2bbb
000001b0: 8cfc 38bd 2e00 90bd c4fa c7bd b9e5 bfbc
000001c0: 2c23 67bd 7ec6 ff3c e351 683d 63d1 3b3d
000001d0: 1bcc eabc b200 b23d 02d4 4cbd d760 863d
000001e0: 4521 f23b de37 403c acfd 4f3d 78a1 693d
000001f0: 2420 dc3c 50f2 873a 8c80 a83c 0757 c8bd
00000200: 7249 d8bc 7c09 533c 6e40 0f3d 3d5c c2bd
00000210: cf2c d03c 44a6 fb3d e070 31bd ed4c 9e3a
00000220: a4c5 ccbd cf5c 723d 5ecf 4abd 5941 37bd
00000230: 624d 83bd fb9f 9fbd 63cd cebc 94e9 223d
00000240: 203a bfbd 9c5a c23a 05cc 5a3d bdb3 453b
00000250: a5ee 2cbd 6cf8 f8bb 540e a8bd f52d 88bd
00000260: 1db7 1a3d 01b0 20bd 2224 8d3d 1035 bdbd
00000270: afd4 073d 63d3 71bd 9654 2b3c 43b5 06bd
00000280: 5666 a5bc 3bb8 6e3b 8a2c 4cbd 2b07 0f3d
00000290: f7b9 77bd 7225 013d 3298 843d d89b 42bd
000002a0: 0cee 6d3c 9d8c fc3c 5c81 9abc d1d4 7e3d
000002b0: a2d1 083d f1c1 1aba b1d3 b7bd f12f 813d
000002c0: 574a 5abd 9309 bd3d 5318 ec3a dd83 8bbd
000002d0: c737 49bd 2466 05be 2182 b73b 855f 8c3d
000002e0: 2240 8f3b 10f3 cc3c 5bf8 4bba c25f 033d
000002f0: de03 03bd 1f50 533c 0414 eb3a 583e be3a
00000300: b54e 71bd 704e 28bc b4e8 ee3c 3e22 2ebd
00000310: e48a 703d faec 6a3c 4835 c23c cd7b d9bd
00000320: 1626 863d 1546 d13c 5abb 603d b388 1abd
00000330: f0f1 7abd 1463 793d 7d43 1cbd 617d 70bd
00000340: 5173 bfbb f0ce 9f3b e56e b83d d016 753d
00000350: 7c10 e7bc ac5f 003c 14a8 5b3c d549 1bbd
00000360: 59b6 1bbc cdd9 24bb c40b a8bd a037 903d
00000370: ca07 89bd 6618 123e 071a 9abd 5a93 fabc
00000380: 9284 933d 20e2 903d 8dcf eabb a0a7 50bc
00000390: f783 f23c 96f2 82bd dac4 b13d 0015 18bd
000003a0: eafc 00bc 14f8 913d c7c1 9bbb 16c9 2d3d
000003b0: b1ae 42bd 730e 23bd 3509 8abd fd3f 373b
000003c0: 9660 86bd f02f 05bd fff7 f23c 9f77 cfbc
000003d0: 352d 90bd b52f 813c 07d4 1bbd cd87 7b3d
000003e0: 8530 68bd 44f5 d93c 057b 82bc 583a eabb
000003f0: 7118 02bd 71f2 f03d 348c 263d 28d8 2fbb

encoder.2.bias f4 [128]
-0.022369403 0.036895238 -0.045766782 0.015047291 -0.01935964 -0.014320051 -0.020629853 0.008767419
-0.026014391 -0.044286035 0.050871402 0.025187286 0.02492425 -0.028937154 0.009821223 0.035489637
-0.045420665 -0.037305657 -0.00032380465 0.015407212 0.03713371 0.009859409 0.030210074 0.015085327
0.020078832 -0.001402608 0.0069349455 0.009787996 -0.0347831 -0.03545205 0.03615785 -0.009849833
0.008817863 0.0062635154 0.022621796 0.028787652 0.0048384718 0.027531812 -0.00393923 -0.05599022
-0.024620207 -0.030332018 0.0124372495 -0.009674042 -0.038715124 0.003088134 0.028959984 0.023049872
0.0076210625 -0.0074787433 0.013558395 0.01633435 -0.035466477 0.041580297 -0.01837504 0.09669928
-0.025290934 -0.021679701 -0.038816016 -0.0038283542 0.022875743 0.029428491 0.016200708 -0.03204927
-0.041689016 0.007641515 0.0037099032 -0.01676017 0.0015173455 0.012392459 0.020249305 -0.008448715
0.031441607 0.005567071 0.0022919707 0.0030307434 0.03998797 -0.02665979 0.028468693 -0.0019749752
0.020154512 -0.019947682 -0.004396658 -0.0010679313 0.04426212 0.05372154 -0.016626824 0.0027225434
0.015088156 0.033187483 -0.039984126 0.025711967 -0.036265794 0.03726605 -0.01912407 -0.01845886
-0.028518206 -0.016356586 -0.019704355 -0.026680185 0.020227145 -0.008563062 -0.022295922 -0.031155834
-0.041238368 0.04857574 0.027657237 0.030585766 0.026974905 -0.03842764 0.016278623 0.010049604
0.012287859 -0.050772283 -0.014315747 -0.060699 0.021846306 0.024157822 0.030639878 -0.03133603
0.0092519345 -0.0030763338 -0.0028241521 -0.015718497 -0.030837609 -0.032359064 -0.023595948 0.026401319
00000000: 0a40 b7bc 761f 173d f375 3bbd ea88 763c
00000010: 1c98 9ebc a69e 6abc f0ff a8bc 38a5 0f3c
00000020: 221c d5bc 4665 35bd 885e 503d 9155 ce3c
00000030: f12d cc3c 9c0d edbc 32e9 203c 955d 113d
00000040: 050b 3abd d1cd 18bd 53c4 a9b9 886e 7c3c
00000050: 8419 183d 5c89 213c 1e7b f73c 7328 773c
00000060: 5d7c a43c b7d7 b7ba 8a3e e33b d55d 203c
00000070: b978 0ebd 2b36 11bd 411a 143d 3261 21bc
00000080: cc78 103c 2d3e cd3b 5851 b93c 15d4 eb3c
00000090: 0b8c 9e3b 658a e13c a814 81bb 0056 65bd
000000a0: 51b0 c9bc da7a f8bc 9bc5 4b3c e07f 1ebc
000000b0: c093 1ebd 4b62 4a3b 7d3d ed3c 16d3 bc3c
000000c0: 1bba f93b 3f10 f5bb 0824 5e3c 9dcf 853c
000000d0: 4c45 11bd 1a50 2a3d 4087 96bc 460a c63d
000000e0: ef2e cfbc a199 b1bc 8bfd 1ebd 20e5 7abb
000000f0: e965 bb3c 0514 f13c 59b7 843c 1846 03bd
00000100: 1ac2 2abd ad65 fa3b d921 733b a04c 89bc
00000110: abe1 c63a be09 4b3c dfe1 a53c 7b6c 0abc
00000120: eac8 003d fa6b b63b e334 163b 709f 463b
00000130: 6dca 233d a265 dabc 2d37 e93c 966e 01bb
00000140: 131b a53c 5269 a3bc d711 90bb d4f9 8bba
00000150: 324c 353d 1e0b 5c3d fa34 88bc b36c 323b
00000160: 5034 773c 99ef 073d 65c6 23bd e7a1 d23c
00000170: 718b 14bd 49a4 183d 15aa 9cbc 0937 97bc
00000180: 039f e9bc 3ffe 85bc 076b a1bc 6790 dabc
00000190: 66b3 a53c 164c 0cbc f0a5 b6bc 853a ffbc
000001a0: 90e9 28bd 5bf7 463d 6e91 e23c 008f fa3c
000001b0: 7afa dc3c 4d66 1dbd bf5a 853c 18a7 243c
000001c0: 0453 493c 99f6 4fbd 988c 6abc 849f 78bd
000001d0: 06f7 b23c a0e6 c53c 7b00 fb3c 365a 00bd
000001e0: 6d95 173c 519c 49bb 6915 39bb 14c4 80bc
000001f0: 279f fcbc f08a 04bd 4a4c c1bc 9447 d83c

encoder.4.weight f4 [64, 128]
0.020264959 -0.030642798 -0.13570781 0.0953523 0.0496315 0.060840987 0.048075303 -0.08597517
0.0837943 0.0712091 0.11281896 -0.065191545 0.04701079 0.16907008 -0.0457096 0.017633224
-0.060294863 0.066982895 -0.029875632 -0.06307767 0.0833658 0.09631248 0.10593983 0.002051868
-0.024714906 -0.060743663 0.08192874 -0.02292207 -0.007049639 -0.08134601 -0.011395303 0.14369632
-0.021241706 0.026981793 -0.12899785 -0.050683014 -0.114157476 -0.036016688 -0.049582668 0.08806062
0.04033721 -0.02636013 0.11065777 0.025820533 -0.035565067 -0.030829608 -0.10476089 0.034622
-0.07223473 0.04855122 -0.102509685 0.06996712 -0.033653907 0.022618776 0.030979991 0.032644834
-0.052915048 4.1988224e-05 0.04611265 0.1020318 -0.010246193 -0.026417352 -0.04870192 -0.033270597
0.04093839 -0.081636645 0.045500647 -0.018844752 0.101471506 0.0763249 -0.08590356 0.10259961
0.08075128 -0.16545925 -0.06923155 -0.08955013 0.006950593 0.10496208 0.011013965 -0.11144004
0.03537785 -0.073932216 0.08145407 -0.022005983 -0.0030093018 0.017724833 0.06261741 -0.01834301
0.0008692028 0.0058922786 -0.045905195 0.14471038 0.008357789 0.012465436 -0.06593109 0.059584636
-0.03985457 0.07588908 -0.00031092908 -0.13201869 -0.029369365 0.12098573 -0.045611337 -0.01843257
0.010994008 0.02025985 0.0883037 -0.08664323 -0.028544925 -0.07048788 0.051515322 -0.042126354
0.024864476 0.024447361 -0.11551449 0.06504574 0.032215502 0.11706659 -0.008563884 0.059553973
-0.055608306 0.03663271 0.11871416 0.045533653 -0.082428895 0.0575409 0.021639125 -0.042198867
-0.009392018 -0.07039743 -0.09292075 0.00985022 0.0054975986 0.110269465 -0.0059523503 -0.06753182
-0.028153593 -0.02303947 0.074663915 -0.04684608 0.027845606 -0.0024907803 -0.039297666 -0.03099676
-0.043300584 -0.029933305 -0.0037594396 -0.082316324 0.01169311 0.008298093 0.056470238 -0.048988707
0.060593285 0.02312259 0.10905315 0.081393994 -0.04828414 -0.062611826 -0.06662335 0.09752533
-0.02936071 -0.0073805186 0.06646824 0.049056612 0.09173069 0.030846098 0.0020989866 0.1012832
0.042174034 0.04437735 -0.055471193 0.072739996 0.07895873 0.025661472 -0.034175914 -0.09824912
0.05954697 -0.049943503 -0.033374943 0.007159484 0.07936343 -0.06829917 0.097489096 0.02953557
-0.087788515 -0.012737836 -0.010037347 0.08140771 0.005985548 -0.10842475 -0.070348196 -0.038559496
-0.026293525 -0.067900985 0.05315562 0.025151346 -0.010592644 -0.02046256 0.041822273 0.043593515
0.08766476 0.014343705 -0.0001822671 -0.055085316 -0.076134324 -0.089291625 -0.006905365 -0.05379871
0.082403965 -0.07590016 0.0030110446 0.036833093 0.00054488675 0.00045674422 0.028094085 -0.09683074
0.032191567 0.043985292 0.072566 -0.04440202 0.079756856 0.06562892 -0.057909224 -0.07273753
-0.01336682 -0.103150845 0.00092639256 0.03292373 -0.12759875 -0.06784598 -0.13459255 0.046533883
0.05993942 -0.021481935 -0.06619145 0.00031765513 0.08739884 -0.13453491 -0.030184332 0.015748285
-0.02568276 -0.0022617702 -0.14400491 -0.08573454 -0.022144014 -0.043710552 -0.0071137897 -0.06940738
0.09774681 0.022718813 0.07874817 0.021656863 0.08980886 0.004392793 0.01443826 0.11335119
00000000: b302 a63c 9b06 fbbc fdf6 0abe 1148 c33d
00000010: 664a 4b3d 6634 793d 9cea 443d c013 b0bd
00000020: 599c ab3d 14d6 913d a00d e73d 2583 85bd
00000030: 638e 403d b520 2d3e fd39 3bbd 8d73 903c
00000040: bff7 76bd 542e 893d bebd f4bc de2e 81bd
00000050: b0bb aa3d 7a3f c53d fbf6 d83d a278 063b
00000060: ea76 cabc 59ce 78bd 41ca a73d 11c7 bbbc
00000070: a800 e7bb bd98 a6bd 5db3 3abc 2125 133e
00000080: 1603 aebc ec08 dd3c 0318 04be fe98 4fbd
00000090: 65cb e9bd 3c86 13bd 3217 4bbd 2059 b43d
000000a0: a138 253d 33f1 d7bc 8aa0 e23d 9585 d33c
000000b0: adac 11bd 608e fcbc e18c d6bd cccf 0d3d
000000c0: cdef 93bd a5dd 463d 99f0 d1bd ec4a 8f3d
000000d0: aed8 09bd 034b b93c c0c9 fd3c 97b6 053d
000000e0: 73bd 58bd 831c 3038 9ee0 3c3d 0cf6 d03d
000000f0: a6df 27bc 3469 d8bc aa7b 47bd c046 08bd
00000100: 03af 273d 1d31 a7bd e35e 3a3d 4f60 9abc
00000110: 4bd0 cf3d 3b50 9c3d 35ee afbd bf1f d23d
00000120: ed60 a53d 266e 29be 45c9 8dbd 0f66 b7bd
00000130: cdc1 e33b 5cf6 d63d eb73 343c ad3a e4bd
00000140: 5de8 103d c669 97bd 64d1 a63d e445 b4bc
00000150: b537 45bb ab33 913c 8f3d 803d 1544 96bc
00000160: 36db 633a 0414 c13b 1607 3cbd f52e 143e
00000170: 1cef 083c d43b 4c3c e106 87bd 050f 743d
00000180: 8c3e 23bd bc6b 9b3d 3204 a3b9 e82f 07be
00000190: 0698 f0bc 5ec7 f73d f4d2 3abd e7ff 96bc
000001a0: 3620 343c fcf7 a53c 92d8 b43d 0172 b1bd
000001b0: 0cd7 e9bc f35b 90bd bb01 533d af8c 2cbd
000001c0: 96b0 cb3c d545 c83c dc92 ecbd b336 853d
000001d0: 67f4 033d 9cc0 ef3d 884f 0cbc deee 733d
000001e0: 89c5 63bd 2e0c 163d 6920 f33d 7f81 3a3d
000001f0: 7bd0 a8bd 02b0 6b3d 8944 b13c b8d8 2cbd
00000200: fbe0 19bc 872c 90bd 3c4d bebd d162 213c
00000210: 3325 b43b f5d4 e13d ef0b c3bb 1f4e 8abd
00000220: 5da2 e6bc 45bd bcbc 65e9 983d ade1 3fbd
00000230: 781c e43c 5c3c 23bb 97f6 20bd ebec fdbc
00000240: f45b 31bd b136 f5bc ee60 76bb 7695 a8bd
00000250: 7594 3f3c baf4 073c 564d 673d 62a8 48bd
00000260: aa30 783d 966b bd3c 4257 df3d e5b1 a63d
00000270: 97c5 45bd a13a 80bd d371 88bd 5cbb c73d
00000280: df85 f0bc 47d8 f1bb 8020 883d 96ef 483d
00000290: 4ddd bb3d f5b0 fc3c 278f 093b 916d cf3d
000002a0: aebe 2c3d 06c5 353d c335 63bd b5f8 943d
000002b0: 1db5 a13d 0238 d23c 0bfc 0bbd d636 c9bd
000002c0: 86e7 733d 8f91 4cbd 2ab4 08bd 1b9a ea3b
000002d0: 4b89 a23d 6fe0 8bbd 5da8 c73d 94f4 f13c
000002e0: 77ca b3bd 5bb2 50bc af73 24bc 16b9 a63d
000002f0: 6a22 c43b cc0d debd b712 90bd 90f0 1dbd
00000300: 8565 d7bc ac0f 8bbd b5b9 593d 320a ce3c
00000310: c58c 2dbc 19a1 a7bc d54d 2b3d 1d8f 323d
00000320: 9589 b33d dc01 6b3c f41e 3fb9 24a1 61bd
00000330: 50ec 9bbd 87de b6bd 6646 e2bb 095c 5cbd
00000340: 69c3 a83d 8b71 9bbd f254 453b 4cde 163d
00000350: bbd6 0e3a 2c77 ef39 9125 e63c 324f c6bd
00000360: 4edb 033d ec29 343d 7c9d 943d e4de 35bd
00000370: 9057 a33d 7568 863d 3932 6dbd 6af7 94bd
00000380: 8200 5bbc c040 d3bd 27d9 723a 08db 063d
00000390: 3fa9 02be d5f2 8abd a1d2 09be 509a 3e3d
000003a0: 0a83 753d e2fa afbc 628f 87bd f38a a639
000003b0: 2afe b23d 85c3 09be 2245 f7bc 8c02 813c
000003c0: a764 d2bc 353a 14bb 0676 13be 9795 afbd
000003d0: 5d67 b5bc d609 33bd cb1a e9bb 7525 8ebd
000003e0: 7b2f c83d ce1c ba3c b846 a13d bc69 b13c
000003f0: b5ed b73d 6bf1 8f3b 748e 6c3c ab24 e83d

encoder.4.bias f4 [64]
0.054327536 0.0055018705 -0.037088476 -0.05952926 -0.022283148 -0.056002084 0.06386044 -0.014767662
-0.017101696 0.026363876 0.061368145 -0.042946145 0.036041934 0.023818575 0.030050283 0.06493111
-0.011364626 -0.09139694 0.08123229 -0.113505885 -0.011841426 -0.016161688 -0.075796284 0.023082534
0.006475615 0.054876328 0.04751903 0.027519882 0.057447195 -0.029843522 -0.04113752 0.03210828
-0.016288588 0.06881274 0.0146774305 0.012281588 0.030137502 -0.047555093 0.079084694 0.031998735
0.08577278 -0.052359104 0.04160141 0.010461278 -0.04104564 0.073696956 -0.04275117 -0.000121279634
0.005220919 -0.004452141 -0.0033137884 0.012571759 -0.037428208 -0.020704273 -0.057200033 0.00042071292
-0.06739793 0.0070156115 -0.0062267575 -0.037398722 0.0668105 0.010671606 0.027213749 -0.009468141
00000000: 8d86 5e3d 0949 b43b 16ea 17bd f4d4 73bd
00000010: 268b b6bc 7162 65bd 43c9 823d 10f4 71bc
00000020: db18 8cbc 0ef9 d73c 2a5d 7b3d 4ce8 2fbd
00000030: b5a0 133d 2c1f c33c 032c f63c 9afa 843d
00000040: b232 3abc 522e bbbd 1d5d a63d c675 e8bd
00000050: 8a02 42bc 8465 84bc 153b 9bbd 9517 bd3c
00000060: 6531 d43b 00c6 603d 50a3 423d 6071 e13c
00000070: c04d 6b3d 677a f4bc d17f 28bd f983 033d
00000080: a56f 85bc b2ed 8c3d 9b79 703c b738 493c
00000090: ece2 f63c 21c9 42bd 28f7 a13d 1b11 033d
000000a0: a4a9 af3d 8076 56bd 3d66 2a3d c865 2b3c
000000b0: 791f 28bd 6eee 963d da1b 2fbd 8257 feb8
000000c0: 3e14 ab3b 44e3 91bb 252c 59bb c7f9 4d3c
000000d0: 524e 19bd 029c a9bc 954a 6abd 2293 dc39
000000e0: ed07 8abd 37e3 e53b d409 ccbb 672f 19bd
000000f0: f2d3 883d f6d7 2e3c 5eef de3c 4320 1bbc

encoder.6.weight f4 [30, 64]
0.11175392 -0.09301928 -0.02546868 0.08044996 -0.057404906 -0.14386807 -0.15365994 0.042726535
-0.032804213 -0.0028229118 -0.10706502 0.13841474 -0.03130919 0.09124055 0.10824748 -0.044829413
-0.11189436 0.026529916 0.015039699 0.058721434 0.011606789 -0.03140049 -0.026024045 -0.1403143
-0.08795522 0.15819962 -0.08933974 0.04882052 -0.078674406 0.116859764 -0.0051995777 -0.10617463
-0.08514407 0.01816769 -0.108469665 0.007649694 0.023194943 -0.12830928 0.06919705 0.0151619315
0.12871662 -0.06405395 -0.14949265 -0.12824504 0.14817654 -0.11669305 -0.06807348 0.08707125
0.1185133 0.16550891 -0.16009234 0.0044715586 -0.09175061 -0.17209679 -0.11175133 0.118025534
-0.075884745 -0.077175654 0.15896213 -0.08406004 -0.16251193 -0.037277717 -0.062104397 -0.08942497
-0.063776314 0.023393717 0.09591373 0.0009251798 0.17340834 -0.14824028 0.06320264 -0.05162862
-0.08178242 0.038692817 -0.07242017 0.15027627 0.1573802 0.017396102 0.090019315 0.09241704
0.067081206 -0.022688806 -0.133011 -0.11976804 0.011699262 -0.014974819 0.12887396 0.14475645
0.14380223 -0.09026383 -0.13615057 0.032657854 -0.052477513 -0.10628784 0.0757271 0.09170147
-0.09320998 0.14513218 0.16788548 0.07021308 0.14854112 -0.10330968 0.02102958 -0.15540138
-0.0015381163 0.069093645 -0.021961175 0.13297977 -0.089257196 -0.08791137 0.049982827 0.121233396
0.032567065 0.1256009 -0.0046660267 0.044792026 0.031420555 -0.054546777 -0.025684994 0.027969517
0.08613348 0.03859681 -0.06946899 0.065448426 -0.003328172 0.10210079 0.07499225 -0.09510754
-0.043898255 0.03188178 0.055205647 -0.13549036 0.053026874 0.11534755 -0.015135663 0.058171228
-0.1130243 -0.039746188 -0.11169221 0.07414709 -0.05173299 0.14641951 -0.061171506 0.04092941
0.07901681 0.028226087 -0.041424 -0.016951744 0.073558055 0.24189833 0.016751068 0.0059207417
-0.15194292 0.08890175 -0.11403288 -0.12409765 0.059263233 -0.052488245 0.09496977 0.15789385
-0.11809595 0.08488626 -0.11776085 0.008051531 0.039389335 0.04654799 0.049309205 -0.06836662
0.094051436 -0.030062502 0.08169554 -0.017950902 0.0620782 0.07022401 0.11174115 -0.17337461
-0.01613902 -0.06065397 -0.072022066 0.0017107849 0.090962894 0.041771967 0.18826889 0.123785585
-0.17902966 0.1311894 0.15554623 0.14519148 -0.10314616 0.2660687 -0.0137082 -0.046308786
0.062076602 0.16793749 0.1143105 -0.027807917 0.07529357 0.0054022656 -0.13603668 -0.11779419
0.2521567 0.11855402 -0.014610346 0.15541941 -0.123279996 0.018944401 -0.18280956 -0.028360682
-0.11784114 -0.09770807 -0.08634149 0.17477782 0.07006136 -0.10833038 0.095440395 -0.0016509597
0.11770967 -0.048023615 0.10357485 -0.035835396 0.12088059 0.0345778 0.075064935 -0.07134892
-0.11755162 0.120049074 0.14149009 -0.0013788366 -0.049986895 0.15837471 -0.029098297 0.06006917
0.10548721 0.14088479 -0.03763007 0.10063491 0.0004231468 -0.07840882 0.040846247 -0.13972174
-0.21801206 -0.060998082 -0.041025504 -0.119965814 -0.023946721 -0.07744443 -0.023118064 0.10661766
-0.02650726 -0.005334755 -0.05177489 -0.13927749 -0.039579034 0.002958631 0.043538317 -0.087092355
00000000: 3ddf e43d e480 bebd b1a3 d0bc f3c2 a43d
00000010: 6821 6bbd 2752 13be 0859 1dbe 0502 2f3d
00000020: b65d 06bd 9a00 39bb e844 dbbd 98bc 0d3e
00000030: 113e 00bd 53dc ba3d dbb0 dd3d 0c9f 37bd
00000040: df28 e5bd 4455 d93c 1269 763c e385 703d
00000050: 672a 3e3c cd9d 00bd 6130 d5bc 8dae 0fbe
00000060: de21 b4bd 15ff 213e c1f7 b6bd 07f8 473d
00000070: 0c20 a1bd 2c54 ef3d 3861 aabb 1672 d9bd
00000080: 0460 aebd 68d4 943c 5825 debd 49aa fa3b
00000090: 5203 be3c 8263 03be 2fb7 8d3d c069 783c
000000a0: 4ace 033e b82e 83bd 9a14 19be ab52 03be
000000b0: 97bb 173e c4fc eebd 1c6a 8bbd 6952 b23d
000000c0: 1ab7 f23d 2b7b 293e 3fef 23be 2786 923b
000000d0: bee7 bbbd 243a 30be e2dd e4bd 5fb7 f13d
000000e0: 7669 9bbd 450e 9ebd f8c6 223e ac27 acbd
000000f0: 8769 26be 85b0 18bd 2e61 7ebd 7024 b7bd
00000100: 289d 82bd 2ea4 bf3c 6b6e c43d c487 723a
00000110: f591 313e 4dcc 17be 6370 813d 8878 53bd
00000120: 8b7d a7bd 5c7c 1e3d 0751 94bd 06e2 193e
00000130: 4628 213e 4582 8e3c 0c5c b83d 2545 bd3d
00000140: df61 893d e0dd b9bc 0934 08be f248 f5bd
00000150: 43ae 3f3c f158 75bc 89f7 033e 093b 143e
00000160: e440 133e 3edc b8bd 0e6b 0bbe 3ec4 053d
00000170: a9f2 56bd 70ad d9bd cf16 9b3d fbcd bb3d
00000180: e0e4 bebd 889d 143e 2cea 2b3e e0cb 8f3d
00000190: 2a1b 183e 0794 d3bd 3a46 ac3c 8a21 1fbe
000001a0: 9e9a c9ba f880 8d3d ece7 b3bc d92b 083e
000001b0: 7acc b6bd e00a b4bd cbba 4c3d 3749 f83d
000001c0: 0b65 053d 869d 003e 78e5 98bb d877 373d
000001d0: d7b2 003d 716c 5fbd 5669 d2bc 5420 e53c
000001e0: c066 b03d b017 1e3d c245 8ebd d309 863d
000001f0: 761d 5abb 381a d13d 8995 993d bec7 c2bd
00000200: a8ce 33bd 7896 023d 511f 623d fcbd 0abe
00000210: b532 593d 563b ec3d 92fb 77bc f444 6e3d
00000220: 4979 e7bd e6cc 22bd e3be e4bd 6eda 973d
00000230: f9e5 53bd ffee 153e f98e 7abd 99a5 273d
00000240: 91d3 a13d 653a e73c 36ac 29bd 62de 8abc
00000250: 9ba5 963d 32b4 773e 8939 893c c802 c23b
00000260: ed96 1bbe 1f12 b63d 128a e9bd e926 febd
00000270: 01be 723d eafd 56bd 837f c23d edae 213e
00000280: 4adc f1bd d9d8 ad3d 9a2c f1bd 92ea 033c
00000290: b656 213d 1ba9 3e3d 73f8 493d cc03 8cbd
000002a0: 0a9e c03d a345 f6bc fe4f a73d c50d 93bc
000002b0: b645 7e3d 9bd1 8f3d 8bd8 e43d 1d89 31be
000002c0: fa35 84bc 4c70 78bd 4e80 93bd 6a3c e03a
000002d0: c14a ba3d 1519 2b3d 8fc9 403e 4c83 fd3d
000002e0: 8d53 37be 8456 063e 8347 1f3e 13ad 143e
000002f0: 4b3e d3bd 283a 883e 5c98 60bc 48ae 3dbd
00000300: 0944 7e3d cef7 2b3e a01b ea3d 6ecd e3bc
00000310: 8433 9a3d 7d05 b13b 334d 0bbe 153e f1bd
00000320: af1a 813e 73cc f23d 3c60 6fbc 4426 1f3e
00000330: 397a fcbd 4a31 9b3c 6e32 3bbe a954 e8bc
00000340: b256 f1bd 2b1b c8bd cfd3 b0bd f5f8 323e
00000350: 557c 8f3d 51dc ddbd 4176 c33d 0465 d8ba
00000360: c411 f13d 69b4 44bd 0d1f d43d 23c8 12bd
00000370: 3e90 f73d 74a1 0d3d a5bb 993d 621f 92bd
00000380: e7be f0bd 4adc f53d c7e2 103e 14ba b4ba
00000390: 0fbf 4cbd fb2c 223e 8d5f eebc 170b 763d
000003a0: ae09 d83d 1a44 103e fd21 1abd ad19 ce3d
000003b0: cdd9 dd39 ce94 a0bd 654e 273d 3713 0fbe
000003c0: 8e3e 5fbe 20d9 79bd 5c0a 28bd a3b0 f5bd
000003d0: ea2b c4bc 2f9b 9ebd 1862 bdbc 5c5a da3d
000003e0: c125 d9bc 2bcf aebb e811 54bd c29e 0ebe
000003f0: a01d 22bd 97e5 413b 3c55 323d 7a5d b2bd

encoder.6.bias f4 [30]
0.034547947 0.095132604 0.038432837 0.092398934 0.06242683 -0.00512397 -0.012571189 -0.01608542
-9.527975e-06 0.0064057135 0.11389841 -0.014449929 0.06007123 -0.011584151 0.06417464 -0.061258353
0.06893035 0.005235803 -0.052177053 -0.019561961 -0.061163846 0.08323587 -0.06821922 -0.04682755
-0.03918109 0.03914443 -0.016625179 0.06964286 -0.02999225 0.08038166
00000000: 2682 0d3d e2d4 c23d c06b 1d3d a73b bd3d
00000010: 47b3 7f3d fae6 a7bb 63f7 4dbc 92c5 83bc
00000020: 57da 1fb7 05e7 d13b 9243 e93d 65bf 6cbc
00000030: 400d 763d 73cb 3dbc fe6d 833d 0aea 7abd
00000040: 5b2b 8d3d 1991 ab3b 9bb7 55bd 6840 a0bc
00000050: f186 7abd 9177 aa3d 85b6 8bbd 3fce 3fbd
00000060: 5a7c 20bd e955 203d 8731 88bc eaa0 8e3d
00000070: 4fb2 f5bc 249f a43d

decoder.0.weight f4 [64, 30]
0.19393311 -0.09027534 -0.027452813 0.08178187 0.036852963 -0.1799875 -0.06998676 -0.072340295
-0.023287268 -0.2907457 0.18547283 -0.19979972 0.017642945 0.021856055 -0.07539074 0.08838319
0.04275958 -0.12151223 0.16039105 -0.0706133 -0.027804565 0.14433883 -0.22429368 0.04299652
0.11720738 0.028915899 0.12039797 0.059837803 0.18979567 0.08562191 -0.15077804 -0.11747373
0.00032968953 0.055344854 -0.0027418411 0.10721843 0.016401336 0.13620375 0.15359116 0.18581933
0.20392208 -0.05494355 -0.021742495 0.12423142 0.20414284 0.025479905 -0.17263067 -0.010679245
0.11952362 -0.186586 -0.2453231 -0.093253784 0.120253064 0.014142672 0.2230899 0.06919006
-0.17245217 -0.00074343616 0.04244652 -0.17289065 0.09851451 -0.021959443 0.054253217 0.11032845
-0.14107244 -0.17135172 -0.26840097 0.07386511 0.085283175 -0.06300687 -0.04024773 0.21478164
0.07872382 0.19563104 0.17060119 0.12172418 -0.015472729 0.043916255 0.055226155 0.14871708
-0.15415692 0.12113798 0.0013900979 -0.040382084 0.15265316 0.04671165 0.10654458 -0.059925653
-0.10192719 0.1000757 -0.073304206 -0.13786422 0.022041079 0.00063492026 -0.122905724 -0.09561357
-0.2209362 0.07456638 0.20209771 -0.1503031 0.022611184 0.06996292 0.0086678015 0.09362911
0.14135905 -0.1004731 0.003006509 0.1547405 -0.18930976 0.049978565 -0.1843727 0.009589959
0.23299749 0.12576966 -0.04240211 0.108180344 0.0333787 0.02616568 -0.009158655 -0.09453677
-0.16831402 0.017647192 0.06548005 0.03278191 0.07036931 0.22921966 -0.06324355 -0.018784925
0.070704624 0.12550968 -0.110311456 -0.12001473 0.2287527 0.10687462 -0.08521592 0.09970407
0.056973424 -0.19439445 0.008098253 0.10742495 -0.046686396 0.15352371 0.17319411 -0.14805223
-0.059227843 0.16433202 0.047918133 -0.001900991 -0.113862835 0.09849156 -0.08925874 -0.012891263
0.073557325 -0.0740229 -0.06679871 0.01921886 0.022689978 -0.071811825 0.05519081 0.021199102
-0.20568076 -0.043329116 0.18894616 0.18395503 0.08953834 -0.16932899 -0.1670232 -0.0023452328
-0.09488573 0.13913654 0.083722614 -0.03701996 -0.114876546 -0.11257363 -0.02112214 0.1816154
0.18604054 -0.19467154 -0.14817484 -0.15181643 -0.09574304 0.10993947 -0.15070578 0.18894483
-0.00021154454 0.1706889 -0.027295677 -0.07263761 -0.08483878 -0.20076063 -0.14401893 0.012283585
-0.17383303 -0.11893621 0.080580495 0.16606243 -0.1515439 0.0006476036 -0.007309614 -0.10776631
0.03996359 -0.040716548 0.06910436 -0.19638765 0.06374609 -0.11602163 -0.0928967 0.016844131
-0.15681241 -0.13822898 -0.06407288 -0.022880271 0.05908475 0.18036242 -0.1577656 -0.010692106
0.05664718 0.18761902 0.10337818 -0.005054295 0.15562703 0.17857444 -0.06287324 0.04793605
-0.08865926 0.038553666 0.033766862 -0.0023055656 -0.010894596 -0.21587941 0.027710307 0.053291097
0.004314913 0.03288427 -0.008392136 0.07341858 -0.10404739 -0.1488496 0.09963419 0.00040031728
0.10917684 -0.022067286 0.05362891 0.09425361 0.0047323937 0.02379757 0.12067709 0.096221514
-0.112243734 -0.007790739 0.11060388 -0.09212475 -0.08045687 0.06251525 -0.022267543 0.09687971
00000000: 6796 463e 47e2 b8bd b9e4 e0bc 417d a73d
00000010: 22f3 163d a54e 38be 3855 8fbd 2627 94bd
00000020: f1c4 bebc 9fdc 94be 97ec 3d3e 4c98 4cbe
00000030: f087 903c 780b b33c 7666 9abd 3f02 b53d
00000040: ab24 2f3d 67db f8bd 8d3d 243e b59d 90bd
00000050: 66c6 e3bc 8fcd 133e 3ead 65be 1e1d 303d
00000060: 6c0a f03d 09e1 ec3c 3693 f63d 7c18 753d
00000070: cc59 423e 8a5a af3d 8f65 1abe 1196 f0bd
00000080: 2eda ac39 49b1 623d 76b0 33bb 5695 db3d
00000090: 185c 863c ff78 0b3e 0047 1d3e 6c47 3e3e
000000a0: f3d0 503e 7d0c 61bd 511d b2bc 0b6d fe3d
000000b0: d20a 513e 3cbb d03c 18c6 30be 00f8 2ebc
000000c0: cdc8 f43d 6610 3fbe fb35 7bbe d7fb bebd
000000d0: 3d47 f63d aab6 673c ae71 643e 85b3 8d3d
000000e0: 4d97 30be 28e3 42ba 67dc 2d3d 3f0a 31be
000000f0: fac1 c93d 4ae4 b3bc 9f38 5e3d e2f3 e13d
00000100: 4b75 10be d376 2fbe da6b 89be 9746 973d
00000110: f2a8 ae3d bf09 81bd ceda 24bd b8ef 5b3e
00000120: f439 a13d 8153 483e 14b2 2e3e 874a f93d
00000130: 5481 7dbc 88e1 333d d234 623d 4a49 183e
00000140: 50db 1dbe 3017 f83d f233 b63a af67 25bd
00000150: 1c51 1c3e b754 3f3d 0b34 da3d 9a74 75bd
00000160: 34bf d0bd 7df4 cc3d 8420 96bd 472c 0dbe
00000170: 7e8f b43c c770 263a ffb5 fbbd 0cd1 c3bd
00000180: 193d 62be 42b6 983d b4f2 4e3e 0ee9 19be
00000190: 173b b93c b848 8f3d 6503 0e3c 9ec0 bf3d
000001a0: 6dc0 103e d7c4 cdbd da08 453b 4b74 1e3e
000001b0: 6bda 41be 53b6 4c3d 32cc 3cbe 341f 1d3c
000001c0: e596 6e3e c3c9 003e d6ad 2dbd a88d dd3d
000001d0: 1bb8 083d 6859 d63c 2f0e 16bc 7e9c c1bd
000001e0: 835a 2cbe d890 903c 681a 863d 5346 063d
000001f0: c91d 903d 8fb8 6a3e d685 81bd d8e2 99bc
00000200: 96cd 903d 9c85 003e f9ea e1bd 48ca f5bd
00000210: 263e 6a3e 15e1 da3d af85 aebd a631 cc3d
00000220: f75c 693d 570f 47be 89ae 043c 9d01 dc3d
00000230: 3c3a 3fbd 5235 1d3e cc59 313e 019b 17be
00000240: e598 72bd a746 283e ce45 443d ac2a f9ba
00000250: eb30 e9bd f1b5 c93d 49cd b6bd e035 53bc
00000260: 39a5 963d 5199 97bd c3cd 88bd df70 9d3c
00000270: 55e0 b93c 1412 93bd c20f 623d bda9 ad3c
00000280: fa9d 52be df79 31bd 1a7b 413e b55e 3c3e
00000290: e15f b73d 9464 2dbe 2108 2bbe 7ab2 19bb
000002a0: 7353 c2bd cf79 0e3e c376 ab3d 3ea2 17bd
000002b0: 6544 ebbd 018d e6bd 5708 adbc 63f9 393e
000002c0: 6981 3e3e fa57 47be 25bb 17be c475 1bbe
000002d0: ed14 c4bd f227 e13d 9e52 1abe c17a 413e
000002e0: 0ed2 5db9 12c9 2e3e 2f9b dfbc 07c3 94bd
000002f0: f4bf adbd 3294 4dbe b379 13be 1741 493c
00000300: 4901 32be d494 f3bd 6307 a53d 450c 2a3e
00000310: 532e 1bbe f1c3 293a 7d85 efbb 95b4 dcbd
00000320: ddb0 233d 65c6 26bd 9686 8d3d d819 49be
00000330: 4f8d 823d c09c edbd a040 bebd b4fc 893c
00000340: 6f93 20be e68b 0dbe a438 83bd 686f bbbc
00000350: da02 723d edb0 383e 4e8d 21be f12d 2fbc
00000360: e006 683d 331f 403e f0b7 d33d 809e a5bb
00000370: b15c 1f3e 38dc 363e afc3 80bd 9758 443d
00000380: fc92 b5bd 73ea 1d3d 1f4f 0a3d f918 17bb
00000390: 3f7f 32bc 7e0f 5dbe ba00 e33c c447 5a3d
000003a0: 1d64 8d3b a8b1 063d 2b7f 09bc 7b5c 963d
000003b0: cc16 d5bd 086c 18be 030d cc3d ade1 d139
000003c0: 1b98 df3d 74c6 b4bc fda9 5b3d 0908 c13d
000003d0: 3212 9b3b 1ff3 c23c 8d25 f73d c90f c53d
000003e0: 0be0 e5bd 7549 ffbb 4984 e23d e7ab bcbd
000003f0: 92c6 a4bd ff07 803d 6c6a b6bc df68 c63d

decoder.0.bias f4 [64]
-0.0038895744 -0.08788835 -0.07985639 0.035811704 -0.04446931 0.06251992 -0.0056039942 -0.032895982
-0.03349805 0.0077944254 0.008032694 0.0067801587 -0.080958456 0.09462715 -0.10709201 0.052666884
-0.054587957 0.039972052 -0.05060791 0.07819367 -0.032312635 -0.13583598 -0.04075704 -0.055554867
0.14014454 0.05294928 -0.039466742 0.13645338 0.0049105613 0.06800711 -0.048813555 -0.004117548
-0.07007288 0.027603466 0.10291043 0.0064282943 -0.025948178 0.051211085 0.03777735 0.031198183
-0.101691715 0.013629545 0.012723286 -0.012914558 0.13419499 -0.009705781 0.088215046 0.10117792
0.028069915 -0.104550056 -0.07106697 0.0057645636 -0.03520124 -0.054929394 0.09590817 -0.019539658
-0.11004045 0.024744326 -0.06309583 0.06787368 0.119535975 0.079061605 0.08093894 0.096257016
00000000: 3be8 7ebb cffe b3bd bf8b a3bd 4baf 123d
00000010: 7425 36bd 720a 803d b6a1 b7bb f0bd 06bd
00000020: 4035 09bd 6168 ff3b 909b 033c 182c de3b
00000030: 8ccd a5bd e1cb c13d 0e53 dbbd 3bb9 573d
00000040: 9f97 5fbd bcb9 233d 3d4a 4fbd 0124 a03d
00000050: 415a 04bd 9618 0bbe dbf0 26bd 808d 63bd
00000060: 0d82 0f3e 58e1 583d e1a7 21bd 6fba 0b3e
00000070: c6e8 a03b 5047 8b3d b9f0 47bd 7fec 86bb
00000080: 5f82 8fbd aa20 e23c b4c2 d23d 71a4 d23b
00000090: 4691 d4bc b7c2 513d 6cbc 1a3d 5593 ff3c
000000a0: bf43 d0bd 754e 5f3c 5475 503c 9597 53bc
000000b0: 696a 093e ff04 1fbc 17aa b43d 5f36 cf3d
000000c0: e1f2 e53c 571e d6bd 8f8b 91bd aae4 bc3b
000000d0: 2d2f 10bd a5fd 60bd 816b c43d a211 a0bc
000000e0: e35c e1bd 9db4 ca3c 6338 81bd 5b01 8b3d
000000f0: 47cf f43d 0deb a13d 51c3 a53d 6622 c53d
