customized/model/trained_model/ae/ae_z_32batch_128_basket_hn.pth (torch, 878716 bytes, 16 tensors)

encoder.0.weight f4 [256, 256]
0.009093077 0.03861755 0.024992935 0.03740671 0.09727485 0.049946602 0.042035904 0.026102211
0.09816762 0.07880436 0.029100405 0.030189669 -0.09929275 -0.056385875 -0.038027667 0.025539383
0.014189795 -0.015100077 -0.07016405 -0.0032337548 0.15795982 -0.101421885 0.03688328 0.028895535
-0.009855148 0.036880467 -0.0061016786 -0.07823713 -0.007422005 -0.1297973 -0.02921802 0.18830745
0.03718041 -0.10096567 0.00071972114 0.0560469 0.026654156 -0.06721871 -0.062243167 -0.01992422
-0.045752663 -0.0014184293 0.060927853 0.08031324 0.07954914 -0.042267732 0.053760406 0.017051827
-0.07731214 -0.009844167 -0.08013415 0.05797398 -0.027990997 0.0052028163 -0.036471482 -0.0015106722
-0.038834546 -0.012445587 0.05562228 0.02325434 0.03665566 0.03313941 0.000107433 0.062264092
-0.040214553 -0.014042054 0.043139722 -0.063679636 -0.058682077 0.059524223 0.053762656 -0.051703405
-0.014685321 -0.1665757 -0.06275375 0.039553743 -0.038461205 0.027439952 -0.01478629 -0.042029776
0.053194467 0.049319692 0.011877426 -0.0072420468 0.0047145826 0.017244274 0.017042855 -0.041725345
-0.024272129 -0.0034892235 -0.015927931 0.04654145 0.029587505 -0.04051378 -0.06235666 0.017335163
-0.07002213 0.030732952 -0.027308967 0.017051041 0.04099289 -0.023818187 -0.05916999 -0.055737365
-0.058045853 0.15478551 -0.063416176 -0.06065562 -0.01824704 0.04543863 -0.0020098032 -0.001774213
0.0055566533 0.03509043 -0.028702248 0.06788723 0.015621895 -0.09893825 0.11639571 0.06791504
0.060422935 -0.066035524 -0.07528395 -0.07290054 -0.06989716 -0.03929202 0.014610317 -0.03268512
0.077711806 -0.08050822 0.027200134 0.0240221 0.05902334 -0.050286517 -0.083473794 0.005650289
-0.06759032 -0.008341541 0.047688745 -0.0063318643 0.00020244464 0.018258898 -0.007635677 0.035586767
-0.014781997 0.016343642 0.007006301 0.10651496 -0.018855376 -0.03864527 0.1367201 -0.03762647
0.027207278 0.022492925 -0.00998308 -0.03251985 0.03156793 0.037385304 -0.06625137 0.006750579
-0.057021823 0.0013181791 -0.025892377 0.014387786 -0.058386773 0.007190266 0.07054376 0.061649937
0.045219973 -0.026783599 -0.04406833 0.093997024 0.14859474 -0.010991458 -0.034506034 -0.06401147
0.0018811122 0.0393634 0.0045237974 -0.04605844 0.31623536 0.009740104 -0.111622326 -0.12863332
-0.036496785 -0.04833584 -0.070210144 -0.027370742 -0.0023708204 -0.024909167 0.021161588 0.001086089
-0.0301072 -0.05737772 0.056700636 -0.03129499 0.02766705 0.046945527 0.05732022 -0.006170494
-0.013504614 0.047441 -0.019502703 -0.062152974 -0.052424133 -0.017242355 -0.024787975 -0.0104845865
0.017981393 -0.007782708 -0.0018415661 -0.0036622505 -0.019177608 -0.035383593 0.0011780201 -0.09769995
0.002030886 0.020665074 -0.015477066 0.011039618 -0.20837668 -0.042447973 0.0036698207 -0.00030236642
-0.04606528 -0.002499448 -0.01594615 -0.067323506 0.06282875 -0.060369518 -0.025984729 -0.04570373
0.17554636 -0.13266817 0.2601557 -0.015162414 0.036697637 0.0064645014 0.0124797495 0.06420568
0.026932463 -0.032571588 0.015031529 -0.043636475 0.017245991 -0.031618956 0.009716979 -0.0030338555
-0.024176132 0.0035139201 -0.04165416 -0.061195936 0.0241354 0.015278527 0.058472987 0.023430672
00000000: 21fb 143c 702d 1e3d fcbd cc3c c737 193d
00000010: 0938 c73d cf94 4c3d d72d 2c3d 4ed4 d53c
00000020: 1b0c c93d 2e64 a13d f963 ee3c 5350 f73c
00000030: ff59 cbbd e0f4 66bd e6c2 1bbd f837 d13c
00000040: 507c 683c 5066 77bc 2bb2 8fbd 67ed 53bb
00000050: 38c0 213e 47b6 cfbd ec12 173d 54b6 ec3c
00000060: 7d77 21bc f90f 173d 97f0 c7bb ca3a a0bd
00000070: 4a34 f3bb 95e9 04be a15a efbc abd3 403e
00000080: 7c4a 183d 17c7 cebd abab 3c3a 6f91 653d
00000090: d159 da3c f7a9 89bd b1f2 7ebd 1e38 a3bc
000000a0: 2567 3bbd 97ea b9ba 7c8f 793d 457b a43d
000000b0: a9ea a23d ee20 2dbd df33 5c3d 46b0 8b3c
000000c0: d455 9ebd 6e49 21bc 601d a4bd 2076 6d3d
000000d0: 604d e5bc 637c aa3b 1f63 15bd bf01 c6ba
000000e0: f910 1fbd 93e8 4bbc 30d4 633d e37f be3c
000000f0: 3f24 163d 31bd 073d a74d e138 a208 7f3d
00000100: 04b8 24bd a510 66bc 47b3 303d 786a 82bd
00000110: 9e5c 70bd accf 733d 3b36 5c3d f3c6 53bd
00000120: b39a 70bc d292 2abe 0a85 80bd 1b03 223d
00000130: 7f89 1dbd c0c9 e03c 3242 72bc 6a27 2cbd
00000140: 71e2 593d 7203 4a3d 8999 423c b14e edbb
00000150: c97c 9a3b dd43 8d3c 759d 8b3c 32e8 2abd
00000160: 58d6 c6bc 75ab 64bb 4b7b 82bc 3fa2 3e3d
00000170: 7f61 f23c c7f1 25bd b269 7fbd 7902 8e3c
00000180: c367 8fbd acc3 fb3c 0eb7 dfbc a0ae 8b3c
00000190: 29e8 273d 5c1e c3bc 3b5c 72bd dd4c 64bd
000001a0: 7dc1 6dbd 1880 1e3e 57e0 81bd 0772 78bd
000001b0: d17a 95bc db1d 3a3d e7b6 03bb b68c e8ba
000001c0: 9614 b63b fcba 0f3d fa20 ebbc 7608 8b3d
000001d0: faf2 7f3c 23a0 cabd e060 ee3d 0a17 8b3d
000001e0: 0a7e 773d a23d 87bd 792e 9abd e14c 95bd
000001f0: 3e26 8fbd abf0 20bd 1c60 6f3c d5e0 05bd
00000200: 5e27 9f3d 7ee1 a4bd d1d2 de3c ffc9 c43c
00000210: 75c2 713d 3cf9 4dbd 4ff4 aabd 0f26 b93b
00000220: cb6c 8abd f5aa 08bc 4655 433d 877b cfbb
00000230: 5247 5439 af93 953c b334 fabb 6ec3 113d
00000240: 3030 72bc 1ae3 853c 1d95 e53b 8424 da3d
00000250: 9776 9abc 814a 1ebd 5b00 0c3e 371e 1abd
00000260: cce1 de3c 1543 b83c 1390 23bc 8933 05bd
00000270: 604d 013d 5521 193d ccae 87bd f633 dd3b
00000280: b78f 69bd c0c6 ac3a 401c d4bc c0ba 6b3c
00000290: f826 6fbd 539c eb3b 3f79 903d a584 7c3d
000002a0: 9438 393d 4769 dbbc fe80 34bd 8381 c03d
000002b0: 3829 183e 8415 34bc 3356 0dbd 7218 83bd
000002c0: a78f f63a 843b 213d 5d3c 943b c6a7 3cbd
000002d0: 9ae9 a13e f594 1f3c 3f9a e4bd 74b8 03be
000002e0: a77d 15bd cdfb 45bd 56ca 8fbd 9b38 e0bc
000002f0: c45f 1bbb 4f0e ccbc 115b ad3c 195b 8e3a
00000300: 60a3 f6bc e604 6bbd ed3e 683d 2d2f 00bd
00000310: 02a6 e23c f449 403d 9bc8 6a3d db31 cabb
00000320: 7542 5dbc 7e51 423d 22c4 9fbc 1e94 7ebd
00000330: b0ba 56bd d73f 8dbc 2710 cbbc 8bc7 2bbc
00000340: b74d 933c 1606 ffbb b460 f1ba 5e02 70bb
00000350: 5c1a 9dbc 63ee 10bd cc67 9a3a e916 c8bd
00000360: 9d18 053b cd49 a93c 8593 7dbc 84df 343c
00000370: b260 55be eddd 2dbd 6081 703b ef86 9eb9
00000380: f2ae 3cbd c7cd 23bb 80a1 82bc e8e0 89bd
00000390: 5cac 803d 0746 77bd eddd d4bc d633 3bbd
000003a0: 6dc2 333e 2ada 07be 2133 853e c66b 78bc
000003b0: 4350 163d 2bd4 d33b dd77 4c3c 447e 833d
000003c0: 78a1 dc3c c969 05bd cd46 763c 29bc 32bd
000003d0: 7747 8d3c e182 01bd f733 1f3c a6d3 46bb
000003e0: 060d c6bc cc49 663b 8d9d 2abd 97a8 7abd
000003f0: 9ab7 c53c c952 7a3c 5f81 6f3d aef1 bf3c

encoder.0.bias f4 [256]
0.06438444 -0.00322464 0.036373585 0.015412407 0.10566115 0.024351522 0.05506321 -0.028163405
0.030785782 -0.012926746 -0.009878468 -0.024478115 0.01694866 0.023066282 -0.042641662 0.0326662
0.03330584 0.039639268 0.009439026 0.034087863 -0.028935969 0.018798267 0.0048139193 0.03210393
0.013609199 -0.045435335 -0.04624238 -0.036870293 -0.06776825 -0.04487119 -0.04202017 0.0062752995
0.06925257 0.03132834 0.036781684 -0.0837426 0.068612374 0.03745216 -0.015627293 -0.063228674
0.042394534 0.013624407 0.032178372 -0.02939041 0.012556227 0.046932567 -0.029747041 0.0010399875
-0.0007057025 -0.03882044 -0.017930908 0.033627126 0.040375803 0.063415594 0.041276526 0.0056896857
0.018008757 0.037025373 0.014772395 -0.020278282 -0.0064290473 -0.04993824 0.033467263 0.010355312
0.0071490146 0.0206776 0.06176025 0.070686035 0.015053724 -0.006051594 0.035507213 -0.021749374
-0.058239833 0.006072542 0.026518013 -0.044253696 -0.025332049 0.045503408 -0.013751917 -0.049612552
-0.0034515548 0.027539393 -0.03609971 0.01972002 0.0029658605 -0.009485703 0.0058810045 0.03473424
-0.014808672 0.025525676 -0.017780215 0.03923182 -0.045434307 0.024091754 -0.006092527 0.031233393
0.0135031715 -0.00044941762 -0.041774794 -0.03640961 -0.003872944 -0.04703386 0.05678463 -0.032766916
-0.045721374 0.024894956 0.060543973 0.058600836 -0.0032632223 0.010694762 -0.035758 0.01487993
-0.057768032 -0.029483343 0.011009979 -0.021151867 0.05725561 -0.03739996 0.009221869 -0.044338424
0.038663127 0.03938675 -0.021979716 -0.06209096 0.041872676 0.042886697 0.053981986 0.05701494
-0.01019827 -0.060287878 0.01671424 0.012594063 -0.042951737 0.010341602 0.048717536 0.034491155
0.04609741 -0.04684741 -0.05304594 -0.029541735 0.009565582 0.032129608 -0.057720732 0.048917226
-0.037537433 0.00059403334 -0.045406938 0.03238233 -0.07108857 0.016899263 -0.0480307 -0.0013381868
0.0069968207 0.06360513 0.05448006 0.0022036524 -0.02801128 -0.010093835 0.064418636 0.044885222
-0.00677689 0.033300474 -0.010045998 0.036445756 0.034253974 -0.018219683 -0.040907077 0.059087787
-0.0041733063 0.047671936 0.020551343 0.05627619 0.016638223 -0.01777581 -0.005483674 0.01950505
-0.048626423 -0.024966579 -0.036035027 -0.023330506 0.0026092187 -0.025307154 0.021415545 0.04350795
0.034908798 -0.0033508653 0.0011306206 -0.0085699735 -0.0034457685 0.0075809453 0.034820236 -0.0045136376
-0.028226811 0.022480229 0.015359123 -0.061231785 -0.05613373 0.027865665 0.02944202 0.070220165
0.02034354 0.036117435 -0.058284014 -0.0065971925 -0.032375056 0.026052777 -0.028952077 -0.022883292
-0.033729576 0.018537428 0.025318312 -0.034889836 0.027109895 0.076936215 -0.03306683 -0.029772501
0.012841459 0.011348236 0.055809814 0.009292899 -0.053859398 -0.039908376 0.031679805 0.020506768
-0.06297677 -0.027261643 0.003444709 0.062485468 0.053592183 0.07913503 0.025826346 0.04716845
0.04006752 0.022888687 -0.010685941 -0.043810897 0.033323433 0.024816275 0.040569548 0.022041613
-0.01113764 -0.04364333 0.03524396 -0.023910154 0.0023280683 -0.011077451 -0.018232323 0.0051653325
-0.032083657 -0.020938983 -0.04581736 -0.02033484 -0.04662304 0.022015307 0.046254184 0.059938245
00000000: fddb 833d 7b54 53bb 78fc 143d 5284 7c3c
00000010: df64 d83d d87c c73c f689 613d f1b6 e6bc
00000020: 7732 fc3c b4ca 53bc 4cd9 21bc 5486 c8bc
00000030: ebd7 8a3c 80f5 bc3c 06a9 2ebd fecc 053d
00000040: b46b 083d c95c 223d 25a6 1a3c b79f 0b3d
00000050: 200b edbc d3fe 993c 15be 9d3b 697f 033d
00000060: 1ef9 5e3c 671a 3abd a668 3dbd 4e05 17bd
00000070: 15ca 8abd daca 37bd 571d 2cbd 07a1 cd3b
00000080: 4bd4 8d3d 2552 003d 64a8 163d 3e81 abbd
00000090: a584 8c3d 7067 193d cf04 80bc 097e 81bd
000000a0: e4a5 2d3d e838 5f3c 78cd 033d 28c4 f0bc
000000b0: a2b8 4d3c 5d3c 403d 11b0 f3bc 3150 883a
000000c0: e5fe 38ba 2f02 1fbd d7e3 92bc 99bc 093d
000000d0: 1961 253d 09e0 813d 9311 293d 8b70 ba3b
000000e0: 1a87 933c eba7 173d ea07 723c a41e a6bc
000000f0: c2aa d2bb 0a8c 4cbd f814 093d 54a9 293c
00000100: 4842 ea3b 1264 a93c 51f8 7c3d d7c3 903d
00000110: e5a3 763c 734c c6bb 0370 113d be2b b2bc
00000120: e48c 6ebd 2dfc c63b 4e3c d93c 5d43 35bd
00000130: 2885 cfbc c861 3a3d b84f 61bc 8836 4bbd
00000140: 7b33 62bb 4b9a e13c 4add 13bd e18b a13c
00000150: e25e 423b ec69 1bbc 71b5 c03b 7e45 0e3d
00000160: 12a0 72bc 391b d13c d0a7 91bc 8bb1 203d
00000170: 5319 3abd 125c c53c d2a3 c7bb 2cdd ff3c
00000180: 683c 5d3c d09f ebb9 0c1c 2bbd 3e22 15bd
00000190: 38d1 7dbb 94a6 40bd 0097 683d 9a36 06bd
000001a0: 5646 3bbd 82f0 cb3c f5fc 773d 6e07 703d
000001b0: c9db 55bb 1539 2f3c fb76 12bd f3ca 733c
000001c0: 2c9e 6cbd 0d87 f1bc 3363 343c ae46 adbc
000001d0: dc84 6a3d b330 19bd 5217 173c 359c 35bd
000001e0: 3a5d 1e3d 0054 213d ce0e b4bc 1753 7ebd
000001f0: af82 2b3d f6a9 2f3d 371c 5d3d 7f88 693d
00000200: a516 27bc 6cf0 76bd 4dec 883c 5457 4e3c
00000210: 29ee 2fbd d36f 293c 0a8c 473d 9946 0d3d
00000220: a3d0 3c3d 12e3 3fbd b346 59bd 8201 f2bc
00000230: f5b8 1c3c 569a 033d 936c 6cbd 6e5d 483d
00000240: dac0 19bd e7b8 1b3a a0fc 39bd 56a3 043d
00000250: e296 91bd 5370 8a3c d7bb 44bd 1966 afba
00000260: 9645 e53b 6843 823d 7c26 5f3d 276b 103b
00000270: e977 e5bc 9d60 25bc ebed 833d 91d9 373d
00000280: ac10 debb 1466 083d f897 24bc 2548 153d
00000290: e54d 0c3d 7241 95bc 2e8e 27bd 0906 723d
000002a0: 3bc0 88bb a643 433d 4a5b a83c dd81 663d
000002b0: e24c 883c 939e 91bc 64b0 b3bb 0ec9 9f3c
000002c0: 802c 47bd b686 ccbc 7799 13bd 9e1f bfbc
000002d0: 6dff 2a3b f350 cfbc a76f af3c 6435 323d
000002e0: 87fc 0e3d 319a 5bbb 5531 943a 1369 0cbc
000002f0: 67d2 61bb 9469 f83b aa9f 0e3d 23e7 93bb
00000300: ea3b e7bc 7528 b83c d5a4 7b3c 2ece 7abd
00000310: 7bec 65bd 8946 e43c 6430 f13c 97cf 8f3d
00000320: 7fa7 a63c e0ef 133d 38bb 6ebd 432d d8bb
00000330: b59b 04bd a26c d53c e82c edbc be75 bbbc
00000340: 0628 0abd cedb 973c 5968 cf3c a5e8 0ebd
00000350: 9215 de3c bc90 9d3d 1671 07bd 76e5 f3bc
00000360: fc64 523c f4ed 393c d598 643d 3e41 183c
00000370: ac9b 5cbd f776 23bd afc2 013d cffd a73c
00000380: f7f9 80bd cf53 dfbc a0c0 613b c3f0 7f3d
00000390: 7a83 5b3d 8c11 a23d c691 d33c b433 413d
000003a0: d71d 243d 0e81 bb3c 1614 2fbc 0e73 33bd
000003b0: 277e 083d 804b cb3c 412c 263d 9d90 b43c
000003c0: a67a 36bc 59c3 32bd f85b 103d 3adf c3bc
000003d0: 8192 183b 327e 35bc f45b 95bc f341 a93b
000003e0: 276a 03bd 3b88 abbc fcaa 3bbd 4095 a6bc
000003f0: cdf7 3ebd 7259 b43c 0775 3d3d ce81 753d

encoder.2.weight f4 [128, 256]
0.00841185 -0.051866367 -0.045371193 0.07962288 0.06035701 0.06152876 0.04810503 0.07133631
0.08047993 -0.016197382 0.060299207 -0.05078048 -0.060018435 -0.057493936 -0.01058119 -0.037355
0.020464918 -0.046220843 -0.07328594 0.083465844 -0.053354863 -0.023888702 -0.046503305 0.012831142
-0.07110339 0.039729413 0.04001569 0.018568419 -0.019093381 -0.05597124 -0.078562126 0.0017065285
0.037528686 0.03141726 0.060654696 0.078364745 0.05196487 -0.071386464 -0.0068488847 -0.06877939
-0.0044417875 0.068018325 -0.08580648 -0.037548915 -0.043575536 -0.042338945 0.015855294 0.042974308
-0.03137711 0.004996296 0.03966583 -0.018011425 0.030371364 0.02091636 0.01970964 -0.04710291
-0.045323867 0.023409005 0.032265898 -0.0855793 -0.046239693 0.07228249 0.04350601 -0.032806892
0.008867157 0.010917083 -0.04321884 0.011625814 -0.06678931 0.005676805 -0.011782361 -0.025586708
0.044199523 -0.049878754 0.04778604 0.03238341 -0.0069625303 -0.013000504 -0.055616327 -0.01836016
0.016786732 -0.02548056 -0.005097836 -0.07939923 -0.027458888 0.03807302 0.053477313 0.008205558
-0.06283128 0.03786124 0.047736604 -0.059138346 -0.025854921 -0.05475884 -0.032970008 0.004938926
-0.044450574 0.087591514 0.037018187 -0.040639963 -0.05418181 0.049683124 0.06797061 0.10145562
-0.055444505 0.03814363 -0.035609342 -0.091494955 -0.052323077 -0.018644974 0.008946068 0.043075375
0.036509275 -0.002111207 0.038272243 -0.007230058 0.0059738937 -0.033199176 -0.019129185 -0.0053063217
-0.048621003 -0.01636738 0.025791518 0.050253626 0.0556225 -0.023493575 0.014238986 -0.004035471
-0.02825565 0.017232824 0.00843485 0.026308374 0.026024476 0.05006516 -0.048247565 0.023866476
0.00435085 -0.0291544 -0.04824087 -0.0029647585 0.011345127 -0.056312185 0.008852028 0.046745114
0.069228 -0.055525027 -0.04649098 0.07725509 0.017673317 -0.037967503 0.014638613 -0.067657694
-0.06710662 0.0053626024 -0.04526681 0.02159239 0.041486833 0.0625567 0.040819682 0.044893846
-0.03464824 0.03294271 -0.022757176 0.06840981 -0.037624456 -0.022251341 0.019956624 -0.043227956
0.021387467 -0.032319196 0.08191246 0.052898873 -0.057042416 0.027389955 0.020421343 0.035231087
-0.014560947 0.0059964806 0.025386192 0.089182496 -0.06405644 -0.08055691 0.035240266 -0.038931098
-0.016008006 0.0053376094 0.055376247 -0.07074012 -0.06478288 -0.03257791 -0.005828613 -0.07372171
0.004691606 0.03939795 0.02785784 0.007343864 0.04097768 -0.014573578 -0.013747555 -0.027843598
0.015748572 -0.0048015886 0.015967065 0.05039121 0.025229357 0.054964956 0.111695856 -0.059402667
-0.0297535 0.01897357 -0.055314604 0.06777893 0.018739818 0.020368459 0.071850866 0.0051393188
0.07418785 0.05800453 -0.032664128 0.0377075 -0.020209186 -0.062043507 -0.06873173 0.079768196
0.07623967 0.042768046 0.06544064 -0.009060433 -0.027063468 -0.030996552 0.046052508 0.019986678
0.063273825 -0.032664593 -0.017214479 -0.05890313 0.069130026 -0.031834953 0.057916034 -0.065917335
-0.04778388 0.08705152 -0.13704373 0.028212696 -0.09202869 -0.00714879 0.068530224 0.003438666
0.00017392528 -0.033062134 -0.007371615 0.018888298 0.014202989 0.024827892 -0.055342086 0.016580867
00000000: dbd1 093c d471 54bd 25d7 39bd 5211 a33d
00000010: ea38 773d 9505 7c3d c809 453d c518 923d
00000020: a9d2 a43d 5fb0 84bc 4dfc 763d 31ff 4fbd
00000030: e4d5 75bd c37e 6bbd ba5c 2dbc 8e01 19bd
00000040: 0ba6 a73c 1152 3dbd f016 96bd 24f0 aa3d
00000050: a18a 5abd 3db2 c3bc 407a 3ebd b639 523c
00000060: a79e 91bd 4fbb 223d 7ee7 233d cc1c 983c
00000070: b969 9cbc 1942 65bd 2ee5 a0bd 98ad df3a
00000080: aeb7 193d 63af 003d 0f71 783d b27d a03d
00000090: 1ed9 543d 1133 92bd 9c6c e0bb 35dc 8cbd
000000a0: 6a8c 91bb 314d 8b3d 4fbb afbd e4cc 19bd
000000b0: 437c 32bd 9a6b 2dbd f6e2 813c d405 303d
000000c0: 4985 00bd f8b7 a33b a378 223d b28c 93bc
000000d0: 5ecd f83c c958 ab3c 1c76 a13c fbee 40bd
000000e0: 85a5 39bd 3ec4 bf3c 3f29 043d 3344 afbd
000000f0: d565 3dbd d808 943d 5c33 323d 8560 06bd
00000100: 8d47 113c 91dd 323c 3d06 31bd 337a 3e3c
00000110: d5c8 88bd 7e04 ba3b ce0a 41bc 379b d1bc
00000120: 8f0a 353d aa4d 4cbd 4bbb 433d 77a4 043d
00000130: f025 e4bb 1100 55bc f2cd 63bd 0c68 96bc
00000140: 5484 893c 9bbc d0bc bf0b a7bb 109c a2bd
00000150: 76f1 e0bc 74f2 1b3d 070b 5b3d 9b70 063c
00000160: b0ad 80bd 6314 1b3d 7587 433d 0d3b 72bd
00000170: b3cd d3bc ce4a 60bd 8f0b 07bd b7d6 a13b
00000180: ce11 36bd 2e63 b33d 62a0 173d 1776 26bd
00000190: bfed 5dbd 8880 4b3d 2d34 8b3d f7c7 cf3d
000001a0: c719 63bd 7f3c 1c3d 1adb 11bd b561 bbbd
000001b0: b950 56bd 58bd 98bc 8792 123c ce6f 303d
000001c0: c08a 153d 2d5c 0abb 5bc3 1c3d 1fea ecbb
000001d0: a7c0 c33b dcfb 07bd cfb4 9cbc a7e0 adbb
000001e0: d126 47bd e214 86bc bc48 d33c bfd6 4d3d
000001f0: 6bd4 633d 9975 c0bc a34a 693c fc3b 84bb
00000200: 6578 e7bc da2b 8d3c 5332 0a3c a984 d73c
00000210: 4831 d53c 2011 4d3d 3d9f 45bd a183 c33c
00000220: 9391 8e3b 35d5 eebc 3898 45bd 654c 42bb
00000230: e9e0 393c 9ba7 66bd 1908 113c ce77 3f3d
00000240: 69c7 8d3d 366e 63bd 536d 3ebd eb37 9e3d
00000250: a2c7 903c d083 1bbd cbd6 6f3c 1e90 8abd
00000260: 326f 89bd c5b8 af3b b169 39bd 86e2 b03c
00000270: 19ee 293d ba1d 803d 8a32 273d 9ce2 373d
00000280: 50eb 0dbd efee 063d 426d babc 711a 8c3d
00000290: 1a1c 1abd 7248 b6bc 137c a33c cc0f 31bd
000002a0: c534 af3c 2261 04bd b8c1 a73d 7dac 583d
000002b0: 4fa5 69bd e660 e03c a94a a73c 794e 103d
000002c0: 0a91 6ebc 207e c43b b4f6 cf3c 50a5 b63d
000002d0: 0630 83bd 05fb a4bd 1958 103d 3776 1fbd
000002e0: 3923 83bc 1de7 ae3b 34d2 623d 32e0 90bd
000002f0: e3ac 84bd 6a70 05bd f3fd bebb 68fb 96bd
00000300: 0bbc 993b bf5f 213d 2036 e43c cca4 f03b
00000310: 36d8 273d 04c6 6ebc 6d3d 61bc 4218 e4bc
00000320: 2603 813c a556 9dbb 5dcd 823c 0367 4e3d
00000330: ccad ce3c ef22 613d ccc0 e43d 3650 73bd
00000340: 9dbd f3bc 766e 9b3c 9191 62bd aecf 8a3d
00000350: 3f84 993c c1db a63c 8c26 933d bb67 a83b
00000360: cdef 973d 2896 6d3d d2ca 05bd 2e73 1a3d
00000370: bc8d a5bc 5521 7ebd 39c3 8cbd 825d a33d
00000380: 8b23 9c3d 8c2d 2f3d be05 863d 3672 14bc
00000390: 35b4 ddbc 7bec fdbc 8ea1 3c3d 1abb a33c
000003a0: b595 813d 4fcb 05bd 6105 8dbc 6944 71bd
000003b0: 0b94 8d3d 5e65 02bd 5d39 6d3d abff 86bd
000003c0: 08b9 43bd 1148 b23d 3155 0cbe 501e e73c
000003d0: 8a79 bcbd 6640 eabb 9359 8c3d 3e5b 613b
000003e0: b65f 3639 296c 07bd 978d f1bb a2bb 9a3c
000003f0: a7b3 683c dd63 cb3c 62ae 62bd 99d4 873c

encoder.2.bias f4 [128]
-0.010209811 -0.06529134 -0.062292643 0.032966677 0.014196773 6.873026e-05 0.08898527 0.015315463
6.0469054e-05 -0.06709089 0.05909615 -0.03885075 0.03805263 -0.047248248 -0.022666683 0.042740274
-0.027688095 -0.0029989535 0.060095854 -0.031150281 0.04782431 0.055930655 0.06643849 0.0022412115
0.059089873 0.039422106 0.034306422 0.042233136 -0.042243134 -0.04706338 -0.025210315 -0.032818794
0.053904437 0.047962297 -0.009206871 0.04988497 -0.062680215 -0.053047474 0.056407448 0.0042639603
-0.055018645 -0.0133898035 -0.01584172 -0.0032671709 0.06534856 0.026211612 0.0030428004 -0.034163784
0.026235128 0.05297378 -7.261361e-05 -0.023818634 0.013571495 -0.06527357 0.0024264355 0.03552687
0.020182738 0.06419191 -0.012906835 0.06417985 0.038435236 -0.006938563 -0.01907644 0.057782196
-0.0041122385 -0.054457787 0.01083038 -0.028884836 0.01879024 -0.014929284 0.05281495 0.014438312
-0.008025158 0.0060443063 -0.014623748 -0.019235054 0.035959855 0.058183942 -0.018527038 0.058030117
-0.0368724 -0.039449845 -0.033664394 0.0047983835 -0.025855282 0.026911447 0.017973563 0.0018387648
0.016464587 0.0174602 0.014945807 0.0315633 -0.002667244 -0.028836919 0.05237274 -0.052488998
-0.041065335 0.04983819 -0.046515927 0.019865412 -0.04591398 0.031781726 0.0557184 0.060899753
0.06883701 -0.053108547 -0.020074511 -0.015649512 0.06498926 -0.033750657 0.0039979275 -0.028694285
-0.023097944 0.03118771 0.009997321 -0.033359632 0.024766631 -0.050616022 0.06448562 0.031595312
0.014059254 0.042774104 0.03196632 0.029357884 -0.044924133 0.04760446 -0.058846742 0.03787397
00000000: 0d47 27bc 77b7 85bd 9226 7fbd 1108 073d
00000010: 9599 683c 4723 9038 e93d b63d b5ed 7a3c
00000020: 27a0 7d38 f366 89bd ce0e 723d f721 1fbd
00000030: 13dd 1b3d 6187 41bd 7baf b9bc 6d10 2f3d
00000040: 25d2 e2bc 178a 44bb 1227 763d e02e ffbc
00000050: 6ce3 433d 8b17 653d e710 883d 4ae1 123b
00000060: 3908 723d 1379 213d e484 0c3d a7fc 2c3d
00000070: 2307 2dbd 88c5 40bd dd85 cebc 006d 06bd
00000080: e6ca 5c3d 1d74 443d 6ad8 16bc 2f54 4c3d
00000090: 7c5e 80bd 4f48 59bd 7f0b 673d b1b8 8b3b
000000a0: 3b5b 61bd e860 5bbc 7fc6 81bc 081e 56bb
000000b0: 77d5 853d bcb9 d63c b869 473b 53ef 0bbd
000000c0: 0deb d63c 09fb 583d 2348 98b8 4c1f c3bc
000000d0: fa5a 5e3c 26ae 85bd d504 1f3b a084 113d
000000e0: 4556 a53c 0c77 833d 3177 53bc ba70 833d
000000f0: 446e 1d3d e35c e3bb 3246 9cbc 06ad 6c3d
00000100: f5bf 86bb 210f 5fbd e871 313c e49f ecbc
00000110: fded 993c f599 74bc 7d54 583d ab8e 6c3c
00000120: f47b 03bc 510f c63b 7298 6fbc d592 9dbc
00000130: a44a 133d 4952 6e3d 04c6 97bc fdb0 6d3d
00000140: 8407 17bd 2996 21bd ade3 09bd c23b 9d3b
00000150: 75ce d3bc 6575 dc3c 4b3d 933c b502 f13a
00000160: bee0 863c b108 8f3c 42df 743c 8548 013d
00000170: eecc 2ebb 673b ecbc cc84 563d b4fe 56bd
00000180: 2034 28bd 2123 4c3d 7c87 3ebd cabc a23c
00000190: 4c10 3cbd 8e2d 023d fa38 643d 0572 793d
000001a0: 6bfa 8c3d 5988 59bd 4d73 a4bc 6833 80bc
000001b0: 1719 853d 213e 0abd 0c01 833b 4710 ebbc
000001c0: e637 bdbc 5e7d ff3c cecb 233c 1ca4 08bd
000001d0: 64e3 ca3c bf52 4fbd 0911 843d 166a 013d
000001e0: c958 663c e633 2f3d 1eef 023d f27f f03c
000001f0: 5e02 38bd e5fc 423d 4809 71bd bc21 1b3d

encoder.4.weight f4 [64, 128]
-0.081021674 -0.014351061 0.0629192 -0.049820542 0.06588038 -0.059451308 -0.0008318187 -0.0023894985
-0.015103071 0.043792997 0.016557181 0.104982495 0.060153946 -0.08185874 0.037883088 -0.08727118
0.08864509 0.063307345 0.06696998 -0.050105162 -0.05144631 0.056631684 -0.002257873 -0.09807599
-0.03820147 -0.10170554 -0.056149732 0.06262622 -0.118246585 -0.05093645 0.036075406 0.07596601
0.08608075 -0.076521285 -0.07944839 -0.037499774 -0.030243695 -0.0795571 0.10944102 0.023675181
-0.06438632 3.711394e-06 -0.0692384 -0.07644668 -0.037283387 -0.0005796769 0.033729143 0.041971546
-0.028316522 0.058999956 -0.094871856 -0.084341355 0.0562678 0.026964147 -0.014619602 -0.061200917
-0.10684948 -0.06014021 0.046964146 -0.02035544 0.028474525 -0.01827396 0.02744588 0.0016139043
-0.09296532 -0.08545109 0.026589528 0.08229151 0.017120348 -0.055090178 0.04331335 -0.018200524
-0.033647656 0.03908717 0.098309994 -0.05366603 0.040946264 0.03541303 -0.0135834655 -0.02091938
0.086406715 -0.06998978 -0.003391369 0.010104829 -0.05975099 0.051488508 0.051661313 -0.08161173
-0.0074136294 -0.050163466 -0.060259677 0.13606875 -0.028231548 0.06386878 -0.00053098827 -0.06510777
-0.055788454 -0.020269038 0.0347276 -0.1042636 0.0037179713 0.074005544 0.13406938 0.09721024
0.09404352 -0.005549098 0.10369281 -0.059709348 0.11348466 -0.015489135 0.014324533 0.027003743
-0.09704953 0.022260254 0.018170778 -0.07481454 0.020959053 -0.009009839 -0.07316331 -0.048661828
-0.1126453 -0.064995326 -0.046388153 -0.047060493 -0.0048193643 0.071449645 -0.09763832 -0.04746364
0.015237702 -0.019974317 -0.033988282 -0.0999467 0.149761 -0.09047313 0.054122988 -0.05608483
0.009066751 -0.011503795 -0.050028462 -0.0031356034 -0.009729655 -0.0029176893 -0.048392244 -0.010153065
-0.014923837 -0.0030782123 0.03495275 0.021678088 0.07198284 0.043285925 -0.018943448 -0.040311683
-0.0051555946 -0.06555453 -0.071153745 0.0408469 0.04737793 0.08504567 0.022331895 0.07863692
0.10217625 -0.09473302 0.036808565 -0.054962184 -0.071183935 0.00027902063 0.041395087 -0.015348319
0.09960762 0.0011360502 0.10298932 -0.0059228544 -0.062174898 -0.05465565 -0.04592543 0.03609446
-0.07204147 -0.0008182606 0.059082206 0.004099234 -0.022302685 0.0686196 0.05823596 0.10217599
0.024396382 0.007802729 -0.10938321 0.011040152 -0.07494217 0.06963258 -0.0056499965 -0.0064693624
-0.04478758 -0.07213254 -0.04009462 -0.0109640015 0.03082284 0.06663207 0.034880098 0.007849923
0.060674805 -0.09010115 -0.023839578 0.123672016 0.04396252 -0.09675205 0.07573089 0.03442571
0.043482874 0.023051437 -0.09154302 0.09136375 -0.055754527 -0.097772524 0.055182282 -0.048728224
0.025467845 0.06556738 0.022367435 0.080269195 0.11932789 -0.021076333 0.030275287 -0.0408812
-0.07276859 0.021891989 -0.0034081542 0.06144778 -0.064142704 -0.04809084 -0.066711895 0.047261246
-0.009347562 -0.08527656 0.014496916 -0.08847062 0.020512003 0.10649083 0.11066977 0.08062606
-0.078923166 0.055508554 0.031164045 0.06267322 -0.016659094 -0.011354258 -0.04214003 0.026642404
-0.0043368917 -0.041560296 0.03509972 -0.022356639 0.09387418 0.11349458 0.08416165 0.017960643
00000000: b1ee a5bd b620 6bbc c8db 803d a010 4cbd
00000010: 4bec 863d 3783 73bd 680e 5aba 2299 1cbb
00000020: df72 77bc 4960 333d eda2 873c 1001 d73d
00000030: fc63 763d 8ea5 a7bd 4c2b 1b3d 3bbb b2bd
00000040: 8f8b b53d 48a7 813d 8f27 893d 123b 4dbd
00000050: 5eb9 52bd a0f6 673d d3f8 13bb 11dc c8bd
00000060: 2579 1cbd ff4a d0bd 43fd 65bd 2d42 803d
00000070: 442b f2bd bda2 50bd cec3 133d 1194 9b3d
00000080: 1b4b b03d 31b7 9cbd d6b5 a2bd 5d99 19bd
00000090: a0c1 f7bc d5ee a2bd 9d22 e03d 74f2 c13c
000000a0: fadc 83bd 4311 7936 ddcc 8dbd 1490 9cbd
000000b0: 77b6 18bd 75f5 17ba 9227 0a3d 5bea 2b3d
000000c0: 0df8 e7bc f0a9 713d 2d4c c2bd 29bb acbd
000000d0: 1179 663d eae3 dc3c 0e87 6fbc d0ad 7abd
000000e0: e6d3 dabd 9555 76bd 7a5d 403d 74c0 a6bc
000000f0: 6843 e93c 46b3 95bc 2fd6 e03c a489 d33a
00000100: 9a64 bebd fb00 afbd 48d2 d93c 7488 a83d
00000110: f93f 8c3c 3da6 61bd 5769 313d 4419 95bc
00000120: 20d2 09bd de19 203d c056 c93d e9d0 5bbd
00000130: 45b7 273d 410d 113d 2f8d 5ebc 1f5f abbc
00000140: 01f6 b03d cd56 8fbd bb41 5ebb ba8e 253c
00000150: 74bd 74bd 9de5 523d d09a 533d 0d24 a7bd
00000160: 08ee f2bb 3578 4dbd dad2 76bd 9b55 0b3e
00000170: d945 e7bc a3cd 823d 0532 0bba 3957 85bd
00000180: 6f82 64bd 410b a6bc 873e 0e3d 2888 d5bd
00000190: 35a9 733b 3890 973d 7c49 093e 2a16 c73d
000001a0: e499 c03d 35d5 b5bb e55c d43d ca91 74bd
000001b0: a56a e83d 24c6 7dbc 72b1 6a3c f436 dd3c
000001c0: e7c1 c6bd 235b b63c e2da 943c 5e38 99bd
000001d0: 52b2 ab3c 019e 13bc a5d6 95bd a051 47bd
000001e0: 94b2 e6bd 451c 85bd 8101 3ebd 81c2 40bd
000001f0: c2eb 9dbb 3154 923d 99f6 c7bd 3c69 42bd
00000200: 8ea7 793c 2ea1 a3bc 4c37 0bbd dbb0 ccbd
00000210: f35a 193e fa49 b9bd 11b0 5d3d 35b9 65bd
00000220: b68c 143c 6a7a 3cbc a5ea 4cbd b27e 4dbb
00000230: 2269 1fbc b436 3fbb f236 46bd 0b59 26bc
00000240: 1c83 74bc d5bb 49bb 9d2a 0f3d 3f96 b13c
00000250: bd6b 933d 954c 313d 4a2f 9bbc dd1d 25bd
00000260: 43f0 a8bb 7441 86bd 0eb9 91bd 144f 273d
00000270: 5c0f 423d 6d2c ae3d 61f1 b63c 650c a13d
00000280: c841 d13d 6303 c2bd 94c4 163d 0720 61bd
00000290: e2c8 91bd 8449 9239 e58d 293d 8477 7bbc
000002a0: 14ff cb3d 85e7 943a 11ec d23d 8114 c2bb
000002b0: 1bab 7ebd 9ade 5fbd 4e1c 3cbd c9d7 133d
000002c0: 7a8a 93bd 8a80 56ba 2f00 723d de52 863b
000002d0: 1fb4 b6bc 6f88 8c3d d488 6e3d a541 d13d
000002e0: ecda c73c 09ae ff3b 4e04 e0bd c1e1 343c
000002f0: 487b 99bd 879b 8e3d 9b23 b9bb f2fc d3bb
00000300: 2e73 37bd 3aba 93bd 423a 24bd 5ba2 33bc
00000310: 2e80 fc3c 6576 883d 6fde 0e3d f79c 003c
00000320: 2586 783d f486 b8bd 384b c3bc c147 fd3d
00000330: 0b12 343d f025 c6bd cc18 9b3d f901 0d3d
00000340: 191b 323d 5ed6 bc3c e87a bbbd eb1c bb3d
00000350: dc5e 64bd f63c c8bd d106 623d 3f97 47bd
00000360: f1a1 d03c 3148 863d e93b b73c 2d64 a43d
00000370: 2e62 f43d 46a8 acbc e103 f83c 0c73 27bd
00000380: b307 95bd d456 b33c 575b 5fbb abb0 7b3d
00000390: 405d 83bd e7fa 44bd 3fa0 88bd 0295 413d
000003a0: 8426 19bc 7aa5 aebd 7984 6d3c 1630 b5bd
000003b0: ca08 a83c dd17 da3d d5a6 e23d 471f a53d
000003c0: 78a2 a1bd f05c 633d bd4b ff3c d15a 803d
000003d0: a778 88bc 3607 3abc 069b 2cbd 2c41 da3c
000003e0: 7c1c 8ebb 213b 2abd b9c4 0f3d 4525 b7bc
000003f0: 1b41 c03d d96f e83d f15c ac3d 3322 933c

encoder.4.bias f4 [64]
0.03824331 0.06887047 0.019509656 -0.027016368 -0.03508394 -0.0053537097 0.0846937 0.023082234
-0.0690365 -0.0803997 -0.0026450346 -0.01204816 0.04987731 0.045352086 -0.06552288 -0.09576867
0.032768678 -0.03143599 -0.058828335 0.03436068 0.03585118 -0.08917628 0.08206796 -0.079517566
0.0013557711 -0.07253234 -0.012458356 -0.092047386 0.025709502 -0.04459945 0.057465464 -0.017348986
-0.040108662 -0.04088609 0.08097747 -0.0067819236 0.058337092 0.059328455 0.08523915 -0.01479621
0.08640398 0.019788265 0.020879665 -0.050700277 0.06808286 0.026703065 -0.08033832 0.06122194
-0.05342832 0.091555946 -0.066539355 0.029438352 -0.0790607 0.017775863 0.0025712687 0.03198636
-0.083286 0.020936675 0.026975008 0.013009302 -0.068343386 -0.0038402427 -0.0133822365 -0.06523167
00000000: 04a5 1c3d f60b 8d3d b7d2 9f3c 6e51 ddbc
00000010: 2db4 0fbd 2c6e afbb e473 ad3d f416 bd3c
00000020: 0263 8dbd 99a8 a4bd 5158 2dbb a565 45bc
00000030: 264c 4c3d 1cc3 393d dc30 86bd 5d22 c4bd
00000040: 7338 063d 06c3 00bd fbf5 70bd c9bd 0c3d
00000050: b0d8 123d 0ea2 b6bd 3f13 a83d 1bda a2bd
00000060: 21b4 b13a d68b 94bd 221e 4cbc 5783 bcbd
00000070: bc9c d23c eaad 36bd e860 6b3d 761f 8ebc
00000080: fb48 24bd 2c78 27bd 84d7 a53d e63a debb
00000090: e0f2 6e3d 6502 733d dd91 ae3d ce6b 72bc
000000a0: 92f4 b03d 001b a23c d50b ab3c 18ab 4fbd
000000b0: 076f 8b3d 63c0 da3c 6b88 a4bd dbc3 7a3d
000000c0: a7d7 5abd af81 bb3d c945 88bd b328 f13c
000000d0: 94ea a1bd b09e 913c bb82 283b 2104 033d
000000e0: da91 aabd 6483 ab3c b1fa dc3c f824 553c
000000f0: 9ef7 8bbd 95ac 7bbb 2b41 5bbc 2f98 85bd

encoder.6.weight f4 [32, 64]
0.0060228826 0.16727842 -0.02731221 0.04957081 -0.10711557 -0.060567964 0.007879496 0.15350482
0.06625081 -0.10843413 -0.11205832 0.13276386 0.087475255 -0.04926842 0.09748446 0.043345
0.04067602 0.11449355 0.0711025 -0.093320414 -0.0044328715 0.040517844 0.02536202 0.0617059
-0.099270225 -0.080374986 -0.08507903 0.10119367 0.00022601237 0.05867888 0.019670209 0.0847705
-0.07863219 0.033249132 0.064902686 -0.08397578 0.051890202 0.011881518 -0.082466535 0.16127816
0.109215096 0.016168969 -0.011149828 0.036906634 0.15542623 -0.092213415 0.002886599 -0.022593064
-0.027012493 0.027184812 -0.03136474 0.06633021 -0.044687238 0.074174814 -0.0150239365 -0.022541504
0.11412597 0.081294574 -0.06560172 0.04974551 0.055968795 0.012399266 -0.038013086 -0.0012226269
0.03356944 0.013156884 -0.011500921 -0.021685066 0.1028205 0.14022212 -0.00043529825 0.13763727
-0.11011454 0.09779783 0.10457961 -0.14281784 -0.08793638 0.086410664 0.05642822 -0.035706714
0.002357952 -0.041645605 -0.08290659 -0.092102475 0.031181231 -0.06172449 -0.080660395 -0.12236827
0.10040708 0.1015145 0.14751118 -0.014164469 -0.10892831 -0.027047887 0.08724061 -0.0093135545
0.11301037 -0.024691902 0.018227715 -0.07026153 -0.11172692 0.059004065 -0.022515375 -0.13018651
0.025411181 0.12709188 0.0764317 -0.037581857 0.032829307 0.07640219 -0.11500127 0.061258487
0.06881681 -0.16195294 9.449782e-05 -0.08734434 0.09179791 0.1568206 -0.016988346 -0.039946783
-0.010570672 0.0015199875 0.028434886 -0.054045595 0.14386111 0.03262766 -0.0732983 -0.072199136
-0.01165289 0.08224115 0.06970632 0.013711886 -0.1043136 0.093247876 -0.13883267 0.1114191
-0.100755915 0.1380904 -0.10647325 0.07878243 0.030411292 -0.091893375 0.07979935 -0.12582208
0.08500172 0.05863133 0.05197054 0.03314276 -0.062020976 -0.068293266 -0.12500012 0.08355482
0.05660533 0.08288879 -0.08562144 0.12447218 -0.025287453 -0.105217785 0.060480766 0.084195994
-0.014395452 0.036964737 -0.09076272 0.09330206 0.13497813 0.09764179 -0.121059716 0.04120988
0.11732967 -0.10130389 0.08982967 -0.09416573 -0.02591387 0.089821756 0.14438333 -0.0937667
-0.06398568 -0.032620214 -0.0895079 -0.059494957 -0.014466017 -0.1355862 0.006495612 -0.124946974
0.09181994 -0.11412229 -0.016451443 0.11998908 0.12127086 0.09482902 0.107947156 0.12768191
-0.08447976 -0.00922547 -0.08578515 0.029981174 0.10775364 -0.12801054 -0.054207608 0.08765977
0.11315156 -0.12791777 0.06506869 0.10013818 0.06650648 0.059545558 -0.07970641 -0.057853475
0.0053323153 0.12205702 0.0728601 0.09121997 -0.010737512 0.026906775 -0.0275548 0.10207749
-0.040169783 -0.06839144 0.08032479 -0.13042286 -0.029573051 -0.07108308 0.09758027 0.021528749
-0.016858786 0.039349273 -0.10172732 0.06637103 0.1463592 0.13870871 0.07451991 0.037456404
0.03399967 0.09763362 0.15453677 -0.111871146 -0.037519734 0.0008639491 0.017225595 0.060169954
0.010070523 0.03929357 0.050262537 -0.07222761 -0.110729836 0.10655048 -0.055288088 0.055808857
-0.101837896 0.08828505 -0.06333261 0.039034765 0.029953957 0.06296487 0.004068093 -0.15091883
00000000: 9a5b c53b 094b 2b3e dbbd dfbc c30a 4b3d
00000010: 685f dbbd 1d16 78bd 0019 013c 5e30 1d3e
00000020: 81ae 873d b712 debd d57e e5bd 40f3 073e
00000030: 3a26 b33d afcd 49bd efa5 c73d 878a 313d
00000040: e69b 263d 987b ea3d 309e 913d c61e bfbd
00000050: 9f41 91bb 0af6 253d 03c4 cf3c 53bf 7c3d
00000060: 304e cbbd a49b a4bd ea3d aebd a03e cf3d
00000070: bcfd 6c39 4459 703d 6b23 a13c 289c ad3d
00000080: ea09 a1bd 3e30 083d b3eb 843d 7efb abbd
00000090: d28a 543d b3aa 423c 37e4 a8bd 1a26 253e
000000a0: 2aac df3d c974 843c c5ad 36bc 692b 173d
000000b0: 0e28 1f3e 63da bcbd 182d 3d3b 1715 b9bc
000000c0: 4e49 ddbc afb2 de3c 5078 00bd 22d8 873d
000000d0: f709 37bd f7e8 973d f526 76bc f6a8 b8bc
000000e0: e0ba e93d c57d a63d 325a 86bd f3c1 4b3d
000000f0: 893f 653d 4a26 4b3c 9cb3 1bbd 8d40 a0ba
00000100: 1c80 093d f98f 573c 5c6e 3cbc e1a4 b1bc
00000110: 8e93 d23d 6396 0f3e be38 e4b9 c9f0 0c3e
00000120: bb83 e1bd 3b4a c83d d62d d63d d73e 12be
00000130: fd17 b4bd 13f8 b03d 4721 673d 3441 12bd
00000140: df87 1a3b 9594 2abd eeca a9bd 39a0 bcbd
00000150: c86f ff3c d2d2 7cbd 4731 a5bd 379c fabd
00000160: 3aa2 cd3d d6e6 cf3d 2c0d 173e 1712 68bc
00000170: ce15 dfbd 8893 ddbc 34ab b23d e197 18bc
00000180: fb71 e73d ac46 cabc 4a52 953c 47e5 8fbd
00000190: 15d1 e4bd 3fae 713d 2a72 b8bc 9d4f 05be
000001a0: 1c2b d03c 6024 023e 3988 9c3d 6fef 19bd
000001b0: 0678 063d c078 9c3d c985 ebbd 2eea 7a3d
000001c0: d4ef 8c3d fed6 25be 212d c638 97e1 b2bd
000001d0: 8b00 bc3d 9495 203e 252b 8bbc 3d9f 23bd
000001e0: 9d30 2dbc 513a c73a 47f0 e83c ea5e 5dbd
000001f0: 5450 133e 95a4 053d 6b1d 96bd 24dd 93bd
00000200: c3eb 3ebc 0c6e a83d 30c2 8e3d d1a7 603c
00000210: 5ea2 d5bd bef8 be3d 272a 0ebe b22f e43d
00000220: 1e59 cebd 9267 0d3e a60e dabd af58 a13d
00000230: 1a21 f93c 9832 bcbd d76d a33d 81d7 00be
00000240: 6215 ae3d 6827 703d 10df 543d b4c0 073d
00000250: b509 7ebd 57dd 8bbd 0800 00be ca1e ab3d
00000260: feda 673d 99c1 a93d 4b5a afbd 45eb fe3d
00000270: a227 cfbc 6c7c d7bd aeba 773d f36e ac3d
00000280: e7da 6bbc 5668 173d cee1 b9bd 2715 bf3d
00000290: b537 0a3e 6bf8 c73d 28ee f7bd b1cb 283d
000002a0: 8a4a f03d 6a78 cfbd 9ef8 b73d f6d9 c0bd
000002b0: 5349 d4bc 78f4 b73d 39d9 133e c108 c0bd
000002c0: ed0a 83bd c69c 05bd eb4f b7bd fcb0 73bd
000002d0: df02 6dbc 1cd7 0abe 25d9 d43b 33e4 ffbd
000002e0: 180c bc3d f2b8 e9bd 2dc5 86bc d6bc f53d
000002f0: db5c f83d b835 c23d 6613 dd3d 0cbf 023e
00000300: b903 adbd 6d26 17bc 20b0 afbd 149b f53c
00000310: f1ad dc3d 3215 03be cc08 5ebd f786 b33d
00000320: 01bc e73d e0fc 02be bc42 853d 3f15 cd3d
00000330: 8d34 883d 0be6 733d 1d3d a3bd c4f7 6cbd
00000340: b4ba ae3b 08f9 f93d ad37 953d 89d1 ba3d
00000350: 64ec 2fbc 996b dc3c 9bba e1bc 010e d13d
00000360: 1289 24bd d010 8cbd 5381 a43d 928d 05be
00000370: 2f43 f2bc 0194 91bd 2ad8 c73d 0f5d b03c
00000380: 701b 8abc b42c 213d 6a56 d0bd 89ed 873d
00000390: 30df 153e a809 0e3e e59d 983d e36b 193d
000003a0: 3d43 0b3d 23f4 c73d e33e 1e3e b31c e5bd
000003b0: 4bae 19bd a57a 623a b11c 8d3c c574 763d
000003c0: d6fe 243c 4bf2 203d 17e0 4d3d 12ec 93bd
000003d0: 53c6 e2bd 2337 da3d c375 62bd d497 643d
000003e0: 6390 d0bd cbce b43d 87b4 81bd ebe2 1f3d
000003f0: 0062 f53c baf3 803d a34d 853b 778a 1abe

encoder.6.bias f4 [32]
-0.120978214 0.08813223 -0.093057275 -0.06204667 -0.09067665 -0.0916358 -0.030579686 0.11228851
-0.12347807 0.03725099 0.012271633 0.049512975 -0.02569457 0.09873363 0.0979535 -0.10849152
0.11597041 -0.058381952 0.015588469 0.118206486 0.047678936 -0.028683536 -0.06666916 -0.0028362097
0.119722344 0.120999284 0.07217461 0.11704796 0.06508101 0.032336917 0.068540566 -0.0988946
00000000: 6dc3 f7bd ac7e b43d d094 bebd a624 7ebd
00000010: aeb4 b9bd 8dab bbbd 4082 fabc 85f7 e53d
00000020: 12e2 fcbd 7e94 183d f60e 493c 1ece 4a3d
00000030: 6b7d d2bc db34 ca3d d89b c83d cd30 debd
00000040: e581 ed3d ea21 6fbd c766 7f3c 3e16 f23d
00000050: fd4a 433d bcf9 eabc d789 88bd b4df 39bb
00000060: fd30 f53d 79ce f73d 48d0 933d d7b6 ef3d
00000070: 3149 853d b773 043d ff5e 8c3d 4189 cabd

decoder.0.weight f4 [64, 32]
-0.12517895 0.08355994 -0.1142788 0.052978758 0.053505927 -0.1239114 0.10239994 -0.15079506
-0.07571331 -0.14879647 0.099026494 -0.0731336 0.0664493 -0.08001213 0.13688129 0.041003846
0.19345523 -0.15391517 -0.12615672 -0.16403966 -0.14968678 0.050145242 0.09526546 0.097011834
-0.031059148 0.052827444 -0.052190613 -0.038942788 -0.02167279 -0.031516626 -0.046300787 -0.031311814
-0.15218149 -0.001434947 0.065302655 0.08806034 -0.17303197 0.060355216 0.03044534 -0.16003343
0.041066855 0.15373185 -0.08019778 0.12527925 -0.1264156 -0.091558605 -0.077348866 -0.057042252
0.08028304 -0.0056926995 -0.034805305 -0.14917444 -0.010134311 0.06776774 0.06300567 -0.13442856
-0.15617554 -0.033735413 -0.01637307 0.06161916 0.09791659 -0.1802136 0.15244585 -0.11156057
-0.14894636 -0.07180513 -0.11672769 0.09318332 -0.13480853 -0.18020308 0.060849912 -0.0849595
0.012328447 -0.061693892 0.047039494 -0.17165405 0.07112614 -0.097871676 -0.16162801 0.04452451
0.07605869 0.15890057 0.05596002 0.062312946 0.051501296 -0.12215299 -0.17301688 0.040117014
0.033529732 0.16586262 -0.17606674 -0.025969997 0.014314652 -0.10323835 0.03162316 -0.12138187
0.13806295 -0.17068706 0.12601891 0.025925169 -0.087928556 -0.16517815 0.010774362 0.037246186
-0.16719995 0.02435307 -0.06039799 0.0469876 -0.05183043 -0.18570724 -0.010357125 -0.19746675
0.072677694 0.14766707 0.18449378 -0.14869884 -0.06793602 -0.038348705 -0.07421969 0.016623005
0.13357024 -0.02498256 0.050560135 -0.10252727 0.08718553 0.21172817 0.027544465 -0.18695292
0.1242156 0.07058557 0.03379339 0.091940746 0.13947482 -0.09340683 -0.15453152 -0.09862809
0.11160106 0.10387033 -0.15604277 0.017209116 -0.11629556 -0.14428025 -0.10841253 0.034384914
0.007042429 0.077023506 0.048185624 -0.18669252 -0.045579504 0.082655646 0.1603939 -0.17142448
-0.14886358 -0.08856356 0.10870314 0.15759279 0.1702225 0.08094656 0.11877582 -0.07317766
-0.140795 0.03211617 -0.015326261 -0.09497089 -0.025302155 0.13195665 -0.04179908 0.10184843
-0.0397399 -0.13114196 -0.10485796 -0.029602299 0.066657975 -0.11081063 0.043670233 -0.037414566
-0.040978294 -0.04635315 -0.17740308 -0.08659848 -0.06309087 0.1336885 0.12601933 0.10963929
-0.113460876 -0.04524482 -0.09295303 0.04124168 -0.12219165 0.04455749 -0.09569126 -0.043120258
0.21529266 0.011453215 -0.16075087 0.10335607 -0.07686909 -0.026954656 -0.0119184945 -0.015426881
-0.009382994 -0.064435124 -0.0064554024 -0.032545835 -0.15373187 -0.107638165 -0.11992894 0.16014208
0.12838857 0.15968554 -0.05743616 0.114854544 0.017240578 -0.13638248 -0.12170075 -0.11866306
-0.043221135 0.16263035 -0.12353842 0.13589904 0.05576992 -0.07483757 -0.071193285 0.15036282
-0.08638401 0.03205347 -0.1683853 -0.09151521 0.065430805 0.14774683 -0.10771027 0.11711285
0.13713686 -0.15883543 0.15165806 0.046357006 0.11252896 -0.07935636 -0.16105478 -0.121782064
0.062135257 0.11758043 0.09456698 -0.14308281 -0.09427038 -0.070184045 -0.07095855 0.15415272
-0.0941653 -0.055675287 -0.15222678 0.060850296 0.1339078 0.007265201 -0.120080076 -0.07298206
00000000: e92e 00be 7921 ab3d 010b eabd 4100 593d
00000010: 0829 5b3d 43c5 fdbd 0fb7 d13d 056a 1abe
00000020: 940f 9bbd 1a5e 18be 67ce ca3d 12c7 95bd
00000030: 9216 883d 66dd a3bd 9c2a 0c3e a6f3 273d
00000040: 2119 463e f09b 1dbe 3a2f 01be 03fa 27be
00000050: 7e47 19be 1965 4d3d 8a1a c33d 24ae c63d
00000060: c16f febc 9761 583d d3c5 55bd 7982 1fbd
00000070: 238b b1bc 9417 01bd e5a5 3dbd d140 00bd
00000080: 77d5 1bbe d514 bcba 66bd 853d fb58 b43d
00000090: 4b2f 31be 0837 773d 8168 f93c cedf 23be
000000a0: b835 283d e26b 1d3e bc3e a4bd 3449 003e
000000b0: 1773 01be 1483 bbbd 1569 9ebd 23a5 69bd
000000c0: 6f6b a43d d389 babb 0290 0ebd 2fc1 18be
000000d0: 620a 26bc d0c9 8a3d 1e09 813d a4a7 09be
000000e0: 7bec 1fbe 252e 0abd d120 86bc 5f64 7c3d
000000f0: 7e88 c83d ea89 38be c41a 1c3e de79 e4bd
00000100: 6585 18be 910e 93bd ed0e efbd e5d6 be3d
00000110: 3f0b 0abe 2887 38be c23d 793d 3fff adbd
00000120: 41fd 493c bcb2 7cbd 7cac 403d 14c6 2fbe
00000130: 95aa 913d f270 c8bd d081 25be 555f 363d
00000140: a9c4 9b3d d5b6 223e 5536 653d dc3b 7f3d
00000150: 06f3 523d 592b fabd 562b 31be bd51 243d
00000160: 7956 093d e4d7 293e d74a 34be 08bf d4bc
00000170: 0188 6a3c a16e d3bd 4987 013d 0f97 f8bd
00000180: 6060 0d3e 97c8 2ebe 1a0b 013e 0561 d43c
00000190: e313 b4bd 7624 29be f386 303c 758f 183d
000001a0: 7736 2bbe 1780 c73c e263 77bd 1276 403d
000001b0: 254c 54bd 0a2a 3ebe eeb0 29bc b934 4abe
000001c0: 0bd8 943d 0936 173e f0eb 3c3e 8244 18be
000001d0: 0a22 8bbd 8813 1dbd 7e00 98bd f82c 883c
000001e0: a3c6 083e 3aa8 ccbc 2518 4f3d d1f9 d1bd
000001f0: 548e b23d 45cf 583e eea4 e13c 9670 3fbe
00000200: c064 fe3d 2b8f 903d f06a 0a3d 6e4b bc3d
00000210: 7dd2 0e3e 154c bfbd 833d 1ebe 86fd c9bd
00000220: 198f e43d f8b9 d43d adc9 1fbe 22fa 8c3c
00000230: 5e2c eebd 34be 13be 6307 debd 32d7 0c3d
00000240: 2dc4 e63b 80be 9d3d 4a5e 453d 532c 3fbe
00000250: 93b1 3abd 5d47 a93d 4c3e 243e e689 2fbe
00000260: b26f 18be d060 b5bd c09f de3d 0160 213e
00000270: cf4e 2e3e 4fc7 a53d bd40 f33d 2bde 95bd
00000280: 912c 10be 3f8c 033d ff1a 7bbc 1980 c2bd
00000290: 7746 cfbc a51f 073e 8335 2bbd e995 d03d
000002a0: 4ec6 22bd 144a 06be c5bf d6bd 8580 f2bc
000002b0: fa83 883d aff0 e2bd 8fdf 323d 0440 19bd
000002c0: dbd8 27bd cddc 3dbd 27a9 35be 8b5a b1bd
000002d0: c935 81bd a3e5 083e 360b 013e 908a e03d
000002e0: 2d5e e8bd a252 39bd 285e bebd 09ed 283d
000002f0: 9e3f fabd ea81 363d c8f9 c3bd de9e 30bd
00000300: ae75 5c3e 44a6 3b3c e09b 24be 59ac d33d
00000310: 8b6d 9dbd 03d0 dcbc ca45 43bc 07c1 7cbc
00000320: 21bb 19bc 90f6 83bd d787 d3bb c84e 05bd
00000330: e36b 1dbe 6671 dcbd 4e9d f5bd 49fc 233e
00000340: 4b78 033e 9b84 233e 2e42 6bbd dc38 eb3d
00000350: 1d3c 8d3c d9a7 0bbe 3e3e f9bd 9e05 f3bd
00000360: a508 31bd 9288 263e b601 fdbd 1e29 0b3e
00000370: 006f 643d 7144 99bd c9cd 91bd b6f8 193e
00000380: 1aea b0bd 804a 033d 326d 2cbe 546c bbbd
00000390: 9600 863d f24a 173e 3497 dcbd ddd8 ef3d
000003a0: 9b6d 0c3e c1a5 22be 404c 1b3e d8e0 3d3d
000003b0: 9575 e63d 9685 a2bd 8beb 24be e068 f9bd
000003c0: 8a81 7e3d 02ce f03d 55ac c13d 4d84 12be
000003d0: d410 c1bd a7bc 8fbd b752 91bd 36da 1d3e
000003e0: bdd9 c0bd c50b 64bd 56e1 1bbe 293e 793d
000003f0: 201f 093e ec10 ee3b 8bec f5bd 9e77 95bd

decoder.0.bias f4 [64]
0.09046174 -0.0537935 -0.178796 -0.15051301 0.08817901 0.1506134 0.16313234 0.043773733
0.07178648 -0.17478606 0.18292397 0.022739047 0.1218756 0.04005057 0.061548717 -0.08551699
-0.081256 0.03199004 -0.054995634 -0.016629219 -0.12533893 0.13593866 -0.078552134 -0.0266804
-0.074079424 -0.107788436 0.011204835 -0.06861555 -0.046761543 -0.06993112 0.0869001 -0.16484667
0.059717547 -0.11255601 -0.02578478 0.14695208 0.02064676 0.17438164 -0.07201174 0.11660469
0.13214512 -0.14832701 -0.07507199 0.14045556 0.032810472 -0.005011451 -0.14807871 -0.13253945
-0.06041407 -0.13021274 -0.031141 5.4619588e-05 0.034348603 -0.012044065 0.02485333 0.021108044
0.0019522379 0.12188326 0.15962926 0.025480002 -0.1071096 0.17516121 0.071007915 -0.15753652
00000000: 0144 b93d 9356 5cbd 4c16 37be 1520 1abe
00000010: 3297 b43d 663a 1a3e 2a0c 273e 164c 333d
00000020: ca04 933d 1efb 32be 6c50 3b3e 3d47 ba3c
00000030: ea99 f93d 110c 243d 821a 7c3d 8823 afbd
00000040: 8c69 a6bd fd07 033d 1a43 61bd 003a 88bc
00000050: d958 00be 8133 0b3e f1df a0bd db90 dabc
00000060: f4b6 97bd 2fc0 dcbd 7c94 373c 4f86 8cbd
00000070: 0889 3fbd 0c38 8fbd aef8 b13d 91cd 28be
00000080: 639a 743d c483 e6bd 9a3a d3bc 9b7a 163e
00000090: 6523 a93c 1a91 323e e47a 93bd 71ce ee3d
000000a0: 0d51 073e 09e3 17be 58bf 99bd 95d3 0f3e
000000b0: 4664 063d 1937 a4bb f2a1 17be 6cb8 07be
000000c0: be74 77bd 7d56 05be 691b ffbc 5617 6538
000000d0: 1fb1 0c3d 7854 45bc 3699 cb3c c7ea ac3c
000000e0: 3ce2 ff3a ee9d f93d da75 233e 70bb d03c
000000f0: 475c dbbd 765d 333e 996c 913d 4151 21be
