customized/model/trained_model/ae/ae_z_23batch_128_mabSt.pth (torch, 395895 bytes, 16 tensors)

encoder.0.weight f4 [256, 23]
00000000: 83e4 e43b d239 303d dbeb 2ebe 797f cf3c
00000010: 7503 7d3b 901b f83b 92b4 a0bd 3de5 cbbd
00000020: 12da debd cc11 23bc 9f2b 02bd f9ab 853d
00000030: 1f02 37be 6c2d b8bd 9fd1 653e b054 abbd
00000040: 7742 993c b980 dabd ee66 293e 80d9 393e
00000050: 1f19 3c3e a9cc 19bc 9f5f 36be 7b27 28bd
00000060: 3dcd 3a3d b3db 563e 1bdd 83bd c5b8 be3d
00000070: 7d39 dcbd 761c 75bd f4a0 f1bd 3070 27be
00000080: 92a2 c83d bea7 823c b434 2f3e 74f2 4e3e
00000090: ef28 573e b342 12be 27e7 073d c14a 2abd
000000a0: 9c37 c4bd 1f02 803d 4eaf 35be b16b 8bbc
000000b0: 03e8 a7bc 188b c6bd 0c28 643d ce23 1abe
000000c0: e6ec 87bd ed19 413e 2718 6cbd 7023 7dbe
000000d0: a76e 113e d85d 8fbc 3498 9a3c 0d0c 9d3d
000000e0: d763 9a3d 5bd9 27be 36c7 5dbd 8da6 08be
000000f0: d1e7 4cbe 3674 c63d 9460 253e 3f4f 39be
00000100: 8ec4 3d3e 6ce9 6abd d764 6c3d 1d5b 023e
00000110: 42bf 7abd 9439 f33d 5e5c 273e 2592 7b3d
00000120: 3f3f c33b 3017 e2bd 36b6 2abe fcfa ac3c
00000130: 9aee 553b 902c 823c b02a 583d 2f2f c93d
00000140: ac82 11be 67f8 9bbd 7cb5 89bd 7364 673e
00000150: 0672 01be 48c2 9ebd 0553 de3d ae1a 8fbb
00000160: 60a5 35be 4c36 58bd 3cfd cebc 98d5 ec3c
00000170: 023a 01bd 1968 67bc 4424 5cbd f35d 2abd
00000180: b102 1bbe b6d5 0abe 24b4 2fbe 8d04 d33c
00000190: 06a4 02bd b6b3 4ebe cbfe c63d 13b3 a83d
000001a0: f4fc a4bd df1a 523d 0690 273e fcfe 863d
000001b0: 02e5 23be c1f4 d5bd ffe6 37be e18a 173e
000001c0: 5b07 b6bd dd79 d6bc 175d ee39 65a6 abbd
000001d0: 9a92 0abe 0b41 9a3d 4c90 2b3e 214e 6a3c
000001e0: 96bc 3a3e b93a 533d ebbf 9e3d 985e 013e
000001f0: c68a dfbd f5cd fc3c 8895 bc3d cffa 42be
00000200: 9bd9 05be 1c4e eb3c 0896 383e bcf8 613d
00000210: 51c0 89bd 2748 a9bd 53dd 3c3e 9834 e9bd
00000220: 7559 943b 522d 123d 9a56 69bd a133 04be
00000230: 8071 36bc 1684 55be fe65 42bd 8ed2 fdbd
00000240: ce3d 0b3e 7f08 e6bd 9932 0a3e d0fb 2b3e
00000250: 792d 423e ec93 e0bc 4f4b 0d3c 5ce7 91bd
00000260: 13b5 15be d582 273e 24b6 0fbd 7aa6 843d
00000270: 6f00 3dbe bb15 8bbd fd93 aabc 645e a13d
00000280: a328 c4bb 76e3 07be 8b04 03be 0c42 fe3d
00000290: 0b3b 8c3d 9eee 1dbe 03fe 4ebe b5c6 3fbe
000002a0: baa9 023d d960 33be d05b 2a3e c20a 793d
000002b0: 884e 483d 7ac2 98bc 0115 bbbc 496c 1bbc
000002c0: 00b3 efbd 1e42 113e 99b1 123e 1607 dfbd
000002d0: 12d8 b8bd 8aba ee3d f658 f0bd bff9 813d
000002e0: 8a3e ddbc f561 f23c cc79 95bd 7374 dc3d
000002f0: e927 c23b c623 013e d9e9 11be 1bd1 1cbe
00000300: 18d6 82bd ddcf dfbb b023 ac3d 985d dfbd
00000310: 0906 2e3d ea6e dfbd 9e3b 68bd 720f 8c3d
00000320: a82e 97bd cfb2 30be 196c 9e3d 59db 57be
00000330: 65ff 9bbd d62c 3ebe cd86 093d 7bdb 4d3e
00000340: b464 0ebe 2f40 723d 0c73 23be 4158 ee3d
00000350: 7e7a 17be af2f 183e 7b6b 51be 8790 77bc
00000360: d3c0 033e 0380 4abe 8a97 5b3b f036 783d
00000370: 530e df3c 7e26 ed3d 3abe 2f3b d7d2 4cbd
00000380: f155 f73c 16a5 e4bd f1aa 57be 5a1b 153e
00000390: 2dce fa3d 6e9d 01be 9af3 27be 2df9 183d
000003a0: 8e43 66bc dd43 efbd 5a21 9c3d 4cec 11be
000003b0: 665b 7fbd 5b38 b6bd aab5 82bd 2a2c 793d
000003c0: 8737 f5bd 604a 613d e680 febd 6461 8f3d
000003d0: 2fbf 22bd 8aa1 b6bd d1f5 b13d e684 23be
000003e0: ba77 3f3c 802e 86bd d589 06be a907 3c3e
000003f0: b737 943d 9399 d3bd 7bf6 c2bd 1d07 16be
0.0069852485 0.04302389 -0.17082159 0.025329338 0.0038606797 0.007571645 -0.07846941 -0.09955833
-0.10881437 -0.009952974 -0.03177988 0.06526942 -0.17871903 -0.089930385 0.22443245 -0.08365762
0.01870845 -0.10669083 0.16543171 0.18149376 0.18368958 -0.009387174 -0.17809914 -0.041053277
0.045605887 0.20982246 -0.06438657 0.09312586 -0.107531525 -0.059841596 -0.117982775 -0.1635139
0.09796633 0.015949126 0.17109948 0.20209676 0.21011709 -0.14283256 0.03317943 -0.041575197
-0.09580919 0.062504046 -0.17742655 -0.017019125 -0.020496374 -0.09694499 0.055702254 -0.15052721
-0.06636982 0.18857546 -0.05764022 -0.2472055 0.14202367 -0.017500803 0.018871404 0.07668314
0.07538574 -0.16391508 -0.05414506 -0.13344784 -0.20010306 0.09690134 0.16150123 -0.18096636
0.18532011 -0.057351515 0.057713356 0.1273007 -0.061217554 0.118762165 0.16343829 0.06141867
0.0059584673 -0.11039579 -0.1667107 0.021115772 0.0032643438 0.01589039 0.052775085 0.09823453
-0.14210004 -0.07615738 -0.067240685 0.22596912 -0.12641153 -0.077519 0.108556785 -0.004367194
-0.17738867 -0.052786157 -0.025267236 0.028910443 -0.03154946 -0.01412394 -0.053745523 -0.041593503
-0.15137745 -0.13558087 -0.17158562 0.025759006 -0.031894706 -0.20185742 0.09716567 0.08237281
-0.080560595 0.051295158 0.16363534 0.06591603 -0.16005328 -0.10447074 -0.17959212 0.14799072
-0.08888122 -0.026181156 0.00045464255 -0.083813466 -0.13532487 0.07531937 0.16754264 0.014300854
0.18236002 0.051569674 0.07751449 0.12633741 -0.10915141 0.030859927 0.09208208 -0.19040988
-0.13071291 0.028723769 0.18025982 0.055168852 -0.067261346 -0.08265715 0.18443803 -0.113869846
0.0045272657 0.035687752 -0.056967355 -0.1291032 -0.011135459 -0.20851168 -0.04746055 -0.12393676
0.13597795 -0.11232089 0.13495864 0.16795278 0.18962659 -0.027414285 0.008623912 -0.071242064
-0.14619856 0.16358502 -0.035085812 0.064770654 -0.18457197 -0.06791254 -0.02082252 0.07879332
-0.0059862896 -0.13270363 -0.12794702 0.12414941 0.06847199 -0.15423056 -0.20214085 -0.18728144
0.031900145 -0.17517413 0.16636586 0.060801275 0.04890302 -0.018647421 -0.022837164 -0.009486266
-0.117040634 0.14185378 0.1432556 -0.108900234 -0.09025587 0.11656673 -0.11735718 0.063464634
-0.02700736 0.029587725 -0.072986215 0.107643984 0.005925168 0.12611303 -0.14249362 -0.15314142
-0.063884914 -0.006830199 0.08405244 -0.109065235 0.042486224 -0.10909827 -0.05669748 0.068388835
-0.07381946 -0.1725571 0.07735462 -0.21079768 -0.07617072 -0.18571791 0.03357582 0.20103256
-0.13905603 0.05914324 -0.15961856 0.11637927 -0.14792821 0.1486194 -0.20451157 -0.015110142
0.12866525 -0.19775395 0.0033507072 0.060599267 0.02722851 0.115796074 0.0026816265 -0.05000576
0.030192347 -0.111643 -0.21061303 0.14561215 0.12246356 -0.12657711 -0.1640152 0.037347008
-0.014054192 -0.11682866 0.07623549 -0.14250296 -0.062343024 -0.08897468 -0.06382306 0.060833134
-0.119734816 0.05500257 -0.12426929 0.07000998 -0.039733108 -0.0891753 0.08689464 -0.15968665
0.01168626 -0.06551838 -0.13138516 0.18362297 0.07237189 -0.10332026 -0.09519669 -0.14651151

encoder.0.bias f4 [256]
00000000: 4828 a33c 8923 703c fac3 293e b8a4 2c3e
00000010: b747 c33b deb5 063a 0140 c13d 51b2 9c3d
00000020: 775f e33c cc07 d43d dffd 87bc b12d 37bc
00000030: 0c23 363e 4d0c a9bd deb9 2d3e 7b28 05be
00000040: 7052 59be ad2e 813c 8263 0ebe 85dc 89be
00000050: 3546 073e 7e51 4fbe f712 41be e05b e73d
00000060: a8cf 48be 5184 beba 20b3 2fbe b7e2 483e
00000070: 335f 593e f7c8 223e ec58 053c f3b4 4f3e
00000080: 9312 443d 9fb9 823d ca01 1e3e 8c85 4e3d
00000090: 1ecb 55bd c4d0 09be 5348 a73d a60b 25be
000000a0: 34b0 4fbe bbac 0d3e 8d9c bf3d 3348 303e
000000b0: 5db2 8cbd 8d4a 17bd 75e2 ad3d 88c7 753e
000000c0: de00 3dbe 4ce4 95bd 2266 003c 344d 09be
000000d0: eeea 4b3e 8d36 1b3e 4675 8fbb ca8a e7bc
000000e0: 9b01 863d f6f9 1e3e 74fd 503e a17d aabd
000000f0: 5809 0e3e c7f9 3ebe 53e7 0dbe 10c7 b33d
00000100: 50af d8bd 7278 3c3e c2b1 de3d bf90 bdbd
00000110: 61f5 15be 4a94 113e 36fc fa3d 845b 23be
00000120: 004f ae3d 8ef1 a4bd a318 c4bd c6c4 90bd
00000130: b672 00be f0bd ef3d b9c2 283e 2dcf 0b3e
00000140: 14ce 483e 1c64 5d3e 099e db3d c110 14bd
00000150: 8594 ee3d 9de1 a7bc 5674 11be 3228 2a3e
00000160: c1a0 cbbd 4a6d dc3d 9e96 21be 5bff 273e
00000170: f891 02bc 0771 253e 1776 b1bc 263d b3bd
00000180: 33e5 71be b436 403e 88eb 28bc 0c45 b23d
00000190: 981e 9fbc eda6 673a 30a3 4a3e e2e1 003d
000001a0: d20e 56be af61 55be 2adc ae3d de0b f93d
000001b0: 5df1 3fbe 0e51 5ebe b65e 75bd 9f7e 203e
000001c0: 7e30 54be 46f9 be3d 4297 153e 9476 eebd
000001d0: f2c1 263e edd6 bdbd 1999 02be e6cf 3ebe
000001e0: 2d5e 73bd 495e 4bbe 9c7a 28be c4b0 263e
000001f0: 6da2 6c3e 0194 3e3e 9e90 cdbd 20f6 3a3e
00000200: 8693 7abe 76c5 f83d d68b 533e b62e 0abe
00000210: 4eeb 2a3e e465 32be da72 fe3c 3789 0bbe
00000220: 27eb 47be 6532 3bbd 35c2 303e 6cda 80bd
00000230: abdd 76be c1ae 06bd 1bb9 d13d 88ca 033e
00000240: 0bf0 0c3e cdc5 b6bd ccc6 aabd 23db e43d
00000250: 5b65 543e 0dec afbd 9423 833d a420 32be
00000260: 9757 6f3e 60c3 523e c8bb 88bd 26b6 31be
00000270: 8130 01be 4f13 813d 4dc5 303d 05d6 3cbe
00000280: 90c2 893d 9b49 4bbc 3288 2cba 5068 9bbc
00000290: 1dec 8dbd 91c5 23be f4e5 1e3b 378c 3e3d
000002a0: c124 5f3d 9b70 503e f571 153c 7738 e03d
000002b0: da4d 2c3e 6dbc 8a3d 9fd3 ae3d ff95 603d
000002c0: b0dd e63d 7a06 8abd d9a1 b43d e34c 093e
000002d0: 8cfd fa3d f5d0 0b3e faca 1cbe 0cb4 263e
000002e0: f618 74be 86b2 b43c 9db4 45be 0fca 443e
000002f0: 173f 413e 2bd8 193e c5d0 c23b 4094 2fbe
00000300: 208f 8c3e 1eee 1abe b2ce 163e 3b17 5a3e
00000310: 1b49 443e c251 3e3e 2225 3f3e 184c 8c3d
00000320: 520b 05be e78d 2f3e db85 c33c 677b 033e
00000330: 3a1a 70bd 8558 4a3d 535e 3e3d dab8 1a3e
00000340: 4f73 f9bd cdcd 123e 6d4e 433e 76e1 a6bd
00000350: 320b 9bbc eca3 063e 401c 8f3b b3ac db3d
00000360: 7856 f7bd b601 18be 593c 3bbe e355 8bbd
00000370: da8b d63d 635e 6f3d 4902 ccbd e6c7 fa3d
00000380: 9981 9bbd 0508 a4bd 1ac8 0bbe 8f2a 5f3d
00000390: 2802 e13d f136 d4bd a479 5f3d a4d7 983d
000003a0: 26bd 013c d077 03be 5856 83bd aa94 5cbe
000003b0: 53b4 29be b170 33bd e45a 1a3e 5e8b c8bd
000003c0: 2547 33be 5ec5 cbbb e033 09be 08ac 0cbd
000003d0: 7132 51bc b310 0b3e e2bb f63c dc0b 853d
000003e0: 2646 cf3d 7f3e 403d 8c15 65be 7297 263d
000003f0: 3dd0 8abd 8108 c9bc 189d 8fbd 20ef 993d
0.019916669 0.01465691 0.16578665 0.1685971 0.005959477 0.00051387947 0.09436036 0.07651199
0.027755482 0.1035305 -0.016600547 -0.011180327 0.17786807 -0.08254299 0.16965434 -0.13003723
-0.21222854 0.015769327 -0.13905147 -0.26926056 0.13210376 -0.2024593 -0.18854891 0.11296821
-0.19610465 -0.0014535283 -0.17158175 0.19617735 0.21227722 0.15896975 0.008138876 0.2028387
0.047869276 0.06383061 0.1543037 0.05042033 -0.05219566 -0.13458544 0.081680916 -0.16117725
-0.2028206 0.13835423 0.093560316 0.17215042 -0.068699576 -0.03693633 0.08490459 0.24001896
-0.18457362 -0.07318935 0.00783685 -0.13408357 0.19913837 0.15157528 -0.0043779938 -0.028264422
0.06543275 0.1552504 0.20409185 -0.08324743 0.13870752 -0.1864997 -0.13857774 0.087782025
-0.10580313 0.18405321 0.10873748 -0.09256124 -0.14644386 0.14216724 0.12255137 -0.15952879
0.08511162 -0.080538854 -0.095750116 -0.070687816 -0.12543759 0.117061496 0.16480531 0.1365325
0.19609863 0.2162022 0.10723502 -0.03614879 0.116494216 -0.020493323 -0.14204535 0.16616896
-0.09942771 0.10763033 -0.15780112 0.16406004 -0.007969372 0.16156398 -0.021662755 -0.087518975
-0.23622589 0.18770868 -0.010310061 0.08704576 -0.019423768 0.00088368246 0.19788814 0.03146542
-0.20904091 -0.20838045 0.08538087 0.121604666 -0.18744417 -0.21710607 -0.059904777 0.15673302
-0.20721623 0.09324889 0.14608482 -0.11643711 0.16284922 -0.092695095 -0.12753715 -0.18633994
-0.059415985 -0.19860186 -0.16453022 0.16278368 0.23108836 0.18611147 -0.10037349 0.18257952
-0.24470338 0.12147038 0.20658812 -0.13494381 0.16691324 -0.1742168 0.031060625 -0.13626562
-0.19523297 -0.045702357 0.17261584 -0.06291661 -0.24107997 -0.032881502 0.10240384 0.12870228
0.13763444 -0.08924446 -0.08338699 0.111746095 0.20741789 -0.08589945 0.0640327 -0.17395264
0.23373257 0.20582342 -0.066764414 -0.1735464 -0.12616159 0.06302511 0.04315691 -0.18441017
0.06726563 -0.012407686 -0.0006581574 -0.018970639 -0.06929801 -0.15993334 0.002424595 0.046520438
0.05447841 0.20355456 0.009121408 0.1094827 0.16826573 0.067742206 0.08536457 0.054830547
0.11272752 -0.067395166 0.088199325 0.13408236 0.122553915 0.1365393 -0.15311804 0.1627962
-0.23837647 0.022057783 -0.1930718 0.19217704 0.18871723 0.15023868 0.0059452974 -0.17146397
0.27452946 -0.15129897 0.14727286 0.21297924 0.19168513 0.18585876 0.18666509 0.06850451
-0.129926 0.17143975 0.023867538 0.12840043 -0.05861876 0.049400825 0.046476673 0.15109578
-0.121801965 0.1433632 0.19072886 -0.08148472 -0.018926237 0.13148469 0.0043673813 0.10726299
-0.120770395 -0.14844403 -0.1828474 -0.06803491 0.10475893 0.058439624 -0.09961373 0.12245159
-0.07593078 -0.08009342 -0.13650551 0.054483946 0.109867394 -0.10362042 0.054559365 0.07463005
0.007918632 -0.12838674 -0.06412953 -0.21541086 -0.16572694 -0.043808643 0.15073735 -0.09792207
-0.17507608 -0.0062185964 -0.13398695 -0.03434375 -0.012768374 0.13580589 0.030118886 0.064964026
0.10120802 0.0469346 -0.223715 0.040671773 -0.067779996 -0.024540188 -0.07012385 0.075163126

encoder.2.weight f4 [128, 256]
00000000: 17b8 d9bc 1635 8abd 2393 8abc dd8e 1f3d
00000010: 4df6 58bc 3b42 733d ec66 8e3d 73ce 11bd
00000020: 35b8 603d fc3b 5c3d 8b13 a53c fe06 65bd
00000030: 6470 4a3d 9828 043c fa92 f23c a066 bbbc
00000040: 601c abbc 80dc 673c 356c e0bc d082 053d
00000050: 3d81 e7bc 9272 443c 40d3 243d 6c1f 653d
00000060: c1cb e1bc c298 89bd d9c7 293d 4316 26bd
00000070: 7fbb 143d b91f 9d3d 1488 1d3c f80a 473d
00000080: f696 593d 15e0 2ebd 6e35 dbbc 9c9b 44bd
00000090: b3c3 0d3c 5c74 063d 39b1 88b9 fa99 1bbd
000000a0: 58fd 223c 6f05 023c 7694 883c b7d3 0bbd
000000b0: af87 fe3c b211 413d 853d 5cbc 4060 923c
000000c0: 17be 843c 4217 1ebd 778c 96bd 1575 48bd
000000d0: 8d35 06bd 9866 8c3d b4cf 593b 069d 013d
000000e0: 1644 0f3d 70c0 10bd c1a9 e23c 3d03 2dbd
000000f0: 004b 0d3d 5657 65ba 7ff7 03bd 809a 0fbd
00000100: 5e46 da3b 699b 343d dcb1 66bc a282 a53c
00000110: 23ce e3bc 0ff7 013d a4f5 a4bc d8e3 423d
00000120: 37cb f6bc e472 ecbc e5c8 053c cd65 38bd
00000130: a57a 0fbd 8dab 71bc 2761 7abc 6530 39bc
00000140: 376e 623d 4486 b83c 2084 433d a98e 813d
00000150: e953 a7bc 66ed 2a3d 7fde 9abd 9f14 243d
00000160: 0492 363d d7e9 223b de0b 0f3d d46b c93b
00000170: f8b5 06bd f896 503d b4f8 ccbb 0978 46bd
00000180: 0365 f43b 5914 8f3b 390a 453c 8154 c7bc
00000190: cdfb 4cbd 113b 453d 42a7 3fbd bab7 223c
000001a0: 1f28 aa3c 5970 563d 8831 003d 54c1 ecba
000001b0: f16a bfbb 04ff 61bd ac66 a9bc 6452 54bd
000001c0: 74ec 19bd 6b9b 863b f53c ddbc 5d2c 8fbd
000001d0: 9b7a 4bbd a939 31bb 77a2 253c f777 e2bc
000001e0: 4232 99bb 7488 1bbd 3cd5 263c ded3 6f3d
000001f0: a754 a0bc c023 5cbd a1da 7abd d0f2 c83c
00000200: 6aee a5bd 0588 b8bc da63 8b3c c935 f2bc
00000210: d00d 13bd dd7a 543c 30bb c43c db82 c53c
00000220: ce4f dc3c d3ba 423d f200 843d 0eae f13c
00000230: c3da 2ebd 8908 6a3d 6161 2b3d 9b80 583d
00000240: c6e7 50bd f5b3 da3b 4a40 16bd 4222 1dbc
00000250: 0e01 383d a101 44bd c51d 733d 3e01 d5bc
00000260: 263b 8e3c 041a 88bd f833 2b3d 15ff 143d
00000270: f2ec 1f3d c3b6 c0bc 9b24 d3bc cef2 5abd
00000280: 5323 b1bc 4480 f73c 700c d3bc f7b3 503a
00000290: eb6a ffbc bcb7 463d cd15 30bd 2dc8 4b3d
000002a0: a3b0 3ebd bf34 f2bc 1995 19bd 0886 27bd
000002b0: fec4 c3bc 4f7f 96bd 349f 03bb b32c 21bd
000002c0: b968 8a3c c661 b5bc 7fc3 993c 070f 9a3c
000002d0: dfbd 0abd 25f8 0c3d 9b54 893c f5fa 533c
000002e0: 3bf2 f0bc f0d6 5c3d 8af3 1b3c a872 8e3d
000002f0: 318a 2f3c 3851 09bb dd7d d23c 8d00 05bc
00000300: 185c f8bb 9cd4 13bd 1574 9bbc 63ee 54bd
00000310: 6db4 a03c 29b1 c23c 3769 913c aff7 cf3b
00000320: c321 12bd 4cae c83c 4339 a9bc d003 593d
00000330: de94 553d 7acb f63a 4b6a 61bd 88cb e93c
00000340: 8c38 d13c c618 a03c 6c01 2a3d 1897 6c3d
00000350: 4868 9c3b 562f 3cbd 32ba 303d c7e5 8b3c
00000360: 0cc9 28bd ab21 483d c28b 81bd 7c28 33bc
00000370: 3e98 90bd a433 023d f0b4 7f3c bba9 9b3d
00000380: 4d83 b83c d7d4 19bd 1366 43bd fe86 2cbd
00000390: 2fd0 5e3d baca 863d 3130 e0bc b8f4 f4bc
000003a0: 6f43 933c 8f06 dd3c 4795 bbbc 6390 14bd
000003b0: 1eb5 69bd a235 88bd dde2 3c3d 1401 203d
000003c0: 238c 76bd fb7c 90bc ebed a9bc 88e1 2ebd
000003d0: 8e9e 92bc 36c3 d1bc ca0c b73c b6d3 39bd
000003e0: d9f8 6b3d 3b32 cd3c e529 0abd 4f3f 2cbd
000003f0: 8f73 89bc 9bab fb3c 3d0d 0cbd 8406 4e3d
-0.026577039 -0.067484066 -0.016915863 0.038954604 -0.013242316 0.059389334 0.069532245 -0.035597276
0.054863174 0.053768143 0.02015092 -0.05591487 0.04942359 0.008066319 0.0296111 -0.022876084
-0.020887554 0.014151692 -0.027395347 0.032595456 -0.028259868 0.011990206 0.040240526 0.05593817
-0.027562978 -0.06718589 0.041450355 -0.040548574 0.036311623 0.07672066 0.009614963 0.048594445
0.053122483 -0.04269417 -0.026758876 -0.047999963 0.008652615 0.032825813 -0.00026071983 -0.03798864
0.009948097 0.007935866 0.016672354 -0.034137454 0.031070558 0.047136016 -0.013442402 0.017868161
0.016203923 -0.0385964 -0.0735101 -0.048939783 -0.032765914 0.06855506 0.0033235373 0.03164389
0.03497704 -0.035339773 0.027668836 -0.042239416 0.034495354 -0.0008748671 -0.032218453 -0.035059452
0.0066612205 0.044093523 -0.014080491 0.020203892 -0.027808255 0.031729754 -0.020136662 0.04758057
-0.030126197 -0.028863378 0.008165573 -0.04501896 -0.035029072 -0.014750374 -0.015281952 -0.011303042
0.05528089 0.02252496 0.047733426 0.063260384 -0.020425754 0.041730307 -0.07561969 0.04005873
0.044572845 0.0024858618 0.034923427 0.0061468873 -0.032888383 0.050925225 -0.0062552337 -0.04845432
0.0074583306 0.0043664393 0.012026363 -0.024332287 -0.050044823 0.048152033 -0.04679037 0.009931499
0.020771084 0.052353237 0.031297237 -0.0018062987 -0.005841606 -0.055174842 -0.02067884 -0.051836386
-0.037579015 0.0041078827 -0.027006606 -0.069908835 -0.049677473 -0.0027042425 0.010109535 -0.027645094
-0.0046751807 -0.03797193 0.010182675 0.05855166 -0.019571615 -0.05374503 -0.061243657 0.024529845
-0.081021145 -0.022525797 0.017015386 -0.029566662 -0.035901845 0.012968746 0.02401504 0.024110248
0.026893523 0.04754145 0.06445493 0.029501941 -0.042689096 0.057137046 0.041840915 0.052857023
-0.051002286 0.0066742846 -0.036682405 -0.009590687 0.04492288 -0.047853116 0.059354562 -0.026001569
0.017362189 -0.06645587 0.041797608 0.036376078 0.039044328 -0.023524648 -0.02577429 -0.053454213
-0.02162329 0.030212529 -0.025762767 0.0007961387 -0.031178912 0.048515067 -0.04298954 0.04975145
-0.046555173 -0.029566167 -0.037495706 -0.040899307 -0.023897644 -0.07348501 -0.0020083906 -0.03934927
0.016895639 -0.022141349 0.018769978 0.018805994 -0.03387248 0.034416337 0.016763976 0.012938251
-0.02941238 0.053915918 0.009518513 0.06955463 0.0107141 -0.002095295 0.025694782 -0.008117807
-0.007579338 -0.036091432 -0.01897625 -0.051985156 0.019617284 0.023766117 0.017750366 0.006346665
-0.03567673 0.024497174 -0.020657187 0.05298215 0.052143924 0.0018828951 -0.05503301 0.028539434
0.025539659 0.019543063 0.041505262 0.05776128 0.0047731735 -0.04594358 0.04314632 0.01707734
-0.04120736 0.048860233 -0.06325485 -0.010934945 -0.07060288 0.03178753 0.015607104 0.07600733
0.022523547 -0.037556496 -0.047704767 -0.042120926 0.054397758 0.06581636 -0.02736673 -0.029901847
0.01797649 0.026980666 -0.02289833 -0.03627051 -0.057057492 -0.06650855 0.04611479 0.03906353
-0.06019224 -0.01763772 -0.020743331 -0.042695552 -0.01789787 -0.02560578 0.022344965 -0.04536792
0.057610366 0.025048366 -0.03373136 -0.042052563 -0.016778735 0.030721476 -0.034192313 0.050299183

encoder.2.bias f4 [128]
00000000: f599 0a3d 1a0c c9bc c1bc c0bd e244 d9bc
00000010: b6ad 973d 235c 41bd 87fa c3bd bd5f ab3a
00000020: 561b 1ebd d1f9 ce3c e3fd 753d b7eb fa3c
00000030: 38f2 2abd f55b bd3c 3fdc 813d 0c80 93bb
00000040: 6e47 c93b fab1 9b3d cb25 2cbd 0df6 c03c
00000050: 69b7 86bd 143b 353c a8fa 0dbd 3679 003d
00000060: 034b 463c 8900 56bc e943 083d 87c4 3cbb
00000070: 5ce3 55bd 27d0 ab3b 1506 1abd 4df1 1b3b
00000080: 57e4 b7bd 096e 9ebd cf33 013d 1142 41bd
00000090: 61d9 dcbc 85be 23bd 9510 bd3c b77d 58bb
000000a0: 16fa d2bc 1ed4 6d3d 19aa 4dbd 3b0b 6bbd
000000b0: cda2 81bd fddb 00bd 9b62 8a3d 3bc1 b9bd
000000c0: 3b2c 313c 0bca be3c 2933 073b d68a 16bd
000000d0: ccfe c8bc 25e6 b43d b2be a0bd 1d72 f83c
000000e0: 500f 183d 9a44 513d 28a9 3cbd 6531 0abc
000000f0: 30b6 98bc 26f0 12bd 22fe 913d 16c2 a43d
00000100: eefe 82bd b606 0b3d 9c1f 8a3d c78d 95bc
00000110: 7c3c a43d 5b47 cb3c 300c 063d 49d9 eb3c
00000120: 1865 3c3d 67e7 703d d577 923d 91fb 90bc
00000130: 95d7 9d3d 4677 ac3c df3e 543b 34b2 ed3c
00000140: d15b 953d 7a10 e0ba fe1b 81bd 83ef 423c
00000150: ae30 79bd 0cc0 4bbd ec45 92bc 94a5 543d
00000160: 6c54 64bd 75a7 b1bd eb3a 64bd d383 a93d
00000170: 4b34 ec3c 511e 5a3d f234 1bbc 6145 123c
00000180: fb27 6e3d 3885 06bd ca6f adbd 1fbe a1bc
00000190: 7098 833d 347b a9bc 63bd ffbc 4c7a 10bd
000001a0: b121 353d c843 8b3d da9d 07bc defd 993c
000001b0: 218a 9cbc 18b7 e6bc 2c19 84b8 f1f7 35bd
000001c0: 51c0 b83c 4480 713a e41f c2bc f27d f43c
000001d0: 63de 873d 1934 8bbc 6f55 6e3d 4dc4 5f3d
000001e0: e7a6 8abc 9821 85bd 41ca d6bc cb64 2b3d
000001f0: 1db7 563d bdfd 53bd 3cf3 c7bc 75b4 173d
0.03383823 -0.024541903 -0.09411002 -0.026522104 0.074061796 -0.04720701 -0.09569269 0.0013074797
-0.03860029 0.025265606 0.06005658 0.030629976 -0.041734904 0.023115138 0.06340837 -0.0045013484
0.0061425483 0.07602306 -0.04202823 0.023554826 -0.065779515 0.011061449 -0.034662873 0.031365596
0.012102845 -0.013061651 0.03326789 -0.0028803663 -0.05221878 0.0052433196 -0.037603457 0.002379495
-0.08979099 -0.07735831 0.03154355 -0.047182146 -0.026959123 -0.039976615 0.023079196 -0.0033033916
-0.025754016 0.05806362 -0.050211046 -0.057383757 -0.0632988 -0.031459797 0.06757089 -0.09070059
0.010813768 0.023289701 0.002062986 -0.036753498 -0.02453556 0.08832959 -0.07848872 0.030327851
0.03712398 0.051090814 -0.046059757 -0.008434628 -0.018641561 -0.035873555 0.0712855 0.080448315
-0.0639628 0.033941947 0.0674431 -0.018256081 0.08019349 0.024814298 0.032726467 0.028790133
0.045994848 0.058814432 0.071517624 -0.017698081 0.07707135 0.021052968 0.0032386107 0.029015638
0.07292903 -0.0017094754 -0.06304167 0.011897924 -0.06083744 -0.049743697 -0.017855607 0.05191572
-0.055744573 -0.08674518 -0.05572025 0.082770966 0.028833529 0.05325157 -0.009473072 0.008927674
0.058143597 -0.03284189 -0.08468588 -0.019743977 0.064255595 -0.02068863 -0.031218236 -0.03527288
0.044221584 0.068000376 -0.008277381 0.018797811 -0.019108834 -0.028163478 -6.298939e-05 -0.04442591
0.022552641 0.00092125335 -0.023696847 0.029845212 0.06634214 -0.016992616 0.058186945 0.054630566
-0.016925288 -0.06500548 -0.026219489 0.04184417 0.052420724 -0.051755656 -0.024407975 0.03703733

encoder.4.weight f4 [64, 128]
00000000: 049f a6bc 8fd2 943d 4613 513d 4822 9e3d
00000010: 1642 c2bd 0752 3cbd fbdc 1a3d 436e 9d3d
00000020: 488c 343c 89cd 4a3d 55ab 5f3d 0c8a 053d
00000030: 0cc3 5cbd fb42 743d af65 ee3c 5918 1d3d
00000040: 64d3 56bd cb58 8d3d b9f3 9bbd 0e81 90bd
00000050: f25f f53d 65ab 28bd 2383 9ebd 2efb babd
00000060: c321 97bd c59b 76bd b935 35bd 3adc 053d
00000070: 696e 2fbd a11c 873d ee8d b1bd f5a1 93bd
00000080: fda4 403d a662 40bb bfe0 9b3d fe6a 51bd
00000090: 1f08 88bc b742 053d 23cd 04bd 7b3e 133d
000000a0: 82c5 f23c d62c 42bd 086d 4f3d 81d0 993d
000000b0: 8cbc b33d eb91 8d3b 6fa3 51bc 2713 cbbc
000000c0: 2ee3 d4bb 6e3a 72bd 18d8 30bd ddda 493d
000000d0: b9c6 7dbd ea2a 1d3d 7aec b43c f1bd e23c
000000e0: 837a 1e3d 3555 8b3c 9234 a9bd 8259 25bd
000000f0: 55cc 883d 993f bb3d 407e 49bd 58bc 80bc
00000100: 5292 4d3d 3d56 80bd b06a 3b3d 1a42 f4bb
00000110: 5eb5 5dbd 0bfd c93d 19da 25bd edf0 a43d
00000120: 5e55 01bd a906 133d cd69 abbb b158 99bd
00000130: 93ab 40bd ea69 a2bd 8bf7 08bd f339 83bc
00000140: 6832 033b 4468 e13b 173b 793d 1f50 cd3c
00000150: 22d4 8cba f65b 01bd 9b25 b53d 6c38 c5bd
00000160: 03d5 8dbd c4e5 6b3c 52a1 89bd 4c54 87bd
00000170: 32a1 2ebc 7db9 cb3c cd34 a83d f113 bcbd
00000180: 0725 07bd 5df9 933d 8ee1 1a3d 2ccf 2abd
00000190: 4714 933a c9ee 82bc 5758 a1bd c7f5 033c
000001a0: a3b2 973b 1d20 82bd e435 00bc 8855 e73c
000001b0: 6a9d 49bd be1d d93d ce6a 063d 1167 a53d
000001c0: ff09 f6bc 2fae 17bb 0548 3bbd cd2f 2bbd
000001d0: f73a 7ebc f081 c83c 2662 5a3c 1b15 a63c
000001e0: f3ca 593d e381 123b 1d0b 63bd 99fe bebc
000001f0: 5243 d2bb 8b0b 0fbd 8415 4dbd 230c 00bc
00000200: 1841 9c3d c5a9 3bbd 9537 a43d 02c6 0dbd
00000210: 758d 9dbd 2443 e53c cd45 c93d 7500 083b
00000220: 3a00 c8bb 07c2 5abd 470a ad3d c1b5 1c3d
00000230: 83a9 793d 854e b4bd 41d0 ebbc 2789 6dbd
00000240: ecd2 2f3d 2103 30bd 8167 e1bc 3fb9 433d
00000250: 1d8e d33a 634c babc 081a abbd ee21 9f3c
00000260: be48 28bd dcaf 823d d696 87bd d7fe 673c
00000270: a4ac 843d 27ce ae3c 8617 383c 7214 403d
00000280: 6134 babd c351 8b3c e164 86bd 3103 e4bc
00000290: 38d2 b3bd 8448 4dbd 6a09 0c3d e586 a73d
000002a0: 17a5 1d3d b76e 10bc bff7 993d a304 593d
000002b0: e60b bd3d 8f5d 4d3c 1475 4ebd 52b9 cbbc
000002c0: 8620 10bd 4d6a 383d 53fe 4fbd c3eb 113d
000002d0: 14bb 94bc 6df0 86bd 1cca bd3c 5f88 9fbd
000002e0: 6e05 8fbd 2634 47bd ec49 52bd 1fda 2eba
000002f0: 4754 67bd 6822 f2bc dcae 57bd 6fec 19bd
00000300: 1e6a cc3d 6d1f e4bc 7760 b4bd 207e a83b
00000310: a7c9 d43b cfee cd3d a98b bfbc e354 083d
00000320: 7bd1 b5bc 33c7 47bd 6a6a 45bc acb5 1dbd
00000330: 3bf7 393d 16b5 e13c 68da 56bd 454c 9c3d
00000340: d05c d5bc 99fe 9bbc 176d 94bc aa25 453c
00000350: 9bac 19bd 29ba d13c e19e 643d 6b3e 1a3d
00000360: 52e7 fe3c 97f6 85bd 518e a23d 1581 e9bc
00000370: 634d 9b3d 2485 363d 3eff 1d3c 5d12 64bd
00000380: 17b7 1f3d 25aa 2a3d 29fb ea3c b4f4 99bd
00000390: 69c7 023d ff68 81bd 127b 9c3d 0e84 fabc
000003a0: f269 9c3d 23c4 8bbd f063 ac3c f437 99bd
000003b0: ae7e 90bd ba40 ba3c 3e01 663d 976d a33d
000003c0: 5d9f b6bd 53ff 003c 81cc 9fbd a5e7 1dbd
000003d0: ab56 6bbd 17af 6fbc 46bd b0bd 00b6 eb3c
000003e0: ef78 94bc 70de 99bd 2fe7 3b3c 823f e7bd
000003f0: b442 b63d 8c3a a43d 9a4b 1239 d863 d23d
-0.020339496 0.07266723 0.05104377 0.077213824 -0.09485261 -0.045976665 0.0378084 0.076870464
0.011019774 0.04951242 0.054606754 0.032602355 -0.05389695 0.05963419 0.02910122 0.038353298
-0.05244769 0.069017015 -0.07614846 -0.07055865 0.11981191 -0.04117908 -0.07739856 -0.0912994
-0.073794864 -0.060207147 -0.044240687 0.032680728 -0.042829905 0.065972574 -0.08669649 -0.07208625
0.047032345 -0.0029355674 0.07611226 -0.051127426 -0.016605435 0.032534327 -0.032422196 0.035948258
0.029635195 -0.04740604 0.05064109 0.07510472 0.08776197 0.0043203733 -0.012795313 -0.024789406
-0.0064968085 -0.059137754 -0.043174833 0.04928099 -0.061957095 0.038371004 0.022085417 0.027678462
0.038691055 0.017008403 -0.0826198 -0.040368564 0.06679598 0.0914299 -0.049192667 -0.01571481
0.05018837 -0.06266449 0.045756042 -0.007454169 -0.054128043 0.09862717 -0.040491197 0.080537654
-0.031575553 0.035895023 -0.0052311183 -0.0748762 -0.047038626 -0.07930358 -0.0334392 -0.016018843
0.0020019058 0.0068788845 0.060847368 0.025062619 -0.0010744373 -0.03158184 0.08845063 -0.09629902
-0.069253944 0.014398042 -0.067202225 -0.06607875 -0.010658549 0.024868721 0.08213196 -0.09183491
-0.032994296 0.07225297 0.037812762 -0.04170148 0.0011221253 -0.015983002 -0.078781776 0.008054203
0.0046294495 -0.06353781 -0.0078253485 0.028239027 -0.049222387 0.10601376 0.0328167 0.08076299
-0.030034063 -0.0023144593 -0.04572298 -0.041793633 -0.015516988 0.024476022 0.0133290645 0.020273736
0.053172063 0.002235525 -0.05543052 -0.023314761 -0.0064167166 -0.034923118 -0.050069347 -0.007815394
0.07629603 -0.0458162 0.08018414 -0.034612663 -0.076929964 0.027986117 0.098277666 0.0020752226
-0.0061035426 -0.053407695 0.08449226 0.03825927 0.060952675 -0.08804039 -0.028785827 -0.057992127
0.04292576 -0.042971734 -0.027515175 0.047784086 0.0016140376 -0.022741502 -0.083545744 0.019425359
-0.041084997 0.06381199 -0.066205665 0.01415988 0.06478241 0.021338535 0.011236077 0.0468945
-0.09092022 0.01700676 -0.0656221 -0.027833553 -0.087803304 -0.050117984 0.034188665 0.08180026
0.03848752 -0.008815459 0.07517957 0.052982938 0.09230785 0.012534513 -0.050404623 -0.024868641
-0.035187267 0.04502325 -0.05077965 0.03562523 -0.018155612 -0.06588826 0.023167662 -0.077896826
-0.069834575 -0.048633717 -0.05134003 -0.0006670076 -0.056476858 -0.029557422 -0.052656993 -0.037578996
0.09981178 -0.027847016 -0.08807462 0.0051419884 0.0064937654 0.10055315 -0.023382025 0.03328408
-0.022194615 -0.048773956 -0.012049297 -0.038503334 0.045401793 0.027552169 -0.052454382 0.07631735
-0.026045233 -0.0190423 -0.018118424 0.012032906 -0.037518125 0.025601463 0.05581558 0.037657183
0.031116161 -0.06541174 0.07937301 -0.028503934 0.0758312 0.044560567 0.009643374 -0.055681575
0.038992967 0.04166617 0.028684216 -0.075173765 0.031928454 -0.063188545 0.07640661 -0.030580547
0.07637395 -0.068245195 0.021043748 -0.07481375 -0.07055412 0.022735942 0.05615353 0.07979887
-0.08917115 0.007873374 -0.07802678 -0.03855099 -0.0574557 -0.014629147 -0.08629851 0.028773308
-0.018124072 -0.0751313 0.011468693 -0.1129141 0.08899441 0.080189794 0.00013951809 0.1027295

encoder.4.bias f4 [64]
00000000: e7bc acbc ac70 22bd 51c4 853d 8b6d 85bd
00000010: 2a65 c5bd 768d d4bc cede 0dbd b39f 23bd
00000020: e0b7 683d e85f bdbd 078e 853d 1665 c2bd
00000030: 3089 c33d 8dfa 943d ac0b 493d eef5 96bc
00000040: c61a 00bc 2b3c bb3c e11a 7ebc ec61 8c3c
00000050: cfce b1bd b992 fa3c db9e 673d 3e57 9cbd
00000060: 2a7f 383d a420 c03c 44cd 743c 8ce3 0e3c
00000070: 28b2 d6bb 1053 e13c 81d9 d03c 4537 83bd
00000080: 43f7 ee3a fe73 443d 5e5d f8bc 767d a63c
00000090: 6902 713b 1470 823d 5da7 dbbb 6662 50bd
000000a0: dec6 2ebc b21b 813d 2b2b 73bd e959 753d
000000b0: 8ba0 97bd 9ac1 163d 1f84 3a3d bedb b4bd
000000c0: c982 e8bd ae33 cabc 802d 53bd ba51 fe3d
000000d0: d1cd 5cbd b924 59bc 7b71 d1bb 2eb3 16bd
000000e0: 65b4 09bd a67f 583d bd59 903d 7492 b63d
000000f0: 2de4 593d 8198 03bd f2cc 38bc 18d6 4a3b
-0.02108617 -0.039658234 0.06531585 -0.06515034 -0.09638436 -0.02594636 -0.03463631 -0.039947223
0.056815982 -0.09246808 0.0652123 -0.09491937 0.09547651 0.07274351 0.049083397 -0.018427815
-0.007818883 0.022855839 -0.015509338 0.017136537 -0.08682024 0.030587541 0.05654798 -0.076338276
0.045043148 0.023453064 0.014941517 0.008721244 -0.0065519996 0.027505428 0.025494339 -0.06407026
0.0018231649 0.04796218 -0.030317958 0.020323496 0.0036775118 0.063690335 -0.006703301 -0.05087509
-0.010667531 0.063041106 -0.05936734 0.059900198 -0.07403668 0.036805727 0.045536157 -0.08830975
-0.1135307 -0.024682846 -0.051557064 0.12417932 -0.05390722 -0.013253384 -0.0063917018 -0.036791973
-0.033619303 0.05285611 0.07048366 0.089146525 0.05319612 -0.03212786 -0.0112793315 0.0030950364

encoder.6.weight f4 [23, 64]
00000000: 00f2 0fbd 61e9 863d 8f8e ba3d 546a 903b
00000010: 10ef eb3d 2044 16bd 9e0b 223d d2b3 43bd
00000020: 0693 2c3d 85f5 ee3d 3a7a b63d 8ba0 2a3c
00000030: beda 913d ca19 183d 1622 05be 2d4f b3bd
00000040: 1972 f6bd a5cb 823d 39dd 0e3c bed5 bcbd
00000050: 0fc1 b43c 6dfe 4bbd 72a6 1ebd ef2c a1bd
00000060: 5272 96bd bab3 bebd 62f4 d7bd b46c 893b
00000070: 9770 803d 3295 ab3d eac7 0ebd 5103 f73b
00000080: e967 15bd eb8d a3bd fb1b e2b9 1437 bfbb
00000090: 2140 053d a47d 2ebd 7214 b0bd 2cde 243d
000000a0: 093d 3bbd 3010 093e e428 d5bd 2b73 86bd
000000b0: e781 c73d e330 9e3d 4087 e73d 6ba7 62bb
000000c0: d663 953d 6a13 f13c 508c 5ebd fb91 b13d
000000d0: e157 aebd db80 f63d d42c 1b3d 71b6 12be
000000e0: fce1 10be ce7f 003e e96c 5eba 1c09 02bd
000000f0: 659f 65bc c7a8 663b 4b48 a63c 3b2e 4d3d
00000100: 8852 b03d d105 b63d b313 c2bd eacf 003e
00000110: 3517 ff3d d559 bdbd 2016 17bc 38e2 5dbd
00000120: 2d76 54bd 1b80 0dbe 6ebb 893d 4bbc f8bc
00000130: a08e 383e 82a8 04bd 336a cf3d 9718 79bd
00000140: 50d8 b8bd e33f f73d 97ca f33d 0f84 1bbe
00000150: 3433 0f3d 0f4e 2a3d db61 4abd 3959 fabd
00000160: 05c0 16be 8f09 3cbd 1e1e 9dbd ce82 c5bd
00000170: ca8a 2cbc 7988 e4bd 5b2a 863d 8a11 0fbe
00000180: fe16 febc ed34 99bd bdfe 91bd f8ef d03d
00000190: 038a 853d b155 35bc 8724 17be aeba a8bd
000001a0: 9714 173d e183 443d 5434 a8bc e65f 023d
000001b0: f025 f53d 24cc ba3d 2fc5 ac3c a194 df3d
000001c0: 7b4a 62bd 5c45 b03d c8e6 aa3d 536b 26be
000001d0: 1753 163e 6c8f 603d a08b 94bd b2db cf3d
000001e0: afc1 04be 82c5 e33d 0c5b 57bd 1b31 eebd
000001f0: cd04 133d 745c 7c3d dd51 3c3d bfa5 99bd
00000200: f325 983d 95d8 3b3d 792e 5e3d 7594 55bd
00000210: 47da 37bc d176 b03d 3d47 86bb 3d32 1f3e
00000220: 8b5d c4bb 19e3 10be b9f6 00bd b729 a5bd
00000230: a327 6b3d 9597 c73d e18b e23d 545f 0c3e
00000240: 46bd 133d b6aa b4bd ecdc dc3c b620 03bd
00000250: c29c 9d3d 5a3a c3bd c524 e33c a379 5dbd
00000260: df6e 39bd 79f6 04be ccb8 e43c bceb f3bb
00000270: 3e80 dabd df2d b33d 0b87 013e 623d f53d
00000280: 545b 2e3d e8ba 173e 1e6e 053e abd5 0d3e
00000290: 5e09 b93c ee3a 09bd 8c67 0cbd b684 ad3d
000002a0: d2bf 5b3d 3f92 2bbd 6357 73bd b446 eb3d
000002b0: fe09 3e3d dbfd 653d b354 f4bc 9623 7cbd
000002c0: e5e6 22be 6758 0f3d 7027 943d 4dbe a8bc
000002d0: 8356 dfbc 1a31 20bc 1f07 e3bd fa35 eabc
000002e0: 1e0e b93c df9a 89bd b99b e03d cdbd 173e
000002f0: 540f 213d 901a 3fbc 9a57 893d fd7d dcbc
00000300: ef6c 89bd 4f8d 8abd b910 eb3d 9d57 05be
00000310: 4696 833d 712e 693d 751e f63d 3117 afbc
00000320: 8814 a4bc 28c2 bc3d 6fe6 ae3b a793 e13d
00000330: cf1d a83d 800c c83d 0970 c3bd 936b 1cbe
00000340: 6179 9a3d ecf9 993d d6eb 2d3e da74 82bc
00000350: 3686 2cbe 8e10 673d c237 83bd 9802 cbbd
00000360: db0e e93b 94b2 83bb 8192 0abe 691c 893d
00000370: cfd1 0e3e 5935 9fbd 960d 9fbd 1f75 333d
00000380: 18c7 f23d ef0e edbc a1ec 973d 63aa b8bd
00000390: 2306 35bd 125d b73d 04bd 13be ded1 9dbc
000003a0: bfa5 e43c 5d35 ce3a 82a4 b9bd cdd0 1e3e
000003b0: 5276 ea3d abe7 babd a5c6 e2bd a289 ef3c
000003c0: 745d b23d ef11 323e 3d12 3c3d 18aa e0bc
000003d0: be61 fd3d e9e7 023e f1e5 acbd c4a7 0bbe
000003e0: 1c17 14be 0bea 313e 2e26 acbd 215f fc3b
000003f0: 1e42 393d c6dd 0bbe 1b47 0fbb 989b a03d
-0.0351429 0.06587482 0.09109222 0.0044072066 0.11520207 -0.036686063 0.03956186 -0.047778912
0.0421324 0.11667923 0.089100316 0.010414253 0.071218 0.03713397 -0.13001284 -0.08755336
-0.12033481 0.06386498 0.008719736 -0.092204556 0.022064714 -0.049803186 -0.038732953 -0.078698985
-0.073460236 -0.09311624 -0.10544659 0.0041938666 0.06271475 0.08378066 -0.03485862 0.007538237
-0.03647605 -0.07986053 -0.00043126926 -0.0058354232 0.03253186 -0.04260029 -0.0859765 0.040250942
-0.045712505 0.13385081 -0.1040819 -0.06564935 0.09741574 0.07724168 0.11305094 -0.0034584652
0.07294433 0.029428203 -0.05433303 0.08670422 -0.08512855 0.12036296 0.03788455 -0.14327408
-0.14148706 0.12548754 -0.0008484857 -0.03174697 -0.014015053 0.0035195814 0.020298144 0.050092917
0.086094916 0.08887828 -0.094764136 0.12579313 0.12455598 -0.0924565 -0.009221584 -0.054170817
-0.051870514 -0.138184 0.067252025 -0.030363223 0.18023157 -0.032387264 0.10127678 -0.060814466
-0.09025633 0.12072732 0.11903875 -0.15187095 0.03496094 0.04157835 -0.04940973 -0.12224049
-0.14721687 -0.045907553 -0.0767176 -0.0964409 -0.010531137 -0.111588426 0.065510474 -0.13971534
-0.031016823 -0.07480798 -0.071286656 0.102020204 0.06520464 -0.011067794 -0.14760028 -0.08238731
0.03688487 0.047977332 -0.020532764 0.031829737 0.11970127 0.09120968 0.021090118 0.109170206
-0.05524681 0.08606979 0.08344799 -0.16251878 0.14680134 0.054824278 -0.07253194 0.101493254
-0.1296451 0.11121656 -0.052577063 -0.1163046 0.03589325 0.061611608 0.04597651 -0.07502317
0.07429113 0.045860846 0.05424354 -0.052143533 -0.011221475 0.086164124 -0.0040978477 0.15546508
-0.0059925965 -0.14149131 -0.031485293 -0.08064597 0.057410847 0.09745709 0.11061836 0.1370824
0.036069177 -0.08821623 0.026960813 -0.032013617 0.07695915 -0.09532614 0.027727494 -0.05407108
-0.04527175 -0.12984647 0.02792015 -0.007443873 -0.106689915 0.087489836 0.12649171 0.119745985
0.042567566 0.14817393 0.13030288 0.13851039 0.022587474 -0.033503465 -0.034278437 0.08472578
0.05364973 -0.041887518 -0.05940951 0.11488095 0.046396248 0.0561503 -0.029825544 -0.061557375
-0.15908392 0.034996416 0.072340846 -0.020598555 -0.027262932 -0.009777332 -0.110853426 -0.028590191
0.02258974 -0.067189924 0.10967202 0.14818497 0.03932126 -0.011664048 0.06706162 -0.026915545
-0.067102306 -0.06765234 0.11477799 -0.13021703 0.06425147 0.056929056 0.12017528 -0.021373363
-0.020029321 0.0921672 0.0053375284 0.110144906 0.082088105 0.09768009 -0.095428534 -0.15275411
0.075426824 0.07518372 0.16984496 -0.01592486 -0.16848072 0.056412272 -0.06407119 -0.09912604
0.0071123666 -0.004019091 -0.1353245 0.06694872 0.13947223 -0.07773847 -0.07766263 0.043812867
0.1185438 -0.028937785 0.0741818 -0.09016874 -0.044195306 0.08953299 -0.14427572 -0.019265112
0.027911065 0.0015732456 -0.090645805 0.15509339 0.11448349 -0.091262184 -0.11073045 0.029240433
0.08709231 0.17389654 0.04591583 -0.027424857 0.123721585 0.12783779 -0.08442295 -0.13638216
-0.1446194 0.17374437 -0.0840572 0.00770177 0.04522907 -0.13658819 -0.002186245 0.07842177

encoder.6.bias f4 [23]
00000000: ae69 06be 5009 5cbd 3c6e 7bbd 1322 193d
00000010: b850 8bbd 9290 283d 4a8e b7bd 00ea ad3d
00000020: dbae bfbd d133 083e 934e 433d 760f a33d
00000030: 34d3 e2ba 6903 073e 0c0d 8bbd 4b53 89bd
00000040: 0c4d 1a3d cbde 87bd 9120 4dbe 2e1c 04bd
00000050: 353c 0a3d dc3e e8bd 9f65 213e
-0.13126251 -0.05371982 -0.061384425 0.03738601 -0.06802505 0.041153498 -0.08962686 0.084918976
-0.09359523 0.13301016 0.047682356 0.07961933 -0.0017305375 0.13184895 -0.06789598 -0.0670534
0.037671134 -0.06634291 -0.20031954 -0.032253437 0.033748824 -0.113401145 0.15761422

decoder.0.weight f4 [64, 23]
00000000: ed36 3ebe eef3 0c3e abfe 10bc 0676 493c
00000010: 5b13 023e 676e 3cbd ab11 3c3e a960 223d
00000020: 37d8 003e 730d 3e3e be68 1cbe 3704 43bd
00000030: 8eb5 133e 79b2 c13d d30a 2d3e 9727 243e
00000040: b118 7bbe 877e 7e3e 88a0 363e 586f fcbd
00000050: 99b9 eabd cc75 4c3e d596 dd3d 39fa 20be
00000060: b289 58bc 9128 6cbe df69 5b3e b209 2d3e
00000070: ac26 febd 48f8 33be 0b88 503e d0f6 4bbe
00000080: f0a6 96bc 5366 b9bd 0c68 583e 97ee a63d
00000090: c2ec 19be 4810 b13d 0c9b 313e 7476 3abe
000000a0: ad35 01be 1c7b ee3d c716 92bd 3a57 61be
000000b0: 9ef1 53bc 9969 6b3e ed75 82ba 722c 4cbc
000000c0: d295 2b3e 1b7a 27bd e0c8 50be 2014 2ebd
000000d0: 91c1 51be 7ad4 a2bd c9a1 8a3d 41f9 40be
000000e0: 41f8 e03d 48ea 223e eb0b bc3c 57c0 1b3e
000000f0: fd86 f73d 2a90 95bd ca9f 31be f8f2 2bbe
00000100: 53e0 283d a684 30bd 220e 48be daff e33c
00000110: 7c18 873d ca22 16be 1848 52be c5e7 d63c
00000120: 0d32 fb3d 96e3 90bd 5d1e 8d3c 639a 87bd
00000130: 0611 4abd 54f7 3a3e b32d 553e 427e 453d
00000140: d425 fabd 25c9 a1bd 4283 06be dabf cfbd
00000150: ad1e 4abe 3971 213e b970 1abe 17a4 583d
00000160: 00d9 38be f422 623d a426 08be 895d 36be
00000170: edda 42be 303a 7abe 5f39 d6bc d08d d43d
00000180: 93a9 603e ef72 93bd 018f 0fbd cb3d 203e
00000190: d641 70be 863d a73c 1189 353e 1c6f d23d
000001a0: 39cd cbbc 9b98 253e ce3e 16be df5c f8bd
000001b0: 851b 9c3d befa ca3d c0cc f4bd 613b 303c
000001c0: ffb1 09be 5719 39bd 4e8e bdbc 731d 15be
000001d0: 3946 b3bd ed0a 8dbd 2359 32be 174f 943d
000001e0: 1d0f 42bd 9967 b7bd 0ecf 713d c65e 9a3c
000001f0: 49ec 34be 1dc7 283d 775c 2c3e 70d0 743d
00000200: fbc9 053e 214e 4a3e 5bb9 273e 0684 693e
00000210: 560b ab3c f1bd 323d ce78 153e 0a44 98bd
00000220: 2da4 ea3c e112 503c 886b 1b3e d1ef 193e
00000230: 6095 b33d 60d1 13be 474d 513e adc7 38be
00000240: aafb 313e fa53 e33c d762 11be a648 d73d
00000250: beb5 2c3e 920e e53d 00a5 483d d437 93bd
00000260: c0bc 9a3d 0f04 84bd 847a 0f3b 3682 b43d
00000270: 9de7 59be d8a1 d3bd 2d9b b6bc a9da f9bd
00000280: e8d4 4bbd 032c cc3d 002e 2bbe 062e 683d
00000290: 5f92 f2bd 410f 183e 5cf9 563d 8b57 273e
000002a0: c1b9 383e 223c d13d 1714 4ebe fe5d 1cbd
000002b0: 17f8 2cbe c2e8 163e af49 003e d091 b03d
000002c0: c4ed 703e 2885 103e 7ebf 35be 5148 2c3d
000002d0: 949c b2bd 070a 5c3b d887 30be 08cc 6cbe
000002e0: 544a 1e3e cc24 013e 6154 3dbe 91d7 f33d
000002f0: 0d5c 3abe 0029 ed3d 05c2 213e 86aa 3bbe
00000300: 2893 cdbd d75c 50be 8107 9bbd 6d11 a13d
00000310: 29ce 553d d105 1d3d 4c40 0e3c 0bcd 06be
00000320: 6c56 273e 5e05 1c3d c7b0 5d3e 43de e13d
00000330: 626f 9abd e85a f4bd 6dbc 2bbe 8b99 29be
00000340: e395 3bbd 5fcb 413e 16bd acbd 0f75 c0bd
00000350: 762a e33d adb3 e3bc a758 a3bd bc90 b63c
00000360: b534 d9bd 313e 21bc 1c62 5bbd 7638 e53d
00000370: 46df 5b3e d7d6 33bd d590 803e 61b4 513e
00000380: 11f9 8f3d 0716 adbc 3c6e 61be 8c4e 1f3e
00000390: 2257 513e 557e 0fbe c432 af3d 888f e33b
000003a0: e8e8 13be 6ffc b5bd a618 e0bd e063 3dbe
000003b0: e059 923c 7445 373e 0638 ddbd e36f 17bc
000003c0: d0b3 b73c dfb6 473c 99ad 9ebc f7e0 45be
000003d0: 4e4d 1ebe fb98 a5bd 4b8e 603b 5981 4dbe
000003e0: 10c1 0e3e 0a8a e23b 6072 143e 06b1 153d
000003f0: 0d66 a5bd e5b2 5e3d af38 293e 1556 10be
-0.1857564 0.13764927 -0.00884978 0.012296205 0.12702696 -0.046003725 0.18366115 0.039642964
0.1258248 0.18559818 -0.15274331 -0.04761144 0.14424726 0.09457869 0.1689866 0.16030727
-0.24521138 0.24852954 0.17834675 -0.12325925 -0.11461181 0.19966811 0.108197846 -0.15720452
-0.013216423 -0.2306235 0.21427105 0.1689823 -0.1240972 -0.1757518 0.20364396 -0.1991837
-0.018390149 -0.0905272 0.2113344 0.08150976 -0.15031722 0.086456835 0.17344302 -0.18209249
-0.12618132 0.11644575 -0.07133251 -0.2200593 -0.012936024 0.22989501 -0.0009953358 -0.012461768
0.1675637 -0.040887933 -0.20389128 -0.04249966 -0.20483996 -0.07950683 0.06769139 -0.18845083
0.10984851 0.15909684 0.022954902 0.1521009 0.12086294 -0.07302888 -0.17346111 -0.16791904
0.041229557 -0.043095253 -0.19536641 0.02783196 0.06596467 -0.14661708 -0.20535314 0.026233563
0.12265406 -0.070746586 0.017226392 -0.06621244 -0.04933264 0.1825841 0.20818214 0.048216112
-0.122142464 -0.078996934 -0.13136008 -0.10144015 -0.19738264 0.15765847 -0.15082063 0.052890863
-0.18051529 0.055209115 -0.1329599 -0.17809118 -0.19028826 -0.2443626 -0.026150404 0.10378611
0.21939687 -0.07199656 -0.03504849 0.15648572 -0.23462614 0.020415079 0.17728068 0.10275099
-0.024878131 0.16171496 -0.14672396 -0.12127089 0.076224364 0.099111065 -0.119531155 0.010756345
-0.13446806 -0.04519018 -0.023139145 -0.14562015 -0.08753628 -0.068868496 -0.17416815 0.07241648
-0.047377694 -0.089553066 0.059035353 0.01884402 -0.1766826 0.041205514 0.16832148 0.059769094
0.1306533 0.19756366 0.16379301 0.22804269 0.020879429 0.043638173 0.14596865 -0.074348524
0.028642738 0.012699814 0.15177739 0.15032889 0.087687254 -0.14435339 0.20439635 -0.1804492
0.17381158 0.027750004 -0.1419786 0.105119035 0.16866204 0.1118442 0.04898548 -0.07188383
0.075555325 -0.064460866 0.0021893093 0.08813898 -0.2127976 -0.103336036 -0.02229079 -0.12199909
-0.04976359 0.09969332 -0.16716766 0.056684516 -0.11844324 0.14849569 0.0524839 0.16341989
0.1803961 0.102165475 -0.20124851 -0.038175575 -0.16891514 0.14737228 0.12528108 0.086215615
0.235282 0.14113295 -0.1774883 0.042061154 -0.08721271 0.0033575313 -0.1723932 -0.23124707
0.15458041 0.12611693 -0.18489219 0.119063504 -0.18199177 0.11580086 0.15796669 -0.18326768
-0.100378335 -0.20347916 -0.07569791 0.07864652 0.052198563 0.038335625 0.008682322 -0.13164155
0.16341561 0.038091056 0.21649466 0.11028721 -0.07540776 -0.119314015 -0.16771097 -0.16562478
-0.04579724 0.18925236 -0.08434503 -0.09397327 0.11092083 -0.027795637 -0.079758935 0.022285812
-0.10605756 -0.009841488 -0.05356036 0.1119241 0.21471891 -0.04390606 0.25110498 0.20478965
0.070299275 -0.021128668 -0.22014707 0.15557307 0.20443395 -0.14013036 0.08554605 0.0069446005
-0.14444315 -0.088860385 -0.10942201 -0.1849513 0.017865121 0.17897588 -0.10801701 -0.0092429845
0.022424608 0.012189596 -0.019369887 -0.19324099 -0.15459177 -0.08085819 0.00342645 -0.20068873
0.13940835 0.006913428 0.14496756 0.036545776 -0.08076105 0.054369826 0.1652553 -0.14095338

decoder.0.bias f4 [64]
00000000: 3cc7 a3bc 7768 003d a481 0b3e 6cb2 1c3e
00000010: d4f4 273e 9243 3cbe 5bd7 67bd 09ff d1bd
00000020: d7c0 9f3d 5405 55be aae1 a93d 640c 97bd
00000030: e1cf 61be b1d8 923d 3745 b0bd 76b4 d8ba
00000040: 409e 21be 9d40 573d 1f13 7dbe 69ca be3d
00000050: 9591 2e3e a3f6 603e 02aa b93d b1f2 29bd
00000060: 99b6 f83d 3e52 dc3d d862 083d d50b 81be
00000070: 4ec2 1a3e 53c5 503e 670d 3dbe 8c48 f83d
00000080: 3cd8 073c 59f1 87bd d5ef 4bbd d5bc e1bd
00000090: 6ea8 513e 155a 36be db26 3b3e 092e 00be
000000a0: 0bf4 8b3c 83e7 0a3e a171 693e b531 43be
000000b0: 4669 753d 27c7 5e3c 5aa4 7abd de81 37be
000000c0: 8dfa f73d e525 77be d346 543d 898e 403d
000000d0: af95 b13d b437 0ebd 0b77 df3d cdcc f53c
000000e0: b111 e5bd f50c adbd b868 073d 1e6f 083e
000000f0: 4cf2 31be 1483 883e 3b36 2d3e 2004 2ebc
-0.019992463 0.031349625 0.13623673 0.15302438 0.16401988 -0.18385151 -0.056601863 -0.10253722
0.07800453 -0.20802814 0.08294995 -0.0737541 -0.22051956 0.07170237 -0.08606952 -0.0016533274
-0.15783024 0.052551854 -0.24714325 0.093159504 0.17047723 0.21969084 0.090656295 -0.041491214
0.12144203 0.10757874 0.03329739 -0.2520434 0.15113184 0.20387773 -0.18462144 0.12123212
0.0082913 -0.0663783 -0.04978927 -0.11022345 0.20474407 -0.17807801 0.18276541 -0.12517561
0.017084142 0.13564877 0.22797252 -0.1906193 0.05991485 0.013597286 -0.061191894 -0.17920634
0.12108336 -0.2413555 0.051825356 0.047010932 0.08671128 -0.03472109 0.109113775 0.030004883
-0.11185015 -0.08449737 0.033058852 0.13323638 -0.17377585 0.26662505 0.16915219 -0.010621101
