customized/model/trained_model/ae/ae_z_2batch_128_test_stat.pth (torch, 387133 bytes, 16 tensors)

encoder.0.weight f4 [256, 24]
-0.08728938 -0.12501794 -0.10188973 0.08402732 -0.028328642 0.1263162 0.00524592 0.16547331
0.16592292 -0.02523768 0.17219126 0.0579837 0.07795842 0.16237755 0.10377622 -0.14464419
-0.18035892 0.25323567 0.063061684 -0.023930216 -0.14794366 -0.2013613 -0.111904025 -0.11561859
-0.06802383 0.09333488 -0.19959997 0.30139437 -0.166488 0.11475454 0.09349736 0.15892918
0.038523108 0.20200622 -0.1156944 -0.09114956 0.11924004 -0.18545246 0.08910544 0.060424455
0.10939303 0.16534723 -0.14477246 -0.002456226 -0.25672296 0.010512505 -0.0123878615 0.06787792
-0.019179964 -0.17330606 -0.37342846 0.04898325 -0.12933414 0.044492237 -0.037732743 0.021094423
-0.1553065 -0.008138236 -0.013189587 0.10670078 0.0008120111 -0.11631607 -0.07616372 -0.2818957
-0.16966954 0.22375043 0.023809547 -0.12720741 0.14228594 0.011178245 0.052442726 -0.19332112
-0.12208114 -0.04849541 0.02770969 0.1180657 0.3546213 0.16395186 0.076227754 -0.013316935
0.15662244 -0.15363087 0.05858052 -0.114534564 0.4328644 0.047456235 0.16365807 -0.12293739
0.024412848 0.5425691 -0.12290641 -0.019244127 0.07452316 -0.086189575 0.045885403 0.039754275
0.07190484 0.229702 0.26732215 0.17555979 0.12412549 0.035470866 -0.2047789 0.11036491
-0.1018682 -0.11590205 -0.19217743 -0.21163093 -0.66345453 -0.2813972 -0.0065466384 0.26790577
-0.22094148 0.04886421 0.13862032 -0.17754199 -0.07311921 -0.14224407 -0.06896167 0.12335594
-0.13438788 0.15437843 0.0635381 0.08298301 -0.31651205 0.33413565 0.040572472 0.2735309
0.13110404 -0.25970766 0.12939402 0.21021788 0.09105576 0.17459534 0.06585281 0.06486177
-0.05513207 0.14519463 0.17777391 0.14815344 0.011425477 0.05567037 0.11914296 -0.19027628
-0.10703002 0.08052337 -0.02166542 -0.18543918 -0.06694759 0.21206598 0.02769684 0.18972352
-0.10678919 0.049897052 -0.12568209 0.017651014 -0.021770826 -0.18125835 0.025348794 0.41711503
0.09699008 -0.21738347 -0.22059941 0.06368949 0.17000768 -0.10499859 0.0068195844 -0.07213559
-0.043807406 -0.10202266 0.1916083 -0.18815161 -0.16452943 -0.11411666 0.15236335 0.25898945
-0.10701184 -0.25122306 0.08085117 -0.10609823 -0.017120082 -0.03653225 0.20032993 -0.28672934
0.2613468 -0.38641137 0.3029617 -0.18150228 -0.16531597 -0.21089491 -0.1329948 0.30185702
-0.16830662 -0.22819841 -0.20351265 0.037566476 -0.27337041 -0.11048359 -0.13022728 -0.047581047
0.052123174 0.29374292 -0.17087236 0.14601192 -0.012578172 0.0044334717 -0.23814638 -0.04434529
-0.19251056 0.030893825 0.020817123 0.046458047 -0.13543548 0.077300735 -0.24397506 -0.46218368
0.01639844 0.010708211 -0.1012666 0.19091088 -0.06853723 0.07506321 0.1590546 0.11793533
-0.15507175 0.1704567 -0.10169165 -0.13494606 0.1156681 -0.01894458 0.051152468 -0.21459457
0.1663029 0.47960323 0.011665625 0.11972992 0.035045676 0.15372802 0.1749912 -0.077958025
-0.10316956 0.18252167 0.1387075 -0.20443927 -0.08054661 0.013963149 0.20984572 0.055277776
-0.09069816 0.07871657 -0.06804129 0.057470042 -0.21953195 -0.0014049433 -0.21968676 -0.084990986
00000000: c6c4 b2bd b404 00be 90ab d0bd 8416 ac3d
00000010: 7811 e8bc 0959 013e f7e5 ab3b d671 293e
00000020: b3e7 293e 40bf cebc e852 303e 5180 6d3d
00000030: aaa8 9f3d 4d46 263e a088 d43d 9b1d 14be
00000040: 02b0 38be 1ba8 813e 7c26 813d 4d09 c4bc
00000050: 8b7e 17be a831 4ebe f02d e5bd 70c9 ecbd
00000060: 1450 8bbd 5c26 bf3d ef63 4cbe 5d50 9a3e
00000070: d57b 2abe 6e04 eb3d 8b7b bf3d 55be 223e
00000080: 68ca 1d3d b8da 4e3e 30f1 ecbd 9fac babd
00000090: 1f34 f43d 40e7 3dbe ea7c b63d a27f 773d
000000a0: 7409 e03d c950 293e 3b3f 14be a2f8 20bb
000000b0: 3171 83be a43c 2c3c 75f6 4abc 9403 8b3d
000000c0: 4d1f 9dbc 2577 31be 0432 bfbe a9a2 483d
000000d0: 2b70 04be 7e3d 363d a68d 1abd 36ce ac3c
000000e0: ab08 1fbe 3c56 05bc 2319 58bc f085 da3d
000000f0: 24dd 543a 1f37 eebd b9fb 9bbd a254 90be
00000100: dabd 2dbe d51e 653e 3d0c c33c a942 02be
00000110: 68b3 113e f524 373c 2fce 563d f9f5 45be
00000120: ad05 fabd 1fa3 46bd 6fff e23c 6ecc f13d
00000130: ec90 b53e ffe2 273e 4c1d 9c3d 462f 5abc
00000140: a261 203e 6951 1dbe 21f2 6f3d 1991 eabd
00000150: 67a0 dd3e 7861 423d fb95 273e 99c6 fbbd
00000160: 74fd c73c cfe5 0a3f 5bb6 fbbd dca5 9dbc
00000170: 999f 983d 2984 b0bd 55f2 3b3d 61d5 223d
00000180: d842 933d 0037 6b3e 73de 883e f2c5 333e
00000190: 8135 fe3d e649 113d 8fb1 51be ff06 e23d
000001a0: 46a0 d0bd 0e5e edbd 29ca 44be c7b5 58be
000001b0: 28d8 29bf 4b13 90be 2f85 d6bb f22a 893e
000001c0: 7c3e 62be d625 483d 7cf2 0d3e 91cd 35be
000001d0: 86bf 95bd 6ea8 11be c73b 8dbd 0aa2 fc3d
000001e0: fa9c 09be 6115 1e3e 4320 823d fff2 a93d
000001f0: de0d a2be d413 ab3e 522f 263d 3e0c 8c3e
00000200: 2340 063e 67f8 84be de7f 043e 5b43 573e
00000210: 717b ba3d 1fc9 323e d7dd 863d 3fd6 843d
00000220: 2ad2 61bd e7ad 143e 5d0a 363e 89b5 173e
00000230: ed31 3b3c 9d06 643d 3901 f43d c9d7 42be
00000240: 8e32 dbbd 70e9 a43d ae7b b1bc c5e3 3dbe
00000250: d11b 89bd d327 593e 7ce4 e23c e246 423e
00000260: 4ab4 dabd da60 4c3d ceb2 00be dc98 903c
00000270: bb58 b2bc ca9b 39be 46a8 cf3c 1a90 d53e
00000280: bca2 c63d c699 5ebe d0e4 61be a36f 823d
00000290: 7e16 2e3e 8009 d7bd d276 df3b d3bb 93bd
000002a0: 656f 33bd 42f1 d0bd f734 443e d1aa 40be
000002b0: 677a 28be ffb5 e9bd 2305 1c3e 449a 843e
000002c0: 0629 dbbd 4fa0 80be 4c95 a53d 074a d9bd
000002d0: 6a3f 8cbc d7a2 15bd 4a23 4d3e 30ce 92be
000002e0: 3fcf 853e b6d7 c5be cc1d 9b3e bcdb 39be
000002f0: 9748 29be d6f4 57be ca2f 08be 018d 9a3e
00000300: 9258 2cbe d8ac 69be 9f65 50be 4edf 193d
00000310: 35f7 8bbe 3845 e2bd 4d5a 05be 58e4 42bd
00000320: 1c7f 553d 7965 963e 2af9 2ebe 2684 153e
00000330: ad14 4ebc a846 913b a5dc 73be 68a3 35bd
00000340: 7d21 45be 0c15 fd3c ac88 aa3c cb4a 3e3d
00000350: 99af 0abe d94f 9e3d 99d4 79be 57a3 ecbe
00000360: 0556 863c 7e71 2f3c dd64 cfbd 247e 433e
00000370: 3f5d 8cbd beba 993d 36df 223e 1488 f13d
00000380: 21cb 1ebe 338c 2e3e b643 d0bd 4d2f 0abe
00000390: 66e3 ec3d aa31 9bbc 4085 513d aebe 5bbe
000003a0: 4f4b 2a3e 8e8e f53e 2d21 3f3c f634 f53d
000003b0: 0e8c 0f3d e16a 1d3e e530 333e 75a8 9fbd
000003c0: 904a d3bd f6e6 3a3e 5709 0e3e 8758 51be
000003d0: 9ff5 a4bd b1c5 643c cce1 563e f36a 623d
000003e0: f5bf b9bd 2736 a13d 3b59 8bbd b565 6b3d
000003f0: fccc 60be 1326 b8ba 91f5 60be c10f aebd

encoder.0.bias f4 [256]
0.19535846 -0.012084139 0.077525675 0.082640156 0.1482959 0.03479623 -0.1687714 -0.24135393
-0.1315748 0.13962032 -0.17531583 0.17479242 0.12538669 0.029609988 0.00285553 0.030643651
-0.08412519 -0.04655146 -0.08065221 0.18587287 -0.112470776 -0.12851417 0.11049312 -0.10635748
-0.15133986 -0.16207685 -0.22135384 0.13927807 0.048984326 -0.1586172 -0.30377275 -0.13146998
-0.097324714 -0.032699004 -0.21035886 0.09298998 0.17506602 -0.118845634 -0.15128429 0.102702044
-0.129187 -0.039311223 -0.19628455 -0.3209846 -0.07653283 -0.20344278 -0.028898625 0.22303405
0.10928941 -0.05833991 0.02935994 -0.1835295 -0.24952081 -0.12515172 -0.045501344 -0.1248083
-0.039217476 -0.24745025 0.017333636 -0.08487302 0.09564576 -0.026678398 0.17023736 0.07190116
-0.19715184 0.15326223 0.12420028 0.19840182 -0.24225052 0.16337483 -0.17994209 -0.11801685
-0.012863823 0.24299647 0.19116342 0.15821663 0.14633814 -0.028862325 -0.16371416 0.009220109
-0.07237446 -0.14173034 -0.11654537 -0.0660728 -0.14800422 0.16903475 -0.00927584 0.07575924
0.06719692 0.13451114 0.21979655 0.100984216 0.102376156 -0.17917372 0.053134535 -0.105312
-0.12655433 0.16745774 0.02437333 -0.089340314 -0.0109345075 0.2168664 0.20474878 0.014592964
-0.03235584 -0.13875245 0.102040306 -0.21518478 0.10975672 -0.1590595 0.11963207 -0.16827558
-0.20200326 -0.11210198 -0.1174019 -0.08243634 0.1083447 0.04483359 0.234153 0.13873012
-0.006951185 0.19430728 -0.11397766 0.16328827 0.102117255 -0.040404018 0.20201853 0.083272554
0.01884057 0.18657245 -0.102684796 0.018399203 -0.16305204 0.21996291 -0.04672747 0.07144612
-0.112375714 -0.009109871 -0.20599188 -0.22740392 -0.036590874 -0.11020295 0.1568551 0.13935512
0.13247725 0.103212096 0.14526293 -0.1561926 0.11020563 -0.13866524 -0.027883371 0.28011763
-0.25058934 -0.18529606 -0.0760639 0.054493852 -0.09315838 -0.17328654 -0.08031098 -0.043715358
-0.19016321 0.044910576 -0.17449896 -0.23432791 0.046132885 0.19730426 0.16774003 0.048674792
-0.28706157 0.055932254 -0.08500458 0.16653703 -0.014818632 -0.12680027 0.045943018 -0.13440537
0.036319826 0.05883408 0.24982105 0.112518586 -0.11541629 -0.05020145 0.0549672 -0.1522819
0.29578394 -0.0056521613 -0.3028582 -0.18751155 -0.22853439 0.0880183 -0.18051012 0.2042373
0.06806071 0.17476428 0.029577073 0.15574579 -0.114984475 -0.15054357 -0.043663148 -0.0022707384
0.02323541 0.0109009445 0.021404512 0.12184443 0.17152734 -0.1579893 -0.14594224 0.16685247
0.11944279 -0.18851034 0.03097672 -0.1792851 -0.14615841 -0.063744314 -0.29335618 -0.022120139
0.19897367 0.18231595 0.20645165 0.0993998 0.06263219 0.1918826 0.18832733 -0.15402742
0.04629808 0.119805895 -0.068001464 0.15906014 -0.22764637 -0.0363786 0.1823999 0.060401715
0.041055292 0.19114211 -0.11164634 0.27925617 -0.15946253 0.14142998 -0.26905698 0.0192773
-0.03606251 -0.06647343 0.028252693 0.19831748 -0.19642937 -0.07587276 -0.09417309 0.06374413
-0.049973313 -0.24323379 -0.12812659 0.14110214 0.05129284 -0.0769214 0.23735157 -0.04522569
00000000: 0c0c 483e 8dfc 45bc c8c5 9e3d 3e3f a93d
00000010: e1da 173e 7e86 0e3d 69d2 2cbe 7c25 77be
00000020: 8bbb 06be a1f8 0e3e fe85 33be c9fc 323e
00000030: 5e65 003e a590 f23c d823 3b3b 6508 fb3c
00000040: d449 acbd beac 3ebd fc2c a5bd 7555 3e3e
00000050: 1457 e6bd 3899 03be 384a e23d f3d1 d9bd
00000060: d6f8 1abe 79f7 25be 95aa 62be e99e 0e3e
00000070: caa3 483d 8c6c 22be 1a88 9bbe 11a0 06be
00000080: 2e52 c7bd 64ef 05bd 5068 57be 8871 be3d
00000090: 8244 333e 5765 f3bd 45ea 1abe 7355 d23d
000000a0: 9949 04be ce04 21bd d1fe 48be 1858 a4be
000000b0: 3fbd 9cbd 4e53 50be cfbc ecbc 0a63 643e
000000c0: 20d3 df3d d4f5 6ebd 4284 f03c 28ef 3bbe
000000d0: 6282 7fbe c627 00be 9e5f 3abd 7e9b ffbd
000000e0: 81a2 20bd 9963 7dbe 45ff 8d3c e8d1 adbd
000000f0: ede1 c33d a88c dabc b452 2e3e ea40 933d
00000100: 2ce2 49be c6f0 1c3e b75c fe3d d929 4b3e
00000110: 8510 78be bb4b 273e bd42 38be d1b2 f1bd
00000120: c9c2 52bc 11d4 783e 58c0 433e 8a03 223e
00000130: aad9 153e af70 ecbc afa4 27be f10f 173c
00000140: 1039 94bd c221 11be 57af eebd 2d51 87bd
00000150: 6b8e 17be 7217 2d3e b1f9 17bc a927 9b3d
00000160: 8a9e 893d 4abd 093e 5912 613e d0d0 ce3d
00000170: 97aa d13d 5179 37be 99a3 593d d1ad d7bd
00000180: 7597 01be 0b7a 2b3e 94aa c73c 0ef8 b6bd
00000190: a626 33bc 3a12 5e3e aaa9 513e 5417 6f3c
000001a0: 8f87 04bd 1f15 0ebe 82fa d03d 6659 5cbe
000001b0: 22c8 e03d 7ee0 22be a901 f53d 6f50 2cbe
000001c0: f1d9 4ebe b995 e5bd 6870 f0bd 62d4 a8bd
000001d0: d3e3 dd3d 6da3 373d cec5 6f3e 450f 0e3e
000001e0: c4c6 e3bb 7df8 463e 1f6d e9bd 0a35 273e
000001f0: da22 d13d af7e 25bd f2dd 4e3e cd8a aa3d
00000200: 8a57 9a3c d90c 3f3e 684c d2bd edb9 963c
00000210: 1df7 26be f53d 613e 4e65 3fbd 5852 923d
00000220: 3d25 e6bd 9241 15bc 89ef 52be 93dc 68be
00000230: 50e0 15bd 16b2 e1bd a09e 203e 1cb3 0e3e
00000240: 1ea8 073e dd60 d33d cebf 143e f4f0 1fbe
00000250: 7db3 e13d 43fe 0dbe ab6b e4bc 946b 8f3e
00000260: 3f4d 80be 40be 3dbe 64c7 9bbd f234 5f3d
00000270: d2c9 bebd 0772 31be 157a a4bd e00e 33bd
00000280: 25ba 42be 27f4 373d dbaf 32be a8f3 6fbe
00000290: d6f5 3c3d 210a 4a3e 0bc4 2b3e 385f 473d
000002a0: bcf9 92be 3819 653d e216 aebd af88 2a3e
000002b0: d9c9 72bc eed7 01be bf2e 3c3d 90a1 09be
000002c0: 19c4 143d 01fc 703d 17d1 7f3e 2570 e63d
000002d0: 605f ecbd 09a0 4dbd 4925 613d c9ef 1bbe
000002e0: fe70 973e c435 b9bb 3b10 9bbe 0703 40be
000002f0: eb04 6abe f042 b43d a5d7 38be 9523 513e
00000300: 6a63 8b3d 68f5 323e 9e4b f23c d37b 1f3e
00000310: fb7c ebbd 1828 1abe 21d8 32bd abd0 14bb
00000320: 3058 be3c e099 323c 8458 af3c 9389 f93d
00000330: dda4 2f3e f2c7 21be e271 15be 60db 2a3e
00000340: 6c9e f43d db08 41be e4c2 fd3c 8396 37be
00000350: 8daa 15be 618c 82bd c832 96be 4b35 b5bc
00000360: c1bf 4b3e 08b1 3a3e 1068 533e 1f92 cb3d
00000370: 4e45 803d df7c 443e e1d8 403e 5db9 1dbe
00000380: 0ea3 3d3d cb5c f53d 5a44 8bbd a9e0 223e
00000390: 211c 69be ba01 15bd 0ac7 3a3e ca67 773d
000003a0: 9829 283d c2ba 433e d6a6 e4bd aafa 8e3e
000003b0: 254a 23be 05d3 103e d6c1 89be 6eeb 9d3c
000003c0: 48b6 13bd 3923 88bd 3172 e73c bd13 4b3e
000003d0: c824 49be 2d63 9bbd d2dd c0bd 488c 823d
000003e0: d1b0 4cbd 4712 79be 9e33 03be 147d 103e
000003f0: 7118 523d f888 9dbd 4a0c 733e 933e 39bd

encoder.2.weight f4 [128, 256]
0.03854706 -0.08075941 -0.06538098 0.058684666 -0.05488317 -0.030277736 0.031451285 0.061758768
-0.070150115 0.06459742 0.020187004 -0.039290402 0.015881527 -0.021743609 -0.10445764 0.06600941
0.018782258 0.024002975 -0.04859181 0.014943465 -0.023664575 -0.06734369 -0.0494837 -0.08858999
-0.08996746 -0.021050004 0.0054370784 -0.026824206 -0.0014060265 -0.07605224 -0.014341687 -0.0034035887
0.02367857 -0.052596293 -0.0788778 -0.055304 0.101630546 0.092362426 -0.09547663 -0.021064818
-0.12756078 0.028260026 -0.09742613 -0.053841405 0.04013071 0.072108306 -0.10855906 0.007065155
-0.020299593 -0.023170866 0.004002953 -0.13264136 0.037337516 -0.01646214 -0.062824376 0.036913622
0.1786943 0.05269159 -0.10732791 -0.002243299 0.034800906 0.097810045 0.12102469 0.021107748
-0.19566497 0.004880787 -0.08495563 -0.054732934 -0.027791463 -0.053524315 -0.05673991 -0.08085138
-0.04945783 -0.040928483 0.08904157 -0.067351826 -0.04101205 -0.005294303 0.011675476 0.021054333
0.022221286 0.104888596 0.041940253 -0.0030788856 0.06627921 -0.091388434 0.040776335 0.018782975
-0.030038206 -0.021231646 0.0009786424 0.08963453 -0.09227659 -0.01627065 0.020400308 -0.030487334
0.009382143 -0.0343963 0.021431293 -0.06418935 0.030149527 0.05752574 -0.0061648935 -0.057766594
0.017177468 0.08496755 0.040861256 0.04472157 -0.060045637 -0.04081867 0.05271212 -0.06543556
-0.031855147 0.024746967 -0.048662458 0.0047453255 -0.046355687 0.05827648 0.05048512 0.018615179
0.059328057 -0.04441168 -0.009810351 -0.016720401 0.110283285 0.053565245 0.015199479 0.03292324
0.0112580415 0.0015103751 -0.030168455 0.010593107 -0.020061588 0.07189362 0.040532343 0.042829946
0.081113555 0.049027145 -0.032619115 -0.066114254 -0.14863253 0.017112361 0.066632815 -0.043804754
-0.006721699 -0.036040097 -0.07778553 -0.0034962045 0.05920098 0.037219428 0.023816897 -0.07184541
-0.016998218 0.04957381 0.011197947 0.018945677 -0.035608057 -0.02307351 -0.022908252 0.09600684
-0.01475225 0.043040927 0.023528613 0.074120656 -0.010173701 -0.018297805 0.059956245 0.040545106
-0.034543645 -0.13533208 0.04595509 -0.12728932 0.04151941 0.019205546 0.05748664 -0.00985962
-0.0055234116 0.053131368 0.0032887515 -0.04290882 -0.044503402 -0.069246985 0.02473863 0.021530086
0.057588104 -0.034982067 -0.07576219 0.033499595 -0.0398968 0.022013508 0.030631622 -0.062047105
0.073657915 0.068783805 0.16088128 -0.05192358 -0.11025536 -0.026192114 0.039250717 0.08393891
-0.074112 0.030842403 0.06656282 0.02775424 0.021770224 0.07660165 0.06437255 0.07544919
-0.04460671 0.015637387 0.049798332 0.043911196 -0.11669057 0.06413023 -0.053090524 0.087976165
-0.10823955 -0.01694751 -0.08549483 -0.071787626 0.13813557 0.017059084 0.09350483 0.04272782
-0.122434445 0.051027417 0.07082068 0.07055337 -0.07491165 -0.034441587 -0.028533537 -0.018817684
0.015340668 -0.050212607 0.056469914 -0.02348596 0.040402886 0.09025217 0.018582141 -0.10995796
0.035028163 -0.02088261 0.08042414 0.033890966 -0.039015666 0.0030402192 0.07260239 0.041392807
-0.02195616 0.03294795 -0.11911194 -0.029775424 0.09096296 0.005701826 -0.05510408 -0.011314231
00000000: 86e3 1d3d 3165 a5bd 77e6 85bd 555f 703d
00000010: 2dcd 60bd 0409 f8bc 10d3 003d c3f6 7c3d
00000020: ddaa 8fbd a74b 843d 375f a53c f9ee 20bd
00000030: fa19 823c a71f b2bc e3ed d5bd f12f 873d
00000040: 40dd 993c e3a1 c43c 3508 47bd 6fd5 743c
00000050: 36dc c1bc 7deb 89bd 6caf 4abd ab6e b5bd
00000060: dc40 b8bd 0f71 acbc 8529 b23b 70be dbbc
00000070: 6c4a b8ba 47c1 9bbd 65f9 6abc be0e 5fbb
00000080: 8ff9 c13c 366f 57bd af8a a1bd 7286 62bd
00000090: ad23 d03d 8328 bd3d 4089 c3bd 2090 acbc
000000a0: 4b9f 02be 9281 e73c 5a87 c7bd ce88 5cbd
000000b0: 1960 243d 85ad 933d 3654 debd d182 e73b
000000c0: 554b a6bc d4d0 bdbc 342b 833b 23d3 07be
000000d0: 39ef 183d 9cdb 86bc 11aa 80bd bd32 173d
000000e0: a3fb 363e 23d3 573d bcce dbbd 5004 13bb
000000f0: 658b 0e3d a250 c83d cbdb f73d 28ea ac3c
00000100: 665c 48be 02ef 9f3b 38fd adbd a42f 60bd
00000110: ecaa e3bc 503c 5bbd 1c68 68bd 6995 a5bd
00000120: 4b94 4abd a0a4 27bd 6d5b b63d c1ef 89bd
00000130: 40fc 27bd d57b adbb 7f4a 3f3c 237a ac3c
00000140: 6a09 b63c d5cf d63d 8bc9 2b3d 21c7 49bb
00000150: 65bd 873d dc29 bbbd 1605 273d c1de 993c
00000160: af12 f6bc fded adbc ca45 803a 4f92 b73d
00000170: 82fb bcbd 074a 85bc 8c1e a73c 93c0 f9bc
00000180: 8fb7 193c 22e3 0cbd ae90 af3c b575 83bd
00000190: 24fc f63c 1ca0 6b3d e002 cabb aa9c 6cbd
000001a0: c3b7 8c3c 7803 ae3d 225e 273d f72d 373d
000001b0: 6af2 75bd 7a31 27bd aae8 573d 1403 86bd
000001c0: 8b7a 02bd 27ba ca3c 4952 47bd ad7e 9b3b
000001d0: 76df 3dbd 51b3 6e3d 7cc9 4e3d dc7e 983c
000001e0: fa01 733d 06e9 35bd 98bb 20bc 39f9 88bc
000001f0: 34dc e13d 3b67 5b3d 3c07 793c 85da 063d
00000200: a673 383c c7f7 c53a d623 f7bc b68e 2d3c
00000210: 3358 a4bc f63c 933d 3e05 263d 746e 2f3d
00000220: dd1e a63d b0d0 483d 9f9b 05bd e966 87bd
00000230: 2033 18be 392f 8c3c c976 883d 9d6c 33bd
00000240: b341 dcbb c89e 13bd 054e 9fbd 9420 65bb
00000250: ba7c 723d 6673 183d a71b c33c b023 93bd
00000260: d93f 8bbc e80d 4b3d 9877 373c f733 9b3c
00000270: c1d9 11bd a804 bdbc 16aa bbbc 3c9f c43d
00000280: 6cb3 71bc af4b 303d 14bf c03c 92cc 973d
00000290: 98af 26bc 47e5 95bc ae94 753d a012 263d
000002a0: a37d 0dbd 7e94 0abe 683b 3c3d 2258 02be
000002b0: 4210 2a3d f354 9d3c 1c77 6b3d 3e8a 21bc
000002c0: bcfd b4bb 47a0 593d 1888 573b 29c1 2fbd
000002d0: 3349 36bd 5dd1 8dbd aba8 ca3c dd5f b03c
000002e0: 81e1 6b3d 5b49 0fbd 3529 9bbd df36 093d
000002f0: d46a 23bd ac55 b43c 2bef fa3c 1b25 7ebd
00000300: f6d9 963d 86de 8c3d 10be 243e d2ad 54bd
00000310: 90cd e1bd d890 d6bc 5cc5 203d 2ae8 ab3d
00000320: 08c8 97bd 35a9 fc3c 1652 883d dc5c e33c
00000330: 7857 b23c 53e1 9c3d c1d5 833d 1b85 9a3d
00000340: 87b5 36bd fa19 803c 56f9 4b3d 3adc 333d
00000350: 77fb eebd b656 833d 7375 59bd d92c b43d
00000360: b2ac ddbd 81d5 8abc ea17 afbd 6405 93bd
00000370: 6973 0d3e 7ebf 8b3c 767f bf3d 5e03 2f3d
00000380: e9be fabd 2002 513d 6f0a 913d 497e 903d
00000390: 476b 99bd 9f12 0dbd 2abf e9bc 8b27 9abc
000003a0: 6d57 7b3c bcab 4dbd ff4c 673d a165 c0bc
000003b0: 7f7d 253d 21d6 b83d 9339 983c a431 e1bd
000003c0: b179 0f3d 0212 abbc 69b5 a43d 41d1 0a3d
000003d0: e4ce 1fbd 6a3e 473b 90b0 943d 818b 293d
000003e0: 68dd b3bc 6ef4 063d f6f0 f3bd 97eb f3bc
000003f0: ca4a ba3d 62d6 ba3b d1b4 61bd 535f 39bc

encoder.2.bias f4 [128]
0.024085604 -0.10966718 -0.0005554115 0.03647041 0.050925575 -0.0024962076 -0.0015394451 0.09494105
-0.06828555 0.08862664 -0.0253276 0.040221952 0.009368693 -0.10018133 -0.04688011 -0.0040821834
-0.07511794 -0.07364518 -0.057066847 -0.025204822 -0.004276934 -0.05608081 -0.07732099 -0.1543125
0.14552481 -0.028297868 -0.016143294 0.1376891 0.059411153 0.053065892 -0.107117854 0.0060115512
-0.028172279 -0.060404405 0.0707274 -0.02760944 -0.0026826814 0.082150996 0.004087787 -0.064008266
0.026614478 -0.08560933 0.015117594 -0.015622974 -0.088936724 0.03400527 0.008574537 0.07737928
-0.008392552 0.042326286 0.090568155 -0.11454396 0.009889861 -0.07026587 0.02538953 -0.024405329
0.08156567 0.024675356 0.046819057 -0.05654206 0.005328967 0.03840311 -0.0073844707 -0.004236618
0.1312066 -0.003108685 -0.14197865 0.10386177 0.007802908 -0.026507609 0.06152403 0.0071571716
0.08089453 -0.08288992 -0.16427395 -0.08225788 -0.06734005 0.023489146 0.012455552 0.13496488
0.0103207445 -0.081082135 -0.060671657 -0.012793175 -0.11257216 0.058222633 0.022936147 0.05056476
-0.011171111 -0.16730691 -0.063130766 -0.030214617 -0.0663919 0.1922839 -0.050335087 0.03675588
-0.06996653 0.052561257 -0.06085388 -0.12010469 0.005153161 -0.05800025 -0.06150991 0.053038623
0.11152292 0.053708088 0.05577278 -0.05784527 0.08007817 0.086733006 -0.096511506 -0.006639473
0.027240468 0.0812578 0.014338017 -0.05317077 -0.02557324 -0.0047463137 -0.020299306 -0.05232464
0.022497186 0.027147407 -0.053495564 -0.016062204 -0.01874228 0.11960757 0.024274968 0.0007988856
00000000: 2c4f c53c 3099 e0bd 0999 11ba ff61 153d
00000010: 5697 503d 6a97 23bb 35c7 c9ba 7470 c23d
00000020: 4bd9 8bbd e281 b53d d47b cfbc c6bf 243d
00000030: 267f 193c df2b cdbd 5c05 40bd d6c3 85bb
00000040: 6fd7 99bd 49d3 96bd edbe 69bd 587a cebc
00000050: 8625 8cbb feb4 65bd 785a 9ebd 1904 1ebe
00000060: 7504 153e eed0 e7bc f13e 84bc 5ffe 0c3e
00000070: 1c59 733d 9f5b 593d 9b60 dbbd 8cfc c43b
00000080: 8dc9 e6bc 9c6a 77bd 87d9 903d 312d e2bc
00000090: edcf 2fbb c83e a83d d8f2 853b c416 83bd
000000a0: 9b06 da3c f253 afbd c9af 773c 81f7 7fbc
000000b0: 7524 b6bd 1c49 0b3d 377c 0c3c 0779 9e3d
000000c0: ea80 09bc 545e 2d3d cc7b b93d 0696 eabd
000000d0: 1509 223c 8de7 8fbd b4fd cf3c afed c7bc
000000e0: e70b a73d f923 ca3c 57c5 3f3d a698 67bd
000000f0: 9d9e ae3b 944c 1d3d 6ef9 f1bb 54d3 8abb
00000100: 065b 063e 14bb 4bbb da62 11be 7bb5 d43d
00000110: 89af ff3b 7c26 d9bc 9f00 7c3d b586 ea3b
00000120: 08ac a53d 31c2 a9bd 6e37 28be d276 a8bd
00000130: 95e9 89bd 4f6c c03c 5f12 4c3c 3c34 0a3e
00000140: 5718 293c 640e a6bd d882 78bd 779a 51bc
00000150: 3c8c e6bd db7a 6e3d 96e4 bb3c fe1c 4f3d
00000160: 0907 37bc 8152 2bbe b44a 81bd a584 f7bc
00000170: 7af8 87bd 12e6 443e 2a2c 4ebd 558d 163d
00000180: 9d4a 8fbd 794a 573d eb41 79bd 73f9 f5bd
00000190: d9db a83b ac91 6dbd d1f1 7bbd 073f 593d
000001a0: 2166 e43d 03fd 5b3d 0072 643d 29ef 6cbd
000001b0: 0600 a43d 13a1 b13d d3a7 c5bd f08f d9bb
000001c0: 6727 df3c 7d6a a63d 01ea 6a3c 98c9 59bd
000001d0: f97e d1bc f786 9bbb bb4a a6bc 5d52 56bd
000001e0: 054c b83c 3d64 de3c 2a1e 5bbd e294 83bc
000001f0: 6989 99bc d0f4 f43d 4cdc c63c 4e6c 513a

encoder.4.weight f4 [64, 128]
-0.04577086 0.0927734 -0.29227507 0.044341497 -0.091395564 -0.006914005 -0.03181237 -0.09197419
0.077146724 -0.11800874 -0.0367211 -0.024527695 -0.005666812 0.15705667 -0.12340168 -0.06023677
0.037819378 -0.08976551 0.12476828 0.034238834 -0.1692815 -0.074868955 -0.06406289 0.06251629
0.030364482 -0.09896183 -0.049120054 -0.08618058 -0.07831066 -0.087508254 0.07590637 0.11916897
0.1565167 -0.08470492 -0.03581261 -0.01460278 0.03504299 -0.104019806 0.16823018 -0.017807955
-0.025713122 0.40587 -0.017613934 0.27401924 0.08564717 -0.020235151 -0.13490364 -0.087949835
-0.05929814 0.1498924 0.094775714 0.03846141 -0.048749574 -0.049790584 0.110230245 -0.09094599
0.028144356 0.09146854 -0.21907552 -0.07593649 -0.019800607 0.03908485 -0.019387476 0.12423347
-0.06089477 -0.039195858 0.06869736 -0.0096489005 -0.055256583 -3.516815e-05 0.057565752 0.18688756
-0.01246433 0.02034417 0.042303607 0.11866813 0.17539206 -0.08830371 0.032411557 0.008799474
0.0054168655 0.02523634 0.046468895 -0.029247431 0.030609202 0.004125241 -0.005096697 0.062315993
0.0048314584 0.039115686 -0.11728668 0.20115487 -0.0915168 0.061006572 0.18299784 0.23689882
-0.08351655 0.21599345 0.080217235 -0.11125194 -0.04779513 0.12851982 0.10969986 -0.05217212
-0.03134576 0.04001818 -0.19741367 -0.054707512 -0.3597277 -0.0019602093 -0.008387522 -0.03215435
0.20138186 -0.012599332 0.009572476 0.016042527 -0.05381496 -0.059733447 0.21730508 0.05197557
-0.2949996 -0.108267315 -0.089432284 0.0040894444 0.031462323 -0.14333068 0.014804963 -0.1432104
0.10592613 -0.1504493 -0.030241974 0.14883447 0.105328545 -0.055120282 -0.14470078 -0.051061723
-0.003513503 -0.095329426 0.02251308 -0.20625907 -0.059652787 -0.2076136 0.03578907 -0.21942106
-0.089732 0.085596606 -0.093104616 0.29184806 0.057451874 -0.15239853 0.008278815 -0.04768703
-0.0044127656 0.13138929 -0.06164056 -0.03929442 0.10326192 0.12394661 0.017382195 0.0010112814
-0.020271098 0.053969484 0.05075158 0.11754208 -0.08117265 0.12872998 -0.06815093 0.11413325
-0.16184542 -0.09759339 -0.12889029 -0.08707369 -0.096452415 0.12697919 -0.06690428 0.16940416
-0.0624192 0.027138785 -0.23479506 -0.10548931 -0.04050462 -0.07066272 -0.062841944 0.07597922
-0.21019146 -0.023155665 0.02342354 -0.06056566 -0.0056818486 0.06748824 -0.33544943 0.32956782
0.25415623 0.22778317 -0.07959172 0.0728333 0.21778402 -0.17764543 -0.07785012 -0.23834959
-0.059007883 0.10286101 0.06625599 0.06637584 -0.074496455 0.009817476 -0.16350706 -0.019844126
0.0014711595 0.13472514 -0.060117524 0.079592235 -0.059971858 0.16284084 -0.029181154 0.26260662
0.043593325 0.018797696 0.21992025 -0.06115143 0.40707108 -0.053024966 -0.06387633 -0.080761485
0.088885285 0.023096582 0.02193562 0.16003335 -0.17626345 0.054980878 -0.020866236 0.061187875
-0.123695664 0.045260962 0.067350246 -0.22796217 0.057475545 -0.041954022 0.006516498 0.15728214
-0.11395669 0.064894624 -0.050698712 -0.055657912 -0.1207916 0.24645971 0.05068765 -0.31098336
0.0055858283 -0.024397667 0.018774265 -0.16477625 -0.16370726 0.14302538 0.16716681 0.059189864
00000000: 3a7a 3bbd fbff bd3d 14a5 95be 6e9f 353d
00000010: 992d bbbd e18e e2bb b04d 02bd f75c bcbd
00000020: 1aff 9d3d 91ae f1bd dd68 16bd 4eee c8bc
00000030: aab0 b9bb 77d3 203e 05ba fcbd d5ba 76bd
00000040: 7ee8 1a3d fbd6 b7bd 8386 ff3d 053e 0c3d
00000050: 2158 2dbe e554 99bd 6833 83bd 8a08 803d
00000060: efbe f83c 80ac cabd 1c32 49bd 727f b0bd
00000070: 5761 a0bd 8737 b3bd cd74 9b3d dc0e f43d
00000080: ea45 203e c679 adbd 3eb0 12bd 8040 6fbc
00000090: 3d89 0f3d 5608 d5bd 8844 2c3e fde1 91bc
000000a0: 53a4 d2bc 31ce cf3e 194b 90bc 404c 8c3e
000000b0: c967 af3d 30c4 a5bc 2e24 0abe 0b1f b4bd
000000c0: 9be2 72bd 657d 193e c519 c23d b689 1d3d
000000d0: a2ad 47bd 36f1 4bbd 65c0 e13d e441 babd
000000e0: fe8e e63c dc53 bb3d 5555 60be 9784 9bbd
000000f0: e234 a2bc 7017 203d 7cd2 9ebc 1e6e fe3d
00000100: cb6c 79bd d68b 20bd 34b1 8c3d 6c16 1ebc
00000110: ba54 62bd 8381 13b8 11ca 6b3d 745f 3f3e
00000120: 3037 4cbc d1a8 a63c 8c46 2d3d 4708 f33d
00000130: fa99 333e 93d8 b4bd fbc1 043d ab2b 103c
00000140: f67f b13b 71bc ce3c 2b56 3e3d 4f98 efbc
00000150: 26c0 fa3c 082d 873b 3102 a7bb 0e3f 7f3d
00000160: 3651 9e3b c537 203d 0034 f0bd 8bfb 4d3e
00000170: 296d bbbd 07e2 793d c963 3b3e 9b95 723e
00000180: ba0a abbd 632d 5d3e ef48 a43d 0fd8 e3bd
00000190: d4c4 43bd b39a 033e 52aa e03d 6fb2 55bd
000001a0: 6964 00bd 1aea 233d cf26 4abe fc14 60bd
000001b0: 3b2e b8be db76 00bb d16b 09bc 48b4 03bd
000001c0: 0c37 4e3e 6e6d 4ebc e0d5 1c3c 9e6b 833c
000001d0: 136d 5cbd 0fab 74bd 3985 5e3e 56e4 543d
000001e0: 300a 97be 41bb ddbd 4628 b7bd bf00 863b
000001f0: a3de 003d 47c5 12be 8490 723c bfa5 12be
00000200: cdef d83d 620f 1abe 04be f7bc 1068 183e
00000210: 7eb6 d73d cec5 61bd 712c 14be 1926 51bd
00000220: cc42 66bb 133c c3bd 5a6d b83c 9435 53be
00000230: 7b56 74bd a998 54be 8f97 123d eaaf 60be
00000240: 69c5 b7bd 464d af3d a2ad bebd 1c6d 953e
00000250: a852 6b3d 5c0e 1cbe dea3 073c 7a53 43bd
00000260: f698 90bb ea8a 063e d07a 7cbd 30f3 20bd
00000270: fc7a d33d b8d7 fd3d 1b65 8e3c f98c 843a
00000280: 930f a6bc 1b0f 5d3d e4e0 4f3d e7b9 f03d
00000290: d93d a6bd cbd1 033e b792 8bbd b2be e93d
000002a0: ceba 25be 0bdf c7bd d1fb 03be b153 b2bd
000002b0: d888 c5bd d506 023e 1c05 89bd 4978 2d3e
000002c0: 46ab 7fbd 2852 de3c 1e6e 70be c80a d8bd
000002d0: 2ce8 25bd 9eb7 90bd 47b3 80bd fe9a 9b3d
000002e0: 6e3c 57be f3b0 bdbc b9e2 bf3c b313 78bd
000002f0: cd2e babb 4637 8a3d 07c0 abbe 1dbd a83e
00000300: c420 823e fe3f 693e fc00 a3bd a029 953d
00000310: c602 5f3e afe8 35be e26f 9fbd ea11 74be
00000320: 40b2 71bd cba8 d23d 38b1 873d 0ef0 873d
00000330: 9991 98bd 7bd9 203c 656e 27be 2690 a2bc
00000340: ecd3 c03a 63f5 093e cb3d 76bd 4101 a33d
00000350: 0da5 75bd c0bf 263e 510d efbc 6074 863e
00000360: ea8e 323d a0fd 993c c632 613e ec79 7abd
00000370: 9f6b d03e b530 59bd 98d1 82bd 4766 a5bd
00000380: 7d09 b63d 0b35 bd3c 54b2 b33c c8df 233e
00000390: 687e 34be a133 613d abef aabc 23a0 7a3d
000003a0: 2754 fdbd 8f63 393d edee 893d ea6e 69be
000003b0: 7a6b 6b3d fbd7 2bbd 5988 d53b 920e 213e
000003c0: 2062 e9bd 79e7 843d 74a9 4fbd 8df9 63bd
000003d0: 9661 f7bd ef5f 7c3e da9d 4f3d 3639 9fbe
000003e0: 5309 b73b 9edd c7bc 7dcc 993c 1bbb 28be
000003f0: e0a2 27be 3f75 123e c72d 2b3e 1271 723d

encoder.4.bias f4 [64]
0.025846835 0.069807075 -0.08289157 0.01063765 -0.04651036 0.11133368 0.05008149 0.025552126
0.089008205 -0.119340956 0.119813725 -0.00039258954 -0.020682048 -0.05336431 -0.06569975 -0.08828631
0.015132954 -0.087939285 -0.021327872 -0.051811405 -0.10940665 0.053378075 0.032923173 -0.109574825
-0.012674517 0.027336143 -0.06205338 0.10329334 0.072772376 0.04191593 -0.0957222 0.11562229
-0.047876723 -0.048162945 -0.027329331 -0.08277734 0.012912572 -0.08502251 0.11191981 -0.103651814
-0.075953625 -0.03995648 0.04316101 0.073938616 -0.045689616 0.1375315 -0.00732374 0.0028001762
0.14230676 0.0010075344 -0.013182006 -0.052630298 0.1577644 0.04984755 -0.09379649 0.03812524
0.090564094 -0.06863798 -0.039609365 -0.09508781 -0.11012481 -0.013775062 0.084755346 -0.02538093
00000000: bebc d33c 03f7 8e3d 0ec3 a9bd 8a49 2e3c
00000010: a681 3ebd ea02 e43d 4022 4d3d b152 d13c
00000020: ef49 b63d 0869 f4bd e660 f53d 7ad4 cdb9
00000030: 666d a9bc 8994 5abd 978d 86bd 74cf b4bd
00000040: 36f0 773c 8319 b4bd cab7 aebc 3238 54bd
00000050: 9810 e0bd f8a2 5a3d 73da 063d c468 e0bd
00000060: c7a8 4fbc 0cf0 df3c af2b 7ebd 758b d33d
00000070: af09 953d 0ab0 2b3d 000a c4bd 61cb ec3d
00000080: 621a 44bd 8246 45bd c3e1 dfbc 2b87 a9bd
00000090: 418f 533c 4820 aebd 3736 e53d 6747 d4bd
000000a0: 938d 9bbd 68a9 23bd 99c9 303d 216d 973d
000000b0: 0925 3bbd 0fd5 0c3e fcfb efbb 2983 373b
000000c0: ddb8 113e 3f0f 843a 57f9 57bc de92 57bd
000000d0: fe8c 213e f22c 4c3d 6018 c0bd 3629 1c3d
000000e0: ab79 b93d 1292 8cbd 6e3d 22bd 66bd c2bd
000000f0: 1e89 e1bd ccb0 61bc 3694 ad3d abeb cfbc

encoder.6.weight f4 [2, 64]
0.10809014 -0.20183532 -0.13249545 -0.07913082 -0.016306367 -0.09722059 -0.07526607 -0.14556064
-0.12539707 -0.17326969 -0.24353887 -0.054862645 0.04225333 0.17737077 0.16923834 -0.02157016
0.12151282 -0.121056 -0.088066876 0.086319186 0.16725829 0.17673635 -0.11921928 -0.2133493
0.19122708 -0.1297722 -0.09782834 -0.14072798 -0.16199026 0.21957172 0.028959734 -0.09005377
0.18646741 -0.06923537 -0.19806972 0.18792014 0.15593892 -0.01524825 0.074823245 -0.112303734
-0.24407738 0.11730608 0.16904676 0.059299156 -0.012492459 -0.02111462 -0.061631218 0.1403447
-0.15996943 -0.17080626 0.03262095 -0.08915896 0.1428504 0.16675387 -0.04296066 0.13287301
-0.07252531 -0.17819245 0.14884621 0.117266215 0.17177738 -0.0749337 -0.1756394 -0.17791264
-0.16011962 -0.112809494 -0.019773215 0.1579665 -0.1611098 0.11996532 0.06234458 -0.17568995
0.04756981 -0.02794119 0.07980917 0.023779154 0.14672327 -0.14605805 -0.16801912 0.22763203
0.22474803 0.14415853 0.14120974 -0.18730153 -0.05993922 -0.00947557 -0.13541165 -0.15314133
-0.22674258 0.08491924 0.1968172 -0.082406886 0.14894852 -0.1490043 -0.14771444 0.13389313
-0.045762874 0.071455084 0.15225273 0.1353515 -0.07374877 -0.08600411 0.15270916 -0.14998229
0.080529496 0.109840825 -0.19058302 -0.16552043 -0.13525166 0.08896382 -0.22169533 -0.18553945
0.040251374 -0.12045938 -0.08786412 0.16762786 0.17868546 -0.19678517 -0.12912254 0.075686924
0.15463686 -0.13006023 0.07285119 0.17013922 0.009312023 0.15470815 -0.09992387 0.1114489
00000000: 5d5e dd3d ebad 4ebe e3ac 07be 570f a2bd
00000010: ee94 85bc 971b c7bd 1925 9abd d90d 15be
00000020: 1768 00be 9c6d 31be 4162 79be a7b7 60bd
00000030: d411 2d3d afa0 353e d14c 2d3e e7b3 b0bc
00000040: b7db f83d 35ec f7bd 685c b4bd 1dc8 b03d
00000050: c245 2b3e 60fa 343e 3d29 f4bd 3d78 5abe
00000060: 08d1 433e 01e3 04be 3a5a c8bd ff1a 10be
00000070: c6e0 25be 69d7 603e f73c ed3c 1c6e b8bd
00000080: 50f1 3e3e 46cb 8dbd cad2 4abe 236e 403e
00000090: 74ae 1f3e ccd3 79bc ee3c 993d 80ff e5bd
000000a0: 6cef 79be 2c3e f03d 981a 2d3e ace3 723d
000000b0: 2cad 4cbc 91f8 acbc 0471 7cbd 85b6 0f3e
000000c0: 07cf 23be d6e7 2ebe 8c9d 053d f998 b6bd
000000d0: 6047 123e 87c1 2a3e 84f7 2fbd dd0f 083e
000000e0: 2688 94bd 1578 36be 246b 183e 4529 f03d
000000f0: 69e6 2f3e d776 99bd d1da 33be bb2e 36be
00000100: 66f6 23be aa08 e7bd 70fb a1bc f8c1 213e
00000110: f8f9 24be 61b0 f53d 085d 7f3d 11e8 33be
00000120: 90d8 423d ece4 e4bc fd72 a33d 80cc c23c
00000130: a03e 163e 3e90 15be 340d 2cbe 5f18 693e
00000140: 5924 663e 4b9e 133e 4999 103e f9cb 3fbe
00000150: d482 75bd 6c3f 1bbc 5aa9 0abe 15d1 1cbe
00000160: 352f 68be 23ea ad3d 738a 493e f1c4 a8bd
00000170: f685 183e 9594 18be 7442 17be 481b 093e
00000180: da71 3bbd 0b57 923d 24e8 1b3e 9599 0a3e
00000190: 9809 97bd ec22 b0bd ca5f 1c3e f594 19be
000001a0: a6ec a43d 3af4 e03d 3228 43be 307e 29be
000001b0: 697f 0abe aa32 b63d 1a04 63be 0efe 3dbe
000001c0: a0de 243d 68b3 f6bd 1bf2 b3bd a3a6 2b3e
000001d0: 52f9 363e 0d82 49be b338 04be bf01 9b3d
000001e0: 2059 1e3e 822e 05be 0133 953d fa38 2e3e
000001f0: 7591 183c d06b 1e3e e3a4 ccbd 523f e43d

encoder.6.bias f4 [2]
-0.13264938 -0.09980604
00000000: 3dd5 07be 1c67 ccbd

decoder.0.weight f4 [64, 2]
0.17209758 -0.447612 -0.003692049 0.41148904 -0.12821983 1.2340084 -0.11482241 -0.18809919
1.0190588 -0.9793577 -0.38541365 0.24046214 0.026008686 -0.32884136 -0.24755034 -0.30063745
0.15026411 -0.74137706 0.58685184 0.60284454 -0.6170303 -0.38743636 0.31587633 0.33995143
-0.049589112 0.36907408 0.26857492 0.013670902 -0.14119048 -0.04000657 0.807564 0.66692024
0.7152739 0.31694427 -0.06696922 -0.68411875 -0.4113391 0.014589747 0.8430468 -0.93502086
0.2814969 -0.07826034 -0.35356852 -0.74268097 0.4486594 0.0626795 0.16408761 0.56085795
0.42466706 0.061148744 0.06991582 0.5872669 0.2700652 -0.2918198 -0.3054835 0.14496142
-0.30340227 0.26896775 0.43998373 0.18713851 -0.2809689 0.14694811 0.16931477 0.122752346
0.54947287 0.5396427 0.5939249 -0.437112 0.28624484 0.56005925 0.366467 0.2602203
0.6112399 0.17440109 -0.5825884 -0.59201795 0.44646767 0.6719224 0.32861316 -0.0935371
-0.2963757 -0.6567331 -0.30928463 0.32821372 -0.8306176 0.7638237 -0.17437872 -0.7351476
0.31806725 0.3127041 0.38797414 0.48249668 0.44982234 0.61906123 -0.2810346 -0.69044834
-0.16882539 -0.54302925 -0.41457015 -0.56207305 0.6282382 -1.1156557 0.8318106 0.67658854
-0.5677062 -0.6652728 -0.3547024 0.11455233 -0.10339744 -0.47650203 -0.4869524 0.57421976
-0.33039662 0.6014434 0.81692815 -0.9781937 0.049448937 0.033489488 -0.15168002 0.70477754
0.007281716 -0.4402088 0.436896 -0.43450764 -0.42004338 -0.4006051 0.8569051 -0.30398172
00000000: 593a 303e 662d e5be 4ef6 71bb b1ae d23e
00000010: 0f4c 03be fdf3 9d3f 0328 ebbd 139d 40be
00000020: 8570 823f 30b7 7abf f054 c5be b53b 763e
00000030: 2b10 d53c e55d a8be d67d 7dbe 27ed 99be
00000040: d6de 193e e3ca 3dbf ec3b 163f 0554 1a3f
00000050: b3f5 1dbf 0f5e c6be 8bba a13e 1d0e ae3e
00000060: f41d 4bbd 47f7 bc3e a782 893e ebfb 5f3c
00000070: 3d94 10be eedd 23bd 84bc 4e3f 49bb 2a3f
00000080: 311c 373f 8546 a23e 2927 89bd 6822 2fbf
00000090: 0a9b d2be d609 6f3c ead1 573f 875d 6fbf
000000a0: 5d20 903e f546 a0bd ef06 b5be 5720 3ebf
000000b0: afb6 e53e 1c5e 803d 9506 283e 6394 0f3f
000000c0: f66d d93e 1b77 7a3d 0730 8f3d 2057 163f
000000d0: fc45 8a3e 6869 95be 5568 9cbe c470 143e
000000e0: 8b57 9bbe 24b6 893e 8c45 e13e 3da1 3f3e
000000f0: 28db 8fbe 9179 163e da60 2d3e 9565 fb3d
00000100: 41aa 0c3f 0626 0a3f 760b 183f 25cd dfbe
00000110: af8e 923e 0b60 0f3f 90a1 bb3e 983b 853e
00000120: 387a 1c3f 3396 323e 8324 15bf 7d8e 17bf
00000130: 6997 e43e 1b03 2c3f fc3f a83e 6190 bfbd
00000140: 8ebe 97be a91f 28bf 8e5a 9ebe a10b a83e
00000150: 5ba3 54bf f389 433f 5690 32be a232 3cbf
00000160: b6d9 a23e c01a a03e 8ca4 c63e ce09 f73e
00000170: 1d4f e63e cc7a 1e3f c4e3 8fbe 39c1 30bf
00000180: 90e0 2cbe f703 0bbf 8a42 d4be 05e4 0fbf
00000190: 38d4 203f cecd 8ebf 8af1 543f e834 2d3f
000001a0: 3255 11bf 514f 2abf 8e9b b5be 699a ea3d
000001b0: 09c2 d3bd 13f8 f3be d351 f9be 1100 133f
000001c0: bf29 a9be 32f8 193f 3422 513f e76a 7abf
000001d0: f88a 4a3d 462c 093d 0252 1bbe 4d6c 343f
000001e0: 769b ee3b 0c63 e1be d5b0 df3e c977 debe
000001f0: ed0f d7be 1d1c cdbe 225e 5b3f 7ea3 9bbe

decoder.0.bias f4 [64]
-0.7230624 0.6644113 -0.5130701 -0.2729611 -0.022892328 -0.49085042 0.5560191 -0.30366966
0.40249014 0.26844072 0.08737978 -0.15456344 0.23714323 0.46692517 -0.23234574 0.04849843
-0.22136836 0.80441254 -0.64258945 -0.3174418 -0.27849835 -0.3968806 -0.56936634 -0.37247202
0.6906314 0.23503406 -0.17804354 -0.8074696 -0.24995051 -0.6585951 -0.64343876 0.47505647
0.1454204 -0.5455929 -0.44950148 0.6994534 -0.52186507 0.17716502 -0.26541656 -0.7793395
0.07640713 0.80049795 0.11596161 -0.16466801 -0.6706944 -0.544301 -0.08303874 -0.71555144
-0.5893806 0.6917457 -0.21664889 -0.025434729 -0.4433029 -0.71849585 0.36820924 -0.7241672
-0.72841406 0.6417408 -0.61240786 -0.23477437 -0.39453915 0.7493776 0.07251447 -0.36854616
00000000: 9e1a 39bf dc16 2a3f 9058 03bf 8fc1 8bbe
00000010: b188 bbbc bf50 fbbe 4557 0e3f 977a 9bbe
00000020: 3013 ce3e 1071 893e 2cf4 b23d e145 1ebe
00000030: add5 723e d110 ef3e 0bec 6dbe 4aa6 463d
00000040: 63ae 62be fbed 4d3f be80 24bf bb87 a2be
00000050: 5697 8ebe ef33 cbbe fec1 11bf a7b4 bebe
00000060: 38cd 303f c5ac 703e 0c51 36be 54b6 4ebf
00000070: 07f3 7fbe b099 28bf 67b8 24bf 9a3a f33e
00000080: 16e9 143e faab 0bbf 0f25 e6be 610f 333f
00000090: f398 05bf bf6a 353e aee4 87be cb82 47bf
000000a0: 577b 9c3d 6fed 4c3f 487d ed3d bb9e 28be
000000b0: a1b2 2bbf 4f57 0bbf 3710 aabd 612e 37bf
000000c0: a6e1 16bf 3f16 313f 35d9 5dbe 7e5c d0bc
000000d0: 99f8 e2be 58ef 37bf ec85 bc3e 0663 39bf
000000e0: 5879 3abf 2049 243f c3c6 1cbf b168 70be
000000f0: 0901 cabe 36d7 3f3f 7782 943d 15b2 bcbe

decoder.2.weight f4 [128, 64]
0.09281776 0.08990906 -0.085544184 -0.15827861 0.031585418 -0.07996797 0.08355243 -0.013675108
-0.03096205 -0.10254216 -0.05814622 0.10396378 0.114739165 0.026725795 0.085923366 -0.10136337
-0.07557702 0.01398335 0.090296775 0.078344636 -0.04700425 -0.063483074 0.0566886 0.0029228579
-0.059012845 -0.08942444 0.013280886 0.081654206 -0.05996911 -0.06993395 0.019226411 0.14020896
-0.102921635 0.10656915 0.054568727 -0.02272291 0.07629997 0.064202584 0.13713792 -0.008784125
-0.065731615 0.061481725 0.07222634 0.119371764 -0.023641981 -0.037455123 0.035753466 0.011041038
-0.107770026 0.02390988 -0.10235485 0.0055027273 0.055413045 0.06547908 -0.103858374 -0.14148493
0.05555069 0.084482275 -0.03812051 -0.112936586 -0.051078353 0.031915724 0.037670948 -0.056108847
-0.067865655 0.09161876 0.06056835 0.12906015 0.09923946 0.017952504 0.004723063 0.09937551
-0.04747976 -0.030823357 0.11356948 0.10363232 -0.017610619 -0.014473953 0.09045934 0.058835298
0.061627943 -0.05395966 -0.11270473 0.0552234 0.11852333 -0.08277424 0.033011384 0.0033534197
-0.054834463 0.1563972 -0.0066750403 0.038321182 0.055002715 0.10452719 -0.12534878 -0.05254549
0.013313491 -0.0993669 -0.11379429 -0.095157735 -0.05828671 -0.074454196 0.09848209 -0.06703313
-0.07096847 0.10853286 -0.08146503 -0.06595173 0.12202585 0.0269173 0.022284452 0.04593826
0.030733543 0.009256789 -0.008231135 0.07277562 0.12485038 0.08671758 0.09629212 -0.056198355
-0.003213616 0.10710259 0.04745911 0.04933086 -0.12406407 0.0060590347 -0.11012318 0.14362669
0.024309436 -0.17168906 -0.068926975 0.12601428 0.1082039 0.059235495 -0.13312979 -0.090061955
0.00509762 0.090273306 0.10975674 -0.1094496 0.031416915 0.08851325 -0.10041469 0.046542827
0.027644714 0.031104757 -0.035194125 0.038101647 -0.117422685 -0.114686936 0.04576118 0.10244826
0.06501327 0.015715087 0.03342982 0.053345844 0.033006653 0.016851347 0.043317825 0.012229556
-0.00454366 -0.08768312 -0.09727876 -0.103260905 -0.094710425 -0.029009197 -0.11471566 -0.00085957855
-0.079849385 0.00024326712 -0.0012486277 -0.01082707 0.025517704 0.04068478 0.022780335 0.12808885
-0.03914126 -0.018385137 0.110565424 -0.11254488 -0.061198115 -0.09927219 0.037472475 -0.007429945
-0.11990746 -0.117405474 0.12537235 0.017234886 -0.007438597 0.086847626 -0.04185858 -0.18270227
-0.20687884 0.2737187 -0.07086682 -0.20318958 -0.15196033 0.007299279 -0.036287162 -0.03531906
-0.07663946 -0.10432864 0.072976574 0.08312359 0.31724265 -0.049007755 0.08343025 0.02803091
0.00019778333 -0.05762321 -0.0045993943 -0.26120654 -0.06256226 -0.16334257 -0.06977934 -0.08119384
-0.010565368 0.2886299 -0.24914484 0.06304151 0.10215649 -0.1329461 0.0019706872 0.020760998
-0.076626234 -0.28119227 -0.025116734 0.016824378 -0.12351752 0.09932625 -0.030265037 -0.09292324
-0.1122055 0.17039737 0.07564743 -0.18778078 0.027180836 -0.017865622 0.08803666 -0.24048918
-0.12900783 0.019760964 -0.21393894 0.031822428 0.012871157 0.05903986 -0.06772881 0.002146398
-0.043112863 -0.04283491 -0.0032752296 0.015992196 -0.18632276 -0.0007756289 0.027638845 -0.2984479
00000000: 3d17 be3d 3e22 b83d ca31 afbd ca13 22be
00000010: b65f 013d 3fc6 a3bd 891d ab3d 8f0d 60bc
00000020: 20a4 fdbc a001 d2bd bb2a 6ebd f6ea d43d
00000030: 5efc ea3d 0ef0 da3c 97f8 af3d 9997 cfbd
00000040: 20c8 9abd 6c1a 653c 84ed b83d 2773 a03d
00000050: 8787 40bd 6a03 82bd 4e32 683d 6b8d 3f3b
00000060: 74b7 71bd 2924 b7bd 1398 593c 523a a73d
00000070: 2ba2 75bd 8839 8fbd b580 9d3c f092 0f3e
00000080: 94c8 d2bd ed40 da3d 7583 5f3d 6525 babc
00000090: 2943 9c3d a57c 833d e26d 0c3e 4aeb 0fbc
000000a0: 4c9e 86bd 43d4 7b3d 67eb 933d 2f79 f43d
000000b0: d4ac c1bc 8b6a 19bd 3a72 123d 78e5 343c
000000c0: 88b6 dcbd a7de c33c 6b9f d1bd 3950 b43b
000000d0: caf8 623d e519 863d b3b3 d4bd 6de1 10be
000000e0: 1f89 633d 0b05 ad3d 4024 1cbd 4c4b e7bd
000000f0: 8937 51bd 10ba 023d da4c 1a3d 64d2 65bd
00000100: 26fd 8abd 9ea2 bb3d 8516 783d 5828 043e
00000110: 0f3e cb3d 2111 933c edc3 9a3b 6385 cb3d
00000120: 237a 42bd 4481 fcbc 1e97 e83d 2f3d d43d
00000130: 2544 90bc 2924 6dbc bf42 b93d 48fd 703d
00000140: 956d 7c3d ce04 5dbd bdd1 e6bd ef31 623d
00000150: 5cbc f23d 8a85 a9bd f236 073d 0cc5 5b3b
00000160: 1a9a 60bd 9626 203e 4cba dabb acf6 1c3d
00000170: 874a 613d 5a12 d63d 6e5b 00be f139 57bd
00000180: d420 5a3c e080 cbbd fb0c e9bd 0fe2 c2bd
00000190: 0cbe 6ebd 717b 98bd fab0 c93d aa48 89bd
000001a0: eb57 91bd 7a46 de3d 23d7 a6bd b311 87bd
000001b0: b0e8 f93d ab81 dc3c e28d b63c c229 3c3d
000001c0: e9c4 fb3c caa9 173c e2db 06bc 620b 953d
000001d0: 8eb1 ff3d fd98 b13d ce34 c53d 3f30 66bd
000001e0: 889b 52bb 9a58 db3d 7c64 423d 280f 4a3d
000001f0: 4e15 febd de8a c63b 4388 e1bd e012 133e
00000200: 9524 c73c 42cf 2fbe 9629 8dbd e309 013e
00000210: 029a dd3d eba0 723d 2d53 08be 6772 b8bd
00000220: f009 a73b 36e1 b83d 24c8 e03d 1d27 e0bd
00000230: 06af 003d 6f46 b53d 38a6 cdbd b1a3 3e3d
00000240: 2b77 e23c 67cf fe3c b727 10bd 7910 1c3d
00000250: 4e7b f0bd fce0 eabd 1370 3b3d 65d0 d13d
00000260: ad25 853d edbc 803c b5ed 083d 2c81 5a3d
00000270: fc31 073d d60b 8a3c 086e 313d 7a5e 483c
00000280: fce2 94bb 3593 b3bd 163a c7bd 747a d3bd
00000290: 8af7 c1bd b2a4 edbc 0bf0 eabd 5755 61ba
000002a0: 1388 a3bd 8515 7f39 fea8 a3ba 0664 31bc
000002b0: 810a d13c 15a5 263d d39d ba3c b929 033e
000002c0: 9652 20bd 6d9c 96bc 2070 e23d ee7d e6bd
000002d0: e0aa 7abd 384f cbbd bd7c 193d e576 f3bb
000002e0: 0b92 f5bd 4872 f0bd 9c61 003e 2d30 8d3c
000002f0: 79bf f3bb 2bdd b13d e773 2bbd 4e16 3bbe
00000300: 0cd8 53be dc24 8c3e a022 91bd ee10 50be
00000310: 7d9b 1bbe ca2e ef3b d9a1 14bd b8aa 10bd
00000320: 26f5 9cbd 41aa d5bd be74 953d b33c aa3d
00000330: a16d a23e 5bbc 48bd 7bdd aa3d 14a1 e53c
00000340: 0f64 4f39 5106 6cbd 84b6 96bb ddbc 85be
00000350: a420 80bd 4643 27be 78e8 8ebd f548 a6bd
00000360: 5e1a 2dbc 4cc7 933e d31f 7fbe e81b 813d
00000370: 6c37 d13d 0623 08be a526 013b f812 aa3c
00000380: 37ee 9cbd 6ff8 8fbe 9cc1 cdbc 47d3 893c
00000390: c1f6 fcbd 906b cb3d 62ee f7bc 8a4e bebd
000003a0: ffcb e5bd a67c 2e3e 0aed 9a3d 9b49 40be
000003b0: 58aa de3c ed5a 92bc 904c b43d cc42 76be
000003c0: a11a 04be bfe1 a13c cf12 5bbe 3c58 023d
000003d0: 8ce1 523c c8d3 713d 67b5 8abd 95aa 0c3b
000003e0: 1d97 30bd a973 2fbd 3ca5 56bb 1102 833c
000003f0: 65cb 3ebe 9353 4bba dc6a e23c 2ace 98be

decoder.2.bias f4 [128]
0.06864237 0.08100203 -0.14013292 0.08241932 0.13297501 -0.029474176 -0.12247718 -0.14506654
-0.06142547 -0.0070719547 0.14887054 0.11833001 -0.11446492 -0.12938619 0.10379814 0.053153086
-0.07460777 0.08226923 -0.08637636 -0.047029044 0.07760037 -0.06610724 0.0757682 -0.061149422
-0.14734012 0.17180093 -0.04018149 0.09943045 -0.044303548 -0.08340236 -0.001102326 0.1211425
0.12741058 0.10961355 0.008132089 0.06834743 0.10605357 -0.019181438 -0.01706632 -0.081263
-0.11103231 0.011824102 -0.06548028 0.1279343 -0.21651062 -0.03258399 -0.03293254 -0.0020996989
0.092738986 0.07924327 0.14886811 0.14527436 0.033724036 -0.13096818 0.104800425 -0.060712453
-0.015494332 0.1318949 -0.06314699 0.1431882 0.027701998 -0.044065975 -0.12405323 0.008544881
-0.16298226 0.10609972 0.097477734 0.13675958 0.010755981 -0.00019172732 -0.1188372 -0.16539934
-0.04735778 0.04621387 0.09658618 0.079337895 0.07767503 -0.15467337 0.012085732 0.12856503
-0.0902125 0.0019437611 0.12463343 0.13121153 0.0021159041 0.13302895 0.045243975 0.17967717
-0.048511274 0.082844116 -0.026123352 -0.010918682 0.014776626 -0.107127145 0.08202878 0.036778316
0.09825143 -0.17439523 0.09428067 0.16113019 0.10716703 -0.15436657 0.053433847 0.09352009
-0.09840238 0.0067299446 0.09925574 0.035258893 -0.0047881426 -0.05124671 0.08800721 -0.07944667
0.09900263 -0.11805608 -0.07092824 -0.10087795 0.025291134 -0.08282918 0.044495843 0.03811052
0.047606897 0.009543359 0.20511822 -0.07940513 0.19810674 -0.01713821 0.112254374 0.03128346
00000000: 5f94 8c3d 64e4 a53d 017f 0fbe 76cb a83d
00000010: 9a2a 083e d473 f1bc 51d5 fabd 538c 14be
00000020: 4699 7bbd dbbb e7bb 8571 183e 0157 f23d
00000030: 956c eabd d07d 04be 1f94 d43d 0db7 593d
00000040: f5cb 98bd c57c a83d 17e6 b0bd 87a1 40bd
00000050: f1ec 9e3d 3c63 87bd 5c2c 9b3d d177 7abd
00000060: 54e0 16be 95ec 2f3e 5995 24bd 31a2 cb3d
00000070: a377 35bd dbce aabd ec7b 90ba 8f19 f83d
00000080: eb77 023e 127d e03d 743c 053c bdf9 8b3d
00000090: 9d32 d93d 6422 9dbc abce 8bbc 376d a6bd
000000a0: e864 e3bd e1b9 413c 861a 86bd 3601 033e
000000b0: f6b4 5dbe ca76 05bd 45e4 06bd 1a9b 09bb
000000c0: f0ed bd3d 4c4a a23d e270 183e cdc2 143e
000000d0: 3722 0a3d 861c 06be 9ba1 d63d 9fad 78bd
000000e0: f0db 7dbc 750f 073e 3653 81bd ed9f 123e
000000f0: 4def e23c 867e 34bd 9f0f febd d4ff 0b3c
00000100: d2e4 26be cf4a d93d 68a2 c73d b40a 0c3e
00000110: db39 303c 690a 49b9 eb60 f3bd 725e 29be
00000120: 3bfa 41bd c14a 3d3d face c53d e87b a23d
00000130: 1614 9f3d b262 1ebe 3c03 463c 8da6 033e
00000140: 55c1 b8bd cdc5 fe3a d03f ff3d 515c 063e
00000150: fbaa 0a3b be38 083e bf51 393d 4bfd 373e
00000160: c2b3 46bd 2daa a93d a400 d6bc 46e4 32bc
00000170: a919 723c 7a65 dbbd b4fe a73d dca4 163d
00000180: 0c38 c93d aa94 32be 3916 c13d 50ff 243e
00000190: 637a db3d 4512 1ebe 73dd 5a3d 7687 bf3d
000001a0: 3087 c9bd de86 dc3b 9846 cb3d a16b 103d
000001b0: dae5 9cbb 12e8 51bd 203d b43d f0b4 a2bd
000001c0: e4c1 ca3d 63c7 f1bd d342 91bd 1999 cebd
000001d0: 5a2f cf3c 58a2 a9bd 4641 363d c719 1c3d
000001e0: 73ff 423d c05b 1c3c 830a 523e 289f a2bd
000001f0: 7edc 4a3e 6e65 8cbc 9fe5 e53d 1623 003d
