trained_model/vae/vae_z-dim_100.pth (torch, 481505 bytes, 10 tensors)

fc1.weight f4 [200, 147]
0	0xbdfc8c74	-0.12331477
1	0xbdd008fb	-0.10157963
2	0xbdb1a322	-0.08673693
3	0x3dcef02d	0.10104404
4	0xbc475c29	-0.012167969
5	0xbc584281	-0.0131994495
6	0x3d869f48	0.06573349
7	0xbce1b560	-0.027552307
8	0xbe52c961	-0.20584632
9	0xbe0bc6aa	-0.13650003
10	0x3db166ee	0.086622104
11	0xbda01024	-0.078155786
12	0xbd40effb	-0.047103863
13	0xbcff1db7	-0.031142099
14	0x3db8b15f	0.09018206
15	0xbdf11127	-0.1177085
16	0x3e02f300	0.1278801
17	0xbc8cab7c	-0.017171614
18	0xbd8663c7	-0.06562
19	0xbc5a3a05	-0.013319497
20	0x3d818ffe	0.063262925
21	0xbd5d296a	-0.053994574
22	0xbd4ebcd2	-0.05047304
23	0x3d13d21c	0.036089048
24	0x3d3b09a4	0.04566349
25	0xbccad0a5	-0.024757693
26	0x3bbbda20	0.0057327896
27	0xbdc761b8	-0.09735435
28	0xbcec6ca2	-0.028860394
29	0x3e6db0aa	0.23211923
30	0x3c5eed43	0.013606372
31	0xbe34cb75	-0.17655738
32	0x3ded50f1	0.11587704
33	0xbd5e7489	-0.054310355
34	0x3de59c98	0.112115085
35	0xbd174c61	-0.036938075
36	0x3ccc294f	0.024922041
37	0xbdb2b3a9	-0.08725674
38	0xbdad26ec	-0.084546894
39	0x3d55d164	0.052201644
40	0x3e098705	0.13430412
41	0x3cfbb751	0.03072706
42	0x3cc4a7cd	0.024005795
43	0xbc27f5b3	-0.01025145
44	0x3dc9712c	0.09836039
45	0xbcebb201	-0.028771402
46	0xbe45e244	-0.19324595
47	0xbd670192	-0.056397982
48	0xbc402794	-0.011728186
49	0x3df4a0e3	0.11944749
50	0x3e3ef5b3	0.18648414
51	0xbcdb68f3	-0.026783442
52	0xbcedf435	-0.029047111
53	0x3bdb1316	0.006685625
54	0xbc103b1a	-0.008803153
55	0xbde76397	-0.11298292
56	0x3b45308c	0.003008875
57	0x3cea6a6f	0.028615205
58	0xbd290ac9	-0.04127005
59	0xbd3782d9	-0.04480252
60	0x3d5d3b9d	0.05401193
61	0x3d39acd1	0.045330826
62	0xbddaad0f	-0.106775396
63	0x3d654d11	0.0559817
64	0x3c2323db	0.009957279
65	0xbc889e2e	-0.016676988
66	0x3d73f6c5	0.05956151
67	0xbc84ef98	-0.016227528
68	0xbd9b7fdd	-0.07592747
69	0x3cf57bcc	0.029966258
70	0xbdd7bef1	-0.10534466
71	0x3dabd4d1	0.08390201
72	0xbd356314	-0.04428394
73	0xbcc70285	-0.024293194
74	0xbd2ac0bb	-0.04168771
75	0xbdaf2fa7	-0.08554011
76	0xbdcdd554	-0.10050455
77	0xbd9c5f15	-0.07635323
78	0xbce9b7dc	-0.028530054
79	0xbc4c6ebe	-0.012477575
80	0xbe1414ed	-0.14461108
81	0xbcbaf234	-0.02282057
82	0xbc7c5c8b	-0.015402923
83	0xbd3dfbaf	-0.046382602
84	0x3d8ccd72	0.06875123
85	0x39883044	0.00025975902
86	0xbe1ba7c7	-0.1520072
87	0x3d4de734	0.05026932
88	0xbd1230ca	-0.03569106
89	0x3ca24442	0.019807938
90	0xbd9fe665	-0.07807616
91	0x3e12d569	0.14339222
92	0x3be2bb5a	0.0069193067
93	0x3d1b6afa	0.037943818
94	0x3d98c83f	0.07460069
95	0xbcb229c8	-0.021748438
96	0x3c60ab3c	0.0137127
97	0xbc6602ff	-0.0140388
98	0x3bbbe236	0.0057337536
99	0x3dd92158	0.10602063
100	0x3c0bb868	0.008527853
101	0x3c317e89	0.010833391
102	0xbd2848b6	-0.041084968
103	0xbd88c6b8	-0.066785276
104	0x3d754a2f	0.0598852
105	0x3c7022fc	0.014656778
106	0xbdb54a8c	-0.08852109
107	0xbdd425ff	-0.1035881
108	0x3d928f07	0.071561866
109	0x3daab389	0.08335025
110	0xbd8ac29e	-0.067754015
111	0x3d769a24	0.060205594
112	0x3d9eef9d	0.07760546
113	0xbe1e9102	-0.15485004
114	0xbd35b14b	-0.044358533
115	0xbbd71df3	-0.0065648495
116	0xbc0d57dd	-0.008626905
117	0xbb5c1d17	-0.0033586675
118	0x3dcb2732	0.09919585
119	0xbd091ad0	-0.033472836
120	0xbdbc22df	-0.09186339
121	0xbdda0b79	-0.106467195
122	0xbccf0dd2	-0.025275145
123	0xbcdd18c6	-0.026989352
124	0xbd78c7e9	-0.060737524
125	0x3dec1c92	0.11528887
126	0x3c94c3a7	0.0181597
127	0x3d6454dc	0.05574499
128	0xbcdf2a31	-0.027241798
129	0xbb30c5dc	-0.0026973402
130	0xbc947708	-0.018123165
131	0x3cdd70a4	0.02703125
132	0xbdb2036c	-0.08692059
133	0x3cec0f6d	0.02881595
134	0x3d10e748	0.035376817
135	0xbc790366	-0.015198564
136	0xbd3e9048	-0.046524316
137	0xba67fbfd	-0.00088495
138	0x3d6367b7	0.055518832
139	0x3cf39c38	0.029737577
140	0xbd9f013d	-0.07763908
141	0x3d0f8246	0.035036348
142	0x3dc50b5b	0.096213065
143	0x3c119e65	0.008887862
144	0xbe0893e5	-0.13337667
145	0xbbc98ad7	-0.006150584
146	0xbca7c975	-0.020481804
147	0xbcae6060	-0.02128619
148	0xbc53aceb	-0.012919645
149	0xbc4a0976	-0.012331357
150	0x3c93f985	0.018063316
151	0x3dbb0356	0.09131496
152	0x3da7936f	0.081824176
153	0x3d8b0c51	0.067894585
154	0x3db29ca3	0.08721282
155	0x3cab3031	0.020897003
156	0x3ca7316c	0.020409308
157	0xbd93a930	-0.07210004
158	0xbbe7665e	-0.0070617637
159	0x3d49d30d	0.04927354
160	0xba6bfd1d	-0.00090022554
161	0xbcaa74c5	-0.020807633
162	0x3ddd71e3	0.10812738
163	0xbdb0844f	-0.08618986
164	0x3dbd9729	0.09257347
165	0xbcdb25a7	-0.026751352
166	0xbd95fc08	-0.07323462
167	0x3d1f2e94	0.03886278
168	0xbab9b4e1	-0.0014168286
169	0x3d20da39	0.039270613
170	0xbdb30f8d	-0.087432005
171	0xbd52d95d	-0.051476825
172	0xbd56185d	-0.05226933
173	0xbc0e95b5	-0.008702685
174	0xbcea7927	-0.028622223
175	0x3d24676e	0.0401377
176	0xbd8c9878	-0.068650186
177	0xbbe8e0e4	-0.007106887
178	0xbbb56f9a	-0.0055369856
179	0xbd297d81	-0.041379455
180	0x3d5e3c68	0.054256827
181	0x38b95879	8.837967e-05
182	0x3d0ca809	0.03433994
183	0x3d881052	0.06643738
184	0x3c1f22fc	0.009712931
185	0xbd06e89e	-0.032936685
186	0xbccfd7bd	-0.025371427
187	0x3dd60325	0.104498185
188	0x3c7ecc37	0.015551618
189	0x3dcab3f0	0.098976016
190	0x3d854e34	0.06509057
191	0xbd0b8ece	-0.034071736
192	0xbcd6abf0	-0.026205033
193	0xbc76d30f	-0.015064969
194	0xbd38f9e4	-0.04516019
195	0x3dd64a46	0.10463385
196	0xbe2289fd	-0.15872951
197	0xbce864d8	-0.028368399
198	0x3d04e155	0.032441456
199	0x3db46ae7	0.088094525
200	0xbc0e8fe8	-0.008701302
201	0x3d981859	0.07426519
202	0x3cd5ef4a	0.026115078
203	0xbc0e4fe5	-0.0086860405
204	0x3d0b7ead	0.034056354
205	0x3cddf242	0.027093057
206	0xbd8a8b56	-0.067648575
207	0x3c514dae	0.012774868
208	0xbca1b3e3	-0.019739097
209	0xbddc932e	-0.1077026
210	0xbc6da05d	-0.014503566
211	0x3e2c7bb1	0.1684406
212	0xbd1df58e	-0.038564257
213	0x3cc06927	0.02348764
214	0xbc80a1cf	-0.015702156
215	0x3d933c53	0.0718924
216	0x3acf35a7	0.0015808836
217	0x3cf18c98	0.029485986
218	0x3d96c50e	0.07361804
219	0xbdf78064	-0.120850354
220	0x3da1fa24	0.07909039
221	0xbd4fef71	-0.05076546
222	0xbd5ad79d	-0.05342828
223	0x3ca6f450	0.02038017
224	0xbceab90e	-0.028652694
225	0x3bd3135a	0.006441516
226	0x3d748499	0.059696767
227	0x3b5a81ce	0.003334153
228	0x3c67792d	0.014128012
229	0xbc7176dd	-0.014737812
230	0xbd238719	-0.03992376
231	0x3d3bd779	0.045859788
232	0xbdfe6049	-0.12420709
233	0xbd4e0128	-0.05029407
234	0x3d6650db	0.056229454
235	0xbd41d39f	-0.04732096
236	0xbcb77709	-0.022395628
237	0xbe0c0e4e	-0.13677332
238	0x3b0ce4c0	0.002149865
239	0xbc11db06	-0.008902317
240	0x3d3560d9	0.044281814
241	0xbc88f3de	-0.016717847
242	0x3db47822	0.08811976
243	0x3d593e51	0.053037945
244	0xbd1bf962	-0.038079627
245	0x3d136153	0.035981487
246	0x3bd654e9	0.006540884
247	0x3c1b392d	0.009474081
248	0x3d6f2c77	0.058392014
249	0xb9573cec	-0.00020526693
250	0x3ca4c403	0.020112997
251	0xbc889830	-0.016674131
252	0xbd10bd52	-0.0353368
253	0x3db94450	0.09046233
254	0xbdc7e9f8	-0.09761423
255	0xbd893885	-0.06700233

fc1.bias f4 [200]
0	0x3d081acc	0.03322868
1	0xbf3bb53b	-0.7332341
2	0xbf202aba	-0.62565196
3	0xbf2ba3a3	-0.67046565
4	0xbf439c11	-0.76410013
5	0xbf08662e	-0.53280914
6	0xbe9ffe70	-0.31248808
7	0xbdf09dc1	-0.11748839
8	0xbf17cf12	-0.5930034
9	0xbe5b7b90	-0.21433854
10	0xbe9b09ba	-0.30280858
11	0xbf111b05	-0.56681854
12	0xbf3dba88	-0.7411275
13	0xbef0cb45	-0.47030082
14	0xbea2bbdf	-0.3178396
15	0xbdb11de1	-0.08648277
16	0xbeae2793	-0.34014568
17	0xbebdd94e	-0.37079853
18	0xbec5d832	-0.38641506
19	0x3b945e11	0.004527815
20	0xbf03fa28	-0.51553583
21	0xbe15c637	-0.14626394
22	0xbe74cd25	-0.23906381
23	0xbf084482	-0.53229535
24	0xbf120fe8	-0.5705552
25	0xbf1c5080	-0.61060333
26	0xbef89999	-0.48554686
27	0xbe9c4aa2	-0.3052569
28	0xbd926034	-0.071472555
29	0xbde95ac1	-0.11394263
30	0xbe5fdedf	-0.21862362
31	0xbe8b5a3e	-0.27217287
32	0xbebba3f6	-0.3664853
33	0xbea034f9	-0.31290415
34	0xbedd5c29	-0.43234375
35	0xbf0ae76d	-0.5425938
36	0xbf1a3ca8	-0.60248804
37	0xbf093ebe	-0.5361136
38	0xbe74e110	-0.2391398
39	0xbe3ca494	-0.18422157
40	0xbe9f0031	-0.31054834
41	0xbedc7e40	-0.4306507
42	0xbe9497a8	-0.29021955
43	0xbe8fa5ab	-0.28056082
44	0xbebabf76	-0.36474198
45	0x3db4cf57	0.088286094
46	0xbf3418d9	-0.70350415
47	0xbd057c5d	-0.032589305
48	0xbe6dc0a8	-0.23218024
49	0xbeca27b8	-0.39483428
50	0xbee91995	-0.4552733
51	0xbebac9bf	-0.36482045
52	0xbe9a1878	-0.30096793
53	0xbf2f6dac	-0.6852672
54	0xbf168f7c	-0.5881269
55	0xbf35a8af	-0.70960516
56	0xbeaa9ad9	-0.33321264
57	0xbdd8a6b2	-0.105786696
58	0xbec67c53	-0.38766727
59	0xbe5a4271	-0.21314408
60	0xbe097b84	-0.13426024
61	0xbed91968	-0.42402196
62	0xbefa503b	-0.48889336
63	0xbeac3253	-0.33632144
64	0xbeebf520	-0.46085453
65	0xbe4f8001	-0.20263673
66	0xbd87d541	-0.06632472
67	0xbeccbbd3	-0.39987049
68	0xbee139ba	-0.43989354
69	0xbe358543	-0.17726617
70	0xbf13213c	-0.57472587
71	0xbf373634	-0.7156708
72	0xbe54cd5b	-0.20781462
73	0xbdd5efd4	-0.10446134
74	0xbe0b660f	-0.13613151
75	0xbeea4ed3	-0.45763263
76	0xbf614531	-0.879962
77	0xbf13db9d	-0.5775698
78	0xbe482a19	-0.19547309
79	0xbe2344ed	-0.15944262
80	0xbeda2fc4	-0.42614567
81	0xbf1a0340	-0.6016121
82	0xbebe1842	-0.37127882
83	0xbf36abb3	-0.7135574
84	0x3dba3dc9	0.09093816
85	0xbf17efef	-0.59350485
86	0xbec0a3c4	-0.37624943
87	0xbf0b526a	-0.5442263
88	0xbe350401	-0.17677309
89	0xbe9b68ef	-0.30353495
90	0xbf58c094	-0.8466885
91	0xbd82b765	-0.06382636
92	0xbe60f203	-0.2196732
93	0xbe8ab7ff	-0.27093503
94	0xbe77917e	-0.24176595
95	0xbe8db743	-0.2767888
96	0xbebe6876	-0.37189072
97	0xbec25f11	-0.37963155
98	0xbf421ed1	-0.7582827
99	0xbe9338f9	-0.28754404
100	0xbe9efa83	-0.310505
101	0xbe9a2832	-0.30108792
102	0xbf54d25c	-0.8313348
103	0xbe9d8b22	-0.30770212
104	0xbf3bbdd2	-0.7333652
105	0xbdd4c2a5	-0.10388688
106	0xbe965d10	-0.29367876
107	0xbde0e4cb	-0.10981139
108	0xbd74ad84	-0.05973579
109	0xbe0035c6	-0.12520513
110	0xbe9d6de3	-0.307479
111	0xbee3ef54	-0.4451853
112	0xbedd018e	-0.4316525
113	0xbea6a0d4	-0.32544577
114	0xbe34dc9f	-0.17662285
115	0xbe8f3a1d	-0.27974024
116	0xbee45f6c	-0.4460405
117	0xbe5f89dd	-0.21829934
118	0xbf0e5107	-0.5559239
119	0xbdf44a75	-0.11928264
120	0xbf389750	-0.72105885
121	0xbe3bb097	-0.18329082
122	0xbf00c680	-0.50302887
123	0xbf06c7ad	-0.5264843
124	0xbe5ddb78	-0.21665752
125	0xbf3a9d18	-0.72895956
126	0xbe447129	-0.19183792
127	0xbf01a07c	-0.50635505
128	0xbe97f0b2	-0.29675823
129	0xbf386b5d	-0.72038823
130	0xbf124f08	-0.5715184
131	0xbe8fcd4d	-0.2808632
132	0x3dd5f3c9	0.10446889
133	0xbe03c612	-0.12868527
134	0xbeefb95a	-0.468211
135	0xbedb4609	-0.4282687
136	0xbefa12b4	-0.48842394
137	0xbf0b6563	-0.5445158
138	0xbf087a90	-0.53312016
139	0xbeb29050	-0.34875727
140	0x3c321666	0.010869598
141	0xbf39a4c2	-0.72517025
142	0xbef0708b	-0.46960863
143	0xbdbd8bdc	-0.09255192
144	0xbf018e30	-0.50607586
145	0xbe14d43a	-0.14534083
146	0xbe7b1bcd	-0.24522324
147	0xbeaaae44	-0.3333608
148	0xbec8324c	-0.39100873
149	0xbed80bcb	-0.42196497
150	0xbeef236e	-0.46706718
151	0xbe1e21a8	-0.15442526
152	0xbedf0caa	-0.4356435
153	0xbea98847	-0.33111784
154	0xbf3bf1ce	-0.7341584
155	0xbd9ccbdd	-0.07656071
156	0xbc5687d7	-0.01309391
157	0xbe000a98	-0.12504041
158	0xbed79fa3	-0.4211398
159	0xbf58e957	-0.8473105
160	0xbec62921	-0.38703254
161	0xbee96614	-0.45585692
162	0xbed8fe83	-0.42381677
163	0xbedbf663	-0.42961416
164	0xbecbd618	-0.39811778
165	0xbf26fbc9	-0.65227944
166	0xbea2b510	-0.31778765
167	0xbea29e5e	-0.3176145
168	0xbf25e4b0	-0.64802074
169	0xbeaa86fd	-0.33306113
170	0xbeaefa1e	-0.341752
171	0xbe7ce2dc	-0.24695915
172	0xbe95913b	-0.29212365
173	0xbec99b94	-0.3937651
174	0xbdbc4476	-0.091927454
175	0xbed1ad85	-0.40952697
176	0xbf3fb7a5	-0.74889594
177	0xbe6ee10a	-0.23328033
178	0xbf228f51	-0.63499933
179	0xbee57a6e	-0.4481997
180	0xbe0b5d87	-0.13609897
181	0xbefb4ac5	-0.49080482
182	0xbf295566	-0.6614593
183	0xbf1a518a	-0.6028067
184	0xbec07e17	-0.375962
185	0xbeb35845	-0.35028282
186	0xbe85adb9	-0.26109102
187	0xbd978839	-0.07399029
188	0xbe88defb	-0.2673262
189	0xbea480e5	-0.3212959
190	0xbef9cef8	-0.48790717
191	0xbe8f3593	-0.2797056
192	0xbcb2ad06	-0.02181102
193	0xbe80e779	-0.251766
194	0xbe7e1ef5	-0.24816497
195	0xbefe0362	-0.49611956
196	0xbe9213e6	-0.28530806
197	0xbeccba3d	-0.3998584
198	0xbeaa579b	-0.33269963
199	0xbf0073d0	-0.50176716

fc2.weight f4 [100, 200]
0	0xbceaf212	-0.028679881
1	0xbcca683d	-0.024707908
2	0x3cab6a42	0.020924691
3	0xbc06fa99	-0.008238458
4	0xbd987056	-0.074433014
5	0x3d5efe5a	0.054441787
6	0xbd07632a	-0.033053555
7	0xbc7db6f5	-0.015485515
8	0x3be879bf	0.0070945914
9	0xbc10f5b1	-0.00884764
10	0x3d056790	0.032569468
11	0x3d85428c	0.065068334
12	0xbc01e113	-0.007927197
13	0x3b029c1a	0.001992947
14	0x3d069ee0	0.03286636
15	0x3ce9ebdc	0.02855485
16	0xbd9e7277	-0.07736676
17	0x3d75c7aa	0.060004868
18	0x3d0dae39	0.03458998
19	0x3b1249d3	0.0022321835
20	0xbd752c75	-0.05985685
21	0x3d5ae0bf	0.05343699
22	0x3ce66796	0.028125565
23	0x3d507a28	0.050897747
24	0x3c8eef6f	0.017448155
25	0x3bfaf6c7	0.0076588127
26	0xbc905b67	-0.017621709
27	0xbd7cef13	-0.061751436
28	0xbcffad40	-0.031210542
29	0x3d56e7c2	0.052467115
30	0x3c846a40	0.016163945
31	0x3cde3106	0.027122986
32	0xbd18eed2	-0.03733713
33	0x3d11c64e	0.03558951
34	0x3d3757ff	0.044761654
35	0x3ca462bd	0.020066613
36	0xba56e4cf	-0.0008197547
37	0xbd976e8d	-0.07394133
38	0x3ac2e5dd	0.001486953
39	0xbd08de01	-0.033414844
40	0x3b84d728	0.004053969
41	0xbd24421f	-0.04010212
42	0x3d0ce765	0.034400363
43	0x3d3f8d52	0.046765633
44	0xbd8bcdbd	-0.06826351
45	0x3c3ac552	0.011399584
46	0xbdcb59a5	-0.09929208
47	0x3ce1c5f4	0.027560212
48	0x3b8ac941	0.004235417
49	0xbd3fb242	-0.04680086
50	0x3cfd34f0	0.030909032
51	0xba05d0dc	-0.000510467
52	0x3c853b68	0.016263679
53	0x39fcde3b	0.0004823076
54	0x3d975d68	0.07390863
55	0xbd4ad633	-0.049520683
56	0x3d4272f8	0.047472924
57	0x3bf50f2f	0.0074786167
58	0x3d837ae5	0.06419925
59	0xbdb46104	-0.08807567
60	0x3d07bc5d	0.03313862
61	0x3cb96388	0.022630468
62	0x3b28f381	0.0025779905
63	0xbc8a50b8	-0.016884193
64	0xbd264747	-0.04059532
65	0x3d85a194	0.06524959
66	0x3ae92a69	0.0017789128
67	0x3d800a3d	0.06251953
68	0x3d21418e	0.03936916
69	0x3d4724e0	0.04861915
70	0x3c13158b	0.008977304
71	0x3d2fb9bb	0.042901736
72	0xbcd479b6	-0.025936943
73	0x3c936523	0.017992562
74	0xbd4c3694	-0.049856737
75	0x3d4dffce	0.050292782
76	0xbcc7ed66	-0.024405193
77	0x3cc846c1	0.0244478
78	0x3d521ca7	0.051296856
79	0x3c9ad91d	0.018902356
80	0x3c41ec4c	0.011836123
81	0xbb91edde	-0.004453405
82	0x3c94f0f2	0.018181298
83	0x3ce8db63	0.028424924
84	0x3d47d745	0.04878928
85	0x3d859f07	0.06524473
86	0xbc58c032	-0.013229417
87	0x3c3fda49	0.011709758
88	0x3d9df589	0.07712848
89	0xbd055b2c	-0.03255765
90	0x3acc22f2	0.0015574379
91	0xbd8a93c4	-0.06766465
92	0xbcfafcf4	-0.030638196
93	0x3d0a52c8	0.033770353
94	0x3b15296c	0.0022760285
95	0xbcbe85af	-0.023257105
96	0x3c7f2cb0	0.015574619
97	0xba1bb500	-0.0005939752
98	0x3b954c4d	0.004556215
99	0x3d6ba30d	0.057528544
100	0xbc93686a	-0.017994124
101	0x3cf8ee53	0.03038708
102	0xbb29a597	-0.0025886053
103	0xbc871e13	-0.016493833
104	0xbd319286	-0.043352626
105	0x3a721442	0.0009234586
106	0xbc7ed635	-0.015554001
107	0xbc66a5a3	-0.014077577
108	0xbd3493f5	-0.044086415
109	0x3cf58029	0.029968338
110	0x3a8b043a	0.0010606118
111	0xbd40c357	-0.04706129
112	0x391545ad	0.00014235704
113	0x3c65bebc	0.014022525
114	0xbd446694	-0.04794939
115	0x3cd07e62	0.025450889
116	0x3c374ee5	0.0111882435
117	0xbc1a0adf	-0.009402006
118	0xbd620e2d	-0.0551893
119	0x3c1acbad	0.009447974
120	0x3d6fd723	0.05855478
121	0xbd12a94e	-0.035805993
122	0x3bc1164e	0.0058925515
123	0x3cb621e5	0.022232959
124	0x3cb1709c	0.021660142
125	0x3c12bc24	0.008955989
126	0xbd05d247	-0.03267124
127	0x3d6eda04	0.058313385
128	0xbd0dbdc0	-0.034604788
129	0x3d206821	0.039161805
130	0x3ca3216a	0.019913394
131	0x3ce07c85	0.027403126
132	0x3c7943b3	0.015213895
133	0x3c764b0a	0.015032539
134	0xbd2ee464	-0.04269828
135	0xbd117b9b	-0.03551827
136	0xbbaa2257	-0.005192082
137	0x3dcc9e61	0.09991146
138	0xbd916419	-0.0709917
139	0xbcca15c6	-0.024668586
140	0x3c58423e	0.013199387
141	0x3a934b06	0.0011237569
142	0x3d067cd4	0.03283389
143	0xbd03e097	-0.032196607
144	0xbd4eebbc	-0.050517783
145	0xbc64e876	-0.013971439
146	0xbde7f5ef	-0.11326205
147	0x3c871075	0.01648734
148	0x3cafa135	0.021439174
149	0xbd8256a0	-0.06364179
150	0xbd59b568	-0.053151518
151	0x3ccc692a	0.02495249
152	0xbcda9622	-0.026682917
153	0xbc5b15c7	-0.013371891
154	0x3cd22433	0.025652027
155	0x3c912380	0.017717123
156	0xbd8e643a	-0.069527104
157	0x3b6eb2c2	0.0036422466
158	0x3c1d4ef8	0.009601347
159	0x3c82f0af	0.015983908
160	0xbca777a0	-0.020442784
161	0x3c60bb77	0.01371657
162	0xbd4b6ebf	-0.049666163
163	0x3cce47c4	0.025180705
164	0x3da49387	0.08035951
165	0x3d81d377	0.06339162
166	0xbc90c704	-0.017673023
167	0xbd0d7d70	-0.034543455
168	0xbd3805a7	-0.044927265
169	0xbdc3dd25	-0.09563664
170	0xbb43eafa	-0.0029894696
171	0xbb2f96e3	-0.0026792816
172	0x3d246ea2	0.04014457
173	0xbd441952	-0.04787571
174	0x3cf7d00f	0.030250577
175	0xbc684996	-0.0141777005
176	0xbc422139	-0.011848741
177	0x3cae611f	0.021286545
178	0xbd1e0382	-0.038577564
179	0xbcce4d47	-0.025183333
180	0xbdb7b69d	-0.089703776
181	0xbbaa1505	-0.005190494
182	0x3c14287d	0.009042856
183	0x3d6b7ee8	0.057494074
184	0xbda75dcb	-0.081721865
185	0xbc8bc51b	-0.01706176
186	0xbd27b21c	-0.040941343
187	0x3d4f60e9	0.05062953
188	0xbc83deb1	-0.016097398
189	0xbca76f2a	-0.02043875
190	0x3c15f1da	0.0091519
191	0x3e071852	0.13192871
192	0x3d1ac8db	0.037789207
193	0x3d66d845	0.056358594
194	0xbcc1bf2c	-0.023650728
195	0x3d2eab5e	0.042643897
196	0xbd6c9b9a	-0.05776558
197	0xbd1f040a	-0.03882221
198	0x3cf35900	0.029705524
199	0x3c32261c	0.010873344
200	0xbd956906	-0.07295422
201	0xbca50804	-0.020145424
202	0x3d6ae08b	0.057343047
203	0x3c66f5bf	0.014096676
204	0x3d05c37d	0.032657135
205	0x3ca2e4e8	0.019884542
206	0xbd1798e0	-0.037011027
207	0xbb5b0d37	-0.0033424625
208	0x3cdd2434	0.026994802
209	0x3d67131b	0.056414705
210	0x3c88f279	0.016717182
211	0x3d25b352	0.040454216
212	0xbd7712be	-0.06032061
213	0x3d795242	0.060869463
214	0x3d9ac2a5	0.07556657
215	0x3c97547f	0.018472908
216	0xbd88d525	-0.06681279
217	0xbd4ec70c	-0.050482795
218	0x3d7ff7d5	0.06249221
219	0xbc080d16	-0.008303901
220	0xbc35dd2f	-0.011100098
221	0x3c58ee79	0.01324045
222	0x3ca80470	0.020509928
223	0x3c128825	0.008943592
224	0x3d5dae24	0.05412115
225	0x3d553e4b	0.05206136
226	0xbd72af4c	-0.059249207
227	0x3c91d39c	0.017801099
228	0xbd834216	-0.06409089
229	0x3c87b5b1	0.01656613
230	0x3ce1c24d	0.02755847
231	0x3c8046a0	0.015658677
232	0xbcf07600	-0.029353142
233	0x3b6cfb14	0.0036160396
234	0xbabd1090	-0.0014424492
235	0xbaecb4af	-0.0018059219
236	0xbcac505c	-0.021034412
237	0xbd279243	-0.04091097
238	0x3c110c40	0.008853018
239	0xbcb4f332	-0.02208862
240	0x3a8c629b	0.0010710539
241	0xbcb05948	-0.021526948
242	0xbd249e83	-0.04019023
243	0xbcf7eec2	-0.030265216
244	0xbaf12547	-0.001839795
245	0x3d28a9d9	0.041177604
246	0xbbd363bf	-0.0064510996
247	0xbc932ad1	-0.017964752
248	0xbcbf9bd4	-0.023389734
249	0xbd1e3d12	-0.03863246
250	0x3b363ade	0.0027806084
251	0xbc75423f	-0.014969408
252	0xbd0296dc	-0.031882152
253	0x3b74bf57	0.0037345493
254	0xbcb5220a	-0.022110958
255	0xbd0f6b08	-0.035014182

fc2.bias f4 [100]
0	0xbdb690f7	-0.089143686
1	0x3ccbdac9	0.024884598
2	0xbe591d71	-0.21202637
3	0x3d659f38	0.056060046
4	0xbda4851a	-0.080331996
5	0x3b1b3ccb	0.0023687358
6	0x3d5d7181	0.054063324
7	0x3c779c13	0.015112895
8	0x3e29d864	0.16586453
9	0xbad53be6	-0.0016268461
10	0x3dfefdfd	0.12450788
11	0x3d65969b	0.05605183
12	0xbdd0c072	-0.10192956
13	0xbcab45a1	-0.020907225
14	0x3db5191d	0.088426806
15	0x3c2e6f8c	0.010646712
16	0xbded55b6	-0.11588614
17	0xbc9546ec	-0.018222295
18	0xbda086f2	-0.07838239
19	0xbd02502a	-0.03181473
20	0x3e0e72a3	0.13910918
21	0x3d825288	0.06363398
22	0xbccd4785	-0.025058517
23	0x3c04d96d	0.008108479
24	0x3d31e27a	0.043428876
25	0x3d03af85	0.03214981
26	0xbc3cea04	-0.011530403
27	0xbe08f563	-0.13374858
28	0xbd2fe4eb	-0.042942923
29	0xb9cf569a	-0.0003954664
30	0xbb54dc4c	-0.003247994
31	0xbe2976a8	-0.1654917
32	0x3d4e34e3	0.050343405
33	0xbd2e56b2	-0.042563148
34	0x3ce5a75a	0.028033901
35	0xbd80126d	-0.062535144
36	0xbcdf4a6a	-0.027257163
37	0x3d699022	0.05702222
38	0xbc86da44	-0.016461499
39	0x3e428386	0.18995485
40	0xbd4da087	-0.05020192
41	0xbb2d402e	-0.002643596
42	0xbccefe88	-0.025267854
43	0x3d931def	0.07183444
44	0x3d4afee5	0.049559493
45	0xbd536cb7	-0.05161735
46	0x3da60678	0.081067026
47	0x3cfc9df4	0.030837037
48	0xbcffd87e	-0.031231161
49	0xbc2b6733	-0.010461616
50	0xbd9d362d	-0.07676349
51	0x3b8a1086	0.0042133955
52	0x3dc0ec7c	0.09420106
53	0x3ccddbbd	0.025129193
54	0xbbfb920d	-0.0076773227
55	0x3dbdbd94	0.09264675
56	0x3d2a0103	0.04150487
57	0x3cc9afd5	0.024619976
58	0xbdfe167a	-0.12406631
59	0x3da6145e	0.081093535
60	0x3be7266e	0.0070541417
61	0xbda5b0b3	-0.08090343
62	0x3c9a87b5	0.018863538
63	0x3c919265	0.017770002
64	0x3c6ec3ee	0.01457308
65	0x3d47992e	0.048730068
66	0xbcd68641	-0.026187064
67	0x3d02f5aa	0.031972565
68	0x3a1351da	0.0005619802
69	0xbd85e2a3	-0.06537368
70	0x3e154976	0.14578804
71	0xbd4bd8ed	-0.049767423
72	0x3d9bdbea	0.07610305
73	0x3cf03177	0.029320462
74	0xbcbd5f75	-0.023116807
75	0x3d0bfda5	0.03417744
76	0x3d90bdbc	0.07067439
77	0xbd0dc718	-0.0346137
78	0x3c05abc9	0.008158633
79	0x3e16af1f	0.14715241
80	0xbc50f9a2	-0.01275483
81	0x3d86df0b	0.06585511
82	0x37ab43c5	2.0416346e-05
83	0xbb1636a7	-0.002292076
84	0xbc5506ec	-0.013002139
85	0xbdcc7ebf	-0.099851124
86	0xbdf7f0b5	-0.12106458
87	0x3db701f4	0.089359194
88	0x3c7f79e8	0.01559303
89	0xbcffbae8	-0.031217054
90	0x3d69a5a1	0.05704272
91	0x3d731ba3	0.05935253
92	0x3de9e9e3	0.114215635
93	0xbd2cb00e	-0.042160086
94	0x3cae6d6a	0.021292407
95	0x3dcc27d9	0.09968538
96	0x3d6d56d5	0.057944138
97	0xbe12e02a	-0.14343324
98	0x3adc0235	0.0016785326
99	0xbe239e33	-0.15978317

fc3.weight f4 [100, 200]
0	0xbb8e1ea0	-0.004337147
1	0x3cba9174	0.022774436
2	0xbc34bb7b	-0.011031027
3	0xbcca643b	-0.024705997
4	0x3c4dbf09	0.012557753
5	0xbb0e7e0b	-0.0021742608
6	0xbd136771	-0.03598732
7	0x3a0baa64	0.00053278194
8	0xbaf58dbf	-0.001873426
9	0x3cc433cd	0.023950482
10	0xbc7ac26a	-0.015305141
11	0xbc1ed42c	-0.00969414
12	0x3c8944c9	0.016756432
13	0xbd49e664	-0.049291983
14	0xba9468fe	-0.0011322794
15	0x3c0dde7c	0.008659001
16	0x3b2bd153	0.0026217296
17	0x3ad95f2c	0.001658415
18	0x3d005c5d	0.031338084
19	0x3b9daf2a	0.004812141
20	0x3b0774fe	0.0020669098
21	0xbbb0d2ae	-0.0053962087
22	0x3ba4bd21	0.0050274287
23	0xbc961825	-0.01832206
24	0xbce7f09b	-0.028312972
25	0xbc0ff3b7	-0.0087861335
26	0x3c34da2b	0.011038343
27	0x3c803119	0.015648412
28	0xbca4c632	-0.020114038
29	0xbc22c476	-0.009934535
30	0xbd06e382	-0.032931812
31	0x3bdab152	0.0066739703
32	0x3d2d7287	0.04234555
33	0xbcb5375a	-0.02212112
34	0xbc6dce28	-0.0145144835
35	0xbbedf267	-0.0072615626
36	0x3bb86029	0.0056266976
37	0x3cfa191d	0.030529553
38	0xbd2243cb	-0.039615434
39	0x3c1daf22	0.009624274
40	0x3a63ae35	0.00086853217
41	0x3d0218de	0.031761996
42	0xbab857d5	-0.0014064262
43	0x3cccae7b	0.024985543
44	0x3c84e5ea	0.016222913
45	0x3b1f7e08	0.0024336595
46	0xbd89d7b2	-0.06730594
47	0x3cf1bfdb	0.02951043
48	0xbc8b3fab	-0.016998133
49	0xbcc614cc	-0.024179839
50	0xbc4a1c54	-0.0123358555
51	0x3b4a0633	0.003082645
52	0x3ca4642f	0.020067303
53	0x3ca3bd4c	0.019987725
54	0x3d2b0b1d	0.041758645
55	0xbd38740b	-0.045032542
56	0xbc3475f8	-0.011014454
57	0xbc891cfb	-0.016737452
58	0x3bcf379c	0.006323768
59	0xbcdef9a0	-0.02721864
60	0xbc379f60	-0.011207432
61	0xbbbc3c6f	-0.005744509
62	0xbb9e74e2	-0.004835711
63	0xbb420b76	-0.0029608882
64	0x3bb93708	0.005652312
65	0x3af11da6	0.0018395677
66	0xbce4c3b5	-0.027925352
67	0xbc506660	-0.012719721
68	0xbc4a9967	-0.0123656755
69	0x3c26e262	0.01018581
70	0xbc97dbbb	-0.018537393
71	0x3b9084ec	0.004410377
72	0x3c4ef1a7	0.012630857
73	0x3cee61e4	0.029099412
74	0x3c3f2d2f	0.011668487
75	0xbaabc5c5	-0.0013105205
76	0x3da6b48a	0.08139904
77	0x3c3cec94	0.011531014
78	0xbb79c5bc	-0.0038112244
79	0x3c4b2c9e	0.012400774
80	0xbc0d585a	-0.008627022
81	0xbd16b179	-0.036790345
82	0x3ccd4c81	0.025060894
83	0x3ca4e4f6	0.020128708
84	0x3a68ed9f	0.0008885506
85	0xbd02a6a2	-0.031897195
86	0xbcd034f9	-0.025415884
87	0xbc275db0	-0.010215208
88	0xba663ee2	-0.0008783174
89	0xbd7ed4d2	-0.06221468
90	0xbc7567a9	-0.014978328
91	0x3b3f50cd	0.0029192448
92	0xbba7f123	-0.0051251813
93	0x3cca4e05	0.024695406
94	0xbc627750	-0.013822392
95	0xbc54c401	-0.012986184
96	0x3c0bcfe4	0.008533452
97	0x3bf82b56	0.0075735254
98	0xbcf27fc2	-0.029601935
99	0x3c701164	0.014652584
100	0xbb8b7845	-0.0042562806
101	0xbd5bb486	-0.053638957
102	0xbb8edb74	-0.004359657
103	0x3c1d083a	0.009584481
104	0xbc5af4d6	-0.0133640375
105	0x3bc1c602	0.005913497
106	0xbcace83a	-0.021106828
107	0xbbbb56e8	-0.005717147
108	0xbcd0054a	-0.025393147
109	0xbcdc6783	-0.026904827
110	0xbcc5b981	-0.024136307
111	0xbc4d1d5e	-0.012519209
112	0xbc3ff281	-0.011715532
113	0x3a62e4a3	0.00086552853
114	0x3cb9488f	0.022617606
115	0xbc35c130	-0.011093423
116	0xbc4e68a2	-0.012598189
117	0x3bec8e61	0.0072191213
118	0xbd50cade	-0.05097472
119	0xbbd0d485	-0.0063729906
120	0xbd31ae2f	-0.043379005
121	0x3d0cd2b7	0.03438064
122	0xbc5d3ea6	-0.013503706
123	0x3c2334de	0.009961335
124	0xbcc343b9	-0.023836004
125	0xbcfe3f2b	-0.03103598
126	0xbd0dd1c1	-0.034623865
127	0x3c8eb6b0	0.017421097
128	0x3cec5e10	0.028853446
129	0xbca13282	-0.019677404
130	0x3cae1a55	0.02125279
131	0xbcdd4bd8	-0.027013704
132	0xbc3e0a2b	-0.011599104
133	0xbbb0c9dc	-0.0053951573
134	0x3c0f5c70	0.008750066
135	0xbb6314d0	-0.0034649856
136	0x3d2e28c4	0.042519346
137	0xbd5e45c5	-0.054265756
138	0xbbbfe6a0	-0.00585635
139	0x3cc17613	0.023615872
140	0xbd2360bc	-0.039887175
141	0xbd3fd973	-0.046838235
142	0x3cf76354	0.03019873
143	0xbb570458	-0.0032808986
144	0x3d769efa	0.060210206
145	0x3d008af2	0.03138251
146	0xbc9b6bdf	-0.018972335
147	0xbccdf3a9	-0.0251406
148	0x3b780570	0.0037845038
149	0x3c27886b	0.010225396
150	0xba90ad62	-0.0011038
151	0x3cc113ac	0.02356895
152	0x3ccb8b5e	0.024846729
153	0x3c12c228	0.008957423
154	0xbcec761c	-0.028864913
155	0xb9ab1b18	-0.00032635848
156	0x3cf52203	0.029923445
157	0xbc252ef4	-0.010081995
158	0xbc358363	-0.011078688
159	0x3c4e2b9f	0.012583642
160	0x3c62ba36	0.013838341
161	0xbcf4a540	-0.029863954
162	0xba0251c4	-0.00049712905
163	0x3d2aff50	0.04174739
164	0xbbe00d0a	-0.006837492
165	0xbb8b2d0a	-0.0042473124
166	0x3ca5b276	0.020226698
167	0xba1835b1	-0.00058063405
168	0xbd764c79	-0.060131524
169	0xbbf3ff28	-0.0074461885
170	0xbcb3e2c1	-0.02195871
171	0x3ce2f404	0.027704246
172	0xbbc7c01e	-0.0060959
173	0x3c043d86	0.008071309
174	0xbc26aec0	-0.0101735
175	0x3c8bea9e	0.017079648
176	0x3cc634ce	0.024195101
177	0x3c8e7df1	0.017394038
178	0x3c4b5fb4	0.012412954
179	0xbc069f68	-0.008216716
180	0xbd4c66e4	-0.04990281
181	0x3d2679d2	0.04064352
182	0x3cbe0395	0.023195067
183	0x3c250646	0.0100722965
184	0xbc923b22	-0.017850462
185	0x3d306cca	0.0430725
186	0x3bb009e4	0.005372273
187	0x3c16ee26	0.009212052
188	0x3cb5bb19	0.022183942
189	0xbc147859	-0.009061896
190	0xbbd53540	-0.006506592
191	0xbc3b8f76	-0.011447778
192	0x3c986bbf	0.018606065
193	0xbbdd680c	-0.006756788
194	0x3d0e72d1	0.034777466
195	0xbd2df900	-0.042473793
196	0x3d389b7f	0.045070168
197	0xbbae4c69	-0.0053191674
198	0x3b8325d3	0.0040023117
199	0x3ae04697	0.0017110881
200	0x3bd6f931	0.0065604676
201	0x3c4de0f9	0.012565845
202	0xbd0b3723	-0.03398813
203	0xbc1cf50a	-0.009579906
204	0x3cfd10f0	0.030891865
205	0xbc717251	-0.014736728
206	0x3c94059e	0.018069085
207	0x3c0ea310	0.008705869
208	0xbcba3d04	-0.022734173
209	0x3c953269	0.018212514
210	0xbd0c9f3a	-0.034331538
211	0xbd488777	-0.048957314
212	0x3ce773ee	0.028253522
213	0xbd7bb18d	-0.061448622
214	0x3c44139a	0.011967564
215	0x3ba85663	0.005137251
216	0xbcd78e31	-0.02631292
217	0x3c7e6b35	0.01552849
218	0x3d4c34db	0.049855094
219	0xbd2f70a0	-0.042832017
220	0x3c5637b2	0.013074802
221	0x3b9e9476	0.0048394753
222	0x3c7cedad	0.015437526
223	0x3d30a9af	0.043130573
224	0x3b5b399a	0.0033451081
225	0x3d37c28d	0.044863272
226	0xbcfcf6b8	-0.030879363
227	0x3c5b023e	0.013367234
228	0xbbf22ad8	-0.0073903613
229	0xbb2befd8	-0.0026235487
230	0x3c999730	0.01874885
231	0xbc8fcf16	-0.017554801
232	0x3ce5e132	0.028061483
233	0x3d071823	0.032982003
234	0x3ce8a159	0.028397249
235	0x3d96bfee	0.073608264
236	0xbce27f1d	-0.027648503
237	0xbc22b6da	-0.0099312905
238	0xbcb04157	-0.021515531
239	0xbc87d5f0	-0.016581506
240	0x3c699f31	0.014259146
241	0x3c3d380a	0.011549005
242	0xbc8830a0	-0.016624749
243	0x3d2ca228	0.04214683
244	0xbc987020	-0.018608153
245	0xbb90c99f	-0.0044185664
246	0x3d3a4672	0.045477338
247	0xbc15cd38	-0.009143166
248	0xbc30f10c	-0.010799658
249	0xbd96dd0d	-0.07366381
250	0xbcdab758	-0.026698753
251	0x3bc359ec	0.0059616473
252	0x3c78ffb2	0.015197681
253	0xbc05b4d3	-0.008160788
254	0x3c61e547	0.013787574
255	0x3d28846c	0.041141912

fc3.bias f4 [100]
0	0xbd351c70	-0.044216573
1	0xbd1b3e5d	-0.03790127
2	0x3ca097ce	0.019603636
3	0xbd8ad3df	-0.067786925
4	0xbe8c4271	-0.2739444
5	0xbe648c3e	-0.22319123
6	0xbe933749	-0.28753117
7	0xbcfdbb30	-0.030973047
8	0xbdc2644f	-0.094917886
9	0xbda32ec5	-0.07967905
10	0xbd357228	-0.04429832
11	0xbd49a5f3	-0.049230527
12	0xbd81516c	-0.06314358
13	0xbe6402e0	-0.22266722
14	0x3c3d2352	0.011544066
15	0xbdaafcd0	-0.083490014
16	0x3d03718f	0.03209072
17	0xbd3c8daa	-0.04603354
18	0xbd450139	-0.04809687
19	0xbcf517de	-0.029918607
20	0xbd7c7378	-0.061633557
21	0xbd841afe	-0.06450461
22	0xbe9dfa1d	-0.30854884
23	0x3c83d374	0.01609204
24	0xbd9ca045	-0.076477565
25	0xbdc4c97c	-0.096087426
26	0xbd377ba2	-0.04479564
27	0xbeaf00b5	-0.34180227
28	0xbe215705	-0.15755852
29	0xbeb08d71	-0.3448291
30	0xbd0b7215	-0.034044344
31	0xbdaf27e0	-0.085525274
32	0xbdfdda2d	-0.12395129
33	0xbe76c852	-0.24099854
34	0xbd81023e	-0.06299256
35	0xbcc4df60	-0.024032295
36	0xbd786d2e	-0.060650997
37	0xbebceb66	-0.36898345
38	0xbc986000	-0.018600464
39	0xbe71549d	-0.23567434
40	0xbd957944	-0.0729852
41	0xbce63617	-0.028101964
42	0xbe97e9ac	-0.29670465
43	0xbdc1ccbd	-0.09462879
44	0xbd352a21	-0.04422963
45	0x3cbd92d9	0.023141311
46	0xbdb5977d	-0.08866785
47	0xbdb3c91d	-0.08778594
48	0xbda684fc	-0.081308335
49	0xbe4865e2	-0.19570115
50	0xbd8a8f75	-0.067656435
51	0xbd987c9f	-0.074456446
52	0xbe107e98	-0.14110792
53	0xbe878f48	-0.26476502
54	0xbd30cf25	-0.0431663
55	0xbd4ee246	-0.05050876
56	0x3d086182	0.033296116
57	0xbe3029f6	-0.17203507
58	0xbda7e86d	-0.081986286
59	0xbd83fb38	-0.064444005
60	0xbcf6e54f	-0.03013864
61	0xbd569f2d	-0.052397896
62	0xbda57d56	-0.080805466
63	0xbd1cbbe3	-0.03826512
64	0xbc95f9ba	-0.018307555
65	0xbdc79921	-0.09746004
66	0xbe4aee83	-0.19817548
67	0xbe2ccad2	-0.16874245
68	0xbd984bf4	-0.07436362
69	0xbdaf0ff3	-0.08547964
70	0xbe785aa8	-0.24253333
71	0xbda91fc7	-0.08258014
72	0xbe8a5dca	-0.2702468
73	0xbcf1bb7f	-0.02950835
74	0xbdbc7193	-0.0920135
75	0x3c67b039	0.014141136
76	0xbd3d6a77	-0.04624411
77	0xbded882a	-0.11598237
78	0x3cdfd50c	0.027323268
79	0xbb54fca7	-0.0032499225
80	0xbdc7b17a	-0.09750648
81	0xbeacbfc1	-0.33740047
82	0x3c1167f6	0.008874884
83	0xbd7568f6	-0.05991455
84	0xbcea0f52	-0.028571758
85	0xbe1baa07	-0.15201579
86	0xbc8fc6cc	-0.017550848
87	0xbde069b6	-0.10957663
88	0xbc6eda85	-0.014578466
89	0xbd4a9c6e	-0.04946559
90	0xbe38bedd	-0.18041559
91	0xbe0e36a6	-0.13888034
92	0xba150b69	-0.0005685599
93	0xbdace0f4	-0.08441344
94	0xbe975cd6	-0.29563016
95	0xbe247b52	-0.16062668
96	0xbe69e6ef	-0.22842
97	0xbe3f1969	-0.18662037
98	0xbe04fa41	-0.1298609
99	0xbcac1cb2	-0.021009777

fc4.weight f4 [200, 100]
0	0xbd109f01	-0.035307888
1	0xbe0e5815	-0.13900788
2	0xbb6ba29b	-0.0035955075
3	0x3d1dfd5c	0.0385717
4	0xbf49e729	-0.7886835
5	0xbe6d7686	-0.23189744
6	0xbe3064f8	-0.17226017
7	0xbcdcd359	-0.026956247
8	0x3d02cf94	0.031936243
9	0x3df1759d	0.11790011
10	0xbcabcdce	-0.020972159
11	0xbd3e9365	-0.046527285
12	0xbd02fbfb	-0.03197859
13	0x3d2a285d	0.0415424
14	0xbd54d446	-0.051960252
15	0x3c389486	0.0112658795
16	0xbc9872c8	-0.01860942
17	0xbce71a6a	-0.028210837
18	0x3cc2e93b	0.023792854
19	0x3b4109c9	0.0029455295
20	0xbc22b088	-0.009929784
21	0xbda4f798	-0.08055037
22	0xbe49ae4c	-0.19695395
23	0x3d1c4a43	0.03815676
24	0xbe510002	-0.20410159
25	0x3db0ec3a	0.08638807
26	0xbb96c7a2	-0.004601435
27	0x3f0dee46	0.554417
28	0xbe18bf05	-0.14916618
29	0xbf04c200	-0.5185852
30	0x3c920a1d	0.017827088
31	0x3dce18e9	0.10063345
32	0xbd9979b4	-0.07493916
33	0xbcf2fd87	-0.029661907
34	0x3bc0f595	0.0058886507
35	0x3cd18138	0.025574312
36	0xbe101ea3	-0.14074187
37	0x3fcbcf1a	1.5922577
38	0x3b0c1f1a	0.0021380843
39	0x3cbcf907	0.023067964
40	0xbd464b07	-0.048411395
41	0xbd96694b	-0.07344302
42	0x3ee3f2f3	0.44521293
43	0x3ddd3d8b	0.10802754
44	0xbc79b4e0	-0.015240878
45	0xbda03df4	-0.078243166
46	0xbd1e762b	-0.038686913
47	0xbccb291d	-0.024799878
48	0xbd6a7ade	-0.05724608
49	0xbdc6a16e	-0.09698759
50	0x3d42b81e	0.04753887
51	0x3db650f2	0.08902158
52	0xbe01ab43	-0.12662987
53	0x3eca4eef	0.39513347
54	0x3d9661df	0.07342886
55	0xbddd9e6e	-0.10821234
56	0x3d1ca78c	0.038245723
57	0xbe8b078b	-0.27154192
58	0xbd2fbde4	-0.042905703
59	0xbdb170ff	-0.086641304
60	0xbcf9aeed	-0.030478919
61	0x3c963c84	0.018339403
62	0x3d9995bd	0.074992634
63	0xbd4167d6	-0.047218166
64	0x3c78b3d7	0.015179596
65	0x3d1589ba	0.0365083
66	0x3f2e0717	0.6797957
67	0xbf3f1ecc	-0.7465637
68	0x3dede4b4	0.11615887
69	0x3d16adb2	0.036786743
70	0x3e71d747	0.23617278
71	0xbdeda17f	-0.116030686
72	0x3f53ab13	0.82682914
73	0xbd23b8c6	-0.039971136
74	0xbdf1da7c	-0.11809251
75	0x3d33b7f3	0.0438766
76	0xbd84462c	-0.06458697
77	0x3d8c8842	0.068619266
78	0x3c501d97	0.012702367
79	0xbd32a679	-0.043615792
80	0xbd1c4d4d	-0.038159657
81	0x3e1a94b7	0.15095793
82	0x3cca1e45	0.024672637
83	0x3d37b2fd	0.04484843
84	0x3d3874ef	0.04503339
85	0xbdbc9dda	-0.09209795
86	0xbbc92726	-0.0061387
87	0xbd8eb4a2	-0.06968047
88	0xbc78e10a	-0.015190372
89	0x3d98540e	0.07437907
90	0xbc3cbad7	-0.011519155
91	0xbd4c4226	-0.04986777
92	0x3da6c849	0.0814367
93	0x3df8d2e0	0.12149596
94	0x3d14e3d8	0.0363501
95	0x3e0b2dbf	0.1359167
96	0x3e12cb51	0.14335372
97	0xbedfe05e	-0.43725866
98	0x3e5e06d5	0.21682294
99	0x3d7015c4	0.058614507
100	0x3dd2aee4	0.10287264
101	0xbd10846b	-0.035282534
102	0xbe41bb97	-0.18919216
103	0xbddfdacc	-0.10930404
104	0xbef0b527	-0.47013208
105	0x3fae5bad	1.3621727
106	0xbfbb3093	-1.4624199
107	0x3d9bed8d	0.076136686
108	0x3c22415e	0.00990328
109	0xbea6baec	-0.32564485
110	0x3de00128	0.109377205
111	0x3dd50fcb	0.10403403
112	0x3e677a39	0.22605218
113	0x3e450e06	0.19243631
114	0x3ddae11c	0.106874675
115	0xbd8145b3	-0.06312122
116	0xbcc7c448	-0.024385586
117	0x3da3090b	0.07960709
118	0xbdc5dbe0	-0.096610785
119	0x3e1101dc	0.14160866
120	0xbdeca639	-0.11555142
121	0x3d95394c	0.07286319
122	0x3fb1978e	1.3874376
123	0xbdb402ef	-0.08789622
124	0x3daf3c84	0.08556464
125	0xbd586a6c	-0.052835867
126	0x3e07bd37	0.13255773
127	0xbfd0a6d1	-1.6300908
128	0x3d209c05	0.03921129
129	0xbfa53259	-1.290599
130	0x3dfb1b6f	0.12261092
131	0xbe79e2db	-0.24402945
132	0xbd8880d9	-0.06665201
133	0xbea84d8c	-0.32871664
134	0x3e4f38de	0.20236537
135	0xbe30aef7	-0.17254244
136	0x3e04f739	0.12984933
137	0xbe01e1f9	-0.12683858
138	0xbdb48f1b	-0.08816358
139	0x3f9529b5	1.1653353
140	0x3e3f7b88	0.18699467
141	0x3e23b2af	0.15986131
142	0x3fbb9d9c	1.4657474
143	0xbe0cc19f	-0.13745736
144	0xbce15834	-0.027507879
145	0xbd0da897	-0.034584608
146	0x39fb0697	0.0004787936
147	0x3d90fe0a	0.07079704
148	0x3da04667	0.07825928
149	0xbe05cb95	-0.13065942
150	0x3be0ba7e	0.006858169
151	0xbe459f20	-0.19298983
152	0x3e68d6da	0.2273821
153	0xbf09931c	-0.53740096
154	0xbe61a981	-0.22037317
155	0x3c493321	0.0122802565
156	0xbdb3ccbc	-0.08779284
157	0xbd9c0255	-0.07617632
158	0x3df9f4e1	0.1220491
159	0x3de478eb	0.11155876
160	0xbe1f0064	-0.15527493
161	0x3d911eac	0.07085928
162	0x3d372858	0.04471621
163	0x3d96f28f	0.07370483
164	0x3c00b0b4	0.007854629
165	0xbe5f1c3a	-0.21788111
166	0x3dfaa74d	0.12238941
167	0x3e8bc92c	0.2730192
168	0x3c5a4157	0.013321242
169	0x3cff3c85	0.031156788
170	0x3e7aaef9	0.2448081
171	0x3e41bdf6	0.1892012
172	0x3f2dc717	0.6788191
173	0xbd9e5cdd	-0.07732556
174	0x3ec5ceba	0.38634282
175	0xbd8ab452	-0.067726746
176	0xbda6c981	-0.081439026
177	0x3dc2db96	0.09514539
178	0x3dd79864	0.10527113
179	0xbd1269ca	-0.03574542
180	0x3e724a95	0.23661263
181	0x3f96c5c5	1.1779104
182	0xbd4b157d	-0.04958104
183	0xbe224034	-0.15844804
184	0x3d92d027	0.07168608
185	0xbdf18e4d	-0.1179472
186	0xbce28afa	-0.02765416
187	0x3daaabd6	0.08333556
188	0xbd8b543d	-0.068031766
189	0xbdf911b9	-0.121615835
190	0xbe53af21	-0.20672275
191	0xbbdffc43	-0.006835492
192	0xbe072ea3	-0.13201384
193	0xbde6cfc5	-0.11270098
194	0xbfa13b24	-1.2596173
195	0x3e506eaf	0.20354722
196	0x3e91bf5b	0.28466305
197	0x3efa6cc7	0.48911116
198	0xbed876ed	-0.42278233
199	0xbd635b25	-0.055506844
200	0xbcfdb6e2	-0.030970994
201	0xbb83368c	-0.004004305
202	0xbc8e6e83	-0.01738668
203	0x3d0b8710	0.034064353
204	0x3f2ee348	0.68315554
205	0x3e8f97ab	0.280454
206	0xbf18dc4c	-0.59711146
207	0xbd2083cd	-0.039188195
208	0xbdce045c	-0.10059425
209	0xbd7b60e0	-0.061371684
210	0x3d538513	0.05164058
211	0x3c8f07cf	0.017459778
212	0xbd5cbcb2	-0.05389089
213	0xbe030596	-0.127951
214	0x3c51eab4	0.012812305
215	0x3c498088	0.012298711
216	0xbd227153	-0.039658856
217	0x3d247161	0.04014719
218	0x3cada36e	0.021196093
219	0xbdbc0688	-0.09180933
220	0x3d029060	0.031875968
221	0x3caf84ed	0.021425689
222	0x3f01360d	0.504731
223	0xbc918af5	-0.017766455
224	0xbe16e94f	-0.14737438
225	0x3dc80efc	0.09768483
226	0xbd55cd6c	-0.05219786
227	0xbf651d34	-0.89497685
228	0xbd9c35af	-0.07627427
229	0x3ff67351	1.9253942
230	0x3cefaa44	0.029255994
231	0xbdbe44bb	-0.09290453
232	0x3d891c59	0.0669486
233	0xbe1b201f	-0.15148972
234	0x3ea57bbe	0.3232097
235	0x3aac6a8e	0.0013154314
236	0xbd4e331e	-0.050341718
237	0xbfc375e1	-1.5270349
238	0xbbca17dc	-0.006167395
239	0xbf0e9c21	-0.55706984
240	0x3ca5df7c	0.020248167
241	0x3d298b1e	0.041392438
242	0xbd47330d	-0.04863267
243	0xbd31fd43	-0.04345442
244	0xbbea0b1a	-0.0071424367
245	0x3d19c119	0.037537668
246	0x3df06c44	0.117394
247	0x3d8aaf95	0.06771771
248	0xbd2421c8	-0.04007128
249	0x3de6039e	0.11231159
250	0xbc311e75	-0.010810484
251	0x3e3fcfdb	0.18731634
252	0x3d8b87d9	0.0681302
253	0xbf185d12	-0.59517014
254	0xbd4a32a0	-0.049364686
255	0xbc4295e2	-0.011876555

fc4.bias f4 [200]
0	0xbfb70a95	-1.4300104
1	0x3ffef716	1.9919155
2	0xbfd76ccc	-1.6830077
3	0xc00aecd7	-2.1707056
4	0x3fa432b6	1.2827976
5	0xbfe822b2	-1.8135588
6	0xbed80f10	-0.42198992
7	0x3fc13ca0	1.5096626
8	0x3f0faf9e	0.56127346
9	0x3fc687cb	1.5510191
10	0xbf550e6c	-0.8322513
11	0xbf859f97	-1.0439328
12	0xbfa6bafb	-1.3025812
13	0xbedc5b79	-0.43038538
14	0xbe103e35	-0.1408623
15	0xc063acd3	-3.5574234
16	0xc02a81a5	-2.6641629
17	0xc00786d8	-2.1176052
18	0xbec2804b	-0.37988505
19	0xbf53bb9d	-0.8270815
20	0xbed4cc59	-0.41562155
21	0xbf93e872	-1.1555312
22	0xbf4c768d	-0.79868394
23	0xbf177f65	-0.59178764
24	0xbfab917b	-1.3403772
25	0xbf5df6dd	-0.8670481
26	0xbf89c311	-1.0762655
27	0xc01ccb10	-2.449894
28	0xbf0406ff	-0.51573175
29	0x3d1c8d98	0.03822097
30	0xc0001e51	-2.0018504
31	0xc012da7f	-2.294586
32	0xbeae5d29	-0.3405545
33	0x3fac95ce	1.3483217
34	0xbe5f2a77	-0.21793543
35	0xc01021a7	-2.252054
36	0xbfac4ede	-1.3461568
37	0x3f24812f	0.6425962
38	0xbf1c753b	-0.6111638
39	0xc02537a7	-2.5815217
40	0xc0109671	-2.2591822
41	0x3aac1321	0.001312826
42	0x3d89c73c	0.06727454
43	0xbfb2f4e8	-1.398099
44	0xbf57e149	-0.8432813
45	0xc01b98db	-2.4312046
46	0xbecb6bd1	-0.39730695
47	0x3fa3a325	1.2784163
48	0xbf3d62e2	-0.7397901
49	0x3fa8e5df	1.3195151
50	0xc0366d3f	-2.8504179
51	0xc0035d41	-2.0525668
52	0xbf25dedb	-0.64793175
53	0xbf46a5f3	-0.7759697
54	0xbf5537db	-0.83288354
55	0xbfd5383b	-1.6657785
56	0xbde4b9cf	-0.11168253
57	0xbf8ce1c3	-1.1006397
58	0xbf8f46af	-1.1193446
59	0x3fd562e6	1.6670806
60	0xc062521b	-3.5362613
61	0x3dcb80b9	0.09936661
62	0xbf8232ca	-1.017175
63	0xbfde781e	-1.7380407
64	0xbff8908f	-1.9419116
65	0xbf48b095	-0.7839444
66	0xc00e55b0	-2.22398
67	0xbf812e6e	-1.0092294
68	0xbef7b04d	-0.48376694
69	0xbf08e2f7	-0.5347132
70	0xbfe722e9	-1.8057529
71	0xbfbcce4f	-1.475046
72	0xbeef6009	-0.46752957
73	0xbf5aba0a	-0.85440123
74	0xbf9d2fb4	-1.2280183
75	0xbf4deb20	-0.804369
76	0xbf621e4b	-0.88327473
77	0x3f8d0926	1.1018417
78	0xbe7e591a	-0.24838677
79	0xbf7d6a0b	-0.98989934
80	0xbfa9f3f0	-1.3277569
81	0xbf802ed5	-1.0014292
82	0xbf50e81b	-0.81604165
83	0xbf9d5264	-1.2290769
84	0xbd95f95c	-0.07322952
85	0xbde28a06	-0.11061482
86	0xbf1040fe	-0.5634917
87	0xbf8b3adc	-1.0877337
88	0xbf90f136	-1.1323612
89	0xbe279f18	-0.16369283
90	0x3eefbfe4	0.46826088
91	0xc030503e	-2.7548976
92	0xbf22037a	-0.63286555
93	0xc014e76d	-2.326625
94	0xbf1b6a46	-0.60709035
95	0xc01ae7f4	-2.4204073
96	0x3ed29cf0	0.4113536
97	0xbefe1c02	-0.49630743
98	0xbf8e523a	-1.1118844
99	0x3f4816b4	0.7815964
100	0x3fb5bcfa	1.4198296
101	0x3f4146fe	0.7549895
102	0x3fcd88ea	1.6057408
103	0xbf3537da	-0.7078835
104	0xc0118e4f	-2.2743108
105	0xbfbd106f	-1.477064
106	0xbf38b0bc	-0.72144675
107	0xbf413d82	-0.7548448
108	0xbf199bb5	-0.60003215
109	0xbf9983d3	-1.1993355
110	0xbf7e44b3	-0.99323577
111	0xbf9ebbf2	-1.2401106
112	0xc0627882	-3.5386052
113	0xbf605a38	-0.8763766
114	0xc01e529b	-2.4737918
115	0xc027c6a4	-2.621499
116	0xbf4ea3c0	-0.8071861
117	0x3eb74f36	0.3580262
118	0x3f3ef63d	0.7459448
119	0xbf7c05b8	-0.98446226
120	0xbf63e35c	-0.890188
121	0xc0089dcf	-2.1346319
122	0x3f235fab	0.6381785
123	0xbf5820ee	-0.84425247
124	0x40004263	2.004052
125	0xc0441312	-3.063664
126	0xbf62b722	-0.8856069
127	0xbfa7860c	-1.3087783
128	0xbeec1ba7	-0.46114847
129	0x3f92a20b	1.1455702
130	0xbfe99c3a	-1.8250802
131	0x400720d1	2.111378
132	0x3fc2cbbb	1.5218424
133	0xbfd44978	-1.6584921
134	0xbf66f5a0	-0.90218544
135	0x3fd9bef1	1.7011396
136	0x3f710270	0.94144344
137	0xbf134f5e	-0.5754298
138	0xbf77ac5e	-0.96747386
139	0x3fe05f54	1.7529092
140	0xbfcdc399	-1.6075317
141	0xc01c909d	-2.4463265
142	0xbf1731fb	-0.5906064
143	0xbf100f4c	-0.5627334
144	0xbf7d4559	-0.9893394
145	0xbfcda8a7	-1.6067094
146	0x401d6351	2.4591868
147	0xbfc78121	-1.5586282
148	0xbfe9a61c	-1.8253818
149	0xbf270a34	-0.65249944
150	0xbf0c1674	-0.5472176
151	0xbf9b3978	-1.2126913
152	0xc001c17e	-2.0274348
153	0x3f0d6c8c	0.55243754
154	0xbf03c4ea	-0.5147234
155	0x3f2fb3fd	0.68634015
156	0xbfc4c653	-1.5373024
157	0xbf71f951	-0.9452105
158	0x3fed7315	1.8550745
159	0xbf0cd0aa	-0.55005896
160	0x3fcd0f3e	1.6020277
161	0xbf1fe6ed	-0.6246174
162	0xbfa25945	-1.2683493
163	0xbf639f54	-0.8891499
164	0xc02cbd6f	-2.699062
165	0xbf620270	-0.8828497
166	0xbf993f6e	-1.1972482
167	0x3f073707	0.5281834
168	0xbf6c4cbe	-0.923046
169	0xbf291592	-0.6604854
170	0xbf1c12d5	-0.60966235
171	0xbf73194b	-0.9496047
172	0xc024bd9c	-2.5740728
173	0xc028f1d7	-2.6397607
174	0x3e396b3e	0.18107316
175	0xbeadee6e	-0.3397097
176	0xbf659286	-0.896767
177	0xbfde4114	-1.736361
178	0xbea7129c	-0.32631385
179	0xbf0c24be	-0.54743564
180	0xbf924f2c	-1.1430411
181	0xbd5ffdff	-0.05468559
182	0xbf321e42	-0.6957742
183	0xbfb69cc1	-1.4266587
184	0xc00e7597	-2.225927
185	0x3f3f0a63	0.74625224
186	0x3f97b335	1.1851565
187	0xbf67d8a9	-0.9056497
188	0xbf32ebec	-0.6989124
189	0xbf2ff63a	-0.68735087
190	0xc008dd72	-2.138516
191	0xbf91c6b7	-1.1388768
192	0xbf95bf34	-1.1698976
193	0xbf9fa3a3	-1.2471813
194	0xbff5a934	-1.9192262
195	0x3f750b19	0.9572006
196	0xbf9782b3	-1.1836761
197	0xbcd02b96	-0.025411408
198	0xc0004c95	-2.0046742
199	0x403aa8a7	2.9165437

fc5.weight f4 [147, 200]
0	0xbd92477d	-0.071425416
1	0x3cb6ca8c	0.022313379
2	0x3e673c05	0.2258149
3	0xbe9fd80b	-0.31219515
4	0x3d2c25ee	0.04202836
5	0xbee78ef1	-0.45226243
6	0xbe370cd9	-0.17875995
7	0xbc2fd639	-0.010732227
8	0xbca19f4b	-0.019729277
9	0x3bc27d3d	0.0059353397
10	0x3caefbdd	0.021360332
11	0xbd11d348	-0.035601884
12	0xbd967407	-0.07346349
13	0x3dccec3f	0.10005998
14	0x3c984880	0.018589258
15	0xbeffaf57	-0.4993846
16	0xbe05cf81	-0.13067438
17	0xbe52bbbe	-0.2057943
18	0xbe9dd379	-0.30825403
19	0x3e222a00	0.15836334
20	0x3d34c5d6	0.044133984
21	0xbd70528e	-0.05867248
22	0xbda6551b	-0.08121701
23	0x3c45edf7	0.012080661
24	0x3dacd535	0.084391035
25	0x3c00e7a1	0.007867725
26	0x3eed1473	0.46304664
27	0xbd9c87fa	-0.07643123
28	0xbd75542e	-0.059894733
29	0xbcad01fa	-0.021119107
30	0xbd2ed51a	-0.0426837
31	0xbc55ec27	-0.013056791
32	0x3d2d3f6e	0.04229682
33	0xbd1942f3	-0.037417363
34	0xbd3d26dc	-0.046179637
35	0xbda90919	-0.08253688
36	0xbe1b4512	-0.15163067
37	0x3ca8fbb4	0.020627834
38	0xbf9252a6	-1.1431472
39	0xbe68d02e	-0.22735664
40	0x3d9ab1bb	0.07553431
41	0xbce04545	-0.02737678
42	0xbbaa47cc	-0.005196547
43	0x3e695b56	0.22788748
44	0xbebc537a	-0.36782438
45	0xbdd80706	-0.105482146
46	0x3c937bac	0.018003307
47	0xbcf7a5c1	-0.030230405
48	0xbd9e1074	-0.07717982
49	0x3bd54a0f	0.0065090726
50	0xbe435b04	-0.19077688
51	0xbeb908f8	-0.36139655
52	0xbeb9f7b6	-0.363218
53	0x3d8e1276	0.06937115
54	0xbe9e5ad4	-0.3092867
55	0x3e5ea7f3	0.21743755
56	0x3c199593	0.00937404
57	0x3dc70859	0.09718389
58	0xbe4deb67	-0.2010933
59	0x3be6d930	0.0070449337
60	0xbe31e825	-0.17373712
61	0x3d13ebeb	0.03611366
62	0x3c12a790	0.008951083
63	0xbe047ddf	-0.12938641
64	0xbc998ee9	-0.018744903
65	0xbd2eae2b	-0.04264657
66	0xbf0e0348	-0.55473757
67	0xbc8da726	-0.017291617
68	0x3d6cf325	0.05784907
69	0x3d1434ca	0.036183156
70	0x3d74d639	0.05977461
71	0x3e69388f	0.22775482
72	0xbd9b9808	-0.07597357
73	0x3caac4ed	0.020845855
74	0xbec47ce6	-0.3837654
75	0xbc93f6dc	-0.018062048
76	0x3e24aa9d	0.16080709
77	0xbc78cfab	-0.015186231
78	0x3e126ea5	0.1430002
79	0x3d9356c6	0.07194285
80	0xbf4aec89	-0.79267174
81	0x3e6b8981	0.23001672
82	0x3e4424d2	0.19154671
83	0x3e38ebe5	0.18058737
84	0x3c6c8faf	0.014438554
85	0x3c21085d	0.009828654
86	0xbec3520d	-0.38148537
87	0xbbd91141	-0.0066243713
88	0xbcb6a825	-0.022296974
89	0xbd26b62f	-0.040701088
90	0xbdbf08f6	-0.09327881
91	0xbe7882b3	-0.24268608
92	0xbe7d5bd1	-0.24742056
93	0xbf2a1403	-0.66436785
94	0xbc80364e	-0.015650894
95	0xbe087d27	-0.13328992
96	0xbd31a08f	-0.04336601
97	0xbed42a57	-0.41438553
98	0x3e4b7a87	0.19870959
99	0x3cc196c3	0.02363146
100	0xbccc99f6	-0.024975758
101	0xbd24299d	-0.040078748
102	0xbd01f38b	-0.0317264
103	0xbddf106f	-0.10891806
104	0xbd60aa77	-0.054850068
105	0x3d025da7	0.031827595
106	0xbe5016ae	-0.20321152
107	0xbe33e4ca	-0.17567745
108	0xbea1baf1	-0.31587937
109	0x3c989b81	0.018628838
110	0x3d89cb23	0.067281984
111	0xbd87df87	-0.06634431
112	0xbcf6fb1f	-0.03014904
113	0xbd596455	-0.0530742
114	0xbf1331ee	-0.5749806
115	0xbec63add	-0.38716784
116	0x3e05fdc8	0.13085091
117	0x3bdc8fc6	0.0067310063
118	0xbae75079	-0.0017647884
119	0x3d288a3f	0.041147467
120	0x3e657f47	0.22411834
121	0xbe8a1bc0	-0.26974297
122	0xbcde094d	-0.027104044
123	0x3d70dc02	0.058803566
124	0xbd01e94e	-0.031716637
125	0xbe909db7	-0.28245327
126	0x3dac1ef6	0.08404343
127	0xbe859e44	-0.2609731
128	0xbe47e0b3	-0.1951931
129	0xbb92565d	-0.0044658617
130	0x3d9388f5	0.07203857
131	0xbc882bf8	-0.016622528
132	0x3bc7d0d6	0.006097893
133	0x3e7a1439	0.24421777
134	0xbf6ec415	-0.9326795
135	0x3ca4d8b1	0.020122858
136	0xbbb1e588	-0.0054289736
137	0xbce59ac2	-0.028027896
138	0xbe262a90	-0.16227174
139	0xbce318c7	-0.027721776
140	0xbd3e67da	-0.04648576
141	0x3e023c5c	0.12718338
142	0x3ef3dc43	0.47628984
143	0xbc2b3891	-0.010450498
144	0xbe42ce82	-0.19024089
145	0xbd23adf4	-0.039960817
146	0x3cb6a9d2	0.022297774
147	0xbe9b161d	-0.3029031
148	0xbdb75bb6	-0.08953039
149	0xbb96ca3e	-0.004601746
150	0x3d4063dd	0.046970237
151	0xbf1c0cb3	-0.6095688
152	0xbc8edcbb	-0.017439237
153	0xbc3b9c66	-0.0114508625
154	0xbca03af9	-0.01955937
155	0x3c9272e7	0.017877055
156	0xbe4d1776	-0.20028481
157	0xbf351fb3	-0.70751494
158	0x3b4ec9d4	0.0031553404
159	0x3e3c9e2a	0.1841971
160	0x3b92ab8a	0.0044760155
161	0xbe3c4b20	-0.18388033
162	0x3cee0810	0.029056579
163	0xbda14c2f	-0.07875859
164	0xbed103d3	-0.4082323
165	0xbd68597a	-0.056725956
166	0xbf20b516	-0.62776315
167	0xbc06c197	-0.008224866
168	0x3de5157d	0.11185739
169	0x3b05f29f	0.0020438803
170	0xbdaa7eeb	-0.08324989
171	0xbd032c19	-0.032024477
172	0xbf37f867	-0.71863407
173	0xbe55ce43	-0.20879464
174	0xbc22371a	-0.009900833
175	0xbe7e7df7	-0.2485274
176	0xbf2982e9	-0.6621538
177	0x3e941f97	0.2893035
178	0x3c93fecd	0.018065834
179	0x3e4e3b6b	0.20139854
180	0xbce9ecae	-0.02855524
181	0x3c4c3362	0.0124634225
182	0xbed5edb4	-0.41782916
183	0x3dfb1dac	0.12261519
184	0xbe49473b	-0.19656079
185	0xbbf7646f	-0.0075498144
186	0xbc6efeac	-0.014587086
187	0x3d8f06d9	0.06983728
188	0x3e5d96a4	0.21639496
189	0xbf2b12c0	-0.66825485
190	0x3d240f06	0.04005339
191	0xbf379491	-0.7171107
192	0xbf0c1dd5	-0.5473302
193	0xbe94ce35	-0.29063573
194	0xbea708ff	-0.3262405
195	0x3dabde74	0.08392039
196	0x3deb68eb	0.11494621
197	0x3dc98eb4	0.098416716
198	0xbca16683	-0.019702202
199	0xbaf36e13	-0.0018572233
200	0xbcd11aff	-0.025525568
201	0x3b125489	0.002232822
202	0x3df1b4e7	0.118020825
203	0xbd6f3057	-0.05839571
204	0x3dd56528	0.10419685
205	0xbe745730	-0.23861384
206	0x3d660690	0.056158602
207	0x3cd36d9b	0.0258091
208	0xbc4cf337	-0.012509159
209	0xbd1bf9ca	-0.038080014
210	0x3e08790e	0.13327429
211	0x3dfbba2b	0.12291368
212	0x3e7d28bd	0.24722572
213	0x3dc0d65f	0.09415888
214	0xbbbac39c	-0.005699588
215	0x3e582411	0.21107508
216	0xbddd33d7	-0.10800903
217	0xbe412f11	-0.1886561
218	0xbf34e9d4	-0.70669293
219	0xbe6cdc9d	-0.23131032
220	0xbd842c0a	-0.06453712
221	0x3e3bbd25	0.18333872
222	0x3d1a5ac5	0.03768422
223	0xbe899abc	-0.26875865
224	0x3e146c11	0.14494349
225	0x3e0e52b2	0.13898733
226	0x3daa2730	0.08308256
227	0x3e752079	0.23938169
228	0xbeaa356c	-0.33243883
229	0x3cb5eb80	0.022207022
230	0x3e9885d5	0.29789606
231	0xbdaf2390	-0.08551705
232	0xbc46f640	-0.0121436715
233	0xbbb37e64	-0.0054777134
234	0x3cdc8a74	0.026921488
235	0xbe996d0b	-0.29966006
236	0x3f0200ab	0.5078227
237	0x3c9f205b	0.019424608
238	0xbf84e629	-1.0382739
239	0x3e03391c	0.12814754
240	0x3f14dd40	0.581501
241	0xbca801ff	-0.020508764
242	0xbdb44560	-0.08802295
243	0x3ecf6504	0.40506756
244	0xbe643f34	-0.22289735
245	0x3cc71625	0.024302552
246	0x3ddfabc5	0.10921434
247	0x3d84d720	0.06486344
248	0x3e2c6bce	0.16837999
249	0xbc9c1b3a	-0.019055951
250	0xbe912332	-0.28347164
251	0xbeef12cd	-0.4669403
252	0xbe846ea4	-0.25865662
253	0xbe0f3b73	-0.13987522
254	0xbeeeee54	-0.46666205
255	0x3db159aa	0.0865968
