trained_model/vae/vae_z-dim_20.pth (torch, 288865 bytes, 10 tensors)

fc1.weight f4 [200, 147]
000000 a6 b1 64 bd 8f 4b ea 3b be 43 ff 3d 64 c3 4d 3d
       -0.05583348 0.0071501206 0.12464093 0.050235167
000010 b2 47 ca bd 20 8f 17 bd c3 39 a0 3c 5f 61 06 bc
       -0.09876956 -0.03700173 0.019558793 -0.008201926
000020 7c ca b5 bd c1 1a 45 bd 87 de 8c bd fd e2 e2 3b
       -0.088765115 -0.048121218 -0.06878381 0.006924032
000030 00 a1 09 3e f1 22 03 bd d3 5a 20 3e c7 69 74 bc
       0.13440323 -0.032015745 0.15659647 -0.014917797
000040 de 09 06 3e 6d f6 f8 bc 70 bf a9 bc 9a f6 b5 bc
       0.13089702 -0.030390942 -0.020721167 -0.022212315
000050 84 cc 04 3d d8 c1 98 3d 8f 92 d7 bc 71 4d 40 be
       0.032421604 0.07458848 -0.026315002 -0.18779542
000060 29 28 8d bd e8 e4 98 3c b8 a8 a4 3c c1 6e ac 3c
       -0.068924256 0.018663839 0.020099983 0.021048905
000070 97 28 bb 3d ca a6 2b 3d 1f dc 7d bc b4 07 0f 3d
       0.09138601 0.04190711 -0.0154943755 0.034919456
000080 af d2 0a 3d 47 60 8b bd be b3 59 3d 05 fc 60 3d
       0.03389233 -0.06805473 0.05314993 0.054927845
000090 b0 5b 15 3e 97 bc 5b bd 6f 9a 7c 3d ba 1a 14 3d
       0.14585757 -0.05364665 0.061670717 0.0361583
0000a0 4c b0 cf 3d 26 63 23 bd d6 d5 12 3d 4d d4 cd 3c
       0.10141048 -0.039889477 0.03584846 0.025125647
0000b0 ce ea 26 bd 38 fb 98 3b e6 a5 a7 3d 7a 86 04 be
       -0.04075127 0.0046686195 0.081859395 -0.12941924
0000c0 23 7d ce 3b d5 d8 41 bd a5 14 4b 3d e0 72 ee ba
       0.0063015386 -0.047325928 0.049580235 -0.0018192194
0000d0 9e b2 d4 3c 16 79 ae 3d 53 52 a6 3d 31 12 14 ba
       0.025964078 0.08519189 0.08121171 -0.00056484627
0000e0 9a 6d 3a be b2 c9 d7 3c 3b ea 2b be 39 59 9a 3d
       -0.18205872 0.026341293 -0.1678857 0.07536549
0000f0 e4 33 cb bc 3b 31 9a 3d 39 21 84 bd b2 56 65 3d
       -0.024805017 0.07528921 -0.06451649 0.055990882
000100 c6 77 03 3e a6 e5 f6 3a 20 a6 1f bc ef 96 c6 bb
       0.12838659 0.0018836751 -0.009744197 -0.006060473
000110 d7 79 24 3e 50 51 b8 bd 04 ac 1e 3d 86 b5 2c 3d
       0.16062103 -0.08999884 0.038738266 0.0421653
000120 73 2c 11 3d be 8e f8 bb ce fd 61 bd 3d 08 fa 3d
       0.03544278 -0.0075853756 -0.055173688 0.122086026
000130 8e 77 dc bc 23 68 a7 3d cb bc 8c bc 8e 7d ac bd
       -0.026912477 0.081741594 -0.017179867 -0.08422385
000140 ab c9 06 3d f7 6c 0b 3d 4a 68 88 bd 65 73 64 bc
       0.03290717 0.034039464 -0.066605166 -0.013943528
000150 3f 93 3c bd d6 3f 1f 3d 32 fd 88 bc 3d 38 62 3c
       -0.046038862 0.038879238 -0.016722295 0.013807354
000160 c2 e3 d9 3c 48 5a f9 bc 7e ef 42 3d 53 64 c9 3d
       0.026597861 -0.030438557 0.04759168 0.098335885
000170 7b 82 71 bd 44 62 ab 3d fd 0a 7a 3d e4 47 c3 bc
       -0.058962326 0.08368352 0.061045635 -0.023837991
000180 b2 c3 88 bc 2c d8 05 3d 2c 10 97 3c 8a 0f 84 3a
       -0.016694877 0.03267686 0.018440329 0.0010075432
000190 dd 81 12 3c a3 39 b4 bc ee 7a 8e 3b 46 15 94 3d
       0.008942095 -0.02200014 0.0043481505 0.0723062
0001a0 3b 4f 9b 3d 5a f7 0f 3c 07 09 45 3d 85 3c 10 bd
       0.075834714 0.008787001 0.048104312 -0.035213966
0001b0 ce 3f 98 3d 3c aa 3f bc d7 e6 04 3d 9d 24 05 3c
       0.07434045 -0.011698302 0.03244671 0.008126405
0001c0 dc 58 52 bd b9 72 b2 3d ab 40 91 bc 9d ea 22 3d
       -0.051354274 0.08713288 -0.017731031 0.039774526
0001d0 cd 6c 32 3b 15 21 34 3d 68 4a a8 3d d8 8b 8d bb
       0.0027225495 0.043976862 0.08217317 -0.004319649
0001e0 c8 c2 68 3d 9b f6 3c 3d be 7c 83 bc 54 7a b1 3d
       0.056826383 0.04613362 -0.016050693 0.0866591
0001f0 8d a2 f3 bd 46 00 70 bd c8 6e c1 bc 8e 0c 85 3d
       -0.118962385 -0.05859401 -0.023612395 0.06496535
000200 c8 21 3f 3c 99 a5 3b 3c 80 d9 23 3d 82 c8 aa 3d
       0.011665769 0.011453056 0.040002346 0.08339025
000210 62 60 d1 3c fc 12 24 bd ae 40 ff 3c 0a ef 0a be
       0.025558654 -0.040057167 0.031158771 -0.13567749
000220 e9 ca 6a 3d f7 79 56 3c 5d c8 95 bd 55 14 dc 3d
       0.057322416 0.013090602 -0.07313607 0.107460655
000230 50 14 e7 bc 79 85 93 bb aa db 92 3c 48 87 d1 bd
       -0.028207928 -0.004501995 0.01792701 -0.10230881
000240 21 fd 81 3d fc f8 93 3b ec c8 26 bd e4 7e 32 3d
       0.06347109 0.0045157652 -0.040718958 0.043578044
000250 78 4f 30 bd fc 4d b8 bd ef 46 f2 bd 78 08 29 bd
       -0.043044537 -0.08999249 -0.11829936 -0.041267842
000260 94 57 51 3d 59 db ee 3c 58 3a 91 bc 9d 20 44 3d
       0.05110891 0.029157327 -0.017728016 0.047882665
000270 ec 7e 9b bd bb c7 0e bc 10 07 a4 bc 7b 6c d5 bc
       -0.07592568 -0.008714612 -0.020022899 -0.026052704
000280 b6 fc 15 bd 82 81 0a be 28 a5 7e bd f0 25 80 bd
       -0.036617957 -0.13525966 -0.062169224 -0.06257236
000290 da 7a 9a bd 0f 50 a7 3d d9 27 5b 3d 05 b1 f8 bc
       -0.07542963 0.08169567 0.0535048 -0.030357847
0002a0 39 b1 49 3d 28 71 05 be 88 9a 63 3e 40 d3 84 3d
       0.04924128 -0.13031447 0.22226918 0.06485605
0002b0 8c 74 8d bd 38 09 57 3c 07 1f a0 bd 9b 9d 64 3d
       -0.06906995 0.0131247565 -0.07818418 0.055814367
0002c0 dd 32 4e 3e 29 7d e0 3d ca 1e 11 bd 77 c9 8a bd
       0.2013659 0.109613724 -0.035429753 -0.067767076
0002d0 b1 34 49 3d 1f e8 b5 3d 67 dc 86 3d 94 05 7d bd
       0.049122516 0.08882164 0.06585007 -0.061772898
0002e0 bb ba 8f 3d 62 2f f2 bc 8b fe 71 bd 04 cf b4 bd
       0.07018038 -0.02956361 -0.05908064 -0.088285476
0002f0 7c 61 55 bc dc 42 32 3d 1d 0a ea bc 44 f4 a4 bd
       -0.01302373 0.043520793 -0.028569276 -0.080544025
000300 90 f6 c3 bd 6c f7 31 3d 90 49 9b 3d 3f 3a 25 3d
       -0.095685124 0.04344885 0.0758239 0.04033875
000310 6a 2d d8 3c 04 d8 46 3d e8 6f ce 3d 0c 7c ab 3c
       0.026388843 0.048545852 0.10079938 0.020933174
000320 c7 4f 2c bd 64 0f 37 bd 72 14 45 bd 2f e4 ac 3b
       -0.04206827 -0.044692412 -0.0481152 0.005276225
000330 d3 21 d9 3d 71 ec d8 bd 2e 95 08 bd 3e 9f 05 be
       0.106021546 -0.105919726 -0.033345394 -0.13049027
000340 fb f3 ff bd 2d e7 a5 bc c2 30 d8 bd ed 10 9a 3d
       -0.124977075 -0.020251835 -0.10556175 0.075227596
000350 e6 86 5f 3d 39 28 24 3d aa 37 49 bd 0e f8 f7 bc
       0.05457201 0.04007742 -0.04912535 -0.030269649
000360 be 76 ad 3d a2 b2 6a 3d 62 ea fa bb 4e 77 89 3d
       0.08469914 0.057299264 -0.007657335 0.06712209
000370 d0 27 46 3d 9e 5a 2b 3c d3 69 e3 bc 6a 7f be 3d
       0.048377812 0.010458617 -0.027760422 0.09301646
000380 41 fa 17 3d 88 6e ae bb e5 3b d5 3d 84 cf fd bc
       0.037103895 -0.005323235 0.104118146 -0.03098274
000390 fd 22 ab bc e2 b3 97 3b ee ac 9c 3d 0f 20 2f bd
       -0.020890707 0.004629598 0.07650171 -0.042755183
0003a0 17 7e 31 bd f7 99 49 3d af a5 97 3d 49 04 1a 3d
       -0.04333314 0.049219098 0.074046485 0.037601743
0003b0 f2 31 42 3c 74 8f 0e be 23 a9 df 3c fc 9a 48 bd
       0.011852728 -0.1392191 0.02730233 -0.04897593
0003c0 fa b0 13 be 6a 6d c1 bd ca 1e e4 bc 3d 4a c1 bb
       -0.1442298 -0.09444697 -0.027846713 -0.0058987425
0003d0 33 c9 db bd ae 89 77 bd b5 bc 95 3c 69 a0 94 bb
       -0.10731735 -0.060434036 0.01827846 -0.004535724
0003e0 27 ef 5f bd ae 03 86 3d 66 f0 78 3d e2 ce 71 bd
       -0.054671433 0.065436706 0.060776137 -0.05903519
0003f0 d0 dd 92 bc 3f 98 b9 3c 13 01 4e 3c d1 a5 a1 bc
       -0.017928034 0.022655604 0.012573498 -0.019732388

fc1.bias f4 [200]
000000 41 62 c9 be 20 cb c6 be 55 c6 23 bd 02 da c0 bd
       -0.39332774 -0.38826847 -0.039984066 -0.09416582
000010 45 a6 0a bf 12 62 0c bf 57 09 de bd f0 0d 97 be
       -0.5415996 -0.54837143 -0.10841625 -0.2950282
000020 71 52 cb be 9f 1d 0c bf cf 2e 0c bf 10 de 9b be
       -0.39711335 -0.547327 -0.54758924 -0.30442858
000030 e7 44 8e be d5 d5 95 be 29 a2 89 3d 67 13 a8 be
       -0.27786943 -0.29264703 0.06720383 -0.32827303
000040 5d 34 14 bf 8c 23 11 bf 16 73 7c bd b0 7e ad be
       -0.578924 -0.56694865 -0.061633192 -0.33885717
000050 70 8d be bd 89 4a 97 be b6 9b 89 bc f7 a6 a4 be
       -0.09304321 -0.29549053 -0.016797882 -0.32158634
000060 c7 40 50 bd 33 83 d4 be 85 09 31 be 55 3e 3e be
       -0.050843026 -0.41506347 -0.17288788 -0.18578465
000070 96 aa f4 be 9b 80 c0 be 6a 4d 0b be dd 8e 85 be
       -0.47786397 -0.37598118 -0.1360375 -0.2608556
000080 8d c1 3d be f2 a2 b5 bd 37 f7 3b be d2 13 f6 3d
       -0.18530865 -0.0886897 -0.18356024 0.12015499
000090 1e 23 24 bf e7 8b cc be 50 5c a0 be ae 24 32 be
       -0.64116085 -0.39950487 -0.3132043 -0.17396805
0000a0 28 c6 94 be 2a c4 cd be b3 b0 37 be e3 d0 e7 be
       -0.2905743 -0.40188724 -0.17938499 -0.45276555
0000b0 04 8b a9 3d d5 4e 10 be b0 84 05 bf d6 d2 96 be
       0.08278468 -0.14092572 -0.5215559 -0.2945773
0000c0 4c 14 b0 bd 08 37 0b be 90 1a c4 be b6 fb 94 bd
       -0.08597621 -0.13595212 -0.38301516 -0.072745726
0000d0 c0 0c b8 bd 79 a6 dc bd 1c f4 74 be 29 36 1e bf
       -0.08986807 -0.1077394 -0.23921245 -0.6180139
0000e0 d6 d3 de be 01 d1 06 bf 86 f5 13 bf 5f 59 23 be
       -0.43520993 -0.52662665 -0.57796514 -0.15952061
0000f0 1a 1a 91 be 91 c9 a6 bd b2 c7 ac bc e6 7b b7 be
       -0.28340226 -0.081439145 -0.021091316 -0.35836715
000100 79 d6 a9 be ce 82 64 bd 94 ac 95 be fd ca a6 bc
       -0.33171442 -0.055788808 -0.2923323 -0.020360464
000110 f6 7a 02 bf 4c a7 0c bf 54 6b b2 be e6 e9 79 be
       -0.50968874 -0.54942775 -0.3484751 -0.24405631
000120 6f 29 c9 be b0 d6 40 be 16 34 85 be 6e f1 c4 bd
       -0.39289424 -0.18831897 -0.260163 -0.096163616
000130 e3 55 96 be 7e 1e 9c be 71 69 89 be c5 f6 cc be
       -0.293624 -0.30492014 -0.26838258 -0.4003202
000140 73 be 1d bf 64 1a ad be 7a 4b 01 bf f3 a3 75 be
       -0.6161873 -0.33809197 -0.50505793 -0.23988323
000150 3c dd d5 be 27 f5 0d bf 60 71 de 3c e0 3a fc be
       -0.4177035 -0.554522 0.02715367 -0.49263668
000160 d3 19 f5 be 78 d9 e3 be 97 2b 2d bf c0 0e 2b 3d
       -0.47871265 -0.44501853 -0.6764464 0.041762114
000170 a2 81 ce be 0d 9d 10 bf d7 2d 9a be 62 d6 5e be
       -0.40333277 -0.5648964 -0.30113098 -0.21761468
000180 96 cf ca 3d ac 98 ae 3c 42 4c a8 be 3a 39 45 bf
       0.09902875 0.021313034 -0.3287068 -0.77040446
000190 e0 c1 aa bd 3f c1 53 bf 92 74 de 3d b3 c4 c7 be
       -0.0833776 -0.82716745 0.10862078 -0.39017257
0001a0 5b 90 64 be 3a 80 7c bd c6 52 c3 bd 2b 14 cf be
       -0.22320692 -0.061645724 -0.09537272 -0.40445074
0001b0 1f a8 7f be 8f 58 a9 be 75 c0 1c bf a0 ef 50 3d
       -0.24966477 -0.33075377 -0.61231166 0.051009774
0001c0 1b a8 fb be f5 49 fc 3d 9d 5f d9 be 47 30 52 bd
       -0.49151692 0.12318794 -0.4245576 -0.051315572
0001d0 70 0b cf bc b2 d8 83 be 8f fb 24 bf ac 12 b2 be
       -0.025274009 -0.25751263 -0.6444635 -0.3477987
0001e0 08 85 2c be ee 80 20 be 10 ec 3f bf 3d 47 02 be
       -0.16847622 -0.15674183 -0.7496958 -0.12722488
0001f0 1f 2a 1e 3e 40 82 dc be 97 0b d2 bd 17 7b 5e bc
       0.15445755 -0.43068123 -0.10256117 -0.013579152
000200 a7 9d bd be 37 5c 28 be 20 cd dd be 5b 78 d2 be
       -0.37034342 -0.16441427 -0.4332056 -0.4110745
000210 18 6a b0 be 8a 45 7a be 68 7d 2b be 55 dc 04 bf
       -0.34455943 -0.2444059 -0.16747057 -0.518987
000220 1b 88 78 be 20 12 0c be 9d 67 9c be 9c b1 81 be
       -0.2427067 -0.13678789 -0.305478 -0.25330818
000230 2d e2 1a be 8b 06 f3 be f1 88 c0 be e7 a8 16 bf
       -0.15125342 -0.4746593 -0.37604478 -0.58851475
000240 af 35 bf be 36 95 4b bc 2f a1 41 be 4f 5a c1 bd
       -0.37345645 -0.012425711 -0.18909143 -0.09441053
000250 46 22 cb be 03 2c 96 bd 3b a3 a0 be 0d fd 43 be
       -0.39674586 -0.07332613 -0.31374535 -0.191395
000260 b8 06 86 be b9 30 f3 be 68 36 1e bf f4 1e af be
       -0.26177 -0.4749811 -0.6180177 -0.34203303
000270 e8 87 e0 be 0f 0c f6 be 69 5d 9d 3d 4b 2b 02 bf
       -0.43853688 -0.48056075 0.07683832 -0.5084731
000280 72 da d2 bd 79 97 00 bf de cb 8a 3d 65 6b e7 be
       -0.102955714 -0.5023113 0.06777166 -0.45199123
000290 bc d6 ce bd 08 79 18 be 0a 87 ac be 5a 6f 7a be
       -0.10099551 -0.1488992 -0.33696777 -0.2445654
0002a0 69 95 9d 3d 43 75 0a bc 81 0a 0b bf 68 4c 99 bd
       0.07694513 -0.008450809 -0.543129 -0.074852765
0002b0 e6 46 02 bf ee e8 0f be 02 28 51 bc 77 03 26 bf
       -0.5088943 -0.140537 -0.012765886 -0.64849037
0002c0 50 ac f7 be 45 3f 44 bc 68 6a 0b be db 2a 68 be
       -0.48373652 -0.011977975 -0.1361481 -0.22672598
0002d0 e8 da 93 be 8c 6f 1c be c9 7b aa bc 7b 3f 4c be
       -0.2887795 -0.15276927 -0.020810978 -0.19946091
0002e0 93 4d 0d bf 42 6b 81 3d 0c de 06 bf a7 71 08 3d
       -0.55196494 0.06319286 -0.52682567 0.033311512
0002f0 c3 b8 fd be 32 90 cb be 96 cb 16 bf 5c d1 de be
       -0.49555025 -0.3975845 -0.589044 -0.43519104
000300 b6 c9 a1 be 82 08 00 bf c1 28 98 be 59 ff a9 be
       -0.31599206 -0.5001298 -0.29718593 -0.33202627
000310 fe fe c9 be 28 99 2a 3c 2a 30 3b be 9f ee 05 bf
       -0.39452356 0.010412492 -0.18280092 -0.5231723

fc2.weight f4 [20, 200]
000000 fa d3 f1 3b 58 8a f8 3c 56 8b b9 3d bb 69 c8 3d
       0.007380006 0.030339405 0.09059779 0.097857915
000010 74 d2 78 bc ca c2 d4 3d c0 7f 27 3e 68 65 c3 3d
       -0.015186895 0.103887156 0.16357327 0.09540826
000020 e8 b4 ae 3d f8 6f 3d 3c 7c eb 04 bc 77 03 0e 3b
       0.08530599 0.01156234 -0.0081127845 0.0021669546
000030 6e 4e 00 3c 1c ee a3 3a fa 40 2f bc 4d 2e 93 3c
       0.007831199 0.0012506875 -0.010696644 0.017966414
000040 da d8 7a 3c f3 ac b0 bb 3b 2d 41 bd ac 7c 82 3d
       0.0153104905 -0.005391711 -0.047162276 0.063714355
000050 08 93 32 bc bf b5 04 bd 84 2b cd 3d 1e 6a 45 3b
       -0.010899313 -0.03239989 0.100180656 0.0030123065
000060 cb 81 15 3e d4 9e 8c bd f8 25 71 3c 2e 84 65 bb
       0.14600293 -0.068662316 0.014718525 -0.0035021412
000070 25 84 02 bc f4 7d 4c bd e7 72 2b bd d8 27 01 3e
       -0.007966076 -0.049924806 -0.041857626 0.12612855
000080 4e 5d f6 bc b1 87 99 3c c5 e7 05 be be 4f 4b 3d
       -0.030073788 0.01874146 -0.13076694 0.049636595
000090 b8 61 58 3c a4 bb 9a 3d 30 32 22 3d a6 49 cd bc
       0.013206892 0.07555321 0.039598644 -0.025059532
0000a0 96 d1 82 3d f9 a5 bc bd a0 89 37 bc 61 86 8f 3d
       0.063876316 -0.09211344 -0.011202246 0.070080526
0000b0 14 d6 1f bd 1f a0 35 bc b0 e3 62 bb a1 f0 88 3c
       -0.03902252 -0.011085539 -0.0034620576 0.016716303
0000c0 b7 f1 db bc 68 dd 33 bd 53 37 f8 3c f8 91 cb bd
       -0.026848657 -0.04391232 0.030299818 -0.09939951
0000d0 e5 1e 6c 3d cc b7 c4 3b b1 f5 7a bd c6 87 c7 3b
       0.05764665 0.0060033556 -0.061269466 0.0060891835
0000e0 83 ea ad bd 7e bf 8a bb 61 02 95 bd 3c 96 62 bc
       -0.08491995 -0.0042342534 -0.07275844 -0.013829764
0000f0 79 93 4b 3d 1a c7 86 bd c6 cd f3 3b a1 d0 94 bc
       0.049701188 -0.06580944 0.0074403016 -0.018165888
000100 54 8f 6c 3c 80 0a 24 3e d3 be 4c bd 8e 79 17 3d
       0.014438469 0.1601963 -0.04998667 0.036981158
000110 96 9d 8c 3d 3e a8 55 bd f1 d1 b1 3d 6d 2b 97 bc
       0.06865995 -0.0521624 0.08682621 -0.018453324
000120 fb 07 fc bb 75 24 5e bc 6c fb f9 bd 3a 66 59 bc
       -0.007691381 -0.013558497 -0.12206158 -0.013269002
000130 48 94 3e bc 33 c6 a0 bc 59 8d a0 ba af f6 fc 3c
       -0.011632033 -0.019625759 -0.0012249156 0.030879347
000140 e9 ab 07 bd 84 fa 4c 3d 24 2d 55 bb d4 e4 3a bd
       -0.03312293 0.050043598 -0.0032528127 -0.045628384
000150 2c ae 02 3c 82 6f c3 bc 6c c6 0a bd fd 7e 05 bd
       0.007976096 -0.023856882 -0.033880636 -0.03259181
000160 38 3d e7 bd ef f0 3b bd a6 9c e3 bc b5 52 b5 bc
       -0.112909734 -0.04588407 -0.027784657 -0.022134164
000170 9a fd c5 3c 1b cb 1c 3d 6c dc 29 3d 7e 3e 33 3c
       0.024168778 0.038279634 0.041469976 0.010940192
000180 e1 4f 70 bc d2 84 0e bd 2c e3 30 3c c0 56 a2 3c
       -0.014667482 -0.034794636 0.0107963495 0.019816756
000190 0d 50 73 3d 1d 0d cd bc 6a ff d5 3d c4 16 0d 3d
       0.059402514 -0.025030667 0.10449107 0.03444554
0001a0 d7 5c 23 bd b2 15 10 3d d9 f9 d1 3c 9a 5a 69 3c
       -0.03988346 0.03517694 0.025631832 0.0142427925
0001b0 9e b9 28 3d 02 15 66 3d be 34 ba 3c 79 e6 31 3c
       0.041192643 0.05617238 0.022730228 0.010858172
0001c0 5f 28 4c 3d fe 2a c7 3c 89 1d ee bc f9 21 76 3d
       0.04984319 0.024312492 -0.029066818 0.060090993
0001d0 f2 79 47 3d 66 30 68 3d ee 70 60 bd f0 90 c0 3a
       0.04870028 0.05668678 -0.0547952 0.0014691632
0001e0 43 46 81 3d db 5c 92 bb fb 0f 1f 3d aa 41 40 3d
       0.063122295 -0.0044666356 0.0388336 0.046937622
0001f0 05 a1 66 bd 8e e3 a7 3c 19 88 81 ba ac fa 94 bd
       -0.056305904 0.020494249 -0.0009882479 -0.07274374
000200 f0 c3 9b bc 35 1d bf bc f9 69 a4 3c da fc 4d bd
       -0.019014329 -0.023329357 0.020070063 -0.050289966
000210 ec 82 5b 3d 72 f1 03 3d 5e 63 e6 bd 47 04 f9 3b
       0.053591654 0.032212682 -0.112494215 0.007599387
000220 ed 76 9a 3c 29 91 12 3d be 7f 52 3c fd 8b e4 3c
       0.018855536 0.035782967 0.012847839 0.027898783
000230 53 e9 93 3d 9b 83 db 3c 21 bd 5b 3c eb 2c c8 3b
       0.072222374 0.026796153 0.013411791 0.0061088703
000240 1b b2 f4 bb ac bf db bd be f4 1d 3d 0f 1d 05 3e
       -0.007467521 -0.10729918 0.038563482 0.12999366
000250 14 de 77 3c ff bf 47 3d 75 d3 62 b9 c7 54 17 bb
       0.015128631 0.048767086 -0.00021631813 -0.0023091303
000260 f1 c1 2f 3d 89 9b 30 bc be 32 c8 3b fd 95 b3 bd
       0.042909566 -0.01077927 0.0061095646 -0.08768842
000270 0d 0e fa bc 21 d4 ea bc 72 f9 10 3d 0f 7f 73 bb
       -0.030524278 -0.028665604 0.03539414 -0.003715459
000280 94 e4 8a 3d 25 64 9e bb 04 e8 c6 bd b2 0a af 3d
       0.06781879 -0.0048337155 -0.09712222 0.08546962
000290 95 f0 eb 39 c2 66 84 3c 68 c7 8e 3b c1 3a c4 ba
       0.0004500194 0.01616228 0.004357267 -0.0014971123
0002a0 0c 3d 41 bc ee c4 c6 bd fa a7 fb 3b 91 0a c1 bd
       -0.01179434 -0.0970553 0.0076799365 -0.094258435
0002b0 5c 67 e5 3d 7d cb 78 ba b3 2d 9c 3c 80 93 e5 3c
       0.11201355 -0.00094907713 0.01906476 0.028024435
0002c0 1d d0 c0 3c da ba 75 bc cb 81 6c 3d 47 6a f5 3c
       0.023536736 -0.014998162 0.057740968 0.029957904
0002d0 28 e7 de 3d de 3b 86 bd de 5a ca bc 29 af f9 3b
       0.10883933 -0.065543875 -0.024701532 0.0076197577
0002e0 37 9c bb 3a 9e fd cd 3c 64 63 84 bd 5b 52 0d bd
       0.0014313523 0.025145348 -0.0646427 -0.03450237
0002f0 1d 6f 77 3c d6 f1 d2 bc e9 3d d5 bc 7f 3b 43 3c
       0.015102175 -0.025750082 -0.026030498 0.01191604
000300 bf c0 b9 3b f6 42 60 bd d3 98 80 bc 97 1e 41 3a
       0.005668729 -0.05475136 -0.015697872 0.0007366924
000310 68 d8 70 3d cf 5a 9d bd 52 2d d7 3c bc 7b 78 3b
       0.05880013 -0.07683336 0.026266728 0.0037915548
000320 72 2f 1d 3d 7c 87 63 3c 3d 0e 7b 3c 41 e1 28 3d
       0.038375326 0.013887282 0.015323219 0.041230444
000330 b5 e8 af 3d 33 79 e5 bc f0 6e 1c bc fb 38 e5 3c
       0.08589307 -0.028011894 -0.009547934 0.027981272
000340 cc 93 09 bb 01 48 c6 3b 03 ed d7 3d 05 9f ce bd
       -0.0020992635 0.006051064 0.10543253 -0.10088924
000350 df a3 cb 3c 89 15 ba 3d bf 44 ae 39 a6 de b8 bd
       0.024858413 0.09086139 0.00033239086 -0.09026842
000360 a5 96 1a 3d 21 1c 8d bb 47 d8 9c 3c 5b 66 47 bd
       0.037741322 -0.0043063317 0.019146098 -0.0486816
000370 7b a1 ea bc 74 01 06 be b4 8d 2e bc c8 2a 00 bd
       -0.028641453 -0.13086492 -0.010653902 -0.0312908
000380 fc 39 03 bd 4a bb 23 3c 68 e8 0d 3d 5d ea 82 3d
       -0.03203772 0.009993384 0.034645468 0.063923575
000390 88 9e 29 3d 04 34 c7 bd 6c 53 41 bd ec 26 0e 3d
       0.041410953 -0.09726718 -0.047198698 0.034705088
0003a0 34 1d 6a 3b 28 97 0b 3d ef 1e 6e bd ef 92 75 bc
       0.0035722973 0.0340797 -0.05813497 -0.014988645
0003b0 bf 8f 55 3d d5 9c e0 3c de 9c 43 3c 3b 74 a7 bd
       0.05213904 0.027418533 0.0119392555 -0.08176466
0003c0 b8 5d 3b 3b fe 13 0d 3d f7 c6 03 3d 43 cc e1 bd
       0.0028589796 0.034442894 0.03217217 -0.11025288
0003d0 b1 3f 26 bd ac 00 0b 3e a6 fe ea bd de 2a f9 bc
       -0.040588085 0.13574475 -0.114743516 -0.030415948
0003e0 7b 5c f7 bc da 02 52 3d 24 a7 de 3d 4e 2f f9 bc
       -0.030195465 0.05127225 0.10871723 -0.030418064
0003f0 23 21 6b bd 23 25 b3 3d 30 62 2d bc c6 de b4 bc
       -0.05740465 0.08747318 -0.010582492 -0.022078883

fc2.bias f4 [20]
000000 b5 0b e2 bd 22 39 6a 3c 05 19 2d bd f0 c9 d8 bd
       -0.11037389 0.014295848 -0.04226019 -0.105853915
000010 97 a4 09 bc 46 9c a1 3d 48 30 fd bc 43 d6 e6 bc
       -0.008401058 0.07891135 -0.030906811 -0.02817834
000020 0f fb 21 3d 0e cb d0 3c 91 07 3e 3d 98 27 fe 3c
       0.03954607 0.025487449 0.046393935 0.03102474
000030 41 07 32 bd 09 0e 9c 3b 72 d5 99 bd 1e d9 14 3d
       -0.04346395 0.0047624153 -0.075114146 0.03633987
000040 29 09 91 3c 28 41 00 be fa 1d 93 bc ba 95 4a bd
       0.017704563 -0.12524855 -0.01795863 -0.049459197

fc3.weight f4 [20, 200]
000000 31 10 8b 3d 47 a7 c1 bd d0 b0 0e bc 48 f0 02 bd
       0.06790198 -0.09455734 -0.008709148 -0.03196743
000010 14 74 74 bd 20 61 9d 3d fe 5b 93 bd 41 08 03 be
       -0.059681013 0.07684541 -0.071952805 -0.12796117
000020 e8 f2 fa 3c 4b 34 64 3c b8 8d 8d 3d 58 77 3b bd
       0.030633405 0.013928483 0.06911796 -0.045768112
000030 98 7c 33 3d a1 c9 a4 bd a8 34 f4 bb de 2e 28 bc
       0.043819994 -0.0804627 -0.007452566 -0.01026508
000040 23 fa a0 bc 61 fc 9c bc 74 9b ff bc 48 74 d5 3c
       -0.019650524 -0.019163312 -0.031202056 0.026056424
000050 7c 13 c8 bc d7 f4 75 3c 59 8b 5d bd e9 88 ec bc
       -0.024423353 0.015011988 -0.05408797 -0.028873878
000060 af 65 4e bd 47 74 3a bd 21 8d 08 be 57 7f 87 3c
       -0.05038994 -0.045521047 -0.13335086 0.016540213
000070 1e 5e 64 bd 4e 66 25 bd d4 16 9b bd 86 4c 1f bd
       -0.05575382 -0.04038077 -0.075727135 -0.038891338
000080 3c fb 1e bc 79 ca a7 bd e4 79 53 bd fb b6 0d 3d
       -0.009703454 -0.081929155 -0.051629916 0.034598332
000090 3e a6 5f 3d 9a 29 63 bc 15 ec 4f 3d ac 3b 8d bd
       0.0546019 -0.013864899 0.050762255 -0.06896147
0000a0 a3 b8 83 bc ed b1 84 3d 2f 26 09 3c 64 9c 5a bd
       -0.016079253 0.06479249 0.00837092 -0.053371802
0000b0 b5 32 9a bd a2 b1 d1 bd ca f6 e3 bc 00 21 c2 bb
       -0.07529203 -0.10238959 -0.02782764 -0.005924344
0000c0 3b 2b bd bc 84 86 04 bd 81 0b f0 bb 49 b2 a9 bd
       -0.023091903 -0.032354847 -0.00732559 -0.08285958
0000d0 c3 39 33 bc bb 5b 3a 3c 6f b2 d5 3a 8f bc 91 3c
       -0.010939064 0.011374409 0.0016303788 0.017790107
0000e0 06 87 f1 3c 92 3b d9 bb 64 bc 28 3d 8b 65 8a 3a
       0.02948333 -0.006629416 0.04119529 0.0010558827
0000f0 24 58 1a bd 03 f0 12 bd 6b 07 a4 bc 44 ff 95 bd
       -0.037681714 -0.035873424 -0.020023068 -0.07324079
000100 2c 4d 26 3d 01 40 ce bc 28 b8 b2 ba 5f c7 73 bd
       0.04060094 -0.025177004 -0.0013635205 -0.059516307
000110 ce 12 63 bd 01 7e ac bd c9 ca 28 3c b4 88 4f bb
       -0.055437855 -0.08422471 0.010302254 -0.0031667175
000120 65 f0 a4 bd 87 7a 37 bd 2e 3c 95 3d 67 54 5d bc
       -0.08053664 -0.044794586 0.07286869 -0.013508893
000130 04 1a 10 bb a2 b4 24 3b 2a 47 b6 bc 25 d6 a7 bd
       -0.0021988163 0.002513208 -0.02225073 -0.08195142
000140 f5 c8 6e 3c d1 05 4a bd 59 e6 92 bd cd 62 d3 3c
       0.014574279 -0.049321953 -0.071728416 0.025803948
000150 e1 c1 59 bd 79 12 96 3c a6 3c b9 bd 6d 39 12 bd
       -0.053163413 0.018319355 -0.09044771 -0.035699297
000160 62 3b 92 bd 11 39 a9 bb 58 b7 51 3d 7a 92 04 be
       -0.071402326 -0.0051642735 0.05120024 -0.12946501
000170 f5 28 7a bb b9 8c 98 bd 6d ef 36 3d f4 2e 05 bd
       -0.0038171385 -0.07448716 0.044661928 -0.03251548
000180 be 8a 43 bd 1b 95 cc bd b6 cf 1c 3d 76 92 cf 3c
       -0.047739737 -0.09989377 0.038284026 0.025338393
000190 0e d3 b6 bd b2 99 c5 bd 27 81 3e bc 05 0b 31 bd
       -0.08926974 -0.09648456 -0.011627472 -0.0432234
0001a0 48 00 95 3d b2 e2 2b bd b2 83 39 bd 00 2c a2 ba
       0.07275444 -0.04196424 -0.04529161 -0.0012372732
0001b0 7e 25 f9 bb b5 e0 c2 3a ec a1 8a 3d 1b 7b a9 bd
       -0.0076033464 0.0014867993 0.067691654 -0.08275434
0001c0 ca ce 83 3d 08 d6 b5 bc d2 f5 26 3c 9e 00 91 bd
       0.06435926 -0.022196785 0.010190444 -0.07080196
0001d0 44 02 ae bd 1b 73 20 3d 6f 2c d2 3b 2a d4 ff bc
       -0.08496526 0.039172273 0.0064139883 -0.031229097
0001e0 57 42 5a bd 2d fe d4 bd 31 93 50 bd 8b f1 a5 bc
       -0.053285923 -0.10400043 -0.050921623 -0.020256778
0001f0 9f cb 23 bd 28 c2 c0 bd 0f cc ea bd 5f 8a df bd
       -0.03998911 -0.09412032 -0.11464702 -0.10915064
000200 7d 49 08 bd 01 0c 1e bd fb 6a f3 bc a5 b7 43 bd
       -0.03327321 -0.038585667 -0.029714098 -0.04778256
000210 db 40 cc bc f0 4b af 3d 1c db 9d bd 07 42 a4 3c
       -0.02493327 0.08559406 -0.077078074 0.020051016
000220 a0 ad 1e bd c7 5b ac bd 5c 1a 96 bb b3 22 04 3d
       -0.0387398 -0.08415943 -0.004580779 0.032259654
000230 54 4e 54 3c 31 43 90 bd 4d ff 9c bc e0 e8 e8 3c
       0.012958128 -0.07044066 -0.019164706 0.028431356
000240 a8 73 d0 3c a1 d8 e5 bd 3e ca 4d 3c 48 24 b2 bc
       0.025445774 -0.11222959 0.012560425 -0.021745816
000250 59 9f 62 bd 6c 78 a4 3c 49 0b 68 bd 1b 36 54 bd
       -0.055327747 0.020076953 -0.056651387 -0.05180941
000260 6d c7 3a bd 53 a0 c8 3c 02 af 67 3d c0 9d 32 bd
       -0.045600343 0.024490511 0.056563385 -0.043607473
000270 42 bc 49 bd 54 cf 68 3d 32 07 36 be ab f4 c3 bc
       -0.049251802 0.05683835 -0.17776182 -0.023920378
000280 bb d7 af bd f9 6f 8f 3c 9b 7a 13 be 94 95 76 bc
       -0.08586069 0.017509447 -0.14402239 -0.015050311
000290 3c ab c8 bd 48 f3 7d bc 9e 72 d0 3b e5 23 70 bc
       -0.09798285 -0.015499897 0.0063613197 -0.014656995
0002a0 67 cc 1b bc d9 5e ba bd a5 bd 64 3c 9d 5a 6f 3c
       -0.009509183 -0.09100122 0.01396123 0.014609006
0002b0 7b 3d d5 3b 8d e4 b2 bd 38 6a 0e be 4b 4c 39 3d
       0.006507573 -0.08734999 -0.13907707 0.045238774
0002c0 45 d2 00 3c be e6 a0 bd ab 7c 95 bc 89 4b 3e 3c
       0.007862632 -0.078565106 -0.018247923 0.011614689
0002d0 ff e6 39 bc f6 fe c2 bd e6 c5 63 bc 40 c9 4d bb
       -0.011346578 -0.09521286 -0.013902163 -0.0031400472
0002e0 fc 10 fb 3b 17 3b bd bc 7d cd b4 3d 13 6c fb bd
       0.007661937 -0.023099465 0.08828256 -0.12276473
0002f0 cd 73 34 3d 23 84 ba 3c d3 cb 0b bc a9 e4 42 bd
       0.04405575 0.022768086 -0.008532482 -0.04758135
000300 84 09 41 bd 61 af d8 bb 14 bb 81 bd c5 a5 71 3d
       -0.047128215 -0.0066127037 -0.063345104 0.05899598
000310 04 20 56 3d 0a b6 6a bd d1 17 00 bd e2 df 9a 3b
       0.052276626 -0.057302512 -0.031272713 0.004726396
000320 12 c3 a3 3a 36 23 3f bd 60 05 68 b9 dc c2 12 3c
       0.0012494049 -0.04666444 -0.00022127246 0.008957591
000330 39 5a 40 bc c3 cd 33 3d 4c 23 49 bc 37 5a 8a bd
       -0.011740261 0.0438974 -0.012276482 -0.06755488
000340 88 a4 bd bb 1f cd e6 bc 1d b4 a2 bd 1c 87 99 bc
       -0.005787436 -0.028173981 -0.0794451 -0.018741183
000350 e4 a4 39 bc 72 a2 ff bb a9 f2 3a bc 7c 50 87 bc
       -0.011330817 -0.0078013474 -0.011410394 -0.01651787
000360 d8 93 f9 3c 75 72 f7 3b c6 8d da 3c d5 d7 43 bc
       0.030466005 0.007551486 0.026678931 -0.011953314
000370 c5 e1 5b ba 25 20 07 3c 34 9c 91 b9 01 d0 b6 bc
       -0.00083878293 0.00824741 -0.00027772936 -0.02231598
000380 9e 51 fc 3c c5 b6 85 bc df 40 d8 3b ab e7 a9 bc
       0.030800637 -0.016322503 0.00659953 -0.02074035
000390 62 7d f5 bc 2a 1d 0f bd 3e 31 f1 3c 0d 43 ac 3c
       -0.029967014 -0.034939922 0.029442426 0.021028066
0003a0 a5 d4 1e bc 46 cb 07 bd 97 f6 62 3c 48 4b 18 bc
       -0.009694253 -0.03315284 0.013852737 -0.009295292
0003b0 71 ae 9e bd 5a 3c f5 bc 96 cd 0c 3d f7 e5 40 3d
       -0.07748116 -0.029936004 0.03437575 0.04709431
0003c0 db d8 45 37 4c 4e c0 bc 33 00 2f 3b 58 96 dd 3c
       1.1792606e-05 -0.023474835 0.0026703 0.027049229
0003d0 08 91 08 3d de 8c 03 3c da a9 ce bb de ae cb 39
       0.033341438 0.008029191 -0.006306869 0.00038849463
0003e0 7a e5 c3 bb ae 07 89 3c 1d cd a3 3c 52 02 93 3c
       -0.0059782835 0.016727295 0.019995267 0.017945442
0003f0 7f c6 f5 3c 7a 00 1f bc c0 d6 17 3b 05 ac f3 3a
       0.030001877 -0.009704703 0.0023168772 0.0018590695

fc3.bias f4 [20]
000000 cf 46 90 be a0 0b 69 bd d0 3a b5 be d4 5a 64 be
       -0.28179023 -0.056895852 -0.35396433 -0.22300273
000010 b5 f1 92 be bb e2 90 be 60 a7 9c be ba 76 b1 be
       -0.28700033 -0.28297982 -0.30596447 -0.34660894
000020 fd 93 a4 be c1 2c b7 be 92 a2 5b be 89 6e b9 be
       -0.32144156 -0.35776332 -0.21448734 -0.36217144
000030 06 58 2b be 39 07 e7 bc 12 62 70 be ad 01 93 be
       -0.16732797 -0.028201686 -0.23474911 -0.28712216
000040 75 4e 82 be c0 f8 99 be 9c 89 62 be 9f d8 9e be
       -0.25450483 -0.30072594 -0.22122806 -0.31024644

fc4.weight f4 [200, 20]
000000 ee ad 97 3f 81 3a ea bc 6c b3 4b bf 55 3d a1 3f
       1.1849954 -0.02859235 -0.7957065 1.2596842
000010 33 13 12 be 60 59 a6 bd d7 64 0b bf 99 dd 70 bf
       -0.14265136 -0.08122516 -0.54450744 -0.9408813
000020 74 79 fc 3f 52 f2 18 3f 4d 98 ec 3e c9 55 a7 bc
       1.9724565 0.5974475 0.46209946 -0.020426648
000030 4b c8 e7 bd 21 ec 9a bd 3c 3e e3 be 69 7c 86 3f
       -0.113175 -0.07564569 -0.4438342 1.0506717
000040 f3 f7 54 3f 48 77 de 3e 58 a4 2a be 33 f6 ac 3e
       0.8319084 0.4345038 -0.16664255 0.33781585
000050 23 29 f0 3e cb 82 9b 3d d1 f7 4b 3f 21 a3 73 3f
       0.46906385 0.07593306 0.7967501 0.9517079
000060 ce 50 ec be 9f 00 c0 bd 9e c8 7c bf 85 a3 0c 3e
       -0.461554 -0.093751185 -0.9874362 0.13734253
000070 52 c4 af 3f fe 4b 9f 3e bd 89 b2 be 0e f6 22 40
       1.3731787 0.31112665 -0.3487071 2.546268
000080 9b aa 73 3f 14 32 38 3c a6 7e 38 be d9 59 2c 3d
       0.951822 0.011242408 -0.18017063 0.042077873
000090 4d c2 88 3e e1 b0 b0 be 8a 4c 12 3d a4 01 74 bf
       0.2671074 -0.34509948 0.035717525 -0.95315003
0000a0 66 73 f8 bf 84 f1 fe 3d bc db 8f bf 13 ec 00 3e
       -1.9410217 0.12448409 -1.1238933 0.12590055
0000b0 32 c2 71 bf dc 5a 25 3e 8d 28 35 bf 29 5b 44 3f
       -0.94436944 0.16147941 -0.70765 0.767016
0000c0 e8 a3 93 3f 27 f9 b9 be a0 8e 35 bf 21 eb 6b 3f
       1.1534395 -0.363229 -0.70920753 0.92155653
0000d0 ae c5 28 3f 82 9b f5 bc 66 11 1e bf e8 0f 80 be
       0.65926635 -0.029981378 -0.617453 -0.25012136
0000e0 57 a2 e5 3d be d1 ef bf 09 57 8c be 17 78 f0 bc
       0.112126045 -1.8735883 -0.27410153 -0.029354138
0000f0 f8 ba 27 3f 11 75 2c 3c d7 09 2c bf 96 2c 94 3d
       0.65519667 0.010525958 -0.67202514 0.072350666
000100 03 3a b9 be 4d 04 39 bf 94 44 11 be c6 6a 85 be
       -0.36177072 -0.7227219 -0.14186317 -0.26058024
000110 7a de a2 bf 5e 67 fa be 7d e8 7e 3e a7 26 35 bf
       -1.2724144 -0.48906988 0.24893375 -0.70762104
000120 f2 c7 db be 9a c9 2f ba ef c1 3d be bd f8 dd be
       -0.42925984 -0.0006705761 -0.18531011 -0.43353835
000130 4f 27 4d 3f 7e d6 ff 3e 8b 9b 0f 3f df 9f 1a 3f
       0.80138105 0.49968332 0.56096715 0.60400194
000140 58 d5 ea 3f f7 ff 23 3d 7c d2 4a be d8 f2 24 bf
       1.8346357 0.04003903 -0.19806856 -0.6443305
000150 58 cf cd be 5e 69 b2 bc 2e 14 83 3e 45 56 71 3f
       -0.40197253 -0.021778759 0.25601333 0.9427226
000160 f1 1c 63 3e e8 08 bd 3d 1e b9 05 3e dc 87 bd 3c
       0.22179009 0.09230214 0.13058898 0.023136072
000170 2c 75 e7 3e 2a 2a 3b 3d b3 21 f1 3e 85 f2 55 ba
       0.45206583 0.045694508 0.47096023 -0.00081614434
000180 91 da b9 be ad 5a b6 bf 54 d8 65 bf 2f 16 f6 3e
       -0.36299565 -1.4246422 -0.89783216 0.480638
000190 ee 66 5e bf 53 b2 27 be 1b 0d 4b bf 62 bf 5b 3f
       -0.8687581 -0.16376619 -0.7931687 0.858389
0001a0 34 80 5d 3e bc 2d e3 3e 5e 47 f1 bd 78 e7 16 3f
       0.21630937 0.4437083 -0.1178119 0.58946943
0001b0 c6 4a 89 3e a5 8c fd 3e 18 4d a8 bf 13 5a 83 3f
       0.2681486 0.49521366 -1.3148527 1.0261863
0001c0 be 89 8b 3e d6 fa 8f bd 7c b8 0e 3d a9 04 4b 3f
       0.27253526 -0.07030265 0.034843907 0.79303986
0001d0 ff f4 95 bf da 84 68 bf 82 c0 8d 3e 9b 70 15 bf
       -1.1715392 -0.90827715 0.27685934 -0.5837495
0001e0 41 e7 42 3f bd fc cb bd b0 9f 16 3e df f4 10 3f
       0.76134115 -0.099603154 0.14709353 0.56623644
0001f0 bc 59 d3 3e 09 75 6e 3c ab d2 cf 3e 03 e7 54 3f
       0.412794 0.014554271 0.40590414 0.83164996
000200 08 e1 4a bf f3 bd 4b bf f0 fd ca 3e b6 c0 8e bf
       -0.7924962 -0.79586715 0.39646864 -1.1152561
000210 7e df be 3e 8d 59 31 3d d2 4d ff 3e d4 a9 18 be
       0.37279886 0.043298293 0.4986406 -0.14908534
000220 e5 10 b7 3e 59 24 55 bf ca 29 5c 3e 45 c3 5d c0
       0.35755077 -0.8325859 0.21500316 -3.4650433
000230 4f bb e3 bd fb 5f 1e bc ae 6e 36 be 07 08 40 3d
       -0.11119711 -0.009666438 -0.17815658 0.046882655
000240 6f 79 cc 3c 7c 90 97 3f aa bd 34 3f 36 0b 40 3f
       0.024960248 1.1840968 0.70601904 0.75017107
000250 24 df 11 3f 43 48 1e 3e f0 74 c0 bf f2 b0 69 be
       0.5698111 0.15457253 -1.5035686 -0.22821406
000260 78 ed ba bd a6 fb 90 bb 53 c0 72 be ec 78 46 3f
       -0.09127325 -0.00442453 -0.23706178 0.7752826
000270 29 0e b7 bf 43 6e 79 3f 4b ec 09 be 38 58 1a bf
       -1.4301196 0.9743387 -0.13469045 -0.6029086
000280 af 14 00 3f 46 8d 2c 3d 38 03 92 bf ea 18 74 3e
       0.5003156 0.042126916 -1.1407232 0.23837629
000290 5f 2f 68 bf 3c c9 a1 bf e4 05 81 3f 0b 7f 9b 3f
       -0.9069728 -1.2639537 1.0079923 1.2148145
0002a0 d0 ff 93 bf 68 e7 6c bf e8 b7 d2 3e b5 a6 8b 3d
       -1.1562443 -0.925406 0.41155934 0.06818906
0002b0 07 08 12 bf d4 d0 15 bd f4 1c 74 be 9b 5b 8c 3e
       -0.570435 -0.036576107 -0.2383917 0.2741364
0002c0 e0 6e d2 3d 0d 94 0b 40 b3 43 23 3f 01 f8 bd 3d
       0.10275054 2.1809113 0.63775176 0.092758186
0002d0 55 3d ae bf c8 7c c3 bd 22 33 7f bf d5 ee 5f 3f
       -1.3612467 -0.095452845 -0.996874 0.87473804
0002e0 ed c7 5e bd 5c 79 9d bd 6c 2f 02 3f 04 e1 22 3f
       -0.054389883 -0.07689163 0.5085361 0.63624597
0002f0 32 74 a6 3e 58 fa a9 3d 28 fc e6 be b7 c4 09 3f
       0.32510525 0.082997024 -0.45114255 0.5381579
000300 b0 41 b4 bd 8c 71 0f 3d 24 1b d8 be 76 38 48 3f
       -0.088015914 0.035020396 -0.42208207 0.7821115
000310 b1 92 5a bf 22 b4 dd bf 11 ea 0a 3e 5e 7e 8e 3d
       -0.85380083 -1.7320597 0.13565852 0.069576964
000320 53 24 0c 3d a7 e5 84 be 18 3b d2 be d6 80 a5 3f
       0.03421433 -0.2595646 -0.4106071 1.2929943
000330 79 ea d6 bd ad 11 89 3f b7 06 5a be 91 b1 3a 3f
       -0.10493941 1.0708519 -0.21291624 0.72927195
000340 b5 05 eb bf bb 48 5e 3e d4 eb 84 bf da 8f 22 3f
       -1.8361117 0.21707432 -1.0384469 0.6350075
000350 d5 03 65 3f e9 1f b5 bc 84 cf 5a bf e0 d0 00 3e
       0.8945897 -0.022109943 -0.85472894 0.1257968
000360 3d 2f f4 bd 89 7b 71 3f cd bb 34 bf 76 40 f8 be
       -0.119230725 0.94329125 -0.7059906 -0.4848668
000370 ef 08 b2 bf 25 26 5b bd 0b b6 8a bf d2 91 ec 3e
       -1.3908976 -0.053503174 -1.0836805 0.46205002
000380 bd ac b3 be dc ec fc 3d d4 52 90 3d e5 ac 1d 3f
       -0.35092726 0.12349865 0.07047048 0.6159194
000390 c3 75 18 3f 72 90 64 bd a8 2d 9a be 23 7c f6 3e
       0.5955469 -0.055801816 -0.30112958 0.48141584
0003a0 fe fc 03 3e aa f7 5a bd 0d 50 e1 bd df ff cf 3e
       0.12889478 -0.053458847 -0.110015966 0.40624902
0003b0 6f fd 0f bf 7c df eb bf 46 ab 30 be 7d c5 40 3e
       -0.56246084 -1.8427577 -0.17252836 0.18825336
0003c0 5a 57 23 3f da 2d 00 3a 7f b6 29 3f a6 4f b5 3d
       0.6380516 0.0004889645 0.6629409 0.08853082
0003d0 32 42 47 3f 31 4b f9 3e f7 83 45 3e 93 43 71 bf
       0.7783538 0.4869018 0.19288622 -0.94243735
0003e0 fa b2 55 bf 8d 44 f2 3d d1 60 21 3f ce 9f 45 bf
       -0.8347622 0.11829481 0.63038355 -0.7719697
0003f0 39 b6 1f be 5e 86 1e bc 8c 0f 89 be fa fa a1 bd
       -0.15596856 -0.00967559 -0.26769674 -0.07909198

fc4.bias f4 [200]
000000 67 c4 03 40 35 dd f8 be 36 04 51 bf e8 04 27 be
       2.0588624 -0.48606268 -0.8164705 -0.16310465
000010 da 5a 0a 40 cf ae 1e bf 94 d3 52 3f 4a 28 f5 3e
       2.1617951 -0.61985487 0.8235409 0.478823
000020 de d5 ef bf 77 bc 41 bf 56 3f 23 be 8e 52 53 bf
       -1.8737142 -0.756782 -0.1594213 -0.82547843
000030 75 bc 6e be f7 26 96 bf 52 48 a0 3d a7 fe ea 3e
       -0.23314078 -1.1730641 0.07826294 0.4589741
000040 63 17 84 bf 23 e9 f4 bf 8d 4f 12 bf 8c b8 a8 3f
       -1.0319637 -1.9133648 -0.57152635 1.3181319
000050 da f2 d6 3f 01 80 fa be de ae 0f be 91 2b 04 bf
       1.6792862 -0.48925784 -0.1403155 -0.5162898
000060 ef 84 1f 3e 15 f4 0a 3f c7 8c 61 be 38 6f 6f bf
       0.15578054 0.5427869 -0.22026359 -0.9352908
000070 c2 08 92 3f 0c bb bb 3f 59 23 15 bf c9 40 3d 3f
       1.1408923 1.4666457 -0.5825706 0.7392698
000080 3e ab 06 3f 0d 59 1e 3f 89 34 91 be 04 a7 58 3f
       0.52605045 0.6185463 -0.28360394 0.84629846
000090 24 80 52 3f 84 49 8f bf 57 ae e0 bd b9 84 34 3f
       0.8222678 -1.119431 -0.10970753 0.7051502
0000a0 e1 ea ae 3e c8 c5 ee 3f ff 6e 5e bf 10 b8 f6 bf
       0.34163573 1.8654108 -0.86888117 -1.9274921
0000b0 06 34 e5 3f 09 10 08 40 ed b9 c8 bd 08 59 70 bf
       1.7906501 2.1259787 -0.098010875 -0.9388585
0000c0 fc 0a 40 bf 83 0c 80 bf 10 9b a9 3f 52 b0 c9 3f
       -0.7501676 -1.0003818 1.3250446 1.5756934
0000d0 55 67 d1 bf 5c d5 85 3e 38 92 bd 3f 30 f9 83 be
       -1.635966 0.26139343 1.4810247 -0.25776052
0000e0 fd aa 03 bf 44 52 a6 3f 25 93 b6 bd 6c da 70 3f
       -0.5143278 1.2993855 -0.08914784 0.94083285
0000f0 1f 56 3f 3e 16 51 8d bf dc c3 35 bf 70 51 e6 3f
       0.18685196 -1.104037 -0.7100198 1.7993603
000100 07 b2 02 bf ca 7a 04 40 e1 ea b9 be a9 e2 b4 3f
       -0.510529 2.0699944 -0.3631201 1.4131671
000110 2c b4 5d bf f0 eb 58 bf f2 35 0d 40 e5 9f d3 be
       -0.86603045 -0.8473501 2.2064176 -0.41332927
000120 8e e6 b9 bf 8f 86 d9 bd 7a 9f 83 3c f5 b1 80 3d
       -1.4523485 -0.10621368 0.016067255 0.062839426
000130 99 79 0a bf ba 5b 29 bd 51 33 88 bf 70 e6 82 be
       -0.54091793 -0.041347243 -1.064066 -0.25566435
000140 29 0e 99 bf 24 bf 16 40 ed 0e ac bf a4 a3 39 be
       -1.1957446 2.3554163 -1.3442055 -0.1812883
000150 fd 1e a2 bf f3 05 8d bd 5b 3c b8 3f 97 a8 06 c0
       -1.2665707 -0.068859 1.4393419 -2.10404
000160 ed 0f 98 bf 29 55 b1 3f cd 5f b3 3c 24 c6 a3 3e
       -1.187986 1.3854114 0.021896267 0.31987107
000170 8b cb 36 c0 2e 55 e3 3f 7e 94 91 3f f2 ae 96 bf
       -2.8561733 1.776037 1.1373441 -1.1772139
000180 5d 0d aa 3e 16 bf 3f be 58 c5 ad 3f 49 3c 32 c0
       0.3321332 -0.18725237 1.357585 -2.7849295
000190 47 82 97 bd 5d d9 01 3e 78 e9 37 3f 28 68 42 bf
       -0.07397895 0.12680574 0.7184062 -0.7594018
0001a0 92 39 74 bf a7 df 06 bf 6e 91 55 3f 3a fc 97 3f
       -0.95400345 -0.52685016 0.83425033 1.1873848
0001b0 f2 19 2b c0 05 7f 4d 3e 18 ba 82 3e 1d ec 95 3f
       -2.6734586 0.20067985 0.25532603 1.1712681
0001c0 ed 83 49 3f 59 4b 10 3f 64 93 38 40 97 b0 70 bf
       0.7871693 0.5636497 2.883996 -0.94019455
0001d0 66 59 4d bf 73 99 ae be db 7a 9e 3f 46 d0 ec bf
       -0.80214536 -0.34101447 1.2381243 -1.850106
0001e0 3a 78 8a bf 46 88 95 bf 99 cd 8a 3f dd 67 c1 3e
       -1.081794 -1.1682212 1.0843993 0.37774554
0001f0 5b 2a be be 44 1f 8d 3f ea f2 a3 3f ee a3 74 bf
       -0.3714169 1.1025167 1.2808506 -0.95562637
000200 32 de 9e 3f 35 6e 7a bf 7e 1c 0a be a9 ea e2 3f
       1.2411559 -0.9782441 -0.13487431 1.7727863
000210 ec 77 0c 40 92 63 98 bf 89 54 d6 bf 95 c9 04 40
       2.1948195 -1.1905386 -1.6744548 2.0748036
000220 60 28 89 3f 21 0a e4 be 79 78 86 3d 35 6b 9b bf
       1.0715446 -0.44538978 0.06565947 -1.2142092
000230 35 74 29 be 84 45 05 3f e9 42 e6 3f 84 1d 9a 3f
       -0.16548236 0.520592 1.7989169 1.2040257
000240 96 6c 9d be 14 75 a8 3e 10 51 4f bf 65 5a 7b be
       -0.30746907 0.32901824 -0.80983067 -0.24546202
000250 18 03 95 bf b4 43 b6 be 93 6a 1f 40 88 47 4c bf
       -1.1641569 -0.35598528 2.4908798 -0.7979665
000260 d5 d8 0e bf 54 b4 11 bf 74 9d cc bf c7 c7 f1 be
       -0.5579961 -0.56915784 -1.5985551 -0.4722273
000270 b6 cc a2 be ca 7e 96 bf 7a 35 b1 be 14 10 29 40
       -0.31796807 -1.1757443 -0.34611112 2.6416063
000280 53 20 99 bf 43 b8 50 be 60 2e 62 bf 2b 19 99 bf
       -1.196299 -0.2038279 -0.8835201 -1.1960806
000290 98 f0 ab bf e2 3a c4 3e f9 9b 21 bf 64 aa 41 3f
       -1.3432798 0.38326174 -0.6312862 0.7565062
0002a0 23 f2 c7 bf 18 5e 05 c0 97 38 a9 3e f6 33 e8 3f
       -1.5620769 -2.083868 0.33050987 1.8140857
0002b0 ec 2e 69 3b c2 e7 9e 3f 4f 20 ec 3f a1 76 38 bf
       0.0035580946 1.2414477 1.844736 -0.72056013
0002c0 e0 32 4a 3f 32 a3 55 3f a5 ef c4 bf 8d 28 1b bd
       0.7898388 0.8345214 -1.5385634 -0.03788047
0002d0 cd 73 90 be e1 69 4e bf 54 cd 77 3f 8a 63 e0 bc
       -0.2821335 -0.8063031 0.9679768 -0.027391214
0002e0 c4 5f 92 bf 29 3d 9f be 0d 60 0e c0 60 15 13 40
       -1.1435475 -0.3110135 -2.2246125 2.2981796
0002f0 10 ca e0 be 74 2b e0 be e7 0f 5a bf 42 5f d5 bf
       -0.4390416 -0.43783152 -0.85180515 -1.6669695
000300 a7 cd 87 bf 04 4d 1d 40 e4 91 ee be c9 94 16 bf
       -1.0609635 2.4578257 -0.4659568 -0.5882078
000310 35 8c 00 bf 72 3a b2 be 31 07 30 bf 97 83 f0 3e
       -0.5021394 -0.34810215 -0.68760973 0.46975395

fc5.weight f4 [147, 200]
000000 98 a6 2e 3c 51 41 ef 3d 82 0d 8a bf 55 e0 9a bd
       0.010659836 0.1168238 -1.0785372 -0.07562319
000010 b6 85 47 bc 94 bb 82 3c 8a c6 8e 3d 25 1a 94 bd
       -0.012177875 0.015958585 0.06971462 -0.07231549
000020 04 5a 2b bf a5 73 0d bf d8 8c 28 bd fc 46 e1 be
       -0.6693423 -0.55254585 -0.041149944 -0.4399947
000030 1c ff 71 bc 49 af d2 3d 38 44 e2 be 58 ff ac bd
       -0.0147702955 0.10287339 -0.44192672 -0.084471405
000040 eb a3 ad 3e 58 f3 8e be 85 4b 37 bf 84 9d 92 bd
       0.33914122 -0.27920032 -0.7159961 -0.0715895
000050 8e 9b cf 3c 4d 85 bb 3e 6b 44 0b bf 7c d2 f4 3b
       0.025342729 0.36625138 -0.5440127 0.0074713808
000060 73 22 ab bd 9e d2 21 bd e1 e3 8e 3d bf 24 cc bd
       -0.0835618 -0.0395075 0.06977058 -0.09967946
000070 26 e7 9a bd c7 63 88 3b d6 6e 28 be 4f 27 a5 3d
       -0.07563619 0.004162285 -0.1644853 0.08064138
000080 6d 77 0a be b0 81 fa bd 45 1a 2a bd 6c 1a 25 3b
       -0.1352212 -0.12231767 -0.04152896 0.002519275
000090 5e ff 80 bd 9c 30 98 bd 24 b1 48 3e 90 50 f7 bd
       -0.062987074 -0.074311465 0.19598824 -0.12075913
0000a0 b5 83 98 bd 05 a3 9e 3a ef 0f 75 3d 35 75 d9 be
       -0.07446996 0.0012103027 0.05982965 -0.42472234
0000b0 56 89 81 3c d1 36 ef bc 63 7f 0c 3d 67 eb 08 3e
       0.015812557 -0.029200943 0.034301173 0.13371049
0000c0 0b c3 12 be 94 6a 1a 3e 8c 3a c0 3d 11 6a 8f 3b
       -0.14332215 0.15079719 0.09386167 0.004376658
0000d0 e1 8e 7b 3d b7 d1 4e 3d cf 30 40 bd 12 fc f8 3d
       0.061415557 0.05049297 -0.046921548 0.121574536
0000e0 b5 4d 20 bf f7 3e a8 bc 7c 7c d6 be fc 48 74 bd
       -0.6261857 -0.020537836 -0.4189185 -0.059639916
0000f0 40 56 82 3d b4 f4 0b bf 88 a2 98 be 3e f5 74 bd
       0.06364107 -0.5467026 -0.29811502 -0.059804194
000100 db 45 5c 3d 0a 72 db 3d 88 f3 58 bf 70 08 0d be
       0.053777557 0.107151106 -0.847466 -0.1377275
000110 15 5f 67 3d 4c be 70 3e f9 00 1a 3d 5e 70 83 3e
       0.05648716 0.23510092 0.037598584 0.25671667
000120 74 cb b2 bd f1 fd 97 bb 49 6c e0 bd a9 31 95 bd
       -0.08730212 -0.0046384265 -0.10958154 -0.072848625
000130 1a 32 3c 3e cc dc 34 3e f9 49 f6 3e 28 c5 9e 3d
       0.18378487 0.17662352 0.48103312 0.07752448
000140 1e 05 d3 3c 94 7e 77 3d 83 86 cf bc 44 1f 34 3d
       0.025759276 0.06042345 -0.025332695 0.04397513
000150 7a 22 15 3f ff 16 b0 bc 36 43 65 3d c3 2c 1d bf
       0.5825573 -0.02149534 0.0559723 -0.61396426
000160 3c 9e 78 bf c4 85 04 3b ca 90 8b be 46 bf 2a be
       -0.97116446 0.0020221332 -0.27258903 -0.16674528
000170 83 23 10 bf 9f 5e 81 3c 6d 03 58 bd dc 1e 54 3d
       -0.56304187 0.01579219 -0.052737642 0.051787242
000180 1d c0 0b 3d 3d 19 47 bf 3d 46 f2 bd 11 12 da 3d
       0.03411876 -0.77772886 -0.11829803 0.10647977
000190 28 de d3 be 68 05 93 bc 8e b2 29 be c9 44 f6 be
       -0.4138043 -0.017946914 -0.1657202 -0.48099354
0001a0 4a 31 a6 3e d9 b0 a5 3c fa 1e ac 3e b6 69 1f bd
       0.3245948 0.02022593 0.33617383 -0.038919173
0001b0 f1 b3 99 3d 16 5e d4 bc b0 9d 2c be 6b 7b 01 bd
       0.07505024 -0.02592377 -0.16857028 -0.03161184
0001c0 42 49 56 3a ce 7f 35 be 22 70 e7 3d 70 82 42 3e
       0.00081743684 -0.17724535 0.113006845 0.1899507
0001d0 85 96 e8 bc 41 0a c1 3b 8f 55 2d 3d 83 fc 0a bf
       -0.028392086 0.005891115 0.042317923 -0.5429155
0001e0 3f d7 bb 3e 02 f2 5e be 07 c8 e8 3d dc e3 0e 3d
       0.36687657 -0.21772006 0.11366277 0.034885272
0001f0 35 f3 76 be 56 94 5c 3e 5f 0e 92 bd da 97 ee bc
       -0.24116214 0.2154096 -0.07131647 -0.029125143
000200 8c de 09 bc ec 95 02 3e 9e 1e 31 bc 92 78 de bd
       -0.008414876 0.12752503 -0.010810522 -0.10862841
000210 96 7c 63 bc c2 7a d2 3c 95 c3 1a bf e2 6f 8c 3c
       -0.013884684 0.025693301 -0.60454684 0.017143194
000220 18 e6 2f 3f 9f 22 1d bf 3a 09 3a 3d 21 94 de 3e
       0.6871047 -0.6138095 0.045418955 0.43472388
000230 3c 17 87 be 8a 95 11 bd 33 97 c9 bd 66 0b 6a bd
       -0.26384914 -0.035543002 -0.09843292 -0.057139777
000240 7a 18 7a be 60 cd 77 be a0 32 86 3e 02 23 b2 3d
       -0.244234 -0.24199438 0.262105 0.086980835
000250 38 81 98 bd 56 e0 41 bf ba 32 b9 3d d5 57 0f bd
       -0.074465215 -0.75732934 0.090428784 -0.034995873
000260 c9 11 69 3d c1 4b 78 bf 95 32 1d bf 30 17 9d bf
       0.056901727 -0.9699059 -0.6140531 -1.2272701
000270 63 fb 37 bc 2a 34 de 3d 19 7d 80 be 3d 5d 02 3e
       -0.011229369 0.10849793 -0.25095442 0.1273088
000280 9e 77 91 bf 8f 5e cf bd 18 fb ea be eb c7 3b bd
       -1.1364629 -0.101254575 -0.45894694 -0.045844954
000290 ba 16 5d be 9e 55 82 be 81 82 f8 bd 46 c7 1f bd
       -0.21590701 -0.25455946 -0.12134267 -0.0390084
0002a0 44 bc c9 be a9 c5 52 3d 0b 41 91 3d ce 82 90 3d
       -0.39401448 0.051458035 0.07092484 0.07056199
0002b0 a8 10 e2 3d b1 c7 c2 bb f0 d8 3a 3d 2e 3e 8c 3d
       0.11038333 -0.005944215 0.045617044 0.06847797
0002c0 ae e8 4f 3d 74 19 bd 3d 9c 4a 8b 3d 31 c9 1e 3e
       0.05075901 0.092333704 0.0680134 0.15506436
0002d0 30 30 75 be b1 90 76 3d 62 d6 c5 3b 74 e8 c9 ba
       -0.23944163 0.060196582 0.0060375193 -0.001540436
0002e0 72 18 4c 3e 3e b3 7c 3d a0 66 0a bf 91 d3 52 3d
       0.199312 0.061694376 -0.54062843 0.051471297
0002f0 67 44 38 bd 76 e6 49 be 78 39 bc bc ac 9e cf be
       -0.04498711 -0.1971682 -0.022976622 -0.40550745
000300 e5 d7 69 3e d7 da 44 bd 83 e9 4c bd 61 d3 46 3e
       0.22836263 -0.048060264 -0.05002738 0.19416572
000310 71 44 64 3e 69 83 fb be 10 e4 f4 3d eb dc b5 3d
       0.22291733 -0.49123695 0.11957562 0.088800274
000320 89 54 b2 3c 89 ec 98 be 4b 71 bf bf 09 08 c3 3d
       0.021768825 -0.29867962 -1.4956449 0.09523017
000330 fd 60 53 3e 01 d6 19 3e 5e f7 97 bd ce bc 10 3f
       0.20642467 0.15023042 -0.074202284 0.56538093
000340 d3 9b 1b 3a 37 cd 6e be da 08 1d be 0a bf 0f bf
       0.00059360004 -0.23320471 -0.15335408 -0.5615088
000350 dd 48 76 3d 76 b8 61 3e 1f 35 19 bf c1 f9 02 3e
       0.06012808 0.22043023 -0.5984668 0.12790586
000360 77 ec ba 3b 69 6e 27 be 9a ea 60 bf 26 cf ad be
       0.0057044583 -0.16350712 -0.87857974 -0.33947104
000370 aa 73 24 3d cf d8 20 be c7 a6 e3 bf 10 88 ea bd
       0.04014937 -0.15707706 -1.7785271 -0.11451733
000380 92 3f b9 3e 5e 82 62 3d 34 72 90 bd c5 e8 89 be
       0.36181313 0.05530011 -0.070530325 -0.26935402
000390 36 28 30 3e 3d e9 d5 3b ef b3 66 be bc ad a2 3d
       0.1720284 0.0065280483 -0.22529577 0.079432935
0003a0 7b 76 de be 34 ec fe bd 80 c1 6a 3e 87 43 bc 3c
       -0.43449768 -0.12447396 0.22925377 0.022981418
0003b0 04 f6 b6 3d d7 e2 6b 3e b9 d9 54 3e 99 4b 20 be
       0.089336425 0.23035751 0.2078618 -0.15653838
0003c0 c9 b8 1c 3b e5 61 82 be e7 a2 62 be a9 22 7e bd
       0.0023913851 -0.25465313 -0.22132455 -0.062044773
0003d0 97 e2 0d be 4c 76 dc 3c a2 42 96 bc b5 3e 3e bd
       -0.13855968 0.026911877 -0.01834232 -0.04644652
0003e0 1e 15 08 be a6 3d bf bd 65 88 dd bc cc b7 70 bd
       -0.13289306 -0.093379304 -0.027042577 -0.058769032
0003f0 08 0a 42 be 76 1c 4b 3d 78 c8 86 bc e5 2a 6d 3e
       -0.18949139 0.04958769 -0.016453013 0.23160894
