customized/model/trained_model/customer_streamer/gru_32_10.pth (torch, 240321 bytes, 6 tensors)

gru.weight_ih_l0 f4 [384, 23]
00000000: efc4 63be 4198 7ebd 055e a9bd 4a65 37be
00000010: 7401 ccbd 29a9 01be 40df 64be 8a5a 90be
00000020: 8887 acbe 328a 133e 49c8 b5be cf46 34bd
00000030: d332 533e c244 b9bc d3e8 a53d 57e4 013d
00000040: 1fcf b9be c4e7 c73e 6976 f1bc 4d9a 343e
00000050: 14b1 2fbd 2390 1a3e c033 2abe dc40 043d
00000060: b836 c9bd 6bac 463c 2dff 09be 828b b5bd
00000070: 44b7 7dbe 238a 3fbe 36a2 41be ec68 47be
00000080: 78e5 89be 898f 1cbe b450 c93d e9b5 b9bd
00000090: a4e6 833d 2f0d 7dbc 2b55 04be c494 8d3e
000000a0: 02e7 34bd b959 b73d 2342 8dbe f382 8fbe
000000b0: 04f9 6ebe 3979 1fbe 5415 e6bb 1c3c d8bd
000000c0: ce36 323e 6bc8 49ba 7de1 1d3e 18ac 983d
000000d0: 25f3 5c3e 4378 883e 3e62 433e 6a54 d73d
000000e0: 60b3 12bd 3879 d03d 9a39 83bd 8d3e 7e3d
000000f0: 1a87 463d c4b5 9a3e 2990 ecbd 260a 543c
00000100: f2b5 273e 5c19 6b3e b929 893c 3439 9d3e
00000110: eb7d edbb 6fc6 1d3b 5598 c53d 65f6 52be
00000120: 4e71 0a3e f100 123e 6436 773d 1346 e4bd
00000130: d592 babc fc71 5cbc 646c 863e 1f20 9cbe
00000140: df3a 8c3e 72de ad3e d734 643e 68ab 8f3e
00000150: 5a71 553e fc0f 11bf ff83 6c3e 41ca 10bd
00000160: c355 7d3e 6022 2f3e 6342 5e3e 1dce 2a3d
00000170: dbf6 303e c9c0 503e a258 93bd 1be0 323e
00000180: 8a66 593e 7a53 b43e fe66 4c3e 02bf 8a3e
00000190: 1509 423e 5699 563e 94db 423e 4292 dd3d
000001a0: 1e06 eebb 7f30 683d ebcf c43c a23f 563e
000001b0: 4a2e 5abe 1101 45be 4043 22be d479 a93d
000001c0: 0e34 9a3e fffd cebc d58a a23e fb9f 2cbe
000001d0: f1ab 03be 0a2c 133e 90b0 85be 9a91 b5be
000001e0: 2af6 acbe f444 dabe f241 edbe 9e99 a1be
000001f0: bd03 03be 8fcf c6be 48df 63bc 6dd5 2c3e
00000200: f233 393d bb3f 5fbd cd75 d2bd dcc3 00be
00000210: fc80 dc3e 89e0 043e fff8 18be 48ef 95be
00000220: 3490 023c 2ae0 b6be d7a3 a53d 7418 1b3d
00000230: ec72 143d 28b1 1dbe 2db5 85bd 8403 3cbe
00000240: c16a 2bbe cdd4 f3bd baf3 31bd 0e2b 943c
00000250: 3a84 52bd d6d4 d6bd d244 a73e b817 323c
00000260: 6d6d e1bd ae65 57be d408 9c3d 8fb6 973e
00000270: 73e4 0abe 7635 50be b08f bb3d 93b3 44be
00000280: 4c4b a13a 8d19 bcbd b140 6abd 486b 403e
00000290: d8cd 66be e4df f5bc a294 f1bd 6255 31be
000002a0: 539f 1abe 348a e6bd 5330 e03c b131 9cbc
000002b0: 4065 04be 8371 a13e 8b5f 86be befb 8abe
000002c0: bdf5 5fbd 3dcb 99bc d404 923e 5427 5a3e
000002d0: 985c 923d b0e4 ee3c 077c bf3d 62f9 d3bd
000002e0: d93b a4bc adf8 2f3e 9fc4 b8bc 5708 a53d
000002f0: 8e38 773e c2e4 8b3e b253 1d3e 6bb4 513e
00000300: b427 c23d dfad b03e 6e5c a63e 1912 82be
00000310: d19e 173e cc50 6abe 688d 4dbe 3805 b63e
00000320: f537 7f3d a798 18be 1cc3 9fbd e435 ad3e
00000330: 0bc2 913e 0ac9 613e acfe 8c3e 5485 fbbd
00000340: a71c 7bbe 02fb 4e3e 2d34 33be 6aae 943c
00000350: afcb 3e3d 6714 8f3e 1d9d a33e 2a4f 9d3e
00000360: 7965 9dbe 82f7 4e3e 9f31 b1bd 65de f4be
00000370: a6c5 b7bd 9f9c c3bc 4704 c53c 9196 0a3f
00000380: c1db 94be c35a efbd 6da6 21be 858c 08bf
00000390: 7a3c 1ebd c5fc 3ebe b16e edbd 3939 78be
000003a0: 1a08 8f3e 14cb 0f3d 93ce 903e ce94 8e3e
000003b0: b6e1 783e 9041 743e 08f9 af3e 4a17 60be
000003c0: 615d 473c 0579 113e bd7e b6bd bd02 2b3e
000003d0: f786 533e 0685 053d 822c 64bd 88ec 6c3e
000003e0: d2fa 513e 8324 fbba 5cb5 aa3c b46a d33d
000003f0: 7b91 b43d 3a4a 73be fbda 60be 4ba9 d13e
-0.22243093 -0.06215692 -0.08269886 -0.17909732 -0.09961215 -0.12662186 -0.22350788 -0.28194076
-0.33697152 0.14408186 -0.35504368 -0.04401284 0.20624857 -0.022615794 0.08101048 0.031711902
-0.36290833 0.3904401 -0.029475408 0.17636986 -0.042893484 0.15094046 -0.16621304 0.032288417
-0.0982489 0.012126069 -0.13476248 -0.088645 -0.24776942 -0.18705039 -0.18909535 -0.19473618
-0.26932883 -0.1528913 0.09829846 -0.090679 0.064404756 -0.015445038 -0.12923114 0.27652562
-0.04416562 0.0895266 -0.2758952 -0.28029594 -0.2333718 -0.15573587 -0.0070215855 -0.1055834
0.17403719 -0.0007697406 0.15418048 0.07454699 0.21577127 0.26654252 0.19080445 0.105141476
-0.035815597 0.10179371 -0.06407471 0.06207137 0.048468687 0.302168 -0.11550934 0.012941873
0.16378 0.22958893 0.016743528 0.30707705 -0.0072476766 0.0024074574 0.09648196 -0.20601805
0.13519785 0.14258172 0.060354605 -0.11146178 -0.022775093 -0.01345491 0.2625457 -0.30493256
0.27388665 0.33958775 0.22285782 0.2806046 0.20844021 -0.56665015 0.23097228 -0.035349134
0.24739747 0.17102957 0.21705012 0.04170047 0.17281668 0.20386042 -0.0719464 0.17468302
0.21230522 0.35219938 0.19961163 0.27098852 0.18948777 0.2095693 0.19029075 0.10818912
-0.007263913 0.056686874 0.024024924 0.20922711 -0.2130672 -0.19238688 -0.15845966 0.0827519
0.3011784 -0.0252676 0.31746545 -0.16857903 -0.12858559 0.14372268 -0.2611127 -0.35462648
-0.33781558 -0.42630732 -0.46339375 -0.31562513 -0.12794395 -0.3883023 -0.013908215 0.1687829
0.045215555 -0.054504137 -0.10276375 -0.12574714 0.43067157 0.12976278 -0.14938734 -0.2928412
0.007968951 -0.357179 0.080878906 0.037865117 0.03624241 -0.15399611 -0.06528697 -0.18360716
-0.16739942 -0.11905823 -0.043445326 0.018086936 -0.051395632 -0.10489814 0.32669693 0.010869913
-0.110071994 -0.21034881 0.07618871 0.2963147 -0.13563709 -0.20332894 0.091582656 -0.19209127
0.0012305765 -0.09184561 -0.0571906 0.18790925 -0.2253946 -0.030013986 -0.117959276 -0.17317727
-0.1509984 -0.11256829 0.027366793 -0.019066663 -0.12929249 0.31531915 -0.26244769 -0.2714519
-0.054677714 -0.01877367 0.2851931 0.21304065 0.07146567 0.029161781 0.09349828 -0.103503
-0.020048069 0.17184706 -0.022554694 0.08058231 0.24142668 0.27322966 0.15363958 0.2047898
0.09480229 0.34507653 0.32492393 -0.25404432 0.14806677 -0.22882384 -0.20073473 0.35550857
0.062309224 -0.14901982 -0.07800886 0.33830178 0.28468356 0.22049347 0.2753805 -0.1228129
-0.24522649 0.2021294 -0.17500372 0.018149573 0.046580967 0.27945253 0.31955805 0.3072446
-0.3074148 0.20211604 -0.086520426 -0.47825924 -0.08973245 -0.023878394 0.024049891 0.54135996
-0.2907391 -0.11687233 -0.15786143 -0.53339416 -0.038631894 -0.18651111 -0.11593378 -0.24240579
0.27935869 0.03510578 0.28282604 0.27847904 0.24304852 0.23853135 0.34369683 -0.21883884
0.012168259 0.14206322 -0.08910892 0.16700263 0.20656954 0.032597564 -0.05570651 0.23137105
0.20505837 -0.0019160662 0.020838432 0.103230864 0.08816811 -0.23758784 -0.21958534 0.40949473

gru.weight_hh_l0 f4 [384, 128]
00000000: 1398 533c 3045 943d 3968 193e c74e 70bd
00000010: 819d 08be 7b22 b23d 66b7 23be e82d 83bc
00000020: 8950 fdbd 6e42 06be e1cc 9fbe 7295 fb3b
00000030: 330a 2abb 8a05 59be ccaa d6bd ed7d 9a3e
00000040: 85d0 c8be 5f08 e03d 0c35 5c3c d2cf 743e
00000050: 92ff 46bd 0d61 7dbc 6168 5dbd 8f90 20be
00000060: 0bae 2e3e 9295 d63b 5894 4cbd e871 3abd
00000070: 2562 29bc dcbb 9abe 5cd5 8bbd ee02 843d
00000080: 46b0 edbd 446b 3d3d 008a 823c 06ee 2e3d
00000090: 05a5 4bbd a347 0abe 3015 dcbd 1431 7dbd
000000a0: 726f 88bc c7bf 10be 4604 84be 0f91 5abd
000000b0: 1dcc 60bd f1ed 29be 2cb0 02be 9ab9 753d
000000c0: adb4 583c 0864 853e e4e0 c0bb 81b7 9cbc
000000d0: a869 3ebf 2daf 833e 1f3a d53c ecb1 5b3e
000000e0: 2719 e53c 73a1 0b3e 5cd6 0d3e 1326 a5bc
000000f0: a366 ec3d 582d eabe f30d 72bc af44 9abd
00000100: 1bcc ae3c 790e dbbd 6600 20bd b756 a33d
00000110: 2a47 04bd 5a45 b33e 540e 7dbd 164b 623d
00000120: 0bc5 11bf 94cd a5bd 2224 253c ac51 fc3d
00000130: 1634 763e 1e3d 273e e811 85be 15f0 0a3d
00000140: 2d72 473e b705 773e 8e9e 7d3d b2ae 803e
00000150: 6b6a ef3d af8e a73c aa1c 493e c4e3 54bc
00000160: 77e3 83be a03b 48be 64b0 f6bd 9693 933c
00000170: bbbc c83d a6ee 5f3d db3d b0be cdb8 f23a
00000180: 5a74 2e3d c25d 3e3d ae7d 53bd 5045 acbd
00000190: bb98 b53e f21c 7f3e 4a75 ba3e 5dbf 1c3e
000001a0: d324 a8bd a211 6cbe 5736 023e 80bd 20bd
000001b0: 3ced d3bd eae0 e6be 737b 313d c710 0e3e
000001c0: c3ad d0bd 32a8 ac3d 7b14 debd 1d68 3b3e
000001d0: 9d35 bc3e b4f3 84bd 9323 a9be 6b09 6b3e
000001e0: 810d b73e e8cd d8bc 4872 903d 28f5 2bbe
000001f0: 1e7b 66be 69b6 febe 3c54 d3bc 9438 4bbe
00000200: fc14 94bd 2847 9c3e c79d f2bd 0149 a9bd
00000210: e690 1fbe 9c1d cebd 41fd e8bd b835 543e
00000220: cfb2 79be fe45 cd3d fb8a 56be 8028 263e
00000230: b9c0 e23e 8d1e edbe 2ba0 2c3e 5d0c 1f3e
00000240: 94af bd3d b8a7 96be 5a58 6dbd 1db3 073e
00000250: 6d06 a5bd a8bf 2c3e 0aba 8cbe fccc 1ebc
00000260: 1619 d53e 92e0 0b3e 5997 193e bcd3 0c3c
00000270: 1d4a b23d 61f1 96bd 6267 fd3d f307 b4bd
00000280: bfc8 2dbe ea95 b8bd b05d 1bbe d9af debc
00000290: 569a d83d dcf2 4dbd e569 e6bd 894f 9ebe
000002a0: f4ec cd3e 5c52 a43d 1bda 2ebe c576 81be
000002b0: d3ec afbd e05f 94bd 2228 3bbe 3b8b babd
000002c0: b401 ed3c 4c69 85bd b98c 8abd a192 2cbe
000002d0: 20f9 c43d 2028 1d3e 2e07 303e 6349 5d3e
000002e0: fb6b 883d 0dbd 763d 7563 0d3f 9ecc 063e
000002f0: 9748 42be 9938 84be c030 a13e 899b 34be
00000300: d2d2 6abe db89 7bbe 3192 51bb ab72 af3e
00000310: 9276 ee3d 654d 083e dd7a acbe 1177 b7bd
00000320: 3850 463e 1ae2 d4bd 77c6 43be 6eff 543e
00000330: 1f82 923d af80 a13d 4bcb 203e c5aa 633b
00000340: dea1 d23d b7f5 a63e 961f 75be 23b6 55be
00000350: 1be6 b0be db3b 2e3e 86b4 7cbe 2847 b1bd
00000360: f0d5 183e 1210 7a3d 9543 283e ffb3 bc3e
00000370: a911 b23d 9c4e 0bbe fefc bc3e 6082 37be
00000380: af8f 2b3c 090c d83e efa7 1d3e c155 943d
00000390: 91ef 68be 2efc 223e 575e 77be feb4 fe3c
000003a0: 42ae 9b3d 770e 8d3e bfe4 2e3e 8b8b 353e
000003b0: 7a29 0dbe a09c 013e 2e1e 1eba dcee 8f3e
000003c0: 8f33 5b3d e382 7fbb 7f4e 053c e644 97bd
000003d0: f04e f1bd ebea a8be 9ef5 c53d 3e1a 23bd
000003e0: 6fdb c6bd da03 353e 63b2 d83e 78f7 f13d
000003f0: 1e25 613c b745 a63e 099d 26bd 44a0 9fbe
0.012914675 0.07239759 0.14981164 -0.058668878 -0.13341333 0.08697983 -0.1598793 -0.0160131
-0.123688765 -0.13111278 -0.31210998 0.0076777274 -0.002594602 -0.21193519 -0.10481796 0.301742
-0.39221588 0.10939097 0.013440382 0.23907402 -0.048583575 -0.015465033 -0.05405462 -0.15680145
0.1705858 0.006548592 -0.04994616 -0.045518786 -0.010338341 -0.3022145 -0.068278044 0.06445871
-0.11605887 0.046244875 0.015934944 0.042707466 -0.04971792 -0.1350389 -0.10746229 -0.061814383
-0.016654704 -0.14135657 -0.2578451 -0.053360995 -0.054882158 -0.16594674 -0.12762517 0.059991457
0.01322667 0.2605288 -0.005886184 -0.01913047 -0.7437997 0.25719586 0.02602869 0.2145459
0.027966095 0.13635807 0.13851303 -0.020159757 0.11543014 -0.4573772 -0.014773834 -0.075326316
0.02133756 -0.1069612 -0.03906288 0.07975524 -0.03229443 0.3501385 -0.061781242 0.05524739
-0.5694129 -0.080958515 0.0100794155 0.12320265 0.24043307 0.16331908 -0.25990224 0.033920366
0.19477148 0.24123274 0.061918788 0.25133282 0.116902195 0.020453779 0.1963984 -0.012993757
-0.2575948 -0.19553995 -0.120453626 0.01801471 0.098016225 0.054670952 -0.34422192 0.001851821
0.04259143 0.046476133 -0.05163353 -0.08411658 0.35468087 0.24913386 0.3641761 0.15307374
-0.08210149 -0.23053601 0.12716042 -0.03924322 -0.10347983 -0.4509347 0.04333062 0.13873588
-0.101893924 0.08430518 -0.1084375 0.18301435 0.36759654 -0.06491795 -0.33034953 0.22952811
0.3575249 -0.026465371 0.070530474 -0.16792738 -0.22507903 -0.49748543 -0.025797002 -0.19845802
-0.07230565 0.30523038 -0.118465 -0.082658775 -0.15582618 -0.10064241 -0.11376429 0.20723617
-0.24384616 0.100231156 -0.20951454 0.16226387 0.4428766 -0.4631237 0.16857974 0.1553206
0.092620045 -0.29424834 -0.057945587 0.1325192 -0.08057866 0.16869986 -0.27485687 -0.009692427
0.41620702 0.13659886 0.14999141 0.008595403 0.08705542 -0.07370258 0.12373234 -0.08790579
-0.1697111 -0.09012969 -0.15172458 -0.02718346 0.10576312 -0.050280437 -0.112506665 -0.30920056
0.40219843 0.08023521 -0.17075388 -0.25285926 -0.085900925 -0.07244849 -0.18277028 -0.09108587
0.028931476 -0.065142244 -0.06765122 -0.1685281 0.09617829 0.15347338 0.17190239 0.21610026
0.06661221 0.060238887 0.55229884 0.13163993 -0.18973003 -0.2582443 0.31482506 -0.17637457
-0.22931984 -0.24564306 -0.0031978006 0.34267172 0.11643709 0.13310774 -0.33687487 -0.08958257
0.19366539 -0.10394688 -0.19118677 0.20800564 0.07153725 0.078858726 0.1570255 0.0034739238
0.1028478 0.3260934 -0.2393783 -0.20870261 -0.34550557 0.1701502 -0.24678239 -0.0865615
0.1492536 0.061050482 0.1643203 0.36856076 0.08694775 -0.13604206 0.36911768 -0.17920828
0.010471269 0.42196682 0.15396093 0.07242919 -0.22747637 0.15916511 -0.24157082 0.031092163
0.076015964 0.27550098 0.17079447 0.17729013 -0.13785353 0.12657404 -0.0006031719 0.28111923
0.053515967 -0.0038987927 0.008136391 -0.07386188 -0.11782634 -0.32991728 0.096659884 -0.03981995
-0.097098224 0.1767725 0.42323598 0.11814779 0.01374176 0.32475063 -0.040677104 -0.3117696

gru.bias_ih_l0 f4 [384]
00000000: 9207 9f3c 3d1f f43d ef3b 1abe 5de1 88be
00000010: 0d44 423e ce92 3bbd df45 e83e 7576 c6bd
00000020: c808 3bbd 48b6 783d 884f 1f3d d145 1a3e
00000030: cef9 c5bd cdc8 df3d 56a1 febd bdea 213d
00000040: 4715 18bc 4750 b1bd 1c8e 663e f2f6 a5bd
00000050: 31a4 3abe 571c d43d 5969 1a3c 2a86 f73d
00000060: 26ad 313d 6cf9 ccbb b3dd 483d 6875 503e
00000070: 910e 98bc ea7c 40bd cd38 93bd f9fd 023e
00000080: 6e15 00bd ecbe c33c fa2c e13d d9a3 383d
00000090: 267a 983d 86d6 943d f21b 13be 8e3a 7dbe
000000a0: 7677 83bd d995 1b3d 0ff6 663d e579 e33d
000000b0: f2c7 0eba 4c30 183d 4503 2dbd 3757 d43c
000000c0: 4868 4c3c a853 b2bc d6c1 edbd f23b 863d
000000d0: 16f7 5f3e 8725 a23d 31a6 0e3e 81f5 e33d
000000e0: 0edd 0e3d 852e d8bd ff2a 5cbd 6d44 a9bd
000000f0: f4fe aebe 2ca6 69bd 0e25 153d 2708 0a3d
00000100: 75f2 15be 3a23 e23c 3ec2 223d a836 62be
00000110: 613b 813d f70a 813e 1e2a dd3d 70b3 303e
00000120: 53d6 dabc c6ac 8b3d 1d6f cebd 9432 8dbd
00000130: 1fe6 bdbd f228 443e 5a62 b63c db95 a33d
00000140: b313 dc3d 2869 a5bd af4a 8f3d ddd6 39bc
00000150: ccca 98be 8971 ee3c 2b12 413e c2fd 4abd
00000160: 3ce6 fb3c 4631 ac3d 2e16 d83c 0362 a33b
00000170: 0f91 a63d 873f d6bd b07c 8ebd 54b6 fe3d
00000180: 9f1e 0b3e 4004 74bc 0401 4c3e f74f fdbc
00000190: 710c 0d3e 1acd 39be 2817 2ebd d967 03bd
000001a0: cfc8 df3d ab24 2fbd a418 b23d 8a3c 9e3b
000001b0: 52aa 8ebd d203 553d 9670 9e3d 10b5 b23a
000001c0: 2bb8 56be 92c4 0d3e b8e8 e6bc f417 a43c
000001d0: d015 003d 5d93 c63d 1aa3 533e 6932 483e
000001e0: 427d bd3d a9b8 fbbd fb80 5a3e e1b3 35bd
000001f0: ddd1 edbc 44c6 3e3d d316 1fbe 11e0 883d
00000200: ec9d a03d 8bd2 aabd ef7f f03d af9e 4d3e
00000210: 30cc 263e d3ba 753e 0107 33be b54f a23d
00000220: bff0 c8bd d779 fa3d 8fa1 273e 05aa a73e
00000230: 563b e03d 2ee8 1a3e 2f72 743e 452a 89be
00000240: 6207 a83d 571e 293e f397 bdbd b717 24be
00000250: 9a2f c5bb 435e 153e 57fd 9bbd 0f26 43be
00000260: 974e 763e dd0d 563e a196 d43d 958a 923d
00000270: ae07 c23d 40e0 3e3e 2f8c 943d 2d8a f93d
00000280: 97df b83c 9e9b 91be 4ea0 8cbd 1445 21bc
00000290: cda7 b5bd dd34 5abd 23b6 d83d b07c 973d
000002a0: 9a5a 5b3c 7a9c 1c3d 69c3 253e 4323 9b3e
000002b0: 33c2 993d afe5 23bc 21e2 dfbd 88ae bebd
000002c0: 0dab a03c 3636 fabd 169b 963d 2560 b13e
000002d0: ee1b 20bc ee14 143d 0cce f63d 1c55 c43c
000002e0: ee21 063e 8cc4 7e3e ae63 b4bc 7950 de3d
000002f0: 1b83 8abd f21f f7bd 4cfb de3c 3cab 3abd
00000300: c50f f9bd 23d6 e63d 162a 8a3e a6de 8abd
00000310: 2f70 573e b159 73be dd1b 64bc 619b 36be
00000320: 5acc 63bd 55b2 87be 61b0 1c3e 3240 4b3e
00000330: 6533 babd 8e4d c6bd bf06 b8bc 587b b7be
00000340: 9251 813d 41e9 7b3d a668 243e e9cd 0cbe
00000350: b8d3 633d b712 d23c 96c6 1ebe c1de 2abd
00000360: 6655 adbd c9a3 7c3d c61d e83c aeff 06bd
00000370: 169a 8dbe c09c 06be 4741 a6bd 15ca 98be
00000380: 29bf 813d e720 91be cc1f 1f3d 432b d3ba
00000390: 094e e8bd 937a cb3c e117 323e 876d 3b3e
000003a0: 5381 5fbd b98f 1abe 6632 36be 93d2 713c
000003b0: 3b2c 0d3e 6a98 8bbe 8ea5 2cbe f6a0 fcbd
000003c0: e886 9f3d f2f5 833b 836a a53c f8a6 ae3e
000003d0: f1fe 65bd 5614 663d c4eb 4fbe 9829 3bbe
000003e0: 6b05 813c 89ed 673d 9565 f3bd f568 a63d
000003f0: 4385 ea3b 9bc0 0bbd 5d1e d53e e65e 81bd
0.01941279 0.11920021 -0.15061925 -0.2673444 0.18971272 -0.0457943 0.45365807 -0.09690563
-0.04566267 0.060720712 0.038894206 0.15065695 -0.09666787 0.109269716 -0.12433116 0.039530504
-0.009282417 -0.0865789 0.22515148 -0.08103742 -0.18226697 0.10356968 0.009424531 0.12086137
0.043378018 -0.0062553193 0.049039554 0.20357287 -0.018561633 -0.046994127 -0.07188568 0.12792195
-0.031270437 0.02389475 0.10994907 0.045078132 0.07445173 0.072674796 -0.14366129 -0.24729368
-0.0641927 0.037984703 0.056387004 0.11107234 -0.0005446664 0.037155434 -0.042239446 0.025920494
0.012476034 -0.021768406 -0.11609237 0.065544024 0.218716 0.07917314 0.13930584 0.111308105
0.034878783 -0.10555748 -0.05375194 -0.08265004 -0.3417889 -0.05704324 0.03641229 0.03369918
-0.14643271 0.027604688 0.039736025 -0.22091162 0.06310154 0.25203678 0.10799049 0.1725595
-0.026713526 0.06820063 -0.10079787 -0.06894413 -0.09272408 0.19156244 0.022263695 0.07987567
0.10745945 -0.080766976 0.06996667 -0.011342731 -0.29842222 0.029106872 0.18854587 -0.04955841
0.030749433 0.08407836 0.026377764 0.004986049 0.081331365 -0.10461336 -0.06957376 0.1243712
0.135859 -0.014893591 0.19922262 -0.03092192 0.13774277 -0.18144646 -0.042502552 -0.03208146
0.10926973 -0.04275958 0.08696106 0.004828994 -0.0696608 0.052005596 0.07736318 0.0013634283
-0.20968692 0.13844517 -0.02818714 0.020030953 0.031270802 0.09696076 0.20667687 0.1955048
0.09252407 -0.122910805 0.21338265 -0.044361 -0.029030735 0.0465758 -0.1553605 0.06683362
0.07842621 -0.08340939 0.117431514 0.20080064 0.16288829 0.23997049 -0.1748314 0.07925359
-0.09811544 0.1223027 0.16370223 0.32746902 0.109488174 0.15127632 0.23871683 -0.26790062
0.08204533 0.1651548 -0.09257498 -0.16024671 -0.0060176374 0.14586739 -0.0761668 -0.19057487
0.24053417 0.20903726 0.10380293 0.07155339 0.09474121 0.18640232 0.072533004 0.12184558
0.022567553 -0.2843904 -0.06866513 -0.00984313 -0.08869896 -0.05327307 0.10581615 0.07396829
0.0133883 0.038235165 0.16187824 0.3030034 0.07507744 -0.010003491 -0.109318025 -0.09310633
0.019612813 -0.12217371 0.07353799 0.34643665 -0.009772284 0.036152773 0.12051019 0.023966365
0.1309888 0.24879664 -0.022020187 0.10855193 -0.06763288 -0.1206664 0.027219437 -0.045573458
-0.12161211 0.11271312 0.26985234 -0.06780748 0.21038888 -0.23764683 -0.013922659 -0.1783271
-0.055614807 -0.26503244 0.15301658 0.19848707 -0.09091834 -0.09682761 -0.022464154 -0.3583629
0.063143864 0.061501745 0.16055545 -0.13750423 0.055621833 0.02564369 -0.15505442 -0.04171634
-0.08463554 0.061679635 0.02833451 -0.03295868 -0.2765662 -0.13145733 -0.081179194 -0.29841676
0.06335289 -0.28345415 0.038848683 -0.0016110915 -0.11343009 0.024838721 0.17391922 0.183035
-0.054566693 -0.15093888 -0.17792663 0.014759677 0.13786404 -0.2726472 -0.16860029 -0.12335388
0.07789403 0.0040271217 0.02019239 0.34111762 -0.056151334 0.056171738 -0.20304781 -0.18277586
0.015749654 0.056623016 -0.118846096 0.08125488 0.0071569993 -0.03411923 0.41624728 -0.063169286

gru.bias_hh_l0 f4 [384]
00000000: 9680 ec3c 008c 5e3e 6c06 89bd 8322 95be
00000010: 708f 173e b386 343c 1bf9 e43e e93b 2e3c
00000020: 5b83 b5bd 6264 c53d ca9f b43d dc2e e03d
00000030: 212d 8cbd 4a4c 043e bfba e6bd 978a 203e
00000040: 13f9 acbd b4a2 90bb 6084 e83d caa1 6fbd
00000050: 5432 36be 3d55 8f3c 8c4b 123e 18bd 6c3e
00000060: a834 ef3d 815c 703c 9073 823d 3810 2c3e
00000070: 1099 b43d a321 b5bd b7b5 033d 3303 183e
00000080: 973d d1bd f2ae 5cbc 36b9 883e 4a7b ac3d
00000090: 7443 163e 63f7 033e d618 55be bf16 8bbe
000000a0: dce7 debd 82e6 b3bc 7d85 e73d 6a8a 643d
000000b0: ffe9 553d 1596 ddbc d7bb eabd 9b0e bf3d
000000c0: d268 213c 57cc 023e 0d0c 2ebe 529c cb3d
000000d0: 30ae 1e3e 007d 893d d514 943c f747 8b3d
000000e0: 80a2 163d afe4 02ba 39e3 24be b3e4 8fbd
000000f0: 083c 63be 9a97 833c ea1f 4d3b 24ef 1c3e
00000100: 4763 04be 8bf6 643b 8cec 9ebc 555a 54be
00000110: 9ee5 4abd bf8c 543e 931e 033d bf27 443e
00000120: 7496 1ebc 86dd 8d3d f461 0bbe 76f7 efbd
00000130: 6151 6bbd 40e7 1b3e 857f 41bd 5334 c83d
00000140: 4820 9b3d 1420 4cbd e626 1f3e d632 b2bd
00000150: 2d6d 74be f3dd de3d 6553 6b3e 6a3c 673d
00000160: 1400 503d 748c 863c 6cab 87bb 9cfd 47bd
00000170: 9dc5 1c3e b6f6 84bd d742 ab3c d9aa cc3d
00000180: 60b8 c73d 861d 813d 59cd b63d ce32 293d
00000190: 8120 ed3d e5e4 0abe 780f e2bd ae56 a93d
000001a0: 9e36 603c f081 703d d25b c73d 451e fc3d
000001b0: 9ccc 29be c7bd 9d3d 7f56 c23d ad11 133d
000001c0: e538 60be 8a46 413e 50ae 56bd 1658 23bb
000001d0: 4e68 633c 54bc 093e ebba 583e 50bc 1a3e
000001e0: c9e4 c53c b459 9abc 6728 8c3e 795a f03d
000001f0: 7ef2 a23c 487a c03d 6aca 69bd b804 a93d
00000200: 85be 243e 377e 1fbe 2195 4a3e 51ee 963e
00000210: 5eac 4a3e d436 0d3e cfc7 4abd 47ca a4bc
00000220: 4b4f 3fbe 3edc 2f3c 75a0 0d3e 24ec 9e3e
00000230: 83c2 593d cc04 7c3d 9527 443e e56c 9ebe
00000240: 5601 c03c e7e3 683e 0400 283d 1da1 3abe
00000250: 2139 0dbc 4ef7 d93d 401a 15bd fcd7 e5bd
00000260: fc9d 353e f08f 4e3e fb5a 363e b14e 063d
00000270: 6bd0 f93d 7965 c13d a2f6 c63d c287 3e3d
00000280: f679 2ebd 73ee 58be 2f80 45bd cbb9 4cbd
00000290: b7e9 c538 44f6 1cbe 539a 27bd 3cae 853d
000002a0: 783c df3d 4476 09bc 0743 523e 4e99 863e
000002b0: dcb4 873b 59ce 793d 8c8e d2bd f4f5 2dbd
000002c0: 7cc0 e73d dce2 13be 646d 8e3d f193 a63e
000002d0: 3e82 7cbd 7ea8 783d 6f4c 773e 0f3b 163e
000002e0: 2521 753c d1fb 933e 7fe0 a3bd dc9b c13c
000002f0: 48a9 16bd 06af 5abe 98d4 203c dfe3 813c
00000300: 65dd 42be fc47 4d3e aec5 ab3e 4666 f33c
00000310: 725a d73d e69a 48be ca1b 22be e2ed d4bd
00000320: 8728 94bd ec31 e6bd 5b81 533e bfda 813e
00000330: 0dcc 84bd 3dc3 bbbd bb0b 8f3c 4997 74be
00000340: 61d3 0dbd ce78 9e3d 9b2c 823e 77f4 92bc
00000350: 0266 643d 284e d93c 9654 14be 6269 003d
00000360: 8c95 813d 5ab2 c6bc c7a3 70bb bf24 f03d
00000370: da4e 94be affa 38be 385e eebd b842 84be
00000380: 0694 8c3d 8b28 98be 217b bcbd 794c 2f3c
00000390: 48e9 74be 8a44 753d 404a 7c3e d3c6 fc3d
000003a0: a3ab 14bd f974 0abe e09f 7cbe f8d1 a73d
000003b0: ef5a 223e 17b4 babe f245 eebd 2b66 67bd
000003c0: 752f 163e f3d0 b93d f517 f6bb 1007 6c3e
000003d0: d7e3 0abe db3e 5c3e 0dc6 0dbe 291c afbd
000003e0: 7760 8f3d 3bbe 393e fdcb 57be b491 e83c
000003f0: 3ecb 0f3d 1c18 00bd c1cb c33e 9a29 e2bd
0.028869908 0.21733093 -0.06690678 -0.29127893 0.14800811 0.011018443 0.44721302 0.010634401
-0.08862945 0.09638287 0.0881954 0.10946438 -0.06844545 0.12919727 -0.11266088 0.15677868
-0.08445945 -0.004413927 0.113533735 -0.058503903 -0.17792636 0.0174967 0.14286631 0.23119009
0.11679965 0.014670492 0.06369698 0.16803062 0.08818257 -0.08844306 0.03215572 0.1484497
-0.102168255 -0.013469445 0.26703805 0.08421953 0.14674169 0.1288734 -0.20810255 -0.2716579
-0.108840674 -0.0219605 0.11304758 0.055796064 0.05222511 -0.027049104 -0.11461609 0.09328958
0.009851651 0.12773262 -0.16996785 0.09941925 0.15496135 0.06713295 0.01807634 0.068008356
0.036776066 -0.0004993183 -0.16102304 -0.07026043 -0.22190869 0.0160635 0.003129954 0.153256
-0.12928496 0.003493699 -0.019399904 -0.20737584 -0.049535386 0.20756815 0.03201158 0.19155787
-0.0096794255 0.06927018 -0.13611585 -0.11717121 -0.057450656 0.15224934 -0.047240753 0.09775605
0.075745165 -0.04983528 0.15542182 -0.087011024 -0.23869772 0.10882177 0.22981031 0.0564541
0.050781325 0.016424395 -0.004140308 -0.048825845 0.15309758 -0.06492369 0.020905895 0.09993524
0.097519636 0.06304459 0.08925886 0.041308217 0.11578465 -0.13563879 -0.11038107 0.08268486
0.013684897 0.058717668 0.0973431 0.12310461 -0.16581959 0.07702213 0.09489154 0.03590553
-0.21896704 0.18874565 -0.05241233 -0.002492433 0.013879849 0.13450748 0.21165054 0.15110898
0.024156945 -0.018841602 0.27374575 0.11736006 0.01989102 0.09398323 -0.057077803 0.08252853
0.16088302 -0.15575491 0.1978345 0.29478696 0.19792315 0.13790447 -0.04950696 -0.020115985
-0.18682592 0.010733662 0.13830741 0.31039536 0.053164016 0.061528012 0.19155724 -0.30942455
0.023438137 0.22743188 0.04101564 -0.18225522 -0.008619578 0.10642873 -0.036401987 -0.112228364
0.17736048 0.20172095 0.17808144 0.03278989 0.12197956 0.094431825 0.0971501 0.046516187
-0.04259678 -0.21184711 -0.04821795 -0.049981873 9.437225e-05 -0.15328318 -0.04091866 0.06527373
0.109002054 -0.008390013 0.20533381 0.26288837 0.004141433 0.060987804 -0.10281095 -0.042470887
0.1131601 -0.14442009 0.06954458 0.32534745 -0.061647646 0.06070756 0.24150251 0.14670967
0.014961516 0.28903058 -0.080018036 0.02363389 -0.036782533 -0.21355829 0.009816311 0.015855728
-0.19029768 0.20046991 0.33549255 0.029711854 0.10515298 -0.19590339 -0.15830913 -0.10396935
-0.072342925 -0.112399906 0.20654814 0.25362203 -0.06484232 -0.09168098 0.017461648 -0.23885836
-0.034625415 0.077378854 0.25424656 -0.017938836 0.055761345 0.026526526 -0.14485392 0.0313505
0.06327352 -0.024254967 -0.0036718713 0.11725759 -0.2896641 -0.18064378 -0.116390646 -0.25832152
0.06864171 -0.29718432 -0.092031725 0.010699385 -0.23917115 0.059879817 0.24637699 0.1234261
-0.036296498 -0.13521184 -0.24670362 0.08194345 0.15855001 -0.36465523 -0.11634435 -0.05649392
0.14666541 0.09073057 -0.00751018 0.23049569 -0.13563477 0.21508352 -0.13845082 -0.08550293
0.07000821 0.18138973 -0.21073909 0.02838979 0.035105936 -0.031272992 0.3824139 -0.11043091

fc.weight f4 [7, 128]
00000000: 78dc 86bd 63d6 35be a992 313e 3428 2d3d
00000010: 61e4 a03d 55b9 6ebe 547f 7d3e 23cb 13bd
00000020: 601e db3e a7da ffbc ff26 2ebe eb00 ed3d
00000030: 6244 3bbe 85c2 12bd 7d75 66be dc19 00bf
00000040: 0f0c bc3e 0ec2 3b3e 4983 703d 47d2 90bd
00000050: 7f6a 1abe 111d ccbd 772b e0bc 9a6a 5f3d
00000060: dfb6 2fbe 03ff 05be 4418 ddbd 7afb 44be
00000070: ed1a 01bc fa8f 383e a662 1ebe 7526 c43c
00000080: 19d4 853e e19e 973d 6b6a 25bd 582e 05bd
00000090: e497 1e3e 2b40 54be d6e8 eabd a6ce 803e
000000a0: e0eb dcbd f018 b5be e05d 6dbe 1866 87be
000000b0: 69d1 73be 6de9 863e 83f6 063e 3813 b43e
000000c0: a5ad b5bd 13ca 703d 3b2e a43e 7c3a a8bd
000000d0: 7a55 af3e 4755 4abe d65a 67bd 15be 86be
000000e0: 101a ffbd dada 98be 5f56 97be 9087 5c3e
000000f0: 1dd9 ccbd 86a6 f23d 850b 9fbe edd3 4a3c
00000100: e02b 9dbe cf83 403e 452b 3f3e a472 82be
00000110: 118b 763e 576b 20bd 6960 113e cdd9 853d
00000120: 51d5 963e 6e29 a9bd cbe5 65bd 5c9b 4fbe
00000130: ecc1 46bd 7f30 0f3e 95bb d83d f1b0 c33d
00000140: 4536 293e 15a8 d9bd 0b84 89bb 2158 0abd
00000150: 51eb 84bd 04ef 3abd 97cf a2be 31a5 96be
00000160: fe25 debd 2747 9bbc 4e62 32bd 9a3f 7bbd
00000170: 9b0a 583e 9ec8 633e 62a5 bdbd 5a30 a03c
00000180: 4dc4 ae3d 3904 5fbd 4711 953d f271 7c3d
00000190: b992 cebb 81ec 6cbe 7ae7 c43d f71f 413e
000001a0: 0e70 a0bd 8ef4 f0bd 2c79 e1bd 692b fb3c
000001b0: f256 4f3e 2999 173e bd33 eebd d46c 1e3e
000001c0: f17d 75be 8aba da3d e548 05be 935c e73c
000001d0: 284c 893e 8c2e efbc f0f3 323e c2c5 cebe
000001e0: 97a3 e0be 6dd4 9d3d 3131 3a3e 4b03 83bd
000001f0: c668 ea3d 4cc6 033c cda8 b8bc 3501 a63e
00000200: b4a6 b8bb a57a 863e c5d6 3dbe ce90 7fbe
00000210: 03fc 0cbe 99ba eb3d 00d9 42be 2930 cbbd
00000220: 2aa0 cebd 5ee1 533e 2002 6c3e d0d5 76be
00000230: 5b18 61be da7f b9bc 5ef5 0e3e ec84 5f3e
00000240: 481a d03d ac3c 91be 55e5 54be b9c0 2abe
00000250: c154 f23d 2a1f 68bd 22f2 763e 8e53 403c
00000260: f12e a2bd d1ba 2e3d 1d0f 4fbd 99a1 e23b
00000270: 6b23 223d 0102 b8bc e9f0 be3d 3118 173e
00000280: 7578 c2bd d5ac 09be 1332 02be 3cad f13d
00000290: f530 74be 6ff5 a9bc 3527 a33d 92e8 c03d
000002a0: bb4b b53e 438f aabc 4bae 4d3e 0180 ff3d
000002b0: 35ad a53e ad85 f5bd b587 48bd 505c 6bbe
000002c0: be1c 5dbd a622 c3bd ef2f 49be a1ed 9cbb
000002d0: 78a5 78be ddd3 6bbd 8e2b 98be 2ffd aa3d
000002e0: d72f a0bd f1ae e13d 3405 43be 494f f2bd
000002f0: b745 cf3d e59a 313e 5250 ccbd dce2 d63d
00000300: 1f0f 0a3d 4ec1 c5bd 8c92 5e3e b4ce ebbd
00000310: 5270 58bd 3c18 2ebe f162 1e3e 8692 3fbe
00000320: 3159 0c3c 8bed 9bbc 02d4 c63d 09f8 a7bd
00000330: 4070 143d 842a 81be 8479 7abe b43d bebd
00000340: 77a8 afbd 78f9 393e 07a7 d83d 05fe d23d
00000350: dddf 7a3d 3305 24be f45f f23d 1c39 883e
00000360: ee19 023e 664d 073e 313b 92be 2675 5c3e
00000370: 5653 8d3d ac19 2d3d bab9 a1bc 2e58 c63e
00000380: fcfb 05bc 4658 6cbe 7e0a 163e 09ef 863b
00000390: 7d24 9abe f127 97bc 3b03 4e3b 576a 3a3d
000003a0: f91c 13be e5a2 e83d f887 623d 1c16 39be
000003b0: c8e2 3dbe 5b28 093e b27e 40be 1255 4d3e
000003c0: 7364 933b a0bb d83d 04f8 20bd 2334 22be
000003d0: 36d4 1bbe aea8 f1bd dd40 733d 4316 093d
000003e0: d098 05be 5610 92be c41d c8bd 1f37 8fbd
000003f0: 1214 873e 945f ca3e 0bc3 42be 39c8 cc3d
-0.0658502 -0.17757563 0.17341103 0.04227467 0.0785606 -0.23312886 0.24755603 -0.0360824
0.42796612 -0.031232191 -0.17007063 0.11572441 -0.18287805 -0.03583004 -0.22505756 -0.5003946
0.3672795 0.18335745 0.058718953 -0.07071357 -0.15079688 -0.099664815 -0.027364476 0.054545023
-0.17159604 -0.1308556 -0.10795644 -0.19236556 -0.007879955 0.18023673 -0.15467319 0.023944119
0.2613838 0.074033506 -0.04038469 -0.0325149 0.15487629 -0.20727603 -0.11470191 0.2515766
-0.10787177 -0.35370588 -0.23180342 -0.2644508 -0.23810352 0.26349965 0.13179974 0.35170913
-0.08871011 0.058786463 0.3206652 -0.0821428 0.342449 -0.19759093 -0.056483112 -0.26316896
-0.12456143 -0.2985447 -0.29558083 0.21536088 -0.100023486 0.11848168 -0.31063476 0.012379629
-0.30697536 0.18800281 0.1866885 -0.2547809 0.24076487 -0.039164867 0.14196934 0.06535683
0.29459623 -0.08259855 -0.05612735 -0.20274109 -0.048524782 0.13983344 0.105826534 0.09555233
0.16524608 -0.10627762 -0.004196649 -0.033775453 -0.064901955 -0.0456381 -0.31799003 -0.29422906
-0.1084709 -0.018954827 -0.043550782 -0.061339952 0.21097796 0.22244498 -0.0926006 0.019554306
0.08533535 -0.054447386 0.07278686 0.061632104 -0.006304112 -0.23137094 0.09614463 0.1885985
-0.07833873 -0.11765395 -0.1100944 0.030660348 0.20248011 0.1480452 -0.11630962 0.15471202
-0.23973824 0.10680111 -0.13016088 0.028242385 0.26815915 -0.029197 0.17475867 -0.40385252
-0.4387481 0.077065326 0.18182828 -0.063971125 0.11445765 0.008042883 -0.022541428 0.32422796
-0.005635107 0.26265445 -0.1853896 -0.24957582 -0.1376801 0.115102 -0.19028091 -0.09921295
-0.100891426 0.2069144 0.23047686 -0.24105 -0.21981947 -0.022643972 0.13960788 0.2182805
0.10161263 -0.283666 -0.20790608 -0.1667508 0.11832572 -0.056670345 0.24115804 0.011738671
-0.079191096 0.04265863 -0.050551523 0.0069162366 0.03958456 -0.022461893 0.09323294 0.14755322
-0.094956316 -0.13444836 -0.12714414 0.1180062 -0.238468 -0.020746915 0.079664625 0.09419359
0.3540934 -0.020820266 0.20086019 0.12475587 0.3235871 -0.11988387 -0.048957545 -0.22984433
-0.05398249 -0.09528093 -0.19647191 -0.0047890698 -0.24281871 -0.057575095 -0.2972073 0.08349072
-0.07821625 0.110196956 -0.19044954 -0.11831529 0.10120719 0.17344244 -0.099762574 0.10492489
0.033705827 -0.096560106 0.2173559 -0.11514035 -0.052841492 -0.17001432 0.1546743 -0.18708238
0.008566187 -0.019034168 0.09708406 -0.08201606 0.036239862 -0.2522775 -0.24460417 -0.09289113
-0.08577054 0.18161571 0.10578733 0.10302357 0.06124865 -0.16017608 0.11834708 0.2660607
0.12705204 0.13213119 -0.28560784 0.21529064 0.06900661 0.04226081 -0.019741882 0.3873915
-0.008177754 -0.23080549 0.1465244 0.0041178507 -0.30105963 -0.018451663 0.003143503 0.04551157
-0.14366521 0.11359195 0.05530545 -0.1807484 -0.18543541 0.133943 -0.1879833 0.20051983
0.0044980585 0.10582662 -0.039299026 -0.15840201 -0.15217671 -0.11799751 0.05938803 0.033468496
-0.13046575 -0.28528088 -0.09771302 -0.069929354 0.263825 0.39526045 -0.19019715 0.09999127

fc.bias f4 [7]
00000000: 7dd8 063e ec32 1dbd 5281 d5be 80eb 05be
00000010: b8a2 62be 022d 2b3e 7335 4b3d
0.13168521 -0.03837864 -0.41700226 -0.13078117 -0.22132385 0.16716388 0.04961152
