customized/model/trained_model/customer_streamer/gru_32_15.pth (torch, 240318 bytes, 6 tensors)

gru.weight_ih_l0 f4 [384, 23]
00000000: 51ff 93be 61ab 75be 4487 ca3d 988b 7fbe
00000010: 421d 023e 4df9 873d 7b53 84bd 9aad 453d
00000020: 1304 413d 0a90 313e b1f5 2dbc 4390 c1be
00000030: 3e9e 383e 4e07 cdbe 545d c4be 5fce 7a3e
00000040: 85d3 283c be6d 543e 3544 023e d9db 4c3e
00000050: 39ad e03d 7108 b03e 9557 11bd 623d 8e3e
00000060: cd9d c83e 820f 95be 351b 863e 4380 483e
00000070: e166 0f3e 5ade 183e a7c5 983d 3ee9 213e
00000080: a15b 9a3e 90b9 703e 0e9c 53bc a766 0b3c
00000090: 387c 233d adb5 dfbc c029 273e f0c2 33be
000000a0: e736 8ebe 4045 8cbe 0f65 0a3e b973 8c3e
000000b0: 6a60 83bd ae09 d63d 3ea8 e5bd 4cc2 43bd
000000c0: ad75 6cbc 9e7a 8dbe 1b72 cdbc 16c1 d1bc
000000d0: 858e 05be 1e0e 3abe dfb2 59bd b128 7a3e
000000e0: 78e6 d1bc bfea 69be 56d9 933e e89c a1be
000000f0: eb65 2cbe 3f4b a23b 1308 393e e88b 723e
00000100: a633 04be 34a2 dfbc 11c3 393e e656 2fba
00000110: 62c7 4e3d e620 713e 7623 273e 35a2 23be
00000120: 5b60 573e 5588 abbd 52f3 9abd 56b7 3bbe
00000130: c037 d3bd c0b6 5fbe d408 353e 0855 873d
00000140: b022 7a3d f3e9 0fbe 3423 0d3c c64b 363c
00000150: 8cda babd 2cb9 89bd 210f b2be 6e5e dd3e
00000160: 5842 1fbd eb14 2c3e 598f 00be 369b 993d
00000170: 0936 99bc 6bd1 e6bc 8d83 c9bc 6147 1dbc
00000180: 7c8b 30bb 2aa0 c7bd 1992 603d 67b6 fabc
00000190: 88d2 94bd 61bc b83d 2941 143e aabf 0bbe
000001a0: 7ae6 94bd 159b 41be d0fe 5cbe fc4b b93c
000001b0: 603f 843e 43cc 4dbd bbc9 883d 43ae e6bc
000001c0: f0ed 4dbd 913f 9c3d e3f7 963d 971e 533d
000001d0: 6a10 7d3d c7fc 933d 9db4 57bc 11af ef3d
000001e0: 93d8 2c3e 7061 b13d bd7b 763e a665 2f3e
000001f0: 0c3d 0a3e 859c 023e afa8 f2bd c7c4 d73d
00000200: 8d92 1ebe 8f62 58be e372 b73d 6097 8d3d
00000210: 78c5 363b 2700 a43d 604a 063e 6834 133e
00000220: 0f14 e23c 0141 633e b91f 443e 9452 633e
00000230: 172b 06be 5c7b ed3d bb75 15bd 782a 21be
00000240: 5565 a7bd 2b09 07be 8340 b1bd 2642 9c3c
00000250: c28c 103e 0873 f33d d21d aa3b 2cce d43c
00000260: 6412 fb3d 0202 a5be 1550 1abe 525e 92be
00000270: ef94 eb3d efa5 47be cb64 123e 4d34 41be
00000280: fbda 0abd cf20 3dbe 8ca0 d2bd 58b7 b53d
00000290: 5833 64be d3cb 82bd 8292 0fbe 8f7a c0bd
000002a0: 9da8 d4bd 8c32 32be ac4d 2f3e babd 32bd
000002b0: 5d2f fcbe 7042 523e ec70 d4be 6e8b d6be
000002c0: b5f5 963d 2bd9 a73d 8c93 e63d 9823 5a3d
000002d0: 6462 ca3d 3ae9 64bc 34bc f63d 1338 4ebe
000002e0: 94d7 69be 22b7 84be 757d df3e b148 7cbe
000002f0: fb3b 2b3d c046 e1bd 4654 57bc 485e 97bb
00000300: 4c96 c7bc 9b87 32be 93ef 84bd c619 1bbd
00000310: e4c7 183e 51b6 1cbd a9cc 02be df6d ef3d
00000320: 397c 943d 9982 b13e 7be9 423d 398d 063e
00000330: 1556 40be 167e 463e 2ac8 22be 9879 91be
00000340: 704d 9fbe 7a8b d53e a4ef 79be 41e3 52bd
00000350: ef39 7dbe d7bd 133e 5f59 713e 799a 7d3e
00000360: b1e8 3cbe 0123 6fbe 8a81 d13d ff93 81be
00000370: 46c8 293d f8f1 823d d087 393e 68d6 303e
00000380: c312 9f3e 0105 a93e da70 033e 0099 81be
00000390: d000 383e 3c23 64be 89ea 47be 8e2d 61bd
000003a0: 71dd f7bc 4d4b 77be c047 b1be d435 87be
000003b0: e7cd 54be 6e4c 84be 7bc2 47be 1f4a 04bd
000003c0: b752 9abd a0d4 9cbe 247e 153e 5fe7 41be
000003d0: bfa9 9cbe 8c33 53be ca55 783e 6687 b93d
000003e0: 8865 40bd fbc6 fabd 2bb4 09be f66b 8abd
000003f0: 44c6 67be cc54 a5be 55cc 1f3b cb00 2fbe
-0.28905728 -0.23991157 0.09889081 -0.24955595 0.12706473 0.06639347 -0.06461235 0.048261262
0.047123026 0.17340103 -0.010617659 -0.37805375 0.18029115 -0.40044636 -0.38352454 0.24492787
0.010304336 0.20744988 0.12721331 0.2000574 0.109705396 0.3438144 -0.035483915 0.27781206
0.39182892 -0.29113394 0.26192632 0.19580178 0.14004089 0.1492857 0.07459574 0.15811631
0.30148032 0.23508286 -0.012915624 0.008508361 0.039913386 -0.02730831 0.1632452 -0.17554832
-0.27776262 -0.27396584 0.13515113 0.2743204 -0.06414874 0.10451065 -0.1121373 -0.047792718
-0.014432353 -0.27632612 -0.025078824 -0.025604766 -0.13042648 -0.18169448 -0.0531491 0.24429585
-0.025622591 -0.22843455 0.28876752 -0.31565022 -0.16835754 0.0049528177 0.18069486 0.23686182
-0.12910327 -0.027299024 0.18140818 -0.0006688669 0.050483115 0.23547706 0.16322121 -0.15979846
0.2103285 -0.08375613 -0.07565941 -0.18331656 -0.10313368 -0.21847057 0.17679149 0.06608015
0.061068237 -0.14054088 0.00861435 0.011126464 -0.09123716 -0.06724772 -0.34777167 0.43236107
-0.03888163 0.16804855 -0.12554683 0.07500307 -0.018702524 -0.02817603 -0.024598861 -0.009599538
-0.0026938608 -0.09747346 0.05482683 -0.030604554 -0.07266718 0.090203054 0.14477982 -0.13647333
-0.072705224 -0.18906815 -0.21581578 0.02261924 0.258296 -0.050243627 0.06679102 -0.028159266
-0.050275743 0.07629312 0.073714994 0.051542845 0.06178323 0.07225948 -0.01316562 0.11703313
0.16879492 0.08661163 0.2407064 0.1712862 0.1349985 0.1275502 -0.1184858 0.10535579
-0.15485592 -0.21131347 0.0895746 0.06913638 0.0027888697 0.080078416 0.1311431 0.1437546
0.027597455 0.22192766 0.19152726 0.2219947 -0.13102375 0.115957946 -0.03648923 -0.15738857
-0.081736244 -0.13187091 -0.08654883 0.01907451 0.14116195 0.11887175 0.005191543 0.025977217
0.12259367 -0.32228094 -0.15069611 -0.28587586 0.11503016 -0.19496892 0.14296262 -0.18867607
-0.033900242 -0.18469547 -0.10284528 0.08872861 -0.22285211 -0.06386533 -0.14020732 -0.09398376
-0.10383723 -0.17402095 0.17119473 -0.04363797 -0.49254885 0.20533156 -0.41492403 -0.4190325
0.07371084 0.081957184 0.11258611 0.0532566 0.09882048 -0.013971621 0.12047616 -0.20138578
-0.22836143 -0.2592097 0.43650404 -0.24637105 0.04180525 -0.109998226 -0.013142651 -0.0046193935
-0.02436366 -0.17434542 -0.06491008 -0.037866376 0.14920002 -0.038259808 -0.12773384 0.11690878
0.07250256 0.3466995 0.047585946 0.1313981 -0.18782838 0.19384035 -0.15896669 -0.2841308
-0.31113768 0.41707975 -0.24407822 -0.051486257 -0.24729131 0.14427887 0.23569249 0.24765958
-0.1844814 -0.23353197 0.10229786 -0.25308225 0.04145076 0.06393808 0.18118215 0.1726929
0.31069002 0.3301163 0.12836018 -0.25312042 0.1796906 -0.22279066 -0.19523062 -0.054975085
-0.030256959 -0.24149819 -0.34625053 -0.26408255 -0.2078167 -0.2583956 -0.19507782 -0.03229725
-0.07535308 -0.3063097 0.145989 -0.18935917 -0.30598256 -0.20625132 0.24251476 0.09059028
-0.046971828 -0.12244984 -0.13447635 -0.06758873 -0.22634226 -0.32291257 0.0024383266 -0.17090146

gru.weight_hh_l0 f4 [384, 128]
00000000: 6e09 4f3c d51b 2d3d e986 a53e 143d 83bd
00000010: c86f dd3c f28d b03d 663e 60be cefd 07be
00000020: 9941 74bd 2628 ebbe cd28 323e 5e85 88bd
00000030: 7d27 6b3d 38d3 c33d 6162 b53d 1c5f 903e
00000040: 9a72 9bbd d593 fd3d ecb6 e1bb 8de6 abbe
00000050: e500 6d3d b722 2b3e 09c8 1e3e 27e3 273e
00000060: 2e0f 25bf 92ab f63c 8795 af3e 29fc 413d
00000070: 5f2a c5be 4b63 ff3c 035c 4e3d 22ce 643c
00000080: 9994 5ebc af8a 38bd d05a c13d 43ad ea3c
00000090: dd03 433e a8b6 d6bd 50ef 16bc 6215 afbd
000000a0: 3ec8 b6bc cc6f b23e 0404 dabd fdea 793e
000000b0: de0b dd3d a937 c23e ae23 8c3b 0b2b a13a
000000c0: f054 a0bc e9ba 9b3d e223 153c 0e53 dcbd
000000d0: ddfd 143d a2ce 593d 41c3 203e 0610 d0bd
000000e0: e027 0bbe e1db cebb 5b99 513e 0285 e23d
000000f0: e350 843d 8acb 133e 4551 86bd 68c6 18be
00000100: 5539 623b e370 f8bd de73 863e 01cd 033e
00000110: cb27 b33c 7f0c d4bd fd89 cebc 8279 b53d
00000120: 5c01 b03c 78d8 56be aafe e53c 041a 423e
00000130: 96c9 9c3d 982f 963e 5eca acbd 71b9 b5bd
00000140: d696 2d3e 6828 d73e 72b0 843e c161 f43d
00000150: 8aed b5bd 8343 123e ccf0 46be a4cc 58bc
00000160: 18d0 123e b988 38be 060b 81bc d94c 84bd
00000170: 5d3e 713e 5682 313e 349b c13c b4fa e4bd
00000180: 3bed 6d3e d457 1c3e 8276 87bd 6de5 6cbe
00000190: cce2 853d ba88 123e 274c 85be d3d8 7fbd
000001a0: 28c9 4e3e e979 d23d 05a6 e63d 450c fd3e
000001b0: 4b65 fa3d 05e2 8fbd bb71 833e 3d41 40bd
000001c0: baa4 6c3e 97ac 383e 2ace 06be aee3 73bd
000001d0: 7b7b 783e 84a9 12bd aa47 553d 2877 80be
000001e0: 69f6 87be 7444 15b9 c92f 22bd b3e8 b9bd
000001f0: 5e4e d33d 7dd6 9cbd 264a d33d b60f 823e
00000200: 6e50 943c 65c9 033d 606d d63d 61a0 f7bc
00000210: bd1f 55bd e3f1 1c3e 5e2f 223d 1311 513e
00000220: 5da0 37be eee1 0cbe 7978 f03d 6b06 7abe
00000230: 267b 09be c7b6 9cbe c5b0 2dbe 5573 b0bd
00000240: e09d be3e e670 f43d 1de8 54be cd32 c53d
00000250: 0876 b8bd b281 d039 9790 be3e 7761 043e
00000260: 3c6f 403d 7fb4 6d3e d350 773d b78b 3e3d
00000270: 7cf6 6dbd 73aa 35be bf2f 17be c9b7 4dbd
00000280: 4694 7b3e ee13 4f3d a94e 143d 6d8e 24be
00000290: c237 a4bd 00b0 86be 69cc 473e e865 b13d
000002a0: 6ee5 9cbe edad 4fbe 355d 673e 3c88 4cbd
000002b0: be2e 0c3e 362c 86bd b6cb 2d3e 6865 e03e
000002c0: 1648 9ebd e906 043e 9485 89be f0fe cdbd
000002d0: f09b 4abe 5811 e13d 2578 88bd c5ad 07be
000002e0: 7985 6bbe f161 49be e384 eabe 1e4b 953e
000002f0: 00ce 083b 2344 0a3d c9a0 8abe f692 2d3e
00000300: 8dab ca3d 3819 d43e 5c8d 60be 7723 253e
00000310: 6285 85be e0d8 0fbe f13c 24be a7b7 a7be
00000320: a1e0 7e3c 4a1a 333d 3870 88bd d66b 5ebe
00000330: a851 35be 013a 493e 0c01 4b3e 1db3 a63d
00000340: 28dc 9a3d 6451 acbd 4d1c 523e 44b6 d03e
00000350: 65dd 353c d31d 30be 6de3 98bd ea8a 5b3e
00000360: 4712 673d d92e 4f3e 2957 4c3d b870 803e
00000370: 2996 bcbd c09b 993e a0b7 13bd 4e77 8bbc
00000380: 612e 323e 9d85 fd3a 28de c43e 9dda 813e
00000390: c173 013e 8e3e d83d 84e1 193d 3e23 c8be
000003a0: d884 e6bd e775 753d eb22 9d3e 655f c93d
000003b0: e0cf b8be 04a9 f4bc c128 9bbd b601 c9be
000003c0: 26c9 783e 6097 f53d 6976 973e f008 813e
000003d0: 480e 7bbe be02 333e 5326 00be bc1d 003e
000003e0: 1113 223e 746a b13e f495 cebd 0291 f3bd
000003f0: b32c 3cbe 006e e6be b604 1c3e b29c 5ebd
0.012636526 0.04226287 0.3232949 -0.06408134 0.02703084 0.08620824 -0.21898803 -0.13280413
-0.05963287 -0.45929068 0.17398377 -0.06666063 0.057410706 0.09561771 0.08856655 0.28197563
-0.07590218 0.12381712 -0.006888261 -0.33574334 0.05786218 0.16712461 0.15505995 0.16395245
-0.6447629 0.030111108 0.34293768 0.04735962 -0.3850889 0.031175276 0.050380718 0.0139651615
-0.013585233 -0.045054134 0.09441149 0.02864707 0.19044442 -0.10484058 -0.00921233 -0.08549
-0.02231228 0.3485092 -0.10645297 0.24406047 0.10793279 0.3793309 0.0042767143 0.0012296153
-0.019571751 0.0760401 0.009102793 -0.10758029 0.036374915 0.053175576 0.15699483 -0.10159306
-0.1358943 -0.0063128327 0.20468657 0.110605255 0.064607404 0.14433113 -0.0655847 -0.14919436
0.0034519036 -0.121309064 0.26260275 0.12871172 0.02186956 -0.10353946 -0.025212282 0.088610664
0.021485023 -0.20981014 0.028075535 0.18955237 0.07655637 0.29333186 -0.08437036 -0.08873261
0.1695207 0.42023015 0.25915867 0.119327076 -0.088831976 0.14283566 -0.19427794 -0.013232384
0.14337194 -0.18020906 -0.015752327 -0.0645997 0.23558946 0.17334875 0.023633577 -0.1118063
0.23235027 0.15267879 -0.066144004 -0.23134394 0.06537399 0.1430997 -0.26034662 -0.06246264
0.20193923 0.10277159 0.112621345 0.49423423 0.12226351 -0.07025532 0.25672707 -0.046937216
0.23109713 0.18034588 -0.13164583 -0.059543304 0.24265854 -0.035806194 0.052070297 -0.2509091
-0.26555184 -0.00014235248 -0.039596353 -0.09077587 0.10317682 -0.07658098 0.10316877 0.25402611
0.018104758 0.032174487 0.104700804 -0.030227842 -0.05203222 0.15326647 0.039595954 0.2041667
-0.17932267 -0.1375806 0.11741728 -0.24416511 -0.13425884 -0.30608198 -0.16961963 -0.08615748
0.37229824 0.11935596 -0.20791669 0.0962883 -0.09006888 0.00039769482 0.37219688 0.12927805
0.04698108 0.23213385 0.060379814 0.04651996 -0.058096394 -0.17740802 -0.14764307 -0.0502241
0.2456828 0.050556116 0.03620783 -0.16069956 -0.080184475 -0.26306152 0.1951157 0.08662015
-0.3064379 -0.20281191 0.2259415 -0.04993461 0.13689706 -0.06551401 0.16972241 0.43827367
-0.07728593 0.12893261 -0.26859725 -0.10058391 -0.19786048 0.10989636 -0.06663541 -0.13249882
-0.23000135 -0.19666268 -0.4580451 0.29158872 0.0020874739 0.033756386 -0.27075794 0.16950592
0.09896002 0.4142549 -0.21928924 0.1612681 -0.26078326 -0.14047575 -0.16038872 -0.32757303
0.015556485 0.043726243 -0.06662029 -0.21720824 -0.1770693 0.19651033 0.19824618 0.08139632
0.07561523 -0.084139615 0.20518608 0.40764058 0.011100148 -0.17198877 -0.07465253 0.2143971
0.056413915 0.20232715 0.04988781 0.25085998 -0.09208328 0.3000164 -0.03606379 -0.017024662
0.17400505 0.0019342188 0.38450742 0.253621 0.12641813 0.10558806 0.037568584 -0.39089388
-0.11255807 0.059926894 0.30690703 0.09832648 -0.36096096 -0.02986575 -0.075761326 -0.39259118
0.24295482 0.11991763 0.29582527 0.2520213 -0.24517167 0.17481515 -0.1251462 0.12511343
0.15827586 0.3465153 -0.10087195 -0.118928924 -0.18376426 -0.45005798 0.15236172 -0.054348655

gru.bias_ih_l0 f4 [384]
00000000: 20d1 71bb be17 2d3e 1436 be3d 96ef 453e
00000010: 62b0 db3d cc4a cc3d bbac 2c3e 0935 193d
00000020: af80 0c3e 79c0 b33c f79a f6bd 9477 39bd
00000030: 8980 153e 82af b73d e5fc cdbd 2577 8ebd
00000040: 6361 ddbd 7c9a dc3c 4b36 3f3e f399 193d
00000050: 31fd ba3c 147b 353e 555d c33d 0e57 353e
00000060: 79ff 913d 2175 22be 3116 b63d f156 8fbd
00000070: 73da 7c3e b513 c3bd 7492 043e 6f74 b9bc
00000080: e532 6d3d 14ed 333d 8c8a dfbd bbb2 993d
00000090: 5e7e e93c 2c69 c03d 6c01 003e 03cc 95bc
000000a0: d420 1c3d d13e 953d f924 4e3e 92c1 c5bd
000000b0: e71b dabc 234b 443e 495c cdbd 5646 8c3e
000000c0: e7c8 babd 8c57 b03d 09f0 2d3e 6ca7 fa3d
000000d0: b913 363d 0e29 4dbc aa28 ec3d 0fa8 b43c
000000e0: 027f 1a3d 1fcd 813e e510 0e3d 7678 b7bd
000000f0: d1d7 82bd d421 a53c 0747 e2bd f8bf 1b3c
00000100: 9cbe 64bd cbed cabc b75f 903d f3ea 203d
00000110: c63b 0b3c 3cc8 2bbd fb83 f7bb b1b9 0fbd
00000120: 467b d3bd 1d18 3c3d 5cef 973d edcc 9b3d
00000130: 6ed3 883d 718d 403d eaf1 50bd 53ba 3f3d
00000140: 64e2 8fbd 7640 d93c c5ce 1bbc 95ba ff3c
00000150: 3d6b 92bd 53c1 193e 4c0c fcbc 5ea4 95bb
00000160: 5bc0 d23c 09f7 bc3d b395 483b 4228 d13c
00000170: a74e 263c e0f2 28bd 9954 aa3b a298 593b
00000180: baca 153e 558f 193c c4dc 9ebc 6458 333e
00000190: 67a5 60bb be43 003d 8b3f 2a3e f2ae 11be
000001a0: 6446 783d b0a5 ee3d 58c1 91bd ce89 353e
000001b0: 8d54 8cbd 754c f8bd dbe9 b93d f1a5 2b3d
000001c0: 1a5f 743d 2ca6 783d 0d3d cabd ac41 77bd
000001d0: b391 1bbe f449 dbbc f3d1 a6bd 891b 1b3e
000001e0: 5b37 c03d 2b3d b8bc 1b65 2f3d 7697 ca3d
000001f0: 8181 8fba 0910 0bbe 518a 7dbe 080c 873d
00000200: 0b10 a0bd 384a f6bd 32fa 8abd 7878 5e3e
00000210: 0201 4a3d 0eb8 e7bd d204 18be d4d9 27bd
00000220: 7f66 02be 6536 5bbe 63a4 eabd bc9a 523d
00000230: 94aa 96bd 3006 8e3d 4ab4 1a3d df5d 3fbd
00000240: 4f01 a93d 64a2 2b3e 7b4a 1cbe 606c babe
00000250: fdb5 c33c abae ac3d 175e 953d 486d 2f3e
00000260: 70b8 2abe cbcf 8e3c 0e26 2f3e 1218 9a3c
00000270: af2a 86be cc87 533e ccd1 21bd f9e6 0c3e
00000280: cb39 cf3c b859 e9bc ee76 9a3c b2a8 87be
00000290: c28d 3c3d 8a58 ae3d c984 b0bd 78b3 0c3e
000002a0: 4a49 b8bd 8eb0 363e f75e 073c 9c85 cdbc
000002b0: c207 fe3a d953 533e 6c47 ca3d e52c 623d
000002c0: a713 c93c 2cc2 073e 8e9c 36be 9969 aabd
000002d0: 9865 023e 7fae 65bd f9ac 06be 9333 dbbc
000002e0: 02d3 5f3d 9132 9bbe dd95 c9bd f0c0 323e
000002f0: 0676 90bd b032 52bb 9b39 3b3e d6ae c73d
00000300: c8cd 663d 8e30 023e 399a 103e 3cd8 2dbd
00000310: 8f7b 0dbd 067a 003e dd20 84bd 1579 233e
00000320: 02f1 5e3e 2ede 213e 02ba 0b3e 02c2 95be
00000330: be99 10be e0fc fabc e118 1b3e d99b 15be
00000340: 4360 90bd 18d8 c0bd ec23 ce3d 7811 a5bd
00000350: f4ab cd3d c10c 943e 06fd 163e f6d5 3c3e
00000360: 2b11 713d 2b86 43be 9f90 0a3d df38 413d
00000370: fa31 c83d d137 4bbd 1dcb 93bc f245 0f3d
00000380: b779 aa3d ad1a 1e3e e690 06be c243 383e
00000390: 2234 933c 62e7 49bd cfcf 45be a4d5 543e
000003a0: 2ea2 10be a16a abbd b1bc 293e 6f4e 763d
000003b0: a901 9fbc fa35 c9bc f5cf 383c 966c 43be
000003c0: dbee a7bd e615 59bd c31e 483e e90c de3d
000003d0: f6ec 343e e2a7 c43d 74bb 663d 4cde 333e
000003e0: f907 63bc 0b4d 2a3e 9088 75be 9cbb a6bd
000003f0: 6ffa cb3c 350c 17bd ba61 2b3e 53ac 183e
-0.003689833 0.16903588 0.09287658 0.19329676 0.10727002 0.09975204 0.16862766 0.037404094
0.13720964 0.021942364 -0.12041276 -0.045280054 0.14599814 0.08969022 -0.100580014 -0.06956319
-0.10809591 0.026929133 0.18673055 0.037500333 0.02282581 0.17722732 0.09539286 0.1770899
0.07128806 -0.15864994 0.088909514 -0.06999005 0.24692707 -0.09525243 0.12946492 -0.022638528
0.057909865 0.043927267 -0.109150976 0.07504793 0.02850264 0.0939506 0.12500542 -0.018285757
0.038117245 0.07287372 0.20131291 -0.09656061 -0.026624633 0.19169287 -0.100273676 0.27397412
-0.0912035 0.08610448 0.16986097 0.122389644 0.044452403 -0.012521995 0.115311936 0.022052793
0.03771878 0.25351807 0.03468408 -0.08958523 -0.0638882 0.020157732 -0.11048704 0.009506218
-0.05584584 -0.024771592 0.07049506 0.039286565 0.008498138 -0.041939005 -0.007553575 -0.0350892
-0.10326247 0.045921434 0.07418701 0.07607446 0.06680952 0.04700989 -0.051011957 0.046808552
-0.070256025 0.026519995 -0.009509747 0.031216899 -0.0714936 0.15015154 -0.030767582 -0.0045667132
0.025726488 0.09226806 0.0030606806 0.025531892 0.010150588 -0.04124725 0.005198073 0.0033202549
0.14628115 0.009372552 -0.019392379 0.17514187 -0.0034278275 0.031314604 0.16625802 -0.14226893
0.060614005 0.11652696 -0.071169555 0.1772835 -0.06852064 -0.12123958 0.090778075 0.0419063
0.05966101 0.06070535 -0.09874926 -0.060365364 -0.15192299 -0.026768662 -0.081455134 0.15147223
0.09385558 -0.022490105 0.04282103 0.0989217 -0.0010948629 -0.13580336 -0.24759795 0.06594092
-0.0781556 -0.12025875 -0.06786002 0.21725643 0.049317367 -0.113144025 -0.14845589 -0.04097922
-0.12734412 -0.21407469 -0.114571355 0.051417097 -0.07356754 0.06934774 0.037769593 -0.04672038
0.08252203 0.16761166 -0.15262787 -0.3641081 0.02389049 0.08431753 0.07293337 0.17131531
-0.1667192 0.017433068 0.1710436 0.018810306 -0.2620444 0.20657271 -0.03950672 0.13759984
0.025296113 -0.028485164 0.018855538 -0.26495892 0.04603363 0.08512981 -0.08619077 0.13740337
-0.08998354 0.17840788 0.0082623875 -0.025088124 0.0019380974 0.20637454 0.09876904 0.055218596
0.024545504 0.13257664 -0.17833158 -0.083209224 0.12734067 -0.056074616 -0.13151921 -0.026757991
0.054644592 -0.30312017 -0.09843037 0.17456412 -0.07053761 -0.003207367 0.18283693 0.09750144
0.056348592 0.12713835 0.14121331 -0.042442545 -0.034541663 0.12546548 -0.06451581 0.15964158
0.21771625 0.15807411 0.13645175 -0.2924958 -0.14121148 -0.030638158 0.1514621 -0.14610232
-0.070496105 -0.094162166 0.10065445 -0.080599725 0.10042563 0.2891598 0.14744958 0.18440995
0.058854263 -0.1909415 0.033829328 0.047173377 0.09775157 -0.049613778 -0.018041188 0.034978814
0.083239965 0.15439864 -0.13141212 0.17994598 0.017969195 -0.04929293 -0.19317554 0.20784622
-0.14124367 -0.08369947 0.16575886 0.060133394 -0.019409971 -0.02456187 0.01128005 -0.19084391
-0.08199855 -0.0529994 0.19542985 0.10842306 0.17668518 0.096023336 0.056331113 0.17565268
-0.013856881 0.16630952 -0.23977876 -0.081412524 0.02489969 -0.036876876 0.16736498 0.14909486

gru.bias_hh_l0 f4 [384]
00000000: 2dd2 ef3c 5063 3b3e 56da cd3d 093a b53d
00000010: 21f4 0b3e f3a1 83bc 5aae 603d bf90 953d
00000020: cb44 e3bc ad5c 103d 94ab 76bd eaa4 be3c
00000030: ede7 d73d 029a eb3d 85e7 4fbd d28f 1d3d
00000040: bc86 0cbc 1a26 1c3d 0bff ca3d d8b0 933d
00000050: 6054 123d 6d90 933d 4c12 503d f075 593c
00000060: f6a1 0b3d 4ff3 16be 21f2 cf3d 2d18 763c
00000070: 0654 893e 8047 253d 5019 343e 4da5 b33c
00000080: cc30 ad3d f396 143b 1e01 f2bd 1bd0 2f3e
00000090: 3a26 393d ae0c 3fbd 7639 d83d 3496 18bd
000000a0: bd12 aa3c 1973 1b3d 32df 303e affb 30bd
000000b0: bdf5 95bd 86bc 133e 4d04 343c 5236 e13d
000000c0: 12a7 68bd aa0f 1cbd 0907 303e f38b ac3d
000000d0: 1d2d f33c 0bb7 82bd fd33 813d 9306 1c3e
000000e0: a317 083d 52f3 743e 752d b33c 8b36 48bd
000000f0: a37f 85bd c200 573d 577a bcbd eba5 4d3c
00000100: c684 ed3b 5294 d6bc 426f d6bc 6117 f43d
00000110: 7005 eb3d 667a d83c 7906 03bc 59d7 81bd
00000120: 40ca 4f3c 9aaa 87bc cb2a 023e aad9 043e
00000130: 0358 b63d 70c7 d13d 6250 11be a46d 223d
00000140: 984a 92bd 41fa bebc 663a 08be b45b 92bd
00000150: a3f0 893d a502 bc3d 613a aabb b415 08be
00000160: 4a6f febd a4dd 573e 9da2 97bb a2be 723d
00000170: 7dda 093d a84f 80bd 4d55 fc3d d2c9 1f3c
00000180: efa5 d53d 8a64 8dbc 460a d8bc 536d 523d
00000190: 528d 80bd b04e 2fbd 9274 273e 2ac4 b0bd
000001a0: 2e03 fa3d 3998 3cbd de05 733d 5bb5 6b3e
000001b0: 1d14 0abd d8b1 4abd 3c75 a33d 284f 923d
000001c0: ed2d b73d c882 ebbc 8f02 efbb 5aa8 443c
000001d0: c164 ccbd c214 943c b0e9 29bd 1dae 663e
000001e0: cfae d53d 0254 83bd 679c d43d 446b 723d
000001f0: 5a82 eb3c 7e64 2abe 33b4 96be 56dc 9f3d
00000200: fe97 923d b564 8cbe 93c8 7dbc 07f0 353e
00000210: 03d2 96bd b096 f9bb b0f5 f6bd f8e8 0dbe
00000220: 973a 32bd 6353 52be da2b a3bd 69a2 2abd
00000230: cee8 54bd d8ae b2ba 10d8 ac3d 18e9 4ebc
00000240: dc92 683d ce28 013e 6833 7ebd d4a0 69be
00000250: a372 823d 92c9 6b3d debe ea3d cc91 803b
00000260: d4f0 b0bd 0b2b 233e d3df 593e 7ec8 91bc
00000270: e0af 85be 6bef e13d e567 aabd 4ab0 363e
00000280: c2c4 f03c a238 a8bd 6bf2 d1bc 97fe 00be
00000290: 9936 7a3d 7e7f eb3d 1d91 b4bd 41f5 143e
000002a0: 268a 1bbe 966d 483e fc86 b33d 8e7c d53c
000002b0: a8e9 8dbd ada7 ed3d c161 f13d 21bd 843d
000002c0: 1f30 f33d 50b3 613d 629d 6cbe f99e 01bd
000002d0: c90b a13d f23e 61bd 16c9 6bbe 7a46 e6bc
000002e0: 30b0 0d3e a005 88be 500a 723d 5af2 7e3d
000002f0: c7ba 7ebd 54b1 27bd 68c7 8b3d 7f35 10bd
00000300: 3e75 6f3d d07a 723e 53ae 4ebb 7995 ee3c
00000310: 1c21 30bc 5680 c93c e849 0cbd 6b2f 183e
00000320: 4615 893d 5991 303e fc45 883d c0fb 4cbe
00000330: f07b 30bc f024 8c3c 4e32 f33d 59f0 34be
00000340: f609 603d 2348 413c 19fb 243e 9d80 fbbc
00000350: 8118 943d 0c4f 853e 23f0 263d d4f1 733e
00000360: 5a95 ac3d 682b 30be f906 183e caff b2bd
00000370: 97a5 0e3e efa6 01be ae7d aebb 0fb0 3abd
00000380: 26b1 ed3d a420 023e 1faf 1b3b 6ce4 753d
00000390: a82e 90bd 2723 693d 76c5 0fbe ac5e 083e
000003a0: f400 83bd c4c8 27be 1795 723e e384 163a
000003b0: 65be b43d b506 d6bb ef8c b43c 5469 74be
000003c0: b06f c3bd 8f39 56bd f4cf 2e3e b65b 293e
000003d0: 6a2b 7a3e 085a 1a3d 8fbc 563d f18e 653e
000003e0: 89e7 c33c 24ab 1d3e b3aa 38be 4311 08be
000003f0: be9f ec3c 404d cabd f816 883e f50d 833d
0.029275024 0.18299603 0.1005141 0.0884896 0.13667347 -0.016068434 0.054853775 0.07302999
-0.027742764 0.035244633 -0.060222223 0.023271997 0.10542283 0.11503984 -0.050757904 0.038467236
-0.008577045 0.038122274 0.09911927 0.07211465 0.035724998 0.072052814 0.0507987 0.013272747
0.034090005 -0.14741252 0.10153604 0.015020412 0.26821917 0.04035139 0.17587781 0.021929407
0.08456573 0.002267298 -0.11816619 0.1716923 0.04520247 -0.04664295 0.10557835 -0.03725262
0.020760888 0.037951563 0.17272642 -0.043208774 -0.073222615 0.14427385 0.0109873535 0.10996689
-0.056799956 -0.038100876 0.17190184 0.08425131 0.029684598 -0.06382569 0.06308744 0.15236883
0.033225667 0.23920944 0.021872262 -0.04888014 -0.065184854 0.052490957 -0.09203022 0.012551765
0.007248494 -0.026193772 -0.026176099 0.11918522 0.114756465 0.026425552 -0.007997149 -0.063399024
0.0126824975 -0.016560841 0.12711637 0.12973657 0.08903506 0.10243118 -0.1419082 0.039655343
-0.07143134 -0.02331269 -0.13303527 -0.07146397 0.06735351 0.09180192 -0.0051949476 -0.13289529
-0.124235705 0.21080643 -0.0046275393 0.059263833 0.033655632 -0.06265193 0.12320957 0.009752708
0.1043204 -0.017259855 -0.026372086 0.05137379 -0.06276955 -0.04279965 0.16353062 -0.08631165
0.12207638 -0.04604361 0.059331767 0.230184 -0.033710588 -0.04948601 0.07981345 0.07144004
0.089443065 -0.028748885 -0.007294006 0.012003029 -0.09980155 0.018076304 -0.041482627 0.22527356
0.10433733 -0.064125076 0.10381394 0.059184328 0.02874868 -0.16639897 -0.29434356 0.078056976
0.071578965 -0.27420583 -0.015489715 0.17767344 -0.07364275 -0.0076168403 -0.1205858 -0.13858402
-0.043512907 -0.20539622 -0.079673484 -0.041658793 -0.051979832 -0.001363243 0.08439648 -0.012628816
0.05678068 0.12613222 -0.062060744 -0.22815257 0.063695215 0.05756528 0.11462186 0.0039236303
-0.08639684 0.15934388 0.21276788 -0.017795797 -0.26110744 0.110319935 -0.083205976 0.17840686
0.029390696 -0.08213927 -0.02562829 -0.12597118 0.061087225 0.114989266 -0.08816741 0.14546682
-0.15189418 0.19573054 0.087659806 0.026060369 -0.06929332 0.11604247 0.11786223 0.06481386
0.11874413 0.055102646 -0.23106912 -0.03164575 0.07863576 -0.05499167 -0.23025927 -0.028109778
0.13836741 -0.26566792 0.059091866 0.062242843 -0.062189844 -0.040940598 0.06825143 -0.035207268
0.05846142 0.23679662 -0.003153701 0.029124008 -0.010750081 0.024597328 -0.03425017 0.14861839
0.06693511 0.17242946 0.066539735 -0.2001791 -0.0107717365 0.017107457 0.11874829 -0.1766981
0.054697 0.011796984 0.16111411 -0.030700976 0.07231236 0.2603687 0.040756356 0.23822719
0.08426924 -0.17204058 0.1484641 -0.08740194 0.13930355 -0.12661336 -0.005325041 -0.04557806
0.11606054 0.12707764 0.0023755503 0.060032293 -0.07040149 0.05691829 -0.14040169 0.13317364
-0.06396666 -0.1638518 0.23689686 0.00057418476 0.088253774 -0.0065315613 0.022039859 -0.23868304
-0.09542787 -0.052300986 0.17071515 0.16538891 0.24430624 0.037683517 0.052425917 0.22417809
0.023914116 0.15397316 -0.18033867 -0.13287835 0.028884765 -0.098780155 0.26580024 0.063991465

fc.weight f4 [7, 128]
00000000: 0ceb 253e f923 4b3e 607f 993e 9e41 54be
00000010: 7c8a a9be 4fbd aabe d430 e93c c87d 68bd
00000020: 4442 f23c 5e61 653d 7f1d 8fbc 6983 183e
00000030: e97b 5f3e 033f f63d 3284 59bd 383f c9bd
00000040: 2462 fb3d d40b 513d d9db 22bd ad45 063d
00000050: 848e db3c 88e7 a6bd 8f63 5bbe ed6f c33d
00000060: d924 073e 1a1c 7e3c ffad 0a3e 2172 dd3d
00000070: c121 94be 8a38 1cbe 727c 9b3c 0bb9 ba3e
00000080: c71e 1c3d a14b 05be dcc7 7a3e 50db 29be
00000090: be8d 0b3e 2883 a1bd edac a33e 46dd 513d
000000a0: ce11 cebe 2b8a 833e 7967 2ebd 19e6 0b3e
000000b0: 7374 23be 9e4c 07be ca94 d0bc e10b d03d
000000c0: d5f3 0cbe 31cc 3f3e 5bce 27be a48d 39be
000000d0: 8511 3f3e 3f61 a13d fbf5 29bd c5d3 2abe
000000e0: 7477 ddbc d886 803d 74d1 2b3e 6f8b 2bbe
000000f0: b8d5 143e b614 963e 419c 52bc 7681 1dbc
00000100: e667 c6bd 468a ef3d b608 f4bd ed20 533d
00000110: 5245 96bd 94ff 343e 07ec e83c 68ed 35bb
00000120: 75b6 96bd b798 9c3d d248 3c3e 04a9 7cbe
00000130: 49c3 f03d 2cbd afbc c602 a93d 3d02 87be
00000140: d659 623d f134 29be 529e 3e3e 86b9 65be
00000150: b893 64bd 3fff cb3d b3db fd3d 4ded 453d
00000160: 9d9a d0bd f015 7abe 3d28 80bd 1228 6f3e
00000170: 8101 083e 9add f9bd 2d8b 45bd ea9d 75be
00000180: 55c3 813e 37ee 8d3d 5dd5 e5bc 08bc 9b3d
00000190: f03c aa3d e706 8abd 3a3b 3fbe 1f9b a7bd
000001a0: 1b50 493e 354b 073d 8e10 56be e82c 6b3e
000001b0: 5828 453e a3b3 633e ebf1 65bb 8947 53bd
000001c0: 0d2f 2a3e c559 dd3d 3c6d 0bbd aa0c 4a3e
000001d0: 36bb 90be de41 2dbe 61ee 473c b86b 92be
000001e0: 086b 14be 8c56 6a3c b78c b3be 5ee5 97be
000001f0: bb6b 50be d856 2d3e 7d2f 7f3e d60e e3bb
00000200: b19e 003e 875c 5abe 986f 81be 940f dfbd
00000210: b29a 11bc ce94 913d 4654 4d3e b567 2bbd
00000220: 6fe8 63be 51d7 ca3d f9d8 9dbd a34a 463e
00000230: 2391 2dbe 8f1c 783d 02f7 04bc 4b1e 96be
00000240: 94b7 1dbd ae07 013e afa6 debd cf83 5fbe
00000250: 0468 ac3d 337d 60bd d3cc 97bc 0a85 75be
00000260: 8093 7a3e 22f9 ddbd f983 42be 00c7 28be
00000270: d188 a6be e72f 9cbd 4ebb 1dbe 28eb a93d
00000280: f915 8ebe 8314 b9bd 112a 29be 77f2 273e
00000290: ea45 0d3e 0268 e83d 173f 81bd 276f 8c3e
000002a0: 84e3 183e 38fb 21be 5346 933e 92da b33d
000002b0: ebef a8be 6ee3 c23b 4fae 4abe f530 813d
000002c0: b336 adbd 22ad 48be f61c b23c 6e7e 1d3e
000002d0: 1285 e6bd 44d8 1fbe 5483 85be 1eae d53d
000002e0: 42db 67bd c099 a6bc aff6 45be ab07 16be
000002f0: d353 413e 8f90 f33c 3665 9b3e b4a6 c13a
00000300: d320 18bc 2ac4 9abc d69e 863d 77c3 b7bc
00000310: 4503 363e be8e 793c beaf 453e e706 abbc
00000320: 96b8 ef3d 455e 2dbd f2c1 6dbd b837 d8bd
00000330: 182e 54bd e0d6 f13d ba5b 6bbe ec90 ea3d
00000340: 7091 0f3e 05c4 bb3d 2a8e 5ebe ec89 1fbe
00000350: 33d7 5cbd 394b 8dbd a55d 9dbd f685 9b3c
00000360: 9638 d0bd f73e c43d 2a00 353d b830 f13d
00000370: 4eff 5fbe bad5 f6bd 3f38 ce3e cf53 063e
00000380: 81d2 6bbe 9955 dfbd 2507 d23d d5f1 3c3e
00000390: b12c c43d 806e 6bbe c24e 193e 5dc2 443e
000003a0: 106b dc3d 314a dbbe 33fc 83bd 24cf 77be
000003b0: dd13 583e 1957 0e3d 2f67 14be 502f c73d
000003c0: b9fc c33d 88d7 80bd 3e65 10be 0ba1 edbc
000003d0: 8b37 eabc 3621 963e 7c47 c23d 4f0f ae3e
000003e0: 18a9 73bd 1028 21be 88a4 3e3e 5b3d 54be
000003f0: c70b 4c3e 9c69 533e 5f03 a3be e5b7 f7bd
0.16202945 0.19837941 0.29979992 -0.20728156 -0.33113468 -0.33347556 0.028465666 -0.05676058
0.029572614 0.05600106 -0.01747012 0.14893879 0.21824612 0.12023737 -0.053104587 -0.09826511
0.12274578 0.05103667 -0.039760444 0.03278129 0.026801355 -0.0814963 -0.21424697 0.095428325
0.1319765 0.01550963 0.13542937 0.10812784 -0.28932002 -0.15255943 0.018980239 0.36469302
0.03811529 -0.13017131 0.24490303 -0.16587567 0.13628289 -0.07886344 0.3196787 0.051236413
-0.4024796 0.2569135 -0.042579148 0.13661994 -0.1596239 -0.13212821 -0.025461573 0.10158516
-0.1376489 0.18730237 -0.16387312 -0.18120438 0.18659027 0.07879876 -0.04149435 -0.16682346
-0.027034499 0.062757194 0.16779119 -0.16752408 0.14534652 0.29312676 -0.012854637 -0.009613385
-0.09687786 0.116962954 -0.11915724 0.051545072 -0.073374406 0.1767562 0.02843286 -0.0027759913
-0.0735902 0.076463155 0.18387154 -0.2467385 0.11755998 -0.021452509 0.08252482 -0.26368895
0.055261455 -0.16524102 0.18615082 -0.22434053 -0.055804938 0.09960794 0.1239542 0.04832201
-0.1018574 -0.24422431 -0.06257675 0.2335513 0.13281824 -0.1220047 -0.04822843 -0.2398602
0.2534434 0.069302015 -0.028055841 0.076042235 0.08312404 -0.06739598 -0.18674937 -0.08183884
0.19659464 0.033030707 -0.20904753 0.22966349 0.19253671 0.22236495 -0.0035086821 -0.051581893
0.16619511 0.10808138 -0.03403972 0.19731393 -0.2826783 -0.16919658 0.01220283 -0.28597808
-0.14493954 0.014302861 -0.35068294 -0.2966718 -0.20353596 0.1692766 0.24920459 -0.006929259
0.12560536 -0.21324359 -0.25280452 -0.10891643 -0.00888698 0.0710846 0.20051679 -0.04184695
-0.22256635 0.099043496 -0.077074 0.19364409 -0.16949897 0.06057411 -0.008115532 -0.29319987
-0.038505152 0.12600586 -0.10871636 -0.21827625 0.08418277 -0.0548069 -0.018530285 -0.23976532
0.2447033 -0.10838534 -0.18995656 -0.16482162 -0.32526258 -0.07626324 -0.15403482 0.082968056
-0.2775114 -0.090371154 -0.16519953 0.16401087 0.13796201 0.11347963 -0.063108616 0.27428553
0.1493054 -0.15818489 0.2876459 0.08781923 -0.32995543 0.005947522 -0.19793056 0.06308166
-0.08457699 -0.19597295 0.021742325 0.1538026 -0.1125585 -0.15609843 -0.26076758 0.10433601
-0.056605585 -0.020336986 -0.19332384 -0.14651363 0.18879633 0.029732017 0.30350655 0.0014774413
-0.00928517 -0.018892366 0.06573264 -0.022432072 0.17774685 0.015231786 0.19305322 -0.020877315
0.11705129 -0.04232623 -0.05804629 -0.105575025 -0.05180177 0.11808562 -0.2298421 0.11453423
0.14020324 0.09168247 -0.21733919 -0.15579957 -0.053916167 -0.06899113 -0.07683877 0.018984776
-0.10167043 0.09582322 0.04418961 0.117768705 -0.21874735 -0.12052484 0.40277287 0.13117908
-0.2302952 -0.10904998 0.10255269 0.18451627 0.09578837 -0.22991371 0.1497145 0.19214769
0.10762608 -0.4283004 -0.064445876 -0.24200112 0.21101327 0.03475103 -0.14492486 0.09725821
0.095696874 -0.06291109 -0.14101121 -0.029007455 -0.028590938 0.29322213 0.09486291 0.33996055
-0.059487432 -0.15737939 0.18617451 -0.2072653 0.19926368 0.20645756 -0.3183851 -0.12095622

fc.bias f4 [7]
00000000: 143c 963d f8fd c2bc 6420 cfbe 8a04 1bbd
00000010: 3bcb 2abe 7ec3 dc3d 8464 c43d
0.07335678 -0.023802742 -0.404544 -0.037846126 -0.16679089 0.10779475 0.09589484
