customized/model/trained_model/customer_streamer/gru_32_5.pth (torch, 240314 bytes, 6 tensors)

gru.weight_ih_l0 f4 [384, 23]
000000 e9 57 9a be 4e 09 47 be ca 2d 14 3e 97 6c da 3d
       -0.30145195 -0.19437143 0.14470592 0.10665243
000010 0e 48 a1 3e 93 35 8a 3e af 70 4a 3d 59 e5 d8 3d
       0.31500286 0.26994 0.04942387 0.105906196
000020 a4 62 dd 3d af 61 a7 3e 67 f7 6b bd 5d fa 42 be
       0.1080983 0.32691714 -0.057608988 -0.19040819
000030 39 e3 0a 3e 19 f3 88 be 94 5f 90 be 4d ea 02 3f
       0.13563241 -0.2674797 -0.2819792 0.51138765
000040 64 88 a1 be e1 c1 28 3d c1 4f a1 3e 44 6f 03 3f
       -0.3154937 0.041200522 0.3150616 0.5134165
000050 ca 31 25 3e 79 9d 03 3f 77 47 0a 3d c0 3a e3 bd
       0.16132274 0.5141216 0.03375956 -0.1109519
000060 75 1e 70 be 8b 5d a3 3e bd 98 15 3d 3a f4 78 3e
       -0.23449118 0.31907305 0.036522616 0.24311915
000070 5b 4c 38 3e 62 a4 ab 3e fb 40 8d 3e 8e 62 8a 3e
       0.17997877 0.33523852 0.2758864 0.27028316
000080 b5 54 ac bd 84 38 86 bd b9 bc e5 3d db 67 f0 bd
       -0.08414594 -0.06553748 0.112176366 -0.11738559
000090 d1 b6 53 3e 3d 6a 69 3e 02 99 aa 3e ff 71 77 b9
       0.20675208 0.22794433 0.3331986 -0.00023598222
0000a0 59 e7 4b 3c a4 d4 b4 3e 27 7c 61 3e 14 39 06 be
       0.012445294 0.35318482 0.22020017 -0.13107711
0000b0 63 83 81 3e 6c e3 17 bd 3d c7 80 3e 40 7f 9f 3e
       0.25295553 -0.03708212 0.25152007 0.31151772
0000c0 66 1b ea be 14 b7 c8 3e 98 3d 6d 3e f0 6c 9f 3e
       -0.45724028 0.39202178 0.23168027 0.311378
0000d0 e5 4d 07 be 88 fc 8b 3c 02 46 57 be 1b 7d e7 3e
       -0.13213308 0.01708819 -0.210228 0.45212635
0000e0 f8 06 b5 bd db a3 1e 3e bc 6d 6e 3e af 89 49 3e
       -0.0883922 0.15492193 0.23284048 0.19681428
0000f0 6d 40 27 3e d7 18 48 3e 08 20 9e be 8e 64 49 bd
       0.1633317 0.19540726 -0.30883813 -0.049168162
000100 54 27 bd 3d d0 97 91 3e 51 c5 16 3f ea b6 c7 3d
       0.09236017 0.28436136 0.5889483 0.09751685
000110 f5 5a e1 3e 4b d8 7e 3d 41 97 3e 3e 70 2e 02 bb
       0.44014707 0.06221799 0.18612386 -0.0019864105
000120 40 51 46 bc 15 a5 ab 3e c7 73 84 3e 17 0e 96 3e
       -0.012104332 0.33524385 0.2586958 0.29307625
000130 f9 98 b0 3e 24 62 c5 3e c7 0b 79 3e 78 bc 2a 3e
       0.3449171 0.38551438 0.24320899 0.16673458
000140 19 51 c3 bc bc cd 54 3e c3 8b 70 ba fc d5 21 3d
       -0.023842381 0.20781606 -0.00091760996 0.039510712
000150 59 7c 58 3e a5 af 0a 3e 32 92 20 3e 5f 90 a3 be
       0.21141185 0.13543566 0.15680769 -0.31946084
000160 76 5c d3 3d b5 c1 bb 3d 1f 54 d9 3a 62 18 96 3e
       0.1032037 0.09167806 0.0016580856 0.29315478
000170 d9 b3 24 3d 82 58 b4 bc 6d ff 3b bd 0b 0d aa bd
       0.04021058 -0.02201486 -0.04589789 -0.08303269
000180 d4 fd 84 3d 75 e8 05 3e 20 8e 10 3e e8 5f f3 3c
       0.064937264 0.13076957 0.14116716 0.029708818
000190 47 3b 13 3e b4 fb 21 3d b6 86 dc 3e eb 62 ad be
       0.14378081 0.039546683 0.43071526 -0.3386453
0001a0 40 50 71 bd 96 f1 35 be 12 cc af be e7 6e 99 3c
       -0.058914423 -0.17767939 -0.3433538 0.01872964
0001b0 90 4d 2e 3f 7a 09 64 be 54 46 d8 3b f6 82 07 be
       0.680871 -0.2226924 0.0066001806 -0.13233551
0001c0 56 23 82 bd 2d 94 1b be 1f c8 ee 3d 02 fe 4b 3c
       -0.06354396 -0.15193243 0.11659264 0.012450697
0001d0 c8 0a 8d 3d ec 23 d6 3e 26 83 c3 be 94 2f 1e 3f
       0.06886822 0.4182428 -0.38185996 0.6179135
0001e0 a5 58 37 3f 95 23 1e 3f 1c bf 11 3f 64 b8 08 3f
       0.71619636 0.61773044 0.56932235 0.5340636
0001f0 0b 9c 96 bc 3c db 31 3f 13 32 9d bd ef 0a 8c 3e
       -0.018384954 0.6947515 -0.076755665 0.27352092
000200 d9 a1 b5 bd ec 75 45 be 60 14 d7 bd 0b 8c c6 3e
       -0.088687606 -0.19283265 -0.10501933 0.3877872
000210 1a 67 e2 3e f2 8e 4a bf 51 86 1a be f0 9c 94 3e
       0.44219285 -0.7912437 -0.150903 0.29025984
000220 78 80 92 bd ce 7c 27 3f 22 aa 3c be 65 f4 f6 bd
       -0.0715341 0.6542481 -0.18424276 -0.12058333
000230 b9 64 53 be 88 05 b0 3d 78 f9 41 be ad f1 6a be
       -0.20643891 0.08594805 -0.18942821 -0.22943754
000240 8f d6 20 bf 35 20 fa be 3b a5 1d bf 1c 70 b6 3e
       -0.6282739 -0.48852697 -0.61580247 0.35632408
000250 6c b0 2a bf 47 c8 a1 3c 01 66 16 3f e1 d7 46 bc
       -0.6667545 0.01974882 0.58749396 -0.0121364305
000260 eb db 25 bc b5 17 94 3e d5 b0 2a bf 98 e4 07 3f
       -0.010123233 0.28924337 -0.66676074 0.5308318
000270 74 db 54 3f ba 16 d1 3e 2d e2 da 3d e1 e5 0a 3f
       0.8314736 0.40837651 0.10687671 0.5425702
000280 7c 59 b1 be 0e d8 33 bd 14 00 3e bd 43 9b a6 bd
       -0.34638584 -0.043907218 -0.046386793 -0.081350826
000290 8f a9 a1 3e 70 45 9e 3e 43 30 a7 3e 68 5d 27 3e
       0.31574675 0.30912352 0.32654008 0.16344225
0002a0 ab b6 2c 3e 8c 8a 52 3d 9e 16 10 3d 79 4a 07 bf
       0.16866557 0.05140166 0.03517782 -0.5284801
0002b0 fc 51 14 3f 5c aa 85 3d f1 8a 10 3f 54 8a 00 3f
       0.579376 0.06526634 0.5646201 0.5021107
0002c0 38 46 bf 3e 79 50 57 bf d9 3e 20 3f 03 ff ef 3d
       0.3735826 -0.84107167 0.625959 0.117185615
0002d0 4f 88 f6 3e 86 25 fa 3d dc 17 ad 3e a2 6e 5d 3d
       0.4815087 0.12214188 0.33807266 0.054060586
0002e0 0b 2d 52 be b9 04 a5 be 57 57 13 3f 20 b2 25 be
       -0.20524995 -0.32230166 0.57555145 -0.1618123
0002f0 85 b4 c1 3e 27 1f 87 3e 32 7b 5e 3f 91 e1 26 3f
       0.37833038 0.26390955 0.8690673 0.6518794
000300 d7 3c 6c 3f 35 9c fd be 19 19 43 3e 8d 41 d7 3e
       0.92280334 -0.4953324 0.19052543 0.420422
000310 e7 1d e9 be 26 ac 01 3f b5 93 fe 3e b8 e0 0b 3e
       -0.45530626 0.506533 0.49722067 0.13659942
000320 92 d1 f8 3e 60 0b d5 3e 5a 5e 15 bf 84 b5 47 3d
       0.4859739 0.4161024 -0.58347094 0.04875709
000330 d7 f8 6c be ff cf 1e 3d dc c9 80 3e 60 5d 32 3e
       -0.231418 0.03877258 0.25154006 0.17418432
000340 2c a0 c3 3d e7 88 eb bd b5 13 93 3d 60 67 2d be
       0.09552035 -0.115007214 0.07181493 -0.16933966
000350 4e 48 40 be 50 6d 8b be aa f2 97 be e6 24 81 be
       -0.18777582 -0.27231836 -0.29677325 -0.25223464
000360 fd a9 8f 3e 47 17 2f 3d ad c0 e3 bd b0 0d 07 3e
       0.28059378 0.04274681 -0.11120734 0.13188815
000370 76 ab 77 be 8c 38 29 be 19 18 4d be 84 39 d5 bc
       -0.24186501 -0.16525477 -0.20028724 -0.026028402
000380 bf 8c 62 bd dc 99 4b 3e df 9f e6 bd 2a 72 d9 3d
       -0.055310007 0.19882911 -0.11260962 0.10617478
000390 70 ed fe bd 46 d6 50 3c 5e 10 a4 3e e7 02 98 3e
       -0.12447631 0.012746399 0.32043737 0.29689714
0003a0 ba 5c 4f 3e 53 17 3e 3d 93 62 f1 3e 2c 3a 03 3f
       0.20250216 0.046408962 0.4714552 0.5126064
0003b0 10 0d 37 3f c3 df 22 3f c3 f0 14 3f 58 23 2e 3e
       0.71504307 0.63622683 0.58179873 0.1700567
0003c0 61 27 45 3f d9 f2 ef bd 33 eb 0c 3e c0 28 d3 bd
       0.7701321 -0.117162414 0.13761596 -0.10310507
0003d0 2e 91 45 bd 89 5c c8 bd 9d 3e e8 3e 58 71 ed bd
       -0.048234157 -0.09783275 0.4536027 -0.11593884
0003e0 b2 0d f6 be 19 c4 78 bc bb 72 09 3f e0 e4 b2 be
       -0.48057324 -0.015183472 0.5369069 -0.34940243
0003f0 d8 31 1b 3f 86 29 83 be ff f3 78 be d5 01 cf be
       0.6062293 -0.25617617 -0.24311827 -0.40431085

gru.weight_hh_l0 f4 [384, 128]
000000 d8 23 73 3d af 08 91 bc da d7 8f be 4f 65 80 be
       0.059360355 -0.017704336 -0.2809437 -0.25077292
000010 b6 5c 83 3d f9 17 de 3d 87 35 76 3e 04 ac 68 3e
       0.064141676 0.10844416 0.24043857 0.22721869
000020 ba 83 f0 3c 57 78 1c 3e 54 c7 da 3d e6 7f 27 3d
       0.029359687 0.15280281 0.1068255 0.040893458
000030 36 d7 a2 bd ea 8d f2 3d 4f 46 0a be 4a d4 f4 3d
       -0.079512045 0.11843474 -0.13503383 0.119545534
000040 36 5d 0d 3e 9d e4 83 3e da c5 ca bd 69 d8 5a 3e
       0.13805088 0.25760356 -0.099010184 0.21371616
000050 af 3f cd bc 22 69 b1 3d 84 48 65 be 79 2b ff bb
       -0.02505478 0.086626306 -0.22390944 -0.0077871648
000060 4d 28 b5 bc 93 67 5c be 3f 06 9b 3e 58 73 8b 3d
       -0.022113943 -0.21523885 0.30278203 0.068091094
000070 84 2b f4 bd 86 f4 7a 3d 8c d0 b4 3e bc a4 90 3c
       -0.119223624 0.061268352 0.3531536 0.017656676
000080 b1 bb 81 3e 8b 70 b8 be 4d 0f 03 3f 95 07 6c bc
       0.2533851 -0.36023363 0.5119522 -0.014406105
000090 1f 3d 36 be 42 8c ad bd 86 9f 05 3d 95 06 2d 3d
       -0.17796753 -0.08474018 0.032622837 0.042242605
0000a0 12 bc b3 bd 55 63 64 bd c1 b9 38 ba 2c 33 a9 bc
       -0.08776106 -0.055758793 -0.00070467225 -0.020654283
0000b0 7b 20 c9 3e 30 10 d4 3e f0 f8 15 be 30 33 08 3f
       0.39282593 0.414186 -0.14645743 0.53203106
0000c0 50 71 7b 3e 7c 0c 54 3d cc 70 36 3d c0 77 75 be
       0.24554944 0.05176972 0.044541165 -0.23971462
0000d0 a6 33 17 be 39 7a 91 be ae 04 c0 be 43 bc 1a 3e
       -0.14765796 -0.2841356 -0.3750357 0.15110879
0000e0 22 1e ee 3d 3b 24 24 be 4b 09 2f be 23 85 3a 3e
       0.11626841 -0.16029446 -0.17093389 0.1821485
0000f0 72 f9 9a 3c a3 57 0b 3c 98 88 e0 bc 1e 0c 55 be
       0.018917773 0.008504781 -0.027408883 -0.20805404
000100 f5 f4 8e 3d f5 e9 e5 3d 00 2b b4 3d 24 89 74 3d
       0.069803156 0.112262644 0.08797264 0.0597011
000110 2b ff 13 be cd 5b 46 bd 72 9f e1 bd a9 b6 35 3d
       -0.14452808 -0.04842739 -0.1101674 0.04436365
000120 40 43 b6 bd c5 e0 3e be 62 c2 24 be de f2 78 be
       -0.08899546 -0.1864043 -0.16089776 -0.24311396
000130 9c fe 2a be ec 9a 1b 3e d9 a5 42 bd 70 e8 2b be
       -0.16698688 0.15195817 -0.047521446 -0.16787887
000140 6c 19 26 bf 1b 53 b8 3e d8 cd 5b 3e 4e 16 a0 3e
       -0.6488254 0.36000904 0.21465242 0.31267017
000150 53 88 69 3c 2f 0a a5 be b9 bf 3f 3c 82 cb 94 be
       0.014253694 -0.32234332 0.011703425 -0.29061514
000160 e2 b0 2d bc d0 09 56 3d c4 1f 00 3e 5c e7 f5 bd
       -0.010601254 0.05225545 0.12512118 -0.12007019
000170 25 f8 4c bd 31 c7 34 bd f2 5d 53 3e b1 67 45 be
       -0.050041337 -0.044135276 0.20641306 -0.19277836
000180 45 a4 33 3f 9e d6 5a 3e 95 91 f7 3c 81 45 e5 3c
       0.7017253 0.21370932 0.030220786 0.027987244
000190 72 6b b1 3e 39 bf 73 3e 2e fa 0d bf fa d6 0a be
       0.34652287 0.23803414 -0.5545987 -0.1355857
0001a0 46 ff 8f 3e 10 16 c8 bc dd 8f a0 3e fe 4d d3 3e
       0.28124446 -0.024424583 0.3135976 0.4127044
0001b0 a5 df ce 3d 43 21 8c 3e eb d6 00 3d 80 bc 1b 3e
       0.101012506 0.27369127 0.03145496 0.15208626
0001c0 20 c0 1e 3e f0 05 c3 bd dc 23 82 3e 3a f8 c2 be
       0.15502977 -0.09522617 0.25417984 -0.38080007
0001d0 c0 ca 4b 3e 6c ab f7 3d c1 67 5f be bb dd e5 3d
       0.19901562 0.12093243 -0.21816923 0.11223932
0001e0 9d 7d 1a 3e ef c3 86 bd 33 83 9e bd ef aa af 3e
       0.1508698 -0.0658034 -0.07739868 0.343101
0001f0 d7 57 9a be 07 89 79 be 62 fc 1a be 2b 32 52 3d
       -0.3014514 -0.24368678 -0.15135339 0.051317375
000200 48 38 db bd cf df 63 3d dc cf 1b bd 75 83 67 3d
       -0.10704094 0.055633362 -0.038040027 0.05652185
000210 84 dd db 3e 3f e1 2e 3d c4 2d 43 3e c3 05 28 be
       0.4294244 0.04269528 0.19060427 -0.16408448
000220 14 1a 1a 3d 98 47 a9 3d e4 85 3f be f7 2c b8 3d
       0.037622526 0.082656085 -0.18703419 0.08992951
000230 cb d4 0e 3e fc e1 8b be 09 2f 31 bd 82 3a 17 be
       0.13948362 -0.2732085 -0.043257747 -0.14768413
000240 c7 1d 3a be d2 64 dc 3d fc 14 50 3e 1a bf 59 3d
       -0.18175422 0.107614174 0.20320505 0.053160764
000250 6f 2e 07 bf 82 f6 33 3e b1 cf 7f be 22 47 5b 3e
       -0.5280523 0.17574504 -0.24981572 0.21413854
000260 82 51 29 3e cd f8 d6 bd 3c bc 00 be f5 e1 52 bd
       0.16534999 -0.10496674 -0.12571806 -0.05148502
000270 30 7a 1f be b2 99 85 bd 1b cd 83 be c3 c5 8a 3e
       -0.15573955 -0.06523456 -0.2574242 0.27104005
000280 f5 62 86 3e b2 9d 4f be 03 ea 82 be 74 3a 82 3e
       0.26247373 -0.20275 -0.25569162 0.2543522
000290 7f 50 17 be 04 17 01 bd c1 14 5d bd f4 99 c7 3c
       -0.147768 -0.03151609 -0.05397487 0.024365403
0002a0 61 eb cd bb d8 c3 57 3e ef 7f f6 bd 7d 45 2d bd
       -0.006284163 0.21070802 -0.1203612 -0.042302597
0002b0 d2 14 45 3e e6 f3 51 3e f4 d9 4b 3e 1e fc c6 be
       0.19246224 0.20503196 0.19907361 -0.38864225
0002c0 d6 9e 90 bd 0f c1 8f be 73 cc ec 3b 74 ae bf 3d
       -0.070615456 -0.2807698 0.0072265207 0.09359446
0002d0 2b 27 f8 bd c1 ad 90 bd 87 a6 5d bd c6 6b 5a bd
       -0.12116846 -0.07064391 -0.05411389 -0.053325437
0002e0 68 2c 27 3e cb 07 62 be 13 97 83 be 80 d1 3a 3e
       0.16325533 -0.22073285 -0.25701198 0.1824398
0002f0 5a f2 a2 bd fb c7 8b be 6b 11 d5 bd b5 41 02 3e
       -0.07956381 -0.2730101 -0.10403713 0.12720378
000300 e9 dd 57 3c 28 55 a9 be 73 6b a2 3e 3a 65 0f 3f
       0.013175466 -0.33072782 0.31722602 0.56013834
000310 9d ef 93 be d2 f3 88 3e 6e 87 85 be 3f 85 67 3e
       -0.28893748 0.2674852 -0.26079887 0.22609423
000320 e0 08 03 be f4 2c 5b 3e 9c 4a c7 3d ad 3a 40 3e
       -0.12796354 0.21403867 0.097310275 0.18772383
000330 6a 0c 4e 3e 9a 0c 82 3d 59 89 d5 3e 18 c0 e4 bd
       0.20121923 0.0635006 0.4170635 -0.111694515
000340 c0 c6 1b bd bf 7e 04 bf 87 17 4c 3d 9b 2e aa 3d
       -0.03803134 -0.517559 0.049827125 0.083096705
000350 d7 c6 85 3b 15 dd dd bd 9a 6e 1c be 0d 05 3b 3e
       0.0040825414 -0.10833184 -0.15276566 0.18263645
000360 c0 29 6f bd 5f e2 d0 bd 6b af 48 be 68 a1 1f be
       -0.058389425 -0.10199427 -0.19598167 -0.15588915
000370 66 04 54 bc 1a 06 62 3d 96 d4 6d be 53 34 a9 bd
       -0.012940502 0.0551816 -0.23225626 -0.08261933
000380 15 b7 b7 bb 65 02 b7 3d 77 22 ca be 9d 3f 34 be
       -0.005606542 0.089360036 -0.3947942 -0.17602392
000390 90 42 81 be 66 c1 23 3e 90 a1 45 3c 6c e9 d3 3d
       -0.25246096 0.15991744 0.012062445 0.10347256
0003a0 9c d1 15 be 41 14 43 3d b8 0a b6 bb 67 70 85 be
       -0.14630741 0.047626738 -0.005555477 -0.2606232
0003b0 a9 34 28 3d 28 d4 b9 3c d1 d6 0f 3e 75 95 53 3e
       0.041065846 0.022684172 0.1404679 0.20662482
0003c0 cc 79 34 3e a0 bf 62 be d3 3e a9 3e 56 e7 82 3e
       0.17624587 -0.22143412 0.33055744 0.2556712
0003d0 e6 44 a4 be 59 cc be be c5 32 aa 3e b6 93 59 bd
       -0.32083815 -0.3726528 0.3324186 -0.053119384
0003e0 11 4a db bc 4f 35 5f 3e c2 d4 10 be 8d a1 ef be
       -0.026768716 0.2179768 -0.1414366 -0.4680294
0003f0 5d d4 3b be b7 e8 e0 be e3 75 40 bc 60 5f be 3e
       -0.18342729 -0.43927547 -0.011746856 0.3718214

gru.bias_ih_l0 f4 [384]
000000 9d 4d 23 3d d2 bd dc 3c 3e f5 b2 3e 21 2b 32 3e
       0.03986894 0.026945982 0.3495273 0.17399265
000010 d3 77 aa 3e f2 5c cd 3e 8d 09 a5 3d 3b b6 b0 3d
       0.33294544 0.40109974 0.08058462 0.08628508
000020 85 db 87 bd ed 5d e8 3e 1e a3 69 3e d7 81 17 be
       -0.06633667 0.4538416 0.2281613 -0.14795624
000030 44 6d c3 be bb 68 8c 3d af 24 af 3d 1d 7f 29 3d
       -0.381693 0.06855913 0.08551919 0.04138099
000040 e0 a3 bc bc f5 c6 e7 bd 60 53 0b bd fe 18 10 bf
       -0.02302736 -0.11317245 -0.03401506 -0.56288135
000050 24 3d ee bd 1e a3 39 bd e2 c7 52 be d5 34 44 bd
       -0.116327554 -0.045321576 -0.20584062 -0.047901947
000060 30 25 2f 3d 87 b7 26 be 38 1b 81 3d 03 d5 8e be
       0.042760074 -0.16280948 0.0630402 -0.2789689
000070 d8 b8 82 be 99 0d 91 3e da ab ac bd 0a ae 81 3d
       -0.2553165 0.28330687 -0.084312156 0.063320234
000080 c0 78 3e 3d 1d 43 35 3e 71 99 16 bd 32 c7 3a bd
       0.046501875 0.17701383 -0.036767427 -0.045600124
000090 2a d1 a9 be ed e8 5b be 48 67 49 bd 79 8b c2 bd
       -0.33167392 -0.21475573 -0.049170762 -0.094992585
0000a0 dd 28 42 bd f6 f6 f4 3b f5 f4 d8 bd 4c 78 73 3d
       -0.04740225 0.007475729 -0.10593597 0.059440896
0000b0 f6 45 45 be ba a0 d1 bd 9e 4f bb 3d 40 2d c6 3d
       -0.19264969 -0.10235734 0.09146045 0.096765995
0000c0 c1 c8 5d be 47 6f 54 3e 1d 0a 12 3e e1 b3 91 be
       -0.21658613 0.20745574 0.1426167 -0.2845755
0000d0 04 34 64 3e 38 79 0a be c2 3e 2f 3c 8c b1 07 3e
       0.22285467 -0.13522804 0.010696115 0.13251323
0000e0 8f 02 99 be ae 9d 9b 3d 5d e6 0c 3d 68 e3 4d be
       -0.29884765 0.075984344 0.03439938 -0.2010628
0000f0 8c 61 5a 3e fe b6 01 bd 2b 24 b2 bd 42 06 49 3c
       0.21326274 -0.031668656 -0.08698305 0.012269558
000100 15 3b 8e 3d 4b ed 87 3d 77 d1 cf bd 7f ac 72 be
       0.06944863 0.06637057 -0.10147374 -0.23698615
000110 05 23 c0 3b da 76 d3 bd 9f 31 85 bd 49 be 53 3e
       0.0058635497 -0.103254035 -0.06503605 0.20678057
000120 c9 4f 82 be b9 cd 86 be f5 79 8e 3e 39 d8 c8 be
       -0.25451496 -0.2632883 0.2782742 -0.39227465
000130 15 3e 1f 3e fa f8 06 be 0f be a8 3c a9 89 34 be
       0.15551026 -0.13180915 0.02059844 -0.17630638
000140 37 84 b1 3d 93 f6 8b bd dc 7e 15 be 43 73 d7 bd
       0.08667796 -0.0683414 -0.14599174 -0.10520031
000150 b4 ec 2d 3e 3f ad a0 bd 71 dc 7f 3d 53 7c 96 bd
       0.16984826 -0.07845544 0.06246609 -0.07347932
000160 17 30 cf bd 67 ff 7d bd 0a 6a 1e be 72 66 6e 3c
       -0.10116594 -0.06201115 -0.15470138 0.014550792
000170 78 22 df bd cf 4c 52 be 89 19 b7 3b 5d 4c 83 be
       -0.10895246 -0.20537113 0.005587761 -0.25644198
000180 d9 f8 2b bd e7 cd 60 be 1d 8c 87 3e 8b db a8 3e
       -0.041985366 -0.21953546 0.26474085 0.32979998
000190 b1 ed 59 3e 28 0a da bd d6 0a d1 3d 44 aa aa 3e
       0.21282078 -0.106464684 0.10207145 0.33333027
0001a0 30 95 c2 bd 29 60 74 3e 57 c3 b8 bc 6b bb 55 3d
       -0.095011115 0.23864807 -0.022554083 0.05218069
0001b0 6a af 4f 3e 31 76 a1 be fd 3a 02 be 9d 2e 24 3e
       0.20281759 -0.31535485 -0.12717815 0.16033407
0001c0 7f 61 94 3e 10 40 02 3f 1a f9 16 3d 1d e0 f9 be
       0.28980634 0.50879 0.036858656 -0.48803797
0001d0 d9 44 0f bd 1a 06 d4 3d b7 d8 50 3e 38 3e 97 bc
       -0.034977768 0.10352726 0.2039517 -0.018462285
0001e0 90 12 15 be 4d da a5 be 69 5a a8 be 30 16 97 3e
       -0.14557862 -0.32393113 -0.32881477 0.29509115
0001f0 e9 c1 45 bd d8 1b a1 3d f8 4a 6b 3e 91 78 87 3e
       -0.04828063 0.07866639 0.22977817 0.26459172
000200 c2 eb d0 3e fe 3d 60 3e e5 34 85 bd 89 05 64 be
       0.4080487 0.21898648 -0.065042295 -0.22267736
000210 97 cf f5 bd 77 98 01 bc a5 fb 94 3e 31 a7 4f 3e
       -0.12002485 -0.007909886 0.2909824 0.20278622
000220 65 0a a3 be af 33 bc bd ed f8 df be 05 c1 b3 3d
       -0.31843868 -0.09189545 -0.43744603 0.0877705
000230 43 84 9c 3e 4b 7e 54 3b 06 82 ff bd ac fc 26 bf
       0.30569658 0.003242391 -0.12475972 -0.65229297
000240 df e1 83 3e ea 07 9e 3e 47 6d d2 3d f7 38 1c 3e
       0.25758263 0.30865413 0.10274749 0.15256105
000250 4a b7 1c bd 01 4e d1 3d 0e a7 96 3e 7c 57 3e be
       -0.038260736 0.10219956 0.29424328 -0.1858806
000260 65 dd 7c 3e 40 78 40 3e 71 2d 41 3d b3 42 95 3e
       0.2469383 0.18795872 0.047162477 0.2915245
000270 0c af 20 bb 18 b6 5d bd ae 3e 6c be cc d3 a5 3e
       -0.0024518399 -0.054128736 -0.23070785 0.3238815
000280 48 c1 df be c1 48 05 3e 74 05 d1 3e ff b9 83 be
       -0.4370215 0.13016035 0.40824473 -0.2572784
000290 a1 1e 00 3e bc 52 28 3e 71 17 af 3d cc c1 86 3d
       0.12511684 0.1643781 0.08549393 0.065799326
0002a0 00 95 3b 3d b9 33 0c bd 59 7d ad 3e ae 0b 84 3e
       0.045796394 -0.034229014 0.33884695 0.2579016
0002b0 3b f7 41 3e 2d 5b 16 bd 88 c2 3e 3e c1 21 15 3e
       0.18941967 -0.036708046 0.18628895 0.14563657
0002c0 1f ef e0 3d c0 70 de bd 0f d5 7e be c0 95 aa 3e
       0.10983109 -0.10861349 -0.24885963 0.33317375
0002d0 98 35 3b bc 34 3d 2b 3c b6 ae 27 3e af 5b 02 be
       -0.011426352 0.010451604 0.1637524 -0.12730287
0002e0 b3 98 4e be df b7 2c 3e 97 b1 44 3e 6f 11 de bd
       -0.20175438 0.16867016 0.1920837 -0.10843169
0002f0 18 4a ca bc 1d b6 eb bc 82 51 32 3e 8f b2 e6 bc
       -0.024693534 -0.028773362 0.17413905 -0.028161315
000300 f0 82 26 3d d7 b5 a2 3d 2e ac 9b 3d 2b ff fb 3e
       0.040652215 0.079448394 0.076012 0.49218115
000310 b4 a2 7a 3e 55 50 e6 bd ab 30 e5 bd 73 d1 d5 3d
       0.24476129 -0.11245791 -0.11190923 0.1044034
000320 02 bf b4 3d 0c 8e 0f be 8e 1d c5 be 8d 71 3b 3e
       0.08825494 -0.1401903 -0.3849911 0.18305035
000330 45 fc 95 3e cf 6e 29 3e 5b d4 93 3d 8d e1 15 3f
       0.2929403 0.16546176 0.07218238 0.5854729
000340 69 2e 92 3e 47 3f e4 3d eb dd 54 3e 41 4a 07 3e
       0.28551033 0.11144882 0.2078778 0.1321192
000350 02 a8 59 bd 9a 44 82 be ee ba 92 3d 68 46 9f 3c
       -0.05313874 -0.25442964 0.0716456 0.019442752
000360 65 a1 3b bc d9 ac eb 3c c7 10 cd 3e b9 fe 12 bf
       -0.011452054 0.028768944 0.40051863 -0.57419926
000370 80 5d 42 be 22 5d 04 3d 6b 7d a2 bd 6c 8c b2 bc
       -0.1898098 0.03231538 -0.07934078 -0.021795474
000380 4c d4 44 3e 66 f8 88 be e6 85 08 bd 0b 14 a6 bd
       0.1922161 -0.26752013 -0.03333082 -0.08109292
000390 a8 f8 96 3e ee 7b 10 3e 5e e1 34 be a3 81 eb be
       0.29486585 0.14109775 -0.17664096 -0.45997342
0003a0 a3 02 82 3e 37 69 14 3e 52 ee a9 3e 92 07 9e 3e
       0.25392637 0.14493261 0.33189636 0.3086515
0003b0 6e 4e 33 3e 09 79 14 3e 02 16 6f 3e 7f bf c5 bd
       0.17510387 0.14499296 0.23348239 -0.096556656
0003c0 80 c6 aa be d9 09 90 bc c3 3b bb 3c d0 d2 df 3d
       -0.33354568 -0.01758282 0.022855645 0.10928881
0003d0 87 65 d6 bd 27 48 31 3d ac 1b 10 3e 9a af 40 be
       -0.104685836 0.0432817 0.14073056 -0.18816987
0003e0 9c dc 82 3e ed 81 11 be cc e1 f6 3e 42 af 72 be
       0.25558937 -0.14209719 0.48219144 -0.23699668
0003f0 4a d4 14 be 49 2e 83 bd 9b 70 56 be 47 90 5e 3e
       -0.14534107 -0.064053126 -0.20941393 0.21734725

gru.bias_hh_l0 f4 [384]
000000 63 24 a8 bd 5d 05 d7 3c c0 2e b7 3e 35 42 07 3e
       -0.08210065 0.026247675 0.35777855 0.1320885
000010 bd f8 a4 3e 9c 25 a8 3e 61 44 4e bd 15 dd 86 3d
       0.32221022 0.32841194 -0.05035818 0.06585137
000020 f2 b0 c5 bd 06 22 cb 3e e1 c5 72 3e e9 8f b2 bb
       -0.0965289 0.39674395 0.23708297 -0.0054492843
000030 8a 02 a8 be b0 39 a7 3d 8b c0 34 3e 2b 94 9d bc
       -0.32814437 0.081653 0.17651574 -0.019235691
000040 4f 46 d4 3d 6e 9a 1a be 49 bd 1b be c9 fa 00 bf
       0.10364973 -0.15097973 -0.15208925 -0.5038267
000050 eb 31 61 be 1e 4b 97 bd a2 2c 89 be 0d 31 4f 3d
       -0.21991698 -0.07387374 -0.26791865 0.050583888
000060 75 1c d4 bd 46 90 a8 bd 38 50 d1 3c ca d4 5f be
       -0.1035699 -0.08230643 0.025550947 -0.21858516
000070 47 2b 91 be 0f 90 51 3e f1 85 bc bc 03 dd 50 3d
       -0.2835333 0.2046511 -0.023013087 0.050992023
000080 45 61 06 bd 8e 4b 8c 3d 65 67 58 3b 03 be 75 bd
       -0.032807607 0.068503484 0.0033020612 -0.059995662
000090 9c cd 8f be 5d 2e 92 be 20 fd 03 bd f8 6b 0d be
       -0.28086555 -0.28550997 -0.03222382 -0.13810718
0000a0 9b 77 05 bc 5d 3e 15 bd cd 2d 9e 3c 66 d8 43 3d
       -0.008146192 -0.036436427 0.019308949 0.047813796
0000b0 95 0c 61 be a4 a8 33 be 8b e4 c6 3d dd 2e 08 3e
       -0.21977456 -0.175448 0.0971156 0.13299127
0000c0 1f ea 89 be e9 fe 4f 3e 55 93 38 3e fb 67 90 be
       -0.26936433 0.20312084 0.18024953 -0.2820433
0000d0 08 ef 03 3e 89 06 5d be b7 49 7d bc e2 e4 a4 3d
       0.12884152 -0.21584524 -0.0154594695 0.080514684
0000e0 a6 98 b4 be 91 0c 19 3c 00 be 2e 3e 81 cf 0e be
       -0.35272712 0.009341375 0.17064667 -0.13946344
0000f0 a8 35 6e 3e 3c 0f 17 3d 6e 41 30 be 07 4c a7 3d
       0.23262656 0.036879763 -0.1721246 0.08168798
000100 a6 c5 1f 3d 65 41 20 bd 8c 62 0a be bd 20 30 be
       0.03900685 -0.039124865 -0.13514155 -0.17199989
000110 f6 8f e7 bd 3f 44 4f 3c 10 5b 89 bd 14 d5 14 3e
       -0.11306755 0.0126505485 -0.06706822 0.14534408
000120 1d 9d 82 be 2c cd 03 be 17 7f 85 3e 2d 13 a1 be
       -0.25510493 -0.12871236 0.26073524 -0.31459942
000130 f3 d5 b0 3d 75 cc 7e bd 08 cd 3f 3d 5d e9 24 be
       0.086345576 -0.062206704 0.046826392 -0.16104646
000140 98 b3 80 3d 1a 87 7c bd 8f fa d3 bd eb c5 4a bd
       0.06284255 -0.06165228 -0.10350525 -0.049505156
000150 d9 35 1c 3e b5 fb 37 be 27 b8 8e 3d a3 75 f7 bd
       0.15254916 -0.17967112 0.06968718 -0.12082984
000160 83 09 fd bd d6 0c 3e be c5 b9 4c be 1d 24 86 3d
       -0.1235533 -0.18559584 -0.1999274 0.06549857
000170 07 9c 05 bd 94 7a 56 be aa cb b1 bc 1b ff 54 be
       -0.032619502 -0.20945197 -0.02170356 -0.2080044
000180 fb 8b 38 3d 9b 81 94 be 72 67 8b 3e 3c eb 86 3e
       0.04505537 -0.2900513 0.2722736 0.26351345
000190 ee a5 19 3e fe c3 81 be 20 aa 5e 3c af f7 bf 3e
       0.15004703 -0.25344843 0.013590366 0.37493655
0001a0 59 ce e5 bd 37 d8 32 3e da b4 c0 3c 68 d2 27 3e
       -0.11220998 0.17465292 0.023523737 0.16388857
0001b0 e0 46 ed 3d 1e 5d 99 be ed d7 78 be cc d7 3c 3e
       0.11585784 -0.29953855 -0.24301119 0.18441695
0001c0 ab 1b 41 3e c7 6f e6 3e 82 04 e0 3b b9 4a 0d bf
       0.1885821 0.45007154 0.006836475 -0.5519214
0001d0 9b d6 75 3c 76 f6 31 3b 75 d6 34 3e da bb 8a 3c
       0.015004779 0.0027154959 0.17659934 0.016935278
0001e0 c7 2d 3f be f3 d4 a2 be 6a d3 ba be a2 b1 2d 3e
       -0.18669806 -0.31803092 -0.3648942 0.16962293
0001f0 ee 3d ba bd e1 a3 8c 3d ac f9 80 3e 6c 3b b4 3e
       -0.090938434 0.06867195 0.25190485 0.35201585
000200 79 80 cb 3e c9 4c c3 3e f4 0e 3b 3d 4b fa 46 be
       0.39746454 0.3814452 0.045668557 -0.19431417
000210 45 ce 01 be 57 8e e2 bd 73 7d 9f 3e c2 e2 ba 3d
       -0.12676342 -0.110623054 0.31150398 0.09125282
000220 d7 05 96 be 79 bd 60 be fc 5d e2 be 39 1e 14 3e
       -0.2930133 -0.21947278 -0.4421233 0.14464654
000230 2b b4 5e 3e 9b 02 3f bd aa 3e de bc 02 58 07 bf
       0.21748416 -0.046633344 -0.02712949 -0.52868664
000240 19 ab a5 3e bd a8 6b 3e 0e 74 3e 3e 6b f5 30 3e
       0.323571 0.23013587 0.18598959 0.1728112
000250 20 72 95 bd 35 52 d9 3d 05 89 89 3e f8 d4 80 be
       -0.07297158 0.10611383 0.2686235 -0.25162482
000260 92 db 59 3e 40 0a db 3d de cd 67 bd aa 7d 89 3e
       0.21275166 0.106953144 -0.056592815 0.26853687
000270 d5 8f de bb 0f d5 a8 bd 2b 16 4b be 83 50 69 3e
       -0.0067920485 -0.08243763 -0.19832675 0.22784619
000280 a5 fc ca be c7 ac ba 3c 82 e8 c2 3e 77 d4 6b be
       -0.39645877 0.022787465 0.38068014 -0.23030268
000290 74 d8 e8 3d a4 9c 6b 3e aa e5 4b 3e 06 ef 25 3e
       0.1136941 0.23008972 0.19911829 0.16204461
0002a0 a5 6d 67 3d e8 74 a7 bd 9b cc 90 3e 51 59 62 3e
       0.05650105 -0.08176595 0.28281102 0.22104384
0002b0 0f 2d 71 3e b7 9c 26 bd 61 bb 06 3e f5 3b 42 3e
       0.23552345 -0.0406768 0.13157417 0.18968184
0002c0 95 ed 48 3e 5e 1b 44 be 2d 34 58 be 42 06 c2 3e
       0.1962188 -0.19151065 -0.21113653 0.378954
0002d0 b3 ee 5f bd b3 63 f3 3b 57 46 07 3e 77 3e ad bd
       -0.054671 0.0074276566 0.13210426 -0.0845918
0002e0 c3 78 63 be ff a2 94 3e af 39 82 3e 45 95 95 bd
       -0.22214036 0.29030606 0.25434634 -0.073038615
0002f0 90 cb 2d 3b 64 97 05 bd b5 08 4a 3e 01 cc ff bd
       0.0026519038 -0.03261508 0.19729884 -0.124900825
000300 02 d4 c9 bc c2 01 03 bc aa 3c 06 3e 8c 47 aa 3e
       -0.024637226 -0.007996025 0.13109079 0.3325771
000310 61 09 91 3e 88 7c c2 bd b7 e5 0f bd 73 1b f3 3d
       0.28327468 -0.09496409 -0.035131183 0.1187047
000320 fd 2c 69 3d 49 ca 8f bd 5e 0c 6e be cc a8 53 3e
       0.05692767 -0.07021005 -0.23246905 0.2066986
000330 91 c8 5d 3e 7c 9d 5b 3e 67 e1 1e bd 93 32 17 3f
       0.21658541 0.21446794 -0.03878918 0.59061545
000340 97 e9 2d 3e 03 f1 21 3e 15 c3 9f 3e ec 9d a0 3d
       0.16983639 0.15814595 0.31203523 0.07842621
000350 e4 52 67 bd 02 93 6f be 39 17 4a 3e 4f b2 60 3d
       -0.056475535 -0.23395923 0.19735421 0.05485755
000360 83 fe bb bd 0d d9 3c 3d bd 67 d6 3e a9 d1 1a bf
       -0.09179404 0.046105433 0.4187602 -0.60476166
000370 75 7a 3f be cc f1 01 3e 0d ed 3d bd 16 08 6c bd
       -0.18699057 0.12689894 -0.046368647 -0.0576249
000380 4c 6b 55 3d d8 11 47 be 7f ca 9a 3d 6a e8 82 bd
       0.05210428 -0.194404 0.07558154 -0.06391986
000390 a5 70 71 3e 24 cd a8 3c 37 f6 2d be 00 a4 f7 be
       0.23578127 0.020605631 -0.16988455 -0.4836731
0003a0 4e 89 1c 3e 91 6b ce 3d 47 b0 7b 3e be 59 ee 3e
       0.15286753 0.100791104 0.24578963 0.46552843
0003b0 e0 c5 0b 3e a7 42 68 3e 30 be 80 3e 9e ec 20 bd
       0.13649702 0.22681676 0.25145102 -0.039288156
0003c0 2c 4f 81 be 37 23 c5 bd 51 b1 91 3d 28 ef 93 3d
       -0.25255716 -0.09625857 0.071138985 0.0722335
0003d0 b6 08 0f be 03 cd d3 3d 70 c8 66 3e 9d ff 04 be
       -0.13968167 0.10341837 0.22537398 -0.12988134
0003e0 d3 7d 2b 3e a1 0f 36 be f3 d0 06 3f 4d 2c 26 be
       0.16747217 -0.177794 0.5266258 -0.16227837
0003f0 35 ed 1e be d4 c6 d3 bd 97 53 07 be 60 cd 74 3e
       -0.15520175 -0.10340658 -0.1321548 0.2390647

fc.weight f4 [7, 128]
000000 a3 30 bf bd f1 6e c0 3d 46 65 63 be 1d 6c a2 3e
       -0.093354486 0.093961604 -0.22206602 0.3172311
000010 d7 27 b9 3d 26 70 1a 3e 61 04 bd bd 86 03 0e be
       0.09040802 0.15081844 -0.09229351 -0.13868532
000020 e8 80 ef 3d ea 3d 48 bd cf 4f 89 bc 4e 9a 63 bc
       0.11694509 -0.04888717 -0.016761689 -0.01389177
000030 4d fb 39 be e3 ac 81 bd 40 62 9d bc 49 17 f5 3d
       -0.1816227 -0.06331804 -0.019211888 0.11967332
000040 43 dd 46 3e 3d 6b 6c bb e9 1b 42 be a2 2e 7d 3e
       0.19420342 -0.0036074661 -0.1895596 0.2472482
000050 46 3a 0c bd 70 f8 2e 3e b1 2b e0 3d 7a fa 53 be
       -0.03423526 0.17086959 0.109458335 -0.20701018
000060 5c ba f1 bd e6 ec 1f 3d 7f 72 27 3b e6 a8 b7 bc
       -0.11803123 0.039044283 0.0025550423 -0.022419404
000070 60 95 44 bc 84 ec cc bd 40 ff 4c bd 1e 42 42 bd
       -0.011998504 -0.10006049 -0.050048113 -0.047426336
000080 5c e5 e2 bd 9d 85 e3 3d 44 a8 69 bd c4 17 a3 bc
       -0.11078903 0.11109469 -0.057045236 -0.019908793
000090 4b 44 53 be 8d 75 31 be bc 3b 47 bd ee 2f b0 3d
       -0.2063152 -0.17329998 -0.04864095 0.08602892
0000a0 62 bf 8f bc c9 b7 81 3d 16 9f bb 3e d2 9e 32 3e
       -0.017547313 0.06333882 0.3664481 0.17443398
0000b0 01 86 d2 bd 03 b9 24 be 78 30 ec ba 2f 80 89 3d
       -0.102794655 -0.16086201 -0.0018019816 0.06713902
0000c0 a2 de 84 be 1e 35 af 3c a3 56 cc 3d 26 05 23 be
       -0.25951105 0.021387633 0.09977462 -0.15919933
0000d0 7d 42 22 3e 1a c5 66 3e 15 df 35 be 82 e0 85 bd
       0.15845676 0.22536126 -0.1776088 -0.06536962
0000e0 ce d1 4e bd 41 5a 1b be 74 e2 db bd a4 6e 9f 3c
       -0.050493054 -0.15171148 -0.10736552 0.019461937
0000f0 7f 84 0f be 9f 79 4e be 83 21 85 3e b2 19 15 3e
       -0.14015387 -0.20163582 0.2600213 0.14560583
000100 35 2a 3c bd fc 67 80 3e 39 32 5e 3e f0 6b 43 3c
       -0.04593869 0.25079334 0.21698846 0.01192759
000110 80 78 00 be b3 81 71 3d 24 a3 25 3d 0d 2e a2 bd
       -0.12545967 0.05896158 0.040438786 -0.0791894
000120 33 08 e8 3c b8 83 1d 3d b1 ea 42 3e 04 74 71 3d
       0.028324222 0.038455695 0.1903484 0.05894853
000130 fe e9 29 3e 34 63 9c bd 2b 89 16 3e cc ca 88 bd
       0.16593167 -0.07636109 0.14700763 -0.066793054
000140 2d 91 0a bd a1 ee 43 be a4 ee 4d bb 11 29 6f bb
       -0.033829857 -0.19133998 -0.0031422758 -0.0036492983
000150 a8 09 2a 3c bc 9d 14 be a5 8f 4b be 08 8c 36 3d
       0.010378279 -0.14513296 -0.19879015 0.044567138
000160 34 98 89 bd 38 05 4d 3b ff da 0d bd 13 19 91 bd
       -0.067184836 0.0031283628 -0.03463268 -0.07084861
000170 f8 f9 73 3e 8b 33 8e 3d 94 e6 31 be ce e1 2a 3c
       0.23825824 0.06943425 -0.17373115 0.010429813
000180 8a 8a 58 3e 09 0f 0e be 39 5c 47 3e 3f b5 4c 3e
       0.21146598 -0.13872923 0.19468774 0.19991015
000190 10 d8 68 be 37 0a ac 3d c6 59 18 3e 3b 4b db bd
       -0.22738671 0.08400386 0.14877996 -0.107077084
0001a0 9f 2a 00 3e bc 75 72 be ee 95 1d 3e 76 27 53 be
       0.12516259 -0.23677725 0.15389225 -0.20620522
0001b0 fe 2b e1 bd 59 fd 8c 3e e2 5e 8e 3d 27 2f 21 3e
       -0.10994719 0.2753704 0.06951691 0.15740643
0001c0 33 8f 7d 3c 5d cf 28 be ef b3 03 bd 9e 52 e6 3c
       0.015476036 -0.16485353 -0.03215402 0.028115567
0001d0 5a bb 12 bd fc 45 35 be 7e fe 3a be 9b 53 b6 be
       -0.035823204 -0.17702478 -0.18261144 -0.3561066
0001e0 cd f8 57 bd e4 3b 1c 3e d5 0a 3c bd 14 16 de be
       -0.05272751 0.15257221 -0.045908768 -0.4337622
0001f0 3f 7f 2f bd 47 bb b6 be 59 7d 23 3d af 64 17 3e
       -0.04284596 -0.35689756 0.039914463 0.14784501
000200 f1 8a 2f 3e d0 5a 19 be a0 a5 de bd 6a c9 b0 3a
       0.17142846 -0.14976048 -0.10871434 0.001348776
000210 aa 7c 95 be 6a 73 85 3e 7d 39 6a be d9 0a 85 3d
       -0.29196674 0.26064616 -0.22873493 0.0649621
000220 7a 68 55 3d d1 f5 1e bd b4 5f 43 be ef e0 0a be
       0.05210159 -0.038808648 -0.19079477 -0.13562368
000230 99 78 8c 3d 16 f0 74 be 7e 54 02 3e 3b 02 48 3e
       0.0685894 -0.2391971 0.12727544 0.19532101
000240 5f d4 83 bb ce c7 89 3d ef 94 d5 be 35 f5 08 be
       -0.0040231193 0.06727563 -0.4171519 -0.13374789
000250 45 03 b1 3d 22 fd a7 3b 92 1f d9 bc a8 77 d1 bd
       0.08643202 0.0051266113 -0.026504312 -0.10227901
000260 f9 f9 50 3c da 6b 1b 3e cf 42 1e 3d 74 87 63 3e
       0.012754911 0.15177861 0.038637932 0.2221964
000270 3b 23 25 3e 18 1e 82 3e c8 38 f3 bd c7 9d b1 be
       0.1612672 0.25413585 -0.118760645 -0.34690687
000280 87 2b 15 be ee 30 16 be 1e 17 1f 3e ee ba b8 be
       -0.14567386 -0.14667103 0.15536162 -0.36080116
000290 52 b0 d7 3d f8 df c6 3d c9 21 a2 3d d1 16 85 3d
       0.10531677 0.097106874 0.079166 0.064984925
0002a0 2a 68 09 3e 63 ad d0 bd ee 44 08 be fa ae e6 bd
       0.13418642 -0.10189321 -0.13307545 -0.11263843
0002b0 63 b0 eb 3c 18 9d 29 3e 4d 8f e4 3e 79 74 fa 3d
       0.028770631 0.16563833 0.4464058 0.12229247
0002c0 5d c9 a8 bc 86 8f d6 3e e1 4c 21 be df b0 19 bd
       -0.02060383 0.41906375 -0.15751983 -0.037522193
0002d0 ae e9 0a be 3b 2b c7 3c f5 21 22 be ad 1f 3a bd
       -0.13565704 0.024312606 -0.15833266 -0.045440365
0002e0 d4 18 81 be 33 df 96 3d da 14 b4 bd a9 0b 44 be
       -0.25214255 0.073667906 -0.087930396 -0.19145073
0002f0 93 2b 87 3e 0f 45 f5 3d 8e c1 43 3d 24 13 9b 3e
       0.26400432 0.119760625 0.04779201 0.3028804
000300 cd 69 fa 3d 74 c9 32 3e ce 94 46 be 44 f9 66 bd
       0.12227211 0.17459661 -0.19392702 -0.056390062
000310 f0 c7 e0 bc 8a ff 52 be 0b 15 f0 3d 33 65 01 be
       -0.027439088 -0.20605293 0.11722764 -0.1263626
000320 3a 8d d2 bd 25 d4 fe bb bf bb 72 3d 3d e5 17 3c
       -0.10280843 -0.0077767544 0.05926108 0.009270963
000330 40 f7 72 be 67 06 ba bd a4 ed 14 3e aa 0b 73 bc
       -0.23727131 -0.090832524 0.14543778 -0.014834324
000340 ce db 1f bc 44 63 87 3e 4e da 09 bd 54 51 9b bd
       -0.009756995 0.2644292 -0.033655457 -0.075838715
000350 f0 91 90 3e bf e4 a4 bc c9 47 c0 3d 20 a7 fb bd
       0.2823634 -0.020128606 0.09388692 -0.12287736
000360 30 e5 cc 3d a8 c1 12 be 27 58 59 bd 41 cf d2 3d
       0.100046515 -0.14331686 -0.053062584 0.10293437
000370 11 cf 27 be bf db b3 bd df 19 9e bd 4a 16 94 bd
       -0.16387583 -0.087821476 -0.07719778 -0.07230814
000380 3f a9 4a bd ce a4 86 bc e7 ba 76 3e 51 30 65 3e
       -0.049477812 -0.016436007 0.24094735 0.22381712
000390 f3 b5 62 3e a7 9e 8d bd d5 55 22 be 37 93 55 bd
       0.2213972 -0.06915026 -0.15853055 -0.05214235
0003a0 b7 5b d3 bd b1 71 82 3d 11 da dc bc ec 8b 12 3e
       -0.103202276 0.06369341 -0.02695945 0.14311188
0003b0 82 37 2f be c3 52 3d be fe 3f 02 3e 02 dc 19 3e
       -0.17111018 -0.18488602 0.12719724 0.15025333
0003c0 dc c1 c7 3d 91 8a 2d 3e 1e e5 a7 3d a8 2f ab 3c
       0.097537726 0.1694739 0.081979975 0.020896748
0003d0 57 e6 96 3e ce 7c 12 3e 02 4e 20 be bb a8 1e 3e
       0.2947261 0.14305422 -0.15654758 0.15494053
0003e0 16 61 8d 3d 37 13 6e be 1e 85 f3 3c 12 d9 a2 3e
       0.06903283 -0.23249517 0.029726561 0.31806237
0003f0 f3 64 23 3c 70 de 06 3e ce a2 8a be 76 e3 8f bd
       0.009972799 0.1317079 -0.27077335 -0.070258066

fc.bias f4 [7]
000000 1d 2a 02 3e 97 37 24 3c c9 55 9c be 07 b2 ef bd
       0.12711377 0.010023019 -0.305342 -0.11703878
000010 ec 01 2d be 4d fd d1 3d c7 71 67 3e
       -0.16895264 0.102533914 0.22601996
